models/apollo_ddqn_seed999_best.pth (torch, 409851 bytes, 8 tensors)

fc1.weight f4 [256, 8]
000000 c7 75 cb 3d 27 59 83 3f 14 5b ce be 07 45 cf 3e
       0.099345736 1.0261582 -0.40303862 0.4048235
000010 9b d7 c6 bb ca 97 da 3e 7e 23 3b 3e c0 8a a9 be
       -0.0060681826 0.4269393 0.18275258 -0.3311367
000020 24 25 80 be 9c d8 0f 3f 79 5a 91 be 79 ea b5 be
       -0.25028336 0.56189895 -0.28389338 -0.3553045
000030 7f cd 10 be 1c 2e 83 3e f3 0e 99 3e c0 83 a3 be
       -0.1414089 0.25621116 0.29894218 -0.31936455
000040 e5 fd 1b 3e 4b de 3b bf 20 68 b7 bc 01 ca 2d be
       0.15233572 -0.7338607 -0.022388518 -0.1697159
000050 46 e5 48 be c3 13 94 3e fe 1a 3f 3e 0e b9 20 3e
       -0.19618711 0.28921327 0.1866264 0.15695593
000060 4b 67 39 3e f6 ae 49 bf 0e fe 80 3e ce 37 28 be
       0.1810581 -0.78782594 0.25193828 -0.16427538
000070 4f e6 92 be 22 c5 c8 bc 80 6e 11 3d bf ad a8 be
       -0.28691337 -0.024508063 0.03550577 -0.32945058
000080 a9 9c 8b 3e 07 e0 63 bf 99 c7 4a 3e 8a d9 21 be
       0.2726796 -0.89013714 0.19802703 -0.15805641
000090 75 cb 80 3d 9d 09 0d bd d3 be 1d be a6 cc 63 3e
       0.06288806 -0.034432996 -0.15404825 0.22246036
0000a0 35 46 a8 3d c2 3a d4 3f 22 fe af bc 16 b6 4c 3c
       0.08216516 1.6580431 -0.021483485 0.012494585
0000b0 b0 e1 a4 bc 73 4c eb 3d 18 30 38 3d 94 2a 83 bd
       -0.020127147 0.11489191 0.04496774 -0.064046055
0000c0 6b 74 11 bf 0e d8 44 3f c2 74 7b 3e df d2 87 3e
       -0.56818265 0.76892173 0.24556258 0.2652807
0000d0 f7 66 bb be c0 ff d2 3c ba 51 58 3e 62 68 07 3e
       -0.36601993 0.025756717 0.21124926 0.13223413
0000e0 ec 27 8d 3c 13 b0 30 3f 1a c4 95 be 0e aa d7 be
       0.01723095 0.6901867 -0.29251176 -0.4212193
0000f0 97 5b 80 be 1b 17 57 3e 24 7e 78 be 0f 66 8e 3e
       -0.25069878 0.21004908 -0.24266869 0.2781224
000100 98 4c af bd 32 5d 66 bf 1f f7 71 be 81 c2 37 3e
       -0.08559531 -0.89985955 -0.23629425 0.17945291
000110 65 2d 71 3e 4f 55 fa bd da 27 1a be 31 34 a2 3e
       0.23552473 -0.122233026 -0.15054265 0.31680444
000120 05 1f 50 be 43 58 34 3f 31 d5 8f 3e a7 05 4f 3e
       -0.20324333 0.70447177 0.2809234 0.20217
000130 d5 3a f5 bd ca 15 9a be 00 d5 bb bd f2 63 77 3e
       -0.11974112 -0.3009475 -0.09171486 0.2415922
000140 97 52 87 be de 00 70 bf 2f 8d 08 3f d6 ae f0 3c
       -0.264302 -0.93751323 0.5334043 0.029380243
000150 a8 f5 34 be 6f 4c df 3d e2 ec 7c 3e a9 22 82 3e
       -0.17671835 0.109032504 0.24699739 0.2541707
000160 83 c0 90 3d 49 ff 67 bf d6 80 c4 3e 28 e0 52 be
       0.07067969 -0.9062391 0.38379544 -0.20593321
000170 db f8 8d 3e bd 88 0c be a8 c5 ec bd 82 fe 85 be
       0.27728924 -0.13724037 -0.115611374 -0.26170737
000180 37 c7 80 3e ba 48 6f bf 12 8c ed be fa 41 85 be
       0.2515199 -0.93470347 -0.46395928 -0.260269
000190 27 c1 a8 3d c7 33 d2 be 56 d4 33 3e 78 12 eb 3d
       0.08239966 -0.41055128 0.17561468 0.11478132
0001a0 56 49 6a 3e 6f f3 72 bf a6 46 aa 3d 6f 77 90 be
       0.22879538 -0.949027 0.08314256 -0.2821612
0001b0 4c 42 35 be 5a 0f 67 3e 38 23 41 3d c0 a3 a8 bb
       -0.17701072 0.2256445 0.047152728 -0.0051464736
0001c0 97 91 d2 3e e8 35 7a bf f6 9b 45 be 2f 64 b5 be
       0.411267 -0.97738504 -0.19297776 -0.35427997
0001d0 e8 30 33 3e bb 5b bf 3d aa 63 23 be aa 41 73 be
       0.17499125 0.09343668 -0.15955988 -0.23755518
0001e0 7c 0d a3 bd 69 8c 6d bf 81 2e f0 3e 01 a0 e4 bd
       -0.07961556 -0.92792374 0.4691048 -0.11163331
0001f0 f1 03 b0 bb 88 af 28 3d 14 01 80 bd 20 1a e9 3d
       -0.0053715636 0.041183025 -0.06250206 0.11381936
000200 0f 9d 74 3c 0f a7 24 bf ab 54 81 3e 1a a0 45 be
       0.014930024 -0.6431741 0.2525991 -0.19299355
000210 41 55 78 3e 53 88 ed 3c d0 db bc bd 90 ef a4 be
       0.24251272 0.028995669 -0.092216134 -0.32214022
000220 71 10 9c be 38 90 73 bf e2 9a 02 be 45 23 75 be
       -0.30481294 -0.95141935 -0.12754396 -0.23939236
000230 f6 59 98 3e 50 64 94 3e da 82 2e 3e 64 f0 88 be
       0.29756135 0.28982782 0.17042103 -0.26745903
000240 a1 38 85 3e 9f dc 6b bf 7d 6f 32 3e b6 0e 9d 3e
       0.26019767 -0.92133516 0.17425342 0.30675286
000250 19 97 8c be a1 34 a2 3e a8 1c 6f bd b4 e6 c7 bd
       -0.27459028 0.31680778 -0.058376938 -0.097608
000260 4f ee c3 3c e7 0e de 3e 92 29 78 3c 7e 02 f6 be
       0.023917345 0.43370745 0.01514663 -0.48048776
000270 2d 19 0b be fa 57 25 bc 4a d3 3b 3e 48 29 5e be
       -0.13583823 -0.010091776 0.18342319 -0.21695435
000280 64 73 eb 3d f3 4f e7 3d 6f e1 a4 be 43 12 7e be
       0.114966184 0.11294546 -0.32203242 -0.24811654
000290 d0 23 97 bd 36 2f a9 bd 53 8d 88 3e 86 18 7a 3e
       -0.073798776 -0.08260958 0.26670322 0.24423417
0002a0 70 be 1b be 70 ab 52 bf 91 4b 15 3e 16 36 c8 3e
       -0.15209365 -0.8229284 0.14579608 0.39103764
0002b0 f3 eb b1 be b9 f9 0c 3f 00 28 76 3c a2 71 48 be
       -0.34750327 0.55068547 0.015024185 -0.19574597
0002c0 b0 75 84 3d 2f 14 87 3f c8 4b cb be 4e 1e de 3e
       0.064677596 1.0553035 -0.39706254 0.43382496
0002d0 d8 76 ad be 83 ef 9d 3e 62 00 18 be 82 79 67 3e
       -0.33879733 0.30846795 -0.14843896 0.22604945
0002e0 b1 ca 97 be 55 96 35 3f dd 6e 54 3e 1c 13 08 3f
       -0.2964683 0.70932513 0.20745416 0.5315416
0002f0 8e 5c 16 be af 57 40 3e fc b2 fa 3d b0 05 b0 bc
       -0.14683744 0.18783449 0.1224117 -0.021487087
000300 d2 88 64 be 3a 32 53 bf cf 26 81 3d 74 b8 67 be
       -0.22317818 -0.82498515 0.0630623 -0.22628957
000310 df cc a1 be 6c d1 a1 3e 18 85 09 bd 62 6a 6f 3e
       -0.31601617 0.3160509 -0.033574194 0.23380426
000320 80 f6 b4 be 48 59 7a 3d 2e b6 7d be 46 ef 3d be
       -0.35344315 0.0611203 -0.24776527 -0.18548307
000330 96 1c c1 3e 76 21 60 3e 21 71 69 be b2 2d 27 3e
       0.37717122 0.21887764 -0.22797062 0.16326025
000340 d7 87 3e 3e ff 77 70 bf ef d2 42 be 3b 9d 90 bd
       0.18606506 -0.939331 -0.19025777 -0.07061239
000350 a0 70 e9 bd 4a dc 8a 3e 3d a3 b0 3e f6 5a e1 bd
       -0.11398435 0.27121192 0.3449954 -0.110036775
000360 e4 fa 19 bf 11 11 ad 3f be 86 f3 3c 0c 65 44 3e
       -0.60148454 1.3520833 0.029727336 0.19179171
000370 c7 92 81 bc 67 03 2a 3e 70 45 c9 bd 18 74 1f 3d
       -0.01581706 0.1660286 -0.09827697 0.038929075
000380 70 3f 6a be 2e 3d ac 3e 50 61 c2 bd cc 04 d2 be
       -0.22875762 0.33640426 -0.09491217 -0.41019285
000390 8a 9e fd 3b 97 d7 05 be 72 a5 70 3e 8c a3 8c be
       0.0077398466 -0.13070522 0.23500612 -0.27468526
0003a0 a5 77 b7 3e 23 6f a6 be 3f 24 76 3e fa 00 81 be
       0.3583347 -0.32506666 0.24037264 -0.25196058
0003b0 9c c2 08 3e 3f d5 26 bd f8 eb 14 bd e0 a3 34 bc
       0.13355488 -0.04073071 -0.03635785 -0.011025399
0003c0 2c dd 82 be 00 84 e2 3e 51 81 92 bc 37 44 f0 3e
       -0.25559366 0.44241333 -0.017883928 0.46927044
0003d0 5e e1 72 be 84 bb ba bd a0 82 51 3c 39 01 ad be
       -0.23718783 -0.09117797 0.012787491 -0.33789995
0003e0 c1 65 a6 bd 8c 37 4b bf ef ce 47 3e 71 e9 6a 3e
       -0.08124877 -0.7938163 0.19512533 0.22940613
0003f0 ba 95 a7 be 98 87 b6 3e 3e ed 7b 3e 18 d4 3a 3d
       -0.3273142 0.35650325 0.2460222 0.045612425

fc1.bias f4 [256]
000000 46 7d 32 3e fc da 50 3e 2d 2a 9f be 39 51 10 3d
       0.174306 0.20396036 -0.31086865 0.03523371
000010 f8 d0 d8 3e 0a b2 89 be 28 fb 82 be 2a 4f 22 3e
       0.4234693 -0.26893646 -0.25582242 0.15850511
000020 af a0 b5 3e 0b 05 8c be 27 b5 60 3e 5a 4e 8b 3d
       0.35474154 -0.27347597 0.21944104 0.06802054
000030 3a d2 ac 3e 0c 77 e5 3e 74 5c 6b 3e eb ef c9 3e
       0.3375414 0.44817388 0.22984487 0.39440855
000040 08 7e c2 3e 8e ad 0d 3d 63 70 e3 3c b7 60 01 3d
       0.3798678 0.034589343 0.027763551 0.031586375
000050 34 51 02 3e 68 33 9e 3b bc 2f 3e be fa e8 9b 3d
       0.12726289 0.0048279054 -0.18572897 0.07612796
000060 46 2d f1 3d a3 5a 9d be 79 89 bc 3e b7 af b1 bc
       0.11776213 -0.30733213 0.36823633 -0.021690233
000070 5b ad 98 bd 3d f1 0f 3f 07 9e 0f be 47 99 9c 3e
       -0.0745494 0.56227475 -0.14025126 0.3058569
000080 7f 26 d9 3e f2 c8 8c 3e 29 5b 41 3d 6a ef bd be
       0.42412183 0.2749706 0.047206078 -0.3709672
000090 4a 2a 05 3f 94 96 d4 3e 7c 50 a0 be cc d6 5b be
       0.52017653 0.41521132 -0.31311405 -0.21468657
0000a0 ad e0 61 be a9 29 c8 be f8 63 79 be d7 c6 56 3e
       -0.22058363 -0.39094284 -0.24354541 0.20974289
0000b0 29 f4 69 be c4 07 06 be eb 55 b8 3d 2f 4d e1 bd
       -0.22847046 -0.130889 0.090007626 -0.1100105
0000c0 74 56 d9 3e 88 b7 c4 3e 15 82 95 bd ca 6b 5c be
       0.4244877 0.38421273 -0.07300202 -0.21525493
0000d0 b5 3f 81 bd 6d 69 79 3e af 33 5e 3e 7c c5 ac be
       -0.06310979 0.24356623 0.21699403 -0.3374442
0000e0 36 22 e0 3e 62 85 ca 3e 59 27 8d be bb 5c 94 be
       0.437761 0.39554888 -0.27569082 -0.28976998
0000f0 d8 f1 e0 3d d1 49 ce 3d 9f 74 17 3e a3 22 93 be
       0.10983628 0.10072673 0.14790581 -0.28737363
000100 99 3b 82 3e 59 86 b8 bd 01 bd d0 bd 0a 54 8f be
       0.25436094 -0.0901 -0.101923 -0.27993804
000110 2b cc 90 be e8 5c 85 3e d2 98 65 bc 86 2c ae 3e
       -0.28280768 0.26047444 -0.014013486 0.34018344
000120 56 ff b4 bd 66 65 f6 3e 52 d1 a9 be 14 6a 1e 3e
       -0.08837764 0.48124236 -0.3316751 0.15470153
000130 bf cb 96 be dd 8f 3b 3e 78 2f 5d be d7 a7 e6 bd
       -0.2945232 0.18316598 -0.21600139 -0.11262482
000140 2e 39 e4 3d b2 7c ae 3d 48 51 ae 3e 73 4f a8 be
       0.11143719 0.085198775 0.34046388 -0.32873115
000150 3f 3c 26 be f0 c7 dd bd c0 0e f5 3e bd cb 4a bd
       -0.1623392 -0.10829151 0.47862816 -0.049510706
000160 de 42 c6 3e 15 1c 17 3e b0 e8 b1 bd a0 b7 28 be
       0.3872289 0.14756806 -0.0868696 -0.16476297
000170 e7 df e9 bc 3d db 77 be cc fa c7 be 21 ec f6 3e
       -0.028549148 -0.24204727 -0.3905853 0.48227027
000180 97 19 bc bd 8d 6f d8 be 37 ef 13 3e 19 16 20 bd
       -0.091845684 -0.42272606 0.14446722 -0.039083574
000190 01 eb 03 3f bd 08 0a be 43 01 51 bd 10 0a ee 3e
       0.5153046 -0.13479896 -0.051026594 0.46492052
0001a0 9a e2 ae 3e 4f bc 80 be 0b 2d 0a 3e b6 2d a7 3e
       0.34157258 -0.25143668 0.13493745 0.32652062
0001b0 12 04 de 3e b6 0e 0b bf 8e c9 a7 3e 35 0c 88 bc
       0.4336248 -0.5431932 0.32770962 -0.016607383
0001c0 5f ed 12 3f 12 bb c1 3e ec 99 f8 be cc 96 b8 be
       0.5739345 0.37838036 -0.48554933 -0.3605255
0001d0 d1 94 60 3e 23 63 2f 3e 5d 4f 7d 3e 01 90 93 bd
       0.21931769 0.17127661 0.24737306 -0.07205201
0001e0 db 57 81 3d 2f 5e 2e be 85 6a cb be 49 aa 84 3e
       0.06315585 -0.17028116 -0.39729705 0.25911167
0001f0 b7 64 38 3e 7c 8e 9f 3e af 18 b7 be de d5 ad be
       0.1800717 0.31163394 -0.3576102 -0.3395223
000200 37 93 a7 be c1 02 7e 3e cd 38 31 3e 45 90 a6 bd
       -0.32729504 0.24805738 0.17306824 -0.08132986
000210 51 68 b5 bd d2 17 4d be a9 f4 9a 3d d2 a4 ac bc
       -0.088577874 -0.20028618 0.075661965 -0.021074686
000220 75 c1 4d 3e 65 b7 ab be cd 0c 87 bd cc fb 16 be
       0.20093329 -0.33538356 -0.065942384 -0.1474449
000230 1f 20 b2 be 04 08 1f be 1c c6 bc 3c b4 29 d0 bc
       -0.3479013 -0.15530401 0.023043685 -0.02541051
000240 88 2b 0d 3f 79 0b ac be 54 8d 22 be 5e f4 18 be
       0.5514455 -0.33602503 -0.15874225 -0.14936969
000250 14 d7 40 be 21 82 85 3e dd fd 12 be 98 2d e1 3e
       -0.18832046 0.26075843 -0.14354654 0.43980098
000260 ff 4e 16 bd 28 d9 a5 be b7 d8 6f 3e bc 9d 1d be
       -0.03669643 -0.3239224 0.23422514 -0.15392202
000270 8c be 49 3e 1c 53 55 3e 3b 74 62 3e aa aa be 3d
       0.19701594 0.20832485 0.22114651 0.09309895
000280 e5 92 d8 3d 39 8f 02 be cf bf e2 bd 41 be 5c be
       0.10574893 -0.12749948 -0.11071741 -0.21556951
000290 f4 80 3e 3d 1f ae a0 3e 06 3c 55 be 94 3b d9 3e
       0.046509698 0.31382844 -0.20823678 0.42428267
0002a0 d6 7d 95 be 58 94 f9 3e 6f 6a ab 3e 55 00 49 be
       -0.29197568 0.4874599 0.3347964 -0.19629033
0002b0 c8 b9 11 be da 53 bd be f2 bc b5 3e 3b 0c d9 bd
       -0.14231026 -0.36978036 0.35495716 -0.10598036
0002c0 47 3b ba be 38 51 83 be 20 fa dd bd 82 bc a7 3e
       -0.3637335 -0.25647902 -0.10838723 0.32761008
0002d0 d1 95 88 be de f7 c3 3e 7a ea 52 be b7 29 3a be
       -0.266768 0.38275045 -0.20597258 -0.18179975
0002e0 fd 0b 7b 3e 1c 2c b4 bd 46 bd 5e 3e f7 59 6f 3d
       0.24516292 -0.08797476 0.2175189 0.058435407
0002f0 4c 9c 91 3e 5a 0d 97 3d d0 2b 82 be 5d 9b c8 3e
       0.28439558 0.073755935 -0.2542405 0.39181033
000300 39 b4 ff 3e 45 9a d3 3d 5e 69 ff bd 5c 97 dc ba
       0.49942186 0.10332159 -0.12471269 -0.0016829777
000310 d9 af be be 2a 9a aa 3d f1 a7 ee 3e 37 a8 ad be
       -0.37243536 0.08330186 0.46612504 -0.339174
000320 fb 60 e7 be d9 e5 19 3f 68 a3 83 be 43 f2 a1 be
       -0.45191178 0.60116345 -0.25710607 -0.31630144
000330 94 05 d1 bd 0c 1e 32 be 0b 2d b8 be e8 5e b0 be
       -0.10206142 -0.17394274 -0.35971865 -0.34447408
000340 6b 24 75 3b 29 31 86 be 99 c9 e0 3a 80 e5 f2 3e
       0.003740574 -0.2620938 0.0017149925 0.4744072
000350 93 ec 88 3e 22 68 91 be 65 f3 3c be 2f bb cd be
       0.26742992 -0.2839976 -0.18452223 -0.40181872
000360 7d 65 f5 3e f3 d9 77 3e 63 04 9a 3e d9 69 41 be
       0.47928992 0.24204235 0.30081472 -0.18888034
000370 21 b1 87 3e 35 8f b1 be cc 3f 8b 3e e0 2b c8 be
       0.26502326 -0.3467957 0.2719711 -0.39095974
000380 ee d5 9e be 8f 74 52 be df 15 b1 3e bb 67 9b 3e
       -0.3102259 -0.20552276 0.34587 0.30352578
000390 9a 30 0d 3f b2 0a d0 bd be 0b 14 be cc b2 b0 be
       0.55152285 -0.1015829 -0.14457604 -0.3451141
0003a0 8c 77 a6 be 9b db 77 be 47 43 c8 3c b4 84 d6 bc
       -0.32513082 -0.24204867 0.024446143 -0.026186325
0003b0 97 e6 1f 3f 90 56 09 be 95 14 eb be a5 48 84 3e
       0.6246123 -0.13411927 -0.4591414 0.25836673
0003c0 0f 65 92 bd f9 54 8b 3d ea 90 b1 bd 77 d6 c7 be
       -0.07148182 0.068033166 -0.08670218 -0.3903081
0003d0 1c 28 85 be 08 de d1 bd b1 41 98 bd 40 06 6a 3e
       -0.26007164 -0.10247427 -0.07434405 0.22853947
0003e0 12 a0 cc bd 8d 74 99 3e bd 07 66 be 05 d7 9d 3d
       -0.099914685 0.29971734 -0.2246389 0.07707027
0003f0 b1 cd fc 3e 5f e8 b3 be 32 02 c2 3e 30 f1 a9 be
       0.4937568 -0.35138223 0.378923 -0.33191824

fc2.weight f4 [256, 256]
000000 53 45 07 3c 32 7e eb 3a 60 2f 77 bd 18 2a 2e bc
       0.008256274 0.0017966686 -0.060347915 -0.010630153
000010 97 81 84 bd 7a b5 f6 bc 2b e8 88 bd 36 12 36 bb
       -0.0647003 -0.030115832 -0.066849075 -0.002778185
000020 e0 92 7a bb 99 b4 40 3d ef 3d 7d bc 70 d0 5c bc
       -0.0038234517 0.04704723 -0.015456661 -0.01347743
000030 86 94 8f 3c 89 d3 6c bd 58 2b c6 3c 88 72 b6 3c
       0.017526876 -0.057818923 0.02419059 0.02227141
000040 31 1e e9 3b 50 27 69 bc ee 3a 3d bd e6 72 2f bc
       0.007114195 -0.014230564 -0.046198778 -0.010708546
000050 cb 13 3c 3c bf 8a 5c bd da ca 19 3d 2d 35 ab bc
       0.011479328 -0.053843256 0.03754697 -0.02089938
000060 72 c2 a3 bc f2 af 08 bd 44 8c 0c 3d 88 40 a7 3c
       -0.01999018 -0.03337092 0.034313455 0.020416513
000070 6f 61 ec 3a c8 b7 25 3d c1 41 56 bd 0e 45 58 bd
       0.0018034409 0.04045847 -0.0523088 -0.05280023
000080 9a ae 01 bd 04 fd 86 bd 83 93 f6 bb 0c 07 6e bd
       -0.031660654 -0.06591228 -0.007524909 -0.05811219
000090 cb c6 83 bc a8 3d 13 bd 8b 6c 01 bc 20 8d 57 3b
       -0.016086003 -0.03594747 -0.007899414 0.0032890514
0000a0 00 6e ce ba 1c 17 b2 bc 90 58 d6 bc 78 0d 06 bc
       -0.0015749335 -0.021739535 -0.026165277 -0.008181922
0000b0 f5 92 2a bd 5e 2d 24 bc be e7 a3 bc b4 47 37 3d
       -0.041644055 -0.010020582 -0.020007964 0.044746116
0000c0 4d e3 1f bd 55 94 d5 bc 0a 21 45 bd a8 f9 bc bc
       -0.03903513 -0.026071707 -0.04812721 -0.023068264
0000d0 d6 a7 03 3d d2 bf b2 3c bc e9 b6 bb dc 98 d7 bc
       0.032142483 0.021819983 -0.0055820625 -0.026318006
0000e0 38 47 88 bd 0e be 64 3d 4e 55 1f 3c 51 09 3b 3b
       -0.06654209 0.055845313 0.009724928 0.0028539489
0000f0 95 3c 26 bc 95 79 b8 bc 15 86 4b bd 1c a5 05 3d
       -0.01014628 -0.022518912 -0.049688417 0.032628164
000100 98 63 45 bc b6 c9 1b 3d 51 dc c5 bc 08 d0 82 3c
       -0.012047671 0.038034163 -0.024152907 0.015968338
000110 24 eb 99 3c 1c c2 8e bd 54 56 6d bb 1b b6 03 bd
       0.018788882 -0.06970617 -0.0036214786 -0.03215609
000120 6a 78 88 bd 7a 36 39 3d 19 e1 20 bd 7c 0a 1a bc
       -0.06663592 0.04521797 -0.03927717 -0.009401914
000130 7c 94 2c bd 88 ad 2a 3c 64 c0 47 bd 00 ec 2a 3d
       -0.042133793 0.01041735 -0.048767462 0.041728973
000140 6d bd 8b bd 01 b7 42 bc 80 96 25 bc dc 52 46 3c
       -0.068232395 -0.011884452 -0.010106683 0.012104716
000150 b8 e3 11 bc 60 66 13 bd da f9 43 3d f5 20 85 3c
       -0.00890439 -0.035986304 0.0478457 0.016251067
000160 3c af aa 3c 26 c7 49 bd 1d cc 2e 3c 6c 60 1b bd
       0.020835511 -0.04926219 0.010668782 -0.037933752
000170 6f c2 ee bc c0 d2 c0 ba 54 79 1f bd a6 46 21 bc
       -0.029145448 -0.0014711246 -0.038934067 -0.009843504
000180 3e 4b d0 3c 69 ca 06 bc 9e 45 0b bd 3a 50 da 3c
       0.025426503 -0.008226969 -0.03400194 0.026649583
000190 55 5a 24 bd 58 d7 d1 3c d7 cf 96 bd a0 a0 ba 3c
       -0.04012521 0.02561538 -0.07363861 0.02278167
0001a0 4c fc 62 3c ee 74 54 bd 5b f9 1f 3c 35 f4 5b bc
       0.013854098 -0.051869325 0.009764041 -0.013424923
0001b0 f3 8c 7b bd ee e4 3c 3d 58 30 24 bc 72 9f 17 3d
       -0.061413717 0.046116762 -0.010021292 0.037017293
0001c0 c1 46 0b bd d9 7a b4 bc 9d db 8f bd 2d 03 80 bd
       -0.034003023 -0.022031235 -0.0702431 -0.06250606
0001d0 82 b3 24 bd 63 bc 25 3d e1 c1 0e 3d 43 a5 43 3d
       -0.040210254 0.040462863 0.034852866 0.047765028
0001e0 0d 93 54 bc da f5 b9 bc eb 3d a8 bc da e8 02 3d
       -0.012974513 -0.022700239 -0.020537337 0.031960346
0001f0 e6 b3 3c bd 8f a5 57 bc 20 23 75 bc 2e 46 7a bd
       -0.046070002 -0.013162031 -0.014961988 -0.061102085
000200 28 e4 de bb 63 a4 ca 3c 82 e7 1b bd e2 05 16 bc
       -0.0068021007 0.024736589 -0.03806258 -0.009156676
000210 ea 6c 0d bd 5a 7e 59 bd 46 75 2f 3c bd d7 71 bb
       -0.034527697 -0.053099014 0.0107091125 -0.0036902272
000220 28 e0 2d bd 8e 0a 4d bd 30 fc 35 3d 48 2a ae bc
       -0.0424501 -0.050058894 0.044429958 -0.021260396
000230 fc bb 3b 3d 00 4f 5f bc 38 65 74 3d e4 01 fb bc
       0.045833573 -0.013629675 0.059666842 -0.03064055
000240 23 51 5d bd 7c bb 48 bd bb 35 b3 3c 2e b9 4d 3c
       -0.054032456 -0.049006924 0.021876207 0.012556357
000250 3f 25 14 3c a7 a1 3d bd 80 cd 23 bd 1a 9c ef ba
       0.009042083 -0.04629674 -0.039990902 -0.0018280775
000260 76 d4 69 3c 2a f9 76 bd bc e4 3e 3d 8f 55 17 bd
       0.014271846 -0.060296215 0.046604857 -0.03694683
000270 3c 09 76 3c d9 45 21 3d 07 20 e0 3c ef ae 1d 3d
       0.01501685 0.039373253 0.027359022 0.038496908
000280 50 47 81 bd d4 bb 50 bd c0 9b 86 bc da de 48 bd
       -0.0631243 -0.050960377 -0.01643169 -0.049040653
000290 2a ab 59 3d 8c bd a6 bb 5b 74 8e bd d7 62 32 bb
       0.05314175 -0.0050885137 -0.06955787 -0.0027219558
0002a0 38 2b 19 bc 70 70 55 bd 3a dd 4c bd a7 13 26 3d
       -0.009348683 -0.052109182 -0.050015666 0.040546086
0002b0 ba ff 4e bd a4 f3 c4 3c 1a de 57 bd 0c 31 27 3d
       -0.05053685 0.024041958 -0.052702047 0.04081826
0002c0 32 5a 6a 3d 02 0e 2e 3d 83 4c 03 3d c2 f9 3c 3d
       0.057214923 0.042493828 0.03205539 0.046136625
0002d0 4d 67 1e bd 09 3a 66 bd a0 35 f6 bb 67 25 3f bd
       -0.038672734 -0.05620769 -0.007513717 -0.04666653
0002e0 93 4f a0 3c 16 d6 7a 3c d9 1e 64 bd 1d 65 9e 3c
       0.019569194 0.015309831 -0.05569348 0.019335324
0002f0 4f 76 c8 3c 2a 54 a1 bc 80 e6 40 bd 86 9e dd bc
       0.024470476 -0.019693453 -0.047094822 -0.027053129
000300 86 5f a6 bc 81 8a 7b bd e2 d8 36 3c cd 87 92 bd
       -0.020309221 -0.061411384 0.011160107 -0.07154808
000310 08 5c 49 3c f4 87 68 3c 35 93 8c bd da 88 10 3d
       0.012290008 0.01419257 -0.06864015 0.03528676
000320 0b d5 86 3b ec 7c 56 bd 0d 4e eb bc 01 7a 95 3c
       0.004114752 -0.05236523 -0.028723741 0.018246653
000330 3a 19 d8 3c c1 2a 00 3c 14 1b a4 bc 70 36 1b bc
       0.026379216 0.007822693 -0.020032443 -0.009473428
000340 c3 8e 76 bc c0 0f bd bb db 70 32 3d a9 5c 0a 3d
       -0.0150486855 -0.0057697 0.04356466 0.033779774
000350 f6 ae 9e 3b ba 84 17 3d 05 47 69 3c 7c 0d 64 3d
       0.0048426343 0.036991812 0.014238124 0.055676922
000360 44 ad 01 3d 53 5b 92 3c 05 b0 eb 3c 6e 63 77 bd
       0.03165938 0.017865812 0.028770456 -0.060397558
000370 7d a1 10 3d 64 6c e0 3c 82 50 0f 3d a0 47 c2 3c
       0.035310257 0.027395435 0.034988888 0.023715794
000380 c5 50 f9 bc 2a a1 1b bd 1d 77 4c bc 7c b0 91 bd
       -0.030434022 -0.037995495 -0.012479571 -0.0711374
000390 7d 60 3d 3d e4 64 cb 3c 21 0e 15 3d 60 97 82 3b
       0.046234597 0.024828382 0.036390428 0.0039853305
0003a0 51 29 a2 3b 46 17 14 bd c7 ac 2f 3c 7d 2b 2e bd
       0.004948773 -0.036155008 0.010722346 -0.042521942
0003b0 9b 67 e0 3a bc 2a ac 3c f4 71 c2 bc b7 5e 19 bd
       0.0017120721 0.021016471 -0.023735978 -0.037443843
0003c0 93 97 a3 bc 12 6c e0 bc bb 4f 35 bd ba 79 05 bd
       -0.019969737 -0.027395282 -0.04426549 -0.03258679
0003d0 1d f2 70 bd 97 2c fe 3a f8 cc 94 bc 48 3b 90 bc
       -0.058824647 0.0019391951 -0.018164143 -0.017606393
0003e0 f3 f9 1a 3d 87 10 58 bd 3e 62 31 bd ce 41 7c bc
       0.037836026 -0.052750137 -0.04330658 -0.015396548
0003f0 5d cb 56 bc e0 94 3c 3d 9b 77 aa 39 e0 23 c2 3b
       -0.013110009 0.046040416 0.0003251404 0.005924687

fc2.bias f4 [256]
000000 ed ab 95 bd bb b7 d5 bd 82 88 cd 3d f8 e0 82 3d
       -0.07308183 -0.104354344 0.100358024 0.06390566
000010 00 de 3e 3e 36 38 2f 3e c0 6c 12 3e 51 8c 82 bd
       0.18639374 0.17111287 0.14299297 -0.063744195
000020 bc 2a 45 3e b8 9c 23 be 20 ee d4 3d 27 39 4a bd
       0.19254583 -0.15977752 0.10396981 -0.04937091
000030 81 96 46 bd 20 7b 1c 3e 65 b0 24 3e 7b f3 b2 3d
       -0.048483375 0.15281343 0.16082914 0.087378465
000040 a9 16 2c 3e d5 0b 3f 3e 44 a5 2e bd c8 0d 42 bb
       0.16805519 0.18656857 -0.04263808 -0.0029610265
000050 a2 e0 af 3e ea cd 3a 3e e4 7b 32 3e d3 10 ef 3d
       0.3435107 0.18242612 0.17430073 0.11673131
000060 75 21 07 3e 54 fb 91 bd 6b 15 e9 3d c6 5c 96 bd
       0.13196357 -0.07128015 0.11381038 -0.07341914
000070 71 62 3d 3e 70 ea 74 bd 3c 49 ef 3d 17 6b 6f bd
       0.18494584 -0.05979389 0.1168389 -0.05845174
000080 24 d4 48 3d 2f f0 23 3e c2 d9 ae 3d 0f 72 86 bd
       0.049030438 0.16009592 0.08537628 -0.06564724
000090 6e 52 57 3e c1 8b 20 3e 2d d3 45 bd e2 ea 84 bd
       0.21027538 0.15678312 -0.048297096 -0.06490113
0000a0 58 f0 b2 3d 37 26 f1 ba 2c 4a 0a 3e 58 3e 13 3e
       0.08737248 -0.001839823 0.13504857 0.14379251
0000b0 f9 6b 10 3e 8d 6b f9 3d 80 79 75 bb e6 32 ca 3d
       0.14103688 0.12178717 -0.0037456453 0.09872989
0000c0 77 07 bf 3e 14 6e 1c 3e 0f 7e 91 bb ae c3 2f 3d
       0.37310383 0.15276366 -0.004440076 0.042911224
0000d0 39 e7 01 3e 45 61 bb 3d 1a 99 f7 3b e8 d4 18 3e
       0.1268586 0.09149412 0.007556093 0.14924967
0000e0 c7 52 b4 3d 7f 8c c2 3b 8b ce e5 3d 90 2e fa 3d
       0.08804851 0.0059371586 0.112210356 0.12215912
0000f0 5f 47 60 3d 1b 4e 13 3e ff 26 34 3e cc e8 82 bd
       0.054755565 0.14385264 0.17593001 -0.06392059
000100 3a 0c 46 3e 51 30 e2 3c 62 29 11 3e 8b 7a 37 3e
       0.19340602 0.02761093 0.14175943 0.1791784
000110 a0 cb 3d 3e 6e a0 f1 3d 06 9e 77 bd 69 4c 03 bd
       0.18534708 0.11798178 -0.060453437 -0.032055292
000120 47 fa ab bd cd a7 4d bd 9f 1f 2d 3e e2 c9 d7 3d
       -0.08397346 -0.050208855 0.16906594 0.10536553
000130 aa 7f 64 3d 8b 94 03 bd 3c f1 02 bd 02 d3 a8 ba
       0.055785812 -0.032124083 -0.03196834 -0.0012880268
000140 f3 2c 53 be be a4 fb 3d 7d ab 9e 3d 36 66 bd bd
       -0.20622616 0.122872815 0.077475525 -0.09248011
000150 2e ca 39 3d 7f 8e 19 3d b4 e3 73 3d e7 c5 47 bd
       0.04535883 0.03748941 0.059543326 -0.04877272
000160 0f 7f 28 3e 1c 0b 5c bd 6b ad 0a 3e d1 9d 39 3e
       0.16454719 -0.053721532 0.13542716 0.18126608
000170 dc 51 36 3e bc a9 9c bd 45 cb 2b 3e 6c 76 07 3e
       0.17804664 -0.07649562 0.1677676 0.13228768
000180 8c 02 d8 bd 23 c8 42 3c f0 b7 1c 3e 7d c1 ca 3d
       -0.10547361 0.011888537 0.15304542 0.09900186
000190 ad 38 26 3e de b5 73 bd 61 9f 2b 3e 38 7c 85 bd
       0.16232558 -0.059499614 0.16760017 -0.065178335
0001a0 07 85 01 3c 59 e1 3b 3d da ce 18 be c4 b7 49 3e
       0.007905251 0.045869205 -0.14922658 0.19699007
0001b0 ff 73 c0 3d 7a 1e 74 bd ba aa 2c be ad 9e bc bb
       0.093971245 -0.059599377 -0.16862002 -0.0057562203
0001c0 00 0e 09 ba 34 fa a7 3d 3a d7 ff 3c ab 84 f2 3d
       -0.00052282214 0.08202019 0.031230558 0.11841711
0001d0 87 78 82 3d 93 24 3c 3e ae 1e 34 bd 6a 9b 1d 3e
       0.06370645 0.18373327 -0.04397457 0.15391317
0001e0 59 df 20 bd 61 13 66 3e 1c 2a 87 3d 34 77 50 3e
       -0.0392755 0.2246833 0.065998286 0.20357972
0001f0 7c 2f d4 bc b2 ec b2 3d 48 ba 5d bd 2b 11 21 3d
       -0.025901549 0.08736552 -0.05413273 0.039323013
000200 98 2d dd bc 8c f8 41 3b c1 31 92 bc 20 eb b2 bc
       -0.02699928 0.0029597608 -0.01784599 -0.021840632
000210 3a d8 62 bc f7 34 1a 3d ba d1 33 3c 7e 85 a2 3c
       -0.013845498 0.037648167 0.010975296 0.019839045
000220 5e 16 fb 3d a8 14 84 bd f7 b2 06 3e ec ff 13 3e
       0.122601256 -0.06449252 0.13154207 0.14453095
000230 2d 12 64 bb 65 bd 28 3e 25 4a 08 3e 76 02 1e 3e
       -0.0034800873 0.16478498 0.13309534 0.15430626
000240 02 67 ce bc 76 3f 23 bd 0a a2 35 bd ad e5 3b 3e
       -0.025195602 -0.039855443 -0.044343986 0.18349333
000250 51 ba ca 3d 63 ca 72 bd b9 1d 8b 3d 43 f7 c0 3e
       0.09898818 -0.059275042 0.067927785 0.37688646
000260 88 7f f4 3d 15 08 ca bc e5 1e df 3d 12 88 8c ba
       0.11938387 -0.024662057 0.108945645 -0.0010721704
000270 42 f4 3b bd 55 6d cb bd 8d 7e 92 bc 24 1c dd 3d
       -0.04588724 -0.09932963 -0.01788261 0.10796383
000280 bf a1 69 bc b2 ac 07 3e 98 4c 27 3e 66 fa f4 3d
       -0.014259755 0.13249472 0.16337812 0.11961822
000290 de 63 20 bd 7a 5c 15 bd 5d 9f 08 3e 83 ec a2 3d
       -0.03915774 -0.036465146 0.13342042 0.07955267
0002a0 6f 92 24 3e 8e 31 a8 3b a9 f0 c8 3d 93 e3 d0 bd
       0.16071485 0.0051328605 0.09811527 -0.10199656
0002b0 46 05 26 bd fe 65 bf bd 4e 0b c4 bc ee 17 1e 3e
       -0.040532373 -0.09345625 -0.023931172 0.15438816
0002c0 e0 8b 09 3e 34 fd 1f 3e 60 55 39 be 79 39 30 3d
       0.13432264 0.15623933 -0.18098974 0.04302356
0002d0 eb e0 18 3e 85 8a 41 3e 0f c7 ce 3d 22 e5 f5 bd
       0.1492955 0.18900497 0.10096561 -0.12006594
0002e0 93 1b fd 3d 66 af 43 bb c6 a6 84 3d 5b cf 85 bd
       0.12358775 -0.0029859184 0.06477122 -0.065336905
0002f0 21 62 1b 3e 6f 78 e9 3b c7 33 32 3e 75 6e f8 bc
       0.15174152 0.0071249525 0.17402564 -0.030326108
000300 45 e9 4e 3e 31 e4 c7 3d a2 a1 0b 3e d0 d8 c6 bc
       0.20206173 0.09760321 0.13635877 -0.024273306
000310 ac d2 0d 3e bc 4e 72 bd 24 e2 a2 3d fb 17 7d bb
       0.13849896 -0.05915712 0.07953289 -0.003861903
000320 73 a0 93 3e da 89 11 3e cc 8f c3 3d 34 d0 92 3c
       0.2883335 0.14212742 0.095489115 0.017921545
000330 40 cb e1 bd 5c 40 cd bd 62 a1 69 bd f7 3a 6b bd
       -0.11025095 -0.10022041 -0.057038672 -0.05742928
000340 a1 7f 5c 3d 73 e3 75 3d ae 0c 2e 3e 0b 83 4e bd
       0.053832654 0.060031366 0.16997024 -0.05041794
000350 65 b8 65 3e f7 e0 2b 3d f4 87 ef 3d 8c fb 32 3e
       0.22433622 0.04196259 0.11695853 0.1747877
000360 46 8a 24 3e e9 84 20 3e c1 46 1d 3e b1 ba 58 bd
       0.16068372 0.15675701 0.15359022 -0.052912418
000370 4e e4 24 3e b9 50 19 3e 4c 9e 34 bd d2 97 13 bd
       0.16102716 0.149722 -0.044096276 -0.03603346
000380 2d f7 ec 3c a9 e8 8c bd 41 3a 5e 3c 99 2c 4b be
       0.028926456 -0.06880314 0.0135636935 -0.19841231
000390 90 ad af bd 1c 20 24 3e 07 f8 0c 3e 2b fd 29 3e
       -0.08578026 0.16027874 0.1376649 0.16600482
0003a0 61 54 21 3e 24 49 0c 3e dd e3 e5 3d 6d 89 54 bd
       0.15754844 0.13699776 0.11225102 -0.051888872
0003b0 86 12 ad bb 60 46 21 be 34 b6 77 bc 15 56 15 3e
       -0.005281749 -0.15749502 -0.015119124 0.14583619
0003c0 59 91 09 be 5e aa 76 3c 08 e5 86 bd b5 9a 3d be
       -0.13434352 0.015055267 -0.06586653 -0.18516047
0003d0 74 eb 40 3e b6 3b e3 bc 85 99 d7 3d 8b 1a 24 3e
       0.18839818 -0.027738433 0.105273284 0.1602575
0003e0 90 c8 16 3e 34 90 c3 3a 03 cf 0a 3e e1 62 81 bd
       0.14724946 0.0014920295 0.13555531 -0.06317688
0003f0 b4 23 aa bc 90 ec a1 3c 40 cd 68 bc a8 fb bc 3d
       -0.020768978 0.019766122 -0.014209092 0.09227687

fc3.weight f4 [128, 256]
000000 b1 0a bb 3c d4 d6 d3 3c 53 ef 59 bc ec a8 e1 bc
       0.022832246 0.025859274 -0.013301688 -0.027546369
000010 fa d3 1f bd 65 e7 a3 bc c2 f9 5e bd f6 52 7d 3d
       -0.039020516 -0.020007798 -0.054437406 0.061846696
000020 e5 9e b9 bc a5 a3 56 bd 7c 94 d0 bc 80 23 a5 3b
       -0.022658775 -0.052402157 -0.025461428 0.0050396323
000030 6e d2 1b 3d 7e 7d a5 3c ed 42 2b bd d8 a8 7b 3c
       0.03804248 0.02020144 -0.041811872 0.01536008
000040 af 68 c5 3c db 7e 44 bd d0 be 90 bb c0 61 ab bb
       0.024097769 -0.04797254 -0.004417278 -0.0052301586
000050 5e c0 06 bc 0e 50 f3 3b 3d 26 12 bd cf e6 f7 3c
       -0.008224575 0.0074253147 -0.035680998 0.030261425
000060 fc a0 51 bd e4 91 c7 3b 2f f4 e3 bc 70 b2 e1 bc
       -0.051178917 0.0060903896 -0.027826397 -0.027550906
000070 b6 55 47 bd 72 92 2f bd f2 cf f2 3b 72 9c 28 3d
       -0.048665725 -0.04286427 0.007410043 0.041164823
000080 cd 49 5d 3b b9 be 39 3d 68 0a 3a bd c0 ea f9 3a
       0.0033765913 0.045347903 -0.04542008 0.0019067153
000090 0b 20 43 3d 7a 13 5c bd 3f 53 c7 3b 54 07 70 3d
       0.04763798 -0.05372951 0.0060829218 0.05860074
0000a0 18 bc fe 3c bc f7 df bc 2a 07 9c 3b 3a 28 4d 3c
       0.03109555 -0.027339809 0.004761596 0.012521798
0000b0 f5 63 f4 3c f1 b7 be 3c a8 04 3d bc 77 fa 24 bc
       0.02983282 0.02328107 -0.011536755 -0.010069481
0000c0 bf 25 75 bd 81 4a d3 bc 2e 3c 70 bb c8 d0 03 3c
       -0.05985045 -0.025792362 -0.0036656964 0.008045383
0000d0 e8 96 67 bc b4 90 ce bb 72 cd 56 bd a2 a0 54 3d
       -0.0141351 -0.006303871 -0.05244202 0.051911004
0000e0 b5 10 e7 3c 6e 20 33 bd d0 19 03 bd 70 ca 93 3c
       0.028206209 -0.0437321 -0.03200704 0.018040866
0000f0 8f 78 04 bd 5f 54 83 bc b3 c3 8c 3c 56 f7 33 bd
       -0.032341536 -0.016031442 0.01718316 -0.04393705
000100 01 5a 3b bc ee 28 00 3d 32 29 09 bd cc 2c 44 3d
       -0.011435033 0.031289034 -0.033486553 0.047894284
000110 1f 95 12 bc 1f 87 d9 3c 7e 2b 37 3d b4 dc 8f bb
       -0.008946686 0.026553689 0.04471921 -0.0043903235
000120 4f 68 be 3c 62 c8 21 bd fe 3f c9 3c d8 df 81 bd
       0.023243098 -0.03949774 0.024566647 -0.06341523
000130 78 95 55 3c 62 c2 05 bd 24 fa 37 bd 3e bb 33 3d
       0.013036124 -0.03265608 -0.044916287 0.04387974
000140 8e 5c 79 3c d6 2d 7f bb e9 3d 82 bd d2 97 44 bd
       0.015219821 -0.0038937232 -0.06359465 -0.04799635
000150 de 65 93 3c 8e 0f 37 3d 93 c6 36 3d 94 3a 17 3d
       0.01799291 0.04469257 0.04462297 0.0369211
000160 06 5d 74 bb fa 4f cf 3c bd a5 4b bb c6 b2 6c bd
       -0.0037286892 0.02530669 -0.003107413 -0.05778768
000170 ea cf 21 bd 3a 83 60 3d db 91 82 b8 18 73 96 3c
       -0.039504923 0.054812647 -6.226051e-05 0.018365428
000180 5c 1a 4a bd 74 2c 1b 3d 54 a9 e4 bb 2a fc d7 bb
       -0.049341545 0.03788419 -0.0069781933 -0.0065913396
000190 21 7c a8 bb 78 8f 65 bd 23 2d 2a 3d c4 fa 95 bd
       -0.0051417504 -0.056045026 0.041546952 -0.0732322
0001a0 22 bd 01 3d 24 20 29 bd 2a b1 32 3d ce 50 e5 3c
       0.03167451 -0.041290417 0.043625988 0.027992632
0001b0 21 64 88 bc 20 5f 21 3c 89 c0 41 bc 6a dd 7d 3d
       -0.016649308 0.00984934 -0.011825689 0.061978735
0001c0 30 ec 83 3b ec 87 8c 3c 42 a6 74 bd 09 54 35 3c
       0.0040259585 0.017154656 -0.05972887 0.011067399
0001d0 6d 97 2f 3d 39 00 71 bd 00 d1 8d 3c 1f f0 2e 3d
       0.04286902 -0.058838103 0.017311573 0.042709466
0001e0 12 71 11 bd 50 10 ac bc 2e b0 98 bc c8 c9 80 bd
       -0.035508223 -0.021003872 -0.018638697 -0.06288487
0001f0 c8 78 0b 3c 94 c3 57 3b 50 cb 75 3d 8b 70 74 bb
       0.008512683 0.003292297 0.060008347 -0.0037298526
000200 5c 2b 72 3d 5e d7 38 3d 70 56 f7 bb 40 fd 69 3c
       0.059123382 0.045127265 -0.007548146 0.014281571
000210 d3 c7 98 bd 80 36 27 3b 6f b1 9c bc 90 9f 8b 3c
       -0.074599884 0.0025514662 -0.019127576 0.017043859
000220 ec c8 23 bd 10 98 ef 3c 7d 82 0a 3d 3f a8 30 bd
       -0.039986536 0.029247314 0.03381585 -0.043129202
000230 c8 c6 29 bd a5 3f 09 bd e9 b3 cf 3c 2f 33 1a 3d
       -0.04144934 -0.03350796 0.025354343 0.03764647
000240 32 d2 41 3d e8 2b 00 bd 17 c3 5e 3d 66 be 61 bc
       0.0473196 -0.031291872 0.05438527 -0.013778305
000250 6d a5 71 bd fc a2 d1 3c 1e 0e 0b 3d 7f 40 1c 3d
       -0.058995653 0.025590412 0.03394901 0.038147446
000260 b8 72 2f bd c0 8b c6 bc ba ef 24 bd 8f 30 9b 3c
       -0.042834014 -0.02423656 -0.040267684 0.018944053
000270 e9 da 6f bd e6 e1 ac 3c 7d a7 a5 3c 4f 4c 3d bd
       -0.05855838 0.02110381 0.020221466 -0.04621535
000280 7e 30 01 3d bd 12 81 bd fb 62 b7 3b 73 5a 4d bc
       0.031540386 -0.06302402 0.005596516 -0.012533772
000290 a7 8a 72 bb 82 36 8e bd 4c 4c 1d 3c 34 eb 8e 3c
       -0.0037008913 -0.0694399 0.00960071 0.017446138
0002a0 04 d0 28 bd bc 3e 4f bd 9d aa bc 3c 4a 8e 26 bc
       -0.041214004 -0.050596938 0.023030574 -0.01016576
0002b0 bc 8d 92 bc a9 16 e8 ba 8a 11 99 bc b7 3f 12 3d
       -0.01788985 -0.0017706949 -0.018685121 0.035705294
0002c0 d9 9c 0c bd 9b 48 2d 3d f2 7c 1c bd 48 f2 32 bd
       -0.03432927 0.04230557 -0.038205095 -0.04368809
0002d0 58 4d 3c bd cc 88 8f bd 0d b1 95 bd 51 d9 06 bd
       -0.0459722 -0.07008514 -0.073091604 -0.032922093
0002e0 17 54 1c bd 7e 64 29 bd 0d 7a 43 3d 70 06 e5 3c
       -0.03816613 -0.041355602 0.04772382 0.027957171
0002f0 62 70 46 3d 20 42 ce bc c8 16 05 3d a0 5d 4c bc
       0.04844702 -0.025178015 0.03249243 -0.012473494
000300 60 3c 98 bd 0d 9c 26 3d b7 d1 14 3c c6 3c 21 3d
       -0.074333906 0.040676165 0.009083203 0.0393646
000310 67 86 6e 3c 78 cd 1e bc f4 48 cd 3c dc 08 55 3d
       0.014558411 -0.009692542 0.0250592 0.052010402
000320 43 63 d2 3c 7b cc 55 bc ca 77 4f bd 40 e0 af ba
       0.025682097 -0.01304924 -0.05065135 -0.0013418272
000330 b4 e4 ac bb ff eb d6 3c 62 b4 18 bd aa 75 06 3d
       -0.005276287 0.026235579 -0.0372814 0.032827057
000340 44 a1 e9 3c 29 a2 07 bc a0 60 b5 ba 3e 47 7e bd
       0.02851928 -0.008278408 -0.0013838001 -0.06207966
000350 ef 10 89 bd 5c d1 d7 3c 61 62 18 3b bc a1 83 3c
       -0.06692683 0.026344948 0.0023251998 0.016068332
000360 92 52 0a bd 61 45 58 bc 8d a3 ca bc 64 98 00 bd
       -0.03377015 -0.013200135 -0.02473619 -0.03139533
000370 77 d9 0d 3d db e4 e8 bc fc ae 76 bd 74 0d 1b 3d
       0.03463122 -0.02842944 -0.06022547 0.037854627
000380 4d 03 a3 3b d8 88 09 bd e8 b5 28 bc 48 0c 61 bd
       0.0049747587 -0.03357777 -0.010297276 -0.054943353
000390 ab 6f 14 bd c8 3a ff 3c 45 80 7c bd e9 08 88 bc
       -0.036239307 0.031155959 -0.061645765 -0.016605811
0003a0 73 9b 8e bd 5a da 98 bd 09 fc 35 bd 9a d5 34 bd
       -0.06963243 -0.07463522 -0.044429813 -0.04414902
0003b0 b8 ad 65 3c 4e 61 02 bd a7 10 23 bc 16 7a 77 bd
       0.014018469 -0.03183108 -0.009952701 -0.060419165
0003c0 f9 6d 2e 3d 57 0a 65 3d 4d 29 86 bd ae fa 8e bd
       0.042585347 0.055918064 -0.06550846 -0.06981407
0003d0 04 99 a8 bc f8 2a 24 bc 44 7e c8 3c 4e a3 bf bc
       -0.020580776 -0.01002001 0.02447427 -0.0233933
0003e0 dd 18 1f 3d ea e0 6d bd 5f 3b 62 3d ec c6 f6 3c
       0.03884207 -0.058075823 0.055232402 0.03012415
0003f0 b0 26 5b 3c 62 e0 71 bd 9c fa d7 bc 12 3e 87 bb
       0.013375923 -0.05905188 -0.026364617 -0.0041272724

fc3.bias f4 [128]
000000 6e 65 84 bd 60 45 c9 3c e2 a7 05 39 bf 39 cf 3d
       -0.06464659 0.024569213 0.0001274641 0.10118436
000010 54 cc 2f 3d d0 e4 39 be 46 9a 63 3e 0b e1 fb bd
       0.04291947 -0.18153691 0.2222682 -0.12298783
000020 e7 b9 ad bd b1 b5 81 bd 89 9e 28 3e 32 6e 45 3d
       -0.08482724 -0.06333483 0.16466726 0.048200794
000030 71 c0 b2 ba 01 6a 15 be df e3 0d bc 65 e0 87 bc
       -0.0013637674 -0.14591219 -0.008660286 -0.016586492
000040 42 8b 84 bd c4 76 f4 3c f0 24 e8 bd aa 1a 95 bc
       -0.06471874 0.029841788 -0.1133517 -0.018201191
000050 04 92 cb bd 59 57 6f 3e e3 9a 7e bd e4 0b e7 3d
       -0.0993996 0.23373164 -0.06215943 0.11281565
000060 11 a8 eb bc 6c 5f 6f bd 9d 7a 84 3e 05 94 5e 3d
       -0.028766664 -0.05844061 0.25874797 0.05434038
000070 ad 71 ab 3c 6b b5 86 bd b3 7b bf 3d bf bf 41 3d
       0.020928228 -0.065775715 0.09349766 0.047302004
000080 94 fc 12 3e 72 5f 35 3d c6 23 b1 3e 2d 97 2e bd
       0.14354163 0.044280477 0.34597605 -0.04262464
000090 bd 59 0f be 86 cb ad 3d ee 5f b3 bd b3 51 46 bd
       -0.13999076 0.08486085 -0.087585315 -0.04841776
0000a0 7f 67 a0 bd 3a 0d 50 3c dd 51 c2 bc c5 cf 87 3d
       -0.0783224 0.012698466 -0.023720676 0.06631426
0000b0 d1 40 41 3e 37 67 59 bd e4 bf 08 3d cd ea d1 bc
       0.18872382 -0.05307695 0.033386126 -0.025624657
0000c0 04 a3 1c 3d 59 5b d6 bc bb 6f 08 3c c5 a1 22 be
       0.0382414 -0.026166605 0.00832742 -0.15882023
0000d0 98 07 0e 3d 21 dd 8a 3e 12 f0 02 be ca 11 81 3c
       0.03467521 0.27121833 -0.12786892 0.015755553
0000e0 18 5d e1 bc 51 cd 10 3d 33 3b 09 3d 28 ce 3a 3d
       -0.02751021 0.035352055 0.033503722 0.045606762
0000f0 97 fe 97 3e 70 9b 5e be 0a 71 bc 3c 13 fb 88 3e
       0.29686424 -0.21738982 0.02300312 0.26754054
000100 e9 e1 db 3c 05 9f 56 3c ca c2 81 bd 84 3b c2 3c
       0.02684112 0.013099437 -0.06335981 0.02371002
000110 d3 76 16 3d 03 f4 0f 3b dd 11 63 bd 7b 8c 50 be
       0.036734413 0.002196551 -0.055436958 -0.20366089
000120 79 41 9f bd 2c e3 3a bc a4 5b 89 bd 2a cf b4 3d
       -0.0777616 -0.011406701 -0.06706932 0.08828576
000130 0a d0 98 3e ab 60 82 bd ab d7 49 bd f6 be 64 bd
       0.2984622 -0.06366094 -0.049277943 -0.055846177
000140 a4 46 53 bd 08 82 63 3d bf 10 c4 bb 87 f3 ac bd
       -0.05158104 0.05554393 -0.0059834416 -0.08444887
000150 e9 cf b5 3d 2c 75 3d bd c1 0d 17 3d 60 6f 64 bd
       0.08877546 -0.046254322 0.03687835 -0.055770278
000160 2e 24 56 3e 2b 14 dd 3d 78 43 49 bc bc cd f4 bc
       0.20912239 0.10794862 -0.012284152 -0.029883258
000170 9e d2 8e 3c f5 99 6f bd 6f 01 d2 3d 0b 96 44 3d
       0.017434414 -0.058496434 0.1025418 0.047994655
000180 32 76 83 3d 33 4c f6 bd 6f 38 0d 3d c3 e0 88 3d
       0.06419028 -0.120262526 0.034477647 0.06683495
000190 8e d7 5f 3d b5 37 3e 3d 87 cb 93 3d bb 02 0f be
       0.05464893 0.046439845 0.07216554 -0.13965885
0001a0 d9 18 9b bc 27 16 80 3c 7b 25 b6 3d b8 72 7a bd
       -0.018932747 0.015635563 0.088938676 -0.06114456
0001b0 9c 5b 35 3c 29 25 ce 3d 5b aa a3 bd 46 9b 86 bd
       0.011069205 0.100656815 -0.07991477 -0.06572585
0001c0 32 f5 38 3d ff 22 a1 3c 23 3e d5 3d 6e 73 09 3d
       0.04515571 0.019670008 0.10412242 0.033557348
0001d0 26 7b 1c 3e 35 1b bb bd bf 50 3a bd d7 71 27 3c
       0.15281352 -0.09136049 -0.04548716 0.010220013
0001e0 16 0b 2f 3e c7 b4 85 bc 5f 76 fb bd 2f f4 92 3d
       0.17094073 -0.016321553 -0.12278437 0.071754806
0001f0 e2 51 bf bd 3a fa 9f bd cf e5 ff 3c 58 84 93 3e
       -0.0934179 -0.07811399 0.031237511 0.28811908

fc4.weight f4 [4, 128]
000000 65 78 e3 bc 3e dd b4 3a c8 2c a2 be 24 7e b3 be
       -0.02776737 0.0013798845 -0.3167479 -0.35057175
000010 b0 18 c5 be 64 e8 be be 42 1d f3 3d 0b 50 f7 3e
       -0.38495398 -0.37286675 0.11870815 0.48303255
000020 2c 26 75 be cc 5a fe 3e 46 dd 8b be d1 65 04 3f
       -0.23940343 0.49678648 -0.27317256 0.5171786
000030 6c 9a 19 bc 48 08 a0 3e 13 1e 1e 3d 76 7d 69 be
       -0.009375196 0.31256318 0.0386029 -0.22801766
000040 51 35 9e 3e 42 10 92 3e 98 6a 93 3e ae 8e a7 3d
       0.30900052 0.2852803 0.28792262 0.08181511
000050 68 71 ac be 56 76 d1 bf 17 e6 4b bd 8b ff bd be
       -0.33680272 -1.6364238 -0.049779978 -0.37109026
000060 71 2b 96 be e2 7f 4f bd 7d c6 35 3e 2a 15 32 bd
       -0.29330018 -0.050659068 0.17751499 -0.043477215
000070 50 eb 79 3c 78 a8 48 bd 15 c8 a5 be b7 30 05 3e
       0.015253857 -0.04898879 -0.32379213 0.13006864
000080 44 db 67 be 57 d1 ac be 97 0b f4 3e b1 27 1d bd
       -0.22642237 -0.33753464 0.47665092 -0.03836793
000090 22 2c 76 be 4a c2 83 be a3 65 e7 3e 90 ac 0c bc
       -0.24040273 -0.25734168 0.4519473 -0.008586064
0000a0 9e 33 84 bf 40 d7 c4 3c d6 02 09 bd a2 ef b5 be
       -1.0328252 0.02402842 -0.03344997 -0.35534388
0000b0 25 9b c3 bf a4 4b 83 bd 3d fb c0 be 2f d1 63 be
       -1.5281721 -0.06410912 -0.3769168 -0.22247766
0000c0 e5 84 30 bc ba 18 fd 3e 6b 5b 74 3e ad b5 c0 be
       -0.010773872 0.49432927 0.23862998 -0.37638608
0000d0 9b 5c 38 bd 59 4d bd bf de f4 90 3e 7c 9a cf 3e
       -0.04501019 -1.478923 0.2831182 0.4054755
0000e0 a9 a5 40 be 09 24 c0 3e d8 4c b4 3e e8 21 6d 3d
       -0.18813194 0.37527493 0.35214877 0.057893664
0000f0 1b 8f 3a 3f b6 cd 14 3f 28 99 8c bd 72 b2 8f bf
       0.7287461 0.5812639 -0.0686515 -1.1226332
000100 a6 44 ed bc 75 7d 56 3d 15 17 50 be f4 2e b9 3e
       -0.028963398 0.05236574 -0.20321305 0.36168635
000110 7c 7a 98 be a4 c9 97 be f6 c3 92 3c 62 e6 18 3f
       -0.29780948 -0.29646027 0.017915707 0.59726536
000120 2d 98 09 bd 9b 1e 7e be f8 0e 8e bd 45 ee 9d be
       -0.03359239 -0.24816363 -0.06936449 -0.30845848
000130 86 94 09 3f 05 2d 8c ba 2b 62 62 3d c5 a8 44 3e
       0.53742254 -0.0010694569 0.0552694 0.19205005
000140 75 37 92 bd 56 e0 55 3d 52 c3 96 be 1c 6b c8 3e
       -0.07139484 0.052215897 -0.29445893 0.39144218
000150 ce 4a 96 be 60 60 05 bc f0 46 19 bc bb f5 29 3d
       -0.29353946 -0.008140653 -0.009355292 0.041494112
000160 1d 1c a3 be 29 60 c4 be 0a 4a 59 be a0 f5 ab bd
       -0.31857386 -0.38354614 -0.2121965 -0.083964586
000170 f8 20 f7 bc fa cb b1 bc 0c ef b1 be 9e 4f 6c 3e
       -0.030167088 -0.021703709 -0.3475269 0.23077247
000180 39 69 a1 be 5d 88 28 3f 9e 14 c1 be b2 05 1a be
       -0.3152559 0.65833074 -0.37711042 -0.15041235
000190 63 39 cc 3e ad b0 91 3d 8b d5 66 be e8 77 00 3f
       0.39887533 0.07113776 -0.22542398 0.5018296
0001a0 7e c3 66 3b f2 43 91 3d 28 26 82 be 95 f4 3f 3d
       0.0035211737 0.07093038 -0.25419736 0.04686411
0001b0 96 f8 54 bd 40 a7 a7 bd 26 3b a4 be 0c a9 9f bc
       -0.051994883 -0.08186197 -0.32076377 -0.019489788
0001c0 18 8b 03 be 14 68 71 bf ee cc 5c be e8 4b b0 3e
       -0.12846029 -0.94299436 -0.2156255 0.34432912
0001d0 e1 19 55 be 94 75 b5 3e cb 02 66 bd d4 ef 6a bd
       -0.20810653 0.35441267 -0.056155007 -0.057357624
0001e0 8d 2a b8 bf 6f e3 25 bd 2e 9b 26 3f b2 5c e1 3e
       -1.4387985 -0.0405001 0.65080535 0.44016033
0001f0 20 e4 61 be 70 b7 85 bd b0 f5 73 be 88 d2 e2 3e
       -0.22059679 -0.065291286 -0.23824191 0.44301248
000200 c1 ff 78 3d 22 d2 20 3a 5f 44 a6 be b0 61 57 be
       0.06079078 0.0006134828 -0.32474038 -0.21033359
000210 d5 34 67 be 60 81 c7 be 8c a7 75 be ee d2 e7 3e
       -0.22578748 -0.38965893 -0.23989695 0.45278114
000220 12 c1 e5 3b 5d 58 ef 3e 87 63 e4 be 6c e6 fa 3e
       0.007011541 0.46747103 -0.44607183 0.49003923
000230 01 30 e1 3c 88 d9 e4 3e c1 96 f8 3c 30 b5 eb be
       0.02748871 0.44697213 0.030345323 -0.46036673
000240 42 c1 e3 3e 28 9e 6b 3e d1 35 d2 3e 1a 64 86 3d
       0.44483382 0.2300955 0.41056684 0.065620616
000250 30 25 9f bd 83 8d c0 bf c8 c6 67 3d 40 27 68 be
       -0.07770765 -1.5043186 0.056586057 -0.22671223
000260 9d 07 81 be 9d 1e 9c bc 19 0f 8a 3e c4 53 9b 3d
       -0.2520112 -0.019057566 0.26964644 0.075843364
000270 df 97 0f 3d 4a 08 eb bc a4 30 4d be d0 af 3f 3e
       0.035056945 -0.028690476 -0.20038086 0.18719411
000280 22 7a d5 be 4c 86 95 be 0f c6 cb 3e 4c ef 0a 3d
       -0.41694742 -0.29204023 0.39799544 0.033919618
000290 f4 c6 48 bf cd e0 97 be 0d 52 e8 3e e8 e9 00 bc
       -0.7842858 -0.29663697 0.453751 -0.007868268
0002a0 b9 d6 40 bf b2 eb 44 3d 10 92 50 bd dd b1 e1 be
       -0.7532764 0.04807634 -0.050920546 -0.4408101
0002b0 b0 58 be bf df 71 40 bd 4e 04 ae be 56 9d 5a be
       -1.4870815 -0.046983596 -0.3398766 -0.21349081
0002c0 03 33 78 3d 9f cd de 3e ae 90 41 3e a9 10 01 bf
       0.060595524 0.4351625 0.18902847 -0.50416046
0002d0 ca 78 6b 3b 3e 0e b5 bf de ac d8 3e c1 67 55 3e
       0.003593015 -1.4144971 0.42319387 0.2084036
0002e0 ee 6a 1a be 31 0d 52 3e 6d dd 64 3e d5 f2 1c 3c
       -0.15079853 0.20512845 0.22350092 0.00957938
0002f0 f4 fa 59 3f 20 67 b9 3e e0 c4 2d 3c 66 f6 b6 bf
       0.8514855 0.3621149 0.010606021 -1.4293945
000300 27 7b 8f 3d 60 67 8f 3d ea d0 ff bd 6d b7 a3 3e
       0.07005911 0.07002139 -0.12491019 0.3197588
000310 5d 28 cb be ef ae 9b bc 27 89 b6 3c c6 9f 28 3f
       -0.39679232 -0.019004313 0.022282196 0.65868795
000320 2a 20 78 3d f0 6d 64 be 59 f4 3f 3d 75 eb 28 be
       0.06057755 -0.22307563 0.046863887 -0.1649607
000330 03 17 35 3f 1a 95 47 3d 59 85 87 bc fe fe 92 3e
       0.7073824 0.04872618 -0.016543077 0.2871017
000340 70 35 42 3c 90 29 83 3d 8b 89 8f bd 78 71 e5 3e
       0.011853561 0.06404412 -0.07008656 0.44813132
000350 59 d4 41 be 52 d9 94 bd 00 ba 41 bb aa fc 43 bd
       -0.1892866 -0.07268013 -0.0029560328 -0.04784838
000360 e7 92 09 bf 01 8b a7 be 4d 8d ed bd 48 01 58 be
       -0.5373978 -0.3272324 -0.115992166 -0.21094239
000370 5e 7a a0 3d 4f c4 0a 3d c2 27 2c be 94 4b 25 3e
       0.0783584 0.03387862 -0.16812041 0.16142112
000380 0a cc 47 be 25 09 2c 3f ef df 04 be 66 2d d6 be
       -0.19511428 0.67201453 -0.12976049 -0.4183151
000390 92 da 7e 3e 1a d6 cc 3c f0 21 95 be 1e 34 c7 3e
       0.24888065 0.025004435 -0.29127455 0.3890695
0003a0 21 78 ed b9 88 4a 33 3d 91 55 e6 bd 09 cf 0e 3c
       -0.00045293666 0.04377225 -0.11246789 0.008716353
0003b0 9c c1 98 bd 99 cd 14 bf 86 7c 22 bf 17 8e 89 b9
       -0.07458803 -0.5812622 -0.6347126 -0.0002623654
0003c0 e2 d4 5b be 9c 5b 07 bf e9 74 cd be 92 af 7a 3e
       -0.21467927 -0.5287416 -0.40128258 0.24481037
0003d0 68 19 01 bf 60 57 f0 3e 89 10 b8 be 36 ca 63 3d
       -0.5042939 0.46941662 -0.35950115 0.055612765
0003e0 aa ad bf bf 7b 49 4e 3d 93 5b 7f 3f 08 e6 d6 3e
       -1.4974873 0.050363045 0.99749106 0.41972375
0003f0 7b f8 95 3d 7c 95 8f bc f3 fd 13 be 25 fa e2 3e
       0.073227845 -0.017527334 -0.14452343 0.4433147

fc4.bias f4 [4]
000000 f8 e8 0a bd fd b6 8e 3d 9c 26 87 3e 0e eb f0 3d
       -0.033913583 0.06968496 0.26396644 0.11763583
