models/apollo_ddqn_seed1111_final.pth (torch, 409879 bytes, 8 tensors)

fc1.weight f4 [256, 8]
0	0xbf871ea6	-1.0556228
1	0xbf87d85a	-1.06129
2	0x3e819fe6	0.25317305
3	0xbe09d822	-0.13461354
4	0x3ea89bb1	0.32931283
5	0x3e6516a4	0.22371918
6	0xbc4f6960	-0.012659401
7	0x3ea0f55d	0.31437197
8	0x3d86d860	0.06584239
9	0x3f1883ab	0.5957591
10	0xbe1c6901	-0.15274431
11	0x3ec6f377	0.38857624
12	0x3ee36656	0.44414014
13	0x3f1084f2	0.5645286
14	0xbd98d55c	-0.0746257
15	0xbd83be90	-0.06432831
16	0xbf068257	-0.5254263
17	0xbefe6323	-0.4968501
18	0x3f51e34d	0.8198746
19	0xbe477f38	-0.19482124
20	0xbf17f2b5	-0.59354717
21	0xbe88e62e	-0.26738113
22	0xbe0f3418	-0.13984716
23	0xbe706fc4	-0.23480135
24	0x3e9b4522	0.30326182
25	0x3ee234fe	0.44181055
26	0x3e7dab06	0.24772272
27	0x3dd4d940	0.10393
28	0xbf02fdd3	-0.51168555
29	0xbf01bb73	-0.5067665
30	0xbdade964	-0.08491781
31	0xbe3d4883	-0.18484692
32	0xbfb0d2dc	-1.3814349
33	0xbef5d208	-0.48011804
34	0xbe503c41	-0.20335485
35	0xbde31b46	-0.11089186
36	0xbde4e2ba	-0.11176057
37	0xbedd3423	-0.4320384
38	0xbeb42b30	-0.351892
39	0xbea23f12	-0.31688744
40	0x3ddcb611	0.10776914
41	0xbea728d7	-0.32648346
42	0xbe597a59	-0.21238078
43	0x3e1be9b5	0.15225871
44	0xbdd5f352	-0.104468
45	0x3e7aa728	0.24477828
46	0xbe965629	-0.2936261
47	0xbea52b82	-0.32259756
48	0x3dda8028	0.10668975
49	0x3efae550	0.49003077
50	0x3f0cbd0b	0.54975957
51	0x3e8c2cee	0.2737803
52	0xbdfb0b16	-0.12257974
53	0xbf4471c5	-0.767361
54	0xbe3bc116	-0.18335375
55	0xbe7a2f04	-0.24431998
56	0xbf652951	-0.8951617
57	0xbf143e00	-0.57907104
58	0xbe41c4e4	-0.18922764
59	0xbe94706d	-0.28992024
60	0x3dc91419	0.098182864
61	0x3e8f6065	0.2800323
62	0xbe45357d	-0.19258685
63	0x3e6d911e	0.23199889
64	0xbd0829d1	-0.033243004
65	0x3f089839	0.53357273
66	0x3e8281bc	0.25489604
67	0xbd929a1c	-0.071583
68	0xbf14c80e	-0.5811776
69	0xbeebc762	-0.46050555
70	0xbea7b7b2	-0.32757336
71	0x3ea65705	0.32488266
72	0xbef1ac39	-0.47201708
73	0xbf81c277	-1.0137471
74	0x3e454627	0.19265042
75	0xbebaf5c1	-0.3651562
76	0xbe59ee4b	-0.21282308
77	0x3da6e77d	0.08149622
78	0x3e49ec0a	0.19718948
79	0x3c90a660	0.017657459
80	0xbfec0312	-1.8438437
81	0xbeb7fc8d	-0.35934868
82	0xbecfa786	-0.40557498
83	0xbe6a809e	-0.22900626
84	0xbe29f3ce	-0.1659691
85	0xbef9764d	-0.4872307
86	0x3e89f81b	0.26947102
87	0x3e1c2086	0.15246782
88	0xbe953f35	-0.29149786
89	0x3dccefbd	0.10006664
90	0xbec5df5a	-0.38646966
91	0x3ea53385	0.3226587
92	0xbdf7a2a5	-0.12091569
93	0xbed51497	-0.4161727
94	0x3ccc6c70	0.02495405
95	0x3e952be1	0.2913504
96	0x3ebe93f6	0.3722226
97	0x3f06186d	0.5238102
98	0xbea97318	-0.33095622
99	0xbe61bc80	-0.22044563
100	0xbf4dc5e8	-0.80380106
101	0xbf23a1ed	-0.63918954
102	0x3e56d5e2	0.20980027
103	0xbdc34a9c	-0.09535715
104	0x3f47a26a	0.779822
105	0x3dd8627c	0.105656594
106	0x3f17f93c	0.59364676
107	0x3e863795	0.2621428
108	0xbe885044	-0.26623738
109	0xbf5c13ab	-0.8596751
110	0x3e821f55	0.2541453
111	0x3e97024f	0.2949395
112	0xbf8ade3d	-1.0849072
113	0xbe4b5782	-0.198576
114	0x3d6318f9	0.055443738
115	0xbecbc07c	-0.3979529
116	0xbe29adae	-0.1657016
117	0x3e7d4a7d	0.24735446
118	0xbe0f0edc	-0.13970512
119	0x3cbc8900	0.023014545
120	0x3f1c194a	0.6097609
121	0x3f317c08	0.6932988
122	0x3df30038	0.11865276
123	0x3e2d217e	0.16907308
124	0xbe2aec1a	-0.16691628
125	0xbf5f0d2f	-0.8712949
126	0x3e60daca	0.21958461
127	0x3e0fb188	0.14032567
128	0x3e36b002	0.17840579
129	0xbe5a174e	-0.21297953
130	0x3e222de6	0.15837821
131	0x3e2eb96a	0.17062917
132	0x3e4cac22	0.19987538
133	0x3e85ddc7	0.26145765
134	0x3eb1da5f	0.34736916
135	0xbe90348c	-0.2816509
136	0x3e9eddd5	0.3102862
137	0x3e58b5b2	0.21163061
138	0x3e99a3ff	0.30007932
139	0x3d5b5bc7	0.053554323
140	0x3e8ea3c5	0.2785932
141	0xbd294759	-0.041327808
142	0x3e27681a	0.16348305
143	0xbe26ef26	-0.16302165
144	0xbfa8cc93	-1.3187431
145	0xbe8fca96	-0.28084248
146	0x3dec6bac	0.11543974
147	0xbe69edf2	-0.22844675
148	0x3dcef61a	0.10105534
149	0x3ebe3950	0.371531
150	0x3ea772f9	0.32704905
151	0xbe4e2542	-0.201314
152	0x3f304dc1	0.68868643
153	0x3e1cf8d4	0.15329295
154	0x3e1e277d	0.15444751
155	0x3eabffa8	0.33593488
156	0xbed7d341	-0.4215336
157	0xbe0261b5	-0.12732585
158	0xbdfab46a	-0.122414425
159	0xbe68b422	-0.22724965
160	0xbf69f374	-0.91387105
161	0xbf726c4c	-0.946965
162	0x3e28d490	0.16487336
163	0xbe19445d	-0.14967485
164	0x392555a1	0.00015767525
165	0x3e16a406	0.14711007
166	0x3db056a0	0.086102724
167	0xbd97b1bc	-0.07406947
168	0xbfb537a1	-1.4157602
169	0xbe6a7259	-0.22895183
170	0x3e358545	0.1772662
171	0xbed40d43	-0.41416368
172	0xbe428066	-0.18994293
173	0x3e9da509	0.30789974
174	0x3e8dc061	0.27685836
175	0x3e8a5179	0.27015284
176	0xbe9b053a	-0.30277425
177	0xbdcac1af	-0.099002235
178	0x3e960c22	0.29306132
179	0xbece06b6	-0.40239495
180	0xbd55456d	-0.052068163
181	0x3e17ff75	0.14843543
182	0xbe509043	-0.20367531
183	0xbeac82fc	-0.33693683
184	0xbfb606d9	-1.422084
185	0x3dce7199	0.10080261
186	0x3e6229d0	0.22086263
187	0xbe6d68d2	-0.23184517
188	0x3d8dbb7e	0.06920527
189	0x3f029086	0.51001775
190	0xbe0fdc9b	-0.14048998
191	0x3eaa4d79	0.33262232
192	0x3ff97d0e	1.9491289
193	0x3cba964c	0.022776745
194	0x3edf3acc	0.43599546
195	0x3e44f5cb	0.19234388
196	0xbe5e65cb	-0.21718518
197	0x3e09f4da	0.1347231
198	0xbe5d5c47	-0.21617232
199	0x3e2e786a	0.17038122
200	0x3e71361c	0.23555797
201	0x3e5cc9f5	0.21561415
202	0x3e49c859	0.19705333
203	0x3dd56582	0.10419752
204	0xbea1a944	-0.31574452
205	0x3e9c4285	0.305195
206	0x3ead4ab3	0.33846053
207	0xbe0fd1d8	-0.14044893
208	0xbefde9dd	-0.49592486
209	0xbf5bc421	-0.85846144
210	0xbe0f3703	-0.13985829
211	0xbecf96cd	-0.4054474
212	0x3eb3b390	0.35097933
213	0xbe3524de	-0.17689845
214	0xbcd507e0	-0.026004732
215	0xbe86ca28	-0.26326108
216	0x3f75e33c	0.9604986
217	0x3f3fbd48	0.74898195
218	0xbe79c90f	-0.24393104
219	0x3e1283cf	0.14308093
220	0x3fd4c8b7	1.6623753
221	0x3f9bdb15	1.2176234
222	0x3e1d0cbe	0.15336892
223	0x3db0fc94	0.086419255
224	0x3f796257	0.9741568
225	0x3dd5b901	0.10435677
226	0x3e7f2066	0.24914703
227	0x3dcc84a1	0.099862345
228	0xbf00d993	-0.5033199
229	0xbedf4e83	-0.43614587
230	0x3e4568ce	0.19278261
231	0xbddb142c	-0.10697207
232	0x3eea6b1f	0.45784852
233	0xbfd31928	-1.6492052
234	0xbe373739	-0.1789216
235	0x3d00e05b	0.031463962
236	0xbe2cc890	-0.16873384
237	0xbe740472	-0.23829821
238	0x3dffc0a0	0.12487912
239	0xbe3a10e9	-0.18170513
240	0xbfc87695	-1.5661188
241	0xbec2e34b	-0.38064036
242	0x3e3e099f	0.18558358
243	0xbec1171c	-0.37712944
244	0xbf05992e	-0.5218686
245	0x3deec13b	0.116579495
246	0xbe3e0d09	-0.1855966
247	0xbd931dc4	-0.07183412
248	0xbe7c5508	-0.24641812
249	0xbfeaace2	-1.833401
250	0x3e20f502	0.15718463
251	0xbccbce16	-0.024878543
252	0x3d3d61ce	0.046235852
253	0x3e37a6bc	0.17934698
254	0xbea69644	-0.3253652
255	0x3e94a899	0.2903488

fc1.bias f4 [256]
0	0x3cf27278	0.029595599
1	0xbe7b0fbf	-0.24517725
2	0x3c39fe90	0.011352196
3	0x3de7e0df	0.11322188
4	0xbd95d6e5	-0.073163785
5	0xbdeb111c	-0.11477873
6	0x3e5e23aa	0.21693292
7	0x3d01c7af	0.031684574
8	0xbc8c537a	-0.017129648
9	0x3e4e576f	0.20150541
10	0xbd9cce9e	-0.076565966
11	0x3e1e5f83	0.15466122
12	0xbe6f79d3	-0.23386316
13	0x3e67b3c0	0.22627163
14	0xbddff64e	-0.10935651
15	0x3e1c4e90	0.15264344
16	0xbea3b940	-0.31977272
17	0xbea1de6d	-0.3161501
18	0xbdb82461	-0.08991314
19	0x3ed22dcf	0.41050574
20	0x3d817ed1	0.063230164
21	0xbdac024b	-0.08398875
22	0xbe8ddc43	-0.2770711
23	0xbdb4c9d5	-0.08827559
24	0x3b1020a7	0.0021992119
25	0xbe8b2723	-0.27178296
26	0x3dc128cb	0.09431609
27	0x3c943f9f	0.018096743
28	0xbe28530c	-0.1643793
29	0x3e754857	0.23953377
30	0x3d5ee73a	0.054419734
31	0x3e390068	0.18066561
32	0x3eb462b6	0.3523156
33	0xbe943fe4	-0.28954995
34	0x3dc666b7	0.0968756
35	0xbeb958fe	-0.36200708
36	0xbe5aaa6b	-0.21354072
37	0xbe64c7d6	-0.22341856
38	0x3e8dd189	0.27698925
39	0x3e8a2b32	0.2698608
40	0x3db700ed	0.089357235
41	0xbe84f76a	-0.25970012
42	0xbe8ec73d	-0.27886382
43	0x3e4b6232	0.19861677
44	0xbe85ce50	-0.26133966
45	0x3c2238c1	0.0099012265
46	0x3d94d81a	0.072677806
47	0xbeaa8aec	-0.33309114
48	0xbd02ac12	-0.03190238
49	0xbe3c9431	-0.18415906
50	0x3e87db5c	0.26534545
51	0x3e5bc082	0.21460155
52	0xbe940c83	-0.28915796
53	0xbd2dc7c7	-0.04242685
54	0xbe077793	-0.13229208
55	0xbea59854	-0.3234278
56	0x3e922649	0.28544834
57	0x3e75ab1f	0.23991059
58	0x3e0ab009	0.13543715
59	0x3ec9c626	0.39408988
60	0xbe849609	-0.25895718
61	0x3e2d9db3	0.16954689
62	0x3e23107f	0.15924262
63	0xbea77a3a	-0.3271044
64	0x3e258c1c	0.16166729
65	0x3d202949	0.039101873
66	0x3dabf4f8	0.083963335
67	0x3e5a7dac	0.21337003
68	0x3e4da3c1	0.20081998
69	0xbdbc20ec	-0.09185967
70	0x3da9e0b1	0.082948096
71	0xbe872bf6	-0.26400727
72	0x3def84a1	0.11695219
73	0x3e1f2405	0.15541084
74	0xbde80687	-0.1132937
75	0x3e48684f	0.1957104
76	0xbdb96a78	-0.090535104
77	0x3e649e3c	0.22325987
78	0x3e5303d3	0.20606928
79	0xbd9668b4	-0.07344189
80	0xbd51bce3	-0.051205527
81	0xbcaa1f84	-0.020766981
82	0xbe31bb5d	-0.1735663
83	0xbeb37401	-0.3504944
84	0xbe160385	-0.1464978
85	0x3e51e8b1	0.20498921
86	0xbd57ea67	-0.052713778
87	0x3e444d09	0.19170012
88	0xbe8a9c2c	-0.27072275
89	0xbaa1942b	-0.0012327483
90	0x3e03b9b6	0.12863812
91	0x3e4616b9	0.19344606
92	0x3d59e7ff	0.053199764
93	0xbda75b1a	-0.08171673
94	0xbe938ebb	-0.28819832
95	0x3c31d706	0.010854488
96	0x3c4427b1	0.011972354
97	0xbe2d4249	-0.16919817
98	0x3d272c12	0.040813513
99	0x3dd65039	0.1046452
100	0x3d4bca5d	0.049753536
101	0xbe17469b	-0.14773028
102	0x3e5bc6d7	0.2146257
103	0x3e9ae537	0.30253002
104	0xbe74d192	-0.2390807
105	0x3ca264ed	0.019823516
106	0x3e073472	0.132036
107	0xbd6f7e79	-0.058470223
108	0x3d727fb6	0.059203826
109	0x3c89e112	0.016830955
110	0xbdd8807c	-0.105713814
111	0x3e6e89f8	0.23294818
112	0xbdcece19	-0.10097904
113	0x3e890aa0	0.2676592
114	0x3e52bc1e	0.20579574
115	0x3cc1f9ca	0.023678679
116	0xbe01c641	-0.12673284
117	0xbe91078b	-0.28326067
118	0xbe2fdd16	-0.17174181
119	0x3e1eae13	0.15496092
120	0x3db0bc22	0.086296335
121	0x3e3ca18c	0.18421
122	0xbeb325c8	-0.34989762
123	0xbdfa8c72	-0.12233819
124	0xbe931110	-0.28723955
125	0x3e1345d9	0.14382114
126	0xbdeaabcc	-0.11458549
127	0xbe7ef139	-0.24896707
128	0x3e8e2282	0.27760702
129	0xbeb15803	-0.3463746
130	0x3dcd780b	0.10032662
131	0xbecbb81b	-0.397889
132	0x3d83b239	0.06430478
133	0x3e119ec9	0.14220728
134	0xbe9c9cb9	-0.3058832
135	0x3c0ea07e	0.0087052565
136	0x3d9c033f	0.07617807
137	0x3e8d14c3	0.27554902
138	0x3ddb2a2b	0.10701402
139	0x3e11e734	0.14248353
140	0xbe27abc2	-0.16374114
141	0xbecbe47c	-0.39822757
142	0xbe43c5f9	-0.1911849
143	0x3df8108f	0.12112533
144	0x3dbabeb9	0.09118409
145	0xbe14aa17	-0.14518009
146	0x3e7afb52	0.24509934
147	0x3e891d77	0.26780292
148	0x3d81521b	0.063144885
149	0x3d866966	0.06563072
150	0xbe0778e9	-0.13229717
151	0xbca477cb	-0.020076653
152	0x3e218114	0.15771896
153	0x3e8c67ac	0.27422845
154	0x3dcf4c54	0.1012198
155	0x3b89b17f	0.0042020674
156	0xbc8fd3cd	-0.01755705
157	0xbe9c5363	-0.3053237
158	0x3bd369bb	0.006451813
159	0x3eb0d80b	0.34539828
160	0x3e846f3f	0.25866124
161	0xbe4183b8	-0.18897903
162	0xbe75bdb6	-0.2399815
163	0x3de74a37	0.11293452
164	0x3db246e9	0.08704931
165	0xbe083875	-0.13302787
166	0x3c8002c2	0.015626315
167	0x3e30e98f	0.17276596
168	0x3e5424a4	0.20717102
169	0xbdd5fe60	-0.10448909
170	0x3d440351	0.047854725
171	0xbead7061	-0.338748
172	0xbe87e550	-0.2654214
173	0x3e50f21b	0.20404856
174	0x3ec28e2e	0.379991
175	0xbeb5c90a	-0.35504943
176	0x3d80ac03	0.06282809
177	0x3e3e89fc	0.18607324
178	0xbea4e6b5	-0.32207265
179	0x3cfdd74b	0.030986449
180	0xbea347d3	-0.31890735
181	0x3d812b91	0.06307138
182	0x3c0a4b83	0.008440855
183	0xbe4da015	-0.20080598
184	0xbc5089fd	-0.0127282115
185	0x3c37c84c	0.011217188
186	0x3e838683	0.25688562
187	0xbe47a649	-0.19497027
188	0xbe82837b	-0.25490937
189	0x3b87eaea	0.004147877
190	0x3ea0b1e8	0.31385732
191	0x3db496e6	0.08817844
192	0xbdbe4bc2	-0.092917934
193	0x3eb622f7	0.3557355
194	0x3eb0fea2	0.3456927
195	0xbe4c8b2d	-0.19974966
196	0xbe841924	-0.2580043
197	0x3dd0520f	0.101719014
198	0x3dfd8350	0.123785615
199	0x3c90a331	0.01765594
200	0xbcfa19c9	-0.030529873
201	0xbe8c27ea	-0.27374202
202	0x3e87f5ff	0.26554868
203	0x3da7279a	0.0816185
204	0x3e219177	0.15778147
205	0xbd6d6aa9	-0.057963047
206	0xbe86366c	-0.26213396
207	0xbe84e974	-0.2595936
208	0xbdf1abb0	-0.11800325
209	0xbe9b38d5	-0.30316797
210	0x3c0f63ec	0.008751851
211	0x3e8ec2c6	0.27882975
212	0x3eb4c468	0.35306096
213	0xbcdc39c2	-0.02688301
214	0xbeada7be	-0.3391704
215	0x3e47be06	0.19506082
216	0x3da1e310	0.07904637
217	0x3dfb7984	0.12279037
218	0x3c127ba2	0.008940609
219	0x3e7bb17d	0.24579425
220	0x3e558211	0.20850398
221	0x3c675a3c	0.014120635
222	0xbd987a38	-0.074451864
223	0xbdb6a56f	-0.08918273
224	0x3d14c4d6	0.03632053
225	0x3e358555	0.17726643
226	0xbe3c7954	-0.18405658
227	0x3d0994d9	0.033589218
228	0x3e3e4e03	0.18584447
229	0xbe3ddfd0	-0.18542409
230	0x3d2eb4ac	0.04265277
231	0xbd554ad9	-0.052073333
232	0xbe5140a6	-0.20434818
233	0x3d9ddb65	0.07707862
234	0x3e2961a9	0.1654116
235	0xbea100d5	-0.31445947
236	0x3e4a3cba	0.19749728
237	0xbdd27d52	-0.10277809
238	0xbeab3a99	-0.33443144
239	0x3da9e9d4	0.08296552
240	0xbe25cf9c	-0.16192478
241	0xbe6e3246	-0.23261365
242	0xbd1010b9	-0.035172198
243	0xbeac8864	-0.33697808
244	0xbd83b1ae	-0.06430374
245	0x3e3ae2e8	0.1825062
246	0xbe3a6b20	-0.18204927
247	0x3e9c98a2	0.305852
248	0xbd89b0bc	-0.067231625
249	0xbe9d1b2a	-0.30684787
250	0xbe987405	-0.29776016
251	0x3dce42c4	0.10071328
252	0xbccffe29	-0.025389748
253	0x3e6c4099	0.23071517
254	0x3e81fb48	0.25387025
255	0x3e44d927	0.19223462

fc2.weight f4 [256, 256]
0	0x3bf2e323	0.0074123307
1	0x3d51831e	0.051150434
2	0x3d3629c4	0.044473425
3	0x3c833c1f	0.016019879
4	0xbd43d1c9	-0.04780749
5	0xbd4d18ce	-0.050072484
6	0x3cbfbd29	0.023405628
7	0xbcc326b6	-0.02382217
8	0xbd0bce6c	-0.034132406
9	0xbbc6e5b6	-0.006069864
10	0x3ce51444	0.027963765
11	0xbccb66d5	-0.024829308
12	0x3a003eb1	0.0004892154
13	0xbd90da9f	-0.07072949
14	0x3c5afbe8	0.013365723
15	0x3ce4f430	0.027948469
16	0x3d6f3b7e	0.058406346
17	0xbcb3dc80	-0.021955729
18	0x3d2957e2	0.041343577
19	0x3d60bf85	0.054870147
20	0x3cb4d0cc	0.022072218
21	0x3a106d17	0.000550942
22	0xbd2c4adc	-0.04206358
23	0xbc20fd3f	-0.009826004
24	0xbd090306	-0.03345015
25	0x3d6a6744	0.057227388
26	0x3c473de4	0.012160752
27	0xbd56feda	-0.05248914
28	0xbd58cc20	-0.052929044
29	0xbd98bc4e	-0.07457791
30	0x3cd6de6b	0.026229104
31	0xbd1a6582	-0.03769446
32	0xbc25a37b	-0.010109778
33	0x3cfdb164	0.030968376
34	0x3d0cd9ba	0.034387328
35	0xbd309768	-0.043113142
36	0xbda60c7c	-0.0810785
37	0xbc5f15b8	-0.013616018
38	0xbc92cea8	-0.017920807
39	0xbd64b528	-0.055836827
40	0x3c0472f8	0.008084051
41	0xbd255126	-0.040360592
42	0x3cb7709c	0.022392564
43	0xbd5587bf	-0.05213141
44	0xbb46fe00	-0.0030363798
45	0x3ba9f1a9	0.005186279
46	0xbc2309c0	-0.009951055
47	0xbb223cc0	-0.0024755448
48	0xbcc9e97d	-0.024647469
49	0x3d5ff006	0.054672264
50	0xbd1ae734	-0.03781815
51	0x3cf5972b	0.029979309
52	0xbd595f84	-0.053069606
53	0x3d337bae	0.043819122
54	0x3ca8bdd2	0.020598326
55	0xbd332d8a	-0.0437446
56	0x3d1f731c	0.038928136
57	0xbd68825b	-0.05676494
58	0xbd044e52	-0.032301255
59	0xbd90704c	-0.07052669
60	0xbcbc1990	-0.022961408
61	0x3aff0700	0.0019457042
62	0x3c9378f3	0.018002009
63	0x3d034b1a	0.032054044
64	0xbb8eb988	-0.004355613
65	0x3c81b23c	0.01583206
66	0xbc274db0	-0.010211393
67	0x3ac45c04	0.0014981036
68	0x3c44f0ad	0.012020272
69	0xbd81538d	-0.06314764
70	0xbca8c063	-0.02059955
71	0x3d7fef02	0.062483795
72	0x3cbb8c2c	0.022893988
73	0xbd9438cd	-0.072373964
74	0x3b565ce0	0.0032709166
75	0xbd9aa008	-0.07550055
76	0xbcea1223	-0.028573101
77	0xbd747558	-0.05968222
78	0xbd7771d7	-0.0604113
79	0xbdafd131	-0.08584822
80	0xbd21b2f9	-0.039477322
81	0x3cc19841	0.02363217
82	0x38777e0e	5.9006787e-05
83	0x3c568ed0	0.013095573
84	0x3bbf8950	0.0058452263
85	0xbd5d8533	-0.054082107
86	0xbba0356d	-0.0048891813
87	0x3d33d729	0.043906365
88	0xbcc3be64	-0.023894496
89	0xbd934068	-0.07190019
90	0x3d14d670	0.036337316
91	0xbd7a7486	-0.06114628
92	0xbd8e26b6	-0.06940977
93	0x3d1c5785	0.038169403
94	0x3d6ce068	0.057831198
95	0x3ce893c7	0.028390778
96	0xbd16069e	-0.036627404
97	0xbd3e632a	-0.04648129
98	0xbbffd22c	-0.007807037
99	0x3d1134cb	0.035450738
100	0xb98dbc3f	-0.0002703387
101	0xbbd85f30	-0.006603144
102	0x3c641433	0.0139208315
103	0xbd24fa07	-0.040277507
104	0x3c5eb2c3	0.013592425
105	0xbcb38921	-0.021915974
106	0xbd6c5f45	-0.057708044
107	0x3cbb96d5	0.02289907
108	0xbaee9b85	-0.0018204307
109	0xbd962fd5	-0.07333342
110	0xbd354981	-0.044259552
111	0xbd6ddaf3	-0.058070134
112	0x3c0a1603	0.0084281
113	0xbdafd3f4	-0.08585349
114	0x3c3b5396	0.011433503
115	0xbd1d54f6	-0.038411103
116	0xbcb5e034	-0.022201635
117	0xbd47231a	-0.04861746
118	0xbd74d1ce	-0.059770398
119	0xbd0a2fc6	-0.033736967
120	0xbd540a5f	-0.051767703
121	0xbcd22741	-0.025653483
122	0xbbe63530	-0.0070253834
123	0xbd7a63ca	-0.061130323
124	0x3b0d9280	0.0021602213
125	0x3d2f101f	0.042739984
126	0xbba2c360	-0.004967138
127	0xbd2be09e	-0.04196226
128	0xbd21b144	-0.039475694
129	0x3cb964c0	0.02263105
130	0x3d1c358a	0.038136996
131	0x3b659bd8	0.0035035517
132	0x3d124f62	0.035720237
133	0xbd867612	-0.06565489
134	0xbbf3aa20	-0.007436052
135	0xbd1e27d4	-0.0386122
136	0xbd821a05	-0.06352619
137	0x3af31697	0.0018546161
138	0xbcd8573a	-0.02640878
139	0x3d17517a	0.036942936
140	0xbc4a9920	-0.012365609
141	0x3c41afc8	0.011821695
142	0xbd21da02	-0.03951455
143	0xbc2fc008	-0.010726936
144	0x3d1e233f	0.038607832
145	0xbd0c9434	-0.034321025
146	0xbc2292c0	-0.009922683
147	0xbd37e3d2	-0.044895
148	0xbbb2888a	-0.0054484056
149	0xbc83d165	-0.016091058
150	0x3b8a7250	0.004225053
151	0x3d6427c4	0.055701986
152	0x3d2663c5	0.04062249
153	0xbd45d7ca	-0.048301496
154	0xbca51786	-0.020152818
155	0xbd38845b	-0.0450481
156	0xbd21590a	-0.039391555
157	0x3ce71bd8	0.02821152
158	0xbbe9cce0	-0.0071350187
159	0x3bc78068	0.0060883053
160	0x3cde753b	0.02715551
161	0xbca26dd3	-0.019827759
162	0xbab3fa00	-0.0013731122
163	0xbd6cbdb4	-0.057798102
164	0xbd5c13c9	-0.053729806
165	0xbafff4c0	-0.0019527897
166	0xbc4d79ce	-0.0125412475
167	0xbd82bf6c	-0.06384167
168	0x3d1ce6b2	0.038305946
169	0xbd4aca74	-0.04950948
170	0x3d231199	0.039811704
171	0x3b3c9f80	0.0028781593
172	0x3cd63ba0	0.026151478
173	0xbd954b29	-0.07289726
174	0x3d558452	0.052128144
175	0x3cf6e664	0.030139156
176	0xbd4a1948	-0.049340516
177	0xbcf74a48	-0.030186787
178	0x3d2b8f41	0.041884664
179	0x3cb8c8b5	0.022556642
180	0xbd5479be	-0.051873915
181	0xbd879810	-0.066208005
182	0xbd8c3e52	-0.06847824
183	0x3d2fe456	0.042942367
184	0x3ca7b33d	0.02047121
185	0x3c4f2e6b	0.012645344
186	0xbc939015	-0.01801304
187	0xbd2aee64	-0.041731253
188	0xbd9ed02d	-0.0775455
189	0xbd52f2f1	-0.05150122
190	0xbd3c66c8	-0.045996457
191	0xbd0da86a	-0.03458444
192	0xbd9db946	-0.07701354
193	0x3c9b1d88	0.01893498
194	0x3c9a8270	0.018861026
195	0x3cd1905b	0.02558153
196	0x3d161751	0.03664333
197	0x3d07e51c	0.03317748
198	0x3cf4dab6	0.029889446
199	0xbc9a73bb	-0.018854013
200	0xbd531e7c	-0.051542744
201	0x3cb62c63	0.022237962
202	0xbc8b2d0b	-0.016989252
203	0xbb8e8f90	-0.00435061
204	0x3cb8d64f	0.022563128
205	0xbcedac79	-0.029012905
206	0xbc4478e6	-0.011991715
207	0xbd1db55c	-0.038503036
208	0x3c96dbd4	0.01841537
209	0xbce0ecdc	-0.027456693
210	0xbc5fa6d2	-0.013650613
211	0x3d204555	0.03912862
212	0x3c69fa45	0.01428086
213	0xbd541af2	-0.05178351
214	0xbdbccad1	-0.09218372
215	0x3cedb4ed	0.029016936
216	0xbd90e482	-0.070748344
217	0x3d0d174f	0.034446057
218	0xbd919dd5	-0.07110182
219	0xbd09028b	-0.03344969
220	0x3d050228	0.03247276
221	0x3c2fafa8	0.010723032
222	0x3d21fb23	0.039546143
223	0xbbb00e60	-0.0053728074
224	0x3d06a526	0.03287234
225	0xbc0348f0	-0.008012995
226	0x3d1a32ba	0.037646033
227	0xbd81a1ac	-0.063296646
228	0xbc7ec57b	-0.015550013
229	0x3d75f5f6	0.06004902
230	0xbd9888f2	-0.07447995
231	0xbd9be934	-0.07612839
232	0xbd6b18ed	-0.057396818
233	0xbd29e78f	-0.041480597
234	0x3bb5fd8e	0.0055539077
235	0xbd6ed670	-0.058309972
236	0xbd89a2ff	-0.06720542
237	0xbd5b3d56	-0.05352529
238	0xbca7710c	-0.020439647
239	0x3d149c00	0.036281586
240	0xbd37211c	-0.04470931
241	0x3ce1dd3a	0.02757131
242	0xbcbe6b14	-0.023244418
243	0xbb640255	-0.003479143
244	0xbd024f3e	-0.031813852
245	0xbd818315	-0.0632383
246	0xbc06fd46	-0.008239096
247	0x3d3b31e0	0.04570186
248	0xbce89e1f	-0.02839571
249	0xbd5348dd	-0.05158316
250	0x3c67b8b0	0.014143154
251	0xbd936578	-0.07197088
252	0xbdac105f	-0.0840156
253	0x3d335947	0.043786313
254	0xbc37cc35	-0.01121812
255	0x3d231718	0.039816946

fc2.bias f4 [256]
0	0xbb0e1cf3	-0.0021684736
1	0x3db5e488	0.088814795
2	0x3dbf8da6	0.09353189
3	0x3dfe86a3	0.12428024
4	0xbc3bdae1	-0.011465759
5	0x3d859b81	0.06523801
6	0x3e00a438	0.12562644
7	0x3b57a179	0.0032902642
8	0xbcc7175b	-0.024303129
9	0x3d2a9259	0.041643474
10	0xbccd0e7f	-0.025031326
11	0x3dedc40c	0.116096586
12	0xbcc9753f	-0.02459204
13	0xbd0d9edb	-0.034575325
14	0xbe04806f	-0.12939619
15	0x3a453bf4	0.00075238873
16	0x3d390d64	0.045178786
17	0xbd2aea0e	-0.04172712
18	0xbd098419	-0.033573244
19	0x3cd6d26c	0.026223384
20	0xbd8ca747	-0.06867843
21	0x3df6c8fc	0.120500535
22	0x3cb8b6a1	0.022548022
23	0xbd92a10b	-0.07159623
24	0xbcf3ddc7	-0.029768838
25	0xbd8016fa	-0.062543824
26	0xbca62cbc	-0.020285003
27	0xbcbbfa0b	-0.022946378
28	0x3cd57bae	0.026059952
29	0x3dc1aafc	0.09456441
30	0x3e54faf6	0.20798859
31	0x3da4d214	0.08047882
32	0xbacbaf69	-0.0015539947
33	0x3b1c0756	0.0023808083
34	0xbccd94f0	-0.025095433
35	0xbd1e9155	-0.03871282
36	0x3dcec73e	0.10096596
37	0x3e1e4d15	0.15459092
38	0x3cc0f22f	0.023552982
39	0x3cb472e8	0.022027448
40	0xbd47ff45	-0.04882743
41	0xbb5f1b96	-0.0034043542
42	0xbc216979	-0.009851807
43	0xbde3b2fe	-0.111181244
44	0xbc5d5562	-0.013509126
45	0xbc01b124	-0.007915769
46	0x3ddf05c2	0.1088977
47	0x3e030ea1	0.12798549
48	0xbc0b0389	-0.00848473
49	0x3e2690d9	0.16266192
50	0xbc995e13	-0.018721616
51	0xbc849bdc	-0.0161876
52	0x3d026862	0.03183783
53	0x3c6d4d99	0.014483833
54	0xbd53203e	-0.05154442
55	0xbc6c2423	-0.014412913
56	0xbd491914	-0.049096182
57	0x3cdcfd85	0.026976356
58	0xbc70cfe4	-0.0146980025
59	0xbd165f95	-0.036712248
60	0x3d1fa6c8	0.038977414
61	0x3e1a994a	0.15097538
62	0x3dd24cb4	0.10268536
63	0xbd279630	-0.040914714
64	0x3e3cd5a8	0.18440878
65	0x3e460f34	0.19341737
66	0x3d06388c	0.03276877
67	0x3c93f238	0.018059835
68	0x3d66dffd	0.056365956
69	0x3c9d5a40	0.019208074
70	0x3dfff9e9	0.124988385
71	0x3ca26cd6	0.019827288
72	0x3ca7dcdf	0.020491062
73	0xbd9a44dd	-0.07532666
74	0x3e112a79	0.14176358
75	0xbd6d5d4c	-0.057950303
76	0xbc4d2009	-0.012519845
77	0xbd7f2af0	-0.062296808
78	0x3d844ae0	0.06459594
79	0x3dd89ee3	0.1057718
80	0x3af9ff4c	0.0019073277
81	0x3e09fda4	0.13475662
82	0xbc80eab0	-0.015736908
83	0x3bd1dd63	0.006404565
84	0xbc41ec14	-0.011836071
85	0x3af0d252	0.0018373227
86	0x3e3e7b2b	0.18601672
87	0xbd3cb85f	-0.046074267
88	0xbc85b658	-0.0163223
89	0x3d3be160	0.04586923
90	0x3d7aa591	0.061193053
91	0x3d5801a1	0.05273593
92	0xbd872090	-0.06598008
93	0xbd05a25a	-0.032625534
94	0xbcd8e773	-0.026477551
95	0xbd737918	-0.059441656
96	0xbc02efba	-0.007991726
97	0x3cb0f94b	0.021603247
98	0x3dd1a3e2	0.10236336
99	0xbd3842b9	-0.044985507
100	0xbce87010	-0.028373748
101	0x3dfae90c	0.122514814
102	0xbc03b8e5	-0.008039688
103	0x3de0a581	0.10969067
104	0x3d9510f5	0.07278625
105	0x3dfc70df	0.12326216
106	0xbd3a108a	-0.04542593
107	0x3d0adf84	0.033904567
108	0x3dae7604	0.085186034
109	0xbcedda8e	-0.029034879
110	0xbd043d2d	-0.032284904
111	0x3e155fdc	0.14587349
112	0xbd375da0	-0.044767022
113	0x3d29e949	0.041482244
114	0xbd837fde	-0.06420873
115	0xbc8daaef	-0.017293422
116	0xbcdbe5e9	-0.026843028
117	0xbd6805e6	-0.05664625
118	0x3d9c24f7	0.07624238
119	0xbd4efef3	-0.050536107
120	0x3e27a082	0.16369823
121	0xbd5b9614	-0.053609923
122	0x3dbc1421	0.09183527
123	0xbbbd9481	-0.0057855253
124	0xbcd674a9	-0.026178675
125	0xbc508812	-0.012727754
126	0x3d11d3c5	0.03560235
127	0x3de1bd5e	0.11022447
128	0xbdacbee0	-0.08434844
129	0xbc8fdf8e	-0.017562654
130	0x3d2c7eb4	0.04211302
131	0xbd454290	-0.048159182
132	0x3dcbb865	0.0994728
133	0xbda79bfb	-0.08184048
134	0xbde6604c	-0.11248836
135	0x3b3fde69	0.0029276854
136	0xbe1912dd	-0.14948602
137	0x3de75d79	0.11297125
138	0x3e039b3e	0.12852189
139	0x3d1c3893	0.03813989
140	0xbc61816a	-0.013763765
141	0x3dcdfd88	0.10058123
142	0x3d103cdb	0.035214286
143	0x3cb20ac6	0.021733653
144	0x3d94b3e5	0.07260875
145	0xbd2b634a	-0.041842736
146	0xbd010d8a	-0.031507052
147	0x3dec9043	0.11550953
148	0x3e359328	0.17731917
149	0x3d7d4dfe	0.061841957
150	0x3dfea6a6	0.124341294
151	0xbd8126c5	-0.06306223
152	0x3dcbfd7c	0.09960458
153	0xbc98fac3	-0.01867426
154	0xbd34805d	-0.04406773
155	0x3dcd5008	0.100250304
156	0x3d4ce337	0.050021376
157	0xbcf6148b	-0.030039093
158	0x3e404634	0.1877678
159	0x3cca957a	0.02472948
160	0x3d80bb1b	0.062856875
161	0xbd120c35	-0.035656173
162	0x3d2e9ee3	0.042631995
163	0x3d8e37b0	0.06944215
164	0x3d51ca30	0.05121821
165	0xbbef2750	-0.0072983876
166	0xbd7272a7	-0.059191372
167	0x38474bb5	4.7515805e-05
168	0xbd039b81	-0.032130722
169	0x3c24566b	0.010030369
170	0x3bca9be2	0.0061831335
171	0xbd7a7c3e	-0.061153643
172	0x3de28704	0.110609084
173	0xbd387b32	-0.045039363
174	0xbd42784b	-0.047478
175	0x3d3e3ddc	0.046445712
176	0x3cecf187	0.028923763
177	0x3db5089e	0.08839534
178	0x3d29cd39	0.04145548
179	0xbd4a9915	-0.049462397
180	0xbd5a15a0	-0.05324328
181	0x3dbdb8cb	0.09263762
182	0xbbd3c36e	-0.006462506
183	0xbd892b05	-0.066976584
184	0xbd042ac3	-0.032267343
185	0x3e43c535	0.19118197
186	0x3d70ac63	0.05875815
187	0x3e3c510e	0.18390295
188	0xbca13056	-0.019676369
189	0xbcbd0757	-0.023074789
190	0x3c8ed801	0.017436983
191	0x3de3ec8a	0.111291006
192	0x3dc1f195	0.09469906
193	0x3c518d12	0.012789981
194	0x3dcd76df	0.100324385
195	0x3d21f3df	0.039539214
196	0x3ca0c3fc	0.019624703
197	0x3e53fc68	0.20701754
198	0x3bcd0077	0.006256159
199	0xbbf06dd5	-0.0073373117
200	0x3c6cf04a	0.014461586
201	0x3c581702	0.013189079
202	0x3d6885ca	0.056768216
203	0x3d11a08c	0.0355535
204	0x3d83de18	0.064388454
205	0x3ccae8ec	0.024769269
206	0xbce4efae	-0.02794632
207	0xbb346b07	-0.0027529614
208	0x3cf1690e	0.02946904
209	0xbd485b34	-0.048915103
210	0x3d7845ab	0.060613316
211	0xbc980da4	-0.018561192
212	0xbd155439	-0.036457274
213	0xbc107e33	-0.008819151
214	0xbd183544	-0.037160173
215	0x3d4ffd53	0.0507787
216	0x3bbcedb6	0.005765642
217	0x3d291e27	0.04128852
218	0xbdab7d00	-0.08373451
219	0xbaca1d36	-0.0015420082
220	0xbd32ee63	-0.043684375
221	0x3cee7ffa	0.029113758
222	0x3e23b3e2	0.15986589
223	0xbe1152d1	-0.14191748
224	0x3d488248	0.04895237
225	0x3e80de84	0.25169766
226	0x3c3d317d	0.011547443
227	0x3c64e86a	0.013971427
228	0x3dcbdc32	0.09954108
229	0x3cdecb90	0.027196676
230	0x3d2d2170	0.042268217
231	0x3dc84806	0.097793624
232	0x3e0e5a0f	0.13901542
233	0xb8fe4b33	-0.00012125671
234	0x3ddf3e41	0.10900546
235	0xbcaf1110	-0.02137044
236	0x3e03be56	0.12865576
237	0x3e07a4b5	0.13246424
238	0xbbb93b15	-0.005652795
239	0xbc1957fa	-0.009359354
240	0x3b80f700	0.0039356947
241	0x3e05f82c	0.13082951
242	0xbbc94a21	-0.00614287
243	0xb921a108	-0.00015414145
244	0xbd79b238	-0.06096098
245	0xbcb87d5a	-0.02252071
246	0xbd5c056a	-0.0537161
247	0x3de3cca8	0.111230195
248	0x3c2387c9	0.009981104
249	0x3d1e0402	0.03857804
250	0x3ddbeaf2	0.10738172
251	0xbc0c9ad5	-0.008581837
252	0xbc293610	-0.010327831
253	0xbcd410ad	-0.025886858
254	0x3d6cfef7	0.05786034
255	0x3da1a5ca	0.0789295

fc3.weight f4 [128, 256]
0	0xbc7aba02	-0.015303137
1	0x3e06ff7d	0.13183399
2	0x3ccf710c	0.02532246
3	0xbeb99dae	-0.36253113
4	0x3c3742b2	0.011185335
5	0xbe7193de	-0.23591563
6	0xbf09be8c	-0.53806376
7	0xbd4c8066	-0.049927138
8	0xbe163d58	-0.14671838
9	0x3d1e2ebc	0.038618788
10	0x3ba38e09	0.004991297
11	0xbe0a70d4	-0.13519603
12	0xbd2064af	-0.03915852
13	0x3b3e16a0	0.0029005185
14	0xbd8f302e	-0.069916114
15	0x3c2a48f8	0.010393374
16	0xbc922031	-0.017837616
17	0x3d3a2838	0.04544851
18	0xbd5d0cc4	-0.053967252
19	0xbd4579dc	-0.048211917
20	0x3e2c2edd	0.16814752
21	0x3df646cf	0.120252244
22	0x3de3be75	0.11120311
23	0xbd12fcca	-0.03588561
24	0x3d25e31b	0.040499788
25	0x3edcbcdf	0.43112847
26	0xbbf45be4	-0.0074572433
27	0x3e6e81dd	0.23291726
28	0xbd08a101	-0.03335667
29	0x3e610a1a	0.2197651
30	0xbefc8f57	-0.4932811
31	0x3e68a97d	0.22720905
32	0xbd05639d	-0.0325657
33	0x3dff0130	0.124513984
34	0xbc4fbdb0	-0.012679502
35	0xbd421c0d	-0.047390033
36	0xbe74896b	-0.23880546
37	0xbd400169	-0.046876345
38	0x3e4b6815	0.19863923
39	0xbd5f9c02	-0.05459214
40	0x3b8b940b	0.0042595915
41	0x3e0aaa7c	0.13541597
42	0x3b1d1073	0.0023966103
43	0x3ef96f6d	0.48717824
44	0xbd0c016a	-0.034181036
45	0x3df645a3	0.12025001
46	0x3ee83878	0.45355582
47	0x3c160569	0.009156563
48	0x3e1ac470	0.15113997
49	0xbe7018ba	-0.23446932
50	0x3d086002	0.033294685
51	0xbce1d2c0	-0.027566314
52	0xbe22162a	-0.15828767
53	0x3e575815	0.21029694
54	0x3d493f50	0.049132645
55	0xbd06c28b	-0.032900374
56	0x3d4dfcd4	0.050289944
57	0x3e09963c	0.13436216
58	0xbd39f0a0	-0.045395494
59	0x3cc9202b	0.024551472
60	0x3e8948b2	0.26813275
61	0xbe8781ec	-0.2646631
62	0x3e2ece7b	0.17070954
63	0x3c7172fb	0.014736886
64	0xbefa5e89	-0.4890025
65	0xbddd941d	-0.10819266
66	0xbe085bda	-0.13316289
67	0xbc9c42a4	-0.019074745
68	0xbe95ef4c	-0.29284132
69	0x3e06f533	0.13179474
70	0x3de9f969	0.11424524
71	0xbb98d5f6	-0.004664178
72	0x3c2438fb	0.010023351
73	0x3d13e198	0.036103815
74	0x3ceef055	0.029167334
75	0xbd846db9	-0.064662404
76	0x3d885eea	0.066587284
77	0x3d37ca4c	0.04487066
78	0x3e4d7e26	0.20067653
79	0x3e651f06	0.22375116
80	0x3c34dd99	0.011039161
81	0x3db2d3ac	0.087317795
82	0xbce291d6	-0.02765743
83	0x3d8204a6	0.06348543
84	0xbc26147c	-0.01013672
85	0x3c2d9ae8	0.010596015
86	0xbe3f0f03	-0.1865807
87	0x3d31c57c	0.043401226
88	0x3e98b3b4	0.29824603
89	0x3cc9a6a7	0.024615599
90	0xbe12cb49	-0.1433536
91	0x3e894341	0.26809123
92	0x3d3adc6c	0.045620367
93	0x3c2d77c3	0.010587635
94	0x3ae4ff80	0.0017471164
95	0x3d501bb9	0.05080769
96	0xbca92ca6	-0.020651173
97	0x3e84c489	0.25931194
98	0x3e60429f	0.21900414
99	0x3d245dfe	0.0401287
100	0xbd0e6582	-0.034764774
101	0xbcf4d119	-0.029884862
102	0x3e951600	0.29118347
103	0x3e6a7a7b	0.22898285
104	0x3e7169c3	0.23575501
105	0xbe9f7e6b	-0.31151137
106	0x3cc0990d	0.02351048
107	0x3e8350c2	0.2564755
108	0xbe3cb6c4	-0.18429095
109	0xbd4b326b	-0.04960863
110	0xbbee9490	-0.0072808936
111	0x3e87393f	0.26410863
112	0xbb4967c0	-0.0030732006
113	0x3e2027a4	0.15640122
114	0x3c8a564e	0.016886856
115	0x3c0506ed	0.008119327
116	0x3d952d2c	0.072840065
117	0x3ebb0000	0.36523438
118	0xbe4fea1b	-0.20304148
119	0x3cba5f69	0.022750573
120	0x3e4973a9	0.19673027
121	0xbc52cb83	-0.012865904
122	0xbe6cf9e2	-0.23142198
123	0xbd37c7b5	-0.04486819
124	0x3e38fbe4	0.18064839
125	0x3cb17d35	0.021666149
126	0xbc98246d	-0.018572057
127	0x3e38f725	0.18063028
128	0x3e1cdbfe	0.15318295
129	0x3df7943f	0.120888226
130	0xbd28982e	-0.041160755
131	0x3d54183c	0.051780924
132	0x3e2110a0	0.15728998
133	0x3d8f07a1	0.06983877
134	0x3e2fd164	0.1716972
135	0x3e4266b7	0.18984495
136	0xbe857e2c	-0.26072824
137	0xbe81637b	-0.2527121
138	0x3e0b43c7	0.13600074
139	0xbcdf5a0c	-0.027264617
140	0x3caffb00	0.02148199
141	0x3e2ac273	0.16675739
142	0xbc1ce6d3	-0.009576517
143	0xbd551a93	-0.052027296
144	0x3e6540e8	0.22388041
145	0x3d3e9686	0.04653027
146	0xbd2be27e	-0.041964047
147	0x3e3437b9	0.17599382
148	0xbe726a8e	-0.2367346
149	0x3e7fabfa	0.24967948
150	0x3d9f591c	0.07780668
151	0x3bf9bd4f	0.0076214443
152	0x3dcd9b43	0.100393794
153	0xbd815d78	-0.06316656
154	0xbd72c8c6	-0.059273504
155	0x3df78efb	0.12087818
156	0x3e5e3fc3	0.2170401
157	0x3d3e0de6	0.046399973
158	0x3df2742b	0.118385635
159	0x3e94c257	0.2905452
160	0x3e926c16	0.28598088
161	0xbc9c5a52	-0.019086037
162	0xbd5f074a	-0.05445031
163	0x3e802025	0.25024524
164	0x3e603c40	0.21897984
165	0x3cdb1069	0.026741223
166	0x3d78ae85	0.06071331
167	0xbccbeb6c	-0.024892531
168	0xbcd22810	-0.025653869
169	0x3e020258	0.12696207
170	0xbc419043	-0.01181418
171	0xbd182f0f	-0.037154254
172	0xbf51db6c	-0.81975436
173	0xbd5baa46	-0.053629182
174	0x3d1e7996	0.038690172
175	0x3e57a9c8	0.2106086
176	0xbca2d5d8	-0.01987736
177	0x3d3a9407	0.045551326
178	0x3d894a56	0.067036316
179	0x3ed5b8ef	0.41742656
180	0x3ebf460b	0.37358126
181	0x3c5d9299	0.013523721
182	0x3e2d1c28	0.16905272
183	0x3bdbf1df	0.006712183
184	0xb97bbc00	-0.00024007261
185	0xbe96bd6a	-0.29441386
186	0x3e5ede6e	0.21764538
187	0xbc0d00ec	-0.008606177
188	0xbd837dc8	-0.06420475
189	0x3ccea201	0.025223734
190	0x3e93943b	0.28824028
191	0xbd12fe7e	-0.035887234
192	0xbe6b4be4	-0.22978169
193	0x3d1ad147	0.03779724
194	0x3e778476	0.24171624
195	0x3e482621	0.19545795
196	0x3d584b69	0.05280629
197	0xbe7953c7	-0.24348365
198	0xbf05e6ce	-0.52305305
199	0x3eca7203	0.3954011
200	0x3e99a0e6	0.30005568
201	0xbe3b38ba	-0.18283358
202	0x3e39fd9c	0.1816315
203	0x3e0e1e71	0.138788
204	0x3e09bf06	0.13451776
205	0x3e7e5285	0.24836166
206	0x3c8f79bc	0.017514102
207	0x3cfcf20d	0.030877138
208	0x3edbf81b	0.42962727
209	0x3cc70e9d	0.02429896
210	0x3e53aa61	0.20670463
211	0x3e31b675	0.17354758
212	0xbcb206c8	-0.02173175
213	0x3d3fe6e2	0.046851046
214	0x3d3c701f	0.046005365
215	0x3cdc48b4	0.026890136
216	0x3d343dca	0.04400424
217	0x3e64802a	0.22314516
218	0x3eadccbf	0.3394527
219	0xbc529fdb	-0.012855495
220	0xbbd70060	-0.006561324
221	0xbd90fc4e	-0.07079373
222	0x3d4f7a14	0.050653532
223	0x3e7e270e	0.24819586
224	0x3e976d79	0.29575709
225	0xbe3d52cd	-0.18488617
226	0x3cdd9bdb	0.027051857
227	0x3d6a4204	0.057191864
228	0x3e68488b	0.22683923
229	0x3e2bc6af	0.1677501
230	0xbd47c1f7	-0.048768964
231	0x3e0cc73d	0.13747878
232	0xbe47b9b3	-0.19504432
233	0x3ca496b4	0.020091392
234	0x3e2f3be3	0.17112689
235	0x3d48d6bb	0.049032908
236	0xbf484a40	-0.78238297
237	0x3df95329	0.12174065
238	0x3ebe5b02	0.37178808
239	0x3d51f9e7	0.051263716
240	0x3d357380	0.044299603
241	0xbe4bf2a1	-0.19916774
242	0xbc267f2c	-0.010162156
243	0xbce3956b	-0.027781209
244	0x3b8435c1	0.0040347283
245	0x3d9ca08c	0.076478094
246	0x3f4c5396	0.7981504
247	0x3e6cac58	0.23112619
248	0xbd18ca62	-0.037302382
249	0x3e3ae991	0.18253161
250	0x3e981c02	0.29708868
251	0x3e315c6f	0.17320417
252	0xbcb13dd4	-0.021635927
253	0xbd7aae0a	-0.061201133
254	0x3e403d72	0.1877344
255	0x3e0ceba0	0.13761759

fc3.bias f4 [128]
0	0x3b014690	0.0019725896
1	0x3da78c3c	0.081810445
2	0xbda7d9ca	-0.08195837
3	0x3e805a2e	0.25068802
4	0x3e5a6bc5	0.21330173
5	0x3c368d5a	0.011142099
6	0x3e48f405	0.19624336
7	0x3d877f4e	0.06616078
8	0xbeb317a9	-0.3497899
9	0xbdb76db2	-0.089564696
10	0x3e764f88	0.24053776
11	0x3e543360	0.20722723
12	0x3d4c53cb	0.0498846
13	0xbd43c5c8	-0.04779604
14	0xbdc7455c	-0.09730026
15	0xbc9fdfd6	-0.019515913
16	0xbd85054d	-0.06495152
17	0xbd2e7c7c	-0.042599186
18	0x3d51c18b	0.051209968
19	0x3ded8eef	0.11599528
20	0xbd59c197	-0.053163137
21	0x3e49b1a8	0.19696677
22	0x3eeac202	0.4585114
23	0xbd79685c	-0.06089054
24	0x3b7f0cca	0.0038917535
25	0x3da1fd34	0.07909623
26	0x3e2f4041	0.17114355
27	0xbd9401b9	-0.07226891
28	0x3e23017c	0.15918535
29	0x3e3402d6	0.17579207
30	0x3d0c5c61	0.034267787
31	0x3e4ba468	0.19886935
32	0x3d973660	0.07383418
33	0x3e781fe1	0.24230911
34	0x3d001e4f	0.031278905
35	0x3da76ddf	0.08175253
36	0xbb4e9e5b	-0.0031527493
37	0x3e8e86ce	0.27837223
38	0x3bcbbc12	0.006217488
39	0xbd4022f3	-0.04690833
40	0x3e1466cc	0.14492339
41	0x3da299ba	0.07939477
42	0x3d136040	0.035980463
43	0x3ee713d1	0.45132306
44	0x3dd2705c	0.10275337
45	0x3cb74267	0.02237053
46	0xbe4bfd02	-0.19920734
47	0x3d9c94a9	0.07645542
48	0x3c9fa234	0.019486524
49	0xbda16938	-0.07881397
50	0x3d37ce71	0.044874612
51	0xbd248e36	-0.040174685
52	0xbd86ef32	-0.06588592
53	0x3e04b99e	0.12961432
54	0x3e1f8525	0.15578134
55	0x3eb6e859	0.35724142
56	0x3e994acc	0.29939878
57	0xbb0b0514	-0.0021212744
58	0x3df6ec11	0.12056745
59	0xbd2167b1	-0.03940553
60	0x3caefbde	0.021360334
61	0xbcc1c588	-0.02365376
62	0xbe35bc1b	-0.17747538
63	0x3d36ce91	0.04463059
64	0x3d2c0022	0.041992314
65	0x3ce71a7f	0.028210877
66	0xbc098617	-0.008393786
67	0x3ea764b5	0.3269402
68	0x3e29d4bb	0.16585056
69	0x3e2f3b6b	0.1711251
70	0xbda2e850	-0.07954466
71	0x3e9d20bb	0.30689034
72	0x3e3c55d1	0.18392111
73	0xbde0d09c	-0.10977289
74	0x3c1a1319	0.009403967
75	0x3e693739	0.22774972
76	0x3de6975e	0.1125934
77	0xbd1e9148	-0.03871277
78	0xbcc44665	-0.023959348
79	0x3e938ac9	0.28816822
80	0x3e8479b8	0.25874114
81	0x3d551134	0.05201836
82	0x3d822361	0.06354404
83	0x3d25b40f	0.04045492
84	0x3e620d5b	0.22075407
85	0xbdc3cadb	-0.09560176
86	0xbd234858	-0.039863914
87	0xbe2ad8fa	-0.16684332
88	0x3e7aad11	0.24480082
89	0x3e83f8df	0.2577581
90	0x3e4ba680	0.19887733
91	0x3cf1b00b	0.02950289
92	0x3e16dc14	0.1473239
93	0x3d48999d	0.048974622
94	0x3e7fb10d	0.24969883
95	0x3cd865ca	0.026415724
96	0x3e9ee205	0.31031814
97	0x3bf9ca87	0.00762302
98	0x3d1044ff	0.03522205
99	0x3e161877	0.1465777
100	0x3e80ea7b	0.25178894
101	0xbd7796f0	-0.06044668
102	0xbc4e1fc7	-0.0125808185
103	0x3e5745e0	0.21022749
104	0x3da1d060	0.079010725
105	0x3cc9fa82	0.024655584
106	0x3e4bae19	0.19890632
107	0x3e1d21f1	0.15344979
108	0x3e6c30e8	0.23065531
109	0x3d54fd29	0.051999245
110	0x3e1a3c31	0.15062024
111	0xbba89fc7	-0.005146
112	0x3d33b97f	0.043878075
113	0x3c01441d	0.007889775
114	0xbd8caebf	-0.06869268
115	0xbdb975f7	-0.09055703
116	0x3da33f18	0.079710186
117	0xbd287e3d	-0.041136015
118	0xbd7cf247	-0.06175449
119	0xbd7ff02b	-0.0624849
120	0xbce3ba82	-0.027798895
121	0xbe2e6a75	-0.17032798
122	0x3dff734a	0.124731615
123	0x3d66d983	0.05635978
124	0x3e49faa9	0.19724526
125	0x3dd7bd31	0.10534132
126	0xbd63b211	-0.05558974
127	0x3df11814	0.11772171

fc4.weight f4 [4, 128]
0	0xbe96e4af	-0.29471347
1	0x3e6cd85c	0.2312941
2	0x3c8b1fb1	0.016982885
3	0x3e988ed8	0.2979648
4	0x3e8aa1c2	0.27076536
5	0xbcec1636	-0.028819185
6	0x3e69d11f	0.2283368
7	0x3d3986d1	0.045294587
8	0xbd2d76a4	-0.042349473
9	0xbe7e38b0	-0.24826312
10	0xbf12fbb6	-0.5741533
11	0x3e880972	0.26569706
12	0xbe91fa72	-0.28511387
13	0x3e1aeb19	0.15128745
14	0x3d97d01f	0.07412743
15	0xbdb2c67a	-0.08729263
16	0x3e81a36c	0.25319993
17	0xbdab1bdd	-0.08354924
18	0xbea361b5	-0.31910482
19	0xbed23c02	-0.41061407
20	0xbca6fcd9	-0.020384239
21	0xbead471a	-0.3384331
22	0x3efa6715	0.4890677
23	0xbcb5aec6	-0.022178065
24	0xbd8873fa	-0.06662746
25	0x3e764bc5	0.24052341
26	0x3e89933a	0.26870137
27	0x3c35fbf1	0.011107431
28	0x3e15270a	0.14565673
29	0x3edee5c3	0.4353467
30	0xbe734b4e	-0.23759195
31	0xbeb9dfe7	-0.36303636
32	0xbe1b895f	-0.15189122
33	0x3e883e4a	0.26610023
34	0x3b1a820f	0.0023576056
35	0xbe7775a3	-0.24165969
36	0x3d8f4dc9	0.06997258
37	0x3f0ce124	0.5503104
38	0x3eb4e7d4	0.3533312
39	0x3d45f665	0.048330683
40	0x3ec1a005	0.37817398
41	0x3dfcce5c	0.123440474
42	0xbead35d0	-0.33830118
43	0x3f149068	0.58032846
44	0xbe990d11	-0.2989278
45	0xb8f26a7c	-0.000115592935
46	0x3d56a875	0.052406747
47	0xbeadbf85	-0.3393518
48	0xbd944a5c	-0.072407454
49	0xbda1d688	-0.07902247
50	0xbe69bf54	-0.22826892
51	0x3d427236	0.0474722
52	0xbd30a282	-0.04312373
53	0x3e169461	0.1470504
54	0x3e654f6a	0.22393575
55	0x3f18c023	0.5966818
56	0x3e90a4aa	0.2825063
57	0xbe5cc9c9	-0.2156135
58	0xbc944fd0	-0.018104464
59	0x3d049689	0.032370124
60	0xbe8d99cf	-0.2765641
61	0x3c58af15	0.013225337
62	0x3e02fc8e	0.12791654
63	0xbe9101b1	-0.28321603
64	0xbdfbdfe9	-0.12298567
65	0xbeb73774	-0.35784495
66	0x3cec1d1d	0.028822476
67	0x3ef83fe2	0.4848624
68	0xbeff7fee	-0.4990229
69	0xbd996b08	-0.07491118
70	0x3bfd9a0d	0.0077393115
71	0x3eaf575f	0.34246346
72	0xbf16a891	-0.5885096
73	0xbd84479f	-0.06458973
74	0xbe7a559d	-0.24446721
75	0xbf2faec3	-0.6862604
76	0x3e753df4	0.23949414
77	0xbe9f0a25	-0.31062427
78	0xbe89b470	-0.26895475
79	0xbf0d1817	-0.55114883
80	0x3eb071bb	0.3446177
81	0xbdd8f80d	-0.10594187
82	0xbd72d609	-0.05928615
83	0xbe80db37	-0.25167248
84	0xbf17981a	-0.59216464
85	0xbd4430b2	-0.047898002
86	0xbd5c6788	-0.053809673
87	0x3e81cfdb	0.25353894
88	0x3e77ce0f	0.24199699
89	0x3dd4aa3f	0.10384034
90	0xbf135a14	-0.57559323
91	0xbe8eff10	-0.27928972
92	0xbf154e30	-0.5832243
93	0xbe8b34b8	-0.2718866
94	0xbd9aaedd	-0.07552884
95	0xbe537994	-0.20651847
96	0x3f3b1cdc	0.7309091
97	0x3e1cf139	0.15326394
98	0xbe3f419b	-0.1867737
99	0x3e8ffc6f	0.2812228
100	0xbe5ef5cd	-0.21773453
101	0x3db1522c	0.08658251
102	0xbcf565ee	-0.02995583
103	0xbeed83bb	-0.46389565
104	0x3e1e1518	0.15437734
105	0xbeaa0683	-0.33208093
106	0x3e9f0e58	0.3106563
107	0xbf05710e	-0.5212563
108	0x3ea7ea0b	0.32795748
109	0xbeb64d48	-0.35605836
110	0xbf234f5f	-0.63792986
111	0xbe1e43ae	-0.15455505
112	0xbea1e829	-0.31622437
113	0x3eb648d8	0.3560245
114	0x3d5aa7fe	0.053382866
115	0x3e537dab	0.20653407
116	0xbe3130a8	-0.17303717
117	0x3c86d18b	0.01645734
118	0xbe96d74e	-0.2946114
119	0x3cecdd16	0.028914016
120	0xbe269361	-0.16267158
121	0x3e595087	0.21222125
122	0xbe98847b	-0.29788575
123	0xbe776935	-0.24161227
124	0x3f6484a2	0.8926488
125	0xbd75675b	-0.05991302
126	0xbe57335a	-0.21015683
127	0x3d3a6007	0.045501735
128	0xbe8c2343	-0.27370653
129	0x3e68c686	0.2273198
130	0x3cc41ef3	0.023940539
131	0x3ea725a5	0.32645908
132	0x3e9a34f1	0.30118516
133	0xbd096431	-0.033542816
134	0x3ec16ffa	0.37780744
135	0x3d80ba6e	0.06285559
136	0x3f12d53d	0.57356626
137	0xbe680bb2	-0.22660711
138	0xbed69484	-0.41910183
139	0x3e4351a8	0.19074118
140	0xbe394144	-0.18091303
141	0x3e293e04	0.16527563
142	0xbced81d3	-0.02899257
143	0xbc71f698	-0.014768265
144	0xbe2c3651	-0.16817595
145	0xbe9a49ca	-0.30134422
146	0xbe91699b	-0.28400883
147	0xbf0a162c	-0.5394008
148	0xbbd4782e	-0.006484053
149	0xbed4df57	-0.41576645
150	0x3efdab5d	0.49544802
151	0xbc566250	-0.013084963
152	0x3cb97a89	0.022641437
153	0x3e8f03cc	0.27932584
154	0x3e2f4065	0.17114408
155	0x3cb83ef9	0.022490965
156	0x3eebc843	0.46051225
157	0x3ee29730	0.44255972
158	0xbedae46d	-0.427524
159	0xbf02d8c3	-0.51112
160	0xbec2f8bf	-0.38080403
161	0x3eab7a92	0.3349195
162	0x3da8b0ac	0.082368225
163	0xbeba159c	-0.36344612
164	0x3da906e9	0.08253271
165	0x3ee7de46	0.4528677
166	0x3e981216	0.29701298
167	0xbd096eff	-0.03355312
168	0x3ea7e1bd	0.32789412
169	0xbda2507e	-0.07925509
170	0xbea0157b	-0.31266388
171	0x3f381947	0.7191357
172	0xbe378e86	-0.17925462
173	0x39fd6b74	0.0004833598
174	0xbe5654de	-0.20930812
175	0xbdcbe8bc	-0.099565
176	0xbd7c36ce	-0.061575703
177	0x3d35b7a5	0.04436459
178	0xbe9fd029	-0.312135
179	0xbe25d743	-0.16195397
180	0xbce023e5	-0.027360866
181	0x3ea92795	0.3303801
182	0xbc43e83d	-0.011957225
183	0x3f01a448	0.506413
184	0x3ec3127d	0.38100043
185	0xbe393988	-0.18088353
186	0xbdfca63a	-0.12336393
187	0xbd5cd5c8	-0.053914815
188	0xbdf43c16	-0.11925523
189	0x3e30bc93	0.17259435
190	0xbe00008e	-0.12500212
191	0xbe76d144	-0.24103266
192	0xbedeb460	-0.4349699
193	0xbe061434	-0.13093644
194	0xbcef5b38	-0.029218301
195	0x3e7cb97f	0.24680136
196	0xbef1cd0f	-0.4722676
197	0xbe8b197a	-0.27167875
198	0x3da13561	0.07871509
199	0x3eaa4c59	0.33261374
200	0xbef7bbef	-0.4838557
201	0x3e5ba81b	0.21450846
202	0xbee4ce89	-0.44688824
203	0xbf015116	-0.5051435
204	0x3e6caa5d	0.23111863
205	0xbe5bd2c3	-0.21467118
206	0xbe91657f	-0.28397748
207	0xbf1b8c51	-0.6076098
208	0xbdac5993	-0.084155224
209	0xbea8f660	-0.3300047
210	0xbe4bf27d	-0.1991672
211	0xbea70e2d	-0.32628003
212	0xbee5d7a7	-0.44891092
213	0x3e48619a	0.19568482
214	0x3d055080	0.032547474
215	0xbc8f65b1	-0.017504545
216	0x3e95fc0c	0.2929386
217	0x3efe965c	0.4972409
218	0xbef2b1a9	-0.4740117
219	0xbe9bd2f6	-0.30434388
220	0xbeeac5f6	-0.45854157
221	0x3d9b45da	0.075816825
222	0xbdff48b4	-0.12465039
223	0xbed70304	-0.41994488
224	0x3f16aca7	0.58857197
225	0x3d88ab91	0.06673349
226	0xbeca96e4	-0.39568245
227	0x3e93ea52	0.2888971
228	0xbf2add3b	-0.6674382
229	0xbc0a7e4d	-0.008452964
230	0xbdb18d23	-0.08669498
231	0xbf2586b5	-0.6465867
232	0x3eb40fc2	0.35168272
233	0xbe28f8be	-0.16501138
234	0x3e83eceb	0.25766692
235	0xbece9a20	-0.40351963
236	0x3ec4b225	0.38417163
237	0xbe8bdbf1	-0.2731624
238	0xbee8b429	-0.4544995
239	0xbeb580fe	-0.35449976
240	0xbe272ca4	-0.16325623
241	0x3ee44409	0.44583157
242	0xbcf77596	-0.030207437
243	0xbdf6917e	-0.12039469
244	0xbdd9c2c2	-0.1063285
245	0x3cce2549	0.025164263
246	0xbe4a1bcb	-0.19737165
247	0x3c0f3877	0.00874149
248	0xbe82fb08	-0.25582147
249	0xbe1a03b2	-0.15040472
250	0xbdc7c191	-0.09753717
251	0xbdb661aa	-0.08905347
252	0x3f58805f	0.8457088
253	0xbe9413fb	-0.28921494
254	0xbed81c5f	-0.42209145
255	0xbed6570e	-0.41863292

fc4.bias f4 [4]
0	0x3e244ebc	0.1604566
1	0x3e5d6807	0.21621715
2	0x3eb14348	0.34621644
3	0x3e1ac695	0.15114816
