models/apollo_ddqn_seed456_best.pth (torch, 409851 bytes, 8 tensors)

fc1.weight f4 [256, 8]
0	0xbc3338e8	-0.0109388605
1	0xbf37f9f0	-0.7186575
2	0x3e6146e7	0.21999703
3	0x3ea16402	0.31521612
4	0x3e347a29	0.17624725
5	0xbe48f28b	-0.19623773
6	0x3eae7f9f	0.34081742
7	0xbeb450bd	-0.35217848
8	0xbf5f5a58	-0.8724723
9	0xbdd6c143	-0.104860805
10	0x3dfd98bb	0.12382647
11	0x3e8ff821	0.28118995
12	0x3e4da299	0.20081557
13	0xbe77bfeb	-0.24194305
14	0xbdf04aa4	-0.117329866
15	0xbe025d02	-0.12730792
16	0x3f1e1d86	0.617638
17	0xbf42779a	-0.7596375
18	0xbe2edcd1	-0.17076422
19	0xbd142f21	-0.036177758
20	0xbdc66aef	-0.09688365
21	0xbc805198	-0.015663907
22	0x3dbbee3c	0.09176299
23	0xbd4ed578	-0.05049655
24	0xbdd659eb	-0.10466369
25	0xbdc72f2e	-0.09725796
26	0xbdb22dcd	-0.08700142
27	0xbd0528d2	-0.032509632
28	0x3e5bbcbb	0.21458714
29	0xbea25cba	-0.3171137
30	0xbeb003a6	-0.34377784
31	0x3e46aa0a	0.19400802
32	0xbf2cc002	-0.6748048
33	0xbeccae24	-0.3997661
34	0x3e177501	0.14790727
35	0x3e187d71	0.14891602
36	0xbeb57903	-0.35443887
37	0x3f5ef45a	0.870916
38	0xbe33c75f	-0.17556523
39	0x3dd29c74	0.10283747
40	0xbec49a92	-0.38399178
41	0xbf0178e0	-0.50575066
42	0xbe84b6da	-0.25920755
43	0x3e5a2bd7	0.21305786
44	0xbea6ae5a	-0.32554895
45	0x3defcf1c	0.11709425
46	0xbe92a467	-0.28641054
47	0x3e8cc5fb	0.27494797
48	0xc009182a	-2.1420999
49	0xbe990cb7	-0.29892513
50	0x3ed79723	0.42107496
51	0x3d63124b	0.055437367
52	0x3e155508	0.14583218
53	0x3f40c190	0.7529535
54	0xbd6c1a80	-0.05764246
55	0xbdee3c9a	-0.116326526
56	0x3f27ae92	0.6550075
57	0xbf914864	-1.1350217
58	0xbe51d2a5	-0.20490511
59	0x3daa61f8	0.08319467
60	0x3f3894d0	0.7210207
61	0x3e7d7086	0.24749956
62	0xbe86bbee	-0.26315254
63	0xbda7b0e4	-0.08188036
64	0x3f864370	1.048933
65	0xbfbf16aa	-1.4928792
66	0xbdafbdb9	-0.085811086
67	0x3d5d8920	0.05408585
68	0xbe6f6f79	-0.23382367
69	0xbf0e9653	-0.55698127
70	0x3e98868d	0.29790154
71	0x3c6aa520	0.014321595
72	0x3f8101ee	1.0078714
73	0xbf3dd4b0	-0.7415266
74	0xbea07a0e	-0.3134312
75	0xbe938a1d	-0.2881631
76	0xbeea0e23	-0.4571391
77	0xbea03628	-0.31291318
78	0x3e2e3406	0.17012033
79	0x3e9c67dd	0.3054799
80	0x3d6c7256	0.057726227
81	0xbea6b679	-0.3256109
82	0xbea2d908	-0.31806207
83	0x3ea3719a	0.3192261
84	0xbc43fe36	-0.011962464
85	0xbe8f824c	-0.28029096
86	0xbd3fe110	-0.046845496
87	0xbe275e62	-0.16344598
88	0x3f95619c	1.1670413
89	0x3d92bad5	0.07164542
90	0xbea57d9a	-0.3232239
91	0xbe94353f	-0.28946874
92	0x3e02e5f6	0.12783036
93	0x3e53eb97	0.20695339
94	0xbe28000f	-0.16406272
95	0xbd3a30d8	-0.045456737
96	0x3faf0ffd	1.3676754
97	0xbf481439	-0.7815586
98	0x3e89a1ab	0.26881155
99	0xbd6857f8	-0.05672452
100	0x3e84dd08	0.25949883
101	0x3eaab48a	0.33340865
102	0x3ea34049	0.31884983
103	0x3e80d7bb	0.2516459
104	0x3f9afc99	1.2108337
105	0xbf8f58ba	-1.1198952
106	0x3e89a2e1	0.2688208
107	0x3d4613fc	0.048358902
108	0x3ee90216	0.45509404
109	0xbd8f9b49	-0.0701204
110	0xbcc088d0	-0.023502737
111	0xbe865fb2	-0.26244885
112	0xbec93d49	-0.3930457
113	0xbf8a5970	-1.0808544
114	0x3e6346e4	0.22195011
115	0x3eaa58f2	0.33270985
116	0x3ea67d24	0.3251735
117	0x3d41d84d	0.04732542
118	0xbd50a358	-0.050937027
119	0x3df1e770	0.11811721
120	0x3ec4d9d5	0.38447443
121	0xbedc71c2	-0.4305554
122	0xbecdaedd	-0.40172473
123	0x3ce3c8b3	0.027805662
124	0x3f23a963	0.6393034
125	0xbb8ec7b0	-0.0043573007
126	0x3e2cc4f6	0.1687201
127	0xbc66a4e0	-0.014077395
128	0x3fa4a84f	1.2863864
129	0xbe547ba7	-0.20750295
130	0xbecb0059	-0.39648703
131	0xbed12b26	-0.40853232
132	0xbe11d519	-0.14241447
133	0xbebe081f	-0.3711557
134	0xbc9575a0	-0.018244565
135	0x3ea97475	0.33096662
136	0x3cda3b65	0.02663965
137	0xbd75fc45	-0.060055036
138	0xbd833d00	-0.06408119
139	0x3e7bcc86	0.24589738
140	0x3ea77305	0.3270494
141	0x3c7fd0f1	0.01561378
142	0x3caf2380	0.021379232
143	0xbcf05480	-0.029337168
144	0xbfa44a01	-1.2835084
145	0xbf1aa13d	-0.6040228
146	0x3f15ec0c	0.58563304
147	0xbdcca513	-0.09992423
148	0x3eeb76af	0.45988986
149	0x3f712f98	0.9421325
150	0xbe8aa227	-0.27076837
151	0xbdc6e5c8	-0.09711796
152	0x3eb26de1	0.34849456
153	0x3ed0221b	0.4065102
154	0x3de10720	0.10987687
155	0xbe8efec6	-0.27928752
156	0x3f1ef36a	0.6209017
157	0xbe82de5d	-0.25560275
158	0xbe4d8f38	-0.20074165
159	0xbca70700	-0.02038908
160	0x3f5a920a	0.8537909
161	0xbf18a253	-0.5962269
162	0x3f124f3a	0.5715214
163	0xbeea30b6	-0.45740288
164	0xbe8e6420	-0.27810764
165	0xbee7ca03	-0.4527131
166	0x3e8f916b	0.28040633
167	0x3e6a9306	0.22907647
168	0xbe36c70e	-0.17849371
169	0xbe205d6a	-0.15660635
170	0x3d0b1198	0.033952326
171	0x3e3d7d5e	0.18504855
172	0x3d1409f8	0.03614232
173	0xbd309a40	-0.043115854
174	0xbc1f7a40	-0.0097337365
175	0x3b56e880	0.003279239
176	0x3f91bccb	1.138574
177	0xbd39dedb	-0.045378547
178	0xbeb8a7d7	-0.36065552
179	0xbd9f63f0	-0.077827334
180	0x3dd56964	0.10420492
181	0xbeb4adfd	-0.35288993
182	0x3e5ffed2	0.2187455
183	0xbd343828	-0.043998867
184	0x3f0abaf0	0.54191494
185	0xbe765d7e	-0.24059102
186	0x3f1bb5e5	0.60824424
187	0x3e6941df	0.22779034
188	0xbeef6c62	-0.46762377
189	0xbeceae53	-0.40367374
190	0xbe847e6d	-0.25877705
191	0xbe633a40	-0.2219019
192	0xbdcfd624	-0.10148266
193	0xbe880f18	-0.26574016
194	0xbd894d30	-0.067041755
195	0x3e055038	0.13018882
196	0xbe11ed9f	-0.14250802
197	0x3e8005f3	0.2500454
198	0x3e7c8952	0.24661759
199	0xbe263bc6	-0.1623374
200	0x3f342bbc	0.70379233
201	0x3df055f5	0.11735145
202	0xbe9eb5b9	-0.30998018
203	0xbe9e140b	-0.30874667
204	0xbe4fa865	-0.20279081
205	0xbe7c4483	-0.2463551
206	0xbd8b9ac4	-0.068166286
207	0x3d4b0238	0.049562663
208	0xbfd4fc4a	-1.6639493
209	0xbf831393	-1.0240349
210	0x3f4b1c3e	0.7933997
211	0x3d32204d	0.043487836
212	0x3c8bc5af	0.017062036
213	0xbe53449a	-0.20631638
214	0xbe781764	-0.24227673
215	0x3e15ba64	0.14621884
216	0x3e04bc47	0.12962447
217	0x3c0d8011	0.00863649
218	0x3e111a9e	0.1417031
219	0x3e8f3032	0.27966458
220	0xbefe4766	-0.49663848
221	0x3da9d8fc	0.082933396
222	0xbe9436cc	-0.28948057
223	0x3e626d42	0.22111991
224	0xbfd9b22f	-1.7007502
225	0x3e998c74	0.2998997
226	0x3f0b4dd8	0.54415655
227	0xbe7f8995	-0.24954827
228	0xbebf1f53	-0.37328586
229	0x3e3b6462	0.18300012
230	0xbe71b0d6	-0.23602614
231	0xbe47ac38	-0.1949929
232	0x3fcf7fb5	1.6210848
233	0x3e4ad83e	0.19809052
234	0xbe95ec7b	-0.29281983
235	0xbdb3e63a	-0.087841466
236	0xbecea959	-0.40363577
237	0x3d9d40c3	0.07678368
238	0x3eb20e05	0.3477632
239	0x3e5463a2	0.20741132
240	0x3f94b004	1.1616216
241	0xbe6fa323	-0.23402075
242	0xbd8e9f2c	-0.069639534
243	0xbe1a31b5	-0.15058024
244	0xbde37689	-0.11106593
245	0xbec28ca3	-0.37997922
246	0xbea77445	-0.32705894
247	0xbe27e1da	-0.1639475
248	0x3f72be5f	0.94821733
249	0xbe79637d	-0.24354358
250	0xbe2e4ade	-0.17020747
251	0xbe2058a3	-0.15658812
252	0x3d49c82b	0.04926316
253	0x3e8a06a6	0.26958197
254	0xbe29d51d	-0.16585203
255	0xbe26844c	-0.16261405

fc1.bias f4 [256]
0	0x3e6690d2	0.22516182
1	0x3e91d21c	0.28480613
2	0x3dc69eb8	0.09698242
3	0xbe24f852	-0.16110352
4	0x3e83d109	0.2574542
5	0x3decf0ba	0.115693524
6	0x3e0cc50a	0.1374704
7	0x3e1456b8	0.14486206
8	0x3dc1e0e1	0.0946672
9	0xbe0c9fa5	-0.13732775
10	0x3e5694dd	0.20955224
11	0xbc894dd4	-0.016760744
12	0x3e01dcc8	0.12681878
13	0x3e544f1c	0.20733303
14	0x3e92c708	0.28667474
15	0xbda9a79b	-0.08283921
16	0xbe5c7eca	-0.21532741
17	0xbeb0ef41	-0.34557536
18	0x3e0e5e0b	0.13903062
19	0xbea29340	-0.31752968
20	0xbe474ae7	-0.19462167
21	0xbe27bba2	-0.1638017
22	0x3de82b5e	0.11336397
23	0xbddbe673	-0.10737314
24	0xbea918f6	-0.33026856
25	0x3b78eb8a	0.003798219
26	0x3e351624	0.17684227
27	0xbd8d82e0	-0.06909728
28	0xbdf02898	-0.11726493
29	0xbd0e33be	-0.034717314
30	0xbda6e40b	-0.081489645
31	0x3e9901f7	0.29884312
32	0xbe9d5975	-0.30732313
33	0x3e55962f	0.20858072
34	0xbd85a95d	-0.06526444
35	0xbd985c3f	-0.074394695
36	0xbe63f9ea	-0.22263303
37	0xbc79d905	-0.015249495
38	0x3d5582b3	0.052126598
39	0x3eb6bf92	0.35693032
40	0xbe584ce3	-0.2112308
41	0xbde219de	-0.1104009
42	0x3d2530a2	0.040329583
43	0x3e4cfe2c	0.20018834
44	0x3cc3f802	0.02392197
45	0xbea30bfd	-0.31845084
46	0x3dbabf75	0.09118549
47	0x3e71899f	0.23587655
48	0x3df447e4	0.119277745
49	0xbe9cfb98	-0.306607
50	0x3e1887f4	0.14895612
51	0xbe00c573	-0.12575321
52	0xbe809f54	-0.25121558
53	0xbe229f3e	-0.15881059
54	0x3e78bdc7	0.24291144
55	0x3e9bc76b	0.3042558
56	0x3d868489	0.06568248
57	0x3d8c0044	0.06835988
58	0xbd80ef7b	-0.06295677
59	0xbe857577	-0.2606618
60	0xbe4f6e35	-0.20256884
61	0xbe998f9d	-0.2999238
62	0xbdb7a657	-0.08967274
63	0x3bbdb81a	0.005789769
64	0x3e3f2603	0.18666844
65	0xbe67794f	-0.2260487
66	0x3ddfb4f4	0.10923186
67	0x3e59d386	0.21272096
68	0x3dba2893	0.0908977
69	0xbe86dc1c	-0.26339805
70	0xbe49831f	-0.19678925
71	0x3e8fa0dc	0.28052413
72	0xbe2d39dc	-0.16916603
73	0x3e660e4a	0.22466388
74	0xbe1f02c9	-0.15528406
75	0xbe9f3710	-0.31096697
76	0xbe263bad	-0.16233702
77	0x3ce38fc1	0.027778508
78	0x3d8a6eff	0.06759452
79	0x3e3a80f4	0.18213254
80	0x3de6be84	0.11266807
81	0x3daa5f08	0.08318907
82	0xbdabc67f	-0.083874695
83	0x3e827b5f	0.2548475
84	0x3de2cfb1	0.1107477
85	0x3e8eae86	0.27867526
86	0xbe4bf402	-0.199173
87	0x3e977eed	0.29589024
88	0xbe15fdc9	-0.14647593
89	0x3d4e3133	0.05033989
90	0x3e77ecb5	0.2421139
91	0xbe900520	-0.2812891
92	0x3e5f8034	0.2182625
93	0x3e778bbb	0.24174397
94	0xbe7e8b26	-0.24857768
95	0xbdc7ac00	-0.09749603
96	0xbe7aaa10	-0.24478936
97	0xbe79a730	-0.24380183
98	0xbe17cb25	-0.14823587
99	0xbcb4d29c	-0.022073083
100	0xbea9c487	-0.3315775
101	0x3e4b042f	0.19825815
102	0x3e5a1ca0	0.21299982
103	0xbe6bb310	-0.23017526
104	0x3ddfe250	0.109318376
105	0xbe5edaab	-0.21763103
106	0x3e20d3dc	0.15705818
107	0x3e459f24	0.19298989
108	0xbe776bb1	-0.24162175
109	0x3e0a8348	0.13526642
110	0x3dba251b	0.090891086
111	0x3d610346	0.054934762
112	0xbd920964	-0.07130697
113	0x3e8b5cae	0.27219146
114	0xbe35300c	-0.1769411
115	0x3e7f9e58	0.24962747
116	0x3dd6293b	0.10457083
117	0x3dc65d6d	0.09685788
118	0x3e60bb7d	0.21946521
119	0x3e4fd000	0.2029419
120	0xbd17eeb0	-0.037092865
121	0xbe2ba83a	-0.16763392
122	0x3e8de573	0.27714118
123	0x3e6fbe50	0.23412442
124	0xbd98a5a3	-0.07453468
125	0x3de650f6	0.11245911
126	0xbeaebb8a	-0.34127456
127	0xbe22728a	-0.15864006
128	0xbde372ba	-0.11105867
129	0xbe05ab71	-0.13053681
130	0xbe2d00af	-0.16894792
131	0xbbb312ec	-0.005464902
132	0xbe492207	-0.19641887
133	0xbe8271d7	-0.25477478
134	0xbeaf7f3c	-0.3427676
135	0xbd99cbb3	-0.07509556
136	0x3e56657f	0.20937155
137	0xbe3b4f85	-0.18292053
138	0xbeb0ef25	-0.34557453
139	0x3e2a7289	0.16645254
140	0x3eb599ea	0.3546899
141	0x3e1e3c6e	0.1545274
142	0x3e14688e	0.1449301
143	0xbe24cdbc	-0.16094106
144	0x3dd58078	0.10424894
145	0x3d8a426c	0.0675095
146	0x3eb22eed	0.34801427
147	0xbeb29118	-0.34876323
148	0x3e8fbe87	0.28075048
149	0xbe1448ba	-0.14480868
150	0xbc45e4de	-0.012078492
151	0xbeb17df6	-0.34666413
152	0xbd5ae19b	-0.05343781
153	0xbe4634a5	-0.1935602
154	0xbea15bb4	-0.31515276
155	0x3e398fc9	0.18121256
156	0xbd404986	-0.046945117
157	0x3e744471	0.23854233
158	0xbeaa0a68	-0.33211064
159	0xbe116d41	-0.14201833
160	0x3da20f5b	0.07913085
161	0xbe1db64c	-0.15401572
162	0x3e9b8c61	0.30380538
163	0x3e2513e1	0.16120864
164	0xbd54a717	-0.05191716
165	0x3db4935e	0.088171706
166	0x3e19ab97	0.15006863
167	0x3e8caf54	0.27477515
168	0xbe511b2e	-0.20420524
169	0xbdd477da	-0.10374422
170	0xbe979d10	-0.29612017
171	0x3e84028a	0.25783187
172	0x3de5db7c	0.11223504
173	0x3d285716	0.041098677
174	0x3d1ea7fd	0.038734425
175	0xbc27f6f7	-0.010251752
176	0xbdb75666	-0.08952026
177	0x3e015d76	0.12633309
178	0xbdd017ba	-0.101607755
179	0x3d398b10	0.045298636
180	0xbd511a09	-0.05105022
181	0xbea5a7b3	-0.32354507
182	0xbe238c84	-0.15971571
183	0xbe0e1f03	-0.13879018
184	0xbd8e9ce0	-0.06963515
185	0x3d4fbd1f	0.05071747
186	0xbe5a68ff	-0.21329115
187	0x3e9f0e22	0.3106547
188	0xbe587d84	-0.2114163
189	0x3e032fe7	0.12811242
190	0x3e473aed	0.19456072
191	0x3db70169	0.08935816
192	0x3e526424	0.20546013
193	0xbe7db0fc	-0.24774545
194	0xbd4e6833	-0.05039234
195	0x3e8ccb7a	0.2749899
196	0x3e072ece	0.13201448
197	0x3ea90baf	0.33016726
198	0xbd92a2dd	-0.0715997
199	0xbe930a25	-0.28718677
200	0xbe2f235a	-0.1710333
201	0xbce84db5	-0.028357366
202	0x3eb2351f	0.34806153
203	0xbe1f2f47	-0.15545379
204	0x3e51b840	0.20480442
205	0x3ca6c610	0.020358115
206	0xbe73d478	-0.23811519
207	0x3e6b65ff	0.22988127
208	0xbdbf6d97	-0.093470745
209	0xbc725635	-0.014791061
210	0x3e94a91b	0.29035267
211	0xbe518e2e	-0.20464393
212	0xbe97a2cc	-0.29616392
213	0x3dbf9910	0.09355366
214	0x3e2555a9	0.16145958
215	0xbca32dd5	-0.019919315
216	0xbe6505ad	-0.22365446
217	0xbe2dbcee	-0.16966602
218	0xbe90609c	-0.28198707
219	0x3e8e4532	0.27787167
220	0x3e8e9dbc	0.27854717
221	0xbd041361	-0.032245044
222	0x3d77a713	0.06046207
223	0x3e7f65cc	0.24941176
224	0x3e1f89b1	0.15579869
225	0xbe15ad06	-0.14616784
226	0x3c2ebe42	0.010665478
227	0xbe3677c3	-0.17819123
228	0xbd519c18	-0.051174253
229	0xbdf8fef0	-0.121580005
230	0xbeb6f011	-0.3573003
231	0xbea0ec2d	-0.31430188
232	0xbc02ab5f	-0.007975428
233	0xbea67e0a	-0.32518035
234	0xbe55c647	-0.20876418
235	0x3dce83d1	0.10083736
236	0x3de9002f	0.11376988
237	0xbe984dff	-0.29747006
238	0x3ce9095f	0.028446851
239	0xbe93c8c3	-0.28864107
240	0xbe2c533a	-0.16828623
241	0x3c9a286b	0.0188181
242	0x3de4b3e4	0.11167124
243	0x3d63ce89	0.05561689
244	0x3d5b5b5a	0.053553917
245	0x3e430d02	0.19047931
246	0x3e38f00d	0.18060322
247	0xbd10e354	-0.035373047
248	0xbe5cb1cc	-0.21552199
249	0xbea18ee4	-0.3155433
250	0x3de308a0	0.110856295
251	0xbd1f6d1a	-0.038922407
252	0x3e7687f9	0.24075307
253	0x3e372ec4	0.17888933
254	0xbea152ad	-0.3150839
255	0x3dd6a6d6	0.1048104

fc2.weight f4 [256, 256]
0	0xbea29f1a	-0.3176201
1	0xbe23ffc2	-0.16015533
2	0x3d4ade91	0.049528662
3	0x3d0bc310	0.034121573
4	0x3e98750e	0.29776806
5	0xbef886bd	-0.48540297
6	0x3e66500b	0.22491471
7	0xbedb8323	-0.42873487
8	0xbf24bda0	-0.64351845
9	0xbbc01d35	-0.0058628567
10	0xbebf51d0	-0.37367105
11	0x3d802d63	0.06258657
12	0x3ccbe07c	0.024887316
13	0x3ba5ed7a	0.00506371
14	0xbf6a21a6	-0.91457593
15	0xbca7e135	-0.02049313
16	0x3cd1bd47	0.02560295
17	0x3d067770	0.03282875
18	0x3e554da0	0.20830393
19	0x3e3b9d2d	0.18321677
20	0xbe2f6747	-0.17129241
21	0x3cde15c8	0.027109995
22	0x3cf25278	0.02958034
23	0x3c60acbd	0.013713059
24	0x3ce23ac4	0.027615912
25	0x3e07f50f	0.13277076
26	0x3ea52c91	0.32260564
27	0xbcb4f33c	-0.02208864
28	0x3e6106cc	0.21975249
29	0x3cdeaa3f	0.027180789
30	0xbe1690fe	-0.14703748
31	0x3da595d6	0.080852196
32	0x3cb325ee	0.021868672
33	0xbed44e87	-0.41466162
34	0xbcb1c987	-0.021702541
35	0xbee15080	-0.4400673
36	0xbe71cfec	-0.23614472
37	0xbf3629bb	-0.71157426
38	0x3e55a0f6	0.20862183
39	0xbd065fec	-0.032806322
40	0xbeb48c49	-0.3526328
41	0x3e3f7438	0.18696678
42	0xbec2f8a7	-0.38080332
43	0x3e491862	0.19638208
44	0x3da6dbdd	0.08147404
45	0xbd46e55a	-0.04855857
46	0x3cc93ea0	0.024565995
47	0x3e065214	0.13117248
48	0x3d343435	0.0439951
49	0x3c9ec688	0.019381776
50	0xbf7426ec	-0.9537189
51	0xbbb6aa20	-0.0055744797
52	0x3d99e0da	0.0751359
53	0xbc970233	-0.018433666
54	0xbf833eed	-1.0253578
55	0xbf049a73	-0.5179817
56	0x3d5ebeb1	0.054381076
57	0xbf8518cc	-1.0398192
58	0xbd4fefde	-0.050765865
59	0xbc13bfd0	-0.0090179
60	0xbe4e8ef4	-0.2017172
61	0xbc246418	-0.01003363
62	0x3dc66e88	0.09689051
63	0x3b69a6a8	0.0035652313
64	0x3e16c580	0.14723778
65	0xbcc7c2e0	-0.024384916
66	0x3e2c9ddd	0.16857095
67	0x3df85950	0.1212641
68	0xbff6aa90	-1.9270802
69	0xbe95e2fc	-0.29274738
70	0xbf0ddcf4	-0.5541527
71	0xbdda2677	-0.10651868
72	0xbbda3340	-0.0066589415
73	0x3b6d2c20	0.003618963
74	0x3e0fd274	0.14045125
75	0x3d6166ea	0.055029787
76	0x3dbd3a61	0.092396505
77	0xc006a5d0	-2.1038704
78	0xbed989c8	-0.4248793
79	0x3cd8cbee	0.026464429
80	0x3dcc3a4e	0.09972058
81	0xbd268c19	-0.04066095
82	0x3e12d144	0.14337641
83	0x3e45b1c7	0.19306098
84	0xbeb3f7f3	-0.35150108
85	0xbf890b45	-1.0706564
86	0xbd4cc094	-0.049988344
87	0xbeed6f3b	-0.46373925
88	0x3cc9e634	0.024645902
89	0xbf9c2a0c	-1.2200332
90	0x3d8683a0	0.06568074
91	0x3c21a121	0.009865076
92	0x3de13991	0.10997308
93	0x3e51ce63	0.20488887
94	0xbd51cf82	-0.051223285
95	0xbe471b4a	-0.19444004
96	0xbf71e613	-0.9449169
97	0xbb82c880	-0.0039911866
98	0x3d63919a	0.05555878
99	0xbe1afc0a	-0.15135208
100	0xbc615168	-0.013752319
101	0x3e3b4cc5	0.18291004
102	0x3e36aa4a	0.17838398
103	0xbe0060ee	-0.12536976
104	0xbed5c782	-0.41753775
105	0x3d5a7c2b	0.053341072
106	0x3e11965c	0.14217514
107	0x3d9e4571	0.07728089
108	0xbec9345c	-0.3929776
109	0x3e1c1dd0	0.15245748
110	0x3e359e27	0.17736112
111	0x3e3d761f	0.18502091
112	0xbfb503c2	-1.4141772
113	0xbe1c2734	-0.1524933
114	0xbf39031a	-0.7227036
115	0x3c74a12a	0.014931003
116	0xbf004ca2	-0.5011693
117	0xbf19e6b2	-0.6011764
118	0xbe82df65	-0.25561062
119	0x3d14e48c	0.03635077
120	0x3d90ab4b	0.070639215
121	0x3e079dd8	0.13243806
122	0xbf2599f0	-0.64688015
123	0xbde05cb6	-0.10955183
124	0xbdeb0428	-0.11475402
125	0x3e188d6f	0.14897703
126	0xbd493924	-0.04912676
127	0xbcbeb170	-0.023277968
128	0xbd92c9d9	-0.07167406
129	0x3d191930	0.037377536
130	0x3d204bb2	0.03913469
131	0xbcd8742f	-0.026422588
132	0xbea8aff9	-0.32946756
133	0x3bc584f0	0.0060278103
134	0xbcbde71c	-0.02318149
135	0x3e24b245	0.1608363
136	0x3d06c911	0.032906596
137	0xbf089503	-0.53352374
138	0x3c1bbbc0	0.009505212
139	0x3e40914d	0.18805428
140	0x3df7bbda	0.12096377
141	0xbe580059	-0.21093883
142	0x3dd3140d	0.10306559
143	0x3c561e98	0.013068818
144	0xbe4c8137	-0.19971167
145	0x3c84aacc	0.016194724
146	0x3dbf705a	0.09347601
147	0x3d3704d0	0.044682324
148	0x3ca569fe	0.020192143
149	0x3e0e701e	0.13909957
150	0x3e1aaacf	0.15104221
151	0x3b339d40	0.002740696
152	0x3cc4ff40	0.024047494
153	0x3d15966b	0.036520403
154	0xbf29e7df	-0.6636943
155	0x3e197623	0.14986472
156	0xbf5a2837	-0.85217613
157	0x3e9db445	0.30801597
158	0xbc078208	-0.008270748
159	0xbd18b0ac	-0.037277862
160	0xbd3433d0	-0.043994725
161	0x3cf7517f	0.030190228
162	0xbf43f0bf	-0.76539224
163	0xbfab3084	-1.3374181
164	0x3e11ead1	0.14249732
165	0xbf2bfeda	-0.6718575
166	0x3e19eafc	0.15031046
167	0x3d9300c9	0.07177884
168	0xbf39bd7c	-0.72554755
169	0x3c42ba08	0.011885174
170	0x3d77a512	0.060460158
171	0xbd3d2860	-0.046181083
172	0xbee5f25d	-0.4491147
173	0x3e446bf5	0.19181807
174	0x3e5a1999	0.21298827
175	0xbf90269c	-1.1261783
176	0x3d2450b6	0.040116034
177	0xbb6931bb	-0.003558262
178	0x3e9119c4	0.2833997
179	0x3e00cf50	0.12579083
180	0x3cc4bb7d	0.024015183
181	0xbcb56de0	-0.022147119
182	0xbc27328b	-0.0102049215
183	0xbf561fde	-0.83642375
184	0xbe38f3fd	-0.18061824
185	0xbc2aa181	-0.010414482
186	0x3ca447b4	0.020053722
187	0xbe00dd09	-0.12584318
188	0x3d5d024e	0.053957276
189	0xbd6751ce	-0.0564745
190	0x3dfd9df1	0.123836406
191	0xbdd1c37d	-0.102423646
192	0x3d447818	0.047966093
193	0xbe84d1fa	-0.2594145
194	0x3e1d8f51	0.15386702
195	0x3da193e2	0.078895345
196	0x3dc429a1	0.095782526
197	0xbdc1766e	-0.09446417
198	0x3de915cb	0.1138111
199	0xbd3dcca8	-0.046337754
200	0x3cd9caaa	0.026585896
201	0xbf6a3dfa	-0.9150082
202	0xbf2aeafc	-0.6676481
203	0xbea45c0c	-0.32101476
204	0x3e4490a6	0.19195804
205	0x3e12a0a4	0.14319092
206	0xbd19375e	-0.037406318
207	0xbfe5c121	-1.7949563
208	0x3d60f38a	0.054919757
209	0xbcb10acc	-0.021611594
210	0xbe218515	-0.15773423
211	0x3c37081c	0.011171367
212	0xbe027594	-0.12740165
213	0xbed5747f	-0.41690442
214	0x3dfae71b	0.12251111
215	0xbf810fa3	-1.0082897
216	0xbc6fc4f0	-0.014634356
217	0xbbc83cba	-0.006110755
218	0xbc41b538	-0.011822991
219	0x3d928b8a	0.07155521
220	0x3e1be4bf	0.15223978
221	0x3debe935	0.1151909
222	0x3e00c6d9	0.12575854
223	0xbe570f54	-0.21001941
224	0x3dbc7534	0.09202042
225	0xbedb27c0	-0.42803764
226	0x3dce5e86	0.10076623
227	0x3d7eb622	0.062185414
228	0x3d208336	0.039187633
229	0xbd7baaae	-0.06144207
230	0x3d3ed368	0.04658833
231	0xbdd333da	-0.10312624
232	0xbdeaf8c4	-0.114732295
233	0xbcbec030	-0.023285002
234	0x3cfedbbc	0.031110637
235	0x3dc0e2c3	0.09418251
236	0xbf1223aa	-0.5708567
237	0x3d372166	0.044709586
238	0x3e59c32c	0.21265858
239	0x3d5b4738	0.053534716
240	0xbd56aae0	-0.052409053
241	0xbd65e540	-0.056126833
242	0x3e0b2bb4	0.1359089
243	0xbf116480	-0.56793976
244	0xbf723984	-0.9461901
245	0x3e5f4866	0.21804962
246	0x3e4658dc	0.19369835
247	0x3ec23d9f	0.37937638
248	0xbe21f141	-0.15814687
249	0x3e1ac55c	0.15114349
250	0x3e4f2b29	0.20231308
251	0xbf314f7b	-0.692619
252	0xbf725ddc	-0.9467447
253	0x3e66968d	0.22518368
254	0x3c874184	0.016510732
255	0xbe37f99e	-0.17966315

fc2.bias f4 [256]
0	0x3e51a727	0.2047392
1	0xbd1666bc	-0.03671907
2	0xbd94110b	-0.07229813
3	0x3cb2a40e	0.021806743
4	0x3e0020f1	0.12512566
5	0xbd870f15	-0.065946735
6	0x3de0f8b9	0.1098494
7	0xbd36a85c	-0.044594154
8	0x3dd092d9	0.10184259
9	0x3dc9af94	0.09847942
10	0xbd2b83cc	-0.04187374
11	0x3da249e6	0.07924251
12	0x3ddf27fa	0.10896297
13	0x3e1171b3	0.14203529
14	0xbd61cbef	-0.055126127
15	0xbd844c04	-0.06459811
16	0xbce844a0	-0.028353035
17	0x3e6ade81	0.22936441
18	0xbd69342e	-0.056934528
19	0x3daa5b4e	0.08318196
20	0x3ddc6946	0.10762267
21	0x3e33bfea	0.17553678
22	0x3e203caa	0.15648142
23	0x3d1ef167	0.038804438
24	0xbb30cb04	-0.0026976475
25	0xbd1803d9	-0.037113044
26	0x3d3ff676	0.046865903
27	0x3d157d9b	0.03649674
28	0xbbcc3056	-0.006231348
29	0xbbd31695	-0.006441901
30	0xbd36652e	-0.044530086
31	0xbd50d674	-0.05098577
32	0xbd5a4319	-0.053286646
33	0x3e41d01e	0.18927047
34	0xbb65d961	-0.0035072195
35	0xbd91e726	-0.07124166
36	0x3d9ed129	0.07754738
37	0xbd87edfe	-0.0663719
38	0xbd7ed5f7	-0.06221577
39	0x3af1033a	0.0018387802
40	0x3cdc88cc	0.026920699
41	0x3e0be640	0.13662052
42	0xbce6be70	-0.02816698
43	0xbc9cc29c	-0.019135766
44	0x3d7dc692	0.06195695
45	0x3c49079e	0.0122698825
46	0x39fc5731	0.00048130148
47	0x3e2a65b2	0.16640356
48	0xbbd90c9e	-0.0066238185
49	0xbcc0a237	-0.02351485
50	0xbd236867	-0.039894488
51	0xbd0824a8	-0.033238083
52	0xbd47756c	-0.048695967
53	0x3ccb3772	0.024806712
54	0x3ce23a12	0.02761558
55	0xbcabadae	-0.02095684
56	0xbcb51f9b	-0.022109797
57	0x3c5451e5	0.012958978
58	0x3dae21a7	0.085025124
59	0xbd84a013	-0.06475844
60	0xbb1c1ae4	-0.002381974
61	0xbad00faa	-0.0015873809
62	0x3c069752	0.0082147885
63	0x3e16c268	0.14722598
64	0x3d9ae2ac	0.075627655
65	0x3e30a2cb	0.172496
66	0xbd3cdfb8	-0.046111792
67	0x3d8d3eaa	0.06896718
68	0xbd7b1009	-0.06129459
69	0x3e0d2f43	0.1378756
70	0xbd72bdc2	-0.059263
71	0x3dab70ea	0.08371146
72	0xbcffd086	-0.031227361
73	0x3e8462bf	0.25856587
74	0x3d18ad6f	0.037274774
75	0x3c201df6	0.009772768
76	0xbd143ef1	-0.036192838
77	0xbd849c7a	-0.06475158
78	0x3e19cf3a	0.15020457
79	0x3d40f094	0.047104433
80	0x3e3a1825	0.18173273
81	0xbe1f5a8c	-0.15561885
82	0x3daa36bc	0.08311221
83	0xbd05853b	-0.03259776
84	0xbd862f45	-0.06551985
85	0x3d1defbb	0.038558703
86	0xbc7988ae	-0.015230341
87	0xbd5ac327	-0.053408768
88	0x3d6cf5d6	0.057851635
89	0x3c5dcc19	0.01353743
90	0x3e14fc96	0.14549479
91	0x3d20d42b	0.03926484
92	0x3c9d37c3	0.019191628
93	0x3bb8b2d1	0.005636551
94	0xbb88b001	-0.004171372
95	0x3d7a1850	0.061058342
96	0xbc6e932a	-0.014561454
97	0xbd662969	-0.056191836
98	0x3dda1047	0.10647636
99	0xbd5de17d	-0.05417012
100	0xbd1db4c3	-0.038502466
101	0xbd3a74f0	-0.045521677
102	0x3c3cd118	0.011524461
103	0x3d9faff0	0.07797229
104	0xba82f06e	-0.0009989867
105	0x3e0e6929	0.13907303
106	0x3d182015	0.03713997
107	0xbd146838	-0.036232203
108	0x3d1b712d	0.03794973
109	0x3e18a6c3	0.14907365
110	0xbcda71c0	-0.026665568
111	0xbc8bf51b	-0.017084649
112	0xbd2f0b4e	-0.04273539
113	0x3e5e357b	0.21700089
114	0x3ccd9f09	0.025100248
115	0xbbec48f9	-0.0072108475
116	0x3d958958	0.07301587
117	0x3de3a314	0.11115089
118	0x3db31d9d	0.08745883
119	0x3d3dc6b6	0.046332084
120	0x3d0534f8	0.032521218
121	0xbd7f8b7c	-0.062388882
122	0x3dfc33bd	0.12314556
123	0x3d9c9370	0.07645309
124	0x3e14d4f3	0.14534359
125	0xbd2c44e8	-0.0420579
126	0xbcf32963	-0.02968282
127	0x3d1e863a	0.038702227
128	0xbd2dfec6	-0.0424793
129	0xbcfd0ecd	-0.030890847
130	0xbcf34a29	-0.029698448
131	0x3dfcdbcc	0.123466104
132	0xbd858150	-0.06518805
133	0xbccd7429	-0.025079804
134	0x3c98ee9f	0.01866847
135	0x3e11859b	0.14211123
136	0xbc810c0e	-0.015752818
137	0x3d61437c	0.054996
138	0x3d570c1f	0.052501794
139	0xbcc886a3	-0.024478262
140	0x3cd9132f	0.026498405
141	0xbd369928	-0.044579655
142	0xbd7942b0	-0.060854614
143	0x3d8ddc7f	0.06926822
144	0x3da51088	0.08059794
145	0xbdcc8173	-0.09985628
146	0xbd34a653	-0.04410393
147	0x3d3dce5e	0.046339385
148	0x3d387d6f	0.045041498
149	0xbc28100e	-0.010257734
150	0x3d0d9286	0.034563564
151	0xbe1e08df	-0.15433072
152	0x3dba0104	0.09082225
153	0x3d947d5b	0.07250472
154	0x3d575b0c	0.052577063
155	0xbcb98138	-0.022644624
156	0xba166ae9	-0.0005737977
157	0x3de8bfc3	0.11364701
158	0xbd182765	-0.037146945
159	0x3c8a0b5f	0.016851125
160	0x3c44732b	0.011990349
161	0x3d94fb27	0.07274466
162	0xbd8b55f9	-0.06803507
163	0x3cd8e4a6	0.026476216
164	0x3d1cd1c7	0.038285997
165	0x3d4fc52c	0.050725147
166	0x3d859153	0.06521859
167	0xba4a0f09	-0.0007707929
168	0xbd990132	-0.07470931
169	0x3cfa3aae	0.030545559
170	0x3e3d7552	0.18501785
171	0xbca54a97	-0.020177169
172	0xbd5efaa9	-0.054438267
173	0x3ca9b1a9	0.020714598
174	0x3dfb9fe0	0.12286353
175	0x3d03e248	0.03219822
176	0xbcc9f497	-0.024652762
177	0xbd76b4ba	-0.060230948
178	0xbd515b76	-0.051112615
179	0x3c8b4afd	0.01700353
180	0xbd37d62d	-0.04488199
181	0x3da489f2	0.080341235
182	0x3e344795	0.17605431
183	0x3dcca0d9	0.09991617
184	0x3dd6a147	0.1047998
185	0x3dd68564	0.10474661
186	0x3dc87167	0.09787255
187	0x3cf7b83c	0.030239217
188	0xbd0f41f2	-0.034975
189	0x3c909f40	0.017654061
190	0x3d48336b	0.04887716
191	0x3e196f64	0.14983898
192	0xbd4db015	-0.050216753
193	0x3d7c94fe	0.061665528
194	0x3cda3cc0	0.026640296
195	0xbccc671f	-0.024951516
196	0x3c9fdc94	0.01951436
197	0x3d03a6de	0.03214156
198	0x3bbe6d84	0.005811395
199	0x3d026994	0.03183897
200	0x3b567832	0.003272545
201	0x3e037280	0.12836647
202	0xbd1f9554	-0.03896077
203	0x3cbe4b70	0.02322933
204	0x3dff26eb	0.12458595
205	0xbd589211	-0.052873675
206	0x3dfdda0e	0.12395106
207	0xbc5edbc3	-0.0136022
208	0x3d7fb4eb	0.062428396
209	0x3e1e578d	0.15463085
210	0x3d18b421	0.03728116
211	0xbd06cb5b	-0.03290878
212	0x3d0e2fbb	0.034713488
213	0x3dacb9de	0.08433889
214	0x3bbd36b1	0.005774342
215	0xbd0c5bd3	-0.034267258
216	0x3cb2262c	0.021746717
217	0x3defaff5	0.11703483
218	0x3c88ae7e	0.016684767
219	0xbca8825e	-0.020569976
220	0x3d68df39	0.056853507
221	0x3cab9635	0.020945648
222	0x3e3ab4b0	0.1823299
223	0x3d2abea3	0.04168571
224	0x3e19b7b1	0.15011479
225	0x3cdf2997	0.027241511
226	0x3d46ec02	0.04856492
227	0x3c4d279c	0.012521651
228	0x3e3566ef	0.17715047
229	0x3dda9294	0.10672489
230	0xbc73c305	-0.014878039
231	0xbd28a8cf	-0.041176613
232	0xbcfa00ec	-0.030518018
233	0xbc7cf43b	-0.015439088
234	0x3e2aa655	0.16665013
235	0x3d2a4ffc	0.041580185
236	0xbc9319e6	-0.017956685
237	0xbc95e69f	-0.018298445
238	0xbd860d8b	-0.06545552
239	0x3d938a12	0.07204069
240	0x3dc3964b	0.095501505
241	0x3cfac722	0.030612532
242	0x3dfa1ba0	0.122123
243	0xbd463b85	-0.048396606
244	0xbd7f8ea8	-0.062391907
245	0x3d8cc5c3	0.068736576
246	0xbe2ec415	-0.17066987
247	0x3d0a00e3	0.033692252
248	0x3da803a4	0.082038194
249	0x3d388ee3	0.045058142
250	0xbd82e0bc	-0.06390521
251	0x3d0db0ed	0.034592558
252	0x3b08d567	0.002087915
253	0xbe43304b	-0.19061391
254	0x3d20fb05	0.03930189
255	0xbd316e91	-0.043318335

fc3.weight f4 [128, 256]
0	0xbe3896e0	-0.18026304
1	0x3c371c18	0.011176132
2	0xbcc840f5	-0.024445036
3	0xbcf9d5e5	-0.0304975
4	0xbcbf2b1a	-0.023335982
5	0xbb356eba	-0.0027684406
6	0x3c8587a5	0.016300032
7	0xbbc3c785	-0.0059747123
8	0xbdf87781	-0.121321686
9	0xbe6c45cf	-0.23073505
10	0xbcdee71a	-0.027209807
11	0xbdf10b67	-0.11769753
12	0x3d94cf4e	0.07266103
13	0x3e854614	0.26030028
14	0x3c620891	0.013795988
15	0x3ca44c26	0.020055842
16	0x3e1647ad	0.1467578
17	0x3e9136c6	0.283621
18	0x3c76af9c	0.015056517
19	0xbe18b275	-0.14911826
20	0xbe932ca6	-0.28745002
21	0xbe7d125b	-0.24714033
22	0x3cc37d69	0.023863511
23	0xbeb77b23	-0.35836133
24	0xbd69b449	-0.0570567
25	0xbd795a59	-0.060877178
26	0xbd84ac03	-0.06478121
27	0x3e2517ed	0.16122408
28	0xbd9a4b1c	-0.07533857
29	0xbd8229a5	-0.06355599
30	0xbd76c7f3	-0.06024928
31	0xbda128ea	-0.07869132
32	0x3c5f7ca4	0.0136405565
33	0xbe5135ee	-0.20430729
34	0x3cd3f599	0.025873946
35	0x37251f8b	9.842111e-06
36	0x3da4fa94	0.080556065
37	0x3c0d6dc9	0.008632132
38	0xbc0b4ee6	-0.008502698
39	0x3d4cb711	0.049979273
40	0x3d7cd73e	0.06172871
41	0xbd646476	-0.05575987
42	0xbd4b628c	-0.04965453
43	0x3ccd6da6	0.025076699
44	0xbe828bad	-0.2549719
45	0xbc14cf85	-0.00908268
46	0xbcbf2448	-0.02333273
47	0xbea354ca	-0.31900626
48	0x3cf690a9	0.030098276
49	0xbeab9e95	-0.33519426
50	0x3d80da8b	0.06291684
51	0xbe48493b	-0.19559185
52	0x38a2c3e9	7.761253e-05
53	0xbbd39be0	-0.0064577907
54	0xbe0baaa2	-0.1363931
55	0x3c86c431	0.016450973
56	0xbd1ea999	-0.03873596
57	0xbd645fe2	-0.055755503
58	0xbe3dccd2	-0.18535164
59	0x3d1e39ac	0.03862922
60	0x3c3df4bc	0.011593994
61	0x3e024aa6	0.12723789
62	0xbe52f473	-0.20601062
63	0xbd2c2460	-0.042026877
64	0x3d535405	0.0515938
65	0xbdaa46ff	-0.08314323
66	0x3cb8c524	0.022554941
67	0xbe2c48a1	-0.1682458
68	0x3c3bc790	0.011461154
69	0xbebd1eba	-0.36937505
70	0xbd3b2f57	-0.045699444
71	0xbe6cae49	-0.2311336
72	0x3c34c34b	0.01103289
73	0x3e5725c8	0.21010506
74	0x3d3c38d4	0.045952633
75	0x3dc8d0cf	0.09805452
76	0x3ba8e8b1	0.005154692
77	0xbd5eb135	-0.054368217
78	0x3c8bd3e1	0.017068805
79	0x3e220999	0.15823974
80	0x3e549b91	0.20762469
81	0xbdac06ba	-0.083997205
82	0xbe62e065	-0.22155912
83	0x3d516f5a	0.051131584
84	0x3cfd432d	0.030915821
85	0xbe356e24	-0.17717797
86	0xbbf67d2e	-0.007522247
87	0xbc11858f	-0.0088819405
88	0x3db5b466	0.08872299
89	0x3ce7d5f2	0.02830026
90	0xbddfa5ed	-0.1092032
91	0xbd7c46c1	-0.061590914
92	0xbc8742d0	-0.01651135
93	0x3b9146e0	0.004433498
94	0xbb8417d6	-0.004031162
95	0xbd667e18	-0.056272596
96	0xbcfdc135	-0.030975917
97	0xbd3300eb	-0.043702047
98	0x3d5c0d8d	0.05372386
99	0xbd6708b1	-0.056404773
100	0xbea8e1c7	-0.32984754
101	0xbced2110	-0.02894643
102	0x3cd2d1b4	0.02573476
103	0x3d9007c0	0.07032728
104	0xbe9a7bb1	-0.30172494
105	0x3da51708	0.080610335
106	0xbe80f86f	-0.2518954
107	0xbc8cdc7d	-0.01719498
108	0x3cdc7b04	0.026914127
109	0x3e75fc57	0.24022041
110	0xbb82646a	-0.0039792554
111	0xbd393658	-0.045217842
112	0x3ca59c95	0.020216266
113	0xbe13051f	-0.14357422
114	0xbd081697	-0.03322467
115	0xbd78ef09	-0.060774837
116	0x3de832a3	0.11337783
117	0xbd8fcca6	-0.070214555
118	0x3dbe9fee	0.09307848
119	0xbda524ef	-0.08063685
120	0x3a9c0545	0.0011903426
121	0xbd3ed1e0	-0.04658687
122	0xbe43c109	-0.19116606
123	0xbe1bd4bd	-0.15217872
124	0x3d8feff6	0.07028191
125	0x3d534e50	0.051588356
126	0xbbc1be00	-0.0059125423
127	0xbe624659	-0.22097148
128	0x3d1c6e1f	0.038190957
129	0x3c449cab	0.012000243
130	0x3cd0c885	0.02548624
131	0x3d26608d	0.04061942
132	0x3d125f8e	0.03573566
133	0x3c60a4f6	0.013711205
134	0xbd1c36fe	-0.038138382
135	0x3e048d14	0.12944442
136	0xbd0ce351	-0.034396473
137	0x3cf7e5e7	0.030260993
138	0xbdc23fb1	-0.094848044
139	0xbd5ae374	-0.053439572
140	0x3d0d4ddc	0.03449808
141	0xbc409a05	-0.011755471
142	0xbc89b515	-0.01680998
143	0x3cd3a35f	0.025834737
144	0xbd4b4ccb	-0.049633782
145	0x3e5b55d4	0.2141946
146	0xbe843c8c	-0.25827444
147	0x3bc4bdac	0.006004056
148	0xbe73c75e	-0.23806521
149	0x3cc4b697	0.024012847
150	0xbd39cb27	-0.045359757
151	0xbd074752	-0.033027
152	0xbc5bbf6d	-0.013412339
153	0x3e567901	0.20944597
154	0xbcdea6fb	-0.027179232
155	0x3cfd2a59	0.030903982
156	0x3c2f8ef9	0.01071524
157	0xbe0f0259	-0.1396574
158	0xbd4a0406	-0.049320243
159	0xbe171f6e	-0.14758083
160	0xbe2a81fe	-0.1665115
161	0xbe0955cf	-0.1341164
162	0xbbdb6f84	-0.0066966433
163	0x3e2e8824	0.17044121
164	0x3c361b65	0.01111493
165	0xbe52e173	-0.20593815
166	0x3dc809c9	0.09767491
167	0xbc47f77e	-0.012205003
168	0x3da8fd3a	0.08251424
169	0x3d05e482	0.032688625
170	0xbe3964ed	-0.18104906
171	0x3d39efd2	0.045394726
172	0xbc85ac20	-0.016317427
173	0xbd16884f	-0.036751088
174	0xbe8d7c40	-0.27633858
175	0xbe3d3b0d	-0.18479557
176	0xbed8e112	-0.42359215
177	0xbd04a766	-0.032386206
178	0x3cb8d530	0.022562593
179	0xbd1e45a7	-0.038640644
180	0x3c5e8055	0.013580401
181	0xbdf23920	-0.11827302
182	0xbc085e46	-0.008323258
183	0x3e9417f6	0.2892453
184	0xbe9053e5	-0.28189006
185	0x3ebf4d2a	0.3736356
186	0xbe5affd6	-0.21386656
187	0xbe5a4d08	-0.21318448
188	0xbc04f1fd	-0.008114335
189	0x3d82ace9	0.06380636
190	0xbe67a71b	-0.2262234
191	0xbe9d4b2a	-0.30721408
192	0xbc9f297b	-0.01942896
193	0xbe08b876	-0.13351616
194	0xbd219aaa	-0.03945414
195	0x3e9a91f5	0.3018948
196	0x3b6532e0	0.003497295
197	0xbed00e48	-0.40635896
198	0xbd719ac1	-0.058985475
199	0x3a922863	0.0011150952
200	0x3da7cdab	0.08193525
201	0xbe9ec086	-0.3100626
202	0xbc309580	-0.010777831
203	0x3e0af5e4	0.13570362
204	0xbe71f461	-0.2362838
205	0xbc87a3f8	-0.016557679
206	0xbe403bfc	-0.18772882
207	0xbcb582ac	-0.022157036
208	0x3d36092e	0.04444235
209	0x3e3e57df	0.18588208
210	0xbe5cfe25	-0.21581323
211	0xbc235924	-0.009969983
212	0xbc0b8d7f	-0.008517622
213	0xbe105001	-0.14093019
214	0x3bc88032	0.0061187977
215	0xbd31334a	-0.043261804
216	0xbcaed40e	-0.02134135
217	0xbe453bd7	-0.19261108
218	0x3d6d1f73	0.05789132
219	0xbc89740c	-0.016778968
220	0xbdd4187a	-0.10356231
221	0x38905c14	6.883606e-05
222	0xbcbf6926	-0.023365568
223	0x3d4e22e0	0.05032623
224	0xbe26158d	-0.16219158
225	0x3b4d4d9e	0.003132678
226	0x3bd9fb2a	0.0066522555
227	0xbce51951	-0.027966173
228	0x3d24719a	0.0401474
229	0x3ce1d08e	0.027565267
230	0x3cabed83	0.020987278
231	0x3d047f1c	0.032347783
232	0x3b0791cb	0.0020686265
233	0x3c75a6ad	0.014993352
234	0xbe98efdf	-0.29870507
235	0x3e2c2c04	0.16813666
236	0x3bc33fcf	0.0059585343
237	0x3d694ea9	0.05695978
238	0xbc8c924f	-0.01715961
239	0xbe774680	-0.24147987
240	0x3de4be20	0.11169076
241	0xbe342119	-0.17590751
242	0xbd7863a5	-0.060641903
243	0xbdc0902f	-0.09402501
244	0xbd73124b	-0.059343617
245	0xbcc48990	-0.023991376
246	0x3e727907	0.23678981
247	0xbca58f36	-0.02020989
248	0xbe220995	-0.15823968
249	0xbe3c26f7	-0.18374239
250	0x3ceb8000	0.028747559
251	0xbe8dab36	-0.27669686
252	0xbc8456ff	-0.016154764
253	0x3d73f2a7	0.059557583
254	0x3e23d2d2	0.1599839
255	0x3c497004	0.012294773

fc3.bias f4 [128]
0	0x3d859717	0.06522959
1	0x3c6b88d5	0.014375885
2	0x3e4d9c62	0.20079187
3	0xbd85038e	-0.06494819
4	0xbdf134d5	-0.11777655
5	0xbcacf533	-0.021113014
6	0xbd2264e2	-0.03964699
7	0xbd4cc5dc	-0.04999338
8	0x3d4be9f0	0.049783647
9	0x3c8f4769	0.017490106
10	0x3dfa686b	0.122269474
11	0xbc8b4c5d	-0.017004186
12	0x3d6ddf92	0.05807454
13	0xbd20fd02	-0.039303787
14	0xbd8002bd	-0.06250522
15	0x3c4d9ad2	0.012549119
16	0x3e57fc8c	0.21092433
17	0xbab349a6	-0.0013678565
18	0x3c90b081	0.017662289
19	0x3e5ddd00	0.21666336
20	0x3c564b45	0.013079469
21	0x3b920d89	0.00445718
22	0xbd54defa	-0.05197046
23	0xbd582f65	-0.052779574
24	0xbd429cf9	-0.047512982
25	0xbd4a3096	-0.04936274
26	0xbc88ff19	-0.016723203
27	0x3d06ac41	0.032879118
28	0x3d7f1351	0.06227428
29	0x3e4aac70	0.19792342
30	0xbd0e5518	-0.03474912
31	0xbca0ff1c	-0.019652896
32	0xbd7fc6aa	-0.06244532
33	0x3d08d3a0	0.033404946
34	0xbc9e7049	-0.019340651
35	0xbd89a11f	-0.067201845
36	0x3e825ad7	0.2545993
37	0xbccf8f0b	-0.025336763
38	0x3c789bc8	0.01517386
39	0xbd081d72	-0.033231206
40	0xbc8ea36d	-0.017411912
41	0x3d8f606f	0.07000815
42	0xbd5117fc	-0.051048264
43	0x3e2fc2f6	0.17164215
44	0x3e07ff4c	0.13280982
45	0xbcfc049f	-0.030763922
46	0x3e48f566	0.19624862
47	0x3c8cdac0	0.017194152
48	0xbd73e587	-0.059545066
49	0x3bb29379	0.005449709
50	0x3dcaeeeb	0.09908851
51	0xbd7896df	-0.060690757
52	0xbd83d471	-0.06437004
53	0xbd6b8618	-0.05750093
54	0x3cf84a0a	0.030308742
55	0xbd1eea74	-0.03879781
56	0xbd1d505f	-0.038406726
57	0xbd5f4503	-0.054509174
58	0x3c680414	0.014161129
59	0x3cce72ba	0.02520119
60	0x3e2bb941	0.16769888
61	0x3e1e516e	0.1546075
62	0x3e452071	0.19250657
63	0xbd074ad0	-0.03303033
64	0x3e6178d3	0.22018747
65	0x3d3684d0	0.044560254
66	0xbd3beb35	-0.045878608
67	0x3e17db26	0.14829692
68	0x3c27fe63	0.010253522
69	0xbd66ed43	-0.056378614
70	0x3e5981d1	0.21240927
71	0x3e577277	0.21039759
72	0xbd66e037	-0.05636617
73	0xbcf8d5cb	-0.030375382
74	0x3d1f7be6	0.038936518
75	0x3c9224d7	0.017839832
76	0x3e1801f8	0.14844501
77	0xbc8589d2	-0.01630107
78	0x3e132eb0	0.14373279
79	0x3d2c5cd4	0.042080715
80	0x3e2524e5	0.16127355
81	0x3af1c9d2	0.0018446988
82	0x3cab247f	0.020891426
83	0xbc33a5d2	-0.010964828
84	0xbcfc0ba4	-0.03076727
85	0xbc94e168	-0.018173888
86	0x3e28dcb0	0.16490436
87	0x3e069be9	0.13145413
88	0xbca3c190	-0.019989759
89	0x3df5a1d7	0.11993759
90	0x3e9180f4	0.28418696
91	0x3dc77120	0.09738374
92	0x3e3e7f8d	0.18603344
93	0x3e3b4112	0.18286541
94	0x3dc2ac3e	0.09505509
95	0x3e36ea3f	0.17862795
96	0xbd75f580	-0.06004858
97	0xbcfcf246	-0.030877244
98	0x3d9be2e3	0.076116346
99	0xbd123d1e	-0.035702817
100	0xbdce0c65	-0.10060958
101	0xbd63bb96	-0.055598818
102	0xbd75cffe	-0.06001281
103	0x3d84227c	0.0645189
104	0x3e789ac2	0.24277785
105	0xbd7a23d1	-0.061069313
106	0xbc216ded	-0.0098528685
107	0x3e322568	0.17397082
108	0xbbf89b44	-0.0075868685
109	0xbcecc282	-0.028901342
110	0xbba9265a	-0.0051620426
111	0xbd325037	-0.04353353
112	0xbd6614aa	-0.05617205
113	0xbc198e40	-0.009372294
114	0x3e3d4c46	0.18486127
115	0x3e52caa4	0.20585114
116	0x3e19d17a	0.15021315
117	0xbd09ef36	-0.033675395
118	0x3e17058a	0.14748207
119	0x3d037a96	0.03209933
120	0x3c4cd94f	0.012502982
121	0x3d7186c1	0.058966402
122	0xbda9d274	-0.08292094
123	0x3d2ddad0	0.042445004
124	0xbd02ca30	-0.031931102
125	0x3d1c4ecf	0.038161095
126	0xbb904d92	-0.0044037784
127	0x3e468b12	0.19388989

fc4.weight f4 [4, 128]
0	0xbcf7043b	-0.030153384
1	0x3d81b924	0.06334141
2	0xbe25921a	-0.16169015
3	0xbd2fc9a2	-0.0429169
4	0x3cfacf0c	0.030616306
5	0x3db5fe73	0.08886423
6	0x3ee9117f	0.4552116
7	0x3d21c5c5	0.03949525
8	0x3e973f19	0.29540327
9	0x3ed721e7	0.42018053
10	0x3eece291	0.46266606
11	0x3e62e638	0.22158134
12	0x3d54f792	0.051993914
13	0xbda53181	-0.08066083
14	0xbda24853	-0.07923951
15	0x3b7787d3	0.0037770167
16	0x3df8b8ed	0.12144647
17	0x3d1ee6b3	0.03879423
18	0x3e941a69	0.289264
19	0xbe6687ef	-0.22512792
20	0xbd1cbde6	-0.03826704
21	0x3eeffdc0	0.46873283
22	0xbd970e76	-0.07375805
23	0xbcdc19d3	-0.026867783
24	0xbe93cf8e	-0.2886929
25	0x3eaa0267	0.33204958
26	0xbd864932	-0.0655693
27	0x3ea1b808	0.31585717
28	0x3ea48fc6	0.3214094
29	0xbe725539	-0.23665322
30	0x3e696736	0.22793278
31	0xbdb4d6fb	-0.08830067
32	0x3ea9454d	0.33060685
33	0x3d7b5178	0.06135699
34	0x3ebf8c0b	0.37411532
35	0x3ded6b9f	0.11592793
36	0xbee805d9	-0.4531696
37	0x3e64d843	0.22348122
38	0x3cebff10	0.028808147
39	0xbce6208e	-0.028091695
40	0xbdb45fac	-0.088073105
41	0xbe0fe6cc	-0.14052886
42	0xbc127ff6	-0.008941641
43	0x3e5053bd	0.20344444
44	0x3ea8765d	0.32902804
45	0x3ee48bc0	0.4463787
46	0xbe929370	-0.2862811
47	0x3e42574f	0.18978618
48	0x3bdbc683	0.006707014
49	0x3f08c4da	0.5342537
50	0xbdf9a9d6	-0.12190597
51	0xbd7312e9	-0.059344206
52	0x3ea8a275	0.32936445
53	0xbe2ecbce	-0.17069933
54	0x3efe64de	0.4968633
55	0x3d9c2482	0.07624151
56	0xbd34ef7b	-0.0441737
57	0x3ebaa167	0.36451265
58	0x3d4614a1	0.048359517
59	0xbc765d58	-0.015036903
60	0x3f12ff2b	0.57420605
61	0x3eefc6b5	0.4683129
62	0xbe808434	-0.25100863
63	0xbc2b0ee8	-0.010440566
64	0xbe6cb9d5	-0.23117764
65	0xbe526fc2	-0.20550445
66	0x3d4762af	0.048678096
67	0x3ebc8f03	0.3682786
68	0x3e8de252	0.2771173
69	0x3cddf1b7	0.027092798
70	0xbe9b84d3	-0.30374774
71	0x3e02b557	0.12764488
72	0xbda20646	-0.07911353
73	0x3d71ae75	0.059004266
74	0x3d387ec8	0.045042783
75	0x3e9a0476	0.30081528
76	0xbe3e9ef2	-0.1861532
77	0xbbd2bb8b	-0.0064310483
78	0x3d86179e	0.06547473
79	0xbc8abefc	-0.016936772
80	0xbe8eaa7f	-0.27864453
81	0x3da9533d	0.082678296
82	0xbd4ba6d1	-0.049719635
83	0xbcf0c922	-0.029392783
84	0xbd9379d9	-0.07200975
85	0xbd2bc157	-0.04193243
86	0xbdf89399	-0.12137527
87	0x3e9e750b	0.30948672
88	0x3b657d49	0.0035017303
89	0xbd89ba1d	-0.067249514
90	0xbe3e6dae	-0.18596527
91	0x3e7e6e06	0.24846658
92	0xbe55b57d	-0.20870014
93	0xbdbd2472	-0.09235467
94	0xbd4599d5	-0.04824241
95	0xbe2146be	-0.15749642
96	0x3d4c99a4	0.04995121
97	0x3c30e343	0.010796371
98	0x3e89407e	0.26807016
99	0x3d427842	0.047477968
100	0x3ede1890	0.43378115
101	0x3d7a97d2	0.061179943
102	0xbd41c97f	-0.047311302
103	0x3ecbb6b2	0.39787823
104	0xbe6322ce	-0.22181246
105	0x3e1abb6b	0.15110557
106	0x3e4101b4	0.18848306
107	0xbe3d45fd	-0.1848373
108	0x3d75b9d8	0.059991688
109	0xbda04257	-0.07825153
110	0x3f067d03	0.525345
111	0xbd88c6bd	-0.06678531
112	0x3d31626a	0.043306746
113	0xbd2e9534	-0.04262276
114	0xbdc2ba75	-0.0950822
115	0xbde73d92	-0.112910405
116	0x3e98fff0	0.29882765
117	0x3e109685	0.14119919
118	0xbe03043c	-0.12794584
119	0x3eef8872	0.46783787
120	0x3db438b1	0.087998755
121	0x3f27dc21	0.65570265
122	0x3c411784	0.011785392
123	0x3c6a8adc	0.014315333
124	0xbde962ad	-0.11395774
125	0x3d893844	0.06700185
126	0x3e7033a1	0.23457195
127	0xbe8c703c	-0.27429378
128	0xbdf67266	-0.120335385
129	0x3c0a3d2d	0.008437437
130	0xbd86655f	-0.06562304
131	0x3d6f4ca3	0.058422696
132	0xbcbb3567	-0.022852613
133	0xbd378133	-0.04480095
134	0x3ea644c3	0.32474336
135	0xbde067fa	-0.10957332
136	0x3eae10b2	0.33997113
137	0x3eb188e3	0.3467475
138	0x3ee66e8c	0.45006216
139	0x3e632601	0.22182466
140	0x3d0170c8	0.031601697
141	0x3ba7f0a3	0.0051251217
142	0x3d1bf12c	0.038071796
143	0xbd384768	-0.044989973
144	0x3ea82110	0.32837725
145	0x3d6ee5a2	0.058324464
146	0x3e9b42d0	0.3032441
147	0xbe3a0613	-0.1816638
148	0x3ddef42c	0.10886416
149	0x3ed53267	0.41640016
150	0x3c68efac	0.0142172985
151	0x3c829e46	0.015944611
152	0xbe0dff95	-0.13867028
153	0x3ec2cabd	0.38045302
154	0x3cc5c9a4	0.024144001
155	0x3e2a5464	0.16633755
156	0x3ed3a3e3	0.41335973
157	0xbe4be74b	-0.1991245
158	0x3e8f277f	0.2795982
159	0xbbaed3b0	-0.0053352937
160	0x3ed5f3d7	0.41787598
161	0x3b75b304	0.0037490735
162	0x3ea657d9	0.32488897
163	0x3c48ad1c	0.012248304
164	0xbead2807	-0.338196
165	0x3ecd40de	0.40088552
166	0x3d9af4e6	0.07566242
167	0xbd61ef4a	-0.055159844
168	0x3d76114d	0.060075093
169	0xbe19091e	-0.14944884
170	0x3d0784b4	0.03308554
171	0x3e639dae	0.22228119
172	0x3e9a8cd2	0.30185562
173	0x3eab4fee	0.3345942
174	0xbe96e3c9	-0.2947066
175	0x3ebaedd6	0.3650958
176	0x3d10cc1a	0.035350896
177	0x3e73493e	0.23758408
178	0xbd834a6f	-0.064106815
179	0x3d0f4d84	0.034986034
180	0x3eace4a5	0.33768192
181	0x3ca94dd6	0.020666998
182	0x3ea215e4	0.31657326
183	0x3d8ce7e6	0.068801686
184	0x3d86483d	0.06556747
185	0x3ec8ca63	0.3921691
186	0xbc03efa6	-0.008052742
187	0x3c28631b	0.010277535
188	0x3ec21983	0.3791009
189	0x3f0c629b	0.5483796
190	0xbe16a57c	-0.14711565
191	0x3d27e9c6	0.040994428
192	0xbe7529d1	-0.23941733
193	0xbe3b9cfa	-0.183216
194	0x3c15bcfd	0.009139297
195	0x3ee01b60	0.43770885
196	0x3e4d2e0e	0.200371
197	0x3d341a0e	0.04397016
198	0xbe903c00	-0.28170776
199	0x3e9fd2d9	0.31215551
200	0x3cec4aa3	0.028844183
201	0x3d57b14b	0.052659314
202	0xbd2a6ab8	-0.04160568
203	0x3e963d7d	0.29343787
204	0xbe94c079	-0.29053095
205	0xbd7c6918	-0.061623663
206	0x3eac4efe	0.33654016
207	0xbc5e9925	-0.013586317
208	0xbeb7c583	-0.35892877
209	0x3c220c64	0.0098906495
210	0x3d7c94f0	0.061665475
211	0x3ce422ac	0.027848564
212	0xbd876491	-0.066109784
213	0x3d7c250c	0.06155877
214	0xbd1bfb1e	-0.03808128
215	0x3e7d1b03	0.24717335
216	0x3d6ea19c	0.05825959
217	0xbe1e56e5	-0.15462835
218	0xbec99e91	-0.3937879
219	0x3e29363b	0.16524594
220	0xbe6f435d	-0.23365541
221	0xbe44f61e	-0.19234511
222	0xbcce126d	-0.02515527
223	0x3d885daa	0.0665849
224	0xbaf9b568	-0.0019051256
225	0xbcb87480	-0.022516489
226	0x3e8ca485	0.27469268
227	0xbd79610e	-0.060883574
228	0x3e85640e	0.26052898
229	0x3c96e3b8	0.018419132
230	0x3ac7b800	0.0015237331
231	0x3e091800	0.13388062
232	0xbdcf4c26	-0.10121946
233	0x3e984b8f	0.29745147
234	0x3ebd93c7	0.37026808
235	0xbe7bdcf9	-0.24596013
236	0xbcde6f23	-0.027152603
237	0xbd1b83a8	-0.037967354
238	0x3e99ba5f	0.30025002
239	0x3c732d5a	0.014842356
240	0xbd1fefa3	-0.039046895
241	0x3d7c381e	0.061576955
242	0xbda0ef7b	-0.07858177
243	0xbe3b78f9	-0.18307866
244	0x3e5d2387	0.21595584
245	0x3e6e06be	0.2324476
246	0xbdcfe114	-0.10150352
247	0x3ea232c7	0.31679365
248	0x3d7b93a6	0.061420105
249	0x3f090c74	0.53534627
250	0x3d3583e0	0.04431522
251	0xbc6a9d12	-0.014319675
252	0x3c850a90	0.016240388
253	0x3c03b504	0.008038763
254	0x3eab5baf	0.33468387
255	0xbed2b561	-0.41154006

fc4.bias f4 [4]
0	0xbdeb8356	-0.1149966
1	0xbd636f65	-0.055526156
2	0xbdcc342f	-0.09970891
3	0xbdb493d0	-0.088172555
