models/apollo_ddqn_seed3333_final.pth (torch, 409879 bytes, 8 tensors)

fc1.weight f4 [256, 8]
0	0xbf3d2b8d	-0.7389458
1	0xbf65e5fb	-0.8980405
2	0x3ee5d1bc	0.44886577
3	0x3e4ba026	0.1988531
4	0xbd3b1320	-0.045672536
5	0x3ccaa229	0.024735527
6	0x3ea55f75	0.3229939
7	0x3d84e218	0.064884365
8	0x3e24e86c	0.16104287
9	0xbec90585	-0.39262024
10	0xbe4388ee	-0.19095203
11	0xbe8b79c7	-0.27241346
12	0x3ed1aa72	0.40950352
13	0xbeced90e	-0.40399975
14	0x3dbdbb14	0.09264198
15	0x3e750356	0.23927054
16	0xbebf43e5	-0.37356487
17	0xbee36fc2	-0.44421202
18	0xbec12127	-0.37720606
19	0xbecde336	-0.4021241
20	0xbe0e446b	-0.13893287
21	0xbda0cdfc	-0.078517884
22	0xbd8ea714	-0.069654614
23	0x3e92b567	0.28654024
24	0xbea63212	-0.32460076
25	0xbf49c28e	-0.7881249
26	0x3e944710	0.28960466
27	0xbed0abc7	-0.40756056
28	0xbe1a1dd8	-0.15050447
29	0x3e1a4153	0.15063982
30	0xbe83f45d	-0.25772372
31	0xbdcd2950	-0.10017645
32	0x3e752ed1	0.2394364
33	0xbe622fd1	-0.22088553
34	0xbdb7c33d	-0.089727856
35	0x3e6d2f2e	0.23162529
36	0xbe2dd808	-0.1697694
37	0x3e884079	0.2661169
38	0xbeb2fca0	-0.34958363
39	0xbe563e24	-0.20922142
40	0x3e490881	0.1963215
41	0xbe4f981c	-0.20272869
42	0xbdc0582e	-0.09391819
43	0xbea0268d	-0.31279412
44	0x3d8f9654	0.07011095
45	0xbe04a4b2	-0.12953451
46	0xbe950903	-0.29108438
47	0xbe533ffb	-0.20629875
48	0xbd3c023d	-0.045900572
49	0xbe61ebee	-0.22062656
50	0x3cb7d2e4	0.022439428
51	0x3e8162a4	0.2527057
52	0xbe9b7762	-0.3036452
53	0xbd1a6f95	-0.03770407
54	0x3d657150	0.056016266
55	0x3e27304e	0.1632702
56	0x3dff588d	0.124680616
57	0xbe5d1f12	-0.21593884
58	0x3cdc50e1	0.026894035
59	0xbdd322d3	-0.103093766
60	0x3e3b91b7	0.18317305
61	0x3d1828e8	0.037148386
62	0x3de75800	0.112960815
63	0x3e8ecb93	0.2788969
64	0xbf389230	-0.72098064
65	0xbe1738f9	-0.14767827
66	0xbce2499a	-0.027622987
67	0xbc8547a7	-0.016269518
68	0xbe4d4fb3	-0.20049934
69	0xbf49c908	-0.78822374
70	0x3dede04c	0.11615047
71	0x3eb04c53	0.3443323
72	0xbe761688	-0.24032032
73	0xbf0a3cbc	-0.53998923
74	0xbe9275f6	-0.28605622
75	0xbea4fb0e	-0.3222279
76	0xbf430f08	-0.7619481
77	0xbe14ed7b	-0.14543717
78	0x3dddf488	0.10837656
79	0x3e8dbeab	0.2768453
80	0x3d1a3e29	0.037656937
81	0xbf86049c	-1.0470157
82	0xbde7d71c	-0.11320326
83	0x3e0abef0	0.135494
84	0xbed7c339	-0.4214113
85	0x3e6c7400	0.23091125
86	0xbe66fe7a	-0.22558013
87	0x3cd4d240	0.025979161
88	0xbf9dd4fe	-1.2330625
89	0x3e98f56d	0.29874745
90	0xbe0381ba	-0.12842456
91	0x3ec7e8ef	0.39044902
92	0xbc7d4f28	-0.015460767
93	0x3e8a9ee2	0.27074343
94	0xbd2d2b40	-0.042277575
95	0x3dc35dd0	0.09539378
96	0xbea8d6b9	-0.3297632
97	0x3d68cc30	0.056835353
98	0x3e7eaa62	0.24869683
99	0x3e5bc626	0.21462306
100	0x3d876138	0.0661034
101	0xbdfa0eba	-0.1220984
102	0xbe4caa20	-0.19986773
103	0xbe85ff5e	-0.26171392
104	0x3d7cc2d0	0.061709225
105	0x3e5cb7d2	0.21554497
106	0xbeec8564	-0.4619552
107	0xbeb1a455	-0.34695688
108	0xbdf61634	-0.12015954
109	0xbd7b1121	-0.061295632
110	0xbeac4a4b	-0.3365043
111	0xbe2d4dde	-0.16924235
112	0x3e88d242	0.26722914
113	0xbe80ae28	-0.2513287
114	0xbd2170da	-0.039414264
115	0x3e21edc3	0.15813355
116	0xbf1563a7	-0.5835518
117	0x3d02542e	0.03181856
118	0x3e96536b	0.29360518
119	0x3e8317dd	0.25604144
120	0x3d881cb4	0.066461
121	0xbe6dc7ea	-0.23220792
122	0xbe45fa2d	-0.19333716
123	0xbe8eac40	-0.2786579
124	0x3f00afbc	0.5026815
125	0x3d934a63	0.071919225
126	0xbe598854	-0.21243411
127	0x3e013d1c	0.12620968
128	0x3f6db42b	0.9285304
129	0xbeb03562	-0.34415728
130	0xbee7bb96	-0.45260304
131	0xbe9b0443	-0.3027669
132	0xbd1a9bc4	-0.037746206
133	0xbeeb96d1	-0.460135
134	0xbe7667ef	-0.24063085
135	0x3eabdea7	0.33568308
136	0x3db8e5a1	0.09028173
137	0x3e36e7b6	0.17861828
138	0xbec6ac14	-0.3880316
139	0x3e8f99b4	0.28046954
140	0x3e26c943	0.16287713
141	0xbe14eb31	-0.14542843
142	0xbe4b068c	-0.19826716
143	0x3e9a50c7	0.30139753
144	0x3ef69978	0.48163962
145	0x3ce0d45e	0.027445015
146	0x3e8fac07	0.28060934
147	0x3e2a7c82	0.16649058
148	0xbfeff0b4	-1.8745332
149	0xbfa9067f	-1.3205107
150	0x3c5369c0	0.012903631
151	0xbe4e6902	-0.20157245
152	0xbf321930	-0.69569683
153	0xbf413171	-0.75466067
154	0xbc7b2fd4	-0.015331227
155	0x3e5b524f	0.21418117
156	0xbebabe1e	-0.36473173
157	0x3e99d9be	0.30048937
158	0x3b340900	0.0027471185
159	0xbd02f000	-0.031967163
160	0x3ec7ec99	0.39047697
161	0xbe10d1f1	-0.14142586
162	0xbe350f4e	-0.1768162
163	0xbe53943e	-0.20662019
164	0x3ec831db	0.39100537
165	0xbb3644ed	-0.002781208
166	0x3d58a558	0.05289206
167	0xbdfcac12	-0.12337507
168	0x3f3baf30	0.7331419
169	0xbf4c3286	-0.7976459
170	0x3ea8c78d	0.32964745
171	0xbe5d9872	-0.21640185
172	0xbe3ab7a8	-0.18234122
173	0x3d72f97b	0.059319954
174	0xbe5ed6d8	-0.21761644
175	0xbda15ffc	-0.07879636
176	0xbe678e12	-0.2261279
177	0xbfb41d81	-1.4071504
178	0x3cec8eae	0.028876629
179	0xbe26cb36	-0.16288456
180	0xbd1d2314	-0.03836353
181	0x3dc7c843	0.09754994
182	0xbc495220	-0.0122876465
183	0x3e72661e	0.23671767
184	0xbf5b3152	-0.8562213
185	0xbe8ef1e0	-0.2791891
186	0x3e9a58ab	0.30145773
187	0x3e24905e	0.16070697
188	0xbe6a0ce5	-0.22856481
189	0x3f28a09d	0.65870076
190	0x3e62a0e2	0.22131684
191	0x3e1cbbee	0.15306064
192	0x3f6b9730	0.9202757
193	0xbc4cc763	-0.012498709
194	0x3e9a3b2d	0.30123273
195	0x3ef3846f	0.47561976
196	0xbed9dd49	-0.4255164
197	0xbe844623	-0.2583476
198	0x3e7077ca	0.23483196
199	0x3eb0fa45	0.3456594
200	0xbf6bd4b6	-0.92121446
201	0xbf4b4078	-0.79395247
202	0xbd914ab4	-0.070943266
203	0xbe7e0b4f	-0.24809001
204	0xbe5f91c0	-0.21832943
205	0x3e41f134	0.18939668
206	0xbe78abf9	-0.24284352
207	0xbcea4350	-0.02859655
208	0xbfc15a40	-1.5105667
209	0x3f278284	0.65433526
210	0xbd5cde3e	-0.053922884
211	0x3dd44d2d	0.103662826
212	0x3fb356d3	1.4010872
213	0x3e45c682	0.19314006
214	0xbd6b8550	-0.057500184
215	0x3e36b56e	0.17842647
216	0xbf59ed95	-0.85128146
217	0xbe755200	-0.23957062
218	0x3eb5ff07	0.35546133
219	0xbdf4e3f2	-0.119575396
220	0xbf725c32	-0.9467193
221	0x3f6a9571	0.9163428
222	0xbea275f1	-0.31730607
223	0x3d38be38	0.04510328
224	0x3f8b023c	1.0860057
225	0x3f3d2b0f	0.7389383
226	0xbdac523d	-0.08414123
227	0x3dade6a6	0.08491258
228	0x3e66fce3	0.22557406
229	0xbcfca090	-0.03083828
230	0x3e14d4ea	0.14534345
231	0x3e184e76	0.1487368
232	0xbf848c8a	-1.0355389
233	0x3d8d8d3e	0.069117054
234	0xbe4a4439	-0.19752587
235	0x3e7448fd	0.23855968
236	0x3ebdedc1	0.37095454
237	0x3ec903b8	0.3926065
238	0x3de30b6c	0.11086163
239	0xbe451258	-0.19245279
240	0x3ee0f376	0.43935746
241	0xbe072860	-0.13198996
242	0xbef62ceb	-0.48081145
243	0xbecf3d9b	-0.4047669
244	0x3cead36a	0.028665263
245	0xbedb7b16	-0.42867345
246	0x3e70315e	0.23456332
247	0x3c69c4a0	0.01426807
248	0x3f0134ab	0.5047099
249	0x3ee9ce1d	0.45665064
250	0xbd851da4	-0.06499794
251	0x3c18db06	0.009329563
252	0x3ef581d4	0.47950613
253	0x3db6561c	0.08903143
254	0x3eb14901	0.3462601
255	0xbdbf8c34	-0.093529135

fc1.bias f4 [256]
0	0x3e434e39	0.19072808
1	0xbe76dcbe	-0.24107644
2	0xbe960473	-0.2930027
3	0xbdcfd71c	-0.10148451
4	0xbdf750f6	-0.12075989
5	0xbd80b602	-0.06284715
6	0xbe9a3600	-0.30119324
7	0xbe99d340	-0.30043983
8	0xbca9e21e	-0.020737704
9	0xbe52755f	-0.20552586
10	0x3e48a4ad	0.19594069
11	0x3e6335bc	0.22188467
12	0xbe49e757	-0.19717155
13	0xbdcfeb18	-0.101522624
14	0xbe9b86ad	-0.30376187
15	0x3e0bb8b7	0.13644682
16	0x3e2b1f91	0.1671126
17	0x3eb047ca	0.3442977
18	0x3e1dd6eb	0.15414016
19	0x3e47bcd7	0.1950563
20	0x3dcdc19c	0.10046694
21	0x3e00ad8f	0.12566207
22	0x3e13ac04	0.14421088
23	0x3e0fbd4e	0.14037058
24	0x3be4ccca	0.0069824206
25	0xbd449feb	-0.048004072
26	0x3d9bb381	0.07602597
27	0xbcb1c647	-0.021700991
28	0x3e0050b9	0.12530793
29	0xbdf9b3c5	-0.121924914
30	0xbdb95f5d	-0.09051392
31	0x3dc44100	0.0958271
32	0x3df119d1	0.11772502
33	0x3e92e82d	0.2869276
34	0xbe86bcad	-0.26315823
35	0xbdb4da7a	-0.088307336
36	0xbe5bcefe	-0.2146568
37	0xbda12cf9	-0.07869906
38	0x3e861568	0.26188207
39	0x3e223cff	0.1584358
40	0xbc56c126	-0.013107574
41	0xbe98c6f8	-0.298393
42	0x3cc1e565	0.023668954
43	0xbda9d836	-0.08293192
44	0xbce68348	-0.028138772
45	0xbe415569	-0.18880238
46	0xbea0dc90	-0.31418276
47	0xbe85b16e	-0.2611193
48	0x3def5666	0.11686401
49	0x3d8a75df	0.067607634
50	0x3d77ac31	0.06046695
51	0xbe98cafd	-0.29842368
52	0x3ddbdafb	0.107351266
53	0x3e10c337	0.14136969
54	0xbdd47034	-0.103729635
55	0x3d8ad80e	0.067794904
56	0x3cc6095f	0.02417439
57	0xbca135aa	-0.01967891
58	0x3e108f55	0.14117177
59	0x3e0f6b15	0.14005692
60	0xbe564ae5	-0.20927007
61	0xbe08bd46	-0.13353452
62	0x3e081226	0.13288173
63	0xbd28463e	-0.041082613
64	0x3d8f8099	0.0700695
65	0x3e7276c2	0.23678115
66	0xbe7f52ff	-0.24934004
67	0x3e1b0c34	0.15141374
68	0xbcbcb6ea	-0.023036439
69	0xbcf0b70c	-0.029384159
70	0x3dda97b0	0.10673463
71	0x3d959ed9	0.073056884
72	0x3dd232cb	0.10263594
73	0xbee70639	-0.45121935
74	0x3e375e61	0.17907096
75	0xbd4e69e9	-0.050393973
76	0x3ea64da7	0.3248112
77	0xbdcbf1ff	-0.099582665
78	0xbd43a111	-0.047761027
79	0x3e50d80d	0.20394917
80	0x3e08f3fc	0.13374323
81	0xbd2baa50	-0.04191047
82	0xbe955852	-0.29168946
83	0xbe2bda99	-0.16782607
84	0xbe485ee3	-0.19567446
85	0x3e43b167	0.19110642
86	0xbea2428a	-0.3169139
87	0x3e85119b	0.25989994
88	0x3dd9f3c6	0.10642199
89	0xbe322e92	-0.17400578
90	0x3d893697	0.06699865
91	0xbe5485b8	-0.20754135
92	0x3e377750	0.17916608
93	0xbe940c69	-0.28915718
94	0x3e885f4a	0.266352
95	0xbd289c57	-0.041164722
96	0xbea06a5e	-0.31331152
97	0xbcb65330	-0.022256464
98	0x3e7db62c	0.24776524
99	0x3d0369b1	0.032083217
100	0xbdde4216	-0.10852449
101	0xbdb01ff7	-0.08599847
102	0x3e74a3d8	0.23890626
103	0xbe892918	-0.26789165
104	0x3eb48a89	0.35261944
105	0xbe50804c	-0.20361441
106	0x3e9fb00f	0.3118901
107	0xbea4efa2	-0.32214075
108	0xbc41f6ae	-0.011838598
109	0x3d45e550	0.048314393
110	0x3c457342	0.012051405
111	0x3cbf2909	0.023334997
112	0xbe8b0b6e	-0.27157158
113	0x3cb25945	0.021771083
114	0xbe11a537	-0.1422318
115	0xbb35614b	-0.00276764
116	0xbe5a73a0	-0.2133317
117	0xbe90aa5e	-0.2825498
118	0x3e7f4f33	0.24932556
119	0x3ded1a2a	0.11577256
120	0xbe82f770	-0.25579405
121	0xbe90fd8d	-0.28318444
122	0x3e2cf6c9	0.16891016
123	0x3dad97db	0.0847623
124	0xbe251f08	-0.16125119
125	0x3eb389de	0.35066122
126	0x3d0e60be	0.03476023
127	0xbddee7a8	-0.10884029
128	0x3e241136	0.1602219
129	0x3cd20588	0.025637403
130	0x3e1d463e	0.15358827
131	0x3e16716b	0.14691703
132	0x3d13b264	0.0360588
133	0xbdaa058f	-0.083018415
134	0xbdd69d1f	-0.10479187
135	0xbe97e5a4	-0.2966739
136	0x3dbea9ff	0.09309768
137	0x3e28cbe0	0.16484022
138	0x3dc6ad39	0.09701008
139	0xbe1c3e15	-0.15258057
140	0x3e8b01ce	0.27149814
141	0x3d967205	0.07345966
142	0x3ea9fe3b	0.33201775
143	0xbe1b353a	-0.15157023
144	0x3ca3e72b	0.02000769
145	0x3e46de68	0.19420779
146	0xbdb0d826	-0.08634977
147	0xbda35c76	-0.0797662
148	0x3e6b1d17	0.22960316
149	0x3d618417	0.05505761
150	0xbe1b635e	-0.15174624
151	0x3e30f287	0.17280017
152	0xbdd1bfd6	-0.10241668
153	0x3e8adc9f	0.27121446
154	0x3e5a439e	0.21314856
155	0x3b680459	0.0035402982
156	0xbd677d95	-0.05651625
157	0x3e98a09e	0.2981004
158	0xbe691f72	-0.22765902
159	0x3e3b3ac8	0.18284142
160	0xbe91510e	-0.28382152
161	0xbe6e2d4c	-0.23259467
162	0xbd9664a8	-0.073434174
163	0x3ea8d805	0.3297731
164	0xbe1bb075	-0.15204032
165	0x3e11baad	0.14231367
166	0xbeaa7066	-0.33288878
167	0xbe275248	-0.16339982
168	0x3e6046f1	0.21902062
169	0x3e8b58cb	0.2721618
170	0xbe2a223c	-0.16614622
171	0x3d9fa9fc	0.07796094
172	0x3c0ca512	0.008584278
173	0x3e402a98	0.18766248
174	0x3e11b7ab	0.1423022
175	0xbc2b11cb	-0.010441254
176	0x3ddf8819	0.109146304
177	0xbe4a5c69	-0.19761814
178	0x3eaca903	0.33722696
179	0x3d1b3e02	0.037900932
180	0xbe4651b8	-0.1936711
181	0xbe6b42fa	-0.22974768
182	0x3e5555da	0.20833531
183	0x3e5c0931	0.21487881
184	0xbe48c7ca	-0.19607463
185	0xbe9b7ed7	-0.3037021
186	0x3e725e99	0.23668899
187	0x3d569ab0	0.052393615
188	0x3dd24204	0.10266498
189	0xbd19f9e3	-0.037591826
190	0xbe43f000	-0.19134521
191	0x3e653f78	0.22387493
192	0x3e6c78b8	0.23092926
193	0xbd8736fd	-0.06602285
194	0x3e729fd8	0.23693788
195	0x3d9b6b9b	0.075888835
196	0x3cc8f499	0.024530696
197	0x3de7d6ab	0.113202415
198	0x3d342c6f	0.043987688
199	0xbc46e3e4	-0.012139294
200	0xbe643cd2	-0.22288826
201	0x3d9a5e83	0.07537558
202	0xbd87295f	-0.06599688
203	0x3e9f822e	0.31154007
204	0xbd019476	-0.031635724
205	0x3daaba96	0.0833637
206	0x3c5d1b95	0.013495346
207	0x3e70c531	0.23512723
208	0xbe4441e3	-0.19165759
209	0xbe076578	-0.13222301
210	0x3de3e713	0.11128058
211	0xbe919fbe	-0.28442186
212	0x3e36bd16	0.17845568
213	0x3e4c489b	0.19949572
214	0xbeafcbeb	-0.34335265
215	0x3e19a138	0.15002906
216	0x3e2cc468	0.16871798
217	0x3e3ae683	0.18251996
218	0x3e10a958	0.141271
219	0x3d40760a	0.04698757
220	0xbe1df80a	-0.1542665
221	0x3e188de5	0.14897878
222	0x3d1c5da2	0.038175233
223	0x3dc4ae86	0.096036
224	0x3d910abd	0.07082126
225	0x3e52d26f	0.20588087
226	0xbd289fe9	-0.041168127
227	0xbc31e41b	-0.010857607
228	0x3e70b3a3	0.23506026
229	0xbd16fcab	-0.036862057
230	0x3dfdfa91	0.124013074
231	0xbe820b7d	-0.2539939
232	0xbe3799eb	-0.17929809
233	0xbda35c43	-0.07976582
234	0x3e2b9be3	0.16758685
235	0xbda876c0	-0.08225775
236	0xbe351e0e	-0.17687246
237	0xbca92688	-0.020648256
238	0xbe66db7a	-0.22544661
239	0x3d7e6035	0.06210347
240	0xbd946188	-0.07245165
241	0xbdd6062b	-0.10450395
242	0x3db09608	0.08622366
243	0x3c91cfac	0.017799221
244	0xbec4f64f	-0.3846917
245	0xbe0c6aac	-0.13712567
246	0xbe34d7e6	-0.17660484
247	0xbe0e410d	-0.13892002
248	0x3e16cf1d	0.14727445
249	0x3e66bbdf	0.22532605
250	0x3dd1296b	0.10212978
251	0x3e8516d3	0.25993976
252	0xbe4aca0c	-0.19803637
253	0x3e4a15f0	0.19734931
254	0xbd1b5b99	-0.03792915
255	0xbc259c94	-0.010108132

fc2.weight f4 [256, 256]
0	0x3d1ded92	0.038556643
1	0xbd6b4598	-0.057439417
2	0x3d4e7970	0.05040878
3	0x3d0ce0d6	0.034394108
4	0xbc5553a8	-0.0130204335
5	0xbc61dec1	-0.013786019
6	0xbd704d38	-0.05866739
7	0xbad75dc0	-0.0016431138
8	0x3b6a38e0	0.0035739467
9	0xbc15e760	-0.009149402
10	0x3d0300ac	0.031983063
11	0xbd3712f8	-0.044695824
12	0xbc9e609c	-0.019333176
13	0xbc087983	-0.008329752
14	0x3d3754aa	0.044758476
15	0x3d08dcf1	0.03341383
16	0xbd3f3277	-0.046678986
17	0xbd1d2213	-0.038362574
18	0xbd139916	-0.036034666
19	0x3c31eb3e	0.010859309
20	0xbd7ab0cb	-0.06120376
21	0x3d3abc44	0.0455897
22	0xbd0c440c	-0.034244582
23	0xbd01e7da	-0.03171525
24	0xbb5b0360	-0.003341876
25	0x3d4f2d2c	0.05058019
26	0xbcd66c66	-0.026174735
27	0xbd7a6528	-0.061131626
28	0x3d1de377	0.038547006
29	0xbcce25a4	-0.025164433
30	0x3d099eb0	0.0335986
31	0x3d1453a7	0.03621259
32	0xbcf805af	-0.030276148
33	0xbd227cab	-0.039669674
34	0xbd180c4e	-0.03712111
35	0xbc0a1f34	-0.008430291
36	0xbd777de3	-0.06042279
37	0x3d2b97bb	0.04189275
38	0xbce13e24	-0.027495451
39	0x3cfae528	0.030626848
40	0x3b90b4d0	0.004416086
41	0x3d5e4f16	0.05427464
42	0xbd6b8c5c	-0.057506904
43	0xbc27cf98	-0.010242365
44	0xbd7e3959	-0.06206641
45	0xbd460a3a	-0.048349597
46	0x3d00b7f4	0.03142543
47	0xbd1828ba	-0.037148215
48	0x3d4288aa	0.047493614
49	0xbd047291	-0.03233582
50	0xbd7dcfe1	-0.061965827
51	0xbd42a38a	-0.047519244
52	0x3d287659	0.04112849
53	0xbd930384	-0.07178405
54	0xbc3679e8	-0.011137463
55	0x3d5f0ce8	0.054455668
56	0xbcb0d563	-0.021586126
57	0xbd04775c	-0.032340392
58	0x3c744eba	0.014911348
59	0xbba32991	-0.0049793203
60	0xbd21a3f6	-0.039463006
61	0xbd50bc8d	-0.050961066
62	0x3d55dd22	0.05221284
63	0xbd199e9a	-0.03750477
64	0xbd7406a3	-0.05957664
65	0x3c74e819	0.0149479145
66	0xbd8323c9	-0.0640331
67	0x3ca4e48f	0.020128516
68	0xbd4e81f2	-0.050416894
69	0xbd9885f2	-0.07447423
70	0x3c19e800	0.009393692
71	0x3d34f8ae	0.044182472
72	0xbd9382eb	-0.07202705
73	0x3a87b280	0.001035288
74	0xbc72aa31	-0.014811085
75	0xbd767aba	-0.060175635
76	0xbcf507fa	-0.02991103
77	0xbc230f38	-0.009952359
78	0xbcc70f4f	-0.024299292
79	0x3d146c90	0.036236346
80	0xbd897349	-0.06711442
81	0xbd7654e0	-0.060139537
82	0x3d23d640	0.039999247
83	0x3b5d9e00	0.00338161
84	0x3d4ce530	0.050023258
85	0xbd6d760b	-0.057973903
86	0xbd773e70	-0.06036228
87	0xbd14c77e	-0.036323063
88	0xbcb41c97	-0.021986289
89	0x3d5ce8d5	0.053932983
90	0x3d00dbd3	0.03145964
91	0x3d740dde	0.059583537
92	0xbd2bec0d	-0.041973162
93	0x3d4de794	0.05026968
94	0x3d37a614	0.04483612
95	0xbd093755	-0.033500034
96	0xbb4b8040	-0.0031051785
97	0xbc610903	-0.013735059
98	0x3ce24d7c	0.027624838
99	0xbc569e44	-0.013099257
100	0x3d28ea04	0.0412388
101	0x3d4b32f0	0.049609125
102	0x3cb0b5db	0.02157109
103	0xb9be6e00	-0.0003632158
104	0xbd88e653	-0.06684556
105	0xbd0cb50c	-0.034352347
106	0xbc5f03fb	-0.013611789
107	0x3d063e4a	0.032774247
108	0x3d0366d5	0.03208049
109	0x3d49e395	0.049289305
110	0xbd51651b	-0.051121812
111	0xbb2f676b	-0.0026764523
112	0x3d23fb8a	0.04003481
113	0xbd34d1df	-0.04414546
114	0xbd2e4bac	-0.042552635
115	0xbca350da	-0.019936014
116	0x3c7fc3f0	0.01561068
117	0xbd23dca4	-0.04000534
118	0x3d312e03	0.04325677
119	0x3cd0471d	0.025424534
120	0xbc89e3f4	-0.01683233
121	0x3d69623e	0.056978457
122	0xbd8c1fdc	-0.06842014
123	0xbd8bf936	-0.068346426
124	0x3b5f1180	0.003403753
125	0x3d3eca7c	0.046579823
126	0xbb0b6eda	-0.002127579
127	0x3d3cde17	0.04611024
128	0xbcad4975	-0.021153191
129	0xbd1bdab9	-0.038050387
130	0xbd1bb1d6	-0.038011394
131	0x3d464a05	0.048410434
132	0x3c4d09e5	0.012514566
133	0xbd284910	-0.041085303
134	0x3cf320ec	0.029678784
135	0xbd4e9ab8	-0.05044052
136	0xbc90d8f3	-0.017681574
137	0xbc45e739	-0.012079054
138	0xbce81f8e	-0.028335359
139	0x3d79cfd6	0.060989223
140	0x3d1e6eb5	0.038679797
141	0xbd46d387	-0.048541572
142	0x3cf6c4ff	0.030123232
143	0xbbd96da0	-0.006635383
144	0x3c57270e	0.01313187
145	0x3c283426	0.010266339
146	0x3c8c7034	0.017143346
147	0x3cbaa9e6	0.022786092
148	0xbd957ab4	-0.072987944
149	0x3cf2f33e	0.029657003
150	0xbc8a51e4	-0.016884752
151	0x3d662f8f	0.0561977
152	0xbd51f74b	-0.051261228
153	0xbd26b1ba	-0.040696837
154	0xbc62ccf5	-0.013842811
155	0xbd5e0aa8	-0.05420938
156	0x3d31b554	0.04338582
157	0x3ccf3e3f	0.025298236
158	0xbd54cf08	-0.051955253
159	0xbccf99e1	-0.02534193
160	0x3d28feb0	0.041258514
161	0xbcf54754	-0.029941238
162	0xbd6d076c	-0.057868406
163	0x3cbe486e	0.023227897
164	0x3cade360	0.021226585
165	0x3d34d925	0.044152398
166	0x3d168b5c	0.036753997
167	0x3d397fdc	0.04528795
168	0x3cc1f9c0	0.02367866
169	0xbc5836fd	-0.013196704
170	0xbd32f024	-0.043686047
171	0xbcc7309e	-0.024315175
172	0xbb444276	-0.002994684
173	0xbca8f1c1	-0.02062309
174	0xbd9b9103	-0.07596018
175	0x3c1cdc98	0.009574078
176	0xbd3a3ba4	-0.045467034
177	0x3c7cc748	0.015428372
178	0xbc644ef0	-0.013934836
179	0x3d51daf7	0.05123421
180	0x3d53863e	0.051641695
181	0x3ce0ced8	0.02744238
182	0xbd1836b8	-0.03716156
183	0x3d55eac2	0.052225836
184	0x3cb10104	0.02160693
185	0x3d19980a	0.03749851
186	0x3d00e4fc	0.031468377
187	0xbd8cfe40	-0.06884432
188	0x3d202ef8	0.039107293
189	0xbbafbfff	-0.005363464
190	0xbcb9c02c	-0.022674643
191	0xbcc87f1c	-0.024474673
192	0xbce88a75	-0.028386334
193	0x3d286a66	0.041117094
194	0xbd382a9d	-0.044962514
195	0x3d72c064	0.05926551
196	0x3a5ee200	0.00085023046
197	0xbd603ce6	-0.054745577
198	0xbd6d89ae	-0.05799263
199	0xbc45d919	-0.012075686
200	0xbd074dd6	-0.033033215
201	0x3c9e16c8	0.019297972
202	0xbcc310be	-0.023811694
203	0xbd293df2	-0.04131884
204	0x3c9696cf	0.018382458
205	0xbd8b8861	-0.068131216
206	0xbc917373	-0.017755246
207	0x3d617b3e	0.055049174
208	0xbd606b7c	-0.054790005
209	0xbd044d0e	-0.032300048
210	0x3bf2d8ae	0.007411084
211	0xbb580d60	-0.0032966956
212	0xbd39a6e7	-0.045325186
213	0xbd73f4ec	-0.059559748
214	0xbcc690e3	-0.02423901
215	0xbd7e7c73	-0.062130403
216	0xbd5decb6	-0.054180823
217	0xbd278f84	-0.04090835
218	0xbd3bf88b	-0.045891326
219	0x3d349d51	0.04409534
220	0x3d2a8a0c	0.041635558
221	0x3d383b5f	0.044978496
222	0xbcf5dd98	-0.03001289
223	0x3d69db99	0.05709419
224	0x3caedf69	0.021346765
225	0xbc94414d	-0.018097544
226	0x3c66cb90	0.014086619
227	0xbcb1c688	-0.021701112
228	0x3bc2d9a0	0.005946353
229	0xbce64c00	-0.028112411
230	0x3c1d269a	0.009591723
231	0x3d07c1c2	0.033143766
232	0x3d06a794	0.03287466
233	0xbd06a8ef	-0.03287595
234	0x3c32bd8f	0.010909452
235	0x3d3ace96	0.045607172
236	0x3b50aa40	0.0031839758
237	0xbcf9b08e	-0.030479696
238	0x3aeb3600	0.001794517
239	0xbd7a7736	-0.061148845
240	0xbce2cc86	-0.027685415
241	0xbc97e4f8	-0.018541798
242	0xbd4e5f28	-0.050383717
243	0x3cb82b84	0.022481687
244	0x3c3b9860	0.011449903
245	0x3cd1d9c8	0.025616542
246	0xbc9737a4	-0.018459149
247	0x3d4b91f2	0.04969973
248	0x3d4071ca	0.046983518
249	0xbd0c3bd6	-0.03423675
250	0xbc6a04c2	-0.014283361
251	0x3d133345	0.035937566
252	0x3d63abac	0.05558364
253	0x3d083fc8	0.03326395
254	0xbd5a97d3	-0.053367447
255	0x3cba3fc5	0.022735486

fc2.bias f4 [256]
0	0xbca35bb6	-0.019941192
1	0x3de38f23	0.111112855
2	0xbcb980cc	-0.022644423
3	0xbd03affb	-0.03215025
4	0xbd89259a	-0.06696625
5	0x3c0f9829	0.008764305
6	0x3d482486	0.048862956
7	0x3d56e162	0.052461036
8	0x3d4006f7	0.046881642
9	0x3dc9098b	0.09816273
10	0x3de87bcc	0.113517374
11	0x3d7e0c55	0.06202348
12	0x3df2b070	0.11850059
13	0xbc9430fd	-0.018089766
14	0xbd27c802	-0.040962227
15	0x3d39235e	0.045199744
16	0xbc523ef5	-0.012832393
17	0xbd1ade7d	-0.037809838
18	0x3e004ade	0.1252856
19	0xbd74bf78	-0.05975291
20	0xbd8c7914	-0.06859031
21	0xbd913559	-0.070902534
22	0x3e694d69	0.22783436
23	0x3e0228cf	0.1271088
24	0xbd8ca5bd	-0.068675496
25	0x3cf02b50	0.029317528
26	0x3da67c44	0.081291705
27	0x3e087f41	0.13329794
28	0x3c7a342b	0.015271227
29	0xbd807496	-0.06272237
30	0x3c94d8af	0.018169729
31	0x3db3f505	0.08786968
32	0xbccbe058	-0.024887249
33	0x3c623d67	0.013808585
34	0x3e198566	0.14992294
35	0xbd69a399	-0.057040785
36	0x3d355fa6	0.04428067
37	0x3dd9b85b	0.10630866
38	0x3d69987b	0.057030182
39	0xbd353602	-0.04424096
40	0x3e0aa3c0	0.13539028
41	0x3d1ed219	0.038774583
42	0x3bad9c5f	0.005298182
43	0xbca5901c	-0.020210318
44	0xbd729d88	-0.059232265
45	0x3ddd7df8	0.10815042
46	0xbd8f460b	-0.069957815
47	0x3dc2494c	0.094866365
48	0xbcb5e991	-0.0222061
49	0x3de69442	0.11258747
50	0xbd7b7aa3	-0.061396252
51	0x3d8e3474	0.069435984
52	0xbbf0d9b1	-0.0073501696
53	0x3dc3b716	0.09556405
54	0xbc9ac988	-0.018894926
55	0x3d915dbb	0.07097956
56	0xbd0531e9	-0.0325183
57	0x3e013763	0.12618785
58	0xbc53bbf0	-0.012923226
59	0x3e1e3521	0.15449955
60	0x3e452a9a	0.19254532
61	0x3e075a88	0.13218129
62	0x3d2665b3	0.04062433
63	0x3ccc7ac1	0.024960877
64	0x3c80b283	0.015710121
65	0x3e168f1a	0.14703026
66	0xbd211914	-0.039330557
67	0x3dfe83c2	0.124274746
68	0xbd0f6663	-0.035009753
69	0xbd09c638	-0.0336363
70	0xbda0a70a	-0.0784436
71	0xbd60d467	-0.054890063
72	0x3d06228b	0.032747786
73	0x3dc4bf68	0.0960682
74	0x3dea6f1d	0.114469744
75	0xbdab7a4c	-0.08372936
76	0x3dc1b632	0.09458579
77	0xbce61962	-0.028088275
78	0xbd0afb51	-0.03393108
79	0x3dc38569	0.0954693
80	0x3c279702	0.010228874
81	0xbd698709	-0.057013545
82	0x3da47ae1	0.0803125
83	0x3dda09e1	0.106464155
84	0x3aff989f	0.0019500441
85	0x3d12b2fc	0.035815224
86	0x3e320d52	0.17387894
87	0x3c961a2b	0.018323025
88	0xbcc4d687	-0.024028076
89	0x3d43653b	0.047703963
90	0xbd314a9a	-0.043284036
91	0xbd503d8b	-0.050839942
92	0x3e0cb3b3	0.13740425
93	0x3bbff86e	0.0058584725
94	0x3e1cc2ce	0.15308687
95	0x3df84767	0.12122994
96	0x3ba9c22d	0.0051806183
97	0x3df74999	0.120745845
98	0x3c8ddc30	0.017316908
99	0x3cd41906	0.025890838
100	0x3d7af3d8	0.061267704
101	0x3da9c02f	0.08288609
102	0xbd50d5c4	-0.050985113
103	0x3d2cb192	0.04216153
104	0x3deeb3be	0.11655377
105	0x3e1bf1c1	0.1522894
106	0x3df83be4	0.12120798
107	0x3e0e1306	0.13874444
108	0x3d5f6623	0.054540765
109	0x3e9a668f	0.3015637
110	0x3d867683	0.06565573
111	0x3caf17d1	0.021373661
112	0x3e06b681	0.13155557
113	0x3daf821c	0.08569738
114	0xbd29997f	-0.04140615
115	0x3e241cd2	0.16026619
116	0x3d00bb5c	0.03142868
117	0xbdcca51e	-0.09992431
118	0x3dfb1cb5	0.12261335
119	0x3d8363f6	0.064155504
120	0x3e04f5e8	0.12984431
121	0x3ce4c312	0.027925048
122	0xbd657599	-0.056020353
123	0x3e219b26	0.1578184
124	0x3d8b9fcc	0.06817588
125	0xbd39681a	-0.045265295
126	0x3de681f6	0.11255257
127	0x3c5d4bbf	0.013506829
128	0x3cafe0ba	0.021469463
129	0xbc41864b	-0.011811803
130	0x3d393b00	0.045222282
131	0x3d6b9ddf	0.057523604
132	0xbd028a2b	-0.03187005
133	0x3ccdb89a	0.025112439
134	0x3d0a12bc	0.033709273
135	0xbc90606a	-0.017624099
136	0x3e2f58fd	0.1712379
137	0x3d809782	0.06278898
138	0xbc6013cd	-0.013676596
139	0xbd2a0c30	-0.04151553
140	0x3ce4638f	0.027879504
141	0x3e41df21	0.18932773
142	0xbda53cde	-0.0806825
143	0x3e04587a	0.12924376
144	0x3d0a89c3	0.033822786
145	0x3d212ae3	0.03934754
146	0x3c89c92f	0.016819565
147	0xbd1901c0	-0.037355185
148	0xbca373f1	-0.019952746
149	0x3d80689e	0.06269954
150	0x3e0e9091	0.13922335
151	0xbd7e81ec	-0.062135622
152	0x3b86ea66	0.004117298
153	0x3d8eb370	0.06967819
154	0x3c1b9a98	0.009497307
155	0xbca74799	-0.020419883
156	0xbd14132e	-0.036151104
157	0x3dd6b5be	0.10483883
158	0xbd0fbc56	-0.03509172
159	0x3bfcbe2d	0.0077131004
160	0xbd8f5bd2	-0.06999935
161	0x3da7196e	0.08159147
162	0x3d6d74a6	0.057972573
163	0x3d4627d0	0.048377812
164	0x3dd8cd62	0.10586049
165	0x3d174825	0.036934037
166	0xbc17533c	-0.009236153
167	0x3e7f9287	0.2495824
168	0xbccb17f6	-0.024791699
169	0x3d47e6fe	0.048804276
170	0xbc81eb33	-0.015859222
171	0xbac6a674	-0.0015155808
172	0x3dfe211d	0.124086596
173	0x3e3e2021	0.18566944
174	0x3ba4bdf3	0.0050275265
175	0x3deb309c	0.11483881
176	0x3da5d418	0.08097094
177	0x3bfb10da	0.007661921
178	0x3d7a7ac2	0.061152227
179	0x3d3be2b0	0.045870483
180	0xbbecd780	-0.007227838
181	0x3d045856	0.032310806
182	0x3da9e177	0.08294957
183	0x3d3609f0	0.04444307
184	0x3c17812c	0.009247106
185	0x3d0e0618	0.03467378
186	0xbe334488	-0.17506611
187	0x3df0e8bc	0.117631406
188	0xbd100659	-0.035162304
189	0x3cfaa6d3	0.030597126
190	0x3da9a202	0.08282854
191	0x3e0039f3	0.12522106
192	0x3c9bce1f	0.019019185
193	0xbd594c46	-0.053051256
194	0xbd82ed74	-0.06392947
195	0x3c70cf3b	0.014697845
196	0x3c67db68	0.014151432
197	0xbd8253d2	-0.06363644
198	0xbb88432a	-0.004158397
199	0x3d782922	0.060586102
200	0xbd5baa92	-0.053629465
201	0x3de60e49	0.112331934
202	0x3db8fd91	0.09032739
203	0x3dac28f6	0.0840625
204	0x3e3eccb7	0.1863278
205	0x3db3a8e4	0.08772448
206	0x3c308c93	0.010775703
207	0x3b673ba4	0.0035283351
208	0xbd7fde77	-0.06246802
209	0x3df6d1ba	0.12051721
210	0x3d2e1c4e	0.042507462
211	0xbd66f63c	-0.05638717
212	0xbd7ce274	-0.0617394
213	0x3d99e45f	0.075142615
214	0x3e34646e	0.17616436
215	0x3d8423eb	0.06452163
216	0x3e00dd81	0.12584497
217	0x3e00a563	0.1256309
218	0x3e091c6f	0.13389753
219	0x3d08711e	0.033311002
220	0x3dcd2cac	0.10018286
221	0xbd265ced	-0.040615965
222	0x3de528ab	0.111893974
223	0x3e1aa883	0.15103345
224	0x3db7f267	0.089817815
225	0xbc74e911	-0.0149481455
226	0x3dc45816	0.095871136
227	0x3dae5ec4	0.08514169
228	0x3d886c87	0.06661325
229	0xbcffe1ce	-0.031235602
230	0x3da05bed	0.078300335
231	0xbd7f5dbb	-0.062345248
232	0xbc8434a5	-0.016138384
233	0x3b2abcad	0.00260524
234	0xbd1643e7	-0.03668585
235	0xbd0c9f41	-0.034331564
236	0x3df24f77	0.11831563
237	0x3e08cdfe	0.1335983
238	0xbd39f1aa	-0.045396484
239	0xbd06acd0	-0.03287965
240	0xbd5a21e6	-0.053254984
241	0xb98322ba	-0.0002501214
242	0x3e350bd9	0.17680301
243	0x3dda24dc	0.106515616
244	0xbd8a4cc1	-0.06752921
245	0x3e576ccb	0.21037595
246	0x3ce3d8e0	0.027813375
247	0xbd8b86be	-0.068128094
248	0xbd7b15a5	-0.06129994
249	0x3d830f01	0.06399346
250	0xbd860042	-0.06543018
251	0xbb5395d4	-0.003228535
252	0xbd3a1d88	-0.04543832
253	0xbd20a772	-0.03922219
254	0x3dd898ca	0.10576017
255	0x3d68b57a	0.056813695

fc3.weight f4 [128, 256]
0	0xbadd7816	-0.001689675
1	0x3e3290ec	0.17438096
2	0x3d47ac8b	0.048748534
3	0x3cd0c82f	0.02548608
4	0x3d5e087c	0.05420731
5	0xbe7ad0e3	-0.24493746
6	0x3d59ac04	0.053142563
7	0x3be268f3	0.0069094836
8	0x3c25bc6f	0.010115727
9	0x3e2b885d	0.16751237
10	0x3e765911	0.24057414
11	0x3e4827a8	0.19546378
12	0x3c37ca82	0.011217715
13	0xbdabb15c	-0.08383438
14	0xbe23df86	-0.16003236
15	0xbd5afeb2	-0.053465553
16	0x3d509e90	0.050932467
17	0xbc98c1dc	-0.018647127
18	0x3d81201a	0.06304951
19	0xbd02d954	-0.03194554
20	0xbcdf7db0	-0.027281612
21	0x3ce8a0a0	0.028396904
22	0xbc140f25	-0.009036814
23	0x3e9d83f4	0.30764735
24	0x3cba1e44	0.02271951
25	0x3e072edc	0.13201469
26	0xbe3feca2	-0.18742612
27	0x3d26553f	0.04060864
28	0xbcc735a3	-0.024317568
29	0x3d13b2fc	0.036059365
30	0xbd5f121a	-0.054460622
31	0x3e015513	0.1263011
32	0x3d1a99ea	0.03774444
33	0xbc115d68	-0.008872367
34	0xbf004c7d	-0.5011671
35	0xbf070c09	-0.5275274
36	0xbeee1e0d	-0.46507302
37	0x3de5a46d	0.11213002
38	0x3e40c4d8	0.1882509
39	0x3cb691c4	0.022286303
40	0x3e43f9ba	0.19138232
41	0xbd1b5326	-0.037921093
42	0x3d27411f	0.04083359
43	0x3e871449	0.26382664
44	0xbd6ec8cb	-0.05829696
45	0xbc2b045a	-0.010438049
46	0xbd569156	-0.052384697
47	0x3ef7093c	0.48249233
48	0x3ce219d5	0.027600208
49	0x3d8ade54	0.06780687
50	0xbc673ee8	-0.014114119
51	0x3e3fdd1a	0.18736687
52	0x3c8301bb	0.015992036
53	0x3e6f0a38	0.23343742
54	0xbd26c5a6	-0.040715836
55	0xbe9bbbd8	-0.3041675
56	0x3d77add8	0.060468525
57	0x3e3c1146	0.18365964
58	0xbd116a54	-0.035501793
59	0x3e86db82	0.26339346
60	0x3d0b9e94	0.03408678
61	0x3e51c7f2	0.2048643
62	0x3e4ae093	0.19812231
63	0x3db603de	0.08887456
64	0xbec467b6	-0.38360375
65	0x3ea2e550	0.31815577
66	0xbbd74f70	-0.006570749
67	0xbe56508d	-0.20929165
68	0xbe5deb74	-0.2167185
69	0x3b9d515d	0.004800959
70	0xbd8e0952	-0.069353715
71	0xbc10ed40	-0.008845627
72	0x3c5f9800	0.0136470795
73	0xbd39c92a	-0.04535786
74	0xbee67a7f	-0.45015332
75	0xbeebf0e5	-0.46082225
76	0x3e9dade4	0.3079673
77	0xb98e3017	-0.0002712018
78	0x3d21f9f1	0.039545003
79	0x3e93fb96	0.28902882
80	0x3d0fac9e	0.03507673
81	0xbe337d11	-0.17528178
82	0x3d23f157	0.04002508
83	0x3e432ce1	0.19060089
84	0x3c24f8e0	0.010069102
85	0xbc651642	-0.013982357
86	0x3d83d452	0.06436981
87	0x3e1fe411	0.15614344
88	0xbd3b9bba	-0.04580281
89	0x3be1c2da	0.006889683
90	0x3c4fea28	0.012690105
91	0xbb67ea60	-0.00353875
92	0x3e88e184	0.26734555
93	0x3ca56a66	0.020192336
94	0x3e627b81	0.22117426
95	0xbd06c2c2	-0.03290058
96	0x3d3d4642	0.04620958
97	0x3e472bf8	0.19450366
98	0x3a957dbb	0.0011405268
99	0x3c770627	0.01507715
100	0x3e43f5c5	0.19136722
101	0xbe28f5cc	-0.16500014
102	0x3d171fee	0.036895685
103	0x3d5dd152	0.0541547
104	0x3e9f7049	0.31140354
105	0x3e93be8a	0.28856307
106	0x3dc398f1	0.09550656
107	0x3e49c796	0.19705042
108	0x3e44cdb4	0.19219095
109	0xbcb5f150	-0.022209793
110	0xbeaa4006	-0.3325197
111	0xbd38193b	-0.044945937
112	0x3deaaa66	0.11458282
113	0x3e6b8ccf	0.23002933
114	0x3d1f818e	0.038941912
115	0xbe854b74	-0.2603413
116	0xbea9b99d	-0.33149424
117	0xbe074d52	-0.13213089
118	0x3d8dee46	0.06930213
119	0x3e28e43a	0.16493312
120	0x3db410ae	0.08792244
121	0xbe9eaa8d	-0.30989495
122	0x3d0d1667	0.034445193
123	0x3e174149	0.14770998
124	0xbf53fd4d	-0.8280838
125	0x3c80fdce	0.015746024
126	0x3e1b5e4c	0.1517269
127	0xbf24dc57	-0.6439871
128	0x3c10fad1	0.008848862
129	0xbda19e95	-0.07891575
130	0x3d41dd54	0.047330216
131	0x3e5640fc	0.20923227
132	0x3b94f950	0.004546322
133	0x3d912b7d	0.07088373
134	0x3e32a70c	0.17446536
135	0xbcd721e0	-0.02626127
136	0x3e578afe	0.21049115
137	0x3e6467d7	0.22305237
138	0x3b527360	0.0032112226
139	0xbb4a3aa0	-0.0030857697
140	0x3d460468	0.048344046
141	0xbd6faaf8	-0.058512658
142	0x3d0cf70e	0.034415297
143	0x3ece39b2	0.40278393
144	0x3d99fcb8	0.075189054
145	0x3e32d3c9	0.17463602
146	0xbd201cd0	-0.039089978
147	0xbc8f90cc	-0.0175251
148	0x3d304226	0.043031834
149	0xbf22be75	-0.63571864
150	0x3e59e11c	0.21277279
151	0x3cf16608	0.029467598
152	0xbc7bdc81	-0.015372396
153	0xbe51a768	-0.20474017
154	0xbd0e49b8	-0.034738272
155	0xbd6dfb55	-0.058101017
156	0xbd6d519d	-0.05793916
157	0xbf06b299	-0.5261627
158	0x3ca2a6e4	0.01985497
159	0x3d7602cd	0.060061265
160	0xbc2a3d80	-0.010390639
161	0x3d6307e3	0.055427443
162	0x3e82f2cf	0.25575873
163	0x3c0554d0	0.008137897
164	0x3cdb7a82	0.026791815
165	0xbd3737a8	-0.044730812
166	0xbd0bd7ea	-0.03414146
167	0xbce303f3	-0.027711844
168	0x3eb6c4d7	0.35697052
169	0x3d853528	0.065042794
170	0xbb48504e	-0.0030565443
171	0xbf409343	-0.75224704
172	0x3e916713	0.28398952
173	0xbd4fe705	-0.050757427
174	0x3d5c4b8a	0.053782977
175	0x3e22a3be	0.15882775
176	0x3e4fd063	0.20294337
177	0xba7bf780	-0.00096117705
178	0xbef00c79	-0.46884516
179	0x3dc72fb7	0.09725898
180	0x3e9830bf	0.2972469
181	0x3c0a7798	0.008451365
182	0x3e1b89c7	0.15189277
183	0xbf1876d4	-0.5955632
184	0x3c37473b	0.011186416
185	0x3aab0d19	0.0013050168
186	0xbf173f41	-0.5908089
187	0x3dd85ec2	0.105649486
188	0x3d65925c	0.056047782
189	0x3df55282	0.11978628
190	0x3e470fee	0.1943967
191	0x3e33f3fa	0.17573538
192	0x3d384a55	0.044992764
193	0xbd705510	-0.058674872
194	0x3d13f534	0.036122516
195	0xbd1375b6	-0.03600093
196	0x3d7b29bf	0.06131911
197	0x3c44b120	0.0120051205
198	0x3b32e882	0.002729923
199	0x3e1ab3cf	0.15107654
200	0xbd5e964c	-0.054342553
201	0x3dee148c	0.11625013
202	0x3e404a87	0.1877843
203	0x3e56fa09	0.20993818
204	0x3d143469	0.036182795
205	0x3e1b4f8c	0.15167063
206	0x3d15c522	0.036564954
207	0x3ce9feb0	0.028563827
208	0xbd10e7fa	-0.03537748
209	0xbe086dd0	-0.1332314
210	0x3d670607	0.056402232
211	0xbbde0d99	-0.0067765233
212	0x3e7c5533	0.24641876
213	0x3de483bf	0.11157941
214	0xbe0d66a0	-0.1380868
215	0x3e6d84c2	0.23195174
216	0x3e82e8a1	0.25568107
217	0x3e2047ae	0.15652344
218	0xbecbf1e9	-0.39833
219	0x3dfc4f8f	0.12319862
220	0xbe659bbf	-0.22422694
221	0x3ad3dc7e	0.0016163734
222	0x3d02fd6c	0.031979963
223	0xbeb030f3	-0.34412345
224	0x3e4ff4ee	0.20308277
225	0xbd90bd8b	-0.070674025
226	0x3e023893	0.12716894
227	0x3d3f5f20	0.046721578
228	0x3e787f86	0.24267396
229	0xbc846b10	-0.016164333
230	0x3ed26e1f	0.4109964
231	0xbd5a65b4	-0.053319648
232	0x3c6d5ccd	0.014487457
233	0x3d975296	0.07388799
234	0xba3a0307	-0.0007095788
235	0xbd378f1b	-0.04481421
236	0x3e436dc6	0.19084844
237	0x3e2be414	0.16786224
238	0xbd1991c5	-0.037492532
239	0xbeb2d2fd	-0.34926596
240	0xbd11a856	-0.03556093
241	0xbc8fe6d0	-0.017566115
242	0xbea5764a	-0.3231681
243	0x3e14e99e	0.14542243
244	0x3d50ba0c	0.050958678
245	0xbcea15ce	-0.02857485
246	0x3d2354d4	0.03987582
247	0xbcb84960	-0.022495925
248	0x3cd74b47	0.026281012
249	0x3dc8fee3	0.09814241
250	0x3cc2a919	0.023762273
251	0xbcba163c	-0.02271568
252	0x3c709df8	0.0146861
253	0x3c568e80	0.013095498
254	0xbe177a46	-0.14792737
255	0xbdf58049	-0.11987359

fc3.bias f4 [128]
0	0x3cc0e424	0.023546286
1	0x3e000555	0.12502034
2	0x3e548597	0.20754085
3	0xbc49d18d	-0.012318027
4	0xbd829775	-0.063765444
5	0xbd454fb1	-0.048171703
6	0x3e11e8ed	0.1424901
7	0x3ca0dd1c	0.019636683
8	0xbcaf43cf	-0.021394638
9	0x3dd8dcc9	0.105889864
10	0x3bc80a6a	0.006104757
11	0xbd877327	-0.066137604
12	0x3c9d40db	0.019195965
13	0xbd8dbb84	-0.069205314
14	0xbd6e9bf6	-0.058254205
15	0xbd32a5d1	-0.043615166
16	0x3cf53cb8	0.02993618
17	0x3cfbd257	0.030739946
18	0x3dafc912	0.08583273
19	0x3b254da8	0.0025223289
20	0xbdb81e87	-0.08990198
21	0x3e994fda	0.29943734
22	0xbdcd6db6	-0.10030691
23	0xbd48aee3	-0.04899491
24	0x3c70e3a5	0.014702712
25	0xbc74d2a1	-0.014942796
26	0x3e42f1f1	0.19037606
27	0xbd0b5a45	-0.034021635
28	0x3e28e3bb	0.16493122
29	0x3c60a17f	0.013710379
30	0x3dbfb242	0.09360172
31	0xbdc18d9e	-0.094508395
32	0xbdaf6e84	-0.08566001
33	0x3e387c04	0.18016058
34	0xbd66aa06	-0.05631449
35	0x3e7389f6	0.23783097
36	0xbd8014a1	-0.06253935
37	0x3d3f8f2a	0.04676739
38	0xbda114b5	-0.07865278
39	0x3cf623d6	0.030046385
40	0xbca612a1	-0.020272555
41	0x3e81ee1b	0.25376973
42	0xbd3efb68	-0.04662648
43	0x3d0c89b2	0.034311004
44	0xbd7ee41a	-0.062229253
45	0xbda64dfa	-0.081203416
46	0xbd3f89d4	-0.046762303
47	0xbd4a94ca	-0.049458303
48	0x3d92079d	0.07130358
49	0x3e89eba1	0.26937583
50	0x3e38bc4e	0.18040583
51	0x3a33784c	0.0006846234
52	0x3eb2f0b5	0.3494927
53	0xbc070c61	-0.008242697
54	0xbd817f80	-0.06323147
55	0x3db73197	0.089450054
56	0xbe16f7bf	-0.14742945
57	0x3e474abb	0.19462101
58	0xbcbd1821	-0.023082795
59	0x3dd05c87	0.10173898
60	0xbd616d8c	-0.055036113
61	0xbc11f255	-0.008907874
62	0xbd9260fb	-0.07147404
63	0xbdb04742	-0.08607341
64	0xbd149b08	-0.03628066
65	0x3b4b2c6c	0.003100182
66	0xbe017d73	-0.12645511
67	0x3dbd4c21	0.09243036
68	0x3caf23ad	0.021379316
69	0xbd795c7b	-0.060879212
70	0xbcefb32c	-0.02926024
71	0x3cef0a40	0.029179692
72	0x3e43b36a	0.1911141
73	0x3b18c879	0.002331285
74	0x3d4dce21	0.050245408
75	0x3e89d0fb	0.26917252
76	0xbbda485b	-0.0066614575
77	0x3e852463	0.26004323
78	0xbcbd58c8	-0.023113623
79	0x3c74f9ea	0.014952162
80	0xbd955504	-0.07291606
81	0xbd189994	-0.03725584
82	0x3daa5907	0.08317762
83	0x3d91c7d7	0.071181946
84	0x3ea21064	0.3165313
85	0xbcc84e07	-0.024451269
86	0x3d3c2fbd	0.045943964
87	0xbd055a74	-0.032556966
88	0xbd24ffaa	-0.040282883
89	0x3c5f19c9	0.0136169875
90	0xbcc2dfa7	-0.023788286
91	0x3e32e3d3	0.1746972
92	0xbd5d2de7	-0.053998854
93	0xbdf3c374	-0.11902514
94	0xbb743bc1	-0.0037267061
95	0xbbe5e91f	-0.0070163156
96	0xbcd9599c	-0.026531987
97	0xbda89477	-0.082314424
98	0x3c921f2b	0.017837128
99	0x3e973c87	0.29538366
100	0xbda676ff	-0.081281655
101	0xbd8a29cd	-0.06746254
102	0x3ec5f01d	0.38659754
103	0x3c5aea79	0.013361567
104	0xbcba2c93	-0.022726333
105	0x3d1fe7bc	0.03903936
106	0xbde8d3c0	-0.11368513
107	0xbdf8ad4a	-0.12142427
108	0xbdf7f3f4	-0.12107077
109	0x3eaf3853	0.3422266
110	0xbdb8aa72	-0.09016885
111	0x3e22aa3c	0.15885252
112	0xbbd8b798	-0.006613683
113	0x3cc2efd3	0.023795998
114	0xbd7a4007	-0.061096217
115	0x3e56dc95	0.20982583
116	0xbcbab312	-0.022790466
117	0xbcf40aa8	-0.029790238
118	0x3d9defba	0.0771174
119	0xbcd9c55e	-0.02658337
120	0x3dfc60b8	0.12323135
121	0x3cbfab7c	0.0233972
122	0x3c6b0792	0.014345067
123	0x3e9dd4a9	0.3082631
124	0x3d772d34	0.060345843
125	0x3c3715f9	0.011174672
126	0x3c1d56e1	0.009603233
127	0x3cb0aa6d	0.02156564

fc4.weight f4 [4, 128]
0	0x3d79760f	0.060903605
1	0x3e9af31e	0.3026361
2	0x3e2ba631	0.16762616
3	0x3ca35c70	0.019941539
4	0x3c3fab40	0.011698544
5	0x3ecafbff	0.39645383
6	0x3f26bbcc	0.65130305
7	0x3d7fa47d	0.062412728
8	0x3d73da59	0.059534404
9	0x3e0d3d6a	0.13792959
10	0x3beb589e	0.007182195
11	0xbcc308ce	-0.02380791
12	0xbaf67c0d	-0.001880528
13	0x3c744b5a	0.014910543
14	0x3d0b1456	0.03395494
15	0x3f353c74	0.7079537
16	0xbc1c9852	-0.0095578
17	0x3d5589d5	0.0521334
18	0x3ee7637d	0.4519309
19	0xbd998fb8	-0.07498115
20	0xbe446b0c	-0.1918146
21	0xbe688cfb	-0.2271003
22	0xbe2ff16a	-0.17181936
23	0xbd04d541	-0.032429937
24	0x3ec2a480	0.3801613
25	0x3d5dc40e	0.05414205
26	0x3e3537d7	0.17697082
27	0xbd50c789	-0.05097154
28	0x3e6e8565	0.23293073
29	0x3d0a0e96	0.033705316
30	0x3e3c4796	0.18386683
31	0xbeb1bf42	-0.3471623
32	0x3d791242	0.060808428
33	0x3e81ab51	0.25326017
34	0xbb26e93c	-0.0025468608
35	0xbec37205	-0.38172927
36	0xbdcb5b7b	-0.09929558
37	0x3b887a0c	0.0041649397
38	0xbdde6cca	-0.108605936
39	0x3ea3e579	0.3201101
40	0xbe3f1780	-0.18661308
41	0xbdf11443	-0.11771443
42	0xbe990404	-0.29885876
43	0xbcb5467c	-0.022128336
44	0xbcafe434	-0.02147112
45	0xbd9dc033	-0.07702675
46	0xbda3c01c	-0.07995626
47	0x3e8bc6d5	0.27300134
48	0x3e3d7bff	0.18504332
49	0xbe86d71b	-0.26335987
50	0x3e8ff213	0.28114375
51	0x3e88716f	0.26649043
52	0xbef585de	-0.47953695
53	0x3d4ec91e	0.05048477
54	0xbdde21cb	-0.10846289
55	0x3f0cbaf9	0.549728
56	0xbdb07760	-0.08616519
57	0x3eb4ecf4	0.3533703
58	0x3c02c235	0.007980873
59	0x3e2ff958	0.17184961
60	0xbe1321f9	-0.14368428
61	0x3cf810fe	0.03028154
62	0x3d819dfb	0.063289605
63	0x3ead54ae	0.33853668
64	0xbd90cb65	-0.070700444
65	0x3bb257fe	0.0054426184
66	0xbe17f7f1	-0.14840676
67	0x3f143878	0.57898664
68	0x3cb41630	0.021983236
69	0x3e95b84a	0.29242164
70	0x3d70ca58	0.05878672
71	0x3ea5128e	0.3224072
72	0x3e6ec305	0.23316582
73	0x3db7bd77	0.089716844
74	0xbdd4b13a	-0.10385366
75	0xbef8bb20	-0.48580265
76	0x3c4c168c	0.0124565475
77	0xbe0e93e2	-0.139236
78	0x3cb5371f	0.02212101
79	0x3c191993	0.009344476
80	0xbda46b4a	-0.08028276
81	0xbc8a017c	-0.01684641
82	0x3ef4efbf	0.47839162
83	0x3ea5f387	0.3241236
84	0xbea062e4	-0.31325448
85	0xbd2d8b98	-0.042369455
86	0x3db6ad7a	0.08919807
87	0x3ce7b893	0.028286254
88	0x3d910a27	0.070820145
89	0x3cbc592e	0.022991743
90	0xbd4795de	-0.04872691
91	0x3e671838	0.22567832
92	0xbd5837ff	-0.052787777
93	0x3e3fd514	0.18733627
94	0x3d11449b	0.035465818
95	0xbc6f5cd8	-0.014609538
96	0x3d2c0e29	0.04200569
97	0x3f26e4d7	0.6519293
98	0x3d256074	0.040375188
99	0xbef20aba	-0.4727381
100	0xbdf1fc6c	-0.11815724
101	0xbce47747	-0.027888907
102	0xbf0fe665	-0.5621093
103	0x3cefb9c1	0.029263379
104	0x3c129e96	0.008948943
105	0x3d989097	0.07449453
106	0xbe2841e6	-0.16431388
107	0xbdc0621d	-0.093937136
108	0xbd4cf675	-0.050039727
109	0xbf01c3c7	-0.5068936
110	0xbd7549ab	-0.05988471
111	0x3e550658	0.20803201
112	0x3d6595ea	0.056051172
113	0x3f034b30	0.512866
114	0x3e88e069	0.2673371
115	0xbdea8e55	-0.11452929
116	0x3d0bde54	0.034147575
117	0xbdd11451	-0.10208953
118	0xbc8e9752	-0.01740614
119	0x3eaaa871	0.33331636
120	0x3ed1c637	0.40971538
121	0x3c53bac5	0.012922947
122	0x3d8587b8	0.06520027
123	0xbe8990c5	-0.26868263
124	0x3e8421e8	0.25807118
125	0x3e09801b	0.13427775
126	0x3d959446	0.073036715
127	0x3c4bb16f	0.01243244
128	0x3ea73348	0.32656312
129	0x3e877df5	0.26463285
130	0x3ebb9e88	0.36644387
131	0xbd006f5c	-0.0313562
132	0x3b87ba06	0.004142049
133	0x3edb837c	0.42873752
134	0x3f238de9	0.6388841
135	0xbb8c70f7	-0.0042859274
136	0xbdad69c8	-0.08467442
137	0x3e8fc3bf	0.2807903
138	0x3d15347e	0.036427014
139	0xbd74bf4c	-0.059752747
140	0xbc45e1dd	-0.012077776
141	0xbc96d3f8	-0.018411621
142	0x3d2fa12e	0.042878322
143	0x3f32b418	0.6980605
144	0xbe115451	-0.1419232
145	0x3d537f9d	0.051635373
146	0x3d938fba	0.07205148
147	0x3d8ce851	0.06880248
148	0xbd72a788	-0.0592418
149	0xbeeca0e1	-0.4621649
150	0x3e674821	0.22586109
151	0x3d3274be	0.043568365
152	0x3f1f7e7f	0.6230239
153	0xbda2917b	-0.079379044
154	0x3ec08d12	0.37607628
155	0xbda7d51b	-0.081949435
156	0x3eae1ce0	0.34006405
157	0xbd3df1a1	-0.046373013
158	0x3eabf325	0.33583942
159	0x3d76bada	0.06023679
160	0xbd378121	-0.04480088
161	0x3e93d1a6	0.28870887
162	0xbc5764f0	-0.013146624
163	0xbdee00d4	-0.11621252
164	0x3e813c50	0.25241327
165	0xbdb29a87	-0.0872088
166	0x3e856962	0.26056963
167	0x3e476b66	0.19474563
168	0x3e83a561	0.25712112
169	0xbeddbc4e	-0.43307728
170	0x3dcb27d5	0.09919707
171	0xbe637a65	-0.22214659
172	0x3cae3b44	0.021268494
173	0x3d93d538	0.072184026
174	0x3e88b005	0.26696792
175	0x3dc778a0	0.09739804
176	0x3eba5d50	0.36399317
177	0xbeb56a3a	-0.35432607
178	0x3ebc9bc0	0.36837578
179	0x3e95b8ed	0.2924265
180	0xbea76c20	-0.3269968
181	0x3d8e5400	0.069496155
182	0x3e79cb7b	0.24394028
183	0x3f143e21	0.579073
184	0x3e87d350	0.26528406
185	0x3e671427	0.22566281
186	0x3d0afa6b	0.033930223
187	0x3e993060	0.2991972
188	0x3e557cc3	0.20848374
189	0xbd90a6b0	-0.07063043
190	0x3d99f989	0.07518298
191	0x3df132c2	0.117772594
192	0x3ce4a6fe	0.02791166
193	0xbd600c60	-0.0546993
194	0x3e76c8ce	0.24100038
195	0x3f08da2b	0.534579
196	0x3ccddeeb	0.02513071
197	0x3dca19f3	0.09868231
198	0x3d9b126b	0.07571872
199	0x3e922f98	0.28551936
200	0x3eae5ea4	0.3405658
201	0xbd8579b9	-0.065173574
202	0xbd4500f0	-0.048096597
203	0xbe456bc0	-0.19279385
204	0xbab56ea9	-0.0013842183
205	0xbea25726	-0.31707114
206	0x3c8e561a	0.01737504
207	0x3d589ea7	0.052885678
208	0x3e985159	0.29749563
209	0xbdb63292	-0.08896364
210	0x3e12b29a	0.14325944
211	0x3e990df4	0.29893458
212	0xbe5eba7d	-0.21750827
213	0xbc9ec647	-0.019381655
214	0x3eaaef4c	0.33385694
215	0x3d67043e	0.05640053
216	0x3d9fcdc1	0.07802916
217	0xbd1db1f3	-0.038499784
218	0xbd60806a	-0.054809965
219	0x3e6b2771	0.22964264
220	0x3e4d692a	0.20059648
221	0x3d30c4a6	0.04315629
222	0xbd0795f0	-0.033101976
223	0xbb6c97aa	-0.003610114
224	0x3cd3878a	0.025821466
225	0x3f247ab5	0.64249736
226	0xbd1e35c5	-0.038625497
227	0xbe7ab310	-0.2448237
228	0x3e7c229d	0.24622579
229	0xbe322065	-0.1739517
230	0xbee11995	-0.4396483
231	0xbccce310	-0.025010616
232	0x3cbb30de	0.02285045
233	0x3d74361c	0.059621915
234	0x3e67c584	0.2263394
235	0x3ea60b4b	0.3243049
236	0x3e75c3cf	0.24000476
237	0xbe824e00	-0.25450134
238	0x3ea59c83	0.3234597
239	0x3e8fe1ed	0.28102055
240	0xbd474fd1	-0.048660103
241	0x3e419e78	0.18908107
242	0x3e2f99da	0.17148533
243	0xbe93c91c	-0.28864372
244	0x3b4669f5	0.0030275558
245	0xbdbffc92	-0.09374346
246	0xbd7636e0	-0.060110927
247	0x3ddb2970	0.10701263
248	0x3e651a8e	0.22373411
249	0xbd7e5fd3	-0.062103104
250	0xbe6cf99f	-0.23142098
251	0xbe9ea1c4	-0.30982792
252	0x3e8a7548	0.27042603
253	0x3e56aaec	0.20963639
254	0xbc727ac8	-0.014799781
255	0x3d01cafa	0.031687714

fc4.bias f4 [4]
0	0x3e2c435e	0.16822574
1	0xbdcb73d4	-0.09934202
2	0xbcc3e638	-0.023913488
3	0xbd05667b	-0.032568436
