models/curriculum_stage2_seed999_best.pth (torch, 411471 bytes, 8 tensors)

fc1.weight f4 [256, 9]
00000000: 45b8 a8bf 10ea 243e 6a23 f0be 172d 053f
00000010: acc4 e03d 7eba f63e 9e6f 303e 82d8 9fbe
00000020: 7263 e4bd 0e1f 80bf ecbe 03be 4e81 49bf
00000030: 2c03 0dbe 004d 173e 1020 833f c029 9abe
00000040: ba10 4d3e 236b 2abd 3d1f 9a3e a12c 2abe
00000050: f76d 45bf d8e0 b03e b8cc 263e efd7 cfbd
00000060: 1025 2a3e f48e a2bd 15e7 c3bb bb73 20be
00000070: 48b9 61be 4240 263e b42b 653e 2806 e5be
00000080: 228c 12bf d08c bcbc 36f5 163e 222e a3be
00000090: b292 1fbf 2d61 453e 06f4 41bd c9b9 ba3e
000000a0: 4392 1d3d ac88 fc3e 2ce9 e6bd 6a4a 4a3e
000000b0: be54 a53e 795f 0cbf 40da 2b3c a7b1 c3be
000000c0: ce34 b1be 8715 a63c cba0 7d3f 396c 8a3e
000000d0: ea50 a9be 26bf 0fbe fcbd 7b3e 193c 733e
000000e0: 24f7 b83e 35d6 f53e a75d cdbe 2c0f bdbe
000000f0: 14a7 9bbe e314 79be 1428 afbd 5247 183f
00000100: da9e 1abd 40a2 8abe 8fe5 4abe 6d93 3c3f
00000110: 20b1 f33e 9660 14be e056 11be 5a7e a93e
00000120: 074d 473f 040b f3bc 0932 d73e 7b65 3c3e
00000130: 4b76 bebe 7ff8 4b3e fc16 b1bd f23d 693e
00000140: aee2 cdbe 4895 bebd 6e62 933e 66f3 e1bd
00000150: 268b 81be 55c2 d73e 0ac2 3f3f ba62 753e
00000160: 4045 b0bd 81b9 abbe b6e7 a43f f5b9 b7bd
00000170: 661b d13e c286 b93d eb30 21be 0985 68bd
00000180: 3c7e dc3d 5bc0 6ebe c2b2 89be 7923 acbf
00000190: a6de 6d3e 81fc 96bd 5f1b 623e 250a 023f
000001a0: e6f0 a4bc 2e07 87be c84c 123d dfed 09be
000001b0: be85 41bf 6022 c03d 7ed0 89bb 20c2 adbd
000001c0: 1418 b53e 59a2 5dbf f0fc 34be 431e 93be
000001d0: 56b5 293e 8764 ba3e 10c8 423d b05d 12bf
000001e0: 299e a7be a1f6 06be 7eec 893f 6052 41bd
000001f0: 835e 26be e1bb a03e 7769 0f3d 0d73 113e
00000200: 0d9c 1dbe 7bd5 54be 6b59 ca3e 0ffb c2be
00000210: b928 8a3e 5053 9b3d 381d dabd 615d 15bd
00000220: 6220 5cbe 2d91 6ebe eb17 10bf 3bc7 11bf
00000230: c7cf 8a3e a54a 8b3e da87 243e e492 26be
00000240: 424a bcbf 2483 95be 96bf 553e cd84 223f
00000250: e88f b6be d769 b53e d86f 61bd fc77 bcbd
00000260: 9dad 803e 9b10 f0bd 410b 6a3c 4286 13bf
00000270: fc66 c7be 9910 3abf f007 343e a674 51be
00000280: de38 3a3e 62b6 cebd 2287 00bf 7172 0bbc
00000290: 5fbf 8bbe a104 f2bd c0c2 5d3e cc06 8d3f
000002a0: 00aa 1abd f369 03be 133a 073e c39d af3f
000002b0: cd24 01be bcc7 073f 4d2b 02be a363 9bbe
000002c0: 8759 603f b560 953e 2616 ebbd f910 773e
000002d0: c598 4c3f 49c7 5a3e 426b eabe d041 0a3e
000002e0: 57a3 34bf d512 2ebe 690d a33e 19fe 893e
000002f0: 6a60 a5bd 5659 353f 3ba9 293e e6bd c63d
00000300: 031c 13bf 13a5 00bf cad4 003e 088a 7fbe
00000310: 9e0c 9dbe 83bb 9e3e 44d7 9e3f 93b5 683e
00000320: dcdb a3be 6396 8a3c 1038 d2be d5d5 e1be
00000330: 3925 a63e 4209 233e 8f93 c5be db4a c93f
00000340: 1e45 783e 9ce3 a3be 9f11 80bd bd41 fbbe
00000350: 7540 84be 22b8 413e 1b89 a63e e8eb 9dbd
00000360: e3d9 8bbf 999d 8a3e 2a40 bb3e c092 663e
00000370: f8f0 c03e 79e1 0abe a6c2 bdbd 8855 163d
00000380: a289 05be 3fb8 32be 6aeb 5fbb 891e 92be
00000390: 3a1d 77bc b615 2dbf 943d a5bc 7898 84be
000003a0: 592d 8d3e c5d4 7b3d f3e5 8c3f 7fc4 12be
000003b0: 5232 0a3f 7b18 6ebd e756 68be d515 14bd
000003c0: 9ad3 89be 40a8 1cbd 8d7a 4b3c 099f 02bf
000003d0: ee05 79bd 8f98 a3bd b3c0 06be c7ff 58bf
000003e0: cd84 0fbe 366c 2cbe f005 c33d 6642 283e
000003f0: 0439 efbe e924 613e f646 bf3e a760 a7bd
-1.3181235 0.16104913 -0.4690202 0.52021927 0.10975012 0.48189157 0.17230079 -0.3121987
-0.1115178 -1.0009477 -0.128658 -0.7871293 -0.13770741 0.14775467 1.024416 -0.30109978
0.20025912 -0.04160608 0.30101958 -0.16618587 -0.7712092 0.34546542 0.16289032 -0.10148608
0.166157 -0.079374224 -0.005978475 -0.15669148 -0.22043335 0.1623545 0.22379953 -0.4473126
-0.57245076 -0.023016363 0.14741978 -0.31871134 -0.62333214 0.19275351 -0.04735186 0.36469868
0.038469564 0.49323022 -0.11274943 0.19754949 0.32291216 -0.5483318 0.010489047 -0.38221475
-0.346106 0.020273937 0.99073476 0.27035692 -0.33069545 -0.14037761 0.24584192 0.23753394
0.36126053 0.4801499 -0.40110514 -0.36925638 -0.30400908 -0.24324374 -0.08552566 0.59483826
-0.03774915 -0.27076912 -0.19814132 0.73662454 0.47596073 -0.1448997 -0.14193296 0.3310421
0.7785191 -0.029668339 0.4203036 0.18398087 -0.37199625 0.19919012 -0.08646962 0.22777537
-0.40212005 -0.09305817 0.28786033 -0.11032753 -0.25301474 0.4214045 0.74905455 0.23963442
-0.086069584 -0.33539966 1.2883213 -0.08971015 0.40841216 0.09058906 -0.15741317 -0.056767497
0.10766265 -0.23315565 -0.26894194 -1.3448325 0.23229465 -0.0737238 0.22080754 0.5079673
-0.0201344 -0.26372665 0.035717756 -0.13469647 -0.755947 0.093815565 -0.0042057624 -0.08484292
0.35369933 -0.8657585 -0.17674613 -0.28734025 0.1657308 0.3640482 0.047554076 -0.57174206
-0.32737854 -0.13180019 1.0775297 -0.0471977 -0.16246991 0.3139334 0.03501269 0.14204045
-0.1539156 -0.20784561 0.39521345 -0.38082168 0.26984194 0.0758425 -0.10650104 -0.036466006
-0.21496728 -0.23297568 -0.56286496 -0.56944627 0.27111647 0.27205387 0.16067448 -0.16266972
-1.4710162 -0.29201615 0.20873865 0.6348389 -0.35656667 0.35432312 -0.055038303 -0.09202573
0.25132456 -0.11721917 0.01428491 -0.57626736 -0.38945758 -0.72681576 0.17581153 -0.20454654
0.18185756 -0.100933805 -0.50206196 -0.008511172 -0.27294442 -0.11817289 0.21656322 1.1017699
-0.03775978 -0.12833385 0.13205747 1.372002 -0.12611695 0.53039145 -0.1271183 -0.30349454
0.8763661 0.29175344 -0.11478834 0.24127568 0.7992061 0.21365084 -0.45784956 0.13501668
-0.70561737 -0.16999371 0.3184617 0.26951674 -0.0807503 0.7083944 0.16568463 0.09704189
-0.5746462 -0.50251883 0.12581173 -0.24954998 -0.3067369 0.31002435 1.2409444 0.22725515
-0.32003677 0.016917413 -0.41058397 -0.44108453 0.32450274 0.159215 -0.3858914 1.5725969
0.24245116 -0.3200959 -0.06253361 -0.49073592 -0.25830427 0.18917897 0.32526478 -0.07711011
-1.0925869 0.27073362 0.3657239 0.22516918 0.37683845 -0.13562573 -0.09265642 0.036702663
-0.13040784 -0.17453097 -0.0034167417 -0.2853892 -0.015082652 -0.67611253 -0.020170964 -0.25897574
0.2757366 0.06148221 1.1007675 -0.1433277 0.5398303 -0.058128815 -0.226894 -0.036153633
-0.26919252 -0.038246393 0.012419355 -0.5102392 -0.06079667 -0.079880826 -0.13159446 -0.84765285
-0.14015503 -0.16838154 0.09522617 0.16431579 -0.46723187 0.21986736 0.37358826 -0.08172732

fc1.bias f4 [256]
00000000: 3b0e aa3d d7d2 7c3e a4be 8ebe bd73 f03c
00000010: cb31 66be 6017 cbbd 6e64 23be 9e4e f93d
00000020: 9b23 fbbb 6e2c 833e fbed 323e b0ae 33bc
00000030: 98c4 183e 47d4 04bd 403e 3e3e 578a a03e
00000040: fe6f ad3d 24f0 cdbd dd09 49be 4cd4 d03d
00000050: 1a4d 233e 3b4a 7bbe 8380 d83d 7083 f8bb
00000060: 058f e5bc 9cb9 3fbe 7850 ce3e b6fe 6d3e
00000070: 5040 b43d 9210 b53e 5156 babd db77 3fbe
00000080: 9d0e f3bc 180c 8dbe a7d9 983d 5227 79be
00000090: 805a 13bb fb3f b1bc 90e4 163e 8d52 62bd
000000a0: 4f8b 2abd 7192 9cbc f16d 57be 4a67 8f3d
000000b0: 452b 3fbd 26eb a23d 848e cfbd cfa9 a03e
000000c0: 58e0 87be 8730 eb3b 5c6b 83be 0b92 043d
000000d0: 6e52 8a3e 8c7b e43d 6f22 13bd aed0 0bbe
000000e0: 8051 a3be 5983 b33e 1cbe 9f3d abca 613d
000000f0: 3e8a e63c 5d68 ddbc ec27 e7bd 5a08 7a3e
00000100: bca0 ad3d f9ad 2d3e bd27 c4bd 6f1f 303d
00000110: fdf1 873e 1f90 99be 8feb b63d e5c7 e8bd
00000120: 7b47 88be dc13 963e 4aec 12bd 5661 d53d
00000130: efdd 65be c766 433d ce5e 85be e2c4 8c3e
00000140: 42d5 93be 78ba 313d 14c5 8b3d 2c6b 0c3e
00000150: 9dd9 ab3b f777 2abe b5b1 ac3e 3cba 973d
00000160: bad9 663e 073a adbe 768e e83d 3b2b 4fbe
00000170: de75 d9bc d9aa 983d 9782 13be 2878 c5bc
00000180: d0ad 783e 46ef 833c 9c94 cabd 048f 713e
00000190: 9a11 d8bd 93cf 743e 85ab c0be b64e 993e
000001a0: 2d0f 9a3d 6d2a 85be 24a0 223e 27eb 0c3e
000001b0: 815c 7abe d891 cf3e 471e 023e 5a26 e83e
000001c0: 6059 d6bd 33c3 8abd f077 a9be 5b2d 54be
000001d0: d7c7 0fbe ce43 ce3e fa98 b13e 8019 a23e
000001e0: afbf 2ebc 69fd 763c 9c4a 28bd be33 573e
000001f0: 4cc5 93be a885 313d 1a80 0e3e 74d9 a6be
00000200: 6dc1 a83d fe61 753e 10d5 f1bd c57e 1fbe
00000210: cf9f 46be 76f4 8cbe 718e d93d 171a 2e3e
00000220: da69 3bbe ffef 92be 6706 843e 2620 97bd
00000230: e767 be3e c2bc fcbd 3a9e b83e bc0c 45be
00000240: d01d d2bd 53d2 85be 87f2 f03d d87c 743e
00000250: 84fa c23d f48e 84be cb6f 96bd 3588 be3d
00000260: e067 c83d b205 99be 1cf0 b53e 2f6a f1bd
00000270: 0a62 4e3e 5ef9 843e 7346 cf3e d592 553e
00000280: 1fc6 a0be e327 8bbe 360e 32be a6e0 3ebe
00000290: 7a02 903e e399 b83c 5ab2 9dbe ba44 103c
000002a0: 5dbc 16bc ab2f 38be 300e 4bbe ca4d d23e
000002b0: fbdb 9bbe 016e 903e ee5a 53be 3896 cb3e
000002c0: 9aae 953e 2f9e 843e b70e a53e 0819 a33e
000002d0: 2bf5 a2bd 7e27 96be f786 13bd 8178 56be
000002e0: 89bd 3b3e d9ad 133e 9023 6dbe 68b2 f33d
000002f0: af14 613e 1c4c 4abc 6258 8dbe 9efb 973e
00000300: cfdb e2bc fb3f 79be 0c73 383e d2ed 96be
00000310: 9402 0f3e 362f d03d 3b4b 2ebe 0a67 983e
00000320: 13bb 4e3d 77d9 17be 6f33 a4bd 3f81 0c3e
00000330: 2fcd 833e 653a 143e 6a30 0cbc a6c4 f8bd
00000340: 35b0 4bbd 0af3 943c e583 a43e 95c1 bf3e
00000350: 7bb6 143e 3eed 983e b675 2c3e a977 a63e
00000360: 2380 9c3e 2636 6c3e ac09 a43e f4ec a4be
00000370: 9ddf 913e 781a 813e 606b cf3e 80c2 e43d
00000380: 95d8 4fbd 042d 643c 92f8 c53c 48f6 b4be
00000390: 09c0 b53e ad12 df3d 8771 913e 8f0f 813d
000003a0: b72a a73d 71fb 93bd 2fb8 c63d 6877 f4bd
000003b0: 4106 f63d 2d64 003e 4fde 2abe cfe5 4bbe
000003c0: ea03 8f3d 59aa 1abe 9777 52be 0875 3cbe
000003d0: 8a4f 3ebe ddf6 a73d 5da0 30bd 486b f4bd
000003e0: 5935 513e 7f7a 59bd 6725 51be fa5c ad3d
000003f0: 9b57 663d 3149 b23e c4b0 953d 3617 a43d
0.083034955 0.24689804 -0.27879822 0.029352063 -0.22479932 -0.09916568 -0.1595628 0.12173198
-0.0076641566 0.25619835 0.17473595 -0.010966942 0.14918745 -0.032429006 0.18578434 0.31355545
0.084686264 -0.10055569 -0.19632669 0.101967424 0.1594738 -0.24540035 0.10571387 -0.007584028
-0.028022299 -0.18723148 0.40295768 0.23241696 0.08801329 0.35364205 -0.09098495 -0.18698065
-0.029670054 -0.2754829 0.07463389 -0.24331406 -0.0022484362 -0.021636954 0.14735627 -0.055254508
-0.04163676 -0.019112797 -0.21038033 0.07002123 -0.046672124 0.07955007 -0.101346046 0.31379554
-0.26538348 0.007177416 -0.25667846 0.03236584 0.27016014 0.11156377 -0.03592151 -0.13653824
-0.31898117 0.35061148 0.07799932 0.05512492 0.02814209 -0.027027303 -0.11286911 0.24417248
0.08477923 0.16960897 -0.09577892 0.042998727 0.2655181 -0.29992768 0.08931648 -0.11366252
-0.26617035 0.29312027 -0.035869874 0.10418956 -0.22447942 0.047705438 -0.26048893 0.2749396
-0.2887364 0.04339072 0.06824699 0.13712758 0.0052444474 -0.16647325 0.3372933 0.07408568
0.22543994 -0.33833334 0.11355297 -0.20231335 -0.026545461 0.074544616 -0.14405285 -0.024105147
0.24285054 0.016105305 -0.09891626 0.23589712 -0.10550232 0.23907308 -0.3763086 0.29942864
0.07522426 -0.2600893 0.15881401 0.13761579 -0.2444935 0.40540957 0.12706862 0.4534176
-0.10466266 -0.067755125 -0.33099318 -0.20720427 -0.14041077 0.40286106 0.34687024 0.3166008
-0.010665818 0.015075066 -0.041086778 0.21015832 -0.28861463 0.043340355 0.13916054 -0.3258778
0.08240018 0.23963162 -0.118082166 -0.15575702 -0.193969 -0.2753026 0.10622872 0.1700214
-0.18302098 -0.28698727 0.25786135 -0.07379179 0.37188646 -0.1234069 0.36058217 -0.19243139
-0.102595925 -0.26137027 0.117650084 0.23875749 0.09520438 -0.25890315 -0.073455416 0.09303323
0.097854376 -0.29887158 0.3553475 -0.11787831 0.20154586 0.25971502 0.40483436 0.20856793
-0.31401154 -0.2717887 -0.17388234 -0.18640384 0.2812689 0.022534316 -0.30800134 0.008805448
-0.009200183 -0.17986934 -0.19829631 0.41074973 -0.3044127 0.28208926 -0.20640156 0.39763045
0.29234773 0.25901935 0.3223779 0.31855035 -0.07956918 -0.29327005 -0.036017384 -0.20944406
0.1833402 0.14421786 -0.23158097 0.11899263 0.21980546 -0.012347247 -0.27606493 0.29684156
-0.027692704 -0.24340813 0.18012637 -0.29478317 0.13965827 0.10165255 -0.17020886 0.29766113
0.050471377 -0.1482905 -0.08017623 0.13721178 0.2574248 0.14475401 -0.008556465 -0.12146883
-0.04972859 0.018182296 0.32131878 0.3745238 0.14522736 0.298685 0.16841778 0.32513168
0.3056651 0.23067531 0.3203863 -0.3221203 0.28490916 0.25215507 0.40511608 0.111699104
-0.050743658 0.013926748 0.02416638 -0.35344148 0.35498074 0.10892234 0.28406927 0.06301796
0.08162444 -0.07225693 0.09703099 -0.119368374 0.120129116 0.12538214 -0.16686366 -0.19911884
0.069831684 -0.15104045 -0.20553432 -0.18404019 -0.18585029 0.08201382 -0.043121684 -0.11934525
0.20430507 -0.053095337 -0.20424424 0.084649995 0.05623589 0.34821466 0.07309106 0.0801224

fc2.weight f4 [256, 256]
00000000: ac2d 77bd b470 a43c a2df 413d 0883 e9bc
00000010: 4e5f 76bd e097 5fbb 001d c63b 84c4 abbc
00000020: 20b2 ba3c 74d4 843c 18e8 453c 885f 723d
00000030: 48ce 6d3d e8f4 3c3d acf0 6abd 6a12 79bd
00000040: 50df 2cbc 28fa 2e3d 460b 5cbd 5e30 77bd
00000050: eadb 3c3d c0fd 923b 92a0 44bd de03 0cbd
00000060: 503a f0bb 0c17 5ebd f8da 583d 14aa 503d
00000070: e4d9 e7bc 3cce 1ebd f820 0fbd 248a b7bc
00000080: 2cd1 7f3d fcca c83c 82e5 26bd f2a8 5d3d
00000090: 30ec b03b 7020 d9bc 208a 3cbd c007 7bbb
000000a0: b865 b1bc 960b 123d 7821 e0bc 4c45 d9bc
000000b0: aaeb 413d e644 2b3d 02b0 2ebd acf1 7e3d
000000c0: d015 f33c 98ec c7bc dc4f b33c 9a0b 6ebd
000000d0: 606b 9e3c b470 6b3d 66b8 7bbd dc05 7f3d
000000e0: 7edc 20bd b00c fe3b fa56 01bd 665f 1abd
000000f0: d272 0b3d c0bc 2a3d 7088 dbbc 64c4 b63c
00000100: 8611 56bd 1053 68bd 3622 07bd ee25 34bd
00000110: 84da eabc c042 ff3a 40bf ae3b 48bd ea3c
00000120: d07b b7bc 8aa9 083d a0c2 40bc 307d e6bb
00000130: 88fe a13c f091 45bd f88a 7dbc 285e ffbc
00000140: 4890 893c 748b 363d 30c8 86bb 20fe 2d3c
00000150: 00c6 c83b 7c83 5f3d 8e20 32bd 4089 033b
00000160: 101b 07bd 9872 3abd 64dd 103d 0e72 36bd
00000170: 7838 c23c 504e 973c 50ce 16bc 5002 693c
00000180: 1aea 76bd ec77 47bd dc72 54bd 3a57 60bd
00000190: 386f 283d 18d1 cabc e077 bf3b 989b 323c
000001a0: 2236 183d dcdb 583d 409e abba 8669 6e3d
000001b0: 4c91 94bc 9e9d 53bd 50da 093d 12a7 603d
000001c0: e68e 5ebd 7867 15bc 0047 ecbb 183b 50bc
000001d0: 7a0b 74bd 3841 5cbc 6ab4 583d 6831 73bc
000001e0: 627d 7fbd 1a45 7bbd 00f0 a8b9 5cc3 553d
000001f0: c0e8 24bc 9ab3 703d f833 103d 823c 283d
00000200: 703f 303d ba5a 363d 16d1 60bd 1830 233d
00000210: bc08 a1bc fc7f 753d 788a 283c bcd2 133d
00000220: a6b4 0bbd 18f4 e93c c02e db3a 4874 533d
00000230: dc84 323d 8488 c3bc c8bd f33c d0ea 05bd
00000240: f44e e5bc 845b 4dbd 609f 5dbb 9407 21bd
00000250: 38c2 83bc d894 923c 9878 7d3d 4e88 45bd
00000260: 52b6 41bd 8ebc 40bd c859 2d3d d08f 8ebc
00000270: 4e02 71bd d84b bbbc 84d2 0dbd b05d 40bd
00000280: 7048 c8bb 0039 12bc 2c7a 3b3d f670 22bd
00000290: c804 ae3c e883 b13c 7020 05bc 806b 1e3b
000002a0: fe05 6dbd cc9a 38bd 0034 f839 f8da 1cbc
000002b0: c08e c8ba c252 17bd 005b a03c 9427 07bd
000002c0: 5015 57bc 4088 023d 68d2 e53c fcf1 16bd
000002d0: 064a 39bd 528c 363d 5408 6abd 7884 163d
000002e0: c8f0 3a3d 8482 c3bc e6f9 653d 08d6 a1bc
000002f0: 80e0 a73c 10f0 bdbc a03c 3a3b bcab b4bc
00000300: f028 67bc d8bb 84bc 68fc 08bd 04db 44bd
00000310: 8c29 7ebd 2045 7dbc e40f 833c 0ccc 45bd
00000320: 608c 633d e64e 4c3d 7ca2 6cbd f095 933b
00000330: 624f 48bd 80f8 433b 6256 02bd b0a5 6a3d
00000340: 806e 33bd 7e6b 433d c059 713c 808d c33b
00000350: ac9c 80bc f06e 7fbc 80b0 6fbb 68be f0bc
00000360: 90fa a9bc c066 b0bb 9016 943b 60ed 2f3b
00000370: 7406 6fbd e489 c1bc f07c 6fbd 00c0 0037
00000380: c6d5 63bd 50ea 79bc 4020 cfbb a03f 13bc
00000390: 5285 66bd 8276 703d 18b9 b53c 2012 0bbb
000003a0: b0ee 153d 00f8 1dbc 984d 5fbd a238 293d
000003b0: 50ab 703c 70df 08bd a03d cbbb c05a 543d
000003c0: f42c c0bc 78dc 75bd f465 ef3c a049 393c
000003d0: cc3a 643d a61e 623d d65b 6dbd 9ca0 f7bc
000003e0: 80af 3fbc a048 a7bc 7606 6abd 4427 debc
000003f0: e835 84bc 2ce6 9abc 8085 dfbb 44cf debc
-0.06034629 0.020073272 0.047332413 -0.028504863 -0.060149483 -0.0034117624 0.0060459375 -0.02096773
0.022790015 0.016214587 0.012079261 0.059173137 0.058058053 0.046132 -0.05735843 -0.060808577
-0.010551289 0.042719036 -0.05372169 -0.06034886 0.046108164 0.0044858158 -0.048004694 -0.034183376
-0.00733117 -0.054221198 0.0529432 0.05094345 -0.02830214 -0.0387709 -0.03494355 -0.022404738
0.06245534 0.024510853 -0.04074622 0.054116197 0.0053992495 -0.026504725 -0.046030164 -0.003830418
-0.021654949 0.03565558 -0.02735971 -0.026522301 0.047343887 0.041813754 -0.042648323 0.062242195
0.029673487 -0.024404809 0.021888666 -0.058116533 0.01933831 0.05748053 -0.061455153 0.062261447
-0.039272778 0.0077529773 -0.031577088 -0.037688635 0.034045048 0.041683912 -0.026798457 0.022310443
-0.052262805 -0.05671984 -0.03299161 -0.043981485 -0.02866865 0.0019474849 0.0053328574 0.02865471
-0.022397906 0.03336481 -0.011765152 -0.0070339665 0.01977469 -0.04823488 -0.015475027 -0.031172827
0.016792431 0.044566587 -0.0041132197 0.01061967 0.006127119 0.054568753 -0.043488078 0.002007082
-0.032984793 -0.04551944 0.035367385 -0.044542365 0.023708567 0.01846996 -0.009204462 0.014221743
-0.06028185 -0.04869835 -0.05186735 -0.054770686 0.04112169 -0.024757907 0.0058431476 0.010901354
0.037161 0.05294405 -0.0013093427 0.058206104 -0.01813569 -0.051663987 0.033655465 0.05484683
-0.054335497 -0.009118907 -0.0072106123 -0.012709402 -0.059581257 -0.013443284 0.05290643 -0.014843322
-0.062375434 -0.061345197 -0.0003222227 0.052188262 -0.010065258 0.05876503 0.03520581 0.04107333
0.04302925 0.044520117 -0.0548869 0.039840788 -0.019657485 0.05993651 0.01028692 0.036089644
-0.034107827 0.028558776 0.0016722307 0.051624566 0.043583736 -0.023868807 0.02975358 -0.032694638
-0.02799175 -0.050136104 -0.0033816919 -0.039313868 -0.016083822 0.01789324 0.061882585 -0.048225693
-0.047293015 -0.04705482 0.04232195 -0.01740256 -0.05884009 -0.022863314 -0.03462459 -0.046964347
-0.006112151 -0.008924723 0.04577081 -0.03965851 0.021242514 0.021669343 -0.0081254095 0.0024172962
-0.057867043 -0.0450695 0.0004734099 -0.009573691 -0.0015301332 -0.03694416 0.019574642 -0.03299673
-0.01312764 0.03186822 0.028054431 -0.036851868 -0.04523661 0.044567414 -0.05713685 0.036747426
0.045639783 -0.023865946 0.056146525 -0.019755378 0.020492792 -0.02318576 0.0028417483 -0.022054546
-0.014108881 -0.016202852 -0.03344384 -0.048060432 -0.06205134 -0.015458375 0.015998788 -0.048290297
0.055553794 0.04987993 -0.057772145 0.004503958 -0.04890383 0.0029902756 -0.031820662 0.05728692
-0.043806553 0.047709934 0.014730871 0.005967796 -0.015699707 -0.015590414 -0.0036573708 -0.029387668
-0.02074936 -0.0053833425 0.004519291 0.0026844367 -0.058355764 -0.023625322 -0.05846876 7.674098e-06
-0.055623792 -0.015253618 -0.006320983 -0.008987337 -0.056279488 0.058706768 0.022182986 -0.002122052
0.036604583 -0.009641647 -0.05451736 0.041313775 0.014689282 -0.03341621 -0.0062024146 0.05184436
-0.023458935 -0.06002471 0.02922342 0.0113090575 0.055720136 0.05520501 -0.05794891 -0.030227952
-0.011699557 -0.020420372 -0.057135068 -0.027118333 -0.016138986 -0.018908583 -0.0068213344 -0.027198441

fc2.bias f4 [256]
00000000: c49b c83c 522f 59bb e566 33bd 92f8 10bd
00000010: 10f4 b6bd ac77 0c3d a01e 74bd 73a7 8b3d
00000020: 2352 aebc 6a44 3bbd 4b38 85bd 5a22 e3ba
00000030: ef92 2d3e 53c5 d83c 4e86 b33c c23a 403e
00000040: 01c5 b33d efbe afbd 8d59 99bc 6cc6 823d
00000050: 8dfa 87bb 341a b53c 5474 20bd 6b6f a83d
00000060: e6ab fa3d 4ecb c13d fb35 3f3d f8e3 82bd
00000070: cc9b 22bd e8e3 5abd dd21 db3b 4930 e83c
00000080: a074 143e 5749 303d 8fa0 50bd ba39 cdbc
00000090: be6b d63c 544a 7dbd 5675 a73c 1503 fc3d
000000a0: 39c9 c33c f7e0 2bbd f1ed 113c 93aa cf3d
000000b0: b619 433d 3874 e53c b0df 2abd 8ba1 6fbc
000000c0: e15b 61bd 7589 db3d f48d 7bbb 3c7d 8cbb
000000d0: fdff 1ebd 81bc 52bd 3ae6 4ebd 5f98 503d
000000e0: 77d5 973b 89a1 3cbd 3955 f6bc 685a 87bd
000000f0: 9686 18bd 8a1c 38bd 40de ba3c 219e a13a
00000100: 5436 52bd 18be f53d 8829 483b 303a 6c3d
00000110: ef6f 26bc 7ead e13d 5152 073d c21c 563d
00000120: 969d 283d 3650 65bd d3ac d3bb d21c e3bd
00000130: da8a e73b abb5 48bd a367 60bd 7e0f 193e
00000140: c6ab 4f3c c762 19bc 5a3c eb3c bfe6 b73d
00000150: 62f3 233c a670 ea3c e1d5 543c e345 133e
00000160: 5628 833d 6db2 b43c 6028 75bb 329d 71bd
00000170: 889c 6fbc 497f 163d 199e 3b3d d69a 053d
00000180: 4e7f 2cbd 21c0 d63c 7673 a43d a21e 123e
00000190: 66ed be3b 23e5 aabc 22e3 203d 9746 21be
000001a0: 58f3 8f3c 8097 81bd ea40 2e3e 5caa bcbc
000001b0: 5bf4 9abc 17ae 9a3a 9d53 24bc ea28 4b3d
000001c0: 278a 40bc 9a0f 263c 2281 8fbd 3e11 0abd
000001d0: 6f23 493d e760 80bd a35d 99bb c367 693d
000001e0: 3a40 52bd 64ab 54bd a7a9 f9bc c030 47bd
000001f0: fa6f 4f3d b12e 863d 82bd 323d b0c8 5f3c
00000200: 7ed4 693d 41aa 10bd 4aa6 38bc 6791 893b
00000210: 3d97 8abd ead3 32bc c039 233c d38f ebbc
00000220: da97 22bd ef13 9c3c 61dc e43b 2086 ecbc
00000230: 4cc1 68bd 193a 053d 80a8 e03c 0a7e 333d
00000240: 652d 2d3d 6703 c7bc 0aba 5e3d bc0d 99bb
00000250: 5a48 5ebd a64d 81bc a921 003e de8d 3ebd
00000260: 3a03 c3bd 7ab6 94bc 95ff 8bbd 42a6 3e3a
00000270: 9852 7abd b741 663d 77f2 fe3d 1c7a 26bd
00000280: e1f1 f33d 6304 e43c d6eb a33d 8369 27bd
00000290: b8cf 3d3c 4906 c1bd 62df 123d d229 013d
000002a0: d126 56bd bf3e bd3d 27fb b13d 5452 60bb
000002b0: bb26 dcbc 0ca5 8a3b e98e f3bc d287 e33c
000002c0: 727c f6bc fd7f 2e3d 69b6 02bd 81ef 66bd
000002d0: 6356 10bd 3070 84bd 0586 bebc e450 2abd
000002e0: 0df2 33bd 7e64 29bd 58ca 113d f9f8 6cbd
000002f0: f31d bebb 9f5c 8f3d 08bb 30bc a0c1 963d
00000300: 303a e4bd e651 513e 53b2 9e3b f7f5 393e
00000310: 3353 4b3c 7fdc 8b3d e324 0f3d 178b 1f3e
00000320: 44d2 0d3d 7c85 be3c 0639 5abd fede 7abc
00000330: ca58 0c3c c2b1 c03c 2a63 53bd fe74 c13c
00000340: 40e8 c53b 90b9 1b3d bb9a 98bb 8c71 863d
00000350: 2725 a8bd f59e 833c 54cf 52ba 3cf8 1e3d
00000360: 4747 29bd 4a86 4fbd f2e2 b7bc 73bd 95bc
00000370: e4c5 1c3d 12d7 29bd b844 95bd 8890 d23c
00000380: 66dc c83a eb57 bcbd a9ba d5bc 7341 273d
00000390: c55c c8bd 1455 4dbc d13e 0c3e 1210 db3d
000003a0: 6857 75bd 4134 8ebd d515 dbbd fc77 51bd
000003b0: e8c6 143c 65fe 553d e438 06bd 9bd7 973d
000003c0: bcc5 563d 43d4 963b fa48 61bd 7a0d 8dbd
000003d0: fe11 cfbc aafb febc 0333 a63d 1751 293d
000003e0: 0bb8 003e e2f5 a5bd db7b e33c ecc6 f63c
000003f0: f4e2 9fbc 1cfc 7cbd 4202 763d f20b f2bc
0.024488337 -0.0033139777 -0.0437993 -0.035393305 -0.0893327 0.034293815 -0.05959952 0.06819048
-0.0212794 -0.04571954 -0.06504878 -0.0017328963 0.16950582 0.026461279 0.021914627 0.18772414
0.0877781 -0.085813396 -0.018719459 0.06385502 -0.004149741 0.022107221 -0.03917344 0.08224376
0.12239818 0.094626054 0.04668234 -0.06391138 -0.03969936 -0.053440005 0.0066873864 0.028343337
0.14497614 0.043038692 -0.05093437 -0.02505194 0.026174422 -0.061838463 0.020441692 0.12305275
0.023899661 -0.04196259 0.008906827 0.10139956 0.04763194 0.028009519 -0.04171723 -0.014625917
-0.055019263 0.10719577 -0.0038384171 -0.00428739 -0.03881835 -0.051449303 -0.05051253 0.050926562
0.0046336013 -0.04605249 -0.030069934 -0.066090405 -0.037237726 -0.044949092 0.022811055 0.0012330451
-0.051321343 0.11999148 0.0030542333 0.05767268 -0.010158523 0.11019419 0.033037487 0.05227352
0.04116591 -0.0559847 -0.0064598112 -0.110894814 0.007066113 -0.049001377 -0.054786336 0.14947316
0.012675231 -0.009361929 0.028715301 0.08979558 0.010006757 0.028618168 0.012990446 0.14382128
0.06404178 0.022057736 -0.0037408099 -0.058987804 -0.014624722 0.036742482 0.04580507 0.032618366
-0.042113595 0.026214661 0.08029835 0.14269498 0.00582664 -0.020861214 0.03927911 -0.15749584
0.01757209 -0.063277245 0.1701695 -0.023030452 -0.018915346 0.001180115 -0.010029701 0.049599566
-0.011751688 0.010135556 -0.07007052 -0.03370785 0.049106058 -0.06268483 -0.004680352 0.05698372
-0.051330782 -0.051921263 -0.030476404 -0.048630476 0.0506439 0.065518744 0.04363776 0.0136586875
0.057087414 -0.035318617 -0.011270115 0.0041982415 -0.06767128 -0.010914782 0.009962499 -0.028755104
-0.0396956 0.019052474 0.006984279 -0.02887255 -0.056824967 0.03252611 0.027424097 0.043821372
0.04227962 -0.024293615 0.05437664 -0.0046708267 -0.05426822 -0.015784096 0.1251284 -0.046522014
-0.095221 -0.018153418 -0.06835858 0.0007272699 -0.061113924 0.056215014 0.1244859 -0.040643796
0.11911369 0.027834123 0.080039665 -0.04087211 0.011585169 -0.09425027 0.035857566 0.031534024
-0.052283112 0.092404835 0.08690482 -0.003422876 -0.026873937 0.004231101 -0.02973123 0.027774725
-0.030088637 0.042602528 -0.03191224 -0.056380752 -0.035238635 -0.064667106 -0.023257265 -0.04158105
-0.04393201 -0.041355602 0.03559336 -0.057854626 -0.00580191 0.07000088 -0.010786779 0.0736115
-0.11143911 0.20441398 0.0048430352 0.18160234 0.012409973 0.06829166 0.034947287 0.15580402
0.034624353 0.02325701 -0.053277038 -0.015311955 0.008566091 0.023522262 -0.051608242 0.023615357
0.0060396492 0.038018763 -0.004657117 0.06564626 -0.08210211 0.016067008 -0.00080417586 0.038810953
-0.04132774 -0.050665177 -0.022447083 -0.018278813 0.03827466 -0.041464873 -0.07288498 0.025703683
0.0015324473 -0.091964565 -0.026089983 0.0408339 -0.097833194 -0.012532491 0.13695838 0.106964245
-0.05989781 -0.069435604 -0.106975235 -0.051139817 0.009080626 0.052244563 -0.0327691 0.0741417
0.052434668 0.0046029403 -0.055001236 -0.06887336 -0.025277134 -0.031125862 0.081151985 0.0413371
0.12570207 -0.08103539 0.02776902 0.03012415 -0.0195174 -0.061763868 0.060060747 -0.029546712

fc3.weight f4 [128, 256]
00000000: 30b5 83bb b664 17bd 3901 f13c 4085 92ba
00000010: 9f5e bdbc e7aa 643d 41fd 3fbd 5349 613d
00000020: 26c1 08bd 7447 27bd eed8 dbbc 32bd 0abd
00000030: 9b20 2a3c 96a0 5bbd 1f4c 6c3c 50f0 ffbc
00000040: f0a6 893c a0f6 fbbb 0026 24bd 41ac 0bbd
00000050: facd 52bd 5637 183d ad17 dbbc 01fd 76bd
00000060: 1352 efbc 7e84 d83c f4a3 4ebd 949e 32bc
00000070: 4787 d1bb 60d6 673b a975 553d 4385 23bc
00000080: f100 9cbd 585b 843c db36 14bb 5a8f adbb
00000090: 2b4e 5f3d d0ad 58bc 36c9 263c 360e 4dbd
000000a0: d0bc c03b 219b 4abd 40dd cebb 7024 94bd
000000b0: 5c07 223d 0038 a43c 0548 79bd 1163 1cbd
000000c0: 7458 3d3d 33db b7ba 7f18 323d d426 c6bc
000000d0: 302c 483d bf33 57bc 471c 053d e93c d7bc
000000e0: daad 34bd a827 363d d271 9cbc 29a6 fc3c
000000f0: c7de 763c 07b6 a9bc fa15 d7bb 706f b93c
00000100: 9a40 273d 8234 ee3a 5ac4 873d e4f7 67bd
00000110: c6d5 953c 81f9 52bd 122f 143d 256f 4e3d
00000120: 9efe 213d 9a5b 84ba d7fd e4bc f8ac 8fbc
00000130: 5f4b 433d 2aa2 4a3d 00b7 b8bc 2442 1abd
00000140: dc9f ca3c 6930 5c3c ca56 633c fa2d 83bb
00000150: f4dc 3ebd f5ce 64bd 68a7 26bd 7a7a e13b
00000160: a4a6 23bc d6cd 17bd c110 2bbd 2a6c 7ebd
00000170: 26a5 2ebc 56e2 e5bc 744d 4e3d b618 07bd
00000180: 6f92 083d 5419 ddbc c978 bcbd 7b74 173d
00000190: 8755 6fbc 4e1c 69bd 2dfe d43c 2a5d 313d
000001a0: 0290 5a3d acda bd3c f89c adbc f323 3bbc
000001b0: bc82 4bbd f8db c7bc f603 183d 19e1 e23c
000001c0: 4056 3b3c 60df 55bd 4090 b3bb fa8a 213d
000001d0: b0ac 6cbd 5ac6 ce3c 6b04 30bd 20cb 8d3c
000001e0: e42c 38bd 91ba 623c 9ced 68bd a62a 66bd
000001f0: acc2 b83b f66d 7f3d 10e9 353d 5b8d fcbc
00000200: 3259 263c b93b 83bd 19a6 5b3c 30c4 543c
00000210: 1aa9 493d fa02 08bc 03f9 e33c b3f3 583c
00000220: 0d2a 8bbc 78a5 56bd 4ff2 26bd c83f 203c
00000230: 89b7 c8bc 85bd 2dbd caee ee3a b099 11bd
00000240: 0770 b9bc 1fb3 2f3c 2071 e3bc f2be 3d3d
00000250: 24e5 c5bc 82d8 04bd f00a c6bc d5f8 b03c
00000260: c0c9 28bb 8863 cebc 7ff4 a1bd 34c5 3bbd
00000270: f00c 6cbc 297b 5f3c aa21 853c e01d 63bb
00000280: d76d 553c 04ae c1bc e818 893c 9838 73bd
00000290: 71e1 a13c c5a1 083c 5273 64bd ee40 683d
000002a0: 6145 69bd 540e 323b e8c8 47bd 9239 493d
000002b0: 4204 0d3d 0fd9 223d 7adb 2dbd 6ae1 633d
000002c0: 50da d53b bca2 2b3d b476 813c 6ca4 1b3c
000002d0: ae5f 643d af0c 92bc 8320 ffba 3c2f ae3c
000002e0: 8633 1ebd 70f8 bd3c 853d ab3a d271 95bc
000002f0: ce01 ce3c 4fdd 0cbd 0722 55bd 88d1 59bd
00000300: 9d12 65bd 0eb7 94bd caa2 4dbd 8801 7cbd
00000310: 5b65 babb b268 9c3c 500c 90bd 8b9b 3bbd
00000320: f705 d3ba 72eb 50bd d3e7 6b3b 0c67 953c
00000330: e880 c5bc a78c 41bd 931f bfbc 4679 1dbd
00000340: f070 4bbd 63d4 663d 2019 4b3b a8d2 80bc
00000350: 4026 053c 603e cb3b ad7a 11bd adb7 ffbc
00000360: 2d91 5dbc 6934 c7bb 705c ef3b e7c2 c6bb
00000370: 66a8 c13c 7d79 983c a612 6abd 0882 f13c
00000380: ec24 b3bc f0e1 92bc 70ad db3c c687 5abd
00000390: 6f0b 5b3d dcfc b1bc 56d1 373c 9965 0c3c
000003a0: 1236 813d 0098 f3b8 a3b5 cb3c b003 783c
000003b0: a4c5 983c 5344 adbc e7aa 533c 9673 49bd
000003c0: 599b 1b3d b63a d0bc ba25 c43c 6c88 13bd
000003d0: f8d4 613d 58f3 c33c 7812 063d 2145 c93c
000003e0: a707 9e3c 1000 fe3b 8d3f 9e3d 4c27 debc
000003f0: 2e54 ae3c 6685 70bd 8975 95bc 9506 213c
-0.004019402 -0.03696128 0.029419528 -0.0011178628 -0.023116408 0.055827048 -0.04687238 0.055001568
-0.033387326 -0.040839627 -0.026836839 -0.033871837 0.01038375 -0.053619944 0.014422446 -0.03124252
0.016803235 -0.007689312 -0.040075302 -0.03409982 -0.051465966 0.037162147 -0.026744688 -0.060299877
-0.02921394 0.026430365 -0.050449327 -0.010902066 -0.0063943 0.003537558 0.052114163 -0.009980503
-0.07617367 0.016156837 -0.0022615704 -0.00529663 0.054517906 -0.013225034 0.010179808 -0.05006238
0.005881883 -0.04946435 -0.006312996 -0.072335124 0.0395578 0.020046234 -0.0608597 -0.038180415
0.046226934 -0.0014027118 0.043480393 -0.024188437 0.048870265 -0.013134896 0.03249767 -0.026274161
-0.04411111 0.044471413 -0.019097243 0.03084095 0.015067763 -0.02071668 -0.006563899 0.022636145
0.040833093 0.0018173608 0.06629248 -0.05663289 0.018290412 -0.051507477 0.036177702 0.050398964
0.039549462 -0.00100981 -0.027953072 -0.017538533 0.0476793 0.049471058 -0.022548199 -0.037660733
0.02473443 0.013439276 0.013875673 -0.0040032836 -0.046597436 -0.055861432 -0.040686995 0.0068810554
-0.009988461 -0.037061535 -0.041764025 -0.062114872 -0.010659492 -0.028062027 0.050366834 -0.03298255
0.033342775 -0.026989616 -0.092027254 0.03697632 -0.014607794 -0.05691176 0.026000107 0.04330174
0.053359993 0.02317556 -0.021193013 -0.011422145 -0.049685225 -0.024396881 0.037113152 0.027695226
0.011434138 -0.05221498 -0.0054798424 0.03943918 -0.057781875 0.025241066 -0.042972963 0.017308772
-0.044964686 0.013838426 -0.056867227 -0.056193016 0.005638441 0.062360726 0.04441172 -0.030829122
0.010153102 -0.064078756 0.0134063 0.012986228 0.049233533 -0.008301491 0.027828699 0.013241696
-0.016987825 -0.052403897 -0.040758427 0.009780832 -0.024501579 -0.042417068 0.0018229124 -0.03554696
-0.022636427 0.010723858 -0.027763903 0.046324678 -0.024157114 -0.03243304 -0.024175137 0.021603027
-0.0025755018 -0.025193945 -0.07907962 -0.045842364 -0.014407381 0.0136402035 0.016251404 -0.0034655258
0.013026676 -0.023642547 0.016735509 -0.059380144 0.01976082 0.00833935 -0.05577404 0.056702547
-0.05695093 0.0027169185 -0.048775584 0.04912717 0.03442789 0.039757784 -0.042445637 0.055634893
0.006526269 0.041903242 0.015803672 0.00949965 0.05575531 -0.017828314 -0.0019464645 0.021262757
-0.038623355 0.023189753 0.0013064599 -0.01824275 0.025147345 -0.034390744 -0.052034404 -0.05317834
-0.055925954 -0.072614774 -0.050204076 -0.061524898 -0.005688352 0.019092891 -0.070335984 -0.045802634
-0.00160998 -0.05100579 0.0035996332 0.018237613 -0.024109319 -0.047253277 -0.023330485 -0.038445733
-0.049668252 0.05635489 0.0030990317 -0.015725449 0.008126795 0.006202504 -0.035517383 -0.031215513
-0.013523382 -0.006079246 0.0073047206 -0.0060657146 0.023639869 0.018612618 -0.05714669 0.029480949
-0.021868192 -0.017930001 0.0268161 -0.05335214 0.0534777 -0.021727018 0.011219343 0.008569145
0.06309141 -0.00011615455 0.024866885 0.015137598 0.01864893 -0.021150744 0.012919164 -0.049182497
0.037989948 -0.02541862 0.02394377 -0.036018774 0.055134743 0.023919746 0.032732457 0.024569096
0.019290758 0.0077514723 0.07726965 -0.027118348 0.021280374 -0.05872097 -0.018244522 0.009828229

fc3.bias f4 [128]
00000000: 06a6 7a3c c24f debb 1baa 7cbd 4f12 aebc
00000010: 7909 173d add2 0b3d 163d 973c 7682 913c
00000020: eeee c83b ebe3 5a3e e8c0 a2ba cefc 80bc
00000030: 1ec6 a93a c681 a23d f4bf 763d cabd 61bd
00000040: c9dc b23c 799d b63d 2410 c93d a619 bd3d
00000050: 8b91 ec3b 5901 35bd 266b 143d c013 6f3b
00000060: 977a 0c3e 86c8 90bc cdcf e4bc 2407 4c3d
00000070: 8836 233d 6831 a6bc ae87 a0bc bf20 0cbd
00000080: 3a2b 8b3c 1eb8 48bb 4abe 0e3e 1a62 d43d
00000090: 274c a1bc cd92 4cbd b72b 2b3d 6db9 9bbc
000000a0: 0958 1b3d ed27 f63d a783 6cbd 94e4 f3bc
000000b0: 0882 ad3d 098c 6dbd 863a 22bd adbc eb3c
000000c0: dabb 1b3d a310 153c 56d6 a13c 4b6e 043d
000000d0: 1804 0a3e 385f b33d ebf0 bc3c 258b 86bd
000000e0: 8fed 183b 3e3b d33b abf4 4cbd 3142 0b3e
000000f0: 76fa df3c 22b7 84bd 827a 16bd 979b 20bc
00000100: f6c4 013e 68b5 0c3d a230 93bc c31e 9fbb
00000110: 0a43 59bd 893c cf3d 3f8d ae3d e0c6 6d3c
00000120: b0df 1e3d 32bc e53d 60d5 7f3d f294 1abd
00000130: fcff 533d 0bb0 0d3d 320e 923b d5a2 70bb
00000140: 1779 1dbc 1822 a03d f546 d53b 6841 963d
00000150: 3e0c d7bb 1ac9 19bd 991f c8bc 68ac 1d39
00000160: 9b51 a43c 5286 45bd c642 313d bab8 c3bc
00000170: 4278 3a3e bf23 ce3c c656 f4bc b698 a1bd
00000180: c673 343d 4e23 34bd 1f59 89bb 7cd9 ab3d
00000190: a76a 2bbd 2e91 2a3c 0358 47bd 7b65 e1bc
000001a0: c265 f1b9 0941 a63c b8cb 86bc c615 7b3d
000001b0: 3677 a5bd 3828 50bd a97a b7bb c58f 93bc
000001c0: d142 7b3d 9f01 dd3c c158 6bbd 7e64 8c3d
000001d0: 9641 a73d 9b79 b03c 13ff bd3d 8ea2 a3ba
000001e0: 7206 ac3c 55ae bb3c 9f81 a33b 4546 723c
000001f0: 1efb f83d fd36 0abd e7ce e73b 42d6 973c
0.015298372 -0.00678441 -0.061685663 -0.021248965 0.03687427 0.034136463 0.018461745 0.017762404
0.0061319983 0.21376006 -0.001241711 -0.015745547 0.001295272 0.079349086 0.060241655 -0.055112638
0.021833794 0.08916754 0.09817532 0.09233408 0.0072194985 -0.04419074 0.036234997 0.0036480278
0.1371864 -0.017673742 -0.027931118 0.049811497 0.039846927 -0.02028723 -0.019595947 -0.034210917
0.016988385 -0.003062732 0.13939777 0.10370274 -0.019689633 -0.049944688 0.041789737 -0.019009316
0.037925754 0.12019334 -0.05774274 -0.02977208 0.08472067 -0.057994876 -0.039606594 0.028776491
0.038020946 0.009098205 0.019755524 0.032331746 0.13478124 0.08758396 0.023064097 -0.065695085
0.0023334955 0.006446271 -0.05003802 0.13599469 0.027341109 -0.06480242 -0.036737926 -0.0098027205
0.12672791 0.03435269 -0.017967526 -0.004855962 -0.05304245 0.10118968 0.08523034 0.0145127475
0.038787544 0.11217536 0.06245935 -0.0377397 0.051757798 0.034591716 0.0044572586 -0.003671815
-0.00961139 0.07819003 0.006508703 0.07336694 -0.0065627387 -0.0375453 -0.02442913 0.00015036913
0.020058444 -0.0482238 0.04327657 -0.023891795 0.18209937 0.02516353 -0.029826533 -0.078904554
0.044055723 -0.04397898 -0.0041915323 0.08391091 -0.04184976 0.01041059 -0.04866792 -0.02751421
-0.00046042918 0.020294683 -0.016454563 0.06130006 -0.08079378 -0.050819606 -0.005599339 -0.01801289
0.061343018 0.026978312 -0.05745769 0.06855105 0.081668064 0.021542361 0.09277167 -0.0012484358
0.020999167 0.022910276 0.0049898173 0.014787261 0.12157272 -0.033743847 0.007074225 0.018534783

fc4.weight f4 [5, 128]
00000000: ede1 af3b 60ba e13c 64b2 4dbd b7d9 f0be
00000010: f09c 2bbf 7113 f6be cb12 8e3e b731 4b3c
00000020: c3f9 2ebd 2f5d 053f 585a 4cbd d701 24bd
00000030: db45 773d f2d3 853e 7721 9d3e 13f9 1cbf
00000040: 2e48 0b3f ed32 b2be eada aabe b744 6cbe
00000050: 477b e2bc 9f7d 1b3d a430 683d 422a dc3d
00000060: 3452 ca3e 803e 39bd 825b 483d 8b95 003c
00000070: d70e 593e 2348 b43d 508e fabe 6f36 803d
00000080: 512d a73e c38d 1e3d fbb1 9dbe d72a 90be
00000090: bafd 50bf ba17 1f3c ce67 0b3d 39c2 2ebd
000000a0: b338 5d3e 0ddc acbe 355d af3c 9f06 a73d
000000b0: 4ab1 56bf c1ef 953d fe72 183d 024f 23bf
000000c0: a517 a03d 013b 863d 2867 923e 1652 5cbd
000000d0: e760 dcbe 4bc1 c13e 3d29 0abf 1187 783d
000000e0: 3367 afba 15d9 86be 9d9f 8b3d 0eb5 9fbe
000000f0: 132c d9bb d714 1f3d 8c67 bebe 7a26 0cbe
00000100: 160f 7ebe d7da 783d 8f54 fcbe d861 5c3d
00000110: 497d 333e f966 96be e0aa 533e 597c 8e3d
00000120: 7415 443d dff3 7dbe 8aba 2a3e d2e4 40bc
00000130: f425 a8be 83fc cbbe aed7 7abd 2073 ad3d
00000140: 0912 393d 0e22 ab3e b044 8abd a2de 7c3e
00000150: 1ce3 8fbc 7a3c 80be e0db 333d 6baa febe
00000160: f728 953e 01cc 0a3d 5c17 b7be 9ba9 bbbc
00000170: 0c0d 94be f548 14bd aba5 a7bd e06e 6b3d
00000180: e80f 963e b360 1f3d d47d 9ebc 3c87 9dbe
00000190: 9e25 5e3d d029 e53c 4aad 50bc bad4 913d
000001a0: aa4c 3d3d 0ebc 303d cdf6 fdbe 0b4e 9e3e
000001b0: df4c 933c 83aa 60bd 4be3 2d3c 42b5 f1ba
000001c0: 849c cdbe 73e9 183d e17d 253c 21ea 80be
000001d0: 7b3e 74be 25af 833d e837 a0be 50e9 853d
000001e0: 8c4e 5bbf 1953 90bd f1ef 913d f0e1 d13c
000001f0: 771f 633e 9456 13bd c49a 4bbe 0561 51bd
00000200: 47fe e23a 4b96 3a3d d5bc a6bd 9511 eabe
00000210: a931 44bf 1d2e 02bf f073 8e3e a6e6 40bd
00000220: 31d1 f0bb ab41 e53e bb85 4d3c 2f3d 833d
00000230: d231 41bc 0115 923e df31 a83e dcd2 05bf
00000240: 5a51 0e3f a000 15bf 4c84 3bbe 9189 88be
00000250: 0cfa 8b38 6059 3fbd 7fb1 b0bd 3657 97bd
00000260: e47d e63e 4353 373d 841c afbc 7756 853d
00000270: 5b2b a73e 5083 90bb 33ee 06bf dba8 a5bd
00000280: aabd 743e 7ef2 9dbd e539 a7be e095 9dbe
00000290: 3b38 7dbf 2d6d a4bc ac23 543d 790d ddbc
000002a0: d834 963e c33d 96be 9998 2f3d be45 5cbd
000002b0: 8e35 6dbf a2f4 653d 9e25 98bd 2107 0cbf
000002c0: b866 793d b96c 9dbd d3a5 8e3e d822 2a3c
000002d0: 2fd3 b5be ade3 893e 705d fdbe d0ae 76bd
000002e0: ac4f 17bc 4728 bbbe 5b08 653d 4171 9bbe
000002f0: 339a a03d 5a7c 323d 9985 cabe 5593 06be
00000300: 8980 a4be b0b7 73bc ff27 cebe 2948 3dbc
00000310: a102 513e 9093 7abe f727 813e f430 debc
00000320: 3809 a8bd 7f30 37be 15ab 803e cf89 3bbd
00000330: 6fc0 90be e0e2 febe 66b2 42bd 1e11 31bd
00000340: 95f9 853c d252 953e 80fa eebc e071 5e3e
00000350: 203f fbbb bbe9 68be bd31 06bc 85a8 04bf
00000360: 30c6 a83e 9c3e d9bc b8df 94be c608 dbbc
00000370: 260b 9dbe cb64 2dbd 5257 6a3c 0e16 b3bd
00000380: add0 713e fb1c 833d 06f6 8e3c cced 9fbe
00000390: 32c5 4f3d 3471 cd3c 2754 99bd e7eb 68bd
000003a0: e5f3 8b3d 189e 3ebd b7ff 02bf 7aa7 943e
000003b0: 0d22 48bd 8db8 6bbd 5496 85bd 7c0a 62bd
000003c0: a73d e1be 07fa eb3b 10d3 83bd b2ad 98be
000003d0: a177 9bbe bb7b ecbc 2d76 59be 39d7 913b
000003e0: 3d33 45bf 8d68 603d 139f a13d 34f1 8a3c
000003f0: e5aa 853e c1a2 cabc 0fd4 58be 5143 ed3c
0.0053675086 0.02755469 -0.050218955 -0.47041103 -0.6703634 -0.48061708 0.27748713 0.01240199
-0.04271866 0.5209531 -0.049890846 -0.040040817 0.060369354 0.26138264 0.30689594 -0.6131756
0.5440701 -0.34804478 -0.33370143 -0.23073088 -0.027646674 0.0379616 0.056687012 0.107502475
0.3951584 -0.04522562 0.048915394 0.007848154 0.21197067 0.088028215 -0.489367 0.062603824
0.3265176 0.038709413 -0.3079985 -0.28157684 -0.81637156 0.009710247 0.034034543 -0.042665694
0.2160366 -0.33761635 0.02140675 0.0815556 -0.8386427 0.0732112 0.03721904 -0.6379243
0.0781701 0.06554223 0.28594327 -0.05378922 -0.4304268 0.37842783 -0.53969175 0.060675684
-0.0013382196 -0.26337495 0.06817553 -0.3119282 -0.0066275685 0.038838234 -0.37188375 -0.13686553
-0.24810442 0.060755577 -0.49283263 0.05380425 0.17528261 -0.29375437 0.20670652 0.06957311
0.04787202 -0.2480006 0.16672722 -0.011773305 -0.32841456 -0.3984109 -0.061240844 0.08469224
0.045183215 0.3342442 -0.06751382 0.24694303 -0.017564349 -0.2504614 0.04391086 -0.49739394
0.29132816 0.03388596 -0.3576001 -0.022908023 -0.28916204 -0.03620239 -0.081858955 0.057478786
0.2930901 0.03891058 -0.019347109 -0.30767238 0.054235093 0.02797404 -0.012736628 0.071206525
0.04621569 0.043148093 -0.49602357 0.30918917 0.017980991 -0.054850113 0.010613273 -0.001844086
-0.40158474 0.03733201 0.010100813 -0.25178626 -0.2385196 0.064298905 -0.31292653 0.065386415
-0.8566673 -0.070470996 0.07125843 0.02562043 0.22179972 -0.03597124 -0.19883257 -0.051117916
0.0017318212 0.045553487 -0.081414856 -0.4571654 -0.76638275 -0.50851613 0.27822828 -0.047094963
-0.0073491563 0.44776663 0.012544091 0.06408154 -0.011791663 0.2853165 0.3285055 -0.5227487
0.5559288 -0.5820408 -0.18312186 -0.26667455 6.674611e-05 -0.046716094 -0.08627605 -0.07389681
0.45017922 0.04475714 -0.021375902 0.065106325 0.32650265 -0.004410185 -0.52707213 -0.08088847
0.23900476 -0.07712267 -0.32661358 -0.30778408 -0.98913926 -0.02007159 0.05179183 -0.026983963
0.29337192 -0.29343995 0.042870138 -0.05377745 -0.9265984 0.056141503 -0.0742905 -0.5469838
0.060888976 -0.07686753 0.2786089 0.010384284 -0.35512683 0.26931515 -0.4948535 -0.060225308
-0.009235304 -0.36554167 0.05591617 -0.30359843 0.07841911 0.043575622 -0.39555052 -0.1314214
-0.32129315 -0.0148753375 -0.4026489 -0.011552849 0.20411159 -0.24470353 0.25225803 -0.027122952
-0.08204883 -0.17889594 0.25130525 -0.04578572 -0.28271815 -0.49782467 -0.047533415 -0.043229215
0.016354362 0.2916475 -0.029172182 0.21723127 -0.007667437 -0.22745411 -0.0081905695 -0.5181964
0.32963705 -0.026519112 -0.29076934 -0.026737582 -0.30672568 -0.04233245 0.014303045 -0.08744441
0.2361476 0.06402012 0.017451297 -0.31236112 0.05072517 0.025078394 -0.07486754 -0.0568656
0.068336286 -0.04653749 -0.5117144 0.29034024 -0.0488606 -0.05754905 -0.065228134 -0.05518578
-0.4399235 0.0072014364 -0.06436741 -0.2982002 -0.30364707 -0.028867593 -0.21236487 0.0044507054
-0.7703131 0.054787207 0.07891669 0.016960718 0.26106945 -0.02473581 -0.21174644 0.028962763

fc4.bias f4 [5]
00000000: 1e4f 84bd 491c 77bd 5b3e 713d ea19 c83d
00000010: 9078 aebd
-0.06460403 -0.06032971 0.058897357 0.09770568 -0.08519089
