models/curriculum_stage4_seed999_final.pth (torch, 411485 bytes, 8 tensors)

fc1.weight f4 [256, 9]
000000 9d ee 37 c0 83 2a d7 3d 10 30 f4 be 51 bf 3d 3f
       -2.8739388 0.10506155 -0.4769292 0.7412005
000010 78 5f 3b be 27 61 92 3e 9e 6f 30 3e 82 d8 9f be
       -0.18298137 0.28589746 0.17230079 -0.3121987
000020 a5 0a 90 bc 88 e4 d5 be da 24 77 3c 0a 5e 1c bf
       -0.0175832 -0.41775918 0.01508447 -0.6108099
000030 31 d6 9a be a4 34 cf 3d 30 db 30 3f c0 29 9a be
       -0.3024154 0.10117462 0.69084454 -0.30109978
000040 ba 10 4d 3e b3 a6 56 be ce 45 eb be a8 2e 97 bd
       0.20025912 -0.20962028 -0.45951694 -0.07381946
000050 9f af 88 bf 3b 5f b5 3d 7e 3f 07 3e 10 37 db bd
       -1.0678595 0.088560544 0.13207814 -0.10703862
000060 10 25 2a 3e f4 8e a2 bd 50 56 88 bd 36 5f bd 3d
       0.166157 -0.079374224 -0.06657088 0.09246676
000070 58 68 11 bf eb 50 ba 3e c6 ea 98 bd dc 81 5b be
       -0.5679984 0.3638986 -0.074666545 -0.21436256
000080 b8 19 8a be d0 8c bc bc 36 f5 16 3e 9b ac 43 bf
       -0.26972747 -0.023016363 0.14741978 -0.7643525
000090 1d 78 8d bf 5d 7a 44 3e 3f 00 5c bc 21 a8 03 3f
       -1.1052281 0.19187303 -0.013427793 0.5142842
0000a0 11 a9 2b bd b8 8d a4 3e 2c e9 e6 bd 6a 4a 4a 3e
       -0.04190928 0.32139373 -0.11274943 0.19754949
0000b0 e5 b9 ea 3e ce e7 fa bf 83 1e cf 3b 11 87 e9 be
       0.4584495 -1.9601991 0.006320776 -0.4561086
0000c0 db 01 b2 be ef 92 2c be 77 c0 1e 3f 39 6c 8a 3e
       -0.3476704 -0.16852926 0.6201243 0.27035692
0000d0 ea 50 a9 be 9a 74 2b be c9 53 53 3f 0d 44 09 3e
       -0.33069545 -0.16743699 0.8254972 0.13404866
0000e0 11 97 48 3e 9a cc 54 3f ff d4 af be 41 00 21 be
       0.19588877 0.831247 -0.3434219 -0.15722753
0000f0 14 a7 9b be e3 14 79 be b9 2f 3d 3e ee af ae 3f
       -0.30400908 -0.24324374 0.18475236 1.364744
000100 1b 17 27 3c b7 99 f0 be b6 dd 99 be ff 98 fa 3e
       0.01019838 -0.46992275 -0.30051965 0.48944852
000110 f5 a7 2f 3f 96 60 14 be e0 56 11 be 31 b1 3b 3e
       0.6861566 -0.1448997 -0.14193296 0.18329312
000120 e6 ae 5a 40 71 e0 36 3d 03 d4 88 bc 84 81 bf 3d
       3.416925 0.044647638 -0.016702658 0.09350875
000130 17 e2 13 bf 47 25 ab 3e fc 16 b1 bd f2 3d 69 3e
       -0.5776686 0.33426878 -0.08646962 0.22777537
000140 64 65 35 be 04 ad 37 3f 2f e7 e0 3e 0f cf 82 be
       -0.17714459 0.71748376 0.4392638 -0.25548598
000150 2b 3d 82 be 4d 56 92 3e cc 88 40 3f ba 62 75 3e
       -0.25437292 0.28581467 0.75208735 0.23963442
000160 40 45 b0 bd e2 bb ec be 0e e4 ab 40 56 96 4e be
       -0.086069584 -0.46237093 5.3715887 -0.20174536
000170 b6 31 09 3f d9 94 16 3e ca 33 78 bc 59 f8 cb bb
       0.5359148 0.14705218 -0.015149066 -0.0062246737
000180 3c 7e dc 3d 5b c0 6e be 3f 6f 68 bd 24 f6 32 c0
       0.10766265 -0.23315565 -0.056746718 -2.7962732
000190 43 aa 71 3e 7e c3 c5 3e 4b d1 ca bd 4b 6a 87 3e
       0.23600106 0.3862571 -0.09903201 0.26448283
0001a0 b9 11 0f 3e 2e 07 87 be c8 4c 12 3d 86 e7 a3 be
       0.13971604 -0.26372665 0.035717756 -0.32012576
0001b0 bf eb cf bf 30 f6 e4 3d 8f 71 89 be 33 ec 66 be
       -1.6243819 0.11179769 -0.2684445 -0.2255104
0001c0 9f e0 03 3e a7 3b 11 bf f0 fc 34 be 43 1e 93 be
       0.12878655 -0.5673165 -0.17674613 -0.28734025
0001d0 71 bb 36 3d 4d b1 c8 bf 47 78 4b 3a 63 0b 18 bf
       0.04461235 -1.5679108 0.0007761758 -0.59392375
0001e0 cb 5f e1 be 14 be fc bd 9c b9 55 3f 60 52 41 bd
       -0.44018397 -0.12340942 0.8348634 -0.0471977
0001f0 83 5e 26 be 71 be 29 3d ac 49 bd 3e 65 f5 67 3e
       -0.16246991 0.041441385 0.3697027 0.22652204
000200 c8 c5 af be a4 03 6d be e5 34 9d 3e 62 d9 77 be
       -0.34330583 -0.2314592 0.30704418 -0.24204019
000210 b9 28 8a 3e 50 53 9b 3d 5f 8f 04 be 2a 6e e1 be
       0.26984194 0.0758425 -0.12945317 -0.4402936
000220 a0 30 36 be e8 ad 27 bd 87 60 2a bf c2 cb c4 be
       -0.17791986 -0.040937334 -0.6655354 -0.38436705
000230 a9 6a 8e be a5 4a 8b 3e da 87 24 3e aa 5d 62 be
       -0.2781575 0.27205387 0.16067448 -0.22106043
000240 3d 13 1c bf b2 9b 04 bf 49 cc b5 bd 67 11 c7 3e
       -0.60966855 -0.5180007 -0.08876855 0.38880464
000250 e5 24 d0 be 1d 92 d4 bd d8 6f 61 bd fc 77 bc bd
       -0.40653148 -0.103794314 -0.055038303 -0.09202573
000260 56 5e d7 3e 6a 4a bb bf 8d a7 16 bd 37 f6 4b bf
       0.4206416 -1.4632084 -0.036780883 -0.7967257
000270 63 98 c9 be 01 ae 3a bf a6 56 bc bd a6 74 51 be
       -0.39374074 -0.7292176 -0.091962144 -0.20454654
000280 de 38 3a 3e 80 8d 8f be 10 b3 aa bf 25 7a fb be
       0.18185756 -0.28037643 -1.3335896 -0.49116626
000290 96 0c fa bd 86 66 b7 be ab 5e 95 3e f3 8d 8e 3f
       -0.12209432 -0.35820407 0.29173788 1.113707
0002a0 00 aa 1a bd f3 69 03 be 6a e9 e0 3d 2b cc f9 3f
       -0.03775978 -0.12833385 0.1098202 1.9515432
0002b0 74 02 86 be 3a fa 91 3f 83 0b db be d1 eb fb be
       -0.26173747 1.1404488 -0.4278222 -0.4920335
0002c0 65 92 4c 3f b5 60 95 3e 26 16 eb bd 89 a4 a3 bd
       0.7991088 0.29175344 -0.11478834 -0.07990367
0002d0 3d 88 31 bf b5 24 4e 3e 2d 8c f7 be 05 14 66 3e
       -0.6934851 0.2013119 -0.48349133 0.22468574
0002e0 35 f2 b6 be 14 be 46 bf 69 0d a3 3e 19 fe 89 3e
       -0.35731664 -0.77633786 0.3184617 0.26951674
0002f0 6f ce 34 3d 5e f1 d8 3f 97 7a d2 3e de ba d5 3e
       0.044142183 1.694866 0.41109154 0.4174413
000300 90 2b 0f bf 1a e2 0d bf 84 e5 c2 bc 08 8a 7f be
       -0.55925846 -0.5542313 -0.023791082 -0.24954998
000310 9e 0c 9d be 98 db 5f 3d 67 48 d1 3f 2c 2c 74 3e
       -0.3067369 0.05465278 1.635022 0.23844975
000320 20 8d d2 be 61 a9 03 3e f8 d9 e1 bd 25 73 61 be
       -0.41123295 0.12857582 -0.11027902 -0.2201658
000330 39 25 a6 3e 42 09 23 3e 0d 31 d5 be 21 d7 12 40
       0.32450274 0.159215 -0.41638985 2.2943804
000340 a5 52 8c 3e f2 6c 4b be 5a 1d 96 bd 35 8f 7a be
       0.27406803 -0.19865778 -0.07329817 -0.24468692
000350 29 96 15 bf 22 b8 41 3e 1b 89 a6 3e cf 6d 58 bd
       -0.5843225 0.18917897 0.32526478 -0.052839097
000360 8a c4 58 c0 81 99 b9 3e a1 12 86 3f 79 02 67 bd
       -3.3869958 0.36249927 1.0474435 -0.056398842
000370 39 f8 c9 3e e2 59 b7 3b a6 c2 bd bd 88 55 16 3d
       0.3944719 0.0055954317 -0.09265642 0.036702663
000380 5b b3 6f be 1c b5 da bf 75 ac 5e 3d 31 f5 a3 be
       -0.23408262 -1.708652 0.054363687 -0.32023004
000390 40 5b 02 be a8 63 46 bf db d6 35 bd 78 98 84 be
       -0.12730122 -0.77495813 -0.044394355 -0.25897574
0003a0 59 2d 8d 3e 69 c3 22 3d 84 d8 22 40 65 34 15 be
       0.2757366 0.03973714 2.544465 -0.14570768
0003b0 29 cb c8 3e 24 6b 8e bc 9b 67 09 be ac 3b 84 3c
       0.392175 -0.017385073 -0.13418429 0.016141735
0003c0 9a d3 89 be 40 a8 1c bd 86 85 92 3d 3b e1 d0 be
       -0.26919252 -0.038246393 0.07154374 -0.40796837
0003d0 49 b8 40 bd d4 c8 4f bd 35 b4 17 be c7 e6 19 bf
       -0.047050748 -0.050728634 -0.14814837 -0.60117763
0003e0 c8 71 a8 be 36 6c 2c be f0 05 c3 3d 16 2a 51 3e
       -0.32899308 -0.16838154 0.09522617 0.20426211
0003f0 43 41 68 bf 40 bc 9a 3e dd 07 06 3f da ff 0b be
       -0.9072458 0.30221748 0.5235575 -0.13671818

fc1.bias f4 [256]
000000 1c 07 b8 3d b1 63 50 3e 97 9d a8 be 40 15 c1 be
       0.08985731 0.20350529 -0.32932732 -0.37711525
000010 85 f9 b8 bd a8 27 41 be 18 fb 80 be aa e0 6e 3d
       -0.09031967 -0.18862784 -0.2519157 0.058319725
000020 ad 0c b3 be 14 c9 05 3e 8c cc 6a 3e 0f 7e 87 be
       -0.34970608 0.13064986 0.22929591 -0.26463363
000030 52 f6 c4 bd 95 51 2f be e9 31 ab 3d 16 5d b8 3e
       -0.09617294 -0.17120965 0.08359129 0.3600852
000040 56 22 58 3e 83 8a 19 be 69 22 83 be f3 38 8c bd
       0.21106848 -0.14994244 -0.2561219 -0.068468
000050 72 c5 22 bd 41 5f c1 be 72 49 9f 3d 9f e9 21 bd
       -0.03973908 -0.37767985 0.077776805 -0.03952944
000060 39 52 e7 bd bc 25 82 be 01 67 d9 3e df 6c 72 3e
       -0.112949796 -0.25419414 0.42461398 0.23674344
000070 70 d3 65 bc 9c c7 b3 3e cf 49 c4 be 9e e8 c0 be
       -0.014027461 0.35113227 -0.3833756 -0.37677473
000080 d3 dc 96 3d 46 71 a6 be 73 9a 84 3d 47 fe 7c be
       0.073663376 -0.32508296 0.06474771 -0.24706374
000090 46 8b 50 bd ed 37 ed 3c d4 a1 3e 3a c3 91 6b bd
       -0.05091407 0.028957332 0.0007272039 -0.057512056
0000a0 03 81 d1 bd 14 b5 70 bd 81 2e 29 be 29 ed a2 3d
       -0.10229685 -0.05876644 -0.16521646 0.07955391
0000b0 79 b6 10 be 4f 19 b9 3d 9f 40 4c be c9 18 e0 3d
       -0.14132108 0.0903803 -0.19946526 0.109422274
0000c0 0f 1b fa be 1d 55 30 3c 5c 6b 83 be 12 d2 a2 bd
       -0.4884877 0.01076248 -0.25667846 -0.07950224
0000d0 35 f3 2c 3e 58 d3 8c 3e 76 a3 b8 bd f7 cc 86 be
       0.16889651 0.27504992 -0.09015553 -0.2632825
0000e0 8e d7 bc be f1 4d 98 3e 40 7b 37 bc 1a 65 8b bd
       -0.36883205 0.29746965 -0.011198819 -0.06806393
0000f0 17 16 4e bd d1 44 11 3d 45 a0 92 bd e1 35 8c 3d
       -0.050314035 0.03546602 -0.07159475 0.06846214
000100 29 e3 82 3c 57 54 8e 3e 36 b2 ea bc 87 05 91 bd
       0.015977459 0.2779872 -0.02864943 -0.070811324
000110 c5 92 92 3d 1f 90 99 be 9c 7e 96 bc 6c 35 49 be
       0.071569 -0.29992768 -0.018370919 -0.19649285
000120 f6 da cd be fe 95 52 3e a2 ec b4 bc 95 31 6b 3d
       -0.40206116 0.2056503 -0.022085492 0.057420332
000130 5a bd b0 be 67 00 d5 bd 56 de 86 be ea e6 83 3e
       -0.34519464 -0.10400467 -0.26341504 0.2576211
000140 86 56 c4 be 3e 77 74 bd e7 01 2a bd 83 ff c1 3b
       -0.38347262 -0.05968403 -0.04150572 0.005920352
000150 5a 13 23 3b 08 0b 8d be 10 0a 99 3e a7 4c b8 3d
       0.002488336 -0.2754748 0.2989049 0.08998995
000160 8a 2a 61 3e 50 27 c5 be 9e 23 8d 3b 7e d9 5a be
       0.21988884 -0.38506556 0.0043072244 -0.21372029
000170 da 7b 06 bd 7b d9 ea ba b8 f2 1b be 59 2b 89 3d
       -0.032832958 -0.0017917597 -0.15229309 0.06697721
000180 67 8b e7 3d 65 a4 94 3d 2e 04 19 bd c7 7c 97 3e
       0.11305886 0.07257918 -0.0373575 0.29587385
000190 99 bc 99 bd 87 eb 50 3e 26 ad c7 be 1f e8 48 3e
       -0.07506675 0.20402347 -0.3899929 0.19619797
0001a0 cc cf 8f 3d f0 bf 5c be 27 da 5c 3d d8 27 90 bc
       0.07022056 -0.21557593 0.053918984 -0.017597124
0001b0 ea 68 86 be 14 b2 c9 3e 09 3b ca 3c 29 c1 d4 3e
       -0.26251918 0.39393675 0.024686353 0.4155362
0001c0 fa 3c 14 be 3d 53 10 be 21 77 8d be 4e 23 c6 be
       -0.14476386 -0.14094253 -0.2762995 -0.3869881
0001d0 7b b4 b5 bd 29 1f 9d 3e d1 d4 bb 3e 76 35 16 3e
       -0.088723145 0.30687836 0.36685804 0.14668831
0001e0 20 e5 65 bd c0 9b 29 be f5 03 bf bc 88 8d a0 3d
       -0.056126714 -0.1656332 -0.023317317 0.07839495
0001f0 95 63 9d be 47 01 08 3d 77 f5 5d 3e 81 c5 93 be
       -0.30740038 0.033204343 0.21675669 -0.2886162
000200 55 4e 8b 3d 32 20 01 3e 13 a7 2e be af d7 29 bd
       0.0680205 0.12609938 -0.17055921 -0.041465458
000210 d1 83 e1 be 91 ac 96 be 6b 9d b4 3d 4f c4 51 3e
       -0.4404588 -0.29428533 0.088190876 0.20485042
000220 9d e6 a4 bd e9 14 e6 be 1a c1 cc 3d 48 bb 98 bd
       -0.080517985 -0.44937828 0.09997769 -0.07457596
000230 12 b8 a0 3e dd 0f ac be 97 93 c4 3e 8b 41 94 be
       0.31390435 -0.33605853 0.38393852 -0.28956255
000240 40 bc bc bd 59 98 95 be a8 ab e5 bc d6 34 c4 3d
       -0.09215593 -0.29217795 -0.028035954 0.0958039
000250 ee 5b 45 3e 4a 6d b4 be 05 5e f3 bc 80 d7 0d 3e
       0.1927335 -0.3523963 -0.029707918 0.13851738
000260 d6 69 f2 3d f0 79 a1 be 5b 38 b6 3e 7d 14 88 bd
       0.11836593 -0.31538343 0.3558987 -0.06644533
000270 c2 83 a3 3e fc 2a 19 3b 5b df d9 3e 3f d6 75 3d
       0.3193646 0.0023371568 0.4255322 0.060018774
000280 46 4f a1 be 8c ba 87 be 14 66 f3 bd 50 88 77 be
       -0.31505793 -0.2650951 -0.11884704 -0.24173093
000290 83 3e f1 3d d1 0b a7 3c 02 2b d1 be 85 a8 8c 3d
       0.11779501 0.020391377 -0.40853125 0.0686808
0002a0 40 2f 2e be f5 5c 16 be 73 fe 77 be f1 ff cf 3e
       -0.17010212 -0.14683898 -0.24218158 0.40624955
0002b0 9f 92 d5 be 76 91 16 3e 55 8e cd be 5e 88 5c 3e
       -0.41713426 0.14703926 -0.40147653 0.21536395
0002c0 26 65 3e 3e 3b 7f bc 3d cc 1a 95 3e fd 1f 8a 3e
       0.18593273 0.09203955 0.29122007 0.2697753
0002d0 d5 72 90 be 3d ee ab be ee ce 46 bc ac d6 7f be
       -0.2821261 -0.335802 -0.012134297 -0.24984235
0002e0 70 dd 16 3e ae 8c 80 3e ba bc 3f be dc be 8f bd
       0.14732909 0.2510733 -0.18724337 -0.070188254
0002f0 b2 d6 99 3e 7c ff 5e be 09 ec b4 be 62 6f 7e 3e
       0.30046612 -0.21777147 -0.3533633 0.24847177
000300 20 07 35 be a4 d0 98 be 37 25 54 3b 72 ab a9 be
       -0.17678499 -0.2984668 0.0032370815 -0.33138615
000310 6d 88 73 3c bb 97 62 3d c3 c1 a4 be 28 2d a3 3e
       0.014864069 0.055320483 -0.32179078 0.3187039
000320 be 88 22 bd 69 c2 9a be 83 00 ce 3c 87 e9 87 bd
       -0.03968119 -0.30226448 0.025146728 -0.06636339
000330 51 6f 15 3e 42 7a 21 be 65 ab 3e be bc 41 54 be
       0.14593245 -0.15769294 -0.1862007 -0.207282
000340 e4 0a 23 be 60 53 35 be 83 31 d8 3e 35 cf 3a 3e
       -0.15922123 -0.17707586 0.42225274 0.18243106
000350 d5 e5 2f bd 9d af 77 3e 60 b8 19 3e 4c a6 5a 3e
       -0.042943794 0.24188085 0.1501174 0.213525
000360 59 e8 91 3e f8 89 b1 3d 96 7b 40 3e 8a 60 a7 be
       0.2849758 0.086688936 0.18797144 -0.3269084
000370 c2 e7 02 3e 5f fa e1 3d 56 4f 86 3e 54 a0 0a bd
       0.12783721 0.110340826 0.26232404 -0.033844307
000380 2a 44 5f be 94 87 f0 bd cc a5 c1 bd 26 80 03 bf
       -0.21803346 -0.117446095 -0.09455451 -0.51367414
000390 5e 1e a4 3e 8c 89 da 3d 92 fb 05 3e 88 69 d6 3d
       0.32054418 0.10670766 0.13084248 0.10469347
0003a0 57 4a ba 3d 59 88 ff bb 7f fd 40 3e ba 26 18 be
       0.090962104 -0.0077982363 0.18846701 -0.14858523
0003b0 41 44 8f bd 2b 14 d3 3d 51 af 37 be 06 7c cb be
       -0.0699544 0.10306581 -0.17937972 -0.3974306
0003c0 77 86 24 3d 00 f0 a9 be e7 50 cd bd 1f b8 3c be
       0.0401673 -0.33190918 -0.100251965 -0.18429612
0003d0 78 47 1b be a1 98 9a bd 11 7e c5 bd 23 89 1c be
       -0.15163982 -0.07548643 -0.09643186 -0.15286689
0003e0 72 81 2b 3e a1 bb 92 bd f9 5d e2 bd b0 25 94 bb
       0.16748598 -0.071646936 -0.1105308 -0.0045210943
0003f0 fc b2 dc 3c ce ce b8 3e e4 79 ac bd 91 b6 93 3d
       0.026940815 0.3609528 -0.08421686 0.07212556

fc2.weight f4 [256, 256]
000000 ac 2d 77 bd 7b ce c1 3b a2 df 41 3d 08 83 e9 bc
       -0.06034629 0.005914507 0.047332413 -0.028504863
000010 03 86 99 bd e0 97 5f bb 00 1d c6 3b e5 70 13 bd
       -0.07496264 -0.0034117624 0.0060459375 -0.035996336
000020 20 b2 ba 3c 74 d4 84 3c a8 64 32 bb 88 5f 72 3d
       0.022790015 0.016214587 -0.002722064 0.059173137
000030 70 55 31 3d ef 80 04 3d f3 a3 90 bd 4a 30 9b bd
       0.04329437 0.032349523 -0.07062521 -0.0757757
000040 41 29 d4 bc 28 fa 2e 3d 46 0b 5c bd 44 d7 9a bd
       -0.025898578 0.042719036 -0.05372169 -0.0756059
000050 ea db 3c 3d d5 d1 23 bc 92 a0 44 bd 65 6d 3b bd
       0.046108164 -0.009998758 -0.048004694 -0.045758624
000060 50 3a f0 bb 0c 17 5e bd f7 5f 19 3d bc 65 11 3d
       -0.00733117 -0.054221198 0.037445035 0.035497412
000070 e4 d9 e7 bc c6 c8 57 bd f8 20 0f bd 24 8a b7 bc
       -0.02830214 -0.052681707 -0.03494355 -0.022404738
000080 8e fe 41 3d fc ca c8 3c ca 8b 63 bd 54 e0 21 3d
       0.047361903 0.024510853 -0.055553235 0.039520577
000090 30 ec b0 3b 70 20 d9 bc 67 5a 7b bd c0 07 7b bb
       0.0053992495 -0.026504725 -0.06136551 -0.003830418
0000a0 b8 65 b1 bc 96 0b 12 3d 78 21 e0 bc 59 ab 2a bd
       -0.021654949 0.03565558 -0.02735971 -0.041667316
0000b0 d0 62 05 3d 35 46 09 3d 02 b0 2e bd c4 12 42 3d
       0.032564938 0.03351422 -0.042648323 0.047381178
0000c0 d0 15 f3 3c 26 9c 1d bd dc 4f b3 3c b7 0e 94 bd
       0.029673487 -0.038478993 0.021888666 -0.07229369
0000d0 80 70 dd 3b 16 66 2f 3d 66 b8 7b bd dc 05 7f 3d
       0.006757796 0.042821966 -0.061455153 0.062261447
0000e0 7e dc 20 bd 4b 75 e7 bb 60 e2 34 bd d8 49 52 bd
       -0.039272778 -0.007063543 -0.0441612 -0.051339954
0000f0 3e 85 9a 3c c0 bc 2a 3d 70 88 db bc 64 c4 b6 3c
       0.018862363 0.041683912 -0.026798457 0.022310443
000100 db a0 89 bd d2 5e 91 bd 36 22 07 bd ee 25 34 bd
       -0.06720134 -0.07098164 -0.03299161 -0.043981485
000110 ef b0 33 bd c0 42 ff 3a f6 54 81 3b 48 bd ea 3c
       -0.04386991 0.0019474849 0.0039468957 0.02865471
000120 d0 7b b7 bc 23 a4 97 3c a0 c2 40 bc 24 3a b3 bc
       -0.022397906 0.018510884 -0.011765152 -0.02187831
000130 88 fe a1 3c f0 91 45 bd f8 8a 7d bc 8a 1f 3d bd
       0.01977469 -0.04823488 -0.015475027 -0.046172656
000140 48 90 89 3c 74 8b 36 3d 09 30 9d bc fa c4 59 bb
       0.016792431 0.044566587 -0.019187944 -0.003322898
000150 8a c6 14 bc 7c 83 5f 3d fc e0 6f bd b1 84 54 bc
       -0.0090805385 0.054568753 -0.05856417 -0.012971089
000160 10 1b 07 bd 98 72 3a bd 18 d7 a4 3c 0e 72 36 bd
       -0.032984793 -0.04551944 0.020122096 -0.044542365
000170 78 38 c2 3c 41 97 58 3b 50 ce 16 bc b4 dd d7 3a
       0.023708567 0.0033049139 -0.009204462 0.0016469271
000180 d9 79 9a bd ce 7c 82 bd dc 72 54 bd 7c da 8e bd
       -0.07542772 -0.06371461 -0.05186735 -0.06975266
000190 40 cf de 3c cb 61 17 bd e0 77 bf 3b e1 67 90 bb
       0.027198434 -0.036958497 0.0058431476 -0.0044069146
0001a0 9c 8b b2 3c dc db 58 3d 40 9e ab ba 33 59 32 3d
       0.021795087 0.05294405 -0.0013093427 0.0435421
0001b0 4c 91 94 bc d6 6d 89 bd c0 04 96 3c 6f 7a 20 3d
       -0.01813569 -0.06710403 0.018312812 0.03917926
0001c0 e6 8e 5e bd 78 67 15 bc 00 47 ec bb 18 3b 50 bc
       -0.054335497 -0.009118907 -0.0072106123 -0.012709402
0001d0 7a 0b 74 bd 53 9d ec bc 21 b7 1a 3d bc 24 f8 bc
       -0.059581257 -0.028883612 0.0377723 -0.030290954
0001e0 62 7d 7f bd 1a 45 7b bd 00 f0 a8 b9 da e4 1a 3d
       -0.062375434 -0.061345197 -0.0003222227 0.037815906
0001f0 c0 e8 24 bc bf 5c 3a 3d ab dd a7 3c 82 3c 28 3d
       -0.010065258 0.045498606 0.020491442 0.04107333
000200 3c d4 e3 3c f2 19 f0 3c 16 d1 60 bd 18 30 23 3d
       0.027811162 0.029309247 -0.0548869 0.039840788
000210 bc 08 a1 bc fc 7f 75 3d 29 24 93 bb 98 b8 a9 3c
       -0.019657485 0.05993651 -0.0044903946 0.020717904
000220 a6 b4 0b bd 18 f4 e9 3c 99 20 57 bc 48 74 53 3d
       -0.034107827 0.028558776 -0.0131303305 0.051624566
000230 ad 45 e6 3c f2 0f 19 bd bd 1e 6b 3c d0 ea 05 bd
       0.028109396 -0.037368722 0.01435059 -0.032694638
000240 f4 4e e5 bc 84 5b 4d bd 60 9f 5d bb c8 1f 60 bd
       -0.02799175 -0.050136104 -0.0033816919 -0.05471781
000250 c9 fa d6 bc d8 94 92 3c 06 12 4e 3d 22 d6 80 bd
       -0.02624263 0.01789324 0.050310157 -0.062908426
000260 77 85 7e bd 8e bc 40 bd 65 ff dd 3c 42 28 04 bd
       -0.062139 -0.04705482 0.02709932 -0.032264955
000270 cf 77 97 bd d8 4b bb bc 92 dc 4a bd b0 5d 40 bd
       -0.073958986 -0.022863314 -0.04952676 -0.046964347
000280 9d 02 a5 bc 00 39 12 bc 2c 7a 3b 3d 5f 65 5e bd
       -0.020142848 -0.008924723 0.04577081 -0.054295894
000290 ee 8a cc 3b 80 b8 e1 3b 67 07 b2 bc 80 6b 1e 3b
       0.0062421476 0.006888449 -0.021732045 0.0024172962
0002a0 fe 05 6d bd cc 9a 38 bd 00 34 f8 39 0f 3f c8 bc
       -0.057867043 -0.0450695 0.0004734099 -0.024444131
0002b0 c0 8e c8 ba 79 69 55 bd 00 5b a0 3c 57 50 43 bd
       -0.0015301332 -0.05210254 0.019574642 -0.04768404
0002c0 50 15 57 bc 40 88 02 3d dc 3b 51 3c 98 d1 54 bd
       -0.01312764 0.03186822 0.012770619 -0.051957697
0002d0 06 4a 39 bd 52 8c 36 3d 54 08 6a bd 78 84 16 3d
       -0.04523661 0.044567414 -0.05713685 0.036747426
0002e0 61 6e fa 3c 12 1c 20 bd e6 f9 65 3d f6 9a 03 bd
       0.03057021 -0.03908927 0.056146525 -0.032130204
0002f0 f0 c4 bb 3b 10 f0 bd bc a0 3c 3a 3b 4f d8 19 bd
       0.005730264 -0.02318576 0.0028417483 -0.037559804
000300 7a 9e c1 bc d8 bb 84 bc 68 fc 08 bd 04 db 44 bd
       -0.023635138 -0.016202852 -0.03344384 -0.048060432
000310 ad ff 96 bd 23 dd bd bc e4 0f 83 3c b7 d3 77 bd
       -0.07372985 -0.023176735 0.015998788 -0.06050464
000320 60 8c 63 3d e6 4e 4c 3d 43 52 95 bd 65 43 29 bc
       0.055553794 0.04987993 -0.07291081 -0.0103310095
000330 62 4f 48 bd 13 b6 34 bc 62 56 02 bd b0 a5 6a 3d
       -0.04890383 -0.011029738 -0.031820662 0.05728692
000340 80 6e 33 bd 7e 6b 43 3d 0b 64 0d 38 9a 29 15 bc
       -0.043806553 0.047709934 3.3710192e-05 -0.009104157
000350 4d d2 fa bc f0 6e 7f bc 80 b0 6f bb 1c 1e 25 bd
       -0.030617857 -0.015590414 -0.0036573708 -0.040311918
000360 6a 8d 14 bd aa 25 a9 bc 81 0a 21 bc 60 ed 2f 3b
       -0.036267675 -0.020647842 -0.0098291645 0.0026844367
000370 74 06 6f bd 5a 16 1d bd 68 84 97 bd 00 c0 00 37
       -0.058355764 -0.038351394 -0.07398301 7.674098e-06
000380 93 9b 8c bd 50 ea 79 bc 56 81 ad bc a0 3f 13 bc
       -0.06865611 -0.015253618 -0.021179836 -0.008987337
000390 d4 82 8f bd 51 16 36 3d a9 09 4b 3c ed dc 87 bc
       -0.07007375 0.044454876 0.01239244 -0.016584838
0003a0 b0 ee 15 3d 00 f8 1d bc 97 b8 8d bd a2 38 29 3d
       0.036604583 -0.009641647 -0.06919973 0.041313775
0003b0 73 94 12 3c 70 df 08 bd a0 3d cb bb c0 5a 54 3d
       0.008946526 -0.03341621 -0.0062024146 0.05184436
0003c0 11 65 1f bd 78 dc 75 bd 6f fb 7a 3c a0 49 39 3c
       -0.038914744 -0.06002471 0.0153187355 0.0113090575
0003d0 9d 60 2a 3d db 12 25 3d 4a 08 8d bd 9c a0 f7 bc
       0.041596044 0.040301185 -0.06886347 -0.030227952
0003e0 83 f8 d9 bc 8b 4f 12 bd 76 06 6a bd 7a f1 1b bd
       -0.026607757 -0.03572039 -0.057135068 -0.038072087
0003f0 d0 43 01 bd 7f 9d 0b bd 80 85 df bb 3a 09 2c bd
       -0.03155881 -0.034085747 -0.0068213344 -0.042000987

fc2.bias f4 [256]
000000 64 ae 0f 3c 53 6d ad be 88 4d a4 bd 92 f8 10 bd
       0.008769605 -0.3387247 -0.080226004 -0.035393305
000010 b9 5f c9 bd be 09 1d bd a0 1e 74 bd 38 b8 c9 3b
       -0.09832711 -0.03833937 -0.05959952 0.006155994
000020 23 52 ae bc 6a 44 3b bd 5d d2 fe bd a0 02 50 bc
       -0.0212794 -0.04571954 -0.12442467 -0.012695938
000030 94 ab fc bc 6c 0d 85 3c ed b1 29 bd d4 2c 18 3e
       -0.030843534 0.016241752 -0.04142945 0.1486085
000040 9e 97 01 3e 5d 23 83 bd 8d 59 99 bc c0 9f a8 bd
       0.12655494 -0.064032294 -0.018719459 -0.08233595
000050 8d fa 87 bb a8 69 68 bd 54 74 20 bd 9b 28 ae 3d
       -0.004149741 -0.056741387 -0.03917344 0.08503839
000060 37 66 8f 3d 98 89 0a 3e a5 92 8a 3d 1d 6a f9 bd
       0.07001918 0.1352905 0.067662515 -0.121784426
000070 dd 4f 39 bd e8 e3 5a bd d8 80 9b 3b f3 44 53 3c
       -0.04524218 -0.053440005 0.004745584 0.012894857
000080 c3 02 0f 3d 57 49 30 3d 47 5d ec bd ba 39 cd bc
       0.034914743 0.043038692 -0.11541229 -0.02505194
000090 f5 d3 9d bd 54 4a 7d bd ed 41 95 3c 39 81 18 3e
       -0.07706443 -0.061838463 0.018219912 0.14893045
0000a0 39 c9 c3 3c f7 e0 2b bd 53 e8 44 3b 58 c2 db 3d
       0.023899661 -0.04196259 0.0030045703 0.107304275
0000b0 c3 e8 f0 3d 38 74 e5 3c b4 c1 69 be 80 80 99 bd
       0.11763146 0.028009519 -0.22827798 -0.074952126
0000c0 e1 5b 61 bd bc 28 10 be cf 1c 9e bc 22 df 64 bd
       -0.055019263 -0.14078039 -0.019300846 -0.05587686
0000d0 fd ff 1e bd d0 1a 28 be e7 05 81 bc a1 c3 14 3d
       -0.03881835 -0.16416478 -0.015749885 0.03631938
0000e0 64 28 90 bc 63 a7 03 be 32 aa 6e bd 40 b8 cb bd
       -0.017597385 -0.12856822 -0.05826778 -0.09947252
0000f0 0c 40 d1 bd 49 f7 02 bd 9a 09 4a bd 74 4a 5d bd
       -0.10217294 -0.03197411 -0.049325563 -0.054026082
000100 4a a4 96 bd a4 d1 e0 3d cd ab 3c 3d da 63 c9 bc
       -0.073555544 0.10977486 0.04606228 -0.024583746
000110 ef 6f 26 bc 20 b6 16 3e 51 52 07 3d c7 d2 75 be
       -0.010158523 0.14717913 0.033037487 -0.24006186
000120 22 49 d0 3c 36 50 65 bd 27 a1 27 be 79 d1 01 be
       0.025425497 -0.0559847 -0.16370068 -0.12677564
000130 d4 bd 94 3b ab b5 48 bd a3 67 60 bd 7d 65 a5 3d
       0.004539231 -0.049001377 -0.054786336 0.08075998
000140 c6 ab 4f 3c c7 62 19 bc 39 06 a4 bc a4 5c 5f bd
       0.012675231 -0.009361929 -0.020022498 -0.05453171
000150 62 f3 23 3c a6 70 ea 3c 73 97 b4 bd 23 c1 3e 3d
       0.010006757 0.028618168 -0.08817949 0.04657091
000160 af 8d d5 3d 6d b2 b4 3c 74 4d 8a bd 1a 58 33 be
       0.104274146 0.022057736 -0.06753054 -0.17514077
000170 ba 09 6f bd 49 7f 16 3d ca 88 36 3d 50 ee a9 3c
       -0.058358885 0.036742482 0.044564046 0.020743519
000180 1d 01 97 3c e4 2f 2a 3c ab 6c 76 3d 1d 1b e5 bc
       0.018433148 0.010387395 0.060162228 -0.02796703
000190 a1 0b c6 ba ba 5f c3 bd d1 a3 16 3e 90 0b 88 be
       -0.0015109667 -0.09539743 0.14710928 -0.2657132
0001a0 58 f3 8f 3c 37 69 a0 bd 8d 3a 46 3c 14 ab f8 bd
       0.01757209 -0.07832568 0.0120989205 -0.121420056
0001b0 5b f4 9a bc 41 f8 3c ba 9d 53 24 bc 54 2b 3d 3d
       -0.018915346 -0.00072086236 -0.010029701 0.0461839
0001c0 27 8a 40 bc 63 b3 a4 3b 7e 35 9b bd 04 8e 12 be
       -0.011751688 0.0050262674 -0.07578562 -0.14311987
0001d0 d1 c2 29 3d e7 60 80 bd 18 10 92 bb ee c9 35 3d
       0.041445557 -0.06268483 -0.004457485 0.04438203
0001e0 3a 40 52 bd 3d aa 09 bd c9 ff 43 bc f0 69 6b bd
       -0.051330782 -0.033609618 -0.011962839 -0.057474077
0001f0 df 6a 80 3d 2b cf db 3c 82 bd 32 3d b8 6b 13 be
       0.06270384 0.026832184 0.04363776 -0.1439656
000200 7e d4 69 3d 8c 62 50 be 36 e3 cc bc cf cb 2f bb
       0.057087414 -0.20350093 -0.025010686 -0.002682436
000210 55 61 95 bd 87 b2 28 bc dd fa ca bd fe 0c bf bd
       -0.07293955 -0.0102964705 -0.099111296 -0.0932865
000220 fc b9 42 bd ef 13 9c 3c 96 7a b7 3c 4f a7 0d bd
       -0.04754065 0.019052474 0.02239732 -0.034583386
000230 b7 f8 32 be 19 ef 25 3d bf 25 ad 3c 0a 7e 33 3d
       -0.1747769 0.040511224 0.021136163 0.043821372
000240 9a f6 c4 3c 05 fc ad bd 34 fb 39 bd 43 d3 54 bd
       0.02404337 -0.084953345 -0.04540558 -0.051959287
000250 5a 48 5e bd 63 25 70 bd 44 fb 3b 3d 05 7b f7 bc
       -0.05426822 -0.058629405 0.045893922 -0.030210027
000260 7d 8a 46 bd fc e9 4a bd 01 67 dc bd 42 a6 3e 3a
       -0.048471916 -0.04953955 -0.10761834 0.0007272699
000270 98 52 7a bd 12 61 cd 3d fd b3 84 3d 1c 7a 26 bd
       -0.061113924 0.1002828 0.064796425 -0.040643796
000280 0c 4f 1d 3e d9 82 a1 bd 34 7a 13 3d d3 e8 a5 bd
       0.15362185 -0.07886285 0.036005214 -0.08101048
000290 b9 81 9c bd a9 36 22 be cd f6 b2 3d e9 28 7d 3d
       -0.0764193 -0.15841164 0.0873848 0.061806593
0002a0 91 ba 65 bd ae 98 ee bd d1 80 90 3d 54 52 60 bb
       -0.056086127 -0.11650215 0.0705582 -0.003422876
0002b0 35 d2 11 bd 0c a5 8a 3b e9 8e f3 bc d2 87 e3 3c
       -0.03560086 0.004231101 -0.02973123 0.027774725
0002c0 72 7c f6 bc 28 c1 df 3c 69 b6 02 bd 81 ef 66 bd
       -0.030088637 0.027313784 -0.03191224 -0.056380752
0002d0 02 96 15 bd 86 85 a4 bd 0d 68 b0 bd 65 b6 4b bd
       -0.03652001 -0.0803328 -0.08613596 -0.04973449
0002e0 0d f2 33 bd 71 92 4c be 89 76 10 3d b1 49 e4 bd
       -0.04393201 -0.19977738 0.035269294 -0.11146868
0002f0 86 21 1a bd 8b 35 c4 3d 41 a0 02 bc 1b 57 fa 3b
       -0.037629627 0.09580525 -0.007972778 0.0076397783
000300 85 b0 50 be 75 8a f3 3d 53 b2 9e 3b 48 7f f8 3d
       -0.20379837 0.11891643 0.0048430352 0.12133652
000310 33 53 4b 3c a9 76 32 3d 93 84 88 bc e7 93 0a 3e
       0.012409973 0.043570194 -0.016664779 0.13532983
000320 9b c2 82 3c c7 48 46 be cd f3 72 bd fe de 7a bc
       0.015961936 -0.193637 -0.059314538 -0.015311955
000330 f4 48 fc bd c2 b1 c0 3c 2a 63 53 bd fe 74 c1 3c
       -0.12318602 0.023522262 -0.051608242 0.023615357
000340 71 d6 8a bc d1 8b 93 3c bb 9a 98 bb 88 0d 1c 3e
       -0.016947957 0.018011006 -0.004657117 0.15239537
000350 86 f2 1a be 2e 12 d6 3a 54 cf 52 ba 71 91 96 3d
       -0.15131578 0.0016332322 -0.00080417586 0.073519595
000360 47 47 29 bd b5 47 26 3d b8 35 1c bd 49 74 3f 3d
       -0.04132774 0.04059573 -0.038137168 0.046741758
000370 0b d8 02 3d 12 d7 29 bd b8 44 95 bd 88 90 d2 3c
       0.031944316 -0.041464873 -0.07288498 0.025703683
000380 66 dc c8 3a 66 be cf be a9 ba d5 bc 26 e9 e3 ba
       0.0015324473 -0.4057495 -0.026089983 -0.0017388209
000390 05 e7 af be d5 57 b7 bd d5 9e 39 3d e9 4e 83 bd
       -0.3435594 -0.089522995 0.04531749 -0.06411535
0003a0 cc 27 9b bd 7e 64 9a bd 07 eb 2f be d0 3f 12 be
       -0.0757595 -0.075386986 -0.171795 -0.14282155
0003b0 ad 87 c6 bb 19 84 9f bc e4 38 06 bd a1 6e 9e 3d
       -0.0060586543 -0.019472169 -0.0327691 0.077359445
0003c0 2b b6 1e 3d 07 4a 34 bb bd d4 52 bd 7a 0d 8d bd
       0.038747948 -0.0027509944 -0.051472414 -0.06887336
0003d0 de 3d 01 bd aa fb fe bc 68 d5 18 3e 34 22 0a 3d
       -0.03155314 -0.031125862 0.14925158 0.033724025
0003e0 e2 1a cb 3b e2 f5 a5 bd db 7b e3 3c ec c6 f6 3c
       0.006198273 -0.08103539 0.02776902 0.03012415
0003f0 c1 ba 8e bd 1c fc 7c bd 61 46 01 3d e9 c5 b8 bd
       -0.06969214 -0.061763868 0.03156126 -0.09022123

fc3.weight f4 [128, 256]
000000 30 b5 83 bb b6 64 17 bd 39 01 f1 3c 40 85 92 ba
       -0.004019402 -0.03696128 0.029419528 -0.0011178628
000010 9f 5e bd bc e7 aa 64 3d 41 fd 3f bd 53 49 61 3d
       -0.023116408 0.055827048 -0.04687238 0.055001568
000020 26 c1 08 bd 74 47 27 bd ee d8 db bc 32 bd 0a bd
       -0.033387326 -0.040839627 -0.026836839 -0.033871837
000030 9b 20 2a 3c 96 a0 5b bd 1f 4c 6c 3c 50 f0 ff bc
       0.01038375 -0.053619944 0.014422446 -0.03124252
000040 f0 a6 89 3c a0 f6 fb bb 00 26 24 bd 41 ac 0b bd
       0.016803235 -0.007689312 -0.040075302 -0.03409982
000050 fa cd 52 bd 56 37 18 3d ad 17 db bc 01 fd 76 bd
       -0.051465966 0.037162147 -0.026744688 -0.060299877
000060 13 52 ef bc 7e 84 d8 3c f4 a3 4e bd 94 9e 32 bc
       -0.02921394 0.026430365 -0.050449327 -0.010902066
000070 47 87 d1 bb 60 d6 67 3b a9 75 55 3d 43 85 23 bc
       -0.0063943 0.003537558 0.052114163 -0.009980503
000080 f1 00 9c bd 58 5b 84 3c db 36 14 bb 5a 8f ad bb
       -0.07617367 0.016156837 -0.0022615704 -0.00529663
000090 2b 4e 5f 3d d0 ad 58 bc 36 c9 26 3c 36 0e 4d bd
       0.054517906 -0.013225034 0.010179808 -0.05006238
0000a0 d0 bc c0 3b 21 9b 4a bd 40 dd ce bb 70 24 94 bd
       0.005881883 -0.04946435 -0.006312996 -0.072335124
0000b0 5c 07 22 3d 00 38 a4 3c 05 48 79 bd 11 63 1c bd
       0.0395578 0.020046234 -0.0608597 -0.038180415
0000c0 74 58 3d 3d 33 db b7 ba 7f 18 32 3d d4 26 c6 bc
       0.046226934 -0.0014027118 0.043480393 -0.024188437
0000d0 30 2c 48 3d bf 33 57 bc 47 1c 05 3d e9 3c d7 bc
       0.048870265 -0.013134896 0.03249767 -0.026274161
0000e0 da ad 34 bd a8 27 36 3d d2 71 9c bc 29 a6 fc 3c
       -0.04411111 0.044471413 -0.019097243 0.03084095
0000f0 c7 de 76 3c 07 b6 a9 bc fa 15 d7 bb 70 6f b9 3c
       0.015067763 -0.02071668 -0.006563899 0.022636145
000100 9a 40 27 3d 82 34 ee 3a 5a c4 87 3d e4 f7 67 bd
       0.040833093 0.0018173608 0.06629248 -0.05663289
000110 c6 d5 95 3c 81 f9 52 bd 12 2f 14 3d 25 6f 4e 3d
       0.018290412 -0.051507477 0.036177702 0.050398964
000120 9e fe 21 3d 9a 5b 84 ba d7 fd e4 bc f8 ac 8f bc
       0.039549462 -0.00100981 -0.027953072 -0.017538533
000130 5f 4b 43 3d 2a a2 4a 3d 00 b7 b8 bc 24 42 1a bd
       0.0476793 0.049471058 -0.022548199 -0.037660733
000140 dc 9f ca 3c 69 30 5c 3c ca 56 63 3c fa 2d 83 bb
       0.02473443 0.013439276 0.013875673 -0.0040032836
000150 f4 dc 3e bd f5 ce 64 bd 68 a7 26 bd 7a 7a e1 3b
       -0.046597436 -0.055861432 -0.040686995 0.0068810554
000160 a4 a6 23 bc d6 cd 17 bd c1 10 2b bd 2a 6c 7e bd
       -0.009988461 -0.037061535 -0.041764025 -0.062114872
000170 26 a5 2e bc 56 e2 e5 bc 74 4d 4e 3d b6 18 07 bd
       -0.010659492 -0.028062027 0.050366834 -0.03298255
000180 6f 92 08 3d 54 19 dd bc c9 78 bc bd 7b 74 17 3d
       0.033342775 -0.026989616 -0.092027254 0.03697632
000190 87 55 6f bc 4e 1c 69 bd 2d fe d4 3c 2a 5d 31 3d
       -0.014607794 -0.05691176 0.026000107 0.04330174
0001a0 02 90 5a 3d ac da bd 3c f8 9c ad bc f3 23 3b bc
       0.053359993 0.02317556 -0.021193013 -0.011422145
0001b0 bc 82 4b bd f8 db c7 bc f6 03 18 3d 19 e1 e2 3c
       -0.049685225 -0.024396881 0.037113152 0.027695226
0001c0 40 56 3b 3c 60 df 55 bd 40 90 b3 bb fa 8a 21 3d
       0.011434138 -0.05221498 -0.0054798424 0.03943918
0001d0 b0 ac 6c bd 5a c6 ce 3c 6b 04 30 bd 20 cb 8d 3c
       -0.057781875 0.025241066 -0.042972963 0.017308772
0001e0 e4 2c 38 bd 91 ba 62 3c 9c ed 68 bd a6 2a 66 bd
       -0.044964686 0.013838426 -0.056867227 -0.056193016
0001f0 ac c2 b8 3b f6 6d 7f 3d 10 e9 35 3d 5b 8d fc bc
       0.005638441 0.062360726 0.04441172 -0.030829122
000200 32 59 26 3c b9 3b 83 bd 19 a6 5b 3c 30 c4 54 3c
       0.010153102 -0.064078756 0.0134063 0.012986228
000210 1a a9 49 3d fa 02 08 bc 03 f9 e3 3c b3 f3 58 3c
       0.049233533 -0.008301491 0.027828699 0.013241696
000220 0d 2a 8b bc 78 a5 56 bd 4f f2 26 bd c8 3f 20 3c
       -0.016987825 -0.052403897 -0.040758427 0.009780832
000230 89 b7 c8 bc 85 bd 2d bd ca ee ee 3a b0 99 11 bd
       -0.024501579 -0.042417068 0.0018229124 -0.03554696
000240 07 70 b9 bc 1f b3 2f 3c 20 71 e3 bc f2 be 3d 3d
       -0.022636427 0.010723858 -0.027763903 0.046324678
000250 24 e5 c5 bc 82 d8 04 bd f0 0a c6 bc d5 f8 b0 3c
       -0.024157114 -0.03243304 -0.024175137 0.021603027
000260 c0 c9 28 bb 88 63 ce bc 7f f4 a1 bd 34 c5 3b bd
       -0.0025755018 -0.025193945 -0.07907962 -0.045842364
000270 f0 0c 6c bc 29 7b 5f 3c aa 21 85 3c e0 1d 63 bb
       -0.014407381 0.0136402035 0.016251404 -0.0034655258
000280 d7 6d 55 3c 04 ae c1 bc e8 18 89 3c 98 38 73 bd
       0.013026676 -0.023642547 0.016735509 -0.059380144
000290 71 e1 a1 3c c5 a1 08 3c 52 73 64 bd ee 40 68 3d
       0.01976082 0.00833935 -0.05577404 0.056702547
0002a0 61 45 69 bd 54 0e 32 3b e8 c8 47 bd 92 39 49 3d
       -0.05695093 0.0027169185 -0.048775584 0.04912717
0002b0 42 04 0d 3d 0f d9 22 3d 7a db 2d bd 6a e1 63 3d
       0.03442789 0.039757784 -0.042445637 0.055634893
0002c0 50 da d5 3b bc a2 2b 3d b4 76 81 3c 6c a4 1b 3c
       0.006526269 0.041903242 0.015803672 0.00949965
0002d0 ae 5f 64 3d af 0c 92 bc 83 20 ff ba 3c 2f ae 3c
       0.05575531 -0.017828314 -0.0019464645 0.021262757
0002e0 86 33 1e bd 70 f8 bd 3c 85 3d ab 3a d2 71 95 bc
       -0.038623355 0.023189753 0.0013064599 -0.01824275
0002f0 ce 01 ce 3c 4f dd 0c bd 07 22 55 bd 88 d1 59 bd
       0.025147345 -0.034390744 -0.052034404 -0.05317834
000300 9d 12 65 bd 0e b7 94 bd ca a2 4d bd 88 01 7c bd
       -0.055925954 -0.072614774 -0.050204076 -0.061524898
000310 5b 65 ba bb b2 68 9c 3c 50 0c 90 bd 8b 9b 3b bd
       -0.005688352 0.019092891 -0.070335984 -0.045802634
000320 f7 05 d3 ba 72 eb 50 bd d3 e7 6b 3b 0c 67 95 3c
       -0.00160998 -0.05100579 0.0035996332 0.018237613
000330 e8 80 c5 bc a7 8c 41 bd 93 1f bf bc 46 79 1d bd
       -0.024109319 -0.047253277 -0.023330485 -0.038445733
000340 f0 70 4b bd 63 d4 66 3d 20 19 4b 3b a8 d2 80 bc
       -0.049668252 0.05635489 0.0030990317 -0.015725449
000350 40 26 05 3c 60 3e cb 3b ad 7a 11 bd ad b7 ff bc
       0.008126795 0.006202504 -0.035517383 -0.031215513
000360 2d 91 5d bc 69 34 c7 bb 70 5c ef 3b e7 c2 c6 bb
       -0.013523382 -0.006079246 0.0073047206 -0.0060657146
000370 66 a8 c1 3c 7d 79 98 3c a6 12 6a bd 08 82 f1 3c
       0.023639869 0.018612618 -0.05714669 0.029480949
000380 ec 24 b3 bc f0 e1 92 bc 70 ad db 3c c6 87 5a bd
       -0.021868192 -0.017930001 0.0268161 -0.05335214
000390 6f 0b 5b 3d dc fc b1 bc 56 d1 37 3c 99 65 0c 3c
       0.0534777 -0.021727018 0.011219343 0.008569145
0003a0 12 36 81 3d 00 98 f3 b8 a3 b5 cb 3c b0 03 78 3c
       0.06309141 -0.00011615455 0.024866885 0.015137598
0003b0 a4 c5 98 3c 53 44 ad bc e7 aa 53 3c 96 73 49 bd
       0.01864893 -0.021150744 0.012919164 -0.049182497
0003c0 59 9b 1b 3d b6 3a d0 bc ba 25 c4 3c 6c 88 13 bd
       0.037989948 -0.02541862 0.02394377 -0.036018774
0003d0 f8 d4 61 3d 58 f3 c3 3c 78 12 06 3d 21 45 c9 3c
       0.055134743 0.023919746 0.032732457 0.024569096
0003e0 a7 07 9e 3c 10 00 fe 3b 8d 3f 9e 3d 4c 27 de bc
       0.019290758 0.0077514723 0.07726965 -0.027118348
0003f0 2e 54 ae 3c 66 85 70 bd 89 75 95 bc 95 06 21 3c
       0.021280374 -0.05872097 -0.018244522 0.009828229

fc3.bias f4 [128]
000000 06 a6 7a 3c c2 4f de bb 81 a5 88 bd 30 5d 5c be
       0.015298372 -0.00678441 -0.06672192 -0.21519923
000010 e3 0e 1f bd b6 90 e9 bd ef 87 08 bd 76 82 91 3c
       -0.038832556 -0.114045545 -0.03333276 0.017762404
000020 cb b3 38 3b b9 d2 38 3e 78 41 b7 3d ce fc 80 bc
       0.0028183337 0.18049134 0.08948034 -0.015745547
000030 1e c6 a9 3a 23 3a ad 3c 64 af b4 3c 69 08 5f be
       0.001295272 0.021145886 0.022056289 -0.21780552
000040 ef d3 73 bd 33 dd 18 3e 0e 64 4b 3d 90 a4 61 be
       -0.059528288 0.14928131 0.049655966 -0.22035432
000050 8b 91 ec 3b f5 4d 59 bd d7 28 83 3c fa cb d6 39
       0.0072194985 -0.05305286 0.016010685 0.00040969235
000060 75 3a c5 3d 02 ed d0 bc cd cf e4 bc 2a 74 10 3d
       0.096302904 -0.02550364 -0.027931118 0.035267033
000070 57 c4 cf bd 1b 2b 82 bc cd e3 2c be bf 20 0c bd
       -0.10144871 -0.015889695 -0.16883774 -0.034210917
000080 99 55 48 bd 1e b8 48 bb ba fe 6a 3e 8d ee 37 3e
       -0.048909757 -0.003062732 0.22948733 0.17962094
000090 42 83 19 be 68 c3 85 bd b7 2b 2b 3d 6d b9 9b bc
       -0.14991477 -0.065314114 0.041789737 -0.019009316
0000a0 1a 92 1b 3d 6f 9f 0e bd a7 83 6c bd c2 39 3a bd
       0.03798113 -0.034820016 -0.05774274 -0.04546524
0000b0 66 e1 02 3e 09 8c 6d bd 86 3a 22 bd da de 13 3d
       0.12781295 -0.057994876 -0.039606594 0.0361012
0000c0 da bb 1b 3d a3 10 15 3c 52 0b 37 bd 2e 86 96 3c
       0.038020946 0.009098205 -0.04468853 0.018374529
0000d0 79 5c 56 3e 11 e6 74 3d 1c 80 90 3d 25 8b 86 bd
       0.20933713 0.05978972 0.07055685 -0.065695085
0000e0 19 4f 91 bc 71 77 dd bd ab f4 4c bd 64 fc 81 3e
       -0.017737912 -0.10813797 -0.05003802 0.2538787
0000f0 d5 1c 3e 3c 7e 1d a5 bd a5 24 71 be 71 89 ba bd
       0.011603554 -0.08062266 -0.23549135 -0.09108246
000100 20 78 a4 bd 68 b5 0c 3d d3 e0 81 be c3 1e 9f bb
       -0.080307245 0.03435269 -0.2536684 -0.004855962
000110 d6 6f 0a be 94 56 c5 bd d2 f3 01 bc bb a9 30 3c
       -0.13519225 -0.09635654 -0.007931666 0.010782654
000120 b0 df 1e 3d c3 78 3e 3e 7d 52 a3 bc 53 7a 5b bd
       0.038787544 0.18600754 -0.019936794 -0.053583454
000130 76 33 da 3d d0 c7 da 3d 32 0e 92 3b ab 88 2c bd
       0.10654347 0.106826425 0.0044572586 -0.042122524
000140 17 79 1d bc 99 3a 31 3d f5 46 d5 3b 08 38 bd 3b
       -0.00961139 0.043268774 0.006508703 0.0057745017
000150 3e 0c d7 bb 7a ed 9b bc 99 1f c8 bc 45 a6 9f be
       -0.0065627387 -0.019034136 -0.02442913 -0.3118154
000160 9e d6 b0 bc 52 86 45 bd 8f de 4b be ba b8 c3 bc
       -0.021586712 -0.0482238 -0.19909118 -0.023891795
000170 7e fb 96 3e bf 23 ce 3c c6 56 f4 bc b6 98 a1 bd
       0.29488748 0.02516353 -0.029826533 -0.078904554
000180 31 ca 4e bd 48 ba 65 bd c9 d1 6b bc ab 45 0b 3e
       -0.050485794 -0.056085855 -0.014393278 0.13600795
000190 a7 6a 2b bd 2e 91 2a 3c 03 58 47 bd 7b 65 e1 bc
       -0.04184976 0.01041059 -0.04866792 -0.02751421
0001a0 c2 65 f1 b9 09 41 a6 3c 5c 9b 95 3c ea b6 5d bc
       -0.00046042918 0.020294683 0.018262558 -0.01353238
0001b0 36 77 a5 bd ac 36 6c bd a9 7a b7 bb c5 8f 93 bc
       -0.08079378 -0.057669327 -0.005599339 -0.01801289
0001c0 22 a2 33 bd 2c fd c2 3c c1 58 6b bd fa 28 48 3e
       -0.043855794 0.023802362 -0.05745769 0.19546881
0001d0 f1 5b 1b 3e 9b 79 b0 3c 89 9b 48 3e 8e a2 a3 ba
       0.15171792 0.021542361 0.19590582 -0.0012484358
0001e0 88 96 3e 3d 55 ae bb 3c 07 e3 3a bb 45 46 72 3c
       0.046530277 0.022910276 -0.0028516666 0.014787261
0001f0 40 eb 6c 3d fd 36 0a bd 9e 98 d3 bc 42 d6 97 3c
       0.05784154 -0.033743847 -0.02582961 0.018534783

fc4.weight f4 [5, 128]
000000 ed e1 af 3b 60 ba e1 3c 64 b2 4d bd 9c fa 2b bf
       0.0053675086 0.02755469 -0.050218955 -0.67179275
000010 b6 a7 83 bf 42 d4 2d bf d1 db c0 3e b7 31 4b 3c
       -1.0285556 -0.67902005 0.37667707 0.01240199
000020 2d 43 35 bc 01 e5 21 3f ac a7 f7 be d7 01 24 bd
       -0.011063379 0.6324006 -0.4837011 -0.040040817
000030 db 45 77 3d 4c 87 b6 3e 0a 2c c7 3e 45 44 52 bf
       0.060369354 0.35650098 0.38900787 -0.8213542
000040 86 3a 79 3f a0 18 15 bf 7f b1 8d be 8c 53 25 bf
       0.97354925 -0.582407 -0.2767448 -0.6458061
000050 47 7b e2 bc 0d c9 26 3d ed 6a 28 3d 9c 23 d3 3d
       -0.027646674 0.04071908 0.041117597 0.10309526
000060 a5 80 04 3f 09 70 1c bd 82 5b 48 3d 8b 95 00 3c
       0.51758796 -0.038192783 0.048915394 0.007848154
000070 ad 68 39 3f 06 1c 0a 3e f6 6f 22 bf 6f 36 80 3d
       0.7242535 0.13487253 -0.6345209 0.062603824
000080 6b 30 d7 3e c3 8d 1e 3d 2e 0d 0e bf fe 39 f9 be
       0.42029127 0.038709413 -0.5548886 -0.48677057
000090 18 eb 34 bf ba 17 1f 3c ce 67 0b 3d 39 c2 2e bd
       -0.70671225 0.009710247 0.034034543 -0.042665694
0000a0 fb f3 d3 3e 75 7a 25 bf 35 5d af 3c a5 f1 87 3d
       0.4139708 -0.6463998 0.02140675 0.06637887
0000b0 63 ea 80 bf c1 ef 95 3d fe 72 18 3d 0f 49 60 bf
       -1.0071529 0.0732112 0.03721904 -0.8761148
0000c0 a5 17 a0 3d 01 3b 86 3d 40 13 c3 3e 07 bc fa bc
       0.0781701 0.06554223 0.38100624 -0.030607237
0000d0 00 c6 13 bf 91 08 03 3f ce 5a 5c bf 11 87 78 3d
       -0.57724 0.51184946 -0.86076057 0.060675684
0000e0 5c 87 e3 3b 7b 4f 22 bf 9d 9f 8b 3d f4 7d 06 bf
       0.0069436263 -0.6340253 0.06817553 -0.5253594
0000f0 13 2c d9 bb d7 14 1f 3d 37 d1 0c bf 77 cc 7c 3d
       -0.0066275685 0.038838234 -0.55006737 0.06171843
000100 12 e9 2d bf d7 da 78 3d 2e c9 4a bf d8 61 5c 3d
       -0.6793376 0.060755577 -0.79213226 0.05380425
000110 ce 29 04 3f c5 bf 27 bf 09 3a 93 3e fa 63 57 3d
       0.5162629 -0.6552699 0.28755215 0.05258558
000120 74 15 44 3d 01 05 c5 be f8 9d 8e 3e d2 e4 40 bc
       0.04787202 -0.3848038 0.27854896 -0.011773305
000130 2c c7 f3 be ae fa 3a bf ae d7 7a bd f3 12 3c 3d
       -0.47612894 -0.73038757 -0.061240844 0.04591651
000140 09 12 39 3d 43 0d e1 3e b0 44 8a bd 0a 04 be 3e
       0.045183215 0.4395543 -0.06751382 0.37112457
000150 1c e3 8f bc 11 ea 92 be e0 db 33 3d 25 62 3d bf
       -0.017564349 -0.28694203 0.04391086 -0.7397788
000160 0d 1c c8 3e 01 cc 0a 3d ad cc 15 bf 9b a9 bb bc
       0.390839 0.03388596 -0.58515435 -0.022908023
000170 d1 fc 03 bf f5 48 14 bd ab a5 a7 bd e0 6e 6b 3d
       -0.5155764 -0.03620239 -0.081858955 0.057478786
000180 09 a8 be 3e b3 60 1f 3d d4 7d 9e bc 66 8c f0 be
       0.37237576 0.03891058 -0.019347109 -0.46982116
000190 9e 25 5e 3d d0 29 e5 3c 4a ad 50 bc ba d4 91 3d
       0.054235093 0.02797404 -0.012736628 0.071206525
0001a0 aa 4c 3d 3d 0e bc 30 3d d4 f4 36 bf be 8b d2 3e
       0.04621569 0.043148093 -0.7146733 0.4112224
0001b0 df 4c 93 3c 15 3c 5e bd 4b e3 2d 3c 42 b5 f1 ba
       0.017980991 -0.054256517 0.010613273 -0.001844086
0001c0 a8 49 22 bf 27 aa 4a 3d e1 7d 25 3c a8 6c 07 bf
       -0.6339364 0.049478676 0.010100813 -0.5290017
0001d0 15 e2 d2 be 25 af 83 3d ed de ef be 50 e9 85 3d
       -0.41188112 0.064298905 -0.46849766 0.065386415
0001e0 24 af 86 bf 19 53 90 bd 07 48 69 3d f0 e1 d1 3c
       -1.0522199 -0.070470996 0.056953456 0.02562043
0001f0 02 d1 a2 3e 94 56 13 bd 79 16 a1 bd 05 61 51 bd
       0.31800085 -0.03597124 -0.078656144 -0.051117916
000200 47 fe e2 3a 4b 96 3a 3d e7 32 9d bd 09 29 28 bf
       0.0017318212 0.045553487 -0.076757245 -0.65687615
000210 9d b1 6d bf c2 21 44 bf dd 6d c9 3e a6 e6 40 bd
       -0.9284914 -0.7661401 0.39341632 -0.047094963
000220 f7 3b ba 3c b0 6b 10 3f ef 3b e7 be 2f 3d 83 3d
       0.022733672 0.5641432 -0.45162913 0.06408154
000230 d2 31 41 bc 73 60 e0 3e d0 b3 09 3f 35 93 47 bf
       -0.011791663 0.43823585 0.5379 -0.77958995
000240 6c 9d 80 3f bf 2e 2b bf 88 bf 36 be de 53 32 bf
       1.0048041 -0.66868204 -0.17846501 -0.6965922
000250 0c fa 8b 38 16 b2 1d bd 31 c3 91 bd da db 98 bd
       6.674611e-05 -0.038499914 -0.07117308 -0.07463808
000260 3a e3 0d 3f 3b 40 ce 3c 84 1c af bc 77 56 85 3d
       0.55424845 0.025177112 -0.021375902 0.065106325
000270 28 e4 33 3f 03 93 16 3d 78 dd 1b bf db a8 a5 bd
       0.70270014 0.036761295 -0.6088481 -0.08088847
000280 d4 1c a2 3e 7e f2 9d bd 18 02 0c bf e5 06 03 bf
       0.3166262 -0.07712267 -0.54690695 -0.51182395
000290 9d fb 51 bf 4f e5 7b bc ac 23 54 3d 79 0d dd bc
       -0.82024556 -0.015374496 0.05179183 -0.026983963
0002a0 df 83 c0 3e 02 2c 27 bf 99 98 2f 3d be 45 5c bd
       0.3760061 -0.65301526 0.042870138 -0.05377745
0002b0 20 95 79 bf a2 f4 65 3d 9e 25 98 bd 54 2f 5f bf
       -0.9749317 0.056141503 -0.0742905 -0.8718159
0002c0 b8 66 79 3d b9 6c 9d bd 8d f5 c1 3e f2 1f f2 3c
       0.060888976 -0.07686753 0.37882653 0.029556248
0002d0 7c 04 1b bf 2f f2 00 3f ac f8 44 bf d0 ae 76 bd
       -0.6055372 0.5036954 -0.76941943 -0.060225308
0002e0 7a 8c 0c 3c d9 24 27 bf 5b 08 65 3d d2 8d 04 bf
       0.008578414 -0.652906 0.05591617 -0.517789
0002f0 33 9a a0 3d 5a 7c 32 3d f6 d2 17 bf 30 63 10 bc
       0.07841911 0.043575622 -0.59306276 -0.008812711
000300 46 e2 33 bf b0 b7 73 bc c9 a6 3b bf 29 48 3d bc
       -0.7026714 -0.0148753375 -0.7330137 -0.011552849
000310 42 d9 01 3f 8b b7 0f bf b1 d8 a5 3e 3c b8 40 bd
       0.50722134 -0.5613944 0.32391885 -0.0470507
000320 38 09 a8 bd 4c 60 93 be 2b 0a b1 3e cf 89 3b bd
       -0.08204883 -0.28784406 0.3457807 -0.04578572
000330 fd 63 0d bf ef 1e 3c bf 66 b2 42 bd 03 99 b5 bd
       -0.55230695 -0.734847 -0.047533415 -0.08867075
000340 95 f9 85 3c 38 91 d8 3e 80 fa ee bc 6e a5 9e 3e
       0.016354362 0.42298293 -0.029172182 0.30985588
000350 20 3f fb bb 79 db 15 bf bd 31 06 bc f9 04 5c bf
       -0.007667437 -0.58538014 -0.0081905695 -0.8594509
000360 17 b1 db 3e 9c 3e d9 bc f2 e8 28 bf c6 08 db bc
       0.42908546 -0.026519112 -0.65980446 -0.026737582
000370 dd db 09 bf cb 64 2d bd 52 57 6a 3c 0e 16 b3 bd
       -0.5385111 -0.04233245 0.014303045 -0.08744441
000380 14 f2 99 3e fb 1c 83 3d ce d1 f4 ba 97 b6 00 bf
       0.30067503 0.06402012 -0.0018678249 -0.5027861
000390 32 c5 4f 3d 34 71 cd 3c 27 54 99 bd e7 eb 68 bd
       0.05072517 0.025078394 -0.07486754 -0.0568656
0003a0 e5 f3 8b 3d 18 9e 3e bd 4d f5 45 bf 93 cf c5 3e
       0.068336286 -0.04653749 -0.77327424 0.3863493
0003b0 0d 22 48 bd ea 3e 5b bd 54 96 85 bd 7c 0a 62 bd
       -0.0488606 -0.053526796 -0.065228134 -0.05518578
0003c0 70 41 16 bf 29 3b fa 3b 10 d3 83 bd d8 b9 00 bf
       -0.586936 0.007636447 -0.06436741 -0.50283575
0003d0 b9 25 d6 be bb 7b ec bc c2 45 93 be 39 d7 91 3b
       -0.41825655 -0.028867593 -0.28764158 0.0044507054
0003e0 c0 c9 80 bf 8d 68 60 3d cf 3b 81 3d 34 f1 8a 3c
       -1.0061569 0.054787207 0.06310236 0.016960718
0003f0 26 95 bf 3e c1 a2 ca bc 4c 0c ce bd 51 43 ed 3c
       0.3741848 -0.02473581 -0.10060939 0.028962763

fc4.bias f4 [5]
000000 7f 03 b9 3c f0 d6 3e 3d dd 0a 66 3c a7 7d a1 3d
       0.022584675 0.0465917 0.014040676 0.078852944
000010 2c 5d c4 be
       -0.38352334
