models/curriculum_stage1_seed999_best.pth (torch, 411471 bytes, 8 tensors)

fc1.weight f4 [256, 9]
-0.21286602 0.14461397 -0.27232674 0.4111131 0.10758791 0.5157395 0.17230079 -0.3121987
-0.08574657 0.16544697 -0.1731184 -0.3027972 -0.20664056 0.040155742 0.99315554 -0.30109978
0.20025912 -0.0035067033 -0.11181304 -0.17202495 -0.23473334 0.29958558 0.29758564 0.20278327
0.166157 -0.079374224 0.06360831 -0.25386015 -0.26213783 0.048739027 0.14543357 -0.41387746
-0.4166922 -0.023016363 0.14741978 -0.27257687 0.3487937 0.15285721 -0.10869053 0.2885927
-0.005667632 0.5372645 -0.11274943 0.19754949 0.29944888 -0.20814838 0.04846724 0.0076343184
-0.26778233 0.2253749 0.7160843 0.27035692 -0.33069545 -0.16896686 0.37674946 0.21537547
0.2100205 0.3943395 -0.3294339 -0.29124445 -0.30400908 -0.24324374 -0.20342848 0.40346268
-0.07507252 -0.19976234 -0.18369597 0.45648378 0.36403966 -0.1448997 -0.14193296 0.3342962
-0.077490546 -0.031449854 0.3275957 0.1648766 -0.11725993 -0.041512538 -0.08646962 0.22777537
-0.25834677 -0.27108994 0.31100866 -0.0061738887 -0.20516476 0.26470438 0.53687674 0.23963442
-0.086069584 -0.26288122 0.28402084 -0.18272956 0.26548177 0.011911652 -0.123596855 -0.23206697
0.10766265 -0.23315565 -0.34098056 -0.062210385 0.22163986 -0.01723737 0.1669778 0.37456912
0.042328354 -0.26372665 0.035717756 -0.12857781 -0.61636126 0.10158275 0.003840957 -0.03916009
0.33406264 -0.60414726 -0.17674613 -0.28734025 0.22029275 0.11646173 -0.07209457 -0.39295977
-0.35996228 -0.25557125 1.0068475 -0.0471977 -0.16246991 0.051489554 -0.2478439 0.13223524
-0.13191907 -0.18457112 0.20584497 -0.3653741 0.26984194 0.0758425 -0.08559128 -0.25688976
-0.23120245 -0.33139813 -0.09389319 -0.53663206 0.23737802 0.27205387 0.16067448 -0.16380759
0.24018693 -0.2661875 0.24534324 0.33656204 -0.2327822 0.18502142 -0.055038303 -0.09202573
0.2413204 0.24954177 0.0428504 -0.425015 -0.3090453 -0.5669831 0.08692576 -0.20454654
0.18185756 -0.05924594 -0.62557924 -0.058563527 -0.16115919 -0.13271295 0.27301916 0.92918944
-0.03775978 -0.12833385 0.2123041 0.74734277 -0.16528389 0.36458242 -0.089678876 -0.38233116
0.8188368 0.29175344 -0.11478834 0.2567521 -0.40484568 0.21935742 -0.21718657 0.14700979
-0.6397699 -0.12983252 0.3184617 0.26951674 -0.04671911 -0.004344075 0.16307633 -0.08265309
-0.44367117 -0.43052498 0.0816564 -0.24954998 -0.3067369 0.34762266 -0.1973311 0.23601143
-0.07805397 0.015322994 -0.40166616 -0.09258113 0.32450274 0.159215 -0.2578971 0.06854675
0.22013532 0.042849604 -0.11378553 -0.38793874 -0.115607694 0.18917897 0.32526478 -0.047142968
-0.020132745 0.2746931 0.2879662 0.16477576 0.30322865 -0.052401472 -0.09265642 0.036702663
-0.12709644 0.026644427 -0.031259317 -0.28731418 -0.0037906927 -0.59100384 0.1980385 -0.25897574
0.2757366 0.069963776 0.012522701 -0.24417108 0.14386351 -0.18179786 -0.16355357 -0.08426255
-0.26919252 -0.038246393 -0.0033455822 0.081164986 -0.056826007 -0.16402909 0.025296459 -0.6867058
-0.17666966 -0.16838154 0.09522617 0.18989585 -0.32613084 0.26132062 0.21559428 -0.053965647
00000000: 8df9 59be af15 143e 696e 8bbe 6b7d d23e
00000010: 0d57 dc3d 8107 043f 9e6f 303e 82d8 9fbe
00000020: e69b afbd ee6a 293e f345 31be 3c08 9bbe
00000030: 9599 53be 597a 243d 713f 7e3f c029 9abe
00000040: ba10 4d3e b8d0 65bb 3cfe e4bd 4f27 30be
00000050: f05d 70be 4863 993e 255d 983e 6ba6 4f3e
00000060: 1025 2a3e f48e a2bd 1345 823d f5f9 81be
00000070: ee36 86be 93a2 473d 8aec 143e bfe7 d3be
00000080: ae58 d5be d08c bcbc 36f5 163e 328f 8bbe
00000090: 1695 b23e 9a86 1c3e 2499 debd 6cc2 933e
000000a0: 8bb7 b9bb 2b8a 093f 2ce9 e6bd 6a4a 4a3e
000000b0: 5d51 993e d924 55be 9685 463d 4e29 fa3b
000000c0: c41a 89be aec8 663e 4d51 373f 396c 8a3e
000000d0: ea50 a9be a605 2dbe 4ee5 c03e 638b 5c3e
000000e0: 9d0f 573e dee6 c93e 8fab a8be fe1d 95be
000000f0: 14a7 9bbe e314 79be 8e4f 50be a992 ce3e
00000100: 9fbf 99bd 808e 4cbe cc1a 3cbe 3eb8 e93e
00000110: 6863 ba3e 9660 14be e056 11be df28 ab3e
00000120: 5db3 9ebd 90d1 00bd a0ba a73e 69d5 283e
00000130: f925 f0bd 0d09 2abd fc16 b1bd f23d 693e
00000140: 0746 84be 4dcc 8abe 873c 9f3e 554e cabb
00000150: b616 52be 5587 873e c170 093f ba62 753e
00000160: 4045 b0bd 5e98 86be 2e6b 913e 751d 3bbe
00000170: 3aed 873e 1729 433c 5920 fdbd f7a2 6dbe
00000180: 3c7e dc3d 5bc0 6ebe 0195 aebe 51d0 7ebd
00000190: 8ff5 623e 6335 8dbc 3afc 2a3e 86c7 bf3e
000001a0: 7f60 2d3d 2e07 87be c84c 123d e7a9 03be
000001b0: dac9 1dbf 9e0a d03d 91b8 7b3b 5566 20bd
000001c0: 420a ab3e 65a9 1abf f0fc 34be 431e 93be
000001d0: 6c94 613e 7d83 ee3d 51a6 93bd 0632 c9be
000001e0: fa4c b8be 3cda 82be 61e0 803f 6052 41bd
000001f0: 835e 26be b6e6 523d cbca 7dbe ad68 073e
00000200: cb15 07be 3600 3dbe 06c9 523e 5012 bbbe
00000210: b928 8a3e 5053 9b3d 7b4a afbd 0e87 83be
00000220: 56c0 6cbe 04ad a9be 134b c0bd b860 09bf
00000230: 3913 733e a54a 8b3e da87 243e 2dbd 27be
00000240: 90f3 753e ba49 88be 423b 7b3e dc51 ac3e
00000250: 755e 6ebe 4176 3d3e d86f 61bd fc77 bcbd
00000260: b21c 773e e187 7f3e e783 2f3d 919b d9be
00000270: 303b 9ebe ce25 11bf 2206 b23d a674 51be
00000280: de38 3a3e dfab 72bd f625 20bf 4fe0 6fbd
00000290: ea06 25be e7e5 07be 2bc9 8b3e 5cdf 6d3f
000002a0: 00aa 1abd f369 03be 3f66 593e db51 3f3f
000002b0: 2e40 29be 8caa ba3e 8fa9 b7bd e9c0 c3be
000002c0: 4a9f 513f b560 953e 2616 ebbd 0375 833e
000002d0: ef47 cfbe 3b9f 603e 2866 5ebe bc89 163e
000002e0: f6c7 23bf d1f2 04be 690d a33e 19fe 893e
000002f0: 8a5c 3fbd be58 8ebb 7bfd 263e 0646 a9bd
00000300: de28 e3be c56d dcbe 783b a73d 088a 7fbe
00000310: 9e0c 9dbe 99fb b13e 2a11 4abe fbac 713e
00000320: c3da 9fbd 4c0d 7b3c 30a7 cdbe 2d9b bdbd
00000330: 3925 a63e 4209 233e 170b 84be 3d62 8c3d
00000340: 276b 613e 1183 2f3d 6308 e9bd e89f c6be
00000350: bac3 ecbd 22b8 413e 1b89 a63e fc18 41bd
00000360: 6ded a4bc 93a4 8c3e 4e70 933e faba 283e
00000370: c940 9b3e eda2 56bd a6c2 bdbd 8855 163d
00000380: 9225 02be 6a45 da3c c509 00bd d81a 93be
00000390: 456d 78bb 074c 17bf 9bca 4a3e 7898 84be
000003a0: 592d 8d3e 2b49 8f3d 042c 4d3c fc07 7abe
000003b0: f550 133e 3829 3abe 967a 27be d891 acbd
000003c0: 9ad3 89be 40a8 1cbd 8e41 5bbb d439 a63d
000003d0: 63c2 68bd 3ef7 27be 853a cf3c f4cb 2fbf
000003e0: e4e8 34be 366c 2cbe f005 c33d 0f74 423e
000003f0: 9ffa a6be d1cb 853e bfc4 5c3e 150b 5dbd

fc1.bias f4 [256]
0.08947539 0.22901514 -0.23943421 0.011946393 -0.21648094 -0.16686995 -0.17608474 0.09644859
-0.038789365 0.2766878 -0.0015699994 0.023856834 0.15875518 -0.17417897 0.17085841 0.2582586
0.13413502 -0.09433567 -0.1921381 0.057568647 0.15323809 -0.26175424 0.1558767 -0.015238182
1.4222591e-05 -0.13975431 0.30944785 0.22926922 0.10037974 0.34617183 -0.1518254 -0.14779565
-0.0354446 -0.2754829 -0.045618664 -0.2810512 -0.0022484362 0.009389916 0.12645973 0.04545048
0.02257761 -0.05281702 -0.19032437 0.0052589388 -0.043643385 0.0983595 -0.089266926 0.2839866
-0.21700573 -0.022000927 -0.25667846 0.0272595 0.29263172 0.13797407 -0.024653811 -0.09315764
-0.30711094 0.3320837 0.111545436 0.05673579 -0.07712745 -0.03953013 -0.09130041 0.24783947
0.064733505 0.22051722 -0.020201411 0.07218703 0.15813327 -0.29992768 0.04573627 -0.092569515
-0.27117807 0.29119784 -0.0839851 0.09568706 -0.21740116 0.0750932 -0.26009315 0.24368832
-0.2887364 0.049549982 0.038968947 0.09541275 0.007846622 -0.11437611 0.3508176 0.03951236
0.20970036 -0.23981977 0.092953034 -0.20231335 -0.047392815 0.058273923 -0.14146964 0.047156464
0.24331237 0.04416274 -0.15586995 0.21817324 -0.17254388 0.21399584 -0.324274 0.28010455
0.12635903 -0.23516801 0.17197473 0.003924737 -0.23381 0.29869622 0.064253576 0.34905392
-0.10466266 -0.028545849 -0.33099318 -0.20534845 -0.15081489 0.34981084 0.3314646 0.3198956
0.019409955 -0.004279979 -0.0126563385 0.24332011 -0.2441175 0.053883884 0.008168441 -0.3258778
0.10782156 0.21729538 -0.067770146 -0.08444296 -0.109507754 -0.20835117 0.0999905 0.07738765
-0.2408326 -0.25048816 0.24995342 -0.10859455 0.31432834 -0.05921286 0.35299474 -0.15956463
-0.14503755 -0.26137027 0.12935399 0.18389764 0.16238748 -0.24215338 -0.082654156 0.11223367
0.10913415 -0.3369897 0.32973105 -0.21141651 0.16984573 0.30899203 0.30316162 0.24243274
-0.35085928 -0.2717887 -0.19030046 -0.19824319 0.29753128 -0.03524536 -0.28293216 0.060423627
0.035272423 -0.21556768 -0.19829631 0.38478988 -0.28212595 0.27351 -0.2885684 0.37071735
0.306213 0.28306216 0.30392617 0.29604423 -0.12461937 -0.29764596 -0.08124879 -0.2738484
0.15358295 0.1632441 -0.16672584 0.15941599 0.24102558 -0.011698375 -0.22818168 0.13929097
0.0017625418 -0.23084727 0.080340534 -0.29478317 0.11552953 0.07245387 -0.26805523 0.2526156
0.06954978 -0.14637254 -0.022779979 0.16923378 0.22364444 0.14652404 -0.1068397 -0.027167728
-0.04657738 -0.03224217 0.263484 0.34156847 0.14181949 0.30885717 0.17391567 0.3264951
0.24625818 0.18827954 0.24997102 -0.3221203 0.28610784 0.21346769 0.33055106 0.13152742
-0.101233296 -0.062018476 0.04912936 -0.29413882 0.3698217 0.12717721 0.28603184 0.08999981
0.114453815 -0.17420737 0.0799901 -0.16752847 0.11771578 0.19832678 -0.18439385 -0.1666211
-0.024263494 -0.10219953 -0.22032657 -0.18404019 -0.22916184 0.054184835 -0.04520195 -0.07227301
0.24308504 -0.15892276 -0.23096845 0.08931308 -0.045595385 0.30235115 0.13363083 0.078494124
00000000: e03e b73d f282 6a3e 3e2e 75be ceba 433c
00000010: 2ead 5dbe f5df 2abe 8f4f 34be d786 c53d
00000020: 99e1 1ebd 06aa 8d3e 70c8 cdba 686f c33c
00000030: b890 223e f95b 32be 82f5 2e3e 793a 843e
00000040: b15a 093e 0f33 c1bd dabf 44be 1acd 6b3d
00000050: 72ea 1c3e a704 86be 249e 1f3e 91a9 79bc
00000060: 909d 6e37 c11b 0fbe f36f 9e3e 8dc5 6a3e
00000070: e593 cd3d 6f3d b13e 1e78 1bbe be57 17be
00000080: 5b2e 11bd 180c 8dbe a3da 3abd f1e5 8fbe
00000090: 805a 13bb 2ad8 193c a97e 013e 482a 3a3d
000000a0: aef4 b83c a956 58bd 64e4 42be 2d53 ac3b
000000b0: 68c3 32bd b570 c93d 94d1 b6bd b166 913e
000000c0: c036 5ebe 4a3b b4bc 5c6b 83be 514f df3c
000000d0: d3d3 953e 1349 0d3e caf6 c9bc 6fc9 bebd
000000e0: a53d 9dbe e006 aa3e ef71 e43d ca63 683d
000000f0: fff4 9dbd 58ea 21bd b6fb babd a1c9 7d3e
00000100: 0093 843d 44cf 613e 6e7d a5bc cbd6 933d
00000110: b0ed 213e 1f90 99be f455 3b3d 1695 bdbd
00000120: dad7 8abe e217 953e 6100 acbd 94f7 c33d
00000130: 699e 5ebe 77ca 993d ee2a 85be 6e89 793e
00000140: 42d5 93be ecf4 4a3d e79d 1f3d c367 c33d
00000150: 1e8f 003c 063e eabd 5d9e b33e b6d7 213d
00000160: b1bb 563e 5093 75be 295e be3d 3b2b 4fbe
00000170: f81e 42bd a3b0 6e3d 6bdd 10be 2327 413d
00000180: e126 793e fde3 343d 5f9c 1fbe ce68 5f3e
00000190: 58af 30be ba21 5b3e 3e07 a6be dd69 8f3e
000001a0: 4364 013e e2cf 70be 251a 303e 159b 803b
000001b0: e36b 6fbe b6ee 983e 6197 833d 32b7 b23e
000001c0: 6059 d6bd fcd8 e9bc f077 a9be dd46 52be
000001d0: 386f 1abe 681a b33e bab5 a93e 5bc9 a33e
000001e0: a001 9f3c 113f 8cbb 885c 4fbc e828 793e
000001f0: f0f9 79be 59b5 5c3d edd4 053c 74d9 a6be
00000200: 8dd1 dc3d ae82 5e3e 13cb 8abd 6ef0 acbd
00000210: 9a45 e0bd 025a 55be d2c7 cc3d 6b7d 9e3d
00000220: d29c 76be fc3f 80be caf3 7f3e d266 debd
00000230: a5ef a03e 2f89 72bd babb b43e e964 23be
00000240: b984 14be 53d2 85be 5f75 043e aa4f 3c3e
00000250: e748 263e 0ef7 77be 9546 a9bd c4da e53d
00000260: ba81 df3d ea89 acbe 82d2 a83e 927d 58be
00000270: 0aec 2d3e 3434 9e3e 0038 9b3e 4a40 783e
00000280: d4a3 b3be e327 8bbe 20de 42be 4300 4bbe
00000290: 0556 983e 705d 10bd 7cdc 90be c47e 773d
000002a0: d179 103d c6bd 5cbe 300e 4bbe 2e03 c53e
000002b0: d072 90be 8109 8c3e 3dbf 93be aace bd3e
000002c0: f3c7 9c3e 86ed 903e 369c 9b3e 1c93 973e
000002d0: 7138 ffbd 0d65 98be c465 a6bd dc35 8cbe
000002e0: d944 1d3e 7629 273e 2eba 2abe f23d 233e
000002f0: 69cf 763e 8baa 3fbc 75a8 69be 4ba2 0e3e
00000300: 1705 e73a 3a63 6cbe 9489 a43d d2ed 96be
00000310: bf9a ec3d b262 943d 893e 89be d556 813e
00000320: 1d70 8e3d afe2 15be 149d babc 9f4b 2d3e
00000330: 0c03 653e 660a 163e c6ce dabd db8e debc
00000340: ecc7 3ebd 5e10 04bd 60e7 863e 10e2 ae3e
00000350: 2139 113e 8722 9e3e f316 323e 5e2a a73e
00000360: 1b2b 7c3e 5acc 403e 67f8 7f3e f4ec a4be
00000370: ba7c 923e 4697 5a3e fd3d a93e 20af 063e
00000380: 6753 cfbd 1607 7ebd de3b 493d 5d99 96be
00000390: 4559 bd3e be3a 023e c472 923e d251 b83d
000003a0: c366 ea3d 6b63 32be d9d1 a33d 958c 2bbe
000003b0: f914 f13d 2d16 4b3e bed1 3cbe b99e 2abe
000003c0: 3cc4 c6bc fd4d d1bd 4a9d 61be 0875 3cbe
000003d0: 67a9 6abe ebf0 5d3d ae25 39bd df03 94bd
000003e0: 49eb 783e a6bc 22be fe82 6cbe c7e9 b63d
000003f0: 3ac2 3abd c5cd 9a3e 85d6 083e 87c1 a03d

fc2.weight f4 [256, 256]
-0.06034629 0.020073272 0.047332413 -0.028504863 -0.060149483 -0.0034117624 0.0060459375 -0.02096773
0.022790015 0.016214587 0.012079261 0.059173137 0.058058053 0.046132 -0.05735843 -0.060808577
-0.010551289 0.042719036 -0.05372169 -0.06034886 0.046108164 0.0044858158 -0.048004694 -0.034183376
-0.00733117 -0.054221198 0.0529432 0.05094345 -0.02830214 -0.0387709 -0.03494355 -0.022404738
0.06245534 0.024510853 -0.04074622 0.054116197 0.0053992495 -0.026504725 -0.046030164 -0.003830418
-0.021654949 0.03565558 -0.02735971 -0.026522301 0.047343887 0.041813754 -0.042648323 0.062242195
0.029673487 -0.024404809 0.021888666 -0.058116533 0.01933831 0.05748053 -0.061455153 0.062261447
-0.039272778 0.0077529773 -0.031577088 -0.037688635 0.034045048 0.041683912 -0.026798457 0.022310443
-0.052262805 -0.05671984 -0.03299161 -0.043981485 -0.02866865 0.0019474849 0.0053328574 0.02865471
-0.022397906 0.03336481 -0.011765152 -0.0070339665 0.01977469 -0.04823488 -0.015475027 -0.031172827
0.016792431 0.044566587 -0.0041132197 0.01061967 0.006127119 0.054568753 -0.043488078 0.002007082
-0.032984793 -0.04551944 0.035367385 -0.044542365 0.023708567 0.01846996 -0.009204462 0.014221743
-0.06028185 -0.04869835 -0.05186735 -0.054770686 0.04112169 -0.024757907 0.0058431476 0.010901354
0.037161 0.05294405 -0.0013093427 0.058206104 -0.01813569 -0.051663987 0.033655465 0.05484683
-0.054335497 -0.009118907 -0.0072106123 -0.012709402 -0.059581257 -0.013443284 0.05290643 -0.014843322
-0.062375434 -0.061345197 -0.0003222227 0.052188262 -0.010065258 0.05876503 0.03520581 0.04107333
0.04302925 0.044520117 -0.0548869 0.039840788 -0.019657485 0.05993651 0.01028692 0.036089644
-0.034107827 0.028558776 0.0016722307 0.051624566 0.043583736 -0.023868807 0.02975358 -0.032694638
-0.02799175 -0.050136104 -0.0033816919 -0.039313868 -0.016083822 0.01789324 0.061882585 -0.048225693
-0.047293015 -0.04705482 0.04232195 -0.01740256 -0.05884009 -0.022863314 -0.03462459 -0.046964347
-0.006112151 -0.008924723 0.04577081 -0.03965851 0.021242514 0.021669343 -0.0081254095 0.0024172962
-0.057867043 -0.0450695 0.0004734099 -0.009573691 -0.0015301332 -0.03694416 0.019574642 -0.03299673
-0.01312764 0.03186822 0.028054431 -0.036851868 -0.04523661 0.044567414 -0.05713685 0.036747426
0.045639783 -0.023865946 0.056146525 -0.019755378 0.020492792 -0.02318576 0.0028417483 -0.022054546
-0.014108881 -0.016202852 -0.03344384 -0.048060432 -0.06205134 -0.015458375 0.015998788 -0.048290297
0.055553794 0.04987993 -0.057772145 0.004503958 -0.04890383 0.0029902756 -0.031820662 0.05728692
-0.043806553 0.047709934 0.014730871 0.005967796 -0.015699707 -0.015590414 -0.0036573708 -0.029387668
-0.02074936 -0.0053833425 0.004519291 0.0026844367 -0.058355764 -0.023625322 -0.05846876 7.674098e-06
-0.055623792 -0.015253618 -0.006320983 -0.008987337 -0.056279488 0.058706768 0.022182986 -0.002122052
0.036604583 -0.009641647 -0.05451736 0.041313775 0.014689282 -0.03341621 -0.0062024146 0.05184436
-0.023458935 -0.06002471 0.02922342 0.0113090575 0.055720136 0.05520501 -0.05794891 -0.030227952
-0.011699557 -0.020420372 -0.057135068 -0.027118333 -0.016138986 -0.018908583 -0.0068213344 -0.027198441
00000000: ac2d 77bd b470 a43c a2df 413d 0883 e9bc
00000010: 4e5f 76bd e097 5fbb 001d c63b 84c4 abbc
00000020: 20b2 ba3c 74d4 843c 18e8 453c 885f 723d
00000030: 48ce 6d3d e8f4 3c3d acf0 6abd 6a12 79bd
00000040: 50df 2cbc 28fa 2e3d 460b 5cbd 5e30 77bd
00000050: eadb 3c3d c0fd 923b 92a0 44bd de03 0cbd
00000060: 503a f0bb 0c17 5ebd f8da 583d 14aa 503d
00000070: e4d9 e7bc 3cce 1ebd f820 0fbd 248a b7bc
00000080: 2cd1 7f3d fcca c83c 82e5 26bd f2a8 5d3d
00000090: 30ec b03b 7020 d9bc 208a 3cbd c007 7bbb
000000a0: b865 b1bc 960b 123d 7821 e0bc 4c45 d9bc
000000b0: aaeb 413d e644 2b3d 02b0 2ebd acf1 7e3d
000000c0: d015 f33c 98ec c7bc dc4f b33c 9a0b 6ebd
000000d0: 606b 9e3c b470 6b3d 66b8 7bbd dc05 7f3d
000000e0: 7edc 20bd b00c fe3b fa56 01bd 665f 1abd
000000f0: d272 0b3d c0bc 2a3d 7088 dbbc 64c4 b63c
00000100: 8611 56bd 1053 68bd 3622 07bd ee25 34bd
00000110: 84da eabc c042 ff3a 40bf ae3b 48bd ea3c
00000120: d07b b7bc 8aa9 083d a0c2 40bc 307d e6bb
00000130: 88fe a13c f091 45bd f88a 7dbc 285e ffbc
00000140: 4890 893c 748b 363d 30c8 86bb 20fe 2d3c
00000150: 00c6 c83b 7c83 5f3d 8e20 32bd 4089 033b
00000160: 101b 07bd 9872 3abd 64dd 103d 0e72 36bd
00000170: 7838 c23c 504e 973c 50ce 16bc 5002 693c
00000180: 1aea 76bd ec77 47bd dc72 54bd 3a57 60bd
00000190: 386f 283d 18d1 cabc e077 bf3b 989b 323c
000001a0: 2236 183d dcdb 583d 409e abba 8669 6e3d
000001b0: 4c91 94bc 9e9d 53bd 50da 093d 12a7 603d
000001c0: e68e 5ebd 7867 15bc 0047 ecbb 183b 50bc
000001d0: 7a0b 74bd 3841 5cbc 6ab4 583d 6831 73bc
000001e0: 627d 7fbd 1a45 7bbd 00f0 a8b9 5cc3 553d
000001f0: c0e8 24bc 9ab3 703d f833 103d 823c 283d
00000200: 703f 303d ba5a 363d 16d1 60bd 1830 233d
00000210: bc08 a1bc fc7f 753d 788a 283c bcd2 133d
00000220: a6b4 0bbd 18f4 e93c c02e db3a 4874 533d
00000230: dc84 323d 8488 c3bc c8bd f33c d0ea 05bd
00000240: f44e e5bc 845b 4dbd 609f 5dbb 9407 21bd
00000250: 38c2 83bc d894 923c 9878 7d3d 4e88 45bd
00000260: 52b6 41bd 8ebc 40bd c859 2d3d d08f 8ebc
00000270: 4e02 71bd d84b bbbc 84d2 0dbd b05d 40bd
00000280: 7048 c8bb 0039 12bc 2c7a 3b3d f670 22bd
00000290: c804 ae3c e883 b13c 7020 05bc 806b 1e3b
000002a0: fe05 6dbd cc9a 38bd 0034 f839 f8da 1cbc
000002b0: c08e c8ba c252 17bd 005b a03c 9427 07bd
000002c0: 5015 57bc 4088 023d 68d2 e53c fcf1 16bd
000002d0: 064a 39bd 528c 363d 5408 6abd 7884 163d
000002e0: c8f0 3a3d 8482 c3bc e6f9 653d 08d6 a1bc
000002f0: 80e0 a73c 10f0 bdbc a03c 3a3b bcab b4bc
00000300: f028 67bc d8bb 84bc 68fc 08bd 04db 44bd
00000310: 8c29 7ebd 2045 7dbc e40f 833c 0ccc 45bd
00000320: 608c 633d e64e 4c3d 7ca2 6cbd f095 933b
00000330: 624f 48bd 80f8 433b 6256 02bd b0a5 6a3d
00000340: 806e 33bd 7e6b 433d c059 713c 808d c33b
00000350: ac9c 80bc f06e 7fbc 80b0 6fbb 68be f0bc
00000360: 90fa a9bc c066 b0bb 9016 943b 60ed 2f3b
00000370: 7406 6fbd e489 c1bc f07c 6fbd 00c0 0037
00000380: c6d5 63bd 50ea 79bc 4020 cfbb a03f 13bc
00000390: 5285 66bd 8276 703d 18b9 b53c 2012 0bbb
000003a0: b0ee 153d 00f8 1dbc 984d 5fbd a238 293d
000003b0: 50ab 703c 70df 08bd a03d cbbb c05a 543d
000003c0: f42c c0bc 78dc 75bd f465 ef3c a049 393c
000003d0: cc3a 643d a61e 623d d65b 6dbd 9ca0 f7bc
000003e0: 80af 3fbc a048 a7bc 7606 6abd 4427 debc
000003f0: e835 84bc 2ce6 9abc 8085 dfbb 44cf debc

fc2.bias f4 [256]
0.024488337 0.00077475456 -0.015131341 -0.035393305 -0.039001577 -0.0085661 -0.05959952 0.047336493
-0.013071382 -0.04571954 -0.033129018 -0.0017328963 0.10614161 0.026461279 0.019918188 0.08938506
0.042598568 -0.052236225 -0.018719459 0.05327908 -0.004149741 -0.0101003675 -0.03917344 0.070104636
0.021410475 0.07108038 0.014451307 -0.032193117 -0.03969936 -0.053440005 0.010319852 0.028343337
0.07567306 0.051725503 -0.054080315 -0.018018706 0.046205137 -0.061838463 0.014636442 0.10260089
0.023899661 -0.04196259 0.008906827 0.076644555 0.013824111 0.028009519 -0.03593824 -0.036249965
-0.055019263 0.049284033 -0.0038384171 -0.008942866 -0.023799844 -0.00070887466 -0.05913434 0.050926562
0.034649264 -0.073370025 -0.022076698 0.019887153 -0.05223566 -0.041679595 -0.003068553 -0.04393705
-0.017749311 0.10463545 -0.019943474 0.029343542 -0.010158523 0.097042724 0.040986855 0.021071766
0.04116591 -0.0559847 0.031105693 -0.060029082 0.007066113 -0.049001377 -0.054786336 0.119872734
0.027468396 -0.009361929 0.015351257 0.055886492 0.021606859 0.037181858 0.02670683 0.119220674
0.0043990207 0.022057736 -0.009705093 -0.07224956 -0.047102805 0.036742482 0.038602665 0.032618366
-0.074477226 0.033848315 0.060524892 0.09034426 0.00582664 -0.02252213 0.037299935 -0.0762763
0.027449453 -0.063277245 0.12452312 0.012286536 -0.018915346 0.001180115 0.0055474415 0.049599566
-0.011751688 0.010135556 -0.07007052 0.017943062 0.049106058 -0.06268483 0.0025589652 0.05444504
-0.051330782 -0.023823064 -0.01685785 -0.048630476 0.047998708 0.04982279 0.04363776 -0.009668026
0.057087414 0.034074876 -0.011333563 0.0041982415 -0.05883061 -0.012138975 -0.022945192 -6.651992e-05
-0.0396956 0.019052474 0.000642781 -0.02887255 -0.06725186 0.02441696 0.027424097 0.043821372
0.04227962 -0.06338672 0.030223258 -0.009419157 -0.05426822 0.01884011 0.10148203 0.018764742
-0.069318585 -0.034247383 -0.044538714 0.012412536 -0.061113924 0.02496331 0.10119166 -0.0319658
0.10040478 0.015338025 0.058470655 -0.016174499 -0.016967945 -0.071103774 0.015876468 0.000102802944
-0.042335454 0.025646467 0.07967276 -0.003422876 -0.026873937 0.004231101 -0.02973123 0.042661767
-0.030088637 0.056562744 -0.03191224 -0.0477774 -0.035238635 -0.064667106 -0.036310103 -0.04158105
-0.04393201 -0.041355602 0.03559336 0.013305387 0.048431847 -0.029361255 0.03814178 0.057429392
-0.10809117 0.12678652 0.01381094 0.10507224 0.024654433 0.048365984 0.035692822 0.10959462
0.034624353 -0.0065569533 -0.044910446 -0.015311955 -0.0019387173 0.023522262 -0.04088995 0.023615357
0.01961173 0.015365647 -0.004657117 -0.012665798 -0.12556776 0.016067008 -0.00080417586 0.0042173793
-0.04132774 -0.03565006 -0.022447083 -0.04281567 0.03827466 -0.041464873 -0.06022547 0.037854627
0.0015324473 -0.06020329 -0.026089983 -0.005449807 -0.060381368 0.03607856 0.03885619 0.042603526
-0.05989781 -0.060377292 -0.058954153 -0.053808812 0.009080626 0.03518886 -0.021251181 -0.008750828
0.052434668 0.052505102 -0.07288207 -0.06887336 -0.025277134 -0.015509318 0.06288959 0.025542201
0.11224354 -0.06398861 0.041073956 0.03012415 0.0047725807 -0.061763868 0.047877543 -0.0003798453
00000000: c49b c83c e618 4b3a 72e9 77bc 92f8 10bd
00000010: 1ec0 1fbd d458 0cbc a01e 74bd e9e3 413d
00000020: 5a29 56bc 6a44 3bbd 4bb2 07bd 5a22 e3ba
00000030: c660 d93d 53c5 d83c 782b a33c 840f b73d
00000040: d67b 2e3d a7f5 55bd 8d59 99bc 2a3b 5a3d
00000050: 8dfa 87bb 037c 25bc 5474 20bd 0593 8f3d
00000060: 0565 af3c 9792 913d 2dc5 6c3c eedc 03bd
00000070: cc9b 22bd e8e3 5abd 9914 293c 4930 e83c
00000080: 7afa 9a3d 1fde 533d 5283 5dbd f79b 93bc
00000090: 9941 3d3d 544a 7dbd b0cd 6f3c 6a20 d23d
000000a0: 39c9 c33c f7e0 2bbd f1ed 113c d2f7 9c3d
000000b0: 867e 623c 3874 e53c fa33 13bd d87a 14bd
000000c0: e15b 61bd 0ede 493d f48d 7bbb 1985 12bc
000000d0: e4f7 c2bc c6d3 39ba da36 72bd 5f98 503d
000000e0: 63ec 0d3d 0643 96bd 31da b4bc 62ea a23c
000000f0: 0ff5 55bd 39b8 2abd c719 49bb 56f7 33bd
00000100: 0167 91bc 1c4b d63d 7f60 a3bc de61 f03c
00000110: ef6f 26bc 56be c63d d5e1 273d b29e ac3c
00000120: 969d 283d 3650 65bd 5ed1 fe3c 0ee1 75bd
00000130: da8a e73b abb5 48bd a367 60bd d67f f53d
00000140: 6705 e13c c762 19bc d783 7b3c 3ce9 643d
00000150: de00 b13c 014c 183d 48c8 da3c f829 f43d
00000160: a925 903b 6db2 b43c 1c02 1fbc 94f7 93bd
00000170: dfee 40bd 497f 163d d41d 1e3d d69a 053d
00000180: 8487 98bd 88a4 0a3d f3e8 773d 6906 b93d
00000190: 66ed be3b 5480 b8bc d1c7 183d c036 9cbd
000001a0: addd e03c 8097 81bd fa05 ff3d 784d 493c
000001b0: 5bf4 9abc 17ae 9a3a 50c7 b53b ea28 4b3d
000001c0: 278a 40bc 9a0f 263c 2281 8fbd 54fd 923c
000001d0: 6f23 493d e760 80bd 50b4 273b c301 5f3d
000001e0: 3a40 52bd 9628 c3bc 7919 8abc c030 47bd
000001f0: 4b9a 443d fb12 4c3d 82bd 323d a466 1ebc
00000200: 7ed4 693d 1992 0b3d 69b0 39bc 6791 893b
00000210: 5ef8 70bd 8de2 46bc 8ef7 bbbc 9c80 8bb8
00000220: da97 22bd ef13 9c3c 4d80 283a 2086 ecbc
00000230: 58bb 89bd 1406 c83c 80a8 e03c 0a7e 333d
00000240: 652d 2d3d e6d0 81bd c496 f73c cf52 1abc
00000250: 5a48 5ebd 9356 9a3c cfd5 cf3d 84b8 993c
00000260: e7f6 8dbd fc46 0cbd 3a6e 36bd f35d 4b3c
00000270: 9852 7abd db7f cc3c 933d cf3d 92ee 02bd
00000280: 05a1 cd3d 574c 7b3c ed7e 6f3d 6280 84bc
00000290: 5c00 8bbc db9e 91bd 5e0f 823c e997 d738
000002a0: f167 2dbd 8a18 d23c 792b a33d 5452 60bb
000002b0: bb26 dcbc 0ca5 8a3b e98e f3bc 1bbe 2e3d
000002c0: 727c f6bc 56ae 673d 69b6 02bd 3cb2 43bd
000002d0: 6356 10bd 3070 84bd e7b9 14bd e450 2abd
000002e0: 0df2 33bd 7e64 29bd 58ca 113d d7fe 593c
000002f0: 7960 463d 0487 f0bc 8e3a 1c3d 153b 6b3d
00000300: e75e ddbd 53d4 013e 4847 623c 1d30 d73d
00000310: 18f8 c93c 691b 463d a332 123d 2573 e03d
00000320: 44d2 0d3d b6db d6bb 04f4 37bd fede 7abc
00000330: 8f1c feba c2b1 c03c 387c 27bd fe74 c13c
00000340: c7a8 a03c 32c0 7b3c bb9a 98bb 3584 4fbc
00000350: d694 00be f59e 833c 54cf 52ba f131 8a3b
00000360: 4747 29bd cc05 12bd f2e2 b7bc 7c5f 2fbd
00000370: e4c5 1c3d 12d7 29bd fcae 76bd 740d 1b3d
00000380: 66dc c83a ba97 76bd a9ba d5bc 4b94 b2bb
00000390: 7452 77bd 1dc7 133d ab27 1f3d 0981 2e3d
000003a0: 6857 75bd 2e4e 77bd e979 71bd a166 5cbd
000003b0: e8c6 143c 3222 103d f516 aebc a25f 0fbc
000003c0: bcc5 563d 970f 573d 3243 95bd 7a0d 8dbd
000003d0: fe11 cfbc cb1a 7ebc 42cc 803d e13d d13c
000003e0: f1df e53d 760c 83bd 2a3d 283d ecc6 f63c
000003f0: 4f63 9c3b 1cfc 7cbd 3e1b 443d f925 c7b9

fc3.weight f4 [128, 256]
-0.004019402 -0.028469713 0.029419528 -0.0011178628 -0.023116408 0.055827048 -0.04687238 0.055001568
-0.033387326 -0.040839627 -0.026836839 -0.033871837 0.018848473 -0.053619944 0.014422446 -0.022772627
0.016803235 0.0007748625 -0.040075302 -0.025649473 -0.051465966 0.037162147 -0.026744688 -0.060299877
-0.02074373 0.026430365 -0.050449327 -0.010902066 -0.0063943 0.003537558 0.052114163 -0.009980503
-0.06770283 0.016156837 -0.0022615704 -0.00529663 0.054517906 -0.013225034 0.010179808 -0.05006238
0.005881883 -0.04946435 -0.006312996 -0.06390355 0.0395578 0.020046234 -0.052368052 -0.038180415
0.046226934 0.007067149 0.043480393 -0.024188437 0.048870265 -0.0048689754 0.03249767 -0.026274161
-0.04411111 0.044471413 -0.019097243 0.03084095 0.015067763 -0.012227419 -0.006563899 0.022636145
0.049315803 0.010282315 0.06629248 -0.05663289 0.018290412 -0.051507477 0.036177702 0.058887504
0.039549462 -0.00100981 -0.027953072 -0.009077909 0.0476793 0.049471058 -0.022548199 -0.029177196
0.02473443 0.013439276 0.02235203 0.0044786143 -0.046597436 -0.055861432 -0.040686995 0.015365208
-0.009988461 -0.037061535 -0.033294767 -0.062114872 -0.010659492 -0.028062027 0.050366834 -0.03298255
0.033342775 -0.026989616 -0.08362012 0.045460436 -0.014607794 -0.05691176 0.026000107 0.04330174
0.053359993 0.02317556 -0.012713879 -0.0029314188 -0.049685225 -0.024396881 0.037113152 0.027695226
0.011434138 -0.05221498 -0.0054798424 0.04769957 -0.057781875 0.025241066 -0.042972963 0.017308772
-0.044964686 0.022306621 -0.04837765 -0.056193016 0.005638441 0.062360726 0.04441172 -0.030829122
0.010153102 -0.05570234 0.0134063 0.012986228 0.049233533 -0.008301491 0.036321282 0.013241696
-0.016987825 -0.052403897 -0.040758427 0.009780832 -0.024501579 -0.042417068 0.0018229124 -0.03554696
-0.022636427 0.010723858 -0.019317172 0.046324678 -0.024157114 -0.023986619 -0.015701039 0.021603027
-0.0025755018 -0.025193945 -0.07097767 -0.045842364 -0.014407381 0.021646556 0.024727263 -0.0034655258
0.021509662 -0.01517719 0.016735509 -0.050926987 0.01976082 0.00833935 -0.05577404 0.056702547
-0.05695093 0.0112024145 -0.048775584 0.04912717 0.03442789 0.039757784 -0.042445637 0.055634893
0.006526269 0.041903242 0.015803672 0.00949965 0.05575531 -0.017828314 -0.0019464645 0.021262757
-0.038623355 0.023189753 0.0013064599 -0.01824275 0.03356745 -0.034390744 -0.052034404 -0.044782124
-0.055925954 -0.06412836 -0.050204076 -0.053054977 -0.005688352 0.027522579 -0.070335984 -0.045802634
-0.00160998 -0.042567424 0.01208486 0.018237613 -0.024109319 -0.047253277 -0.023330485 -0.038445733
-0.049668252 0.05635489 0.0030990317 -0.0072663184 0.016606383 0.006202504 -0.035517383 -0.022792615
-0.013523382 -0.006079246 0.0073047206 -0.0060657146 0.023639869 0.018612618 -0.05714669 0.029480949
-0.021868192 -0.017930001 0.0268161 -0.05335214 0.06196769 -0.021727018 0.019703092 0.017055491
0.06309141 -0.00011615455 0.033283096 0.015137598 0.01864893 -0.021150744 0.012919164 -0.040780626
0.037989948 -0.02541862 0.02394377 -0.036018774 0.055134743 0.023919746 0.032732457 0.024569096
0.027743174 0.0077514723 0.07726965 -0.027118348 0.029744778 -0.05872097 -0.009798008 0.009828229
00000000: 30b5 83bb 5139 e9bc 3901 f13c 4085 92ba
00000010: 9f5e bdbc e7aa 643d 41fd 3fbd 5349 613d
00000020: 26c1 08bd 7447 27bd eed8 dbbc 32bd 0abd
00000030: 1d68 9a3c 96a0 5bbd 1f4c 6c3c a98d babc
00000040: f0a6 893c 2420 4b3a 0026 24bd d81e d2bc
00000050: facd 52bd 5637 183d ad17 dbbc 01fd 76bd
00000060: c1ee a9bc 7e84 d83c f4a3 4ebd 949e 32bc
00000070: 4787 d1bb 60d6 673b a975 553d 4385 23bc
00000080: c8a7 8abd 585b 843c db36 14bb 5a8f adbb
00000090: 2b4e 5f3d d0ad 58bc 36c9 263c 360e 4dbd
000000a0: d0bc c03b 219b 4abd 40dd cebb dddf 82bd
000000b0: 5c07 223d 0038 a43c e27f 56bd 1163 1cbd
000000c0: 7458 3d3d 8b93 e73b 7f18 323d d426 c6bc
000000d0: 302c 483d ed8b 9fbb 471c 053d e93c d7bc
000000e0: daad 34bd a827 363d d271 9cbc 29a6 fc3c
000000f0: c7de 763c 8355 48bc fa15 d7bb 706f b93c
00000100: 5eff 493d 2877 283c 5ac4 873d e4f7 67bd
00000110: c6d5 953c 81f9 52bd 122f 143d 0634 713d
00000120: 9efe 213d 9a5b 84ba d7fd e4bc 83bb 14bc
00000130: 5f4b 433d 2aa2 4a3d 00b7 b8bc 0405 efbc
00000140: dc9f ca3c 6930 5c3c 9b1b b73c 57c1 923b
00000150: f4dc 3ebd f5ce 64bd 68a7 26bd 5abe 7b3c
00000160: a4a6 23bc d6cd 17bd 1860 08bd 2a6c 7ebd
00000170: 26a5 2ebc 56e2 e5bc 744d 4e3d b618 07bd
00000180: 6f92 083d 5419 ddbc 0741 abbd b934 3a3d
00000190: 8755 6fbc 4e1c 69bd 2dfe d43c 2a5d 313d
000001a0: 0290 5a3d acda bd3c e04d 50bc 0c1d 40bb
000001b0: bc82 4bbd f8db c7bc f603 183d 19e1 e23c
000001c0: 4056 3b3c 60df 55bd 4090 b3bb a060 433d
000001d0: b0ac 6cbd 5ac6 ce3c 6b04 30bd 20cb 8d3c
000001e0: e42c 38bd 60bc b63c a527 46bd a62a 66bd
000001f0: acc2 b83b f66d 7f3d 10e9 353d 5b8d fcbc
00000200: 3259 263c 2328 64bd 19a6 5b3c 30c4 543c
00000210: 1aa9 493d fa02 08bc a0c5 143d b3f3 583c
00000220: 0d2a 8bbc 78a5 56bd 4ff2 26bd c83f 203c
00000230: 89b7 c8bc 85bd 2dbd caee ee3a b099 11bd
00000240: 0770 b9bc 1fb3 2f3c 0c3f 9ebc f2be 3d3d
00000250: 24e5 c5bc 967f c4bc 779f 80bc d5f8 b03c
00000260: c0c9 28bb 8863 cebc be5c 91bd 34c5 3bbd
00000270: f00c 6cbc 1e54 b13c d490 ca3c e01d 63bb
00000280: 0835 b03c c0a9 78bc e818 893c d198 50bd
00000290: 71e1 a13c c5a1 083c 5273 64bd ee40 683d
000002a0: 6145 69bd 558a 373c e8c8 47bd 9239 493d
000002b0: 4204 0d3d 0fd9 223d 7adb 2dbd 6ae1 633d
000002c0: 50da d53b bca2 2b3d b476 813c 6ca4 1b3c
000002d0: ae5f 643d af0c 92bc 8320 ffba 3c2f ae3c
000002e0: 8633 1ebd 70f8 bd3c 853d ab3a d271 95bc
000002f0: 067e 093d 4fdd 0cbd 0722 55bd 766d 37bd
00000300: 9d12 65bd bb55 83bd caa2 4dbd 2d50 59bd
00000310: 5b65 babb 0877 e13c 500c 90bd 8b9b 3bbd
00000320: f705 d3ba 2e5b 2ebd 94ff 453c 0c67 953c
00000330: e880 c5bc a78c 41bd 931f bfbc 4679 1dbd
00000340: f070 4bbd 63d4 663d 2019 4b3b 4c1a eebb
00000350: 1c0a 883c 603e cb3b ad7a 11bd 94b7 babc
00000360: 2d91 5dbc 6934 c7bb 705c ef3b e7c2 c6bb
00000370: 66a8 c13c 7d79 983c a612 6abd 0882 f13c
00000380: ec24 b3bc f0e1 92bc 70ad db3c c687 5abd
00000390: d5d1 7d3d dcfc b1bc 6168 a13c f5b7 8b3c
000003a0: 1236 813d 0098 f3b8 db53 083d b003 783c
000003b0: a4c5 983c 5344 adbc e7aa 533c 9609 27bd
000003c0: 599b 1b3d b63a d0bc ba25 c43c 6c88 13bd
000003d0: f8d4 613d 58f3 c33c 7812 063d 2145 c93c
000003e0: a745 e33c 1000 fe3b 8d3f 9e3d 4c27 debc
000003f0: 52ab f33c 6685 70bd d387 20bc 9506 213c

fc3.bias f4 [128]
0.02378201 -0.00678441 -0.061685663 -0.010332119 0.0082372045 0.047508612 0.015650643 0.030984819
0.014464734 0.1627826 -0.050632734 -0.0030985293 0.009926266 0.08616446 0.037703875 -0.054777443
0.040556192 -0.01177451 0.033899926 0.039575927 0.0072194985 -0.04419074 0.036234997 0.0036480278
0.07459142 -0.017673742 -0.027931118 0.049811497 0.03217788 -0.02028723 -0.005109157 -0.034210917
0.02732807 0.00060958083 0.042596366 0.030430622 -0.040177733 -0.049944688 0.05378573 -0.010612227
0.021433828 0.043522634 -0.053817026 -0.02977208 0.03332924 -0.057994876 -0.039606594 0.00043008337
0.038020946 0.018751597 0.0073570823 0.044448055 0.011954782 0.0864869 0.04433979 -0.057068516
0.0023334955 -0.060742762 -0.05003802 0.051380396 0.027341109 -0.04398485 0.011882548 -0.03579673
0.0512518 0.045665044 -0.008159575 -0.004855962 -0.034746185 0.036648802 0.09572582 0.0145127475
0.038787544 -0.00088230066 0.08676143 -0.0377397 0.017782204 0.045770243 0.0044572586 -0.003671815
-0.00961139 0.107104234 0.006508703 0.115093544 -0.0065627387 -0.053135656 -0.02442913 0.012624779
0.03432961 -0.0393079 -0.016437218 -0.023891795 0.085229084 0.02516353 -0.029826533 -0.078904554
0.056683104 -0.03263948 0.012337829 -0.001788419 -0.04184976 0.01041059 -0.04866792 -0.02751421
-0.00046042918 0.028807305 -0.007344172 0.08841538 -0.06818172 -0.050819606 0.0076037017 -0.008339424
-0.01716119 0.026978312 -0.0468634 -0.029654015 -0.00084702973 0.030241152 0.015365526 -0.0012484358
-0.04955862 0.034753542 0.0049898173 0.02330818 0.12917215 -0.018374993 0.0040453235 0.029849477
00000000: 7dd2 c23c c24f debb 1baa 7cbd 0c48 29bc
00000010: 57f5 063c 6498 423d c735 803c e0d3 fd3c
00000020: 7efd 6c3c 7bb0 263e 4564 4fbd b210 4bbb
00000030: c7a1 223c fe76 b03d 616f 1a3d 505e 60bd
00000040: 401e 263d e0e9 40bc a6da 0a3d 5e1a 223d
00000050: 8b91 ec3b 5901 35bd 266b 143d c013 6f3b
00000060: 63c3 983d 86c8 90bc cdcf e4bc 2407 4c3d
00000070: f4cc 033d 6831 a6bc b76a a7bb bf20 0cbd
00000080: 1edf df3c 47cc 1f3a 8779 2e3d a449 f93c
00000090: 6891 24bd cd92 4cbd 6d4e 5c3d e8de 2dbc
000000a0: ff95 af3c ca44 323d 3e6f 5cbd 94e4 f3bc
000000b0: 3e84 083d 098c 6dbd 863a 22bd d07c e139
000000c0: dabb 1b3d f39c 993c ae13 f13b 2a0f 363d
000000d0: fddd 433c 0b20 b13d a49d 353d adc0 69bd
000000e0: 8fed 183b 67cd 78bd abf4 4cbd 4074 523d
000000f0: 76fa df3c 7529 34bd 05af 423c 989f 12bd
00000100: 68ed 513d 450b 3b3d bdaf 05bc c31e 9fbb
00000110: 0452 0ebd 0e1d 163d e60b c43d e0c6 6d3c
00000120: b0df 1e3d 324a 67ba faaf b13d f294 1abd
00000130: fcab 913c 9479 3b3d 320e 923b d5a2 70bb
00000140: 1779 1dbc 7759 db3d f546 d53b 2ab6 eb3d
00000150: 3e0c d7bb c6a4 59bd 991f c8bc 29d8 4e3c
00000160: 359d 0c3d 5201 21bd 58a7 86bc bab8 c3bc
00000170: 968c ae3d bf23 ce3c c656 f4bc b698 a1bd
00000180: 8b2c 683d fab0 05bd 9b24 4a3c 6269 eaba
00000190: a76a 2bbd 2e91 2a3c 0358 47bd 7b65 e1bc
000001a0: c265 f1b9 4cfd eb3c 61a7 f0bb 1f13 b53d
000001b0: dca2 8bbd 3828 50bd 7928 f93b 14a2 08bc
000001c0: a095 8cbc 9f01 dd3c d6f3 3fbd faec f2bc
000001d0: 340b 5eba 4bbc f73c b0bf 7b3c 8ea2 a3ba
000001e0: fbfd 4abd bb59 0e3d 9f81 a33b ccf0 be3c
000001f0: b445 043e 2787 96bc a28e 843b e486 f43c

fc4.weight f4 [5, 128]
0.013838138 0.02755469 -0.050218955 -0.09973435 -0.06277901 -0.119117245 0.12452054 0.0282504
-0.05104631 0.35698736 -0.003313747 -0.040040817 0.068727784 0.1179883 0.09938216 -0.16525444
0.038523447 -0.025153063 -0.21249108 -0.0298801 -0.027646674 0.0379616 0.056687012 0.107502475
0.2171545 -0.04522562 0.048915394 0.007848154 -0.0358878 0.088028215 -0.09317717 0.062603824
0.18343109 0.018215986 -0.1053866 -0.06172561 -0.087320045 0.009710247 0.034034543 -0.042665694
0.096810594 -0.13218088 0.0070568626 0.0815556 -0.043361947 0.0732112 0.03721904 -0.14742479
0.0781701 0.060472436 0.15022106 -0.05187185 -0.23430967 0.22587495 -0.058104105 0.06923905
-0.0013382196 -0.029987255 0.06817553 -0.101593666 -0.0066275685 0.047871932 -0.064367644 -0.0967773
-0.04461528 0.06982642 -0.12980846 0.05380425 0.12809406 -0.08562051 0.0843801 0.06957311
0.04787202 -0.09789308 0.020003 -0.011773305 -0.09986561 -0.032529082 -0.061240844 0.08469224
0.045183215 0.18119417 -0.06751382 0.1561624 -0.017564349 -0.17627572 0.04391086 -0.12362931
0.13479362 0.03388596 -0.14898129 -0.022908023 -0.114496455 -0.03620239 -0.081858955 0.057478786
0.15755263 0.04656113 -0.016360868 -0.08653352 0.054235093 0.02797404 -0.012736628 0.071206525
0.04621569 0.051637985 -0.09113868 0.14311458 0.02953503 -0.054850113 -0.0031898334 -0.001844086
-0.122742325 0.03733201 0.023833781 -0.08941114 -0.074437834 0.064298905 -0.1529428 0.065386415
-0.18899396 -0.070470996 0.07125843 0.034053706 0.08282661 -0.03597124 -0.11611121 -0.033039115
0.0017318212 0.045553487 -0.081414856 -0.12382123 -0.08383143 -0.11672517 0.113625616 -0.06286378
-0.0073491563 0.28694606 0.0069405627 0.06408154 -0.011791663 0.14854543 0.1645683 -0.0814957
0.107138604 -0.13783757 -0.1708611 -0.061495695 6.674611e-05 -0.046716094 -0.08627605 -0.07389681
0.29062727 0.04475714 -0.021375902 0.065106325 0.018595796 -0.004410185 -0.122843124 -0.08088847
0.09277993 -0.09177983 -0.1298685 -0.09947899 -0.1266593 -0.02007159 0.05179183 -0.026983963
0.17233635 -0.08167849 0.03996728 -0.05377745 -0.052182082 0.056141503 -0.0742905 -0.12345136
0.060888976 -0.07895909 0.13273706 0.021667315 -0.15379198 0.13043168 -0.015849039 -0.060225308
-0.009235304 -0.140874 0.05591617 -0.092427246 0.07841911 0.026896482 -0.11489491 -0.044741247
-0.10769315 -0.0148753375 0.04461425 -0.011552849 0.1892649 -0.03282587 0.13572417 -0.027122952
-0.08204883 -0.025441004 0.106700234 -0.04578572 -0.01590722 -0.1407351 -0.047533415 -0.043229215
0.016354362 0.1587449 -0.029172182 0.15051506 -0.007667437 -0.2287936 -0.0081905695 -0.15733191
0.17599952 -0.026694093 -0.07438588 -0.026737582 -0.116507344 -0.04233245 0.014303045 -0.08744441
0.10674157 0.06402012 0.026216079 -0.10457893 0.05072517 0.025078394 -0.07486754 -0.0568656
0.068336286 -0.0380372 -0.122089006 0.13697582 -0.0488606 -0.05754905 -0.07963626 -0.05518578
-0.15516213 0.0072014364 -0.052553073 -0.12358447 -0.1244684 -0.028867593 -0.03148194 0.0044507054
-0.122084826 0.054787207 0.07891669 0.016960718 0.12660886 -0.03789325 -0.19785434 0.037196215
00000000: 5cb9 623c 60ba e13c 64b2 4dbd 8641 ccbd
00000010: 4892 80bd bef3 f3bd a004 ff3d 626d e73c
00000020: f015 51bd 0cc7 b63e 732b 59bb d701 24bd
00000030: 27c1 8c3d daa3 f13d e088 cb3d 7638 29be
00000040: c3ca 1d3d cc0d cebc 4397 59be 1dc7 f4bc
00000050: 477b e2bc 9f7d 1b3d a430 683d 422a dc3d
00000060: c05d 5e3e 803e 39bd 825b 483d 8b95 003c
00000070: 16ff 12bd 2348 b43d acd3 bebd 6f36 803d
00000080: 5cd5 3b3e b139 953c eed4 d7bd fed3 7cbd
00000090: dad4 b2bd ba17 1f3c ce67 0b3d 39c2 2ebd
000000a0: a244 c63d 6d5a 07be 413d e73b 9f06 a73d
000000b0: 4c9c 31bd c1ef 953d fe72 183d 86f6 16be
000000c0: a517 a03d f2b1 773d 8dd3 193e 9477 54bd
000000d0: e0ee 6fbe c34b 673e 92fe 6dbd 34cd 8d3d
000000e0: 3367 afba d5a7 f5bc 9d9f 8b3d 5710 d0bd
000000f0: 132c d9bb 5c15 443d 2fd3 83bd 2d33 c6bd
00000100: 83be 36bd 2701 8f3d 82ec 04be d861 5c3d
00000110: 172b 033e ce59 afbd 79cf ac3d 597c 8e3d
00000120: 7415 443d 2b7c c8bd 55dd a33c d2e4 40bc
00000130: 5786 ccbd 373d 05bd aed7 7abd 2073 ad3d
00000140: 0912 393d f78a 393e b044 8abd 09e9 1f3e
00000150: 1ce3 8fbc 9f81 34be e0db 333d 5d31 fdbd
00000160: 5707 0a3e 01cc 0a3d 8d8e 18be 9ba9 bbbc
00000170: 1e7d eabd f548 14bd aba5 a7bd e06e 6b3d
00000180: 7a55 213e e2b6 3e3d 3a07 86bc 7c38 b1bd
00000190: 9e25 5e3d d029 e53c 4aad 50bc bad4 913d
000001a0: aa4c 3d3d 5a82 533d eba6 babd a18c 123e
000001b0: 72f3 f13c 83aa 60bd 860c 51bb 42b5 f1ba
000001c0: 5460 fbbd 73e9 183d 103f c33c 301d b7bd
000001d0: dd72 98bd 25af 833d 0a9d 1cbe 50e9 853d
000001e0: a287 41be 1953 90bd f1ef 913d e67b 0b3d
000001f0: ffa0 a93d 9456 13bd b7cb edbd 0654 07bd
00000200: 47fe e23a 4b96 3a3d d5bc a6bd fc95 fdbd
00000210: d0af abbd 9b0d efbd 8cb4 e83d babe 80bd
00000220: 31d1 f0bb 98ea 923e a96d e33b 2f3d 833d
00000230: d231 41bc 4b1c 183e 9884 283e 38e7 a6bd
00000240: 7c6b db3d 4b25 0dbe 36f6 2ebe e9e2 7bbd
00000250: 0cfa 8b38 6059 3fbd 7fb1 b0bd 3657 97bd
00000260: 19cd 943e 4353 373d 841c afbc 7756 853d
00000270: 3656 983c 5083 90bb 2d95 fbbd dba8 a5bd
00000280: 6703 be3d 10f7 bbbd 40fc 04be a4bb cbbd
00000290: fab2 01be 2d6d a4bc ac23 543d 790d ddbc
000002a0: f178 303e 0d47 a7bd bbb4 233d be45 5cbd
000002b0: e1bc 55bd a2f4 653d 9e25 98bd 11d4 fcbd
000002c0: b866 793d 4eb5 a1bd 39ec 073e a77f b13c
000002d0: a57b 1dbe e28f 053e d8d5 81bc d0ae 76bd
000002e0: ac4f 17bc 4641 10be 5b08 653d 7f4a bdbd
000002f0: 339a a03d 0356 dc3c 064e ebbd 9942 37bd
00000300: 3a8e dcbd b0b7 73bc 6fbd 363d 2948 3dbc
00000310: a8ce 413e 6b74 06bd 47fb 0a3e f430 debc
00000320: 3809 a8bd a769 d0bc a785 da3d cf89 3bbd
00000330: dc4f 82bc dd1c 10be 66b2 42bd 1e11 31bd
00000340: 95f9 853c 068e 223e 80fa eebc 9f20 1a3e
00000350: 203f fbbb df48 6abe bd31 06bc 9e1b 21be
00000360: 3839 343e 92ad dabc a057 98bd c608 dbbc
00000370: 679b eebd cb64 2dbd 5257 6a3c 0e16 b3bd
00000380: 539b da3d fb1c 833d 1ac3 d63c 7a2d d6bd
00000390: 32c5 4f3d 3471 cd3c 2754 99bd e7eb 68bd
000003a0: e5f3 8b3d e5cc 1bbd cd09 fabd 6443 0c3e
000003b0: 0d22 48bd 8db8 6bbd 5618 a3bd 7c0a 62bd
000003c0: d2e2 1ebe 07fa eb3b e441 57bd db19 fdbd
000003d0: 4ae9 febd bb7b ecbc 35f3 00bd 39d7 913b
000003e0: 9c07 fabd 8d68 603d 139f a13d 34f1 8a3c
000003f0: c1a5 013e f435 1bbd 549a 4abe 0f5b 183d

fc4.bias f4 [5]
0.0031457392 0.014670475 0.0536558 0.08544427 0.0005016823
00000000: bf28 4e3b 6f5c 703c 2fc6 5b3d 68fd ae3d
00000010: 5483 033a
