models/lateral_stage3_seed2222_final.pth (torch, 412481 bytes, 8 tensors)

fc1.weight f4 [256, 9]
0.93847513 0.011006868 0.54112005 -0.04646991 0.35817507 0.30883667 -0.24828975 0.005965084
-0.06763677 0.08362527 -0.5666355 -0.24054179 0.32314062 0.1476429 -0.39210007 -0.026578307
0.3006166 -0.17296238 0.5312849 0.48922375 0.13079326 0.50712806 0.122012295 0.4705805
0.30316487 0.17945752 0.25390878 -3.7983596 -0.40891212 0.57824874 0.17262508 0.21665117
0.19884072 -0.3078625 -0.10476601 0.060383737 1.5856574 0.12141913 0.67713374 -0.40109217
-0.10628374 0.0013931084 0.058811575 -0.123055026 -0.5113631 0.7815589 -0.13639788 -0.009059769
0.4755763 -0.028700853 0.54574484 -0.26536894 -0.32512337 0.34061316 -1.3581485 0.11922338
-0.4376893 -0.3778301 -0.14081517 -0.056630757 0.25134423 0.034822673 -0.3983049 -0.24430606
0.12455385 0.10878409 -0.16102938 0.20804037 0.5305531 0.24128821 -0.1420639 -1.034832
-3.7886963 -0.28683883 -0.06949392 -0.59102845 0.06368316 -0.014416676 -0.16230997 -0.045870066
-0.23274887 1.5162191 0.56968045 -0.5151205 0.9537328 -0.03754904 0.17158982 -0.13497214
0.24210474 -0.08505654 -0.1564309 -0.30253965 -0.21494563 0.2954799 0.47969234 0.5194514
-0.16943097 -0.07153574 -0.13747978 2.4016116 -0.040386304 -0.48110864 0.2454657 -0.11909825
-0.38947096 0.17885694 -0.088867664 0.19751953 4.244438 -0.16650474 0.039220687 0.81262505
0.098844424 0.08836514 0.0028558075 0.11820993 -0.0090798205 -5.3565035 0.15586756 -0.037116934
-0.14121786 -0.40758756 0.10416114 0.15206859 -0.28492635 0.2078965 -0.37354767 -0.1695897
0.6964157 -0.054536037 -0.10104204 -0.013093317 0.13772735 0.1634678 -0.36704212 -2.3207278
-0.51536536 0.30723655 -0.30106795 0.045602668 -0.34246498 -0.17303407 0.2169579 0.23559298
-0.3463301 -0.013354488 0.006735167 0.26679865 0.47594628 0.3008247 -0.09158394 -0.3122866
0.16636601 -0.056784764 -0.14048119 -0.13264301 -0.04814319 -0.18753085 0.20121965 0.2597328
0.18497655 -0.32018963 4.9340553 0.26345646 0.17713422 0.2292539 -0.39812475 0.05986337
0.2970313 -0.28903604 -0.12601341 -3.4275777 -0.07423967 -0.2680144 0.21358635 0.10617171
-0.0093727615 -0.07433376 -0.2898788 -0.18181786 -3.275859 0.007877556 -0.62975055 -0.056158256
0.01701071 -0.12558366 -0.108953476 0.04078582 0.20846464 -5.2134132 0.50541884 0.3181167
-0.5940315 -0.02607319 0.37286407 -0.16300003 0.17612013 -0.21944147 3.6165679 -0.20149435
0.7288652 0.099070564 0.29264593 0.2141762 -0.098395035 0.11300984 0.15805613 -1.2288823
0.10209182 -0.40622425 0.26256686 0.14987627 0.30287105 -0.16442506 0.109300256 -0.111345135
-5.6057744 -0.1593505 0.30253547 0.10377739 -0.04339797 0.52810246 0.07782492 -0.27885133
0.11469892 0.6011014 0.8836543 0.3521626 0.21445626 -0.29508445 -0.24448211 -0.2583803
-0.031239957 -0.4473475 -0.12885997 -0.36930284 0.05068827 -0.06334039 0.2880956 0.008109888
0.3248298 0.2445508 0.22835816 -2.984599 -0.13060172 -0.57746136 -0.24936743 -0.12148797
-0.13928539 -0.27951753 -0.21534571 0.022180235 -3.901137 -0.26309824 0.10727174 -0.556736
00000000: e83f 703f 2756 343c d886 0a3f 3b57 3ebd
00000010: b962 b73e d71f 9e3e ab3f 7ebe c076 c33b
00000020: 2685 8abd ba43 ab3d 060f 11bf 9650 76be
00000030: b072 a53e b32f 173e 57c1 c8be c0ba d9bc
00000040: 6bea 993e 0d1d 31be 4a02 083f 897b fa3e
00000050: abee 053e 25d3 013f 95e1 f93d edef f03e
00000060: 6d38 9b3e b6c3 373e 5500 823e 5318 73c0
00000070: ee5c d1be 1c08 143f a1c4 303e ced9 5d3e
00000080: e79c 4b3e 27a0 9dbe 908f d6bd f054 773d
00000090: d2f6 ca3f 98aa f83d a358 2d3f f45b cdbe
000000a0: 4aab d9bd f698 b63a 68e4 703d 4604 fcbd
000000b0: b1e8 02bf 3e14 483f e3ab 0bbe 6d6f 14bc
000000c0: bd7e f33e 0d1e ebbc efb5 0b3f 70de 87be
000000d0: 9276 a6be d964 ae3e cfd7 adbf 632b f43d
000000e0: d018 e0be f272 c1be da31 10be a7f5 67bd
000000f0: 31b0 803e 38a2 0e3d 9fee cbbe 5e2b 7abe
00000100: 1716 ff3d 31ca de3d e3e4 24be 8908 553e
00000110: 54d2 073f 4214 773e 3379 11be 6075 84bf
00000120: 007a 72c0 8adc 92be d452 8ebd a44d 17bf
00000130: 516c 823d ec33 6cbc 9634 26be 40e2 3bbd
00000140: b855 6ebe 7813 c23f 94d6 113f f0de 03bf
00000150: d527 743f 06cd 19bd 3eb5 2f3e 2336 0abe
00000160: 4eea 773e 2032 aebd 6c2f 20be 7ae6 9abe
00000170: b51a 5cbe 2449 973e 3c9a f53e c4fa 043f
00000180: 507f 2dbe 5481 92bd 80c7 0cbe 01b4 1940
00000190: 1c6c 25bd df53 f6be 5c5b 7b3e c9e9 f3bd
000001a0: bd68 c7be 4626 373e 4000 b6bd 8f42 4a3e
000001b0: 70d2 8740 3880 2abe dfa5 203d 3208 503f
000001c0: f26e ca3d c8f8 b43d 8028 3b3b 0c18 f23d
000001d0: 87c3 14bc 7a68 abc0 bf9b 1f3e ed07 18bd
000001e0: 6a9b 10be 51af d0be 7052 d53d deb7 1b3e
000001f0: dee1 91be d2e2 543e a441 bfbe eca8 2dbe
00000200: 4d48 323f 2e61 5fbd 21ef cebd 5a85 56bc
00000210: 6608 0d3e 1a64 273e f2ec bbbe ce86 14c0
00000220: fcee 03bf 1c4e 9d3e 9425 9abe ddc9 3a3d
00000230: 9257 afbe d82f 31be 362a 5e3e 493f 713e
00000240: 2e52 b1be c8cc 5abc adb2 dc3b d599 883e
00000250: 3baf f33e b205 9a3e 5c90 bbbd 07e4 9fbe
00000260: da5b 2a3e 2497 68bd 4dda 0fbe 92d3 07be
00000270: cb31 45bd 1608 40be 860c 4e3e b3fb 843e
00000280: 7e6a 3d3e e5ef a3be c8e3 9d40 c4e3 863e
00000290: ac62 353e 89c1 6a3e 02d7 cbbe 4b33 753d
000002a0: 7d14 983e 88fc 93be a909 01be 6f5d 5bc0
000002b0: f80a 98bd 2f39 89be 61b6 5a3e 8e70 d93d
000002c0: 3690 19bc 4c3c 98bd fe6a 94be 762e 3abe
000002d0: ada7 51c0 dd10 013c 5537 21bf 3306 66bd
000002e0: 0b5a 8b3c 0199 00be 0023 dfbd 080f 273d
000002f0: c177 553e 48d4 a6c0 2163 013f 31e0 a23e
00000300: 7312 18bf 7197 d5bc 0ae8 be3e 7be9 26be
00000310: d658 343e 44b5 60be d975 6740 8954 4ebe
00000320: e996 3a3f 82e5 ca3d b0d5 953e 0151 5b3e
00000330: 5683 c9bd b471 e73d 77d9 213e 044c 9dbf
00000340: 8415 d13d a0fc cfbe 2a6f 863e 2a79 193e
00000350: ea11 9b3e 0b5f 28be d0d8 df3d eb08 e4bd
00000360: 8162 b3c0 c72c 23be eee5 9a3e 3e89 d43d
00000370: 12c2 31bd b931 073f ac62 9f3d 9ac5 8ebe
00000380: 44e7 ea3d c8e1 193f 2b37 623f a84e b43e
00000390: 6c9a 5b3e 4f15 97be 8559 7abe 6c4a 84be
000003a0: f0ea ffbc bb0a e5be def3 03be 4315 bdbe
000003b0: 819e 4f3d 9bb8 81bd 4481 933e 56df 043c
000003c0: 1750 a63e 866b 7a3e b9d6 693e ac03 3fc0
000003d0: 75bc 05be 82d4 13bf 2d5a 7fbe afce f8bd
000003e0: d4a0 0ebe ec1c 8fbe 9683 5cbe 53b3 b53c
000003f0: 3bac 79c0 d0b4 86be 49b1 db3d 4086 0ebf

fc1.bias f4 [256]
0.23135461 -0.37376922 0.13056464 0.13800247 -0.31971735 0.16994636 -0.28091905 -0.2887474
0.092244856 -0.21072704 -0.2024465 0.050392084 0.2767563 0.059880108 0.33460438 0.010452567
-0.29062527 -0.27218184 0.20889296 0.23475003 0.033388145 -0.3460953 -0.12855008 -0.63561887
0.31746095 -0.38440344 0.12547621 0.018345216 0.38455108 -0.26814994 0.21792595 0.07879421
0.05677451 0.117989235 0.10327127 -0.15500644 0.05859493 0.058043677 0.12676482 0.087078564
-0.17472155 -0.13224928 -0.13457675 0.2746473 0.089963146 0.32820693 0.1413781 -0.08039744
0.23423012 0.1693556 0.06380321 -0.44917855 -0.06302604 -0.05304883 0.18699047 -0.57603735
-0.33469862 -0.12135114 0.15322515 -0.17406127 0.04983371 -0.40223613 0.2165946 -0.028980702
-0.3998392 -0.5153776 0.13312127 0.31579232 -0.2688543 0.33826786 0.13673612 0.051952027
-0.21748604 0.30172732 0.039151844 -0.28307647 -0.30355635 -0.28099623 -0.51073015 0.030136013
-0.4273366 -0.12541792 -0.047743246 0.23813444 0.021622587 -0.39888173 -0.029522102 -0.1953101
0.12294616 -0.45907208 -0.3305642 -0.07185811 -0.43788084 0.029997688 0.29277533 0.01298286
-0.1060992 -0.122259006 -0.377194 -0.33471796 0.055499926 0.24604759 -0.18755947 0.31052926
-0.048351947 0.18428862 -0.46620765 -0.21163994 -0.03141209 -0.1752877 -0.026766416 -0.09974132
-0.2648262 -0.38238487 0.012349791 0.28474247 -0.029347986 -0.007872008 0.17271063 0.24646233
0.08436503 -0.17850316 0.04621278 -0.29450572 0.18365394 0.1611091 -0.41209695 -0.18195274
0.24878386 -0.30748367 0.07823361 0.036824666 0.0053974246 -0.07142857 0.30563593 -0.0087391455
-0.23707718 -0.33221662 -0.1260082 -0.29022628 0.22630274 -0.30832738 0.26782355 -0.096010596
0.011375557 -0.24573478 0.07356932 -0.18350075 -0.25939655 0.19807485 -0.12978022 -0.073055975
-0.28266132 -0.018146588 -0.012482372 -0.2744375 -0.15355903 -0.337581 -0.22948389 0.31016055
-0.22015093 0.004277781 -0.38040373 0.074157305 -0.32989997 0.19352344 -0.30464298 0.22451006
-0.3759621 -0.09476156 0.18005636 -0.26845026 -0.23860373 -0.20579366 -0.34891555 -0.08075317
0.03618821 -0.12213583 0.027570218 -0.024182055 -0.26600188 0.26623943 0.32618353 -0.61633974
0.055902623 -0.21753295 -0.086892776 0.23899628 0.11445933 0.0821153 0.29509452 -0.37956443
-0.07228693 -0.22944336 0.20277855 -0.040334143 -0.0842482 0.050980017 0.1446641 0.38026705
-0.17265141 0.110716365 0.101652436 0.11162349 -0.30672774 -0.29459852 0.12569301 0.3218207
-0.13821468 0.17444238 0.29333007 0.3252665 0.13152571 -0.1679411 0.2569328 0.03574309
0.2955844 0.2920669 0.31781024 0.109428935 -0.14734967 -0.040946893 -0.2602249 0.2985181
0.25481015 -0.22689833 0.35173213 0.26755422 0.19983752 0.14637583 0.27791443 0.35272142
0.0050562606 0.054060623 -0.21635033 0.14984547 0.06819471 0.3378228 -0.59081805 0.26562062
-0.024589194 0.030709285 0.3827822 -0.1459529 0.28669745 -0.37540463 -0.42527625 -0.07528159
0.15208544 -0.26420718 -0.28417763 0.021760195 0.14339034 0.200237 0.22453648 0.10959498
00000000: 39e8 6c3e ae5e bfbe bdb2 053e 8550 0d3e
00000010: feb1 a3be 6b06 2e3e 9fd4 8fbe b3d6 93be
00000020: dfea bc3d d4c8 57be 234e 4fbe ee67 4e3d
00000030: 00b3 8d3e d844 753d 4451 ab3e 3e41 2b3c
00000040: d6cc 94be 6b5b 8bbe 09e8 553e 5062 703e
00000050: 02c2 083d 6733 b1be a2a2 03be ebb7 22bf
00000060: 3e8a a23e 87d0 c4be d67c 003e b548 963c
00000070: e1e3 c43e f34a 89be fb27 5f3e dc5e a13d
00000080: 638c 683d 57a4 f13d e37f d33d 02ba 1ebe
00000090: 3d01 703d 35bf 6d3d a3ce 013e 3f56 b23d
000000a0: 35ea 32be 5b6c 07be 7dce 09be 929e 8c3e
000000b0: 993e b83d bd0a a83e 6cc5 103e 6aa7 a4bd
000000c0: 05da 6f3e 8e6b 2d3e 42ab 823d bbfa e5be
000000d0: cc13 81bd bb49 59bd 6e7a 3f3e 2f77 13bf
000000e0: 9e5d abbe f286 f8bd 0ee7 1c3e 1e3d 32be
000000f0: 6f1e 4c3d e5f1 cdbe faca 5d3e f068 edbc
00000100: b9b7 ccbe c9ef 03bf f150 083e 88af a13e
00000110: 45a7 89be 7231 ad3e 8e04 0c3e a6cb 543d
00000120: a9b4 5ebe 017c 9a3e af5d 203d 66ef 90be
00000130: bd6b 9bbe bdde 8fbe 36bf 02bf cddf f63c
00000140: ddcb dabe 8e6d 00be 6c8e 43bd 84d9 733e
00000150: da21 b13c 3a3a ccbe 56d8 f1bc 5fff 47be
00000160: 32cb fb3d 7f0b ebbe b63f a9be 582a 93bd
00000170: eb31 e0be b6bd f53c a6e6 953e 10b6 543c
00000180: 8a4a d9bd ee62 fabd 921f c1be 2760 abbe
00000190: e453 633d e6f3 7b3e 970f 40be b1fd 9e3e
000001a0: b10c 46bd 28b6 3c3e c5b2 eebe 24b8 58be
000001b0: f7a9 00bd 9e7e 33be 3e45 dbbc 2d45 ccbd
000001c0: 4d97 87be f3c7 c3be c756 4a3c c4c9 913e
000001d0: 306b f0bc 98f9 00bc 0edb 303e 9f60 7c3e
000001e0: 93c7 ac3d 88c9 36be 9d49 3d3d 74c9 96be
000001f0: c70f 3c3e c9f9 243e 5ffe d2be d251 3abe
00000200: 32c1 7e3e 806e 9dbe f138 a03d 76d5 163d
00000210: e1dc b03b 2449 92bd 507c 9c3e a22e 0fbc
00000220: 5cc4 72be 4c18 aabe 4b08 01be 8a98 94be
00000230: e8bb 673e 16dd 9dbe 2b20 893e 34a1 c4bd
00000240: 8b60 3a3c e6a1 7bbe 83ab 963d 9fe7 3bbe
00000250: a0cf 84be 22d4 4a3e 1be5 04be 5f9e 95bd
00000260: fcb8 90be 27a8 94bc dd82 4cbc 1283 8cbe
00000270: 943e 1dbe 6bd7 acbe d3fd 6abe 5dcd 9e3e
00000280: 3f6f 61be a12c 8c3b 47c4 c2be c9df 973d
00000290: a6e8 a8be 022b 463e 2afa 9bbe f7e5 653e
000002a0: 1b7e c0be 5912 c2bd b260 383e 5072 89be
000002b0: 8954 74be 93bb 52be 0fa5 b2be eb61 a5bd
000002c0: 173a 143d 5a22 fabd f0da e13c 7219 c6bc
000002d0: 6631 88be 8950 883e 8701 a73e 71c8 1dbf
000002e0: 26fa 643d f5c0 5ebe d7f4 b1bd 71bb 743e
000002f0: a769 ea3d 112c a83d a116 973e 4556 c2be
00000300: 2c0b 94bd 33f3 6abe 2ea5 4f3e 6a35 25bd
00000310: 528a acbd 6cd0 503d d322 143e 5db2 c23e
00000320: 88cb 30be 43bf e23d 272f d03d db9a e43d
00000330: 6b0b 9dbe 9ed5 96be abb5 003e afc5 a43e
00000340: 2688 0dbe 06a1 323e 5c2f 963e 5589 a63e
00000350: adae 063e c0f8 2bbe b28c 833e 5967 123d
00000360: d756 973e cb89 953e 06b8 a23e 471c e03d
00000370: d5e2 16be eeb7 27bd 333c 85be 5dd7 983e
00000380: 7a76 823e 0958 68be 3c16 b43e defc 883e
00000390: 35a2 4c3e 8ce3 153e cd4a 8e3e e797 b43e
000003a0: fdae a53b ac6e 5d3d f18a 5dbe 1771 193e
000003b0: aba9 8b3d 1cf7 ac3e da3f 17bf 6dff 873e
000003c0: 476f c9bc 0a92 fb3c 07fc c33e ad74 15be
000003d0: 02ca 923e 0935 c0be cfbd d9be 3c2d 9abd
000003e0: 49bc 1b3e 2a46 87be bb7f 91be 7042 b23c
000003f0: ebd4 123e ee0a 4d3e e4ec 653e 5573 e03d

fc2.weight f4 [256, 256]
-0.028688319 0.023960344 0.017856797 0.034312323 0.023352247 0.01934631 -0.03816692 0.049362086
-0.014131462 0.016207831 -0.026017576 0.034527637 0.008839147 0.040680263 -0.048288163 0.058978826
0.046602294 0.02031295 -0.062424023 -0.06453912 -0.029407766 0.0026305947 -0.06113573 0.040742647
0.026389388 0.037784435 -0.06578014 -0.031364687 -0.03508984 -0.060696505 -0.007517668 -0.0103009
-0.026578875 0.031372026 -0.05360561 0.057386875 0.010988749 -0.051795423 -0.06224356 0.03431475
-0.029087804 0.041910574 0.01880231 -0.06218971 0.047544714 -0.04707073 0.029542983 0.043023497
-0.037022363 0.0033048305 -0.043930613 -0.036758557 -0.067274764 -0.06085594 -0.051603872 0.027687386
-0.061042916 -0.009355509 0.046846997 -0.04378023 -0.018593471 -0.020929864 -0.03560248 -0.04485073
-0.019219466 0.008804873 0.0061115706 -0.041903734 0.017198322 -0.03203904 -0.043329917 -0.041558012
-0.05507528 0.008211161 -0.015819512 -0.00032638758 0.04354271 0.025792036 -0.027105646 -0.01546145
0.0028214464 -0.046304647 0.010306551 -0.034236312 0.055007055 -0.0251887 0.016455024 0.02513916
-0.05210044 -0.07630084 -0.039070703 -0.032401048 0.033900306 0.016118625 -0.03185372 -0.07258106
-0.054508276 -0.012259817 -0.025095414 -0.009674303 -0.0062196804 0.02314578 -0.048383594 -0.019826684
0.0048658177 -0.063612096 -0.03496781 -0.0152357 -0.054006543 0.042448744 0.0015784657 -0.051347256
-0.056905992 -0.035336293 -0.056673937 0.034120273 -0.010557485 -0.011035088 -0.023009786 -0.04728728
0.04561074 -0.033026338 -0.066166505 -0.010853335 0.042907305 0.013640247 0.015998423 0.01792254
0.025419528 0.010982477 -0.0030881679 -0.0506704 -0.0047199284 0.0017845103 -0.02680152 -0.057904627
0.018611195 0.015334797 -0.03714098 -0.019955888 -0.05235869 0.016398132 0.05860143 0.029479653
0.030511921 -0.02262155 0.04686895 0.037571177 -0.057480242 -0.0016601238 0.045580424 0.027172878
-0.060522564 -0.060629234 -0.0030636224 0.014370516 -0.039338406 0.021203602 -0.013004159 -0.070008956
0.035976514 0.015670238 -0.05280053 -0.0009062836 0.023377687 -0.06438886 0.023723133 -0.043988854
0.027404675 0.024995927 0.040364403 -0.01693843 0.0494445 0.019089945 -0.06930298 -0.0030540042
0.022818306 -0.031015094 -0.0016913512 -0.06214216 -0.016483875 0.015385555 0.015585648 0.037336975
-0.026798753 -0.0048912987 -0.0126462355 -0.03867221 -0.065905474 0.053784214 -0.05779057 0.04423686
0.008163097 0.04887169 -0.02250759 -0.018868977 0.006113719 -0.056510784 -0.065624356 0.00962146
-0.03242228 -0.05290889 -0.012502841 -0.0049190335 0.010837033 -0.058711026 -0.044196747 -0.033999108
-0.026300436 -0.061387293 0.04188882 -0.016617922 -0.0064168046 0.026994443 -0.029410789 -0.05868929
0.042994622 0.022268822 0.026237508 0.009990504 -0.04961614 -0.018736951 -0.052222025 -0.058909
0.041346285 0.01406651 0.026952315 -0.019345101 0.051546212 0.052474283 -0.044043146 -0.026390085
0.021569988 -0.01714569 0.053588882 0.038130376 -0.03413043 -0.03027289 0.060957797 -0.032195114
0.033241853 -0.051146697 0.042327583 -0.05835168 -0.022680577 0.021185577 0.02612907 -0.05471009
0.016288362 -0.052619193 -0.048523314 0.052338064 0.0012073285 0.024563417 -0.044617966 -0.019072533
00000000: c403 ebbc 7c48 c43c 6b48 923c 148b 0c3d
00000010: 364d bf3c 277c 9e3c eb54 1cbd e62f 4a3d
00000020: a687 67bc 49c6 843c d022 d5bc da6c 0d3d
00000030: 12d2 103c 59a0 263d cfc9 45bd c893 713d
00000040: 0ce2 3e3d 5867 a63c 55b0 7fbd 162d 84bd
00000050: 8ee8 f0bc 0e66 2c3b 7669 7abd c3e1 263d
00000060: 8f2e d83c dac3 1a3d bdb7 86bd 4278 00bd
00000070: 5dba 0fbd e69c 78bd c556 f6bb 1bc5 28bc
00000080: f1bb d9bc f47f 003d 8e91 5bbd 800e 6b3d
00000090: 270a 343c 7027 54bd 1af3 7ebd a08d 0c3d
000000a0: 8c49 eebc 6caa 2b3d 4d07 9a3c a3ba 7ebd
000000b0: 3fbe 423d 3dcd 40bd 2004 f23c 6839 303d
000000c0: c3a4 17bd db95 583b 96f0 33bd 2490 16bd
000000d0: 5ac7 89bd 1444 79bd 955e 53bd a8d0 e23c
000000e0: 2308 7abd d947 19bc a3e2 3f3d e652 33bd
000000f0: 5651 98bc 1b75 abbc e8d3 11bd 66b5 37bd
00000100: 2472 9dbc 5042 103c 9243 c83b 40a3 2bbd
00000110: 7fe3 8c3c 5e3b 03bd b67a 31bd bc38 2abd
00000120: 9e96 61bd 1b88 063c ec97 81bc 001f abb9
00000130: d759 323d d249 d33c a90c debc 0652 7dbc
00000140: 04e8 383b f1a9 3dbd cfdc 283c 603b 0cbd
00000150: 144f 613d 8858 cebc b0cc 863c a4f0 cd3c
00000160: 4567 55bd 9d43 9cbd 9a08 20bd f6b6 04bd
00000170: 0cdb 0a3d 350b 843c 0c79 02bd 61a5 94bd
00000180: 1244 5fbd 66dd 48bc e694 cdbc f880 1ebc
00000190: 76ce cbbb 389c bd3c e02d 46bd 926b a2bc
000001a0: 7071 9f3b 0f47 82bd 683a 0fbd 289f 79bc
000001b0: f735 5dbd bcde 2d3d 85e4 ce3a 8051 52bd
000001c0: 4216 69bd cabc 10bd ee22 68bd b3c1 0b3d
000001d0: 4df9 2cbc 84cc 34bc 057f bcbc 4fb0 41bd
000001e0: 54d2 3a3d a046 07bd 4e82 87bd 30d2 31bc
000001f0: 92bf 2f3d 587b 5f3c 200f 833c 4ad2 923c
00000200: 9d3c d03c d9ef 333c dc62 4abb c48b 4fbd
00000210: a1a9 9abb 3be6 e93a dc8e dbbc 672d 6dbd
00000220: 8176 983c cd3e 7b3c 2421 18bd 887a a3bc
00000230: 1176 56bd 6055 863c 0e08 703d 507f f13c
00000240: 23f4 f93c d450 b9bc a8f9 3f3d 3ce4 193d
00000250: 6770 6bbd 8398 d9ba 8ab2 3a3d a899 de3c
00000260: 82e6 77bd 5c56 78bd 0ec7 48bb 5072 6b3c
00000270: 4f21 21bd 2db3 ad3c 650f 55bc db60 8fbd
00000280: 1c5c 133d df5e 803c 5e45 58bd aa93 6dba
00000290: 9082 bf3c 4ede 83bd 0457 c23c a82d 34bd
000002a0: c57f e03c 42c4 cc3c 2555 253d 76c2 8abc
000002b0: 5186 4a3d 8462 9c3c b9ee 8dbd b025 48bb
000002c0: 75ed ba3c 5e13 febc 54b0 ddba c788 7ebd
000002d0: 3109 87bc b213 7c3c f25a 7f3c a8ee 183d
000002e0: 0f89 dbbc 3047 a0bb 2832 4fbc c066 1ebd
000002f0: 73f9 86bd d64c 5c3d ceb5 6cbd b631 353d
00000300: 83be 053c ae2d 483d d661 b8bc 1d93 9abc
00000310: 9855 c83b da77 67bd 1066 86bd 54a3 1d3c
00000320: 3acd 04bd feb6 58bd b7d8 4cbc d82f a1bb
00000330: d08d 313c f97a 70bd a607 35bd a642 0bbd
00000340: 0374 d7bc 3e71 7bbd 9c93 2b3d 4f22 88bc
00000350: 0f44 d2bb 7323 dd3c e5ee f0bc 2e64 70bd
00000360: 211b 303d 1b6d b63c 0bf0 d63c 36af 233c
00000370: 4b3a 4bbd 3c7e 99bc c3e6 55bd 904a 71bd
00000380: b95a 293d 3877 663c 1acb dc3c 9e79 9ebc
00000390: 1f22 533d 46ef 563d 9666 34bd 0530 d8bc
000003a0: 8bb3 b03c 1e75 8cbc 0480 5b3d 992e 1c3d
000003b0: 5acc 0bbd dafe f7bc e2ae 793d 06df 03bd
000003c0: 9c28 083d 337f 51bd b05f 2d3d 2c02 6fbd
000003d0: 9ecc b9bc 608d ad3c a20c d63c b017 60bd
000003e0: 2c6f 853c 3987 57bd 62c0 46bd 7060 563d
000003f0: 393f 9e3a 3839 c93c 54c1 36bd 003e 9cbc

fc2.bias f4 [256]
0.04995428 -0.019505022 0.23493728 0.035344496 0.031822786 0.16938815 0.00859052 0.042027406
-0.20760228 -0.04533823 0.1785405 0.023353195 0.036471874 0.039014198 0.21806644 -0.029791977
-0.03623385 0.09474299 0.01460539 -0.037104297 0.07213153 -0.04882744 0.0779254 0.11915909
-0.0071321055 0.011290497 0.015373348 -0.04025375 -0.022962851 0.059535563 -0.06339638 0.062221527
0.22531287 0.013507714 -0.001707145 -0.051890455 -0.064118184 0.04843642 0.075506076 0.1915603
0.11500642 0.0053573186 -0.08584368 0.08325903 0.08623105 -6.204474e-05 0.11975348 0.06307039
0.08656097 -0.029531024 0.078551546 -0.075128265 -0.07202566 0.043972235 -0.043220792 0.088371806
-0.016351558 -0.0015320467 0.14420858 0.06421465 0.042218346 0.5358654 -0.07862996 0.11161838
-0.08495068 0.09940657 0.10694409 0.058473296 -0.05179336 -0.23630626 -0.0365806 -0.0073678466
0.075141616 0.07148805 0.04314268 -0.06411937 0.12460734 0.048408784 -0.05643302 0.02976451
-0.07117821 0.11177832 -0.0026300568 0.035128944 0.0115560265 0.004390686 0.13705586 0.056148753
-0.040613018 0.04168312 -0.1358025 0.0605065 0.01957636 0.015600111 0.23286746 -0.123426996
0.380775 0.08944429 0.0021649562 0.006102404 0.12463898 0.26430318 -0.014945762 0.09496863
-0.07478835 0.015698774 -0.0053650066 0.23906983 0.22323084 -0.06263992 0.066930935 0.0610715
-0.015365743 0.007206869 -0.009873211 0.051438916 -0.052485824 0.09570333 0.07125921 -0.016562978
-0.064550705 0.21808228 0.039066106 -0.024710024 -0.002451361 -0.0212863 0.09202915 0.068031326
0.045651857 -0.10915676 -0.0913452 -0.053475972 0.096671365 0.2983954 0.04339499 0.07983751
-0.010648466 -0.03802938 0.086041875 0.08569975 -0.019178273 0.14255162 -0.076201454 0.047408815
0.10777717 -0.038596895 0.13087034 0.06525807 -0.08017777 0.08003208 0.059315156 0.072598845
0.0108663235 -0.0105508575 -0.0027803509 0.0071678758 0.046015363 -0.0152832875 -0.05412404 0.046478007
0.0010576156 0.0428381 0.105941065 0.009619129 0.00040614355 0.14149037 0.095973775 -0.021453282
-0.046737045 -0.0691739 0.13000564 -0.0069210376 -0.026714304 0.049798235 -0.022240423 0.0041008014
-0.0614633 0.009862367 -0.022213522 0.016557563 0.10325126 -0.017215561 0.016122404 0.22594969
-0.040689632 0.0792824 -0.07754979 -0.033399146 0.09370881 -0.1795981 0.13367267 -0.019468391
0.0183115 0.019021193 -0.023805918 0.035379075 0.117542185 0.04084921 -0.0010401198 -0.067757785
-0.044015095 0.030833188 0.039268028 0.09564314 0.18181013 0.0102840075 0.08455716 0.035012957
-0.058890183 0.09276891 0.0036025138 -0.02796331 -0.047830764 0.017172765 -0.18126097 -0.015608317
-0.07460571 -0.070332594 0.1431403 0.101241 0.10798326 -0.041852348 -0.056093372 0.032179873
0.0682043 0.10760541 -0.033290546 0.21656781 -0.053585146 0.18534131 0.006822067 -0.061833374
0.093278974 -0.07269611 -0.0042197676 0.052947596 0.06610052 0.10414811 0.040170256 -0.017243262
0.09731487 -0.051061466 0.053386506 -0.025702737 0.04154228 -0.049104676 0.013818274 0.2174261
0.090270765 0.15360408 0.10031779 -0.00453373 0.065613426 -0.03929887 0.18834522 0.13242115
00000000: dc9c 4c3d ffc8 9fbc 6693 703e 64c5 103d
00000010: 9c58 023d 1674 2d3e 41bf 0c3c ee24 2c3d
00000020: b195 54be 94b4 39bd 52d3 363e 334f bf3c
00000030: 8863 153d 5acd 1f3d cf4c 5f3e 4e0e f4bc
00000040: f269 14bd 9d08 c23d 724b 6f3c adfa 17bd
00000050: b2b9 933d 48ff 47bd 5a97 9f3d ae09 f43d
00000060: 70b4 e9bb c7fb 383c 7fe0 7b3c 1ee1 24bd
00000070: 971c bcbc 90db 733d f6d5 81bd 00dc 7e3d
00000080: 6bb8 663e 754f 5d3c 48c2 dfba 168b 54bd
00000090: 6550 83bd 4465 463d eea2 9a3d 6228 443e
000000a0: 7c88 eb3d 728c af3b d0ce afbd b683 aa3d
000000b0: e899 b03d 041e 82b8 5041 f53d 0c2b 813d
000000c0: e146 b13d 0ceb f1bc a2df a03d d9dc 99bd
000000d0: 3082 93bd 3b1c 343d 4908 31bd 47fc b43d
000000e0: b4f3 85bc f5ce c8ba 6aab 133e f882 833d
000000f0: 25ed 2c3d 7a2e 093f bf08 a1bd 2d98 e43d
00000100: 9ffa adbd ac95 cb3d 8105 db3d b281 6f3d
00000110: 4625 54bd 45fa 71be 8ad5 15bd fa6d f1bb
00000120: d9e3 993d 5468 923d 61b6 303d 0451 83bd
00000130: 2232 ff3d 4a48 463d 4f26 67bd b4d4 f33c
00000140: e2c5 91bd 08ec e43d 085d 2cbb 5ee3 0f3d
00000150: 7d55 3d3c bedf 8f3b 5f58 0c3e 3cfc 653d
00000160: d659 26bd ebbb 2a3d d00f 0bbe aad5 773d
00000170: 9a5e a03c 9c97 7f3c cf74 6e3e 4bc7 fcbd
00000180: f1f4 c23e 912e b73d f0e1 0d3b adf6 c73b
00000190: b942 ff3d bf52 873e 12df 74bc ea7e c23d
000001a0: a22a 99bd b79a 803c f0cc afbb b9ce 743e
000001b0: a096 643e 5c49 80bd 1613 893d 1c26 7a3d
000001c0: 99c0 7bbc 9927 ec3b 40c3 21bc 9db1 523d
000001d0: 60fb 56bd 1c00 c43d 59f0 913d 15af 87bc
000001e0: 2933 84bd f650 5f3e c803 203d ad6c cabc
000001f0: 03a7 20bb 9b60 aebc c779 bc3d 0254 8b3d
00000200: 71fd 3a3d 948d dfbd 3113 bbbd 9f09 5bbd
00000210: a3fb c53d 48c7 983e f2be 313d d981 a33d
00000220: e776 2ebc b2c4 1bbd b936 b03d 5a83 af3d
00000230: c11b 9dbc 0df9 113e 820f 9cbd bf2f 423d
00000240: 47ba dc3d c717 1ebd e002 063e 06a6 853d
00000250: 3e34 a4bd dce7 a33d 73f4 723d b4ae 943d
00000260: aa08 323c 81dd 2cbc 8c36 36bb 80e0 ea3b
00000270: 9b7a 3c3d c166 7abc 2bb1 5dbd b95f 3e3d
00000280: b19f 8a3a 0177 2f3d a1f7 d83d 8d99 1d3c
00000290: aaef d439 dae2 103e e68d c43d cbbe afbc
000002a0: 586f 3fbd 0cab 8dbd 3320 053e dfc9 e2bb
000002b0: f5d7 dabc 3cf9 4b3d 8c31 b6bc 0460 863b
000002c0: f1c0 7bbd c495 213c 22f9 b5bc baa3 873c
000002d0: 6675 d33d a607 8dbc 2213 843c 5b5f 673e
000002e0: 2caa 26bd d05e a23d 6dd2 9ebd 8bcd 08bd
000002f0: 68ea bf3d 90e8 37be 7de1 083e 2d7c 9fbc
00000300: 0002 963c 55d2 9b3c a104 c3bc a6e9 103d
00000310: f5b9 f03d 8051 273d a154 88ba 98c4 8abd
00000320: 2c49 34bd e295 fc3c 83d7 203d 8de0 c33d
00000330: 6f2c 3a3e 417e 283c 4e2c ad3d bf69 0f3d
00000340: d536 71bd a0fd bd3d 2718 6c3b 5013 e5bc
00000350: 31ea 43bd e6ad 8c3c 7a9c 39be 07ba 7fbc
00000360: e1ca 98bd 890a 90bd 5f93 123e 7157 cf3d
00000370: 5426 dd3d 5e6d 2bbd 2ac2 65bd 0bcf 033d
00000380: b2ae 8b3d 3a60 dc3d ab5b 08bd f4c3 5d3e
00000390: 197c 5bbd 1dca 3d3e a58b df3b fe44 7dbd
000003a0: 0c09 bf3d b3e1 94bd fa45 8abb 94df 583d
000003b0: b65f 873d 9b4b d53d 9189 243d be41 8dbc
000003c0: 054d c73d d425 51bd cfab 5a3d 8c8e d2bc
000003d0: 3d28 2a3d fc21 49bd 0b66 623c f3a4 5e3e
000003e0: e1df b83d 634a 1d3e 6a73 cd3d af8f 94bb
000003f0: 5560 863d daf7 20bd 92dd 403e 6999 073e

fc3.weight f4 [128, 256]
0.026557686 0.056490295 0.28504336 -0.02897952 -0.5795792 -0.61211866 0.047427773 -0.710025
-0.52025276 -0.026869506 0.29683366 -0.8655998 -0.38880223 0.5603454 0.2583441 -0.03768077
0.7387909 0.43903592 -0.030803036 -0.017270682 -0.76425534 0.05059671 -0.09036935 -0.82479733
0.061575856 0.44597003 0.038540684 0.033165738 0.036656987 0.3639772 -0.04352598 0.45233455
0.27816987 0.0030768188 -0.029652128 -0.059712704 0.024913983 -0.079910226 -0.23635183 0.28366482
-1.5356885 0.0077874805 0.05056874 0.0067562903 -0.022933645 -1.0334473 0.055872988 0.0012880864
-0.05196897 0.07012716 -0.07979793 0.023762815 -0.06258938 -1.6210465 -0.03268402 -0.43432614
-0.0038696658 -0.0013544519 0.34968466 -1.1800975 0.5766212 0.24355085 -0.039460573 -0.0747851
-0.1700711 -0.09312521 -1.4246606 -0.031186195 0.016168054 1.4793258 0.05075963 -0.029742988
0.5082737 0.34993535 -0.05907613 0.04204317 0.6991014 -1.2285684 -0.027896725 -0.051998034
0.04289542 0.26304004 0.035103735 0.0094505055 -0.28865564 -0.07679405 -0.64909285 -0.18842576
-0.028593672 0.043848738 1.1690965 0.45225003 -1.4580306 -0.04320476 0.31282935 0.8188126
0.21997385 0.17999114 -0.0016582168 0.029712202 -0.573388 0.25006163 1.3695997 0.27961904
0.0072102034 -0.016248627 -0.032722656 0.25812775 0.23962937 -0.021779127 -0.657634 -0.25811952
-0.070170164 0.027430324 0.06501517 0.46513146 0.05876257 -0.67767435 0.0568373 0.046037387
-0.043951917 -0.69738054 0.016598739 -0.279331 -0.03391487 -0.007919066 0.14759144 -0.07450503
-0.7963958 -2.5091667 0.07393796 -0.53534544 -0.9758971 0.22933407 0.089384116 0.38702807
-0.03601382 -0.028694548 -2.118553 -0.64970577 0.05894858 0.2954573 -0.043481834 -0.05984315
-1.1895752 -0.039157838 0.18995404 0.057790432 -0.0064590615 -0.10997991 -0.3984177 2.3783464
0.007641194 0.038183417 -0.9866394 0.017537203 -0.84608096 0.80221456 -0.038265627 -0.020231446
-0.025630157 -0.19526662 -1.5461544 0.030228127 -0.19957907 0.38595206 -0.20385599 -0.42730403
-0.04329001 0.00038029646 -0.91684854 -0.032479733 -0.22728822 -1.3996989 0.029598363 -0.95112807
0.034007277 0.035149906 0.047154892 -0.06155866 -1.173811 0.021001777 -0.025934473 0.25675404
-0.022417739 -0.2854905 -0.043975923 0.06138918 -0.59418094 -0.6546642 0.31394437 0.029553724
0.0028797775 -0.04256349 -0.014378544 -0.20188402 0.18050316 0.051173534 0.0022367297 -0.03397853
0.005779348 -0.017264359 -0.028353248 0.1176044 0.29441798 -0.048908543 -0.35560054 0.43481618
-2.8744118 0.25877365 -0.42097232 -0.0125595 0.04142943 -0.05000216 1.1230558 0.04011197
-0.027663922 0.051642284 -0.32189503 0.17789026 0.30564654 0.028695103 -0.055306584 0.06832633
0.24279542 1.9622961 0.044571746 0.26501527 0.005207318 0.23512769 -0.08333115 -0.042035054
-1.2770891 -0.15531951 0.09991325 -0.18551673 0.29876274 -0.1703752 0.46187675 -0.045048445
-0.13166302 -0.03970726 -0.1312305 0.012337069 -0.043536965 0.0026136395 0.046343394 -0.6285583
-0.12137944 0.3193768 0.36034778 0.018886855 -0.9901504 -0.027854614 0.30493104 -0.94243103
00000000: 818f d93c 5e62 673d 34f1 913e 7566 edbc
00000010: 4d5f 14bf cfb3 1cbf a043 423d 33c4 35bf
00000020: 492f 05bf 701d dcbc 95fa 973e f397 5dbf
00000030: 1611 c7be cc72 0f3f ae45 843e 2757 1abd
00000040: 6721 3d3f 51c9 e03e a656 fcbc 3f7b 8dbc
00000050: 3da6 43bf 7f3e 4f3d 9113 b9bd eb25 53bf
00000060: f736 7c3d 2f56 e43e d6dc 1d3d ccd8 073d
00000070: a325 163d 385b ba3e 4c48 32bd 6598 e73e
00000080: 486c 8e3e 74a4 493b 05e9 f2bc 4f95 74bd
00000090: 6918 cc3c f9a7 a3bd 3706 72be 843c 913e
000000a0: 7191 c4bf 1f2e ff3b 2b21 4f3d df63 dd3b
000000b0: 57df bbbc 0048 84bf 13db 643d 02d5 a83a
000000c0: 6add 54bd d49e 8f3d 196d a3bd 3caa c23c
000000d0: dc2e 80bd 747e cfbf aedf 05bd ff5f debe
000000e0: 389a 7dbb dd87 b1ba de09 b33e 6f0d 97bf
000000f0: 729d 133f 6565 793e 69a1 21bd ee28 99bd
00000100: 1e27 2ebe 6eb8 bebd 475b b6bf 317a ffbc
00000110: de72 843c 8c5a bd3f 54e9 4f3d 91a7 f3bc
00000120: 3a1e 023f ba2a b33e d0f9 71bd 7635 2c3d
00000130: 4ff8 323f bb41 9dbf ac87 e4bc e4fb 54bd
00000140: 1cb3 2f3d 2fad 863e efc8 0f3d 4bd6 1a3c
00000150: acca 93be 3346 9dbd f32a 26bf aff2 40be
00000160: 473d eabc bc9a 333d f4a4 953f 518d e73e
00000170: bfa0 babf 79f7 30bd 2b2b a03e b49d 513f
00000180: d340 613e 994f 383e 8658 d9ba 0167 f33c
00000190: 8ec9 12bf 1408 803e 0b4f af3f 3a2a 8f3e
000001a0: 9243 ec3b d71b 85bc 3108 06bd 5229 843e
000001b0: 6761 753e 246a b2bc b45a 28bf 3e28 84be
000001c0: 60b5 8fbd 8fb5 e03c ac26 853d b625 ee3e
000001d0: 05b1 703d 117c 2dbf 3bce 683d b391 3c3d
000001e0: ed06 34bd 8887 32bf 14fa 873c 7904 8fbe
000001f0: 52ea 0abd f8be 01bc 3622 173e 1896 98bd
00000200: 98e0 4bbf 3096 20c0 c96c 973d 660c 09bf
00000210: 64d4 79bf 8dd6 6a3e 050f b73d 8b28 c63e
00000220: 3a83 13bd d410 ebbc 5f96 07c0 1e53 26bf
00000230: 1174 713d 2e46 973e 021a 32bd 171e 75bd
00000240: 0044 98bf f863 20bd 5083 423e a9b5 6c3d
00000250: 89a6 d3bb 263d e1bd 68fd cbbe d436 1840
00000260: fb62 fa3b 3766 1c3d 6694 7cbf 2eaa 8f3c
00000270: c398 58bf ef5d 4d3f 6bbc 1cbd 6bbc a5bc
00000280: 56f6 d1bc f9f3 47be 63e8 c5bf faa0 f73c
00000290: 755e 4cbe 829b c53e a0bf 50be 98c7 dabe
000002a0: de50 31bd 8762 c739 96b6 6abf 7809 05bd
000002b0: 3ebe 68be 5529 b3bf 4478 f23c 217d 73bf
000002c0: 374b 0b3d 59f9 0f3d 7d25 413d ef24 7cbd
000002d0: 703f 96bf eb0b ac3c 8874 d4bc 4475 833e
000002e0: 68a5 b7bc d02b 92be 1920 34bd 3973 7b3d
000002f0: 3e1c 18bf 1398 27bf 51bd a03e a71a f23c
00000300: a6ba 3c3b 0e57 2ebd fc93 6bbc afba 4ebe
00000310: d2d5 383e 579b 513d 1996 123b 122d 0bbd
00000320: af60 bd3b fc6d 8dbc 1245 e8bc 93da f03d
00000330: f4bd 963e 5354 48bd 4611 b6be 3aa0 de3e
00000340: 5df6 37c0 fb7d 843e af89 d7be 5cc6 4dbc
00000350: e8b1 293d 11cf 4cbd 4bc0 8f3f 734c 243d
00000360: 739f e2bc dc86 533d 6dcf a4be dd28 363e
00000370: b47d 9c3e fe11 eb3c 2889 62bd adee 8b3d
00000380: 5d9f 783e 852c fb3f dd90 363d 15b0 873e
00000390: 26a2 aa3b 50c5 703e 86a9 aabd f32c 2cbd
000003a0: a877 a3bf 140c 1fbe 519f cc3d 19f8 3dbe
000003b0: 6ef7 983e d676 2ebe 1c7b ec3e b884 38bd
000003c0: acd2 06be 14a4 22bd 4a61 06be 6b21 4a3c
000003d0: d153 32bd 9849 2b3b 92d2 3d3d 32e9 20bf
000003e0: c995 f8bd 5b85 a33e 817f b83e 9bb8 9a3c
000003f0: 7f7a 7dbf 5c2f e4bc ec1f 9c3e 2943 71bf

fc3.bias f4 [128]
0.17477353 0.02031159 0.034095936 0.024174146 0.066815846 0.10783936 0.045864314 0.09539403
-0.05337587 0.09362897 0.055236362 0.18914515 -0.032740068 0.0797783 -0.07037489 0.07438987
-0.058431976 -0.024954788 0.052703805 -0.06227451 0.10488468 5.7088382e-05 -0.03194431 0.0036117586
-0.04134539 0.10942108 0.049458157 0.053580355 0.07040243 0.091563694 0.024368767 -0.05357008
0.16905141 -0.045196686 0.09505609 0.09120873 0.05087373 0.19146207 0.08784064 0.16791031
-0.02169818 0.20915619 0.038896658 0.1458856 0.096706904 -0.0012070665 -0.02968456 0.08566676
-0.031048398 -0.020862509 -0.049990032 0.11998047 0.14007802 0.15589724 0.08568578 0.060943346
-0.04603881 0.10698267 0.09808202 0.020048467 -0.018649831 -0.017890386 0.052046083 0.08670487
-0.0117167635 0.04206543 0.013097965 0.022300562 0.07596119 0.11677535 0.009227805 0.005902506
0.031072574 0.062541805 0.07963107 0.14013055 -0.054053996 0.022057142 0.106295675 0.19720775
0.027834455 0.09554219 0.022191793 0.07314387 0.057395667 0.009249246 0.062187266 0.0008723976
0.07313748 0.119851284 0.06935531 0.048573066 0.043879803 0.063168526 0.18740144 -0.015688967
0.1671675 0.21180464 0.034931783 -0.008413922 -0.06963993 0.10303921 -0.063649036 0.15367468
-0.017150037 0.10953359 0.10900323 -0.014390834 0.06572156 0.121771686 0.06764567 0.0064973254
-0.0586687 0.0060862843 -0.05334077 0.05407972 0.097050294 0.17359242 0.1927947 -0.005656272
0.045216206 0.08040434 -0.004245571 0.08567249 0.060952008 0.14830911 -0.04469065 0.21873564
00000000: d5f7 323e 7e64 a63c 2ea8 0b3d dc08 c63c
00000010: bfd6 883d e2da dc3d 38dc 3b3d f25d c33d
00000020: a8a0 5abd 8cc0 bf3d 863f 623d 44af 413e
00000030: 731a 06bd ce62 a33d b620 90bd b759 983d
00000040: 5e56 6fbd fc6d ccbc f2df 573d 8e13 7fbd
00000050: c7cd d63d 2f72 6f38 09d8 02bd 41b3 6c3b
00000060: c959 29bd 2918 e03d a394 4a3d 1377 5b3d
00000070: 262f 903d bf85 bb3d 02a1 c73c 4d6c 5bbd
00000080: d01b 2d3e 2920 39bd c4ac c23d a5cb ba3d
00000090: f960 503d a20e 443e cbe5 b33d aef0 2b3e
000000a0: 62c0 b1bc 0a2d 563e 1a52 1f3d 0963 153e
000000b0: 450e c63d 6e36 9eba 092d f3bc 0e72 af3d
000000c0: 3659 febc dae7 aabc 59c2 4cbd 52b8 f53d
000000d0: 9d70 0f3e 87a3 1f3e 077c af3d bb9f 793d
000000e0: 3193 3cbd bb19 db3d 3adf c83d af3c a43c
000000f0: 88c7 98bc dc8e 92bc 462e 553d 5392 b13d
00000100: abf7 3fbc cd4c 2c3d d998 563c abaf b63c
00000110: 8a91 9b3d ea27 ef3d 3830 173c cf69 c13b
00000120: e98b fe3c eb15 803d 9d15 a33d 627e 0f3e
00000130: b967 5dbd 2eb1 b43c 8cb1 d93d d4f0 493e
00000140: 1505 e43c a0ab c33d 90cb b53c 74cc 953d
00000150: b817 6b3d 268a 173c 13b8 7e3d 9db1 643a
00000160: 1ac9 953d 9774 f53d 280a 8e3d 8df4 463d
00000170: 4fbb 333d 805e 813d 2ae6 3f3e 2686 80bc
00000180: f52d 2b3e 51e3 583e a114 0f3d 8cda 09bc
00000190: 619f 8ebd 3906 d33d 6d5a 82bd e55c 1d3e
000001a0: 3c7e 8cbc 2653 e03d 163d df3d 88c7 6bbc
000001b0: 0699 863d 6f63 f93d d089 8a3d 84e7 d43b
000001c0: 974e 70bd 746f c73b da7b 5abd b282 5d3d
000001d0: 4ec2 c63d 36c2 313e f96b 453e 4058 b9bb
000001e0: a134 393d 08ab a43d 6e1e 8bbb 0f75 af3d
000001f0: d0a8 793d 58de 173e 8b0d 37bd 3cfc 5f3e

fc4.weight f4 [7, 128]
-0.7637841 0.021540256 -0.047144737 -0.04057524 0.47773382 0.4160135 0.33398795 0.46004426
0.06374038 -0.5926455 0.017756242 -0.6812555 0.42253506 0.45954952 -0.062050298 0.36840737
-0.032703437 0.50605726 -0.016237114 -0.008269809 0.38023865 0.012753122 -0.033196826 0.46256176
-0.01244724 -0.6820951 0.3719333 0.6398674 -0.65836924 0.45682925 -0.016238233 0.06779816
-0.72044545 0.16107658 0.44344229 -0.67740315 0.38625497 -0.7304214 0.5257368 -0.6838247
-0.056714013 -0.6666778 0.0033087395 -0.7253192 0.482641 -1.4648951 0.033449408 0.47610894
-0.06034322 -0.014797476 -0.011036286 0.58031046 -0.77303296 -0.7081708 -0.6534807 0.37464997
0.0627543 -0.7425727 -0.7447372 0.38898164 -0.036138594 0.052477017 0.40214944 0.5871982
0.38054052 0.43426454 0.08005466 0.044010505 -0.741669 -0.68916523 4.2541244e-05 -0.0061387387
0.48433158 0.50704134 -0.6030583 -0.6602198 0.5098736 0.45798707 0.42674914 -0.7411882
0.46207443 0.6522737 0.06815945 0.31902477 -0.079298496 -0.0033037143 0.45190397 -0.016652765
0.51895857 0.61632264 0.20117752 -0.06643328 -0.0765024 0.42434806 -0.7450425 0.47982764
-0.7188925 -0.7717914 0.7611873 0.014594746 0.09807332 0.4275566 -0.06618144 -0.638551
0.08437929 -0.6057049 -0.6396971 -0.062219687 0.24854094 -0.616553 0.4710197 0.054335065
-0.03158775 -0.027029647 0.057798706 0.3873027 0.30847123 -0.7425302 -0.7521291 0.066568196
-0.047854654 0.44492412 0.06274239 0.47610855 0.56918895 0.39316228 0.07408181 -1.413119
-0.73337704 -0.057734057 -0.011408236 -0.022895226 0.52788115 0.3810538 0.41806883 0.34048054
-0.05993753 -0.6706168 -0.034714144 -0.7477478 0.5137391 0.41641435 -0.08095331 0.478593
-0.0736069 0.4859901 -0.028094258 -0.045014035 0.41337314 -0.024521118 0.0568807 0.4363848
-0.05109586 -0.7366973 0.49432316 0.7427133 -0.6863043 0.48542348 0.082999945 0.057671446
-0.7269017 0.030867407 0.35668626 -0.7571373 0.42082146 -0.817043 0.5920812 -0.773837
0.011389075 -0.61389285 0.03849225 -0.6279506 0.34818956 -1.6766855 -0.07173706 0.34583825
-0.04188207 -0.051058885 0.061389763 0.7623121 -0.77973896 -0.60472625 -0.36634386 0.49019837
-0.05299127 -0.653276 -0.78353363 0.38719445 -0.06479338 -0.057621162 0.4223463 0.7403196
0.38057402 0.43385395 0.04738088 0.102519795 -0.77990174 -0.737148 -0.0022314992 -0.008378788
0.33049762 0.50767606 -0.731756 -0.74306875 0.28195506 0.43169641 0.33956817 -0.64368904
0.42094532 0.5925889 -0.023766257 0.31030914 -0.0138685815 -0.071119405 0.47958148 -0.07632756
0.55348873 0.5964544 0.16042984 -0.045269605 -0.06076939 0.28701994 -0.6475979 0.5019739
-0.7096393 -0.6737266 0.82286036 0.032114502 -0.01812065 0.64260745 0.022951972 -0.73823285
-0.05421996 -0.6471238 -0.69354063 0.053049617 0.26261312 -0.60363394 0.3684246 -0.05824533
-0.029639753 0.062105723 0.022762239 0.48090017 0.1261361 -0.65943795 -0.72578466 0.053803537
0.022436004 0.3191611 -0.03685788 0.5530101 0.56984776 0.30106664 0.05847472 -1.2441795
00000000: 5b87 43bf 3175 b03c d71a 41bd 3932 26bd
00000010: 8799 f43e b9ff d43e 7800 ab3e ec8a eb3e
00000020: 518a 823d 9eb7 17bf 8a75 913c c366 2ebf
00000030: 8456 d83e 134a eb3e 7428 7ebd e49f bc3e
00000040: 0af4 05bd f88c 013f b203 85bc 187e 07bc
00000050: a4ae c23e 78f2 503c 65f9 07bd e5d4 ec3e
00000060: 82ef 4bbc c99d 2ebf 0b6e be3e 5ace 233f
00000070: e38a 28bf 86e5 e93e 0b06 85bc c3d9 8a3d
00000080: 1d6f 38bf 42f1 243e de0a e33e 4b6a 2dbf
00000090: 36c3 c53e e6fc 3abf b096 063f 230f 2fbf
000000a0: f44c 68bd 65ab 2abf 70d7 583b 85ae 39bf
000000b0: b91c f73e af81 bbbf 3f02 093d 8dc4 f33e
000000c0: 742a 77bd 1d71 72bc 8ad1 34bc 3a8f 143f
000000d0: 7de5 45bf ae4a 35bf 834a 27bf 1fd2 bf3e
000000e0: 5485 803d 3f19 3ebf 19a7 3ebf 9a28 c73e
000000f0: 1006 14bd 24f2 563d 88e6 cd3e 9f52 163f
00000100: 35d6 c23e ec57 de3e b3f3 a33d 5c44 343d
00000110: 05de 3dbf 226d 30bf 506e 3238 7927 c9bb
00000120: 4ffa f73e 76cd 013f 0762 1abf 2a04 29bf
00000130: 1487 023f 487d ea3e dd7e da3e 83be 3dbf
00000140: 0595 ec3e 69fb 263f 2f97 8b3d 3757 a33e
00000150: 4067 a2bd 2183 58bb f55f e73e 616b 88bc
00000160: 78da 043f 52c7 1d3f 7b01 4e3e 2c0e 88bd
00000170: 4aad 9cbd 2644 d93e 1bbb 3ebf f8ab f53e
00000180: 5709 38bf 1f94 45bf 2cdd 423f cd1e 6f3c
00000190: aada c83d b3e8 da3e 238a 87bd 1478 23bf
000001a0: 0dcf ac3d 7a0f 1bbf 30c3 23bf 12da 7ebd
000001b0: 8481 7e3e 6bd6 1dbf 7e29 f13e 728e 5e3d
000001c0: 2862 01bd 476d ddbc 56be 6c3d 8a4c c63e
000001d0: f1ef 9d3e 7616 3ebf 888b 40bf e854 883d
000001e0: 3e03 44bd 18cd e33e 157f 803d 80c4 f33e
000001f0: 5eb6 113f 914c c93e 34b8 973d 15e1 b4bf
00000200: 99be 3bbf 8c7a 6cbd 9ce9 3abc c58e bbbc
00000210: 3823 073f 7c19 c33e 1e0d d63e 7753 ae3e
00000220: 0e81 75bd 8bad 2bbf 6b30 0ebd 666c 3fbf
00000230: 6884 033f 4334 d53e d9ca a5bd 240a f53e
00000240: 37bf 96bd b2d3 f83e ee25 e6bc a360 38bd
00000250: a5a5 d33e 83e0 c8bc bdfb 683d d46d df3e
00000260: e449 51bd 3298 3cbf ed17 fd3e 7522 3e3f
00000270: a3b1 2fbf 6d89 f83e e0fb a93d e538 6c3d
00000280: 3b16 3abf a5dd fc3c 959f b63e c0d3 41bf
00000290: e975 d73e bb29 51bf a292 173f 2e1a 46bf
000002a0: 3e99 3a3c 1528 1dbf 0daa 1d3d 5fc1 20bf
000002b0: e745 b23e a19d d6bf e1ea 92bd b611 b13e
000002c0: 898c 2bbd 1f23 51bd d573 7b3d e326 433f
000002d0: f99c 47bf 57cf 1abf 6c91 bbbe 48fb fa3e
000002e0: 600d 59bd 193d 27bf a995 48bf 5a3e c63e
000002f0: 64b2 84bd 2b04 6cbd c63d d83e 9685 3d3f
00000300: 99da c23e 1b22 de3e 7412 423d e6f5 d13d
00000310: a4a7 47bf bbb5 3cbf 583e 12bb 2f47 09bc
00000320: fc36 a93e 0ff7 013f 5c54 3bbf c139 3ebf
00000330: 6a5c 903e 5007 dd3e e1db ad3e cec8 24bf
00000340: 2586 d73e e8b3 173f 74b1 c2bc d7e0 9e3e
00000350: 0c39 63bc 0da7 91bd b48b f53e a051 9cbd
00000360: 70b1 0d3f 3cb1 183f b847 243e 9f6c 39bd
00000370: 53e9 78bd 47f4 923e fac8 25bf 5d81 003f
00000380: ecaa 35bf 5979 2cbf faa6 523f 7f8a 033d
00000390: c271 94bc ec81 243f c605 bc3c d4fc 3cbf
000003a0: c015 5ebd e8a9 25bf e18b 31bf 8e4a 593d
000003b0: 3a75 863e c187 1abf 26a2 bc3e a892 6ebd
000003c0: 11cf f2bc 9262 7e3d e077 ba3c 8c38 f63e
000003d0: d229 013e edd0 28bf 06cd 39bf 1961 5c3d
000003e0: b6cb b73c 1569 a33e 4af8 16bd 1292 0d3f
000003f0: 8be1 113f 6825 9a3e 3083 6f3d 4641 9fbf

fc4.bias f4 [7]
-0.09845371 -0.0065406184 0.099633045 0.07764447 0.12562901 0.25474057 -0.30132505
00000000: 19a2 c9bd af52 d6bb 690c cc3d 1004 9f3d
00000010: e4a4 003e 5b6d 823e 4747 9abe
