models/lateral_stage1_seed9012_final.pth (torch, 411457 bytes, 8 tensors)

fc1.weight f4 [256, 9]
000000 9a 92 07 3f 7b 75 f2 bc b2 76 81 bd d3 c3 52 be
       0.5295807 -0.029597035 -0.063214675 -0.20582514
000010 85 32 5e be ef fa 86 3e 4b df 1b be 70 35 ea 3d
       -0.21698959 0.26363322 -0.15221898 0.11435974
000020 bc b6 28 3e 3d 39 2c 3e 26 90 18 3d fa 5a cd bd
       0.16475958 0.1681871 0.037246846 -0.10027118
000030 5e ee cb bd 21 3b ca bd 6a 5b f3 3e 12 b0 54 3e
       -0.09957574 -0.09874559 0.4753068 0.2077029
000040 a9 05 83 3e d2 4e 8b 3e c5 ba d9 3c f0 73 26 3e
       0.25590256 0.27208573 0.026578316 0.16255164
000050 9b bc 90 3d 05 2a 0d 3e 24 c3 f4 bd dd 76 b2 be
       0.07067224 0.1378556 -0.119512826 -0.3485631
000060 6d a7 94 3e 18 40 72 3d a6 32 88 3d f5 92 ff be
       0.29033986 0.059143156 0.066502854 -0.49916807
000070 95 4e 33 3c 17 42 07 3e 03 ee 5b 3e 2a b6 e7 be
       0.010944028 0.13208805 0.21477513 -0.45256168
000080 87 d8 f3 3e 0b ca a4 3e 3e 10 5f be 2e c3 11 be
       0.47626135 0.32185397 -0.2178354 -0.14234611
000090 29 31 39 3e a9 5f 4e be 39 4c bc 3e 86 54 f9 3e
       0.1808516 -0.20153679 0.36776903 0.486973
0000a0 52 3d 63 be da 25 33 be 3e 70 3f 3e 6c 37 a4 3d
       -0.2219136 -0.17494908 0.18695161 0.080183834
0000b0 55 20 8b 3e a4 be 2c 3f eb 42 b7 3d df aa 58 3e
       0.27173105 0.67478395 0.089483105 0.21158932
0000c0 d0 14 bb 3e 79 a9 18 be c7 da a3 bd 40 6a c9 3c
       0.36539316 -0.14908399 -0.08000713 0.024586797
0000d0 cb 01 6e be bc 1d b8 3e fc 1e c8 bb 6a 8c 67 bd
       -0.23242871 0.35960186 -0.0061072093 -0.056530394
0000e0 93 3d 9d bc 48 07 7e 3e 4e 89 62 3e 43 36 d5 3e
       -0.0191944 0.24807465 0.2212269 0.4164296
0000f0 53 81 95 3e 4c af 94 3d 4b 2d b3 bd 60 ac c8 3d
       0.2920023 0.07259998 -0.08748873 0.09798503
000100 d0 08 4b 3e 2e 7f bd bc 28 9c f0 be 4e 18 25 be
       0.1982758 -0.023131933 -0.46994138 -0.16122553
000110 3f 88 0e 3f 73 b6 a5 3e 5e 3a 54 be f6 cc 5b be
       0.55676645 0.3236576 -0.2072539 -0.21464905
000120 ac e8 d1 be c8 d2 35 3e 7c a5 1c 3e 78 17 22 3e
       -0.40997827 0.17756188 0.15297502 0.15829265
000130 c9 bd 53 be 29 75 38 3e e0 2b dd 3d 38 3a 3b be
       -0.20677866 0.18013443 0.10799384 -0.18283927
000140 00 83 da 3d 13 c0 f4 be ee e2 9e 3e 9e 1c 7d 3d
       0.106695175 -0.4780279 0.3103251 0.06179487
000150 c4 71 c5 bd ae a7 4a be 09 0a da 3e fb 57 46 be
       -0.0964084 -0.19790527 0.4258578 -0.193695
000160 4a 3f 63 3e 6b ec 14 3e 5d 1a 48 3f 75 62 1e be
       0.22192112 0.14543311 0.7816523 -0.15467246
000170 23 fe 9a bd f4 be bb bc 89 a3 38 bd bb a0 f3 be
       -0.07568004 -0.022918202 -0.045077834 -0.47583565
000180 00 89 88 bb d0 e7 eb 3d fd 2e e0 bd 26 aa a4 3d
       -0.0041667223 0.11518824 -0.10946462 0.08040266
000190 da ed 13 be 1f 6b 23 be c8 1f 26 be 8a 50 62 3e
       -0.14446202 -0.15958832 -0.16223061 0.22101036
0001a0 31 67 1d 3d 8e d0 69 3e 04 aa e2 3d b7 36 7d be
       0.03842849 0.22833464 0.11067584 -0.24727903
0001b0 37 75 33 bd 25 e3 d9 bd 47 7c ef bd f0 79 12 3e
       -0.043812957 -0.106390275 -0.11693626 0.14304328
0001c0 af 6a 7a 3e b6 e2 82 3e 04 c1 a9 3d 00 10 a2 ba
       0.24454759 0.25563592 0.08288768 -0.0012364388
0001d0 90 a1 af bd d2 93 1a 3e 84 17 39 bd 03 b2 18 bd
       -0.085757375 0.15095451 -0.045188442 -0.03727914
0001e0 08 b1 89 be 16 bd 4c be 21 da fa 3e c0 3d e7 3c
       -0.26892877 -0.19994006 0.48994544 0.028227687
0001f0 8a d5 4e 3e c8 ee c7 bd 30 96 10 3f 68 d2 e9 be
       0.20198646 -0.09762341 0.5647917 -0.4566834
000200 51 70 12 3e 41 52 0f be fe 82 7c bd 85 d8 ee be
       0.14300658 -0.13996221 -0.06164836 -0.46649566
000210 7a ba 72 3e e2 85 6d 3e eb 7f ab 3e be 71 57 3d
       0.23703948 0.23195603 0.3349603 0.052598707
000220 3f 13 5e be d8 64 ad 3e 0d b2 5c 3e 0a d5 fc bd
       -0.2168703 0.33866 0.21552296 -0.123453215
000230 9b 7a 92 be 1d c2 85 3e b3 54 0b be ed 4c ba 3e
       -0.28609166 0.2612466 -0.13606529 0.36386815
000240 c6 e6 86 be 2b 72 ac bd 2c 65 72 3e e7 bc 22 3d
       -0.2634794 -0.08420213 0.23671407 0.039730933
000250 71 3d 97 3e 5d df 6e 3e ee b9 12 be 32 e9 88 be
       0.29539064 0.23327394 -0.14328739 -0.26740414
000260 76 64 bc 3e 53 49 ea 3e 71 9e 40 bd b5 b2 2b 3e
       0.36795396 0.45759067 -0.0470261 0.1676739
000270 a7 1b 70 3d df 9d 92 3e 8a 56 fa be 0e 86 3e be
       0.05862012 0.2863607 -0.4889415 -0.18605825
000280 76 f2 5b be d3 b4 82 bc ad 9d 68 3e eb 55 e5 be
       -0.2147921 -0.015955364 0.22716399 -0.44792113
000290 31 e7 2a 3e 1d a9 f5 bd c7 fc 75 3e c7 ea bc 3e
       0.16689755 -0.119951464 0.24022208 0.3689787
0002a0 16 8a 92 be 46 f3 01 3e 71 87 99 3d c6 ee ec 3e
       -0.28620976 0.12690458 0.074965365 0.4627592
0002b0 a4 41 5a 3e c6 0d 45 bd 2a 85 4f bc 5a 39 84 be
       0.21314102 -0.04810884 -0.012666026 -0.25825006
0002c0 3c 49 1c bf 00 37 60 3c 20 05 81 bd ff b8 35 be
       -0.61049247 0.013684988 -0.06299806 -0.17746352
0002d0 27 01 30 bf 59 07 85 be 38 47 5e be a3 b4 c1 be
       -0.6875176 -0.25982168 -0.21706855 -0.37833127
0002e0 5b a1 f4 3d af 6d 71 3d e4 d9 80 be 48 8e 2c bd
       0.119448386 0.058942493 -0.25166237 -0.042127877
0002f0 4b 1e ae be 50 b9 a1 3d 88 27 df bd a6 c6 af 3b
       -0.34007487 0.07896674 -0.10896212 0.005364257
000300 31 37 5c be 70 2e 89 3e 78 3d 04 3d 80 4d d2 3c
       -0.21505429 0.26793242 0.032285184 0.02567172
000310 4c 89 93 3d 06 df 92 be e8 08 b2 3e d0 7e 0e 3e
       0.07203922 -0.28685778 0.3477242 0.13915563
000320 bf a3 01 be 41 d0 89 be d5 fc f0 bd b1 e5 57 bd
       -0.1266012 -0.26916698 -0.11766974 -0.052709285
000330 42 14 30 3e c0 87 84 be 8c 8c 0c be 2e cb 04 be
       0.17195228 -0.2588482 -0.1372549 -0.12968132
000340 97 a0 e3 bd 37 51 21 be 87 65 6a 3e 71 9a 0a 3e
       -0.111146145 -0.15753637 0.22890292 0.13535477
000350 7f 6f 72 3e 9d 51 a3 3e 86 c0 6e 3e c1 ca 8b 3e
       0.23675345 0.31898203 0.2331563 0.27303126
000360 ff 2b 23 bd 1f 90 a6 3b d3 f0 8d 3e e6 fc 11 3d
       -0.03983688 0.0050830985 0.27722797 0.035641573
000370 d8 08 96 3e 51 f1 b4 3e d2 17 46 3e 18 45 2d be
       0.29303622 0.3534036 0.19345024 -0.16920888
000380 88 e1 b7 3e a2 2e 09 3f 22 3a 82 3c 88 5e 6e bd
       0.35914254 0.5358678 0.01589686 -0.05819562
000390 b3 53 43 3e cf 1c c8 3e a6 c2 9c be 30 5b da 3c
       0.19074897 0.3908448 -0.30617255 0.02665481
0003a0 04 de 9d 3d ad 7e fc bd d4 ca 55 be d1 91 08 3e
       0.07708362 -0.12328849 -0.20878154 0.13336875
0003b0 b0 48 2c 3e 29 21 8a 3e ec 5e 97 be 47 2d d9 3e
       0.16824603 0.26978424 -0.29564607 0.42417356
0003c0 3a 90 36 3e 5e 6d 8d be 0d dd 17 be 24 14 33 bf
       0.17828456 -0.27622503 -0.14830418 -0.6995261
0003d0 03 f7 95 3d b7 ba 86 3d 65 19 86 be 9c d7 2f 3f
       0.07322504 0.06578582 -0.2619125 0.6868837
0003e0 e3 58 7b bd e6 0d ba bd 52 82 5e 3e 1e 2e ff bd
       -0.061364066 -0.09084682 0.21729401 -0.12459968
0003f0 0d fe 14 3e 72 e6 2a bd f1 db 91 bd 0d a1 48 3e
       0.14550038 -0.041723676 -0.071220286 0.19592686

fc1.bias f4 [256]
000000 75 f6 a3 be 69 03 80 3e e5 66 b1 3e 0f 18 61 be
       -0.3202397 0.25002602 0.34648815 -0.21981834
000010 24 93 10 be 62 7b 57 be c6 e0 8b 3e 62 e3 08 3d
       -0.1411863 -0.2104316 0.27319926 0.033419974
000020 bb 3e 21 3e af 5c b4 3c f7 1b b4 3e ff 97 b8 3e
       0.15746586 0.022016851 0.35177585 0.36053464
000030 a7 92 a7 3e fe 25 3c be 71 25 bb bc 3e 6a 9b 3c
       0.32729074 -0.18373868 -0.022845002 0.018971559
000040 4c ef 85 be 2d f7 87 bd cf f7 50 bd 09 c4 80 be
       -0.26159132 -0.06638942 -0.05101758 -0.25149563
000050 76 c9 05 3e 0f ad da 3e b0 7e e5 3c 33 7c bd 3e
       0.13065132 0.42710158 0.02801451 0.3700882
000060 70 22 1d 3e 00 da 0c be ed ce 62 3e 68 06 35 3b
       0.15345168 -0.13755035 0.22149248 0.0027622227
000070 fd a0 68 bd 99 0f 5e 3e 41 52 cf 3e 98 0a c8 3e
       -0.056794155 0.21685638 0.40492442 0.39070582
000080 80 47 85 bd 33 c9 7f be 25 5b 74 be fe ec c0 bd
       -0.06507778 -0.24979095 -0.23862894 -0.09420203
000090 22 1a 80 3d 46 b9 a2 bb 52 b1 5f 3d 6c 5d 2b 3c
       0.062549844 -0.004965934 0.054612465 0.010459285
0000a0 27 3d bf 3d a5 2d 65 3e f5 65 b6 be 70 b9 42 be
       0.09337836 0.22380693 -0.35624662 -0.19016051
0000b0 60 c6 be be df 07 e0 3e 9f 6b fe bd 0a 63 5f bd
       -0.37260723 0.43756005 -0.12422871 -0.05453781
0000c0 94 8a 9d be b3 18 3d 3e 56 75 a7 be 3f 7c bc bd
       -0.3076979 0.18466453 -0.32706708 -0.092033856
0000d0 bc 8a b2 be 21 08 72 3e 32 f0 a3 3d 88 08 1c 3e
       -0.3487147 0.23635913 0.08004798 0.1523763
0000e0 af 67 c3 bc 3f a8 f9 3e 7c b0 11 3d bd 3a 7e be
       -0.023853151 0.48761174 0.0355687 -0.24827094
0000f0 09 5d 85 be d8 6e 9c 3e 41 b1 59 bd 84 b7 01 3e
       -0.26047543 0.30553317 -0.053147558 0.12667662
000100 67 0d 25 3e c0 6c 0a 3e 10 2b ce bd d8 42 a3 be
       0.16118394 0.13518047 -0.10066807 -0.31886935
000110 bd a6 f9 bd 37 ca 28 3e 62 fa 0c 3d 47 c0 71 bd
       -0.12190006 0.16483389 0.03441847 -0.05902126
000120 29 b0 5a be df 68 d7 bd 0e e0 24 bd 8c 1f f5 be
       -0.21356262 -0.105180494 -0.040252738 -0.4787563
000130 25 10 ce be f8 6e 19 be 72 75 b9 3c f0 60 e0 be
       -0.40246692 -0.14983737 0.02263901 -0.43823957
000140 b0 f5 67 3d d5 41 82 3e 18 28 33 3e b2 53 96 be
       0.05663079 0.2544085 0.17495763 -0.2936073
000150 fb d9 0b 3e 34 8d 77 be 10 83 3f be 64 b1 e3 3e
       0.13657372 -0.24174958 -0.1870234 0.44471276
000160 e5 ec fd be 95 d5 b0 be ad 27 1e 3e c1 27 aa 3e
       -0.495948 -0.3453795 0.15444823 0.33233455
000170 16 e1 8a bc 59 de 7a be eb 6c be be cb 8b 9c 3e
       -0.016953032 -0.24498881 -0.37192473 0.30575404
000180 95 25 55 be af 3d 96 3e eb 96 dd 3d bb 37 89 3e
       -0.20815118 0.29343936 0.10819801 0.2680033
000190 9d a9 0c be 34 fa ce 3e 86 82 89 3d 0c 58 cb 3e
       -0.13736577 0.40425265 0.067143485 0.39715612
0001a0 48 2a 36 bd 8f b3 23 be 74 cf 92 3d 42 0e a7 be
       -0.044473916 -0.15986465 0.07168475 -0.32628065
0001b0 1c 8f 7e 3e e2 66 c6 3e ac 2e 90 bd a0 a1 96 bc
       0.2485928 0.38750368 -0.07040152 -0.018387616
0001c0 d1 b4 83 3e e9 b7 3e 3e 97 b6 95 be a1 4e 7c 3b
       0.2572389 0.18624844 -0.29240867 0.0038499015
0001d0 58 37 0c 3d ef 66 20 3e fa b5 b9 3e a6 aa 68 be
       0.034232467 0.15664266 0.3627165 -0.22721347
0001e0 f7 05 20 3e 06 9c d1 be 13 43 f3 bc b7 f1 00 be
       0.15627275 -0.4093935 -0.02969507 -0.12592207
0001f0 e4 f1 59 3e 44 bb 22 be 25 0e df be a2 54 37 bd
       0.2128368 -0.15891749 -0.4356548 -0.044758447
000200 b8 7c 79 3d 7f 48 64 3e a9 78 4f bd f0 2b e5 3d
       0.060909957 0.2229328 -0.05065218 0.11190021
000210 58 40 83 3e 1e 01 37 be 8c 01 31 3e 49 f6 5a be
       0.25635028 -0.1787152 0.17285746 -0.21383013
000220 9d 61 ab be 2f 3b a1 3e 54 24 03 3e 73 51 cf 3d
       -0.3347291 0.31490466 0.12806827 0.10122957
000230 29 86 7d bd b0 e6 a3 bd 6d b5 ac bd d3 58 d0 3e
       -0.061895523 -0.080029845 -0.08433042 0.40692768
000240 72 cf d8 3e d5 0d 1d be 3c 24 7f 3d ec 5f 30 be
       0.42345768 -0.15337308 0.062290415 -0.17224091
000250 50 a3 f1 3d 08 36 4c be 4e 23 48 3e 95 45 54 3b
       0.117987275 -0.19942486 0.19544718 0.0032390107
000260 24 26 53 3e 00 57 8b bd 7d e1 8e 3e 15 92 2b 3e
       0.20620018 -0.06803703 0.2790641 0.16754945
000270 0d 02 d3 bd 9b 2a 90 3c 34 32 da be e6 cc 85 be
       -0.103031255 0.01759844 -0.42616427 -0.26132888
000280 72 17 fe 3c b0 dc c0 be b1 c0 bf 3e 21 77 19 3e
       0.031017039 -0.3766837 0.374517 0.1498685
000290 bf f9 60 3e d6 4c 22 3e af b6 a7 be 3b e6 02 3e
       0.2197027 0.15849623 -0.32756564 0.12783138
0002a0 11 a1 a8 3e 6b 59 d5 3e 3e d2 60 bb ce 8d 23 3e
       0.32935384 0.41669783 -0.0034305002 0.15972063
0002b0 c2 0e 4a be 20 3f 16 be 0a 55 8f be 5a 4d b2 be
       -0.19732192 -0.14672518 -0.27994567 -0.3482464
0002c0 cc 56 1e 3e 6d ba e5 3e 05 93 c1 be f0 5a c2 3b
       0.15462798 0.44868794 -0.3780748 0.0059312508
0002d0 e5 2a aa be 16 22 c3 3e cb 24 3a be d2 5c c1 3e
       -0.3323585 0.38111943 -0.18178098 0.3776613
0002e0 ee 28 1c be 7b cb 7c be ec 63 40 be 1e ca d4 bd
       -0.15249988 -0.24686997 -0.18788117 -0.10390113
0002f0 7f af 2a 3e d1 1b 95 3d 35 fb b6 3e 60 74 8d be
       0.16668509 0.07280696 0.3573853 -0.2762785
000300 7f d0 10 be 73 51 b9 3c 61 d9 55 3e a0 22 d8 3e
       -0.14142035 0.022621846 0.20883705 0.42213917
000310 12 d5 0b bf 44 c3 d4 3e cf 07 34 3e 9a 17 b2 bd
       -0.54621994 0.41555226 0.17581104 -0.08695908
000320 0d e3 39 bd 98 75 04 3f 28 ce 08 be 9e 6f d1 be
       -0.045382548 0.51741934 -0.13359892 -0.4090547
000330 6d ab e2 3e a8 83 a8 be 56 0b c6 3e 6e ab d1 be
       0.44271412 -0.32912946 0.38680524 -0.40951103
000340 7e 7f bc be 35 37 c2 3e 41 e1 a2 3e 69 5d d7 bd
       -0.3681602 0.37932745 0.3181248 -0.105158634
000350 e6 5d 28 be 94 b2 68 bd cf da 07 be 4d 3f 16 3e
       -0.1644207 -0.05681093 -0.13267063 0.14672585
000360 fc 26 65 3e 03 a8 7f 3d 1b 1e 83 be c8 63 a4 3e
       0.22378153 0.062416088 -0.25608906 0.32107377
000370 bd f0 de bd 0d c7 c5 be 15 0a c9 3e 1c fb 46 3c
       -0.10885761 -0.38628426 0.39265504 0.01214483
000380 29 79 21 be 81 70 7f bd a2 1f 1e be 10 64 a2 be
       -0.15768875 -0.06236315 -0.15441754 -0.31716967
000390 62 0e a0 bd e4 9b 42 bd a5 85 32 3d d2 cc c0 3e
       -0.07815243 -0.04751195 0.043584485 0.37656265
0003a0 14 04 f9 bd ef 5c a1 3e 46 dd 68 bc 57 2b 66 3e
       -0.12158981 0.31516215 -0.014212912 0.2247747
0003b0 26 51 60 bd 9a 4c ec 3d c3 ea 23 bd fa 46 49 3d
       -0.05476489 0.11538048 -0.040018808 0.049139954
0003c0 8a e5 20 be de 25 06 3e 32 17 f4 bc 4c d8 37 3e
       -0.15712562 0.13100383 -0.029796217 0.17953604
0003d0 e2 25 0b bc 10 6d 52 bd b3 1e 11 bf fe 85 00 3f
       -0.008492919 -0.05137354 -0.5668747 0.50204456
0003e0 a0 36 f5 3d c5 1f 22 3c 73 d3 ba bd b5 6f 71 be
       0.119733095 0.00989527 -0.09122362 -0.23577769
0003f0 e7 bd d5 3d 2f a7 91 bc 30 00 9f be 0f 3e 29 3d
       0.104366116 -0.017779915 -0.3105483 0.04131895

fc2.weight f4 [256, 256]
000000 f0 70 9b bd 6c 87 92 3d dc 99 c5 bd b3 5e c5 be
       -0.075899005 0.07154736 -0.09648487 -0.38548812
000010 98 1c 7a bd 17 ce e1 bd f6 09 03 3e 5f f0 2b 3e
       -0.061062425 -0.11025637 0.12796769 0.16790913
000020 61 2a 4c bd 67 17 2f 3d 83 ec cf ba 59 43 5c 3d
       -0.049845103 0.042746928 -0.0015863333 0.053775165
000030 60 75 9e 3c e0 e8 1c be cd e4 69 3e c7 33 d8 bd
       0.019343078 -0.1532321 0.22841187 -0.10556751
000040 db eb 08 bd 7f 09 0b be 8c a6 0c 3e 89 e2 de 3d
       -0.033428054 -0.13577841 0.13735408 0.10883052
000050 05 27 ae 3d ae b8 cd 3d 05 24 12 bd 07 bf dc 3d
       0.08503536 0.100449905 -0.035678882 0.10778623
000060 62 eb 2e 3d cb 2a 55 be a5 43 3c bd 83 43 1a 3e
       0.042704947 -0.20817105 -0.04596295 0.15064816
000070 14 ef 6f 3e 36 b4 65 3d 12 12 c5 3c c8 d0 aa 3d
       0.23431045 0.056080066 0.024056468 0.08340603
000080 87 bc 84 3d 28 b4 11 3e cb e6 cc bd 19 31 95 3d
       0.06481271 0.1422888 -0.10004958 0.07284755
000090 53 1d 43 3d 06 58 db 3d 34 23 ad bc 66 cb c2 bd
       0.047635388 0.107101485 -0.02113495 -0.095114514
0000a0 06 05 ae bd c9 2b f8 bc 7c 49 38 3e a6 c2 ce bd
       -0.08497052 -0.030294316 0.17996782 -0.1009572
0000b0 9c 64 39 3e c8 53 85 3d 58 a2 01 be 87 32 fd bd
       0.18104786 0.06510121 -0.12659585 -0.12363153
0000c0 79 69 d3 3d 62 35 ac 3d 76 9d e7 bd 83 d2 a4 bd
       0.10322852 0.084086195 -0.1130933 -0.080479644
0000d0 c0 7b 2e bd 3c ed 00 3e 23 b4 2c 3e 2c b2 57 3e
       -0.042598486 0.12590498 0.16865592 0.21064061
0000e0 48 4c fe 3d 1f 22 cb 3d fb 94 a1 bc f1 50 bc bd
       0.12416893 0.099186175 -0.01972436 -0.09195126
0000f0 6e 27 b4 bd 58 bc 8a 3d b4 52 ca bc dc db f3 3d
       -0.08796583 0.06774205 -0.024697639 0.11907169
000100 de 10 7a 3d c5 77 e9 3d ef 69 cb 3d 2e 5e 2c bd
       0.061051242 0.11399797 0.099323146 -0.042082004
000110 08 45 08 3d 1e 7a c7 3d e5 d4 2e 3d 22 b3 98 3c
       0.03326896 0.09740089 0.0426835 0.018640105
000120 a6 20 be bd a2 f6 85 3b 7a ce a8 bd df 27 dd be
       -0.09283571 0.004088239 -0.08242507 -0.43194482
000130 5c ae 1f 3c 5b 6c 61 3e 5f 91 26 3e 0d 54 ed be
       0.00974616 0.2201399 0.16266392 -0.46353188
000140 e6 25 ae 3a 4d 25 5a ba 8c a3 e3 3d 02 b0 93 3d
       0.0013286441 -0.0008321598 0.111151785 0.07211305
000150 3d 9f f3 3c a9 c6 ea 3d ff 5e a1 bb 85 ef 36 3d
       0.029739017 0.11463673 -0.0049246545 0.044662017
000160 7c fb f0 bd 1d ea 13 bf af 85 9f 3d 09 db 0b bd
       -0.11766717 -0.57779104 0.0778917 -0.034144435
000170 98 28 5f 3d c4 fe 09 3e e2 a3 97 be 81 a9 1a 3e
       0.054482073 0.13476092 -0.2961722 0.15103723
000180 1f ba 9f 3d 44 dc f7 3d 4d d2 89 3d a5 53 f5 3d
       0.07799172 0.12102559 0.06729565 0.119788446
000190 0e e3 04 be 71 a4 55 3e 9b 43 01 3d 7d 1d 1b 3d
       -0.1297724 0.2086351 0.031558614 0.03786992
0001a0 5a 16 10 bd b1 a5 a6 3d 03 8a ba 3d 1e 76 8c bd
       -0.035177566 0.08137072 0.09108355 -0.068584666
0001b0 74 90 93 3d a2 fa cb 3b 78 92 56 bc 12 2e 03 3e
       0.072052866 0.006224946 -0.013096444 0.12810543
0001c0 12 24 2b 3d f4 4a c8 3d 67 19 01 be b7 d3 be 3d
       0.041782446 0.09779921 -0.12607346 0.09317725
0001d0 69 11 04 3d 77 1e 2e 3e 48 e3 30 3d 9b aa 9e 3a
       0.032243166 0.17003809 0.043185502 0.0012105288
0001e0 33 7a 4c 3d 0a dc d4 be bd dc 13 3e 07 42 ef bc
       0.049921226 -0.41574126 0.14439674 -0.029206289
0001f0 00 16 5a 3d 14 93 c0 3d e6 d6 0d 3e 15 92 01 be
       0.053243637 0.09403053 0.13851508 -0.12653382
000200 e8 be 57 3d fd 1e c2 3d fb e7 b8 3d a8 ba 64 3d
       0.052672297 0.09478567 0.09028622 0.05584207
000210 dd b4 a0 bb 42 0c bf be 06 07 9f 3d 06 a7 08 be
       -0.004904373 -0.3731404 0.077650115 -0.13344964
000220 be 18 da bc 91 e7 ae 3d 04 96 ef 3c 2e 03 a4 bd
       -0.026623126 0.085402615 0.029246338 -0.08008419
000230 95 fa 66 3d e5 63 d5 3d 44 b6 e3 3e dc eb 19 3d
       0.056391317 0.10419444 0.44474995 0.03757845
000240 8a 87 e4 3c d0 19 9e bc af 60 a6 bd f6 8d f5 3d
       0.027896661 -0.019299418 -0.0812391 0.119899675
000250 b9 b3 60 be b2 df a9 3d e0 2d d2 3b 1a ce 24 3e
       -0.21943559 0.082946196 0.00641416 0.16094247
000260 1e 4b 34 bd 70 6c 4a 3e 42 9a 10 3e 5a 00 d0 3d
       -0.04401695 0.19767928 0.14121345 0.10156317
000270 27 2a 3d 3d 48 69 36 3d 9a 91 ba bd a7 fa 12 bd
       0.046182778 0.044533998 -0.091098025 -0.035883572
000280 2a 84 d7 3d 36 d7 ed 3d fa 9d 9c 3d 7e 50 d1 3d
       0.10523255 0.11613314 0.07647319 0.10220431
000290 6c 33 b8 3d 73 6d cf 3c 25 24 3e bd a8 b8 00 3d
       0.08994183 0.025320744 -0.04642119 0.031426102
0002a0 c5 26 19 3c e8 0a b9 3d f7 c1 46 3d 89 05 23 bd
       0.009347622 0.09035283 0.048524823 -0.0398002
0002b0 a1 bd a5 bd 12 ea 0f 3e 2f b6 87 3e 67 9b db bd
       -0.080928095 0.14054134 0.26506183 -0.10723
0002c0 36 ba 38 bd 3f 13 47 3d ac b3 5f be fd 3f 43 3c
       -0.04509946 0.04860234 -0.21845883 0.011917111
0002d0 66 42 cc be b9 04 03 3e 62 67 12 bd b0 64 ed 3d
       -0.39894408 0.1279477 -0.035743125 0.1159147
0002e0 89 93 9c bd 0c b0 20 3e bb 41 b9 bd 02 29 a7 bd
       -0.076453276 0.15692157 -0.0904574 -0.081621185
0002f0 f6 4f 4f 3b 75 27 61 bd 3f 25 0f 3e 4f 6e 70 3d
       0.0031633354 -0.05496927 0.13979052 0.05869895
000300 85 4c 14 3e 7e fc ac bd 4c f1 c5 bd 8a a0 8e 3d
       0.14482315 -0.084465966 -0.09665164 0.06964214
000310 e8 c1 8e be 62 b1 99 bc 1b 08 f8 3c a2 5b be 3b
       -0.27882314 -0.01876134 0.030277302 0.0058092633
000320 e0 47 4c be 41 7d fc 3d 0b 82 71 3d 4a 60 33 be
       -0.19949293 0.12328578 0.05896191 -0.175172
000330 bd b6 67 3c ae c1 c1 3d a6 a5 a3 3d 56 a8 c5 be
       0.014142689 0.094607696 0.07990579 -0.38604993
000340 5e 04 32 be c3 ea 2c 3d cc 6b 80 3d 50 13 92 3d
       -0.17384478 0.042216074 0.062705606 0.0713259
000350 ea 4d bb 3d 3c 75 da 3c a7 74 b4 3d fd c1 19 bd
       0.0914572 0.02666723 0.08811312 -0.037538517
000360 e5 8e ac 3c 12 73 c9 3c 00 aa d8 3d c3 61 27 3d
       0.021064231 0.024591003 0.105793 0.040864717
000370 7b 0e e7 3d 70 fe bd bd 2a cd b6 3d 8b 23 0b 3e
       0.11282059 -0.09277046 0.08925851 0.13587777
000380 42 a4 ba 3e a3 6f ea bc 2d 07 05 bf ac f8 28 bd
       0.36453444 -0.028617686 -0.51964074 -0.041252777
000390 4e 37 3e 3d a3 30 86 bc c8 ce 85 3d b3 cb 68 3d
       0.04643946 -0.016380614 0.06533581 0.056834888
0003a0 0d f2 d1 bd 34 02 fb bc fc ca 37 3d 59 39 86 3d
       -0.10251246 -0.030640699 0.044871315 0.06553907
0003b0 6d 0d 9c 3d 84 d5 46 bd 25 d4 a1 bd ea f1 57 bd
       0.07619748 -0.048543468 -0.079017915 -0.05272094
0003c0 ac b8 9a bd 9c 9b 05 3d de 79 97 bd ae 8e 81 3d
       -0.075547546 0.032619104 -0.07396291 0.06326042
0003d0 ba 0b e5 bc 78 2b 96 bd ff 1c dc be 86 08 b2 3d
       -0.027959693 -0.0733251 -0.42990872 0.08693032
0003e0 1a 84 20 be b2 4c a9 3d ea 85 46 be 8c 49 da 3c
       -0.15675393 0.082665816 -0.19387022 0.026646398
0003f0 71 74 39 3d ce c3 b6 3c 8b 9a eb be 05 02 10 3d
       0.045277063 0.022310164 -0.46016344 0.035158176

fc2.bias f4 [256]
000000 6f 90 07 3e a6 f5 05 3e c4 73 d2 bc a4 e0 02 3d
       0.13238691 0.13081989 -0.025689967 0.031952515
000010 0f 01 06 3d 52 ca c7 3d 1f f8 dc bd ba d4 15 bc
       0.032715853 0.097553864 -0.10789513 -0.009144956
000020 21 3a a2 bd 7e eb a7 3d 63 4b b2 3d c7 b5 22 3e
       -0.079212435 0.081992134 0.08705785 0.15889655
000030 a4 e5 5e bd ae c5 de bc 83 19 12 bd b3 ef 39 3d
       -0.05441822 -0.02719387 -0.03566886 0.04539461
000040 2a 72 bf bc 36 ca ff 3d 7c ef 2b 3b c2 48 88 bb
       -0.023369867 0.124897406 0.0026235273 -0.004159064
000050 5c dd 62 3d 4d 21 07 3e 3d 15 c4 3d c9 22 05 3d
       0.055386886 0.13196297 0.095743634 0.032503877
000060 8d e0 42 3e 09 58 4a 3d d8 c4 12 bd 10 2e 55 3c
       0.19030972 0.049400363 -0.035832256 0.01301147
000070 6e c5 0f bc b9 0c 66 3d 50 b9 93 bc dc 1b 06 be
       -0.008775098 0.056164477 -0.0180327 -0.13096565
000080 20 ac 34 3d 92 c2 93 bb a0 8b 0c 3e be 7b a6 be
       0.044109464 -0.0045092786 0.13725138 -0.32516283
000090 b7 20 13 3d a0 7f 07 3d fa 80 63 3d 96 2a ae 3c
       0.03591987 0.033080697 0.055542924 0.021260541
0000a0 cf e9 b6 3b b9 13 f2 3c 7b f0 0d bc e7 7a 39 3d
       0.0055820714 0.02955042 -0.008663292 0.045283224
0000b0 41 46 aa bc fc b3 1e 3d 2f 86 7d 3c f5 66 9a 3c
       -0.020785453 0.038745865 0.015473886 0.018847922
0000c0 f1 9d c9 3d 34 76 5f 3c bb b4 a6 3d 34 cf 98 3d
       0.09844578 0.013639022 0.0813994 0.07461396
0000d0 50 70 19 3e a4 10 ab bc ab 65 14 3c f4 a6 80 3c
       0.1498425 -0.020881958 0.009057443 0.01570461
0000e0 d3 a5 c4 bd 4b ee a6 3d e7 b4 27 bc 59 66 2f 3e
       -0.09601941 0.081509195 -0.010236002 0.17128886
0000f0 2f 8c d4 3b 78 52 8d bc 22 8c 48 3e 81 a5 5c bd
       0.0064864377 -0.017251238 0.19584706 -0.053868774
000100 9a 3e e8 3d 60 43 53 bc 98 60 93 bd cc 82 58 bc
       0.11340065 -0.012894481 -0.07196158 -0.013214778
000110 c8 2b d2 bb d6 d2 d2 bc 59 9b c9 3d 2a de 12 3e
       -0.0064139105 -0.0257353 0.09844083 0.14342561
000120 2b 4c 8a 3d f4 0f 8e 3d be 93 2a 3d 34 ff a4 bd
       0.06752809 0.069366366 0.041644804 -0.08056489
000130 2d 84 25 bd 0b 00 43 3c 09 66 30 bd c4 0e 3f be
       -0.040409256 0.011901866 -0.04306606 -0.18657976
000140 02 2d 27 bd 81 ed 87 3d 1a e6 5b bc 88 e7 a3 3b
       -0.040814407 0.06637097 -0.01342156 0.005001966
000150 0b 41 dc 3d aa 4f 0b 3c ec 50 51 bc fb 39 84 3d
       0.107545935 0.00850288 -0.012775641 0.064563714
000160 ca 95 89 bd 5c 0e 24 bc cc 4e a6 bc 73 ed b4 3d
       -0.06718023 -0.010013189 -0.020301245 0.08834352
000170 69 80 84 be 56 4c 2b bd 82 f6 bd 3d 5a 30 26 bd
       -0.2587922 -0.041820846 0.09275533 -0.040573455
000180 ff c8 14 be 95 ea f6 3d 30 4e 77 bd 71 b9 5b 3d
       -0.14529799 0.12056462 -0.0603773 0.053643648
000190 1f 12 22 3d 9d 88 a5 bc e7 db 5e bc 3a 00 d0 3d
       0.039568063 -0.020206744 -0.0136022335 0.10156293
0001a0 bf bb 99 3c be 32 de 3d 37 41 72 bd 33 73 05 3e
       0.018766282 0.10849522 -0.059144225 0.13032226
0001b0 73 78 6c 3d 4b c9 06 bd 0b ae 90 3a 0b b8 6b bd
       0.057732057 -0.03290681 0.0011038197 -0.057548564
0001c0 10 8c 17 3d d7 d3 7d 3d a6 23 94 bc a4 ec a8 3d
       0.03699881 0.061969604 -0.018083405 0.082482606
0001d0 99 08 08 3e 0c 19 8c bd c6 4f a4 bd 13 de 96 bc
       0.1328453 -0.06840715 -0.08023028 -0.01841644
0001e0 d1 0a 7a bc 90 d6 64 be cf ad 49 bd 72 5d c0 3c
       -0.015261368 -0.22347474 -0.049238022 0.023482058
0001f0 e5 ee bb 3d b0 3a cc 3b 95 23 86 3d 50 6c 0d 3d
       0.09176425 0.006232582 0.065497555 0.034527123
000200 4d c4 8a bd 70 d3 59 bd b1 ff f4 bc f3 cc f4 bc
       -0.06775723 -0.05318016 -0.02990708 -0.029882884
000210 0b b5 14 3e 6d e2 0c 3d ce 40 dc 3c 1d 7c 2f be
       0.14522187 0.034395624 0.02688637 -0.17137189
000220 b0 95 2e bb 95 e8 12 bd fd 7e ab 3b cb f9 b4 3d
       -0.0026639514 -0.03586634 0.005233644 0.08836707
000230 c2 90 20 3d 99 a8 31 bd e9 0a d0 3d 79 49 92 3d
       0.03920055 -0.043373678 0.10158331 0.0714292
000240 bf 38 b1 3c af a9 04 bd 12 9e c2 3b d6 ad 57 3d
       0.021633504 -0.032388385 0.0059392536 0.052656017
000250 d5 e5 75 bd 74 1c b3 3c b3 87 15 3d df de 88 bc
       -0.060033638 0.021864153 0.036506366 -0.016707836
000260 c6 29 b9 3d bc 49 12 3d 01 d1 de bc 03 48 52 3d
       0.09041171 0.03571485 -0.02719927 0.051338207
000270 6f 86 fa 3c ea e5 ac 3d c8 46 8d 3d b2 48 02 3c
       0.030581681 0.0844229 0.06898266 0.007951902
000280 ae b9 55 3d 80 4c 95 3d b6 cc ed 3c de b4 67 bd
       0.05217903 0.07289982 0.029028278 -0.056568973
000290 5e b6 62 3d 78 e9 d0 bb 65 58 ea bc da 5f 7c 3d
       0.0553497 -0.006375488 -0.028606603 0.06161485
0002a0 c6 62 9b bd 1c a6 f9 3b 88 e2 02 bc 23 24 43 3e
       -0.07587199 0.0076186787 -0.00798858 0.19056754
0002b0 86 34 62 bd d1 e3 98 bd dd 1a 8c 3d 6d 79 7c 3d
       -0.05522587 -0.074653275 0.06841061 0.06163924
0002c0 f6 7c c4 bd cd 47 b4 3d b1 f5 28 bd c0 73 7f bd
       -0.09594147 0.088027574 -0.041249935 -0.062366247
0002d0 b3 6b 78 bd 09 54 b3 3a 80 68 e4 3c d2 b4 1f 3e
       -0.060649585 0.0013681661 0.02788186 0.15596321
0002e0 7e 38 e8 bb f6 fd 36 3c 8c 0c 65 3c 75 26 c5 3d
       -0.0070868125 0.011168947 0.013980042 0.09626476
0002f0 77 64 b4 3d 4d 2b e7 3d 78 12 23 3e 5f 04 07 3e
       0.08808225 0.11287556 0.15925014 0.13185261
000300 12 9b 85 bd 81 85 dd 3d c7 af 55 3e d9 53 c6 3d
       -0.06523718 0.108164795 0.20867835 0.096839614
000310 02 01 cb bd 67 da f7 3d e7 e5 8c 3d c8 de 0a bd
       -0.099123016 0.12102204 0.06879788 -0.033903867
000320 57 04 99 be 86 de 35 bc 4d c0 da bb 5d 50 57 bd
       -0.29886124 -0.011100417 -0.006675756 -0.052566875
000330 d7 05 42 3d a1 33 9a bc fa eb db 3d dd 62 70 3c
       0.04736885 -0.018823447 0.10738368 0.014672008
000340 0d f3 68 bc 48 64 b3 3c 0d 85 67 3d 69 25 85 be
       -0.014218104 0.021898404 0.05652337 -0.26005104
000350 a3 b4 a2 3d ae 36 c7 3b 85 9c b3 bd 85 d3 ef 3d
       0.0794461 0.0060795164 -0.08770088 0.11710266
000360 44 54 5d bd 54 1e 70 bd c4 64 c4 3d 68 dd 21 3e
       -0.05403544 -0.058622673 0.09589532 0.15807116
000370 2b c6 8c bd b4 fa 5a 3d 15 c3 61 bd e4 48 a9 3d
       -0.06873735 0.053461745 -0.055117685 0.08265856
000380 98 0b 09 3c e4 a3 a7 3c e7 ae d4 3d 2c 42 91 bd
       0.008364581 0.020463891 0.103849225 -0.070926994
000390 15 35 c7 bc 00 d2 87 3c e2 17 6b bd 37 f9 85 bd
       -0.024317304 0.016579628 -0.057395823 -0.065416746
0003a0 8f 52 80 3b 78 b2 1c be b1 39 4f bd 00 79 74 bc
       0.0039160918 -0.15302455 -0.05059213 -0.014921427
0003b0 79 2f 33 3d 24 d8 19 bd 52 d9 ad bb e3 69 4b 3d
       0.043746445 -0.037559643 -0.0053054476 0.04966153
0003c0 3d f5 d1 3d c4 99 cf 3d 8b e1 32 bc da d2 24 3e
       0.102518536 0.1013675 -0.010918031 0.16096058
0003d0 5f 95 b3 3c 42 59 92 3d c0 6f 77 bd 92 5a 8e bd
       0.021921812 0.07145931 -0.060409307 -0.06950869
0003e0 a0 79 45 bd 8c 3d c8 3c 3d 9e 1e bd 1a b1 eb 3d
       -0.048211694 0.02444341 -0.038725127 0.11508389
0003f0 db c1 24 3e 22 1a 92 bd af c2 8f 3c 09 ed 24 be
       0.16089575 -0.07133891 0.017548887 -0.16106047

fc3.weight f4 [128, 256]
000000 c3 aa 92 3d 22 30 3d bd fd 80 16 bc eb 05 8e ba
       0.071614765 -0.04618848 -0.009186027 -0.0010835504
000010 00 22 f6 ba 54 84 7b 3d fd 3e e2 bd 6c 73 6f 3b
       -0.0018778443 0.061405495 -0.1104717 0.0036537303
000020 18 a2 ac 3e ec d1 e7 3d 10 21 ab 3c fd 25 47 be
       0.33717418 0.11319336 0.020889789 -0.19448085
000030 99 af 4c bc f8 19 41 3c e6 95 94 3e 43 e0 86 3d
       -0.012493038 0.011785977 0.29020613 0.06585743
000040 d2 1a 8e 3b 60 79 d8 3c 41 f9 78 3d e0 f7 27 bd
       0.0043366933 0.026425064 0.060784582 -0.041007876
000050 dc 1e 01 3f bc 59 b1 bd 72 b6 d7 bb ef 79 ba 3d
       0.5043771 -0.086596936 -0.0065830285 0.09105288
000060 a9 95 23 bd 37 31 9c 3c 82 b1 e4 3c e6 55 c6 3c
       -0.03993765 0.019066436 0.027916674 0.024210881
000070 da 19 d1 bc fb 3d be bc b4 a2 5b bd eb 35 8c 3c
       -0.025525022 -0.023222914 -0.053621963 0.017115554
000080 e6 a1 8b 3a f9 5c 71 bd 8f ca 20 bd 4b 97 1a 3d
       0.0010653108 -0.058926556 -0.039255675 0.03774194
000090 fb 2a c9 3d 74 8e 11 3e 5d a2 32 3e ef bd 9f bd
       0.09822651 0.14214498 0.17444749 -0.07799899
0000a0 e9 06 de 3d 30 e5 23 3b a1 51 e9 3c c8 1f c9 be
       0.10841162 0.0025008433 0.028481307 -0.3928206
0000b0 37 52 27 bc 20 7d 8b bd ee b0 56 3d aa 8e 81 bd
       -0.010212473 -0.06810975 0.052414827 -0.06326039
0000c0 f6 6d cb be e5 c3 1f 3e a7 7b 37 be b6 25 21 3e
       -0.3973233 0.15602072 -0.17918263 0.15737042
0000d0 a6 d5 eb bc cd 7d ae bb ff 0b c3 3c f6 d9 f4 3d
       -0.028788399 -0.005325055 0.023809431 0.11955635
0000e0 0e fa f5 3c 06 d0 c6 bd 97 08 46 be 58 b9 2b be
       0.030026462 -0.09707646 -0.19339214 -0.16769922
0000f0 0c cd 76 bd 33 b4 1d 3e 63 0c 60 be 87 91 20 3d
       -0.06025414 0.15400772 -0.21879725 0.039201286
000100 c6 89 8e bb 64 44 d1 3c d0 80 17 3d 9f b9 d1 3a
       -0.00434992 0.025545307 0.03698808 0.0016000754
000110 d5 8f 16 3d 40 e2 7e bd 80 4d 46 be f5 92 01 3e
       0.036758263 -0.062227488 -0.19365501 0.12653716
000120 7e f2 df be a0 2c 45 3d 8f 75 b8 bd ef d7 a6 bc
       -0.43739694 0.04813826 -0.090067975 -0.020366637
000130 aa 8a f1 bc e1 4f b6 bd d0 b1 2e 3d 00 93 47 3e
       -0.029485065 -0.089019544 0.042650044 0.1948967
000140 84 8b eb 3c 92 9b 87 be 0d aa 83 bb 67 78 5a 3d
       0.02875305 -0.26485878 -0.0040180744 0.05333748
000150 4b 87 6a bd 1e c2 e3 bc 67 3a 8c bc c0 21 e7 bc
       -0.05725793 -0.027802523 -0.017117692 -0.028214335
000160 18 55 6c bc da ba 4d bd 72 8e 88 bb ec d3 19 bf
       -0.014424585 -0.050227024 -0.0041673714 -0.6008899
000170 8c 7f 33 be 76 71 91 3b d9 ab 00 3d 03 cc 1b bd
       -0.17529124 0.0044385744 0.031413887 -0.038036358
000180 3f a8 91 bc 21 44 a6 3c f7 65 13 3d 1f 5a b1 bd
       -0.017780421 0.020296158 0.035985913 -0.08659767
000190 4a 4c 3b 3c 06 72 47 be 53 d8 10 3e 94 df 31 3d
       0.011431763 -0.1947709 0.14145021 0.04342611
0001a0 e6 e2 40 3d 34 6e 92 bc 11 a9 80 3e 29 4d 9f bd
       0.047091387 -0.017874815 0.25128987 -0.07778389
0001b0 ae c6 5e 3e bc d5 8d bd d1 b8 21 3d 16 c3 80 3c
       0.21755478 -0.06925532 0.039482895 0.015718024
0001c0 9c f2 7b bd fc 41 ec 3c 5a 99 e1 b9 5e 64 00 3d
       -0.061510667 0.028840058 -0.000430296 0.031345718
0001d0 ac e9 23 3e ec 27 6d 3d 09 f3 44 bd 79 dc 08 3d
       0.16007107 0.0578994 -0.04808334 0.033413384
0001e0 b4 b4 b2 bc 01 29 f9 be 5d 90 21 bd d6 d8 56 bd
       -0.021814682 -0.48664096 -0.039444316 -0.052452885
0001f0 b2 2e 01 3d a3 0d 37 bc d0 e0 2c be d2 e3 2c 3d
       0.031538673 -0.011172685 -0.16882634 0.042209454
000200 52 a3 4d bd 5b 38 7f 3d 12 89 c1 bd d7 33 a8 bc
       -0.050204583 0.062309604 -0.09449972 -0.020532532
000210 01 90 22 3d dd ef 26 bc 8f 20 e6 3c 7d f9 7e 3e
       0.039688114 -0.010189024 0.028091697 0.2489986
000220 4e 5a 07 bd dc a5 43 3e 08 fe 8b bc 37 98 b5 3e
       -0.033045106 0.19106239 -0.017088905 0.35467693
000230 d4 f8 87 bd a6 a4 a3 3c 1a 2e 0e bc 54 ae bd bd
       -0.06639257 0.019975971 -0.008677984 -0.09261766
000240 f7 a3 43 bd 66 ea 07 bd 24 c0 3a 3e 18 9a 48 3d
       -0.04776379 -0.033182524 0.18237358 0.04897508
000250 5d cc 1e bc f6 91 34 3d 1d 6f 3f bd de 41 3b bd
       -0.009692279 0.04408451 -0.046736825 -0.045717113
000260 93 2f 72 bc 88 ad 95 bb 0e 03 f3 bc dc a0 3b 38
       -0.01478185 -0.0045678057 -0.029664543 4.4734086e-05
000270 f9 f7 ee bc b3 80 11 3d 65 f8 81 3d 27 16 9f bc
       -0.029170977 0.035523128 0.063462056 -0.019419743
000280 c6 81 2c 3e 70 d9 07 3d 50 55 15 3d 2c e0 8a bd
       0.1684638 0.03316635 0.036458313 -0.06781039
000290 f8 fe 58 3e 3c cd f4 bc 7a 68 21 3c 64 e6 a8 3b
       0.21191013 -0.02988302 0.009851569 0.005154418
0002a0 9b 83 bd bc 19 31 bd bc cc c5 a4 bd f0 e0 f3 be
       -0.023134043 -0.0230947 -0.08045539 -0.4763255
0002b0 53 4f 91 3c b7 08 07 be 5b e6 8d bc 22 e8 74 3e
       0.01773802 -0.13186918 -0.017321756 0.23916677
0002c0 51 b2 0c 3e e7 00 0a 3d 46 4b c0 bc 7e 38 30 bd
       0.13739897 0.033692267 -0.023473393 -0.043022625
0002d0 69 c5 e8 bb ad 39 54 bd 64 3f b1 bd b4 5a 8f 3c
       -0.0071036112 -0.051812816 -0.08654669 0.017499305
0002e0 31 59 77 3d 4f 9e f2 3c a3 6e b5 bb e5 6f bb be
       0.060387794 0.029616503 -0.0055368706 -0.36608806
0002f0 9a bc 63 3d 03 0b e6 bb 7f a8 8c 3c 2f eb 92 bd
       0.055599786 -0.0070203557 0.017170189 -0.07173764
000300 50 3b 47 bc be 5b e9 3d 3d 19 64 be da b4 85 bd
       -0.012160137 0.113944516 -0.22275253 -0.06528635
000310 3c b6 47 3e 5a d3 9b 3d b8 9c 5b 3d aa 3c 06 bb
       0.1950311 0.076086715 0.053616256 -0.0020482936
000320 19 33 33 be 30 f5 3f bc 6f 41 8a 3d 9a ea 1b bd
       -0.17499961 -0.011716172 0.06750762 -0.03806553
000330 74 aa 6b 3d f0 a0 c1 3b 7f 80 95 bc 00 10 80 be
       0.057535604 0.005909078 -0.018249748 -0.25012207
000340 5c 64 11 bd 1a cb 59 3e 1f aa 6e bb e0 34 82 3d
       -0.0354961 0.21268883 -0.0036417318 0.06357741
000350 28 f3 59 bd 08 3c f8 3d 77 70 09 bd 1e c0 2d 3e
       -0.053210407 0.12120825 -0.03355452 0.16967818
000360 ba d5 02 bd 14 c4 ba 3d 76 96 46 be 1c a9 41 3d
       -0.031942107 0.0911943 -0.19393334 0.047280416
000370 03 d7 5b bd 68 dd 56 bd 5b a8 f1 bd 0d 19 88 bd
       -0.053671848 -0.052457243 -0.117996894 -0.06645403
000380 f8 a3 df ba b2 df 6d bc 44 bf 92 bd b0 12 f7 3b
       -0.0017062416 -0.014518665 -0.07165387 0.0075400695
000390 e0 da b0 3d 7f 2d 6b 3e 3b 62 22 bd a6 5c bb 3b
       0.08635497 0.22966574 -0.03964446 0.0057178317
0003a0 8e 3f eb 3d 3f 3b ca bc fc 4c 61 3d 22 38 19 bd
       0.114867315 -0.024686454 0.05500506 -0.037407048
0003b0 a1 39 e5 3d 9c 70 91 bc 48 5e c8 3c 6e 4d 5d 3c
       0.111926325 -0.017753892 0.02445902 0.01350723
0003c0 65 cb 07 bf cb 7c 2f bc 4b 2e 21 be 57 cf f3 bd
       -0.5304473 -0.010710905 -0.15740316 -0.11904781
0003d0 8a ac 7b 3d 9e ed 92 3d 95 2d 50 bd 4b ae 23 3e
       0.061443843 0.07174228 -0.05082472 0.15984456
0003e0 43 63 27 bd 08 59 24 be 55 c6 0e bc 64 f3 6f be
       -0.040866148 -0.16049588 -0.008714278 -0.2343269
0003f0 48 cf 6f bd ff 04 fa bd ff a5 4b 3c 82 9b a6 be
       -0.05854729 -0.12207984 0.012429713 -0.32540518

fc3.bias f4 [128]
000000 5e f7 ff 3b 4c d7 25 bd 59 e9 66 3d 1d 07 e3 3d
       0.007811471 -0.040488526 0.05637488 0.11085341
000010 bc ec e9 3d 78 d3 28 3b a8 51 34 3e 54 3e 30 bd
       0.114221066 0.002576081 0.17609274 -0.04302819
000020 4b 3d d8 3d bc 1c 56 3d 87 d7 65 3d eb db 40 3c
       0.10558566 0.052273497 0.056113746 0.0117711825
000030 19 ed f8 3d 43 d5 00 3e 0e 5e 06 3d ac 8e 3a 3c
       0.12154598 0.12581353 0.03280454 0.011386555
000040 7d 73 0c 3e f0 e4 a5 3d 91 35 b5 ba de b5 5d 3d
       0.1371593 0.08100307 -0.0013825168 0.05412852
000050 48 85 fa 3b e1 22 83 bd 30 b1 36 3e 7b 9a a2 3c
       0.007645283 -0.06403137 0.17841029 0.019849053
000060 44 6c 06 3d d8 f9 2e 3d db a7 8f 3c 37 94 a5 3b
       0.032818094 0.04271874 0.017536094 0.005053069
000070 b5 21 d2 3c 63 7e 3c 3d ba 5f 30 3e 87 b3 8c bc
       0.025650838 0.04601897 0.17224017 -0.017175449
000080 75 55 17 bd 4a 40 21 bd 86 09 45 bb 2b e4 3c 3e
       -0.036946733 -0.03936795 -0.003006549 0.18446414
000090 bf 09 88 3c 36 a0 21 bd f4 2b 4a 3d 1f cc f2 3d
       0.01660621 -0.03945943 0.049358323 0.11855339
0000a0 2a 8d 03 bc 9e 05 2f 3d d8 8e 17 3c 9c fd d6 bd
       -0.008029262 0.042729966 0.009250365 -0.10497591
0000b0 65 75 81 3d 43 87 26 3d aa 19 cc 3d 02 d9 f4 bb
       0.06321219 0.04065634 0.099658325 -0.0074721584
0000c0 9a 58 ba 3d fa f1 79 bd 7c 50 2b bd bd 4d 70 bb
       0.09098931 -0.061021782 -0.041824803 -0.003666743
0000d0 3e 57 e9 3d ef d1 da bc 0d c0 8f 3b b4 b0 b1 3d
       0.11393593 -0.026711432 0.004386908 0.086762816
0000e0 de b2 57 bd 32 75 10 3e 8a 22 a6 3d 77 fb 86 bd
       -0.052660815 0.14107206 0.081120566 -0.06590932
0000f0 1e a7 de 3c 40 d8 83 bd 7b 14 e6 3c be 36 f6 3c
       0.027179297 -0.06437731 0.028085938 0.0300554
000100 61 ed d3 3b 81 f7 15 3e 68 59 44 bd 30 c3 40 3e
       0.0064675068 0.14645196 -0.047936827 0.18824458
000110 24 ab 05 3e c2 ff f0 bb 6d 4e c0 3c ce 4b e2 3d
       0.13053566 -0.0073547075 0.023474896 0.11049615
000120 b9 ba 91 bd a5 e3 b8 bd 89 5a 8f bd 84 7d 1b 3d
       -0.07115693 -0.09027795 -0.0699969 0.037961498
000130 a4 ca 6b 3c 5e 8b 49 bd 45 08 f1 3b d5 bc 95 3d
       0.014391575 -0.049205177 0.007355722 0.073114075
000140 a2 77 9a 3c 29 ad 05 3e fc cb 2a 3e d6 c5 fe 3c
       0.018855873 0.13054337 0.16679376 0.031100195
000150 32 14 18 bd 74 ce ab bd 99 2d a0 3d d4 e9 af bc
       -0.037128635 -0.08388987 0.07821197 -0.021473803
000160 19 62 04 3e 41 ee 13 bd 9a b5 cb bd d1 ef 22 3e
       0.12928046 -0.03611589 -0.09946747 0.15911795
000170 ba fd 4a bd 4a eb 45 3c ee 66 d5 bb cc 28 65 3c
       -0.04955838 0.012080023 -0.0065125143 0.0139867775
000180 fd df 76 bd 41 e6 01 3d d3 3a 71 3d 40 13 46 3d
       -0.060272206 0.031713728 0.05889399 0.048358202
000190 c3 eb 34 3d 7f bf 77 bd b9 83 53 3d 1d 57 3a bd
       0.044170152 -0.06048536 0.051639292 -0.045493234
0001a0 53 44 d5 3d 80 12 c3 3c e4 c1 1f 3e ec a3 e6 3c
       0.104134224 0.023812532 0.15601307 0.028154336
0001b0 bf c6 49 bd b0 98 8e bc 8f 4d 60 3d 14 80 99 bd
       -0.049261805 -0.017406791 0.054761466 -0.07495132
0001c0 5e 24 22 3c ee e4 50 bd de 4c 63 3d 85 cb 6a 3c
       0.009896366 -0.050999574 0.05549323 0.014330749
0001d0 48 39 f1 3c be be 41 3d 41 8c fa 3c 71 07 a7 3c
       0.02944626 0.047301047 0.030584456 0.02038929
0001e0 e7 ce 13 3d 7d c1 da 3d c1 72 5b 3d 6c 01 3d bc
       0.03608599 0.10681436 0.053576235 -0.0115359835
0001f0 b1 0e 43 3c 3a a5 ec bc b1 df 9d 3b 52 5c a6 3d
       0.011905358 -0.02888738 0.004817926 0.081230775

fc4.weight f4 [5, 128]
000000 cd 20 07 3e 2b 90 54 3e 1d e1 49 3e 4e da 28 be
       0.13196106 0.2075812 0.1971478 -0.16489527
000010 b6 fa 60 be ac b4 21 3e a8 22 90 be 76 f8 7a 3e
       -0.21970639 0.15791577 -0.2815144 0.24508843
000020 6c cd ba be bc d5 41 be 16 3b 32 be a5 72 6e be
       -0.3648485 -0.1892919 -0.17405352 -0.23285921
000030 d9 d5 73 be 04 54 64 be a7 b3 41 3e 7a 15 43 3e
       -0.23812045 -0.22297674 0.18916188 0.19051161
000040 4d 9b b0 be 0c d9 42 be 98 6c 29 be 80 8e 33 be
       -0.34493485 -0.1902811 -0.16545331 -0.17534828
000050 25 30 17 bd 6e ff 07 3e e3 4b 81 be ff e4 40 be
       -0.03691115 0.13281032 -0.2525321 -0.18837355
000060 76 f2 25 be 9d b6 c7 3c a8 95 17 be 55 22 41 3e
       -0.16205773 0.024379069 -0.14803183 0.18860753
000070 a9 74 46 3e e5 da 3c 3e 3f 04 b6 be 37 f6 47 bd
       0.1938044 0.18442877 -0.35550115 -0.048818793
000080 83 08 2c bd 85 4b b2 bd 6f 65 77 bd 0f 3e 8f be
       -0.042000305 -0.087058105 -0.06039947 -0.27977034
000090 11 fd 85 3b 42 bb a6 bd 21 11 2d be d2 63 59 be
       0.0040890058 -0.08141185 -0.16901065 -0.21229485
0000a0 10 97 80 be d3 11 1f 3e 93 69 51 3e 51 2d 5c 3e
       -0.25115252 0.15534143 0.2045043 0.21501662
0000b0 cf dc 3b 3e b2 a5 50 be 64 5b 52 be e4 6c 61 39
       0.1834595 -0.20375708 -0.20542675 0.00021498237
0000c0 5c 53 4e be d8 fd 49 bc c4 2c 37 3d 70 4b b6 3b
       -0.20148987 -0.0123285875 0.044720426 0.005563192
0000d0 7b 04 2e be d4 ca 45 3e e7 cd 10 3e 22 50 55 be
       -0.16993897 0.19315654 0.14141046 -0.2083135
0000e0 b0 01 ae 3a 15 a6 97 be ef b5 2d be 13 d8 8a bd
       0.0013275649 -0.29618898 -0.16963933 -0.06779494
0000f0 fc af 3a 3e 5a c3 14 bb 6a 59 c9 3d 92 11 51 3e
       0.18231195 -0.0022699446 0.098315075 0.20416859
000100 87 ed 5a 3e d6 ac 9b be 27 8c 9a 3e 37 e5 63 be
       0.21379672 -0.304053 0.30185053 -0.22255407
000110 6a df 91 be 1f 56 65 3e 55 c2 2b 3e 40 fa 10 be
       -0.28490764 0.22396134 0.1677335 -0.14157963
000120 e1 82 8d bd d5 d6 9c 3e 1d cd 3e bd 88 8d b3 bc
       -0.06909729 0.30632654 -0.04658233 -0.021918073
000130 4f 78 a0 be 97 9d 3d bd 3a 95 26 be 94 57 33 3e
       -0.31341788 -0.046292868 -0.16267863 0.17513877
000140 82 14 18 3e b9 56 88 be 09 31 2c bf d5 06 0a be
       0.14851573 -0.26628664 -0.6726232 -0.13479169
000150 10 6a 8b 3d 0d a7 93 3e 12 91 40 be c3 6e 1c 3e
       0.06807339 0.28838387 -0.1880534 0.15276627
000160 4a 67 87 be c4 86 c1 3d 5c 5d 46 3e 19 95 55 be
       -0.2644599 0.09449533 0.19371551 -0.20857657
000170 fc 04 73 bd aa df 13 3e 05 fd 75 bd 46 8c 5b 3e
       -0.059330925 0.1444079 -0.06005575 0.21440229
000180 9c 5a cd bc 66 b8 4d 3e 6f f3 28 3e 78 4c fb 3d
       -0.02506762 0.20089874 0.16499113 0.12270445
000190 9c 22 7e 3e 53 52 83 bd bb ac 89 be d7 85 32 3e
       0.2481789 -0.064121865 -0.26889595 0.17433868
0001a0 34 41 1f be 9b f6 a0 be 64 11 3b be 6e 43 c3 3d
       -0.15552217 -0.31438145 -0.18268353 0.095343456
0001b0 bf ad 58 bd 70 ca 34 3e f6 d1 57 3e f5 c9 8d 3d
       -0.052900072 0.17655349 0.21076187 0.06923286
0001c0 9c 06 07 bd b1 77 65 3e 4e 80 5a 3e 3c ab 69 bd
       -0.032965288 0.2240894 0.21338007 -0.057048067
0001d0 4b 47 9f 3e da bf 47 3e 83 a8 ad bc d3 31 4f 3e
       0.3110908 0.1950678 -0.021198517 0.2023385
0001e0 06 e7 56 3e 70 0e 6c be 79 c3 3e 3e 0c 22 4e 3e
       0.20986566 -0.23052382 0.18629254 0.20130175
0001f0 cb b0 2c bc a6 f5 ee 3d e2 4f e2 3d 72 e4 84 be
       -0.010540198 0.116679475 0.11050393 -0.2595554
000200 28 96 c6 bd 5b 85 64 3e 15 04 1d 3e ad 88 ae be
       -0.09696609 0.22316496 0.15333588 -0.3408865
000210 b0 d5 a4 be bf 8b 25 3e 95 ef 62 be 16 7d 55 3e
       -0.3219428 0.1616659 -0.22161706 0.20848498
000220 59 a4 80 be b3 4e 50 be f3 bc 48 be d7 68 86 be
       -0.25125387 -0.20342521 -0.19603328 -0.2625186
000230 bc f3 8d be 79 83 ad bd 22 a2 71 3e 31 a6 aa 3e
       -0.27725017 -0.08472342 0.23597005 0.3332992
000240 a1 16 bd be cf 4f 06 be 14 76 de bd 38 d3 2d be
       -0.36931327 -0.13116382 -0.10862365 -0.16975105
000250 00 59 b2 39 a1 15 66 3e 26 74 78 be 4a 3d 7f be
       0.00034017116 0.22469188 -0.24263057 -0.24925724
000260 0a 5e 44 be 47 48 96 3d 99 f3 3f be 75 78 49 3e
       -0.19176498 0.073380046 -0.18745269 0.19674857
000270 ef 24 29 3e a0 c6 fa 3d 33 da 93 be f0 e6 9a 3a
       0.16517995 0.12244916 -0.2887741 0.0011818092
000280 9b c7 4c 3d 28 80 a2 bd a4 01 0d bd df 53 9f be
       0.049995046 -0.079346 -0.034425393 -0.31118676
000290 5a e7 06 bd fc 6a 5e bd 70 65 34 be 9f 33 8d be
       -0.032935478 -0.054301247 -0.1761682 -0.27578446
0002a0 c5 71 cd be 69 53 48 3e 62 bf 83 3d e1 8f 22 3d
       -0.40125862 0.19563068 0.06432988 0.039687995
0002b0 b4 64 12 3e ea 52 72 be e3 64 19 be bf f8 32 3d
       0.14296228 -0.23664442 -0.14979891 0.043694254
0002c0 6b 3f 16 be 34 f4 ef 3c 14 8c 5f bd dc 88 a3 bd
       -0.1467263 0.02929125 -0.05457695 -0.07985088
0002d0 ab da b3 bd a4 ee 7d 3e 49 cf 78 3e da 17 13 be
       -0.08781942 0.24798065 0.24297823 -0.14364567
0002e0 94 47 77 bd e0 45 9c be 0d 5e 79 be 0d 3c 9c bb
       -0.060370997 -0.3052206 -0.24352284 -0.004767901
0002f0 54 3d 06 3e 5a 12 31 3d b8 33 09 3e 2f 3e 60 3e
       0.13109332 0.043230392 0.13398635 0.21898721
000300 bd 72 1e 3e bd 46 24 be ba 7c 9f 3e b7 1b 96 be
       0.15473457 -0.1604261 0.31149846 -0.2931802
000310 71 97 94 be 1b 78 2f 3e 24 d7 48 3e 9a ff 38 be
       -0.2902179 0.1713566 0.1961332 -0.18066254
000320 83 bc 01 3c 1b 90 15 3e 3f dc a9 3d 99 4f 3d bd
       0.00791848 0.14605753 0.08293962 -0.04621849
000330 47 21 ac be f9 41 28 3c 4d a6 ff bd 44 be 84 3e
       -0.3361914 0.010269635 -0.12482891 0.2592641
000340 e4 10 a8 3d 35 54 7d be 11 09 55 bf ec f0 5c be
       0.08206347 -0.24739154 -0.8321696 -0.2157628
000350 34 58 ab bc 07 ae 44 3e 3d 58 5d be 38 37 47 3e
       -0.020916082 0.19207011 -0.21615691 0.19454658
000360 68 91 80 be 0f 31 34 3e 45 35 a6 3e 3f 3e 2b be
       -0.25110936 0.1759684 0.32462516 -0.16722964
000370 a6 8b 20 3d 72 4a 30 3e 39 cb 5c bc 67 04 0b 3e
       0.03919568 0.17215899 -0.013476186 0.13575898
000380 a7 61 35 bd 99 20 d6 3d d8 f6 42 3e 25 29 2a 3e
       -0.04428258 0.10455436 0.19039476 0.16617258
000390 40 2e 94 3e 6c 40 1e 3d fd c4 5c be ad 88 14 3e
       0.28941536 0.038635656 -0.2155952 0.14505263
0003a0 0a 6b 5f be 3c dc af be 6e 6a f3 bd e8 28 b9 3d
       -0.21818176 -0.34347713 -0.11885534 0.090410054
0003b0 f7 5b 27 3d 39 2c 5c 3e 4d 8d 8a 3e f5 79 a9 3c
       0.04085919 0.21501245 0.2706093 0.020688036
0003c0 a3 86 92 bc 7f 4a 86 3e ac 19 19 3e f8 64 aa bd
       -0.017886465 0.2622871 0.149512 -0.083200395
0003d0 70 d3 bd 3e ac c9 72 3e af db 8e 3b ed ad 4a 3e
       0.37075377 0.23709744 0.0043596844 0.1979291
0003e0 73 df 54 3e b5 4c 9b be 20 03 05 3e f9 69 ac 3d
       0.20788364 -0.3033196 0.12989473 0.0841865
0003f0 ba fc 4f 3d 67 c1 20 3e 9b ca 60 3e eb 6d e8 bd
       0.05077813 0.15698777 0.21952288 -0.1134909

fc4.bias f4 [5]
000000 d8 cd 73 bd fb cb 85 3c eb 59 27 bd ad cb 25 bb
       -0.05952248 0.016332617 -0.040857237 -0.0025298402
000010 b0 19 0f bd
       -0.034936607
