models/lateral_stage3_seed5555_best.pth (torch, 412467 bytes, 8 tensors)

fc1.weight f4 [256, 9]
1.6268667 -0.1979582 0.26117212 -0.41698644 0.1435279 0.045833237 0.20287529 0.33294913
-0.48986292 -3.264851 0.24812558 0.45504218 -0.024942527 0.019858073 0.31758896 0.051513344
0.32531264 -0.17762783 0.18841836 -0.97812694 0.03623903 -0.2561637 -0.052421145 0.0128803095
-0.13755803 0.13300249 -0.06938542 -2.5657606 -0.41766798 0.12996241 -0.7883965 -0.07035308
-0.12320694 0.23228922 -0.16457805 -0.009187655 3.6907277 0.6572623 0.014098314 -0.39760438
0.24087198 0.14076304 -0.1124042 0.044701844 0.28976467 -3.7579017 -0.26168218 -0.115390204
0.15067203 -0.3112884 -0.30563208 -0.030772448 0.20954052 0.4445729 2.730645 -0.6091068
0.09618502 -0.51417583 -0.049078565 -0.11204185 -0.33262882 -0.2087898 -0.10558428 -2.7941961
0.6767002 -0.2752477 0.10581768 0.10671494 0.11285218 0.3143243 0.08756575 -0.043250363
2.564399 0.13134146 0.5127343 0.14636263 0.06629561 -0.55136395 0.30320558 -0.12013158
0.01808778 -0.24164094 -0.13728637 -0.6355523 0.93308794 0.29021174 -0.13402249 -0.22574389
-0.032595307 0.21215443 -2.9005108 0.02308744 0.3094669 0.17752694 0.36794275 0.0077988114
-0.21320009 0.21981886 -0.280903 0.91495985 -0.2045917 -0.66566044 0.57356334 -0.19016322
-0.6292591 -0.03820893 0.28856876 0.06891204 1.8497946 -0.020079954 0.16678533 -0.258976
0.42265686 -0.2496025 0.0033117533 -0.24386701 -0.29044455 0.6977022 -0.05156007 0.0051114447
0.18353999 1.0469114 0.24559748 -0.06657943 -0.0017983019 0.10758727 -2.701594 0.03762251
-0.31110048 -0.35859835 -0.0567325 0.16366118 -0.07786903 -0.07303521 0.19947079 3.6606116
0.120900914 0.0455943 -0.3158139 0.1638045 -0.373232 0.3081235 -0.29459912 0.22987491
-1.1089394 -0.11947547 -0.06629671 0.09831908 -0.21577618 -0.4322084 0.14272723 -0.30106875
-0.19756255 2.6025388 -0.58039963 0.0042595793 -0.24005644 0.15634105 0.058557667 -0.28949088
-0.2975268 -0.019394962 0.14201134 -0.58206105 -0.033570543 1.0680382 -0.038345605 0.2238321
0.008334756 0.26556358 0.009606452 -1.0578104 0.16128072 -0.37174758 -0.03357856 -0.04790263
-0.064275704 -0.30439493 0.08590603 -0.21458313 3.624162 -0.08204821 0.014370092 1.050334
-0.121677645 -0.24878162 -0.1299344 -0.18179087 0.18778323 3.1277525 0.080987625 0.11487598
0.31289995 -0.05879493 0.32835054 -0.14187273 -0.17531237 0.23506442 -3.650855 0.24278009
-0.06913412 0.39846894 -0.5626789 -0.07551878 -0.33277708 0.11962828 0.019706415 4.1552362
0.009143997 -0.6672264 -0.3832927 -0.093002945 0.08293834 0.06690839 -0.23893571 0.16927655
2.660449 -0.6493016 0.25442094 -0.08252614 -0.05620181 0.18956621 -0.192307 -0.28370702
0.41458023 -1.513488 -0.009462249 -0.05274319 1.3249675 -0.0063828533 0.2206318 -0.16832952
0.2992948 0.103668764 -3.3325033 -0.55314034 -0.3512251 -0.14314137 0.17235185 0.38320306
0.09701502 -0.069645435 0.102433704 -3.4742446 0.21287909 -0.044666253 -0.11402613 0.025278764
0.27319872 0.26867154 0.27902797 -0.28146693 -2.5049067 0.33753666 0.04827652 -0.9109252
00000000: 2b3d d03f 8eb5 4abe 5ab8 853e 3f7f d5be
00000010: faf8 123e a2bb 3b3d 8abe 4f3e 4f78 aa3e
00000020: 50cf fabe 52f3 50c0 a214 7e3e 4afb e83e
00000030: 4554 ccbc 66ad a23c 059b a23e a8ff 523d
00000040: 618f a63e 12e4 35be bef0 403e 8766 7abf
00000050: 616f 143d e327 83be 8eb7 56bd ef07 533c
00000060: 03dc 0cbe ce31 083e f119 8ebd 6c35 24c0
00000070: 94d8 d5be de14 053e 5ad4 49bf 4715 90bd
00000080: ec53 fcbd 3add 6d3e 2687 28be d187 16bc
00000090: e234 6c40 5842 283f 9dfc 663c cd92 cbbe
000000a0: 25a7 763e 3024 103e 2c34 e6bd 4819 373d
000000b0: 095c 943e 7681 70c0 35fb 85be b351 ecbd
000000c0: c549 1a3e 3161 9fbe cf7b 9cbe 8016 fcbc
000000d0: ca91 563e 0f9f e33e e3c2 2e40 6cee 1bbf
000000e0: a7fc c43d 07a1 03bf 9b06 49bd 3376 e5bd
000000f0: 534e aabe fecc 55be 923c d8bd 1cd4 32c0
00000100: 393c 2d3f 44ed 8cbe f1b6 d83d 5d8d da3d
00000110: 0b1f e73d 1def a03e ac55 b33d 4b27 31bd
00000120: 1d1f 2440 607e 063e 8e42 033f 16e0 153e
00000130: fec5 873d 3026 0dbf c33d 9b3e 8c07 f6bd
00000140: d32c 943c b970 77be cc94 0cbe 8eb3 22bf
00000150: dade 6e3f a296 943e 313d 09be 6829 67be
00000160: a882 05bd 033f 593e f8a1 39c0 df21 bd3c
00000170: 7272 9e3e 9fc9 353e fe62 bc3e 2c8d ff3b
00000180: 2051 5abe 3218 613e 85d2 8fbe cf3a 6a3f
00000190: 7d80 51be b968 2abf 0cd5 123f 26ba 42be
000001a0: 2017 21bf f880 1cbd 49bf 933e c121 8d3d
000001b0: 12c6 ec3f b77e a4bc c6c9 2a3e 8198 84be
000001c0: 7b66 d83e cc97 7fbe 000a 593b 46b8 79be
000001d0: 26b5 94be 9d9c 323f a730 53bd e87d a73b
000001e0: e8f1 3b3e 3101 863f e87d 7b3e cc5a 88bd
000001f0: 00b5 ebba b756 dc3d ebe6 2cc0 101a 1a3d
00000200: 9048 9fbe 349a b7be 5760 68bd cc96 273e
00000210: cc79 9fbd 7c93 95bd 1242 4c3e 7647 6a40
00000220: e69a f73d 17c1 3a3d 5cb2 a1be 5ebc 273e
00000230: 4418 bfbe 5dc2 9d3e b2d5 96be 5464 6b3e
00000240: baf1 8dbf 8eaf f4bd 92c6 87bd 845b c93d
00000250: 6ef4 5cbe 6b4a ddbe 1627 123e af25 9abe
00000260: d64d 4abe ff8f 2640 1295 14bf f193 8b3b
00000270: 5bd1 75be de17 203e 2ada 6f3d 2638 94be
00000280: 6f55 98be 2fe2 9ebc 6c6b 113e f401 15bf
00000290: 4481 09bd 7ab5 883f 4810 1dbd 3e34 653e
000002a0: 808e 083c f3f7 873e 6164 1d3c 5566 87bf
000002b0: c626 253e b355 bebe ac89 09bd 8c35 44bd
000002c0: fba2 83bd a7d9 9bbe 80ef af3d aebb 5bbe
000002d0: 45f2 6740 e408 a8bd 8970 6b3c 5871 863f
000002e0: 2132 f9bd 9cc0 7ebe 860d 05be 6327 3abe
000002f0: 3f4a 403e 192d 4840 d7dc a53d 1944 eb3d
00000300: 6c34 a03e f4d2 70bd 901d a83e 1647 11be
00000310: 1685 33be bab4 703e 9ca7 69c0 589b 783e
00000320: 3196 8dbd 1f04 cc3e b90b 10bf 97a9 9abd
00000330: c261 aabe acff f43d 596f a13c b2f7 8440
00000340: b4d0 153c 59cf 2abf f13e c4be 5478 bebd
00000350: 94db a93d 4407 893d 90ab 74be d556 2d3e
00000360: cc44 2a40 a138 26bf 7643 823e 7703 a9bd
00000370: de33 66bd a51d 423e 20ec 44be 0c42 91be
00000380: dc43 d43e fab9 c1bf 8d07 1bbc 3e09 58bd
00000390: 8998 a93f 4127 d1bb 4ded 613e 935e 2cbe
000003a0: 2b3d 993e 4a50 d43d bc47 55c0 9b9a 0dbf
000003b0: c7d3 b3be a793 12be 017d 303e 3133 c43e
000003c0: d0af c63d 44a2 8ebd c3c8 d13d 065a 5ec0
000003d0: fafc 593e f6f3 36bd 8886 e9bd 6915 cf3c
000003e0: b4e0 8b3e 518f 893e c1dc 8e3e 6f1c 90be
000003f0: 6450 20c0 9bd1 ac3e 9abd 453d 6532 69bf

fc1.bias f4 [256]
-0.16746639 -0.25601813 0.45068085 0.09208258 -0.20037116 0.20475824 0.19022632 -0.049382757
-0.15804322 -0.20932405 0.10069451 -0.009256698 0.13758945 -0.25108123 -0.3092645 0.21726455
-0.29170018 0.1776352 0.46370098 0.23716858 0.26789898 0.14887418 0.21099254 -0.2728712
0.07182302 0.2820127 0.28972387 0.21438676 -0.23516192 0.2534244 0.45017934 -0.2651521
0.026647618 -0.14887297 -0.38043538 0.08605636 0.07527911 0.40446657 0.39398366 0.29693788
-0.4696906 -0.352307 -0.35311893 0.20385656 0.10237361 -0.246439 0.18477161 0.17867136
0.18883733 -0.304428 -0.23189732 -0.25368306 0.20512448 0.04935076 0.17583758 0.23150921
0.25543 -0.19111474 0.09957096 -0.31984752 0.08653378 -0.27665737 0.21406944 -0.25721663
0.06616345 0.22848266 -0.41848156 0.28540424 -0.04109111 0.11059431 -0.19560573 -0.41642973
0.26349765 0.04409235 -0.22405238 0.3164526 -0.39544824 0.052424435 0.23470555 0.052009933
-0.30962616 -0.0073599075 0.15255977 -0.19082573 0.12735336 0.19877507 -0.01889433 0.2500103
0.32683372 -0.08430511 0.18623494 0.20239076 0.25011194 0.10428175 0.19975604 0.23366062
-0.24625675 0.2933907 -0.08625358 0.013869427 -0.2623633 0.052329313 0.122434065 0.25428265
-0.031013591 -0.19198555 -0.09646175 -0.044076696 0.20021626 -0.12347537 0.21007904 0.24699844
0.11333287 -0.018919248 0.20838208 0.17985208 -0.08529899 -0.09849726 -0.06917582 -0.3049071
-0.0010902598 0.082601085 0.06455012 -0.048785213 -0.23945431 0.13259633 0.2210637 -0.05397484
0.26066807 -0.09660886 -0.09252972 0.27621087 -0.44434673 -0.011452471 0.09187675 0.22907887
-0.12137725 0.12345043 -0.33681056 0.10543637 0.118542835 0.24380066 -0.009010384 0.3307635
0.16078731 0.030599881 0.033935588 -0.1599572 0.24259977 -0.1335002 0.24231659 0.06628518
0.09664789 0.51695085 -0.18132494 -0.071691856 0.2601193 0.29380557 -0.024083804 0.3335398
-0.14678086 0.107371524 -0.050141964 0.41806373 -0.005868433 0.31911737 0.2329864 0.16595764
-0.01217478 0.18154697 -0.2582866 0.2559595 -0.112603866 0.31607816 -0.044678163 0.2430108
0.30766279 0.10190244 -0.22070286 0.39136356 0.2717199 -0.23070352 -0.25309277 0.40236452
0.17431796 0.075931236 -0.16835648 -0.060066804 -0.10067802 0.2500672 -0.17793354 0.14621742
-0.03556668 0.27449366 0.06976106 0.25999928 0.05308954 0.20076989 0.03030538 0.0044430955
-0.07379208 -0.26849484 -0.039789796 -0.14179283 -0.1816861 -0.12194284 -0.14547408 0.1151779
-0.21792638 -0.361381 0.3152123 -0.3102345 0.27329895 -0.14450054 -0.40837416 -0.1736484
0.21600923 -0.39085275 0.096552625 -0.1416213 -0.1483671 -0.30177662 0.094890445 0.14569026
-0.04241367 -0.013502963 0.22865306 0.20848422 -0.06688406 0.33608863 0.035097856 0.26631278
-0.2982457 0.03537116 -0.05991638 -0.3832327 0.17964938 0.07631902 0.065729745 0.199901
-0.25668395 0.1853736 -0.26403463 0.26000383 -0.09707621 -0.0054925913 -0.1321467 0.28466418
0.14642379 0.29239148 0.2580207 0.35273156 -0.23211569 0.3062599 -0.020286724 -0.21755257
00000000: 4f7c 2bbe cf14 83be a4bf e63e cb95 bc3d
00000010: 192e 4dbe 25ac 513e b0ca 423e 9345 4abd
00000020: 15d6 21be 0b59 56be ec38 ce3d 68a9 17bc
00000030: 40e4 0c3e b88d 80be eb57 9ebe 997a 5e3e
00000040: ba59 95be 00e6 353e 376a ed3e 52dc 723e
00000050: 0e2a 893e 7972 183e 6e0e 583e c6b5 8bbe
00000060: f317 933d f863 903e b056 943e 3488 5b3e
00000070: 49ce 70be d8c0 813e e87d e63e 04c2 87be
00000080: 1b4c da3c 2872 18be 6dc8 c2be 513e b03d
00000090: ef2b 9a3d 3e16 cf3e 3ab8 c93e 3e08 983e
000000a0: 497b f0be 9561 b4be 01cc b4be c6bf 503e
000000b0: 41a9 d13d 815a 7cbe c534 3d3e a0f5 363e
000000c0: 935e 413e fddd 9bbe 7e76 6dbe bfe2 81be
000000d0: 270c 523e 0624 4a3d c40e 343e c010 6d3e
000000e0: b9c7 823e 95b3 43be dceb cb3d 0ec3 a3be
000000f0: 9f38 b13d 09a6 8dbe 0535 5b3e e6b1 83be
00000100: b480 873d 5cf7 693e 3743 d6be 8120 923e
00000110: 274f 28bd 457f e23d de4c 48be 4736 d5be
00000120: 2ae9 863e 2e9a 343d fd6d 65be 1306 a23e
00000130: 3178 cabe 01bb 563d a756 703e 5e08 553d
00000140: 5287 9ebe 612b f1bb a138 1c3e d267 43be
00000150: eb68 023e b18b 4b3e 48c8 9abc 5a01 803e
00000160: c056 a73e 28a8 acbd 5fb4 3e3e 863f 4f3e
00000170: ac0e 803e ac91 d53d d98c 4c3e bb44 6f3e
00000180: bb2a 7cbe 4e37 963e b8a5 b0bd 983c 633c
00000190: 7c54 86be 4357 563d b6be fa3d 5631 823e
000001a0: 3710 febc dc97 44be bd8d c5bd c489 34bd
000001b0: 7e05 4d3e a8e0 fcbd f61e 573e 29ed 7c3e
000001c0: 101b e83d 8afc 9abc 1d62 553e 252b 383e
000001d0: 3db1 aebd eeb8 c9bd 0dac 8dbd c91c 9cbe
000001e0: 0ce7 8eba c22a a93d da32 843d 01d3 47bd
000001f0: 8333 75be 55c7 073e 865e 623e b914 5dbd
00000200: 4976 853e deda c5bd 3980 bdbd 836b 8d3e
00000210: 6a81 e3be 25a3 3bbc e129 bc3d a793 6a3e
00000220: a394 f8bd 94d3 fc3d 6f72 acbe 06ef d73d
00000230: 96c6 f23d e1a6 793e 4aa0 13bc d559 a93e
00000240: 6ea5 243e 9aac fa3c 0b00 0b3d d2cb 23be
00000250: 136c 783e 47b4 08be d721 783e 86c0 873d
00000260: 54ef c53d e456 043f 3fad 39be 2ed3 92bd
00000270: 5b2e 853e af6d 963e 664b c5bc bbc5 aa3e
00000280: b94d 16be 9ae5 db3d a961 4dbd 730c d63e
00000290: fc4b c0bb 5a63 a33e fd93 6e3e cdf0 293e
000002a0: ba78 47bc 73e7 393e 243e 84be 200d 833e
000002b0: db9c e6bd ffd4 a13e 7300 37bd d3d7 783e
000002c0: fa85 9d3e 3ab2 d03d eeff 61be ce60 c83e
000002d0: df1e 8b3e 8b3d 6cbe 6095 81be b902 ce3e
000002e0: 6880 323e d681 9b3d a465 2cbe 9c08 76bd
000002f0: 4730 cebd cf08 803e 3634 36be 05ba 153e
00000300: 5eae 11bd 6f8a 8c3e e3de 8e3d a01e 853e
00000310: 6b74 593d 9f96 4d3e fd42 f83c 6397 913b
00000320: 4d20 97bd 2878 89be a0fa 22bd 2432 11be
00000330: ec0b 3abe 2bbd f9bd 28f7 14be 64e2 eb3d
00000340: 1828 5fbe ee06 b9be 8263 a13e 0ed7 9ebe
00000350: d7ed 8b3e f3f7 13be 6b16 d1be e3d0 31be
00000360: 8631 5d3e da1d c8be 62bd c53d 2d05 11be
00000370: 8ced 17be 7782 9abe ec55 c23d d42f 153e
00000380: f5b9 2dbd 883b 5dbc 0724 6a3e e37c 553e
00000390: 83fa 88bd cf13 ac3e c5c2 0f3d 265a 883e
000003a0: a9b3 98be 59e1 103d e16a 75bd 1437 c4be
000003b0: 02f6 373e 254d 9c3d 519d 863d d9b2 4c3e
000003c0: 146c 83be 94d2 3d3e 8c2f 87be 391f 853e
000003d0: e4cf c6bd 32fb b3bb 7751 07be 81bf 913e
000003e0: 1ef0 153e 56b4 953e 4a1b 843e 3b99 b43e
000003f0: bcaf 6dbe 19ce 9c3e 5830 a6bc 1ac6 5ebe

fc2.weight f4 [256, 256]
0.7113887 -0.32169086 0.056702927 -0.047769327 0.060562044 -0.08234732 0.08745281 -0.18955238
0.42423794 -0.16770127 -0.086617984 -0.9190685 0.45378995 0.3624308 0.2659818 -0.025282633
0.13303562 0.5387182 -0.15544042 -0.5164637 0.2662668 0.25415695 -0.04987597 0.3310427
0.29431054 0.34182763 0.15993357 -0.13758951 -0.26546392 0.7210246 -0.20927347 -0.6386211
-0.79595333 -0.11593924 0.31739736 -0.29778248 0.26785952 -0.5032419 -0.041331217 0.4084075
-0.17002346 0.5691239 0.25573006 -0.22793044 0.06748524 0.23016895 -0.21982512 -0.085185386
-0.25858295 0.33206984 -0.09822963 0.23073415 -0.09078151 0.13454047 0.074004166 -0.52793
0.13334963 -0.114292264 -0.19245453 -0.086514674 0.45185226 -0.3170172 0.034485962 0.049931657
-0.13834244 -0.37294868 0.13571054 -0.091663525 -0.16913009 0.49895257 0.10617039 -0.07873732
-0.08649137 -0.041631352 0.17040342 -0.61856514 -0.18153884 -0.42773962 -0.3626999 -0.35440204
-0.1925871 -0.20437637 -0.75903845 0.20021613 0.098882094 -0.17017756 0.026138116 0.44153893
0.16081367 0.2861094 0.44737792 -0.25710952 -0.108216554 -0.11823748 0.2956306 0.06262848
0.21358697 0.15050814 -0.048841704 -0.03780517 0.06393585 -0.37939638 0.26312104 0.025102759
0.42108342 0.13049015 -0.585947 -0.2662082 -0.006117121 -0.08391713 -0.2239773 0.017093092
-0.2181784 0.15535945 -0.26423022 0.10117843 0.18379477 0.43305975 0.51645505 0.06342922
0.2957051 -0.21408495 -0.15461367 0.1518526 0.08750642 0.034063216 -0.1025145 0.4357359
-0.093044475 0.061596647 0.4772887 0.11636049 -0.012150624 0.5286511 0.22837242 -0.014736456
-0.13910794 0.015616512 0.4439466 -0.20747851 0.03992648 0.2281704 -0.21056914 -0.21099803
-0.1602519 -0.270147 -0.007384472 0.076050915 -0.37694478 0.06250068 0.04523962 -0.24305178
0.052446283 -0.04967302 -0.28968564 0.34011728 0.050530523 -0.28964052 0.11666961 0.017298412
-0.052010622 0.14324959 0.7258454 0.07248321 0.38528734 0.08233728 0.02568553 0.38238993
-0.5371866 0.022244027 0.0026803724 -0.2720109 -0.04993951 -0.029165033 -0.22289842 0.12080217
0.08820075 -0.30720678 -0.04083473 0.10969408 -0.14503792 0.4208615 0.056518447 -0.029374843
0.106222585 0.0037205666 0.3123329 0.0022664736 -0.37904787 -0.029569255 0.25223368 0.12230315
0.16661099 -0.23651698 0.32292172 -0.10605825 0.2539414 0.0692272 -0.2958734 -0.14025457
0.7287352 0.3629403 0.17226572 -0.0052712024 0.04312232 -0.016654504 0.4361052 0.33410606
-0.25104007 -0.2269682 -0.30249152 0.08974519 -0.20862634 0.122225 -0.26029667 -0.025731966
0.2714895 -0.083441146 0.09200222 0.34528774 0.41651654 0.19936275 -0.016075423 -0.781603
0.74164355 0.435915 0.1884247 0.23425382 -0.013914552 -0.016364599 -0.33970597 0.01378173
-0.36491472 0.22221397 0.2645648 -0.14845783 0.002941413 0.09466316 -0.14573416 -0.17089747
0.022893518 -0.03323773 -0.24417034 -0.11001692 0.12121348 -0.031019263 0.43398115 -0.2663099
-0.102045245 -0.16495642 0.09188459 0.08806968 0.28829148 0.1519957 0.17212236 0.37851158
00000000: 921d 363f aab4 a4be 5441 683d c5a9 43bd
00000010: e80f 783d b6a5 a8bd 751a b33d 051a 42be
00000020: b735 d93e e2b9 2bbe c564 b1bd 1348 6bbf
00000030: 2857 e83e 8890 b93e c42e 883e 861d cfbc
00000040: 7d3a 083e 70e9 093f c62b 1fbe f736 04bf
00000050: 1f54 883e dc20 823e bf4a 4cbd 6e7e a93e
00000060: dfaf 963e 0804 af3e a0c5 233e 44e4 0cbe
00000070: e3ea 87be 1195 383f c94b 56be ac7c 23bf
00000080: 99c3 4bbf 8d71 edbd e881 a23e f276 98be
00000090: e224 893e 76d4 00bf ec4a 29bd ca1a d13e
000000a0: a11a 2ebe 1bb2 113f 0def 823e 9966 69be
000000b0: b435 8a3d 69b1 6b3e d619 61be ad75 aebd
000000c0: fc64 84be 0f05 aa3e 9e2c c9bd 9345 6c3e
000000d0: a8eb b9bd fac4 093e 7f8f 973d 6c26 07bf
000000e0: ce8c 083e 1012 eabd cd12 45be 9b2e b1bd
000000f0: 2e59 e73e 1450 a2be 2741 0d3d 2385 4c3d
00000100: a4a9 0dbe 21f3 bebe b4f7 0a3e 16ba bbbd
00000110: 7030 2dbe b676 ff3e dd6f d93d 0841 a1bd
00000120: 6322 b1bd a385 2abd 3c7e 2e3e 495a 1ebf
00000130: 51e5 39be b000 dbbe cdb3 b9be 2f74 b5be
00000140: 8e35 45be 0a48 51be 5850 42bf 7505 4d3e
00000150: b282 ca3d 0743 2ebe 9a1f d63c 6411 e23e
00000160: 57ac 243e ee7c 923e b80e e53e dca3 83be
00000170: a4a0 ddbd 7e26 f2bd e55c 973e 5c43 803d
00000180: 8bb6 5a3e ce1e 1a3e 3d0e 48bd 98d9 1abd
00000190: cdf0 823d 3e40 c2be cdb7 863e 4da4 cd3c
000001a0: 3f98 d73e 369f 053e 9f00 16bf 714c 88be
000001b0: 2172 c8bb bfdc abbd 4e5a 65be d006 8c3c
000001c0: 296a 5fbe 8c16 1f3e 2f49 87be a336 cf3d
000001d0: b234 3c3e 02ba dd3e 6636 043f 2ee7 813d
000001e0: a966 973e 1639 5bbe 0c53 1ebe 3f7f 1b3e
000001f0: 9136 b33d df85 0b3d 1ff3 d1bd c718 df3e
00000200: 1a8e bebd c44c 7c3d 2f5f f43e 694e ee3d
00000210: 6913 47bc ae55 073f 76da 693e 2d71 71bc
00000220: 5072 0ebe 66dc 7f3c f84c e33e 3f75 54be
00000230: f389 233d 80a5 693e 709f 57be de0f 58be
00000240: 1319 24be b550 8abe 71f9 f1bb 95c0 9b3d
00000250: e8fe c0be 5b00 803d 2e4d 393d 91e2 78be
00000260: ead1 563d f075 4bbd ad51 94be da23 ae3e
00000270: 18f9 4e3d c34b 94be 7af0 ee3d 66b5 8d3c
00000280: 1709 55bd 05b0 123e 01d1 393f 1472 943d
00000290: 6244 c53e 73a0 a83d 766a d23c 9dc8 c33e
000002a0: 1085 09bf 1b39 b63c 30a9 2f3b 0345 8bbe
000002b0: 5f8d 4cbd 82eb eebc 7c3f 64be 2167 f73d
000002c0: 98a2 b43d 354a 9dbe 5142 27bd 4aa7 e03d
000002d0: d284 14be 297b d73e e37f 673d 83a3 f0bc
000002e0: 3a8b d93d c0d4 733b 19ea 9f3e 1e89 143b
000002f0: 9012 c2be 393b f2bc c624 813e 137a fa3d
00000300: 129c 2a3e 8231 72be ff55 a53e 1135 d9bd
00000310: 9b04 823e fdc6 8d3d b87c 97be e59e 0fbe
00000320: 648e 3a3f 50d3 b93e 6d66 303e 0dba acbb
00000330: 08a1 303d 076f 88bc 2e49 df3e f30f ab3e
00000340: 5388 80be 5a6a 68be 2be0 9abe 54cc b73d
00000350: 25a2 55be 1a51 fa3d 9b45 85be d8cb d2bc
00000360: ac00 8b3e 31e3 aabd a96b bc3d 8ec9 b03e
00000370: a841 d53e c025 4c3e 9bb0 83bc 2217 48bf
00000380: 5adc 3d3f 4030 df3e 68f2 403e 3ce0 6f3e
00000390: dcf9 63bc 0d0f 86bc f1ed adbe c4cc 613c
000003a0: 1ad6 babe 0f8c 633e 0a75 873e 5405 18be
000003b0: b9c4 403b c2de c13d 563b 15be bfff 2ebe
000003c0: 308b bb3c 4924 08bd ca07 7abe 8d50 e1bd
000003d0: c63e f83d 1c1c febc c732 de3e c559 88be
000003e0: 19fd d0bd 56ea 28be fd2d bc3d e05d b43d
000003f0: f19a 933e c3a4 1b3e d840 303e 45cc c13e

fc2.bias f4 [256]
-0.17328782 0.088687636 0.0026880342 0.12017591 -0.028526532 -0.15436213 0.15638804 0.08476721
0.23031335 -0.01935829 0.22006066 0.1857468 0.28674448 -0.07993434 0.15667233 -0.0188952
0.014165373 -0.004705524 0.006467849 0.04815254 0.15462849 0.15369138 -0.07096376 -0.068992645
0.04536889 0.009118849 0.04685678 0.011494379 -0.007099187 -0.03132738 -0.06980057 -0.012289934
-0.08660102 0.03138367 -0.028163468 -0.0045101293 0.06932532 0.113773644 0.044182263 -0.04699739
0.03789592 0.055420205 -0.056088094 0.02301358 -0.01949835 0.006684734 0.00618096 0.10809293
0.09417429 -0.25548562 -0.016877992 -0.03721373 0.03277966 0.012129644 -0.17510486 -0.09727684
-0.02422554 0.10263591 0.010957027 0.023955407 0.0503104 0.03762496 0.12224064 -0.009777629
-0.07199363 -0.04220009 -0.09609217 0.17006727 0.122489356 -0.07788845 -0.27674657 0.08812823
-0.023019455 0.16650426 0.047063127 0.06201765 0.03928511 0.23359405 -0.09753268 -0.04674396
-0.039149344 -0.2932497 -0.05737834 -0.011718787 0.04010189 -0.005303582 0.23634556 0.014842959
0.11249707 -0.020885134 -0.054460652 -0.008847497 0.089951195 -0.2416054 0.10425249 0.2600862
-0.13579716 -0.26897404 0.032339323 0.004680255 -0.06458385 -0.022786772 0.0070950217 -0.005734782
0.002394731 -0.0778294 0.076031044 0.027871292 0.11963748 0.15746352 -0.032084838 0.07198335
-0.045400903 -0.14515786 -0.023712816 -0.06309176 0.005376822 0.15131412 0.3470881 -0.17872958
-0.009744655 -0.29427922 0.024978232 -0.009436047 -0.039262645 -0.07513041 0.009626604 0.21590586
-0.057859503 0.057838254 -0.041305237 -0.07925272 0.07206741 0.03721265 0.121408366 -0.009237926
-0.069120005 -0.0038990204 -0.064487495 0.008919102 0.07501674 0.2860552 0.00026046947 -0.07359632
0.010443947 0.11546324 0.045779377 0.20726636 -0.23846929 0.019211048 -0.037249386 -0.17079353
-0.06770149 -0.0023959966 -0.13707238 -0.06482443 0.13343205 0.030515948 -0.080456525 -0.07372042
-0.02770004 -0.014500447 0.09017105 0.10364979 -0.0803905 -0.07391312 -0.06605173 -0.08560791
-0.23406285 0.03224932 0.11913853 -0.02520592 -0.07521942 -0.060162332 -0.12081979 0.032635592
-0.014854524 -0.08029419 -0.035060804 -0.20822465 0.11733683 -0.06600552 0.053246986 0.15035495
0.18987812 -0.055498824 -0.027500505 -0.066378474 0.043837156 -0.057110064 -0.0023333752 -0.031095274
0.103840165 0.1842606 0.122406416 0.14566067 0.20913069 -0.033294808 0.08310838 -0.034774546
0.16985941 0.005630673 -0.03462741 -0.06547329 -0.23797044 0.061031017 -0.0027664462 -0.07333076
0.17142108 -0.0029097677 0.03095329 -0.100547366 0.15305825 -0.1225458 0.1868084 -0.045104627
0.08950571 -0.05222608 -0.012507321 -0.032655966 -0.030044347 0.07609309 0.015105625 -0.003940031
-0.24921511 -0.045598093 0.20168601 -0.0220099 -0.08175534 -0.0484402 -0.07331765 -0.073736764
0.047261816 -0.05855491 0.043575075 -0.05570856 -0.06889068 0.0076005273 -0.21362981 0.037768908
-0.026677934 0.081136756 -0.008282671 0.24110681 -0.032763377 0.15394531 -0.046312727 -0.071508415
0.06670819 0.07597748 -0.05135875 0.14108282 0.026795737 -0.020155774 -0.03883403 -0.08381569
00000000: 5d72 31be dda1 b53d bb29 303b ca1e f63d
00000010: 79b0 e9bc 1b11 1ebe 3024 203e 6e9a ad3d
00000020: 43d7 6b3e 4795 9ebc 9557 613e 6934 3e3e
00000030: 2cd0 923e 9eb4 a3bd b66e 203e 1bca 9abc
00000040: e115 683c cc30 9abb 40f0 d33b 993b 453d
00000050: ee56 1e3e 4661 1d3e 7355 91bd 044c 8dbd
00000060: bbd4 393d 3a67 153c e5ec 3f3d eb52 3c3c
00000070: 4ca0 e8bb 2451 00bd 9af3 8ebd b85b 49bc
00000080: e05b b1bd 2a8c 003d 13b7 e6bc b5c9 93bb
00000090: 6ffa 8d3d 2802 e93d 76f8 343d 5680 40bd
000000a0: c138 1b3d 4c00 633d a1bc 65bd fa86 bc3c
000000b0: 01bb 9fbc 9d0b db3b a789 ca3b d35f dd3d
000000c0: 73de c03d 03cf 82be b743 8abc 6d6d 18bd
000000d0: f743 063d 6abb 463c b04e 33be 1439 c7bd
000000e0: a474 c6bc c732 d23d 1a85 333c 213e c43c
000000f0: 4712 4e3d a11c 1a3d 4d59 fa3d 5932 20bc
00000100: 6571 93bd 00da 2cbd f9cb c4bd 1d26 2e3e
00000110: b3db fa3d fb83 9fbd bab1 8dbe 937c b43d
00000120: 4c93 bcbc 1880 2a3e 44c5 403d 3806 7e3d
00000130: 6ce9 203d 4733 6f3e 37bf c7bd 9876 3fbd
00000140: 105b 20bd d324 96be 8d05 6bbd 2800 40bc
00000150: e141 243d acc9 adbb 9204 723e e22f 733c
00000160: dd64 e63d 4d17 abbc 2212 5fbd 18f5 10bc
00000170: 5538 b83d 6867 77be 5482 d53d 052a 853e
00000180: 690e 0bbe f7b6 89be 3d76 043d d35c 993b
00000190: 8a44 84bd 53ab babc 5b7d e83b d7ea bbbb
000001a0: ebf0 1c3b 0565 9fbd 2ab6 9b3d 5652 e43c
000001b0: 7f04 f53d 1e3e 213e 646b 03bd 026c 933d
000001c0: 4cf6 39bd 43a4 14be 6141 c2bc 4136 81bd
000001d0: 0d30 b03b 17f2 1a3e 88b5 b13e e304 37be
000001e0: 0ca8 1fbc c4ab 96be 269f cc3c a699 1abc
000001f0: ded1 20bd f9dd 99bd e7b8 1d3c 6d16 5d3e
00000200: 16fe 6cbd cee7 6c3d ae2f 29bd 404f a2bd
00000210: 1498 933d 4b6c 183d f3a4 f83d ac5a 17bc
00000220: ca8e 8dbd b586 7fbb 0512 84bd 6d21 123c
00000230: 60a2 993d d475 923e 9f8f 8839 abb9 96bd
00000240: 171d 2b3c fe77 ec3d 2883 3b3d a23d 543e
00000250: 4b31 74be 7d60 9d3c d092 18bd 80e4 2ebe
00000260: 14a7 8abd 2706 1dbb b45c 0cbe acc2 84bd
00000270: 69a2 083e 95fc f93c 64c6 a4bd bbfa 96bd
00000280: 32eb e2bc 4893 6dbc 99ab b83d 5746 d43d
00000290: c6a3 a4bd c35f 97bd 2146 87bd 3353 afbd
000002a0: 2cae 6fbe dd17 043d e7fe f33d a57c cebc
000002b0: a40c 9abd c76c 76bd 5e70 f7bd e6ac 053d
000002c0: 6460 73bc 4871 a4bd eb9b 0fbd d838 55be
000002d0: 4b4e f03d e72d 87bd 8319 5a3d a6f6 193e
000002e0: 696f 423e bc52 63bd bd48 e1bc 70f1 87bd
000002f0: 978e 333d 3eec 69bd 8aeb 18bb 84bb febc
00000300: 27aa d43d d0ae 3c3e 37b0 fa3d 1228 153e
00000310: 5b26 563e 2360 08bd ba34 aa3d c16f 0ebd
00000320: a0ef 2d3e 8281 b83b 79d5 0dbd dc16 86bd
00000330: 86ae 73be a9fb 793d 444d 35bb 702e 96bd
00000340: 0289 2f3e cdb1 3ebb c191 fd3c c7eb cdbd
00000350: 4dbb 1c3e 4bf9 fabd b44a 3f3e a1bf 38bd
00000360: c54e b73d 04eb 55bd 82eb 4cbc 43c2 05bd
00000370: 901f f6bc b2d6 9b3d 957d 773c 601b 81bb
00000380: 3f32 7fbe 11c5 3abd c786 4e3e 1b4e b4bc
00000390: 586f a7bd 3b69 46bd 9027 96bd 4d03 97bd
000003a0: 9b95 413d 46d7 6fbd c77b 323d a92e 64bd
000003b0: 8f16 8dbd d80d f93b c6c1 5abe 92b3 1a3d
000003c0: af8b dabc 072b a63d 0ab4 07bc b4e4 763e
000003d0: e432 06bd d7a3 1d3e 6ab2 3dbd 0173 92bd
000003e0: 4e9e 883d 159a 9b3d 8d5d 52bd 0478 103e
000003f0: bc82 db3c b91d a5bc 6f10 1fbd 8fa7 abbd

fc3.weight f4 [128, 256]
-0.030162537 -0.001741876 0.006954924 0.023080293 -0.015731774 0.045342024 -0.041682277 0.052494247
0.038662206 0.030099593 -0.028637536 -0.031121174 0.04917389 -0.05537662 -0.025034444 0.039739788
-0.01725848 0.0025667027 -0.054606713 -0.04601188 -0.022233373 0.009832596 0.01388815 0.022240048
0.013182111 -0.01810711 -0.061265476 0.051473167 -0.025787914 0.058920823 0.018789738 -0.036631845
0.009271055 0.046587013 0.061547898 0.052616306 -0.015830025 0.04655396 -0.059735253 0.013173826
0.032935403 0.028404988 -0.044239834 0.05446895 -0.055219002 -0.005657062 0.029258221 -0.045967646
0.016807431 0.060132727 -0.035469886 0.019014305 -0.008848414 -0.058251422 -0.025836945 0.022935435
0.04915771 0.04860046 -0.0041495697 0.034769733 0.021476924 -0.06172555 -0.0050354674 0.024121178
-0.05485432 -0.060286745 -0.023904651 0.012802787 -0.04310748 -0.01784654 0.04469703 -0.03761296
0.01154051 -0.02030229 -0.017882548 0.04778504 0.03739506 -0.04329107 0.000118508935 -0.051658146
-0.0076398333 -0.016875222 -0.01636798 -0.035087973 -0.052992895 -0.052279264 -0.061057527 -0.016104408
0.03784905 -0.045876652 -0.03145706 0.030522682 -0.048449315 -0.013593227 -0.063049085 0.00648163
-0.050261155 -0.038895294 0.031486273 -0.049460948 -0.041118108 -0.014724225 0.02976716 0.0068688765
0.06194842 0.030546108 0.023486331 0.050582364 0.014506212 0.0350657 0.038946725 -0.033277344
0.035717245 0.03745202 -0.0099039 -0.035928577 -0.016078876 0.014746202 -0.038529158 -0.0020253733
-0.039523445 0.057172477 0.044594202 -0.017167717 0.050758727 -0.056720875 -0.045188375 0.035644308
0.042049225 0.04199604 0.037824355 -0.011804417 -0.03691719 -0.06655649 -0.04215927 -0.05423098
0.0051420704 -0.05612246 -0.0013049766 -0.045726754 -0.023987187 -0.0624141 0.041089162 0.002744034
-0.026788995 0.018108517 0.034965456 -0.06189188 -0.03633511 -0.047599647 0.036152273 -0.049258344
-0.0043067336 0.030138316 -0.033331953 0.038746774 -0.012855874 0.04779376 0.023489483 0.027043
-0.037927747 -0.018270986 0.0048040044 -0.059695978 0.025224885 0.047113672 0.034125082 0.019097652
-0.008474164 -0.03313218 -0.06146782 -0.020589724 -0.01586923 0.02203218 0.026731916 -0.05622799
0.04829555 0.016783535 -0.014039329 0.034183316 -0.012978546 0.046633035 -0.0014519265 -0.035381112
-0.05842679 -0.03602427 -0.017706966 -0.041665718 0.045010548 0.048303694 -0.048474003 0.017677404
-0.05412932 -0.07030048 0.05421891 -0.02588033 -0.06794217 -0.043772325 -0.051235307 -0.015394017
-0.0370124 0.028213702 -0.007302858 -0.049812768 -0.009884886 0.005140793 -0.05812105 0.044227425
0.017184194 -0.028119676 0.0051490366 -0.029137205 -0.007883884 0.06199187 0.023691641 0.035967052
-0.02116143 -0.016548026 -0.052310586 0.0044682845 0.035028357 0.020528667 -0.031335205 0.007463731
0.042620733 0.0017772093 0.056603678 0.046175785 0.031363025 0.035036065 0.04410898 0.013022302
0.03704483 0.0033527836 -0.03583637 0.06190663 0.04251282 -0.004643768 -0.004166091 0.055683568
-0.019078001 -0.037300207 -0.044770606 0.0017045765 -0.04897866 0.0012059882 0.031774417 -0.013057269
0.037343666 -0.06634986 -0.056872398 -0.048640955 -0.038509417 -0.047027007 0.055932395 -0.024435699
00000000: 6d17 f7bc a94f e4ba 22e6 e33b e212 bd3c
00000010: ecdf 80bc 8fb8 393d 09bb 2abd 3504 573d
00000020: 435c 1e3d 6c93 f63c 4499 eabc d5f1 febc
00000030: 906a 493d 98d2 62bd 0915 cdbc 30c6 223d
00000040: a861 8dbc 2036 283b 4aab 5fbd f476 3cbd
00000050: c322 b6bc e618 213c 208b 633c c330 b63c
00000060: c8f9 573c 5d55 94bc 82f1 7abd 87d5 523d
00000070: 2d41 d3bc f656 713d f0ec 993c 460b 16bd
00000080: a0e5 173c 06d2 3e3d a619 7c3d 3284 573d
00000090: f8ad 81bc 5daf 3e3d f4ac 74bd 08d7 573c
000000a0: 46e7 063d 94b1 e83c d434 35bd d51a 5f3d
000000b0: 522d 62bd e05e b9bb f0ae ef3c 9248 3cbd
000000c0: bdaf 893c bc4d 763d df48 11bd e3c3 9b3c
000000d0: f0f8 10bc 0b99 6ebd 00a8 d3bc 18e3 bb3c
000000e0: 9859 493d 4711 473d 1df9 87bb b56a 0e3d
000000f0: 60f0 af3c eed3 7cbd 9000 a5bb c799 c53c
00000100: ecae 60bd 3cef 76bd b0d3 c3bc c8c2 513c
00000110: 7891 30bd e832 92bc 3c14 373d 0c10 1abd
00000120: 6814 3d3c fd50 a6bc 6c7e 92bc 3fba 433d
00000130: 902b 193d fa51 31bd 0088 f838 7e97 53bd
00000140: 9157 fabb e83d 8abc 2416 86bc 68b8 0fbd
00000150: 140f 59bd c822 56bd 7517 7abd 64ed 83bc
00000160: 9b07 1b3d 28e9 3bbd 1ed9 00bd b40a fa3c
00000170: ca72 46bd 20b6 5ebc e11f 81bd da63 d43b
00000180: a4de 4dbd ac50 1fbd c0f7 003d 9097 4abd
00000190: 766b 28bd e03d 71bc 42da f33c 5014 e13b
000001a0: a0bd 7d3d d53b fa3c 6866 c03c 742f 4f3d
000001b0: 77ab 6d3c 0da1 0f3d 9a86 1f3d d34d 08bd
000001c0: 3f4c 123d 4a67 193d f843 22bc d829 13bd
000001d0: d9b7 83bc 0e9a 713c c0d0 1dbd 20bc 04bb
000001e0: 56e3 21bd b02d 6a3d 69a8 363d 50a3 8cbc
000001f0: 62e8 4f3d 2654 68bd 7217 39bd c4ff 113d
00000200: cf3b 2c3d 0a04 2c3d b6ed 1a3d 5067 41bc
00000210: 7b36 17bd c54e 88bd 33af 2cbd 4e21 5ebd
00000220: d07e a83b aae0 65bd c00b abba fa4b 3bbd
00000230: c780 c4bc eda5 7fbd 1c4d 283d 40d5 333b
00000240: 9874 dbbc 5058 943c f037 0f3d 5782 7dbd
00000250: 20d4 14bd d9f7 42bd 6814 143d 1ec3 49bd
00000260: 801f 8dbb a1e4 f63c 1687 08bd f0b4 1e3d
00000270: 72a1 52bc 64c3 433d 046d c03c 4889 dd3c
00000280: 205a 1bbd 09ad 95bc e96a 9d3b c583 74bd
00000290: 6ba4 ce3c 44fa 403d bec6 0b3d ae72 9c3c
000002a0: 38d7 0abc 9cb5 07bd aec5 7bbd c8ab a8bc
000002b0: 3000 82bc d57c b43c e4fc da3c 524f 66bd
000002c0: 8ed1 453d a07d 893c 3705 66bc ce03 0c3d
000002d0: f8a3 54bc 4802 3f3d 924e beba c9eb 10bd
000002e0: ee50 6fbd 2f8e 13bd 330e 91bc aca9 2abd
000002f0: fb5c 383d 18da 453d ad8c 46bd 34d0 903c
00000300: b5b6 5dbd b3f9 8fbd a614 5e3d fc02 d4bc
00000310: 4425 8bbd 9c4a 33bd 1ddc 51bd 3037 7cbc
00000320: 509a 17bd 6c20 e73c d04c efbb 7908 4cbd
00000330: 38f4 21bc 1974 a83b 5710 6ebd d127 353d
00000340: dec5 8c3c 3c5b e6bc 40b9 a83b 26b1 eebc
00000350: 682b 01bc 30eb 7d3d f914 c23c 3052 133d
00000360: bc5a adbc ba8f 87bc a043 56bd b06a 923b
00000370: e579 0f3d bc2b a83c 5859 00bd 5092 f43b
00000380: 1493 2e3d 40f1 e83a 42d9 673d d222 3d3d
00000390: 8476 003d fa81 0f3d 9eab 343d 7e5b 553c
000003a0: 52bc 173d 60ba 5b3b 28c9 12bd ce91 7d3d
000003b0: ec21 2e3d c02a 98bb b483 88bb 7414 643d
000003c0: 7849 9cbc 1ac8 18bd 6261 37bd 196c df3a
000003d0: d99d 48bd 4012 9e3a e425 023d 28ee 55bc
000003e0: acf5 183d 6fe2 87bd 08f3 68bd bd3b 47bd
000003f0: 0dbc 1dbd 649f 40bd 5e19 653d 602d c8bc

fc3.bias f4 [128]
-0.05512611 0.031689454 0.02247597 0.12230827 0.23547913 -0.04384447 0.28798968 0.19357014
-0.06367138 0.08304462 0.023871575 0.044943903 0.28856325 0.03529571 -0.0067438344 0.049074713
0.20747884 0.27224496 -0.061712064 0.042480104 0.1354594 0.10179914 -0.031286307 0.0077431574
0.13829374 -0.03610578 0.028839566 -0.18648893 0.0002577998 0.27080986 0.011888096 -0.03408938
0.0023179934 0.29953623 -0.025102936 -0.054340452 0.2647477 0.08182313 0.30041528 -0.0071465964
0.022925764 0.021251809 -0.052034587 0.013185612 -0.017443134 0.023589121 0.05322937 -0.09819795
0.011002081 0.09855791 -0.050068054 0.21333891 -0.017886896 -0.03494824 -0.0645964 0.078803554
-0.033428192 -0.037549257 -0.0021585864 -0.06020397 0.040076658 -0.0306354 -0.028060576 0.045551796
-0.07171936 -0.08915864 0.1389117 0.027083216 0.2635742 0.35734457 0.06297228 0.058637418
0.2977813 -0.057484552 0.0056434786 -0.05843762 0.09634015 0.30593672 0.2461764 0.02808715
-0.076311216 0.11647527 0.01697356 0.04808868 -0.019273708 0.33210158 0.034700666 0.23040873
-0.016035533 -0.007302781 0.037897035 0.33796614 0.0730345 0.30808827 -0.05628693 0.03914495
-0.045250516 -0.024836356 -0.020499237 0.05011477 -0.23134151 0.020969216 0.25048426 -0.02809059
0.032613706 -0.06010637 0.0717652 -0.04988826 -0.017226744 0.072689906 -0.026136825 -0.0584239
0.066731125 0.047065645 0.027878797 -0.21531358 0.031973988 0.27557978 0.18935943 -0.04370382
-0.14286469 -0.053235013 0.30484372 -0.0052669635 0.25577825 0.2662397 0.07808082 0.32395697
00000000: eacb 61bd cdcc 013d 871f b83c c27c fa3d
00000010: 7121 713e 4296 33bd 6273 933e 4037 463e
00000020: 2466 82bd 4c13 aa3d 528e c33c 1917 383d
00000030: 90be 933e 3c92 103d 62fb dcbb 9102 493d
00000040: 5575 543e b163 8b3e cac5 7cbd 9eff 2d3d
00000050: deb5 0a3e 117c d03d 1226 00bd 50ba fd3b
00000060: e09c 0d3e a8e3 13bd f440 ec3c f4f6 3ebe
00000070: 4e29 8739 97a7 8a3e 4ac6 423c 4ea1 0bbd
00000080: 7ae9 173b d05c 993e aca4 cdbc 1894 5ebd
00000090: 038d 873e e392 a73d 08d0 993e ff2d eabb
000000a0: d0ce bb3c 4618 ae3c 3822 55bd 7708 583c
000000b0: e7e4 8ebc f93d c13c 0a07 5a3d 021c c9bd
000000c0: 1342 343c bbd8 c93d 2914 4dbd 8475 5a3e
000000d0: 8a87 92bc e325 0fbd 1e4b 84bd c263 a13d
000000e0: 00ec 08bd 40cd 19bd 1277 0dbb 7098 76bd
000000f0: 6c27 243d 17f7 fabc 4bdf e5bc 8594 3a3d
00000100: 9ae1 92bd ce98 b6bd de3e 0e3e 9fdd dd3c
00000110: 33f3 863e def5 b63e 9cf7 803d ca2d 703d
00000120: ca76 983e ec74 6bbd eeec b83b 495c 6fbd
00000130: fc4d c53d bda3 9c3e ab15 7c3e 0617 e63c
00000140: 0e49 9cbd 968a ee3d 230c 8b3c a3f8 443d
00000150: e5e3 9dbc 3809 aa3e 4922 0e3d 44f0 6b3e
00000160: f35c 83bc 2b4c efbb ec39 1b3d e609 ad3e
00000170: 1d93 953d bfbd 9d3e 208d 66bd 7556 203d
00000180: 9b58 39bd 9d75 cbbc 04ee a7bc 2545 4d3d
00000190: cae4 6cbe a2c7 ab3c 793f 803e 3d1e e6bc
000001a0: f395 053d 1932 76bd a2f9 923d a257 4cbd
000001b0: 1a1f 8dbc 72de 943d e51c d6bc e64d 6fbd
000001c0: 54aa 883d e8c7 403d 1362 e43c 2a7b 5cbe
000001d0: 28f7 023d cb18 8d3e 70e7 413e c702 33bd
000001e0: 1f4b 12be f50c 5abd 7a14 9c3e 7e96 acbb
000001f0: 5ef5 823e 9250 883e d6e8 9f3d b0dd a53e

fc4.weight f4 [7, 128]
0.077019736 -1.2287841 0.0068572145 -1.6617998 -1.3619893 -1.0238448 0.52306795 0.88468134
-0.052965492 -1.0713996 -0.058104057 -0.46747828 0.61976796 -1.0003557 0.010239243 -0.9820455
0.5080245 0.5167264 -0.048248667 0.061494313 -0.7489887 -0.9074459 -0.30372012 -0.0005057007
0.40389937 0.009785649 -0.02447792 0.15053257 0.02800409 -0.82140726 -0.8660238 -0.02189935
-0.008374833 0.5761824 0.07160579 -0.07556519 0.48091543 -0.9945259 0.53859615 -0.0068725985
0.06607058 -0.0013263774 -0.08151524 0.049794003 -0.6772362 -0.06043747 -0.055149864 -0.13856743
-0.87469023 -1.2798789 0.08920404 -0.9370066 -0.816821 0.0022467794 0.03659795 -0.96097624
0.15664724 -0.79567015 -0.8536188 0.009020486 -0.049035817 -0.06340196 -0.065355144 -0.8877287
-0.017647918 -0.021533571 0.737289 -0.7989748 0.5231952 -0.8324937 -1.1387961 -0.85265803
0.5329079 0.08437731 -0.034824762 -0.87678814 -0.67256564 0.5158431 0.75708187 -1.0719085
0.070444934 -0.9946014 -0.62204796 -0.9202838 -0.007525754 0.56348705 0.022475127 0.5054955
0.014906529 -0.010979623 -0.93855023 0.5539358 -0.8220205 0.67073214 -0.08153707 -0.8321242
-0.9894322 0.039601285 -0.0006588927 -0.93475837 0.2540709 -0.75034535 0.4963609 0.014265772
-0.7961535 -0.0045237765 -0.92066735 0.002340203 0.033303116 -1.1566167 0.058823533 0.0032685846
-1.0067625 -0.79192746 0.026566712 -0.006734418 0.07078781 -0.8765946 0.510347 0.05834419
-0.85043985 -0.050215896 0.5077346 -0.00952908 0.4891028 0.5266978 -0.8033262 -0.6065869
-0.08976891 -1.0773935 0.08776776 -1.7612892 -1.2471502 -0.89051145 0.38705438 0.8332072
-0.03601011 -1.0181953 -0.055289652 -0.64711684 0.8039564 -1.1013159 0.020476272 -1.0054278
0.5898138 0.4540404 -0.057627533 0.013559281 -0.97152686 -1.0040301 -0.59687126 -0.033958673
0.24547397 0.06865633 0.039900694 0.16381787 0.07640892 -0.6237246 -0.9350659 0.06143542
0.07648504 0.5554602 -0.046057142 -0.023573657 0.55863833 -0.96868557 0.5233587 0.027113259
0.07336739 0.0044850335 0.020952549 0.015257137 -0.7850016 -0.07036994 0.054773062 -0.29267216
-0.92168146 -1.5455062 0.04944766 -1.1600368 -0.81651425 -0.02133093 0.074254684 -0.87164193
0.23032731 -0.77288765 -0.7712904 0.08549187 0.06312386 0.08221071 0.050793774 -0.90679026
0.18587828 -0.02574246 0.7983244 -0.8414862 0.5390984 -0.83425677 -1.0509022 -0.87231565
0.50874144 0.06592729 -0.0053538587 -0.74535346 -0.55346084 0.52083933 0.6369448 -1.0129979
-0.083492026 -1.039487 -0.5679971 -0.8329648 0.073217444 0.4713498 -0.02704665 0.52715033
0.06301031 -0.026875954 -0.96711516 0.51401865 -0.725981 0.73066354 0.0036532022 -0.74914664
-1.0236762 0.05842635 -0.10482264 -0.91279644 0.20398167 -0.80090463 0.49671778 -0.03540929
-0.71496624 -0.010073135 -0.9096008 -0.0017545519 -0.0273904 -1.034071 0.08384398 0.02019032
-1.0820642 -0.67722845 0.05108615 0.20280127 0.070463724 -1.0568675 0.7131531 -0.0037799159
-0.8318491 0.0724469 0.4941097 0.054475058 0.58743584 0.50740147 -0.7997449 -0.5026718
00000000: 86bc 9d3d cc48 9dbf 7cb2 e03b dbb5 d4bf
00000010: aa55 aebf 590d 83bf c8e7 053f 7a7a 623f
00000020: 58f2 58bd 9f23 89bf 85fe 6dbd 5059 efbe
00000030: 1da9 1e3f a80b 80bf 7fc2 273c 5567 7bbf
00000040: e50d 023f 2e48 043f 65a0 45bd 76e1 7b3d
00000050: b9bd 3fbf 604e 68bf 3481 9bbe 0091 04ba
00000060: e6cb ce3e fd53 203c eb85 c8bc 3625 1a3e
00000070: d568 e53c bf47 52bf bcb3 5dbf 4466 b3bc
00000080: 9836 09bc b180 133f 0ea6 923d ecc1 9abd
00000090: 8c3a f63e 4099 7ebf 70e1 093f 8933 e1bb
000000a0: 0350 873d d7d9 adba 76f1 a6bd ccf4 4b3d
000000b0: 5a5f 2dbf 488d 77bd d3e4 61bd 9fe4 0dbe
000000c0: b3eb 5fbf 12d3 a3bf 9cb0 b63d aadf 6fbf
000000d0: 2e1b 51bf b43e 133b bbe7 153d 8a02 76bf
000000e0: 2268 203e 0ab1 4bbf c386 5abf a9ca 133c
000000f0: c8d9 48bd e3d8 81bd ebd8 85bd 3042 63bf
00000100: 5e92 90bc 2c67 b0bc f9be 3c3f 9d89 4cbf
00000110: 1ff0 053f 4f1e 55bf 12c4 91bf cc47 5abf
00000120: a76c 083f 03ce ac3d 69a4 0ebd 3075 60bf
00000130: 432d 2cbf 4b0e 043f 1ed0 413f 4c34 89bf
00000140: 6f45 903d 339e 7ebf 893e 1fbf b897 6bbf
00000150: 9a9a f6bb b040 103f c21d b83c 2768 013f
00000160: 843a 743c e0e3 33bc d444 70bf bdce 0d3f
00000170: ef6f 52bf 1ab5 2b3f e8fc a6bd 1706 55bf
00000180: 6e4b 7dbf f534 223d 8ab9 2cba 534c 6fbf
00000190: 9515 823e a216 40bf 0423 fe3e fcba 693c
000001a0: b7d0 4bbf 303c 94bb dbb0 6bbf 175e 193b
000001b0: d968 083d 040c 94bf f2f0 703d c035 563b
000001c0: 98dd 80bf c2bb 4abf 6fa2 d93c 65ac dcbb
000001d0: 33f9 903d 8168 60bf 1aa6 023f 51fa 6e3d
000001e0: 6db6 59bf 2faf 4dbd e5fa 013f dc1f 1cbc
000001f0: af6b fa3e abd5 063f c9a6 4dbf 4749 1bbf
00000200: c3d8 b7bd 08e8 89bf 95bf b33d ed71 e1bf
00000210: 9ea2 9fbf 8ff8 63bf fe2b c63e 114d 553f
00000220: 567f 13bd 3954 82bf 6777 62bd 73a9 25bf
00000230: 16d0 4d3f ebf7 8cbf dbbd a73c dcb1 80bf
00000240: 0afe 163f fc77 e83e d90a 6cbd bf27 5e3c
00000250: fcb5 78bf 0f84 80bf 8ecc 18bf 4018 0bbd
00000260: 875d 7b3e b19b 8c3d e96e 233d dfbf 273e
00000270: 487c 9c3d 6aac 1fbf 7b60 6fbf b5a3 7b3d
00000280: 30a4 9c3d a432 0e3f 6aa6 3cbd 8b1d c1bc
00000290: ec02 0f3f c7fb 77bf d6fa 053f a01c de3c
000002a0: a441 963d 30f7 923b aea4 ab3c 12f9 793c
000002b0: ddf5 48bf 1d1e 90bd b859 603d 20d9 95be
000002c0: 51f3 6bbf 26d3 c5bf a189 4a3d 167c 94bf
000002d0: 1407 51bf 34be aebc d712 983d ed23 5fbf
000002e0: ecda 6b3e f7db 45bf 4a73 45bf 5d16 af3d
000002f0: 1547 813d 175e a83d 220d 503d 6823 68bf
00000300: e056 3e3e dae1 d2bc fd5e 4c3f a46b 57bf
00000310: 5a02 0a3f da91 55bf f783 86bf 1450 5fbf
00000320: e13c 023f e304 873d 6c6f afbb 7ccf 3ebf
00000330: 9caf 0dbf ba55 053f d00e 233f eaa9 81bf
00000340: defd aabd e90d 85bf 4268 11bf 2e3d 55bf
00000350: 07f3 953d c354 f13e f090 ddbc 53f3 063f
00000360: 8d0b 813d f62a dcbc dc94 77bf ba96 033f
00000370: e4d9 39bf c40c 3b3f 906a 6f3b 13c8 3fbf
00000380: d207 83bf 7850 6f3d 41ad d6bd 07ad 69bf
00000390: 92e0 503e 1608 4dbf cb51 fe3e 5509 11bd
000003a0: 0708 37bf ca09 25bc 99db 68bf fef8 e5ba
000003b0: d561 e0bc 705c 84bf 65b6 ab3d 2c66 a53c
000003c0: 1481 8abf d85e 2dbf b63f 513d 23ab 4f3e
000003d0: 494f 903d 6f47 87bf 3491 363f 77b8 77bb
000003e0: 10f4 54bf 0a5f 943d f2fb fc3e 3d21 5f3d
000003f0: 3262 163f 10e5 013f 15bc 4cbf 19af 00bf

fc4.bias f4 [7]
0.14604135 0.13584588 0.50225127 0.11761115 0.13611904 0.1898135 0.08639705
00000000: dd8b 153e 2f1b 0b3e 8a93 003f 1dde f03d
00000010: ca62 0b3e 785e 423e f0f0 b03d
