models/lateral_stage3_seed1618_best.pth (torch, 412467 bytes, 8 tensors)

fc1.weight f4 [256, 9]
000000 0d 4e dc 3f 2c 1f 95 3d 13 27 f9 be 66 76 2b 3f
       1.7211319 0.07281336 -0.48662624 0.66977537
000010 8e 55 8d 3e 45 b8 c3 3e 22 76 7f 3e ca 60 85 be
       0.27604336 0.38226524 0.24947408 -0.26050407
000020 b2 10 62 be 22 aa bb 3f d4 31 b3 3e 53 45 3a bd
       -0.22076681 1.4661295 0.34998953 -0.04547627
000030 cc 0c 37 bf 4e f4 30 be a5 5c 1c 3f fb 1a 89 be
       -0.715039 -0.17280695 0.61078864 -0.26778397
000040 ea 3d 23 3e e0 4e c3 bc 76 f7 05 40 7b 72 c2 be
       0.15941587 -0.023841321 2.0932288 -0.37977967
000050 b9 ca 4f 3d 41 b5 e7 bc 77 fc 03 be 25 95 3b bf
       0.05073044 -0.02828467 -0.12889276 -0.7327445
000060 07 fa 8d 3e d0 07 09 be fc 76 e1 3d 1d e2 81 bf
       0.27729818 -0.13381886 0.110090226 -1.0147129
000070 b8 d4 94 be 4f 2d 0d be 82 1d 24 3e 54 6c 55 be
       -0.29068542 -0.13786815 0.16026881 -0.20842105
000080 97 a4 b6 3e 10 90 81 3d e2 eb 64 3e 43 c7 59 3e
       0.35672447 0.06326306 0.22355607 0.21267419
000090 3b b4 0b c0 9d 5b 4b 3c 53 6f 00 bf d7 f8 01 bb
       -2.1828754 0.012411979 -0.5016987 -0.0019832158
0000a0 5a d5 8f 3e 94 bf 44 3e 80 5e 7c be 6e 83 2e 3e
       0.28092462 0.19213706 -0.24645424 0.17042324
0000b0 5e f3 2f 3e 78 7a 8d bf 44 09 85 3c c7 ae 1b be
       0.17182681 -1.1053 0.01623977 -0.15203391
0000c0 68 3c 18 3e c0 a5 b2 be 31 ae 45 3f c8 53 63 3d
       0.14866793 -0.34892082 0.7721892 0.055499822
0000d0 5c 7f 85 bd a8 8d 6e be d7 ac 15 40 93 81 ad 3e
       -0.065184325 -0.23296225 2.3386743 0.3388792
0000e0 70 a5 8a 3e c6 73 2c bf 59 a5 f9 be 97 aa db 3d
       0.27079344 -0.67364156 -0.48758963 0.10725897
0000f0 36 53 26 3e eb 6c 40 be 15 67 c9 3d e4 6c 13 3f
       0.1624268 -0.18791549 0.098341145 0.5758803
000100 76 4d e0 3d 2d d3 1b bf 42 56 2b 3f 4a 9d 7f bc
       0.109522745 -0.60869104 0.66928494 -0.0156014655
000110 ba d4 d4 3d 4c b1 8d be e0 a9 ac 3d 2c da 1d 3d
       0.10392137 -0.2767433 0.084308386 0.038538143
000120 a1 4e 5b 40 d9 7a 22 3d e3 68 b0 be c2 6e c6 be
       3.4266741 0.039667938 -0.34455022 -0.38756377
000130 87 0a 6c 3e 80 66 a9 bd d3 a9 65 be f0 13 f0 bd
       0.23050891 -0.082715034 -0.22428064 -0.11722553
000140 74 8c db bd b6 a5 9f bd 3c 84 df bd 2e 1d 05 bf
       -0.10720149 -0.07795279 -0.109138936 -0.5199765
000150 18 81 2c 3f 74 fa 3c 3e d4 2f 56 bc 93 14 86 be
       0.6738448 0.18454915 -0.013072927 -0.26187572
000160 a8 e8 5d be 21 ab 6b 3e 36 f3 1c 3d 0c e1 80 3e
       -0.21670783 0.23014499 0.03831788 0.25171697
000170 9c 58 1b 3f 3d 53 f4 be 89 b5 95 3d df db 3a be
       0.6068208 -0.47719756 0.07310016 -0.18247937
000180 24 f0 d0 3d 99 f6 81 3e b1 59 c5 3d a6 40 98 3d
       0.10202053 0.25383452 0.09636248 0.07434206
000190 c4 be 50 bf 6d fe bb 3d ef 52 3a be b5 b5 1c 3e
       -0.81541085 0.09179387 -0.18195699 0.1530369
0001a0 f5 3d 33 3f 40 76 1c 3d 32 77 99 be 32 02 ec bd
       0.70016414 0.03819871 -0.2997375 -0.11523856
0001b0 6d 8e d3 3f 01 df 55 3e b3 8d 06 3f 16 f3 5d be
       1.652784 0.2088585 0.52559966 -0.21674761
0001c0 a1 5c a7 be 73 cc 45 3f 62 76 40 3e e5 56 84 3e
       -0.32687858 0.7726509 0.1879516 0.25847545
0001d0 b1 77 ee be 9e 58 a3 3d a9 d4 b2 bd fd 8a bd be
       -0.46575692 0.07975887 -0.08731968 -0.37020102
0001e0 d7 87 e2 3e d5 34 a3 3e cb 7c 7f 3e d8 50 44 be
       0.44244263 0.31876245 0.24949948 -0.19171464
0001f0 f8 42 53 be 8c 9c 77 be 8b e1 ba bf 21 92 10 bd
       -0.20631015 -0.24180812 -1.460008 -0.03529561
000200 5b 72 57 3e ac ee 54 be c9 95 00 be 51 47 a3 be
       0.21039717 -0.20794171 -0.12557139 -0.31890348
000210 f4 c2 87 be a6 5f 93 be d7 7e 04 3e 56 29 40 40
       -0.26515925 -0.2878391 0.1293901 3.002523
000220 9a 12 2a 3e 6f c1 a7 bd 69 8e b0 be 1a f6 93 be
       0.16608658 -0.081911914 -0.3448365 -0.28898698
000230 37 4e a2 be 6c b3 f6 bd e0 6e ca bd 8b dd 1d be
       -0.31700298 -0.12045941 -0.09884429 -0.15416543
000240 74 98 3b c0 11 3a 9d 3d 4b 91 eb 3d 34 67 9c be
       -2.93118 0.07677091 0.11502322 -0.30547488
000250 2b 49 cc 3d b6 d8 d7 3e 60 e5 92 bd c8 ff 51 be
       0.09974893 0.42157525 -0.07172656 -0.20507729
000260 76 ec 01 3e 67 92 08 40 bf 7e ca bc 55 51 99 3d
       0.12687859 2.1339357 -0.02471864 0.07486216
000270 d7 3d 66 3d a6 42 be 3d c7 11 82 3e 1a f9 78 3e
       0.05621132 0.09290056 0.25404188 0.24313775
000280 20 a9 54 3d aa 58 45 3e 7d 8a 1a 40 7a fe 1b 3d
       0.051919103 0.19272104 2.4147027 0.038084485
000290 99 69 bd 3e 93 72 4a 3e 05 c8 0e be b9 11 ad be
       0.36994627 0.19770269 -0.13943489 -0.33802584
0002a0 9c 17 96 3d 6b 4a 44 be 68 81 d1 bc d9 fe 47 c0
       0.07328722 -0.19169013 -0.025574401 -3.1249297
0002b0 fa f4 60 3d 10 70 29 3e a5 d2 7f 3e 91 a6 91 3e
       0.054921128 0.16546655 0.24982698 0.28447393
0002c0 e2 a9 a7 3e 70 c7 e8 3c 2e 1e 2a be 50 df a1 3c
       0.32746798 0.028415412 -0.16613075 0.019759804
0002d0 e5 fa 85 bf 6f 14 e5 bf 2f 9a c0 3e 73 aa ca be
       -1.0467192 -1.7896861 0.37617633 -0.39583167
0002e0 65 73 65 3e 55 93 aa bd 80 f2 6f bc e4 d0 d6 3d
       0.22407301 -0.083288826 -0.014645219 0.104890615
0002f0 e9 b5 10 3e c4 47 9d 3e 41 d2 5d bf eb 7d f2 3e
       0.14131893 0.30718815 -0.86648947 0.47361693
000300 d5 c6 8d be 1f e7 83 be 84 ef a4 bd db b8 a4 be
       -0.2769076 -0.2576227 -0.080534965 -0.32172284
000310 80 79 04 bc 1a 5f 39 be 47 c1 98 bf a1 ab 86 be
       -0.0080856085 -0.18102685 -1.1933984 -0.26302817
000320 a8 43 85 3a fa 99 f7 be 45 52 85 3d 41 d9 bd 3e
       0.0010167258 -0.48359662 0.06509832 0.37079814
000330 a0 c1 1f bd 00 45 60 bd bf 6d 12 3e a5 7c 50 3f
       -0.039003015 -0.054753304 0.14299677 0.8144019
000340 e9 08 8e 3c b1 fa 05 3e 53 2c 15 3f e9 34 5a bf
       0.017338233 0.13083912 0.5827076 -0.85236984
000350 bc 04 ff be 1e 8d 6b 3e a1 99 a7 3e ac 32 7b 3d
       -0.498083 0.2300305 0.32734397 0.06132762
000360 36 8b 2a c0 35 e4 de 3e ff fa 86 be 02 89 02 bf
       -2.6647468 0.43533483 -0.2636337 -0.5099031
000370 fd 70 c1 be fb b6 e2 be 40 37 81 bb 30 20 43 be
       -0.37781516 -0.44280228 -0.003943354 -0.19055247
000380 0c d2 79 3e b3 09 31 c0 a1 57 b3 3e 5b 3e ca 3d
       0.24396533 -2.766217 0.35027793 0.098751746
000390 9c a0 89 bd ff f4 ee 3d 3d 8f 11 3e 66 ab 59 be
       -0.06720087 0.11667823 0.14214797 -0.2125679
0003a0 1a b4 68 3e 21 6e a7 3d 16 ec 7c c0 3a 8f 8b 3e
       0.22724953 0.08175302 -3.9519095 0.2725771
0003b0 fe 9d 05 be 0d 78 ac bd 26 aa 74 3e 62 df 1d bd
       -0.1304855 -0.08421335 0.23893031 -0.038543113
0003c0 4d f9 8f 3e f5 9f 84 3e 57 43 70 3e 91 4e 32 bf
       0.2811989 0.25903288 0.23463188 -0.6965113
0003d0 24 d7 99 3e 20 87 c7 be 69 59 16 3f 2f f1 ee 3e
       0.30046952 -0.3897028 0.5873018 0.46668383
0003e0 3d 03 59 bd ec 9e af bd 96 17 0e 3e 43 53 b9 3e
       -0.052981604 -0.08575234 0.13876185 0.36196336
0003f0 6a e2 03 c0 70 11 62 bd 80 0f d1 be 10 3e 0d 3e
       -2.0606942 -0.05519241 -0.40832138 0.13793206

fc1.bias f4 [256]
000000 04 6a 23 3e 8a 0c 8c be 4e 87 dd 3e 15 ad c3 3e
       0.1595841 -0.27353317 0.43267292 0.3821799
000010 36 21 31 be 1c cb f4 bd ad 4f 3b be 13 a4 5a 3e
       -0.17297825 -0.119528025 -0.18292113 0.21351652
000020 01 b5 b7 3e b1 43 31 bf 22 b6 2e 3e 1d 44 f9 be
       0.35880283 -0.69243914 0.17061666 -0.4868478
000030 2a ff 23 be 4e f6 90 be c7 22 d0 3e f6 cd 04 3f
       -0.16015306 -0.28312916 0.40651533 0.5187677
000040 57 d8 d1 3e 89 8b 90 3e 8a 2c c9 3e da ce 34 3d
       0.40985367 0.28231457 0.39291793 0.04414258
000050 b4 05 cb 3d 49 0c ed 3d b1 ed ef 3e 36 c3 2f be
       0.09913197 0.11574609 0.46861032 -0.17164311
000060 ca 9b 6a 3e 28 7a 6f 3e a7 ce 5d 3e 2f 9f 30 3e
       0.22910991 0.23386443 0.21660863 0.17248224
000070 b4 c1 77 be 9d 7c 22 3e 4c 1f 73 be 90 4e f2 be
       -0.24194986 0.15867849 -0.23742408 -0.47325563
000080 d4 03 e8 bc 57 55 e4 3e 83 73 81 3e da cb cc 3e
       -0.028322138 0.4459636 0.2528344 0.39999276
000090 f8 ff c6 bd 78 fa 5b bc 60 36 37 3d c5 82 83 3d
       -0.09716791 -0.013426416 0.04472959 0.06421427
0000a0 2d 65 3f be 2f f7 82 3e 9a 55 ab 3e 10 86 74 3e
       -0.18690939 0.2557921 0.33463746 0.23879266
0000b0 f2 ca 8f 3e 7d ec 99 3d c4 62 b4 bd c9 47 34 3c
       0.28084522 0.0751581 -0.088079005 0.011003443
0000c0 1e af 42 3e fc 0e 48 3e 8b db 1a 3f 4c 2d fc 3e
       0.19012114 0.19536966 0.60491246 0.4925331
0000d0 e5 61 87 be e5 e4 06 3f da 30 9a be 0d 12 d2 be
       -0.26441875 0.52693015 -0.30115396 -0.41029397
0000e0 21 b5 e3 3e b8 95 5c 3d 6c 80 bc 3e d8 cf 49 be
       0.44474128 0.05385372 0.36816728 -0.19708192
0000f0 30 04 9b 3e fb 54 cb be 89 d4 37 bd 10 37 1b 3f
       0.30276632 -0.39713272 -0.044880424 0.60630894
000100 b3 96 e5 3e 1e 87 ec 3e c2 ba 96 be f7 ad ad 3e
       0.44841537 0.46196836 -0.2943936 0.33921787
000110 88 21 7a 3d 95 65 84 be 31 83 ab 3c 7c e6 01 3f
       0.061067134 -0.2585875 0.02093658 0.50742316
000120 87 da ed bc cc 68 79 3d 29 30 89 3d c1 96 f0 bc
       -0.029034866 0.060890958 0.06698639 -0.02936876
000130 59 7f 84 be ac 45 1f be fa 1e 8d be ea b0 8f 3e
       -0.2587841 -0.15553921 -0.27562696 0.28064662
000140 94 fb c7 3e 56 4b c6 3c ac 24 01 3f 9a 9c 85 3e
       0.39059126 0.024205845 0.5044658 0.2609604
000150 a3 9a 26 3e 77 f1 c0 3e 54 39 f6 bb ae 72 ed 3e
       0.16269927 0.37684223 -0.0075141583 0.46376556
000160 cd d1 b4 bd 84 4f ac 3b 30 9b bc be 04 41 d3 3e
       -0.08829079 0.0052585024 -0.3683715 0.4126054
000170 ee d4 02 3f 01 24 c1 3e e3 6c d0 3e 38 5f 93 3e
       0.51106155 0.3772278 0.40708074 0.28783584
000180 5b 88 bd be 0e 51 90 3e a7 40 c3 bd 4e ec f1 3c
       -0.37018093 0.2818684 -0.09533816 0.029531624
000190 69 65 b1 be fc eb 36 be d6 69 bc bd ce 46 8f 3e
       -0.34647682 -0.17863458 -0.09199874 0.27983707
0001a0 cc 9a ed be a3 4d 0d be f0 9f 03 3f da 3f 8f be
       -0.46407163 -0.13799147 0.5141592 -0.27978402
0001b0 3a 0d bc be ea 24 d7 3d 78 87 cc bc ba 53 ad 3d
       -0.3672884 0.10505088 -0.02496694 0.08463235
0001c0 a7 f2 e5 be 7a 77 0e 3e 3c dd 6b be 57 e8 c1 3e
       -0.44911692 0.13912764 -0.23033613 0.37872574
0001d0 22 ec 0e bd b0 63 7d 3e 38 ed 4b be cf e0 97 bd
       -0.034893163 0.24745059 -0.1991471 -0.07415926
0001e0 90 f7 32 3e 60 8e 7e 3d 62 4a f6 be 81 b9 7e ba
       0.1747725 0.062147498 -0.48103625 -0.0009716973
0001f0 c8 80 94 be 9a ac 21 bb 7e c2 86 3e 91 68 98 3e
       -0.29004502 -0.002466953 0.2632026 0.29767278
000200 c8 7a 41 3d fd d9 79 bc 67 f1 15 bf 39 57 08 3f
       0.047236234 -0.015249726 -0.58571476 0.5325809
000210 1e ed 08 3e 5f c7 17 be 0b 95 9a 3e f8 8e fc 3e
       0.13371703 -0.14822148 0.30191836 0.49327826
000220 07 59 9a be 00 f7 f3 be 10 1d 49 3e ea 22 ac 3e
       -0.30146047 -0.47649384 0.19639993 0.33620387
000230 f9 c8 78 be 37 87 b2 3d 34 d3 8f 3e 05 d0 85 be
       -0.24295415 0.087171964 0.28090823 -0.2613527
000240 e2 f0 05 3e 7a 16 8d be 67 2e 00 3f 63 53 bf 3d
       0.13080171 -0.2755621 0.50070804 0.09342077
000250 fe 5f 93 3d d7 e5 1d 3d 66 da 71 be 5d f8 8c 3e
       0.071960434 0.03854927 -0.23618469 0.27533236
000260 d4 53 a4 be 13 0e a7 3e 62 3f 64 3e 0b d4 d4 3e
       -0.32095206 0.32627925 0.22289804 0.41568026
000270 3c b8 5b be 8f 11 5d be 57 f0 36 be 3e 6b e5 3b
       -0.21456999 -0.2158873 -0.1786512 0.0070013097
000280 6f 85 0b be 22 88 96 be 5b 8d 70 3d 32 3b 0f bf
       -0.1362512 -0.29400736 0.058728557 -0.559497
000290 f7 10 9c be 27 40 a5 bd 48 63 bd 3e 4c 99 b1 3c
       -0.30481693 -0.08068877 0.36989808 0.021679543
0002a0 0e b1 ff 3d b6 dc 85 bd 1e 51 21 3e 07 38 48 3e
       0.124849424 -0.06536238 0.157536 0.19552623
0002b0 0f 42 25 3e 90 2f 07 be 38 41 44 3e c2 c0 de 3e
       0.1613848 -0.13201737 0.19165504 0.43506438
0002c0 44 c1 fc 3e f8 46 a5 be 02 79 07 3f 70 16 8f 3e
       0.493662 -0.32280707 0.5291902 0.27946806
0002d0 76 94 21 be 08 30 cd be af 16 52 be c3 7e a5 be
       -0.1577929 -0.40075707 -0.20516466 -0.32323274
0002e0 79 1e cb 3e ba 14 2e 3e 3d e1 88 bd fd fb 14 bf
       0.39671686 0.17000094 -0.06683586 -0.58197004
0002f0 19 46 a8 be f3 8e 23 be 51 40 ab 3e 92 83 b1 3e
       -0.3286598 -0.159725 0.33447507 0.34670693
000300 e1 ca 2d be 84 1f 82 3e 11 67 84 3e 43 44 1b bd
       -0.16971923 0.2541467 0.25859883 -0.037906896
000310 3e ec bb 3e 33 bd 1f 3f 57 0f b0 3e 64 06 c5 3e
       0.36703676 0.6239807 0.34386703 0.38481438
000320 54 e3 0a bf 04 c4 8a 3d 21 7e bf 3d 35 38 81 be
       -0.54253125 0.06775668 0.09350229 -0.25238195
000330 5a 50 aa 3e eb 11 13 3e b2 36 cb be 8b 39 2c 3d
       0.33264428 0.14362304 -0.39690167 0.042047065
000340 6f 5f 27 bd 83 f3 10 3e 54 f7 ca 3e 31 f8 d3 3d
       -0.040862497 0.14155392 0.3964182 0.10350073
000350 fa 03 8a 3b ce bb 10 3e 48 02 08 3f 83 ef 7f 3d
       0.0042119 0.14134142 0.5312848 0.062484276
000360 61 6f a1 bd 48 86 85 3d 0b 8c ae 3e 62 b3 0a 3e
       -0.07882572 0.06519753 0.3409122 0.13544992
000370 cc de 30 be ff 81 9c be de 52 3a be d1 54 ab 3c
       -0.1727249 -0.3056793 -0.18195674 0.020914467
000380 66 16 fd bd e5 6d e1 3e 7b 35 81 3d 66 18 8b 3e
       -0.12357788 0.44029155 0.06309029 0.27167052
000390 c2 95 c9 be c7 9a 4f bd 52 5f 29 3e e6 64 bd 3e
       -0.3937207 -0.050684717 0.16540268 0.36991042
0003a0 30 6e bc 3d 65 14 c5 3e 7b ee ab 3e ec 7c 72 3e
       0.09200704 0.38492122 0.33580384 0.23680466
0003b0 16 3f 8f bd d0 ec b6 3e 67 a4 09 3d 16 91 9d 3e
       -0.069944546 0.3572755 0.033604052 0.30774754
0003c0 54 c4 ae 3e 15 58 bf 3e 98 5a 77 3e 2a 60 93 3d
       0.3413416 0.3737189 0.24155653 0.07196076
0003d0 92 49 04 be 4a e7 69 be a4 cd ce 3e 56 80 d9 3d
       -0.1291869 -0.22842136 0.40391266 0.10620181
0003e0 bb 40 c1 3e 1b e0 48 be d4 f3 1e be e2 02 3f be
       0.37744698 -0.1961674 -0.155227 -0.18653443
0003f0 f0 3e 4f be e0 f5 14 bd 9a d3 1b 3f b1 97 fa 3e
       -0.20238853 -0.036367297 0.60869753 0.48943856

fc2.weight f4 [256, 256]
000000 8a a7 f2 bb 5c 45 f5 bc 9b 1d b9 bb 37 b6 8d be
       -0.007405226 -0.0299403 -0.005649281 -0.2767808
000010 76 62 e0 be ff d1 98 bd 99 06 e3 3d ee 75 7f bd
       -0.4382512 -0.074619286 0.11085243 -0.062368326
000020 ed 84 fd be 87 a0 26 3c c3 10 7f 3d cd 3b 0a be
       -0.49515477 0.010170109 0.062271845 -0.13499375
000030 1c a8 86 3e 7a 78 02 3d 18 29 e8 bb c5 14 ba bd
       0.26300132 0.031853177 -0.007084977 -0.09085993
000040 c6 cd 00 be 40 59 38 be 66 07 be 3c 3f 65 25 bd
       -0.12578496 -0.18002796 0.023196887 -0.04037976
000050 91 a9 aa 3e 95 12 bd 3d 73 4e 9d bd c8 cf ee 3d
       0.33332494 0.0923206 -0.076809786 0.11660725
000060 b6 e5 0e 3d 1a 24 b5 be 77 39 35 be fe b9 88 be
       0.03488704 -0.35379106 -0.17697702 -0.267044
000070 b7 aa 0e bf d9 f8 31 3d d9 eb 5a bc 7d 55 cf 3e
       -0.5572924 0.04345021 -0.0133618945 0.4049491
000080 d8 51 19 3b 0d f5 24 bf 2d 7f c6 bd d1 68 8f be
       0.002339473 -0.6443642 -0.096922256 -0.28009656
000090 75 46 ce bd 6a b3 1c 3e 91 6d b1 be d9 ca bb be
       -0.10072032 0.15302816 -0.34653905 -0.36678198
0000a0 5b c9 fa 3d 71 d2 2f bf fb 56 54 bf 70 aa c2 bd
       0.12245437 -0.68680483 -0.8294522 -0.095051646
0000b0 c5 79 83 bd 54 43 3e be cf 30 78 bd e1 94 26 3d
       -0.0641971 -0.18580371 -0.060593423 0.040669326
0000c0 42 90 30 3d c7 b3 13 be 5b 53 c9 bd 0f 7e b1 be
       0.043106325 -0.14424048 -0.09830352 -0.34666488
0000d0 e9 b6 1d 3e df 11 2f be 7b ea 0f 3e 87 30 a3 3e
       0.15401806 -0.17096661 0.14054291 0.3187296
0000e0 3f 6b e0 be 30 c7 fa be 49 5e b6 be 03 45 78 be
       -0.43831822 -0.48980093 -0.3561881 -0.24245076
0000f0 af 15 91 bf 43 d6 58 3e fa 53 0c be 66 a6 b9 be
       -1.1334742 0.21175484 -0.1370391 -0.36259764
000100 50 ad 00 bd 8c 49 cc bd 73 dc b4 3b 4d 64 e5 bc
       -0.031415284 -0.099749655 0.0055194437 -0.028001929
000110 c9 aa 6c 3e 9e 46 3b 3e 6f 7d ae be d3 a3 7d bf
       0.23112024 0.18288657 -0.34080073 -0.990781
000120 3a ad 1b 3e 20 c5 c2 3d ef 9d 8e 3d 12 83 8e 3e
       0.152028 0.09510255 0.06963717 0.27834374
000130 67 cc 23 3d f0 82 96 bd 72 3a 69 bd b1 d6 22 ba
       0.039989855 -0.07349193 -0.056940503 -0.0006211801
000140 8b 5c c0 be ca c6 e8 3b 6b ce c8 3d da c8 a5 bd
       -0.37570605 0.0071037756 0.09804996 -0.0809495
000150 ea d1 87 3d fd a2 5e bd 9f cd 3c be dc 44 84 be
       0.06631835 -0.054354656 -0.18437813 -0.25833786
000160 46 0b 5c be 68 c0 eb bd 2f af 82 3e 20 53 10 be
       -0.21488675 -0.11511308 0.2552428 -0.1409421
000170 14 67 5f bd 75 4b 98 be 2f 5f 47 be 7a 79 66 bd
       -0.054541662 -0.2974507 -0.19469903 -0.056268193
000180 d0 19 5a bd 9c 78 ad be 5c 16 21 bf 5d 0f d1 3d
       -0.053247273 -0.3388108 -0.6292474 0.102080084
000190 ce fe 51 3e cb 71 5f bd 4c 6b 1d 3b ac 62 1a bf
       0.20507357 -0.05455188 0.0024020253 -0.6030681
0001a0 55 09 1c 3f d5 43 c7 bd 25 00 1c be 65 cd 65 be
       0.6095174 -0.09729735 -0.1523443 -0.22441633
0001b0 4b 37 94 3e 2b 0c c5 bd 53 a3 23 be e8 27 c7 be
       0.28948435 -0.096214615 -0.15980272 -0.38897634
0001c0 d4 d5 02 3d 77 97 25 be 4f 2e 8d bd 25 8d 30 3c
       0.031942204 -0.1617106 -0.06893598 0.010775839
0001d0 cc 30 1b 3c 83 f5 93 bf 9c e8 8f 3e 08 ad 21 3e
       0.009472083 -1.1559299 0.28107154 0.15788662
0001e0 95 6a 78 bd d9 bd 3d be 53 9e eb 3e ba 13 25 bf
       -0.06064852 -0.18529452 0.4601923 -0.64483225
0001f0 47 8c bf 3e 81 b0 ee bd 23 14 ec 3d 33 b6 48 be
       0.3741171 -0.11654759 0.11527278 -0.19600753
000200 79 75 4d 3c df b6 e9 bd d9 0b 33 3f a0 44 a5 3c
       0.012540215 -0.11411833 0.69939953 0.020174325
000210 41 8b c7 be 73 48 2c 3e 7c 05 8b bd 75 43 10 bd
       -0.3897343 0.16824512 -0.067881554 -0.035220582
000220 e8 20 dd ba fb 09 9a be 9d 36 a7 3e 28 af 39 be
       -0.0016870769 -0.3008574 0.32658854 -0.18133223
000230 8f 58 39 3d f5 9c 16 bf 3c 81 4a be 71 14 56 3e
       0.04525047 -0.5883325 -0.19775862 0.20906235
000240 59 ed 93 be cd 3b 37 3d 16 97 bc bc 1b d3 4b 3e
       -0.2889202 0.044734765 -0.023021262 0.19904749
000250 26 de a8 bc 36 95 ef 3d 6d 7e c6 3e 52 17 f6 3d
       -0.020613741 0.116983816 0.3876833 0.12016167
000260 f0 30 31 3c 31 32 79 3d 29 42 0b 3e 7e 15 2f be
       0.01081489 0.060838882 0.13599457 -0.17098042
000270 97 0f 03 3d 3d 18 65 3e 85 1f cd 3b 3b a5 d7 bd
       0.03199729 0.22372527 0.006259861 -0.10529562
000280 cc 15 d6 bc bd 5e 84 3e 5c 95 d9 3b 44 f8 86 3e
       -0.02613344 0.2585353 0.0066401195 0.26361287
000290 c2 34 42 3e cd 3d 78 3e 61 01 9d bd c7 ed cb 3d
       0.18965438 0.24242325 -0.07666279 0.09957462
0002a0 62 05 5e 3d fd 35 ae bd b5 0f 59 3c 4c 50 c1 bc
       0.054204352 -0.08506391 0.013248374 -0.023597859
0002b0 1d 71 ad 3d 61 da 03 3e aa d2 2a 3e 52 5e aa be
       0.0846884 0.12876274 0.16681924 -0.33275086
0002c0 ed da 5e be 93 c1 8f 3e d9 0d e1 3d c5 09 3d bf
       -0.21763201 0.28077373 0.10988969 -0.7384303
0002d0 e3 2c a2 3d 74 87 fa 3e 19 14 72 3e 40 65 c6 bd
       0.07918718 0.48931468 0.23640479 -0.09687281
0002e0 6a 30 32 be 53 ad 68 bd dc b8 dc 3d 44 8b bf 3b
       -0.17401281 -0.05680592 0.10777447 0.005845459
0002f0 a4 cf 81 3e 21 43 6e 3e 9c ef 89 bd ba 42 05 3d
       0.2535373 0.23267795 -0.06735155 0.03253434
000300 d4 eb 50 3e 90 c6 4a bf 7b 94 73 3c 30 a3 1d bc
       0.20402461 -0.7920923 0.0148669435 -0.009621426
000310 1f e4 8a 3d 75 4f c0 3c 0f 96 9c be 8d f4 84 be
       0.06781792 0.023475388 -0.30583236 -0.25967827
000320 dd 12 09 3f da 54 2e bd 2a 00 03 3e e4 fb 6f be
       0.5354441 -0.04256139 0.12793031 -0.23435932
000330 df 4f 3b 3d d3 eb c9 bd 80 1c be 3e 31 1d 96 3e
       0.045730468 -0.09859433 0.3713112 0.29319146
000340 b7 e0 d8 bd 02 19 6e be b6 eb f5 3e 82 a6 f6 be
       -0.10589736 -0.23251727 0.48031396 -0.4817391
000350 d6 ae 34 be de e1 09 bf b1 5d 2e bc ae c4 31 3d
       -0.1764482 -0.5386027 -0.010642455 0.04340046
000360 9a da a2 3e cb 78 15 bf 0a 80 30 be 93 fe 65 be
       0.31807405 -0.5838744 -0.17236343 -0.22460394
000370 bf ac b4 3e 8e 54 f5 3d b8 10 23 3e ad 55 33 be
       0.35288045 0.11979018 0.15924346 -0.17513151
000380 69 d1 a7 bd ae 7d 2a be b3 90 7c bd 18 71 a3 be
       -0.08194239 -0.16649505 -0.061661433 -0.3192222
000390 c0 00 c7 3e fe ae 1b bf 3a 21 b9 3e 20 46 27 be
       0.3886776 -0.6081389 0.36158162 -0.16335344
0003a0 10 51 fa 3d e2 1b f7 3d 8d c7 61 be 33 73 14 3d
       0.12222493 0.12065865 -0.22048779 0.036242675
0003b0 e1 70 d5 bd e3 01 60 3c 84 15 02 3e 21 c0 c0 bd
       -0.104219206 0.013672325 0.1270352 -0.09411646
0003c0 23 03 59 bf 4a c2 e7 bc c1 af e7 3b f4 fd 0c 3d
       -0.8477041 -0.028290886 0.007070512 0.034421876
0003d0 de d5 4b be 6b 0a d7 bd 1c d9 db 3e 9d 20 81 bc
       -0.19905803 -0.10500034 0.4293908 -0.015762622
0003e0 77 1b f0 3c 0c 8c 78 bd a6 8c 5f bf 03 26 92 be
       0.029309971 -0.060680434 -0.8732399 -0.28544626
0003f0 d5 33 6d 3e 85 3d 20 3e a3 72 17 be d0 6f 74 be
       0.23164304 0.15648468 -0.14789824 -0.23870778

fc2.bias f4 [256]
000000 48 b1 b7 be 69 29 3c 3d 69 f9 26 bc 79 70 9c bd
       -0.35877442 0.04593793 -0.0101913 -0.0763864
000010 86 1b ae 3d b2 e7 1d 3e be 38 6b bd b4 0a 5a 3c
       0.085013434 0.15420416 -0.05742716 0.013308216
000020 a8 83 8c bc b1 46 49 be 3c e1 af ba 55 39 51 3b
       -0.017152622 -0.19655873 -0.0013418566 0.0031925042
000030 6b 39 82 3d f5 86 5a 3d c9 9d 7a bd bf 3b 42 bd
       0.06358608 0.05335136 -0.061185632 -0.04742026
000040 e9 6b ce 3b 6c e0 86 bd c8 00 e5 bc 08 10 6d 3d
       0.006299485 -0.06585774 -0.027954474 0.057876617
000050 ea 1c 38 3d 81 c5 68 bd 49 ff 9a bc fe 65 19 3d
       0.04494945 -0.05682898 -0.018920558 0.037450783
000060 43 a0 14 3e 50 3e 11 bd 27 bf cb 3e 3c 57 15 bd
       0.1451426 -0.035459816 0.39794275 -0.036460146
000070 6e d4 8e 3d 3f c0 56 bd 8f e1 49 bd b2 94 17 3e
       0.069741115 -0.052429434 -0.049287375 0.14802817
000080 29 40 da 3d ee 0f 07 3d ce 37 90 bd 45 3b 48 3d
       0.10656769 0.032974176 -0.07041894 0.04888465
000090 e4 3b 06 3e 8b f2 8a bc 2c b3 74 3e 46 ae 92 bc
       0.13108784 -0.016961357 0.23896474 -0.017905366
0000a0 0e 60 7c 3c e4 02 83 3d 9a de 2a bc dd 8f 21 3e
       0.015403761 0.06397036 -0.010429049 0.15777536
0000b0 05 04 dc 3d 55 ba 50 bd c8 29 78 bd 07 0e 90 bd
       0.10742954 -0.05095895 -0.06058672 -0.070339255
0000c0 c0 89 4d 3e ba 53 d9 bc 80 12 45 bd 91 34 c8 bb
       0.20072079 -0.026529182 -0.048113346 -0.006109782
0000d0 b4 31 88 3c 40 c3 21 3e 61 e7 bf 3d 7d 04 08 3e
       0.016625263 0.15797138 0.09370304 0.13282962
0000e0 66 c6 35 3d 06 3c c5 bd d8 d5 b0 bd e9 9f b7 3c
       0.04437866 -0.09630589 -0.086345375 0.022415118
0000f0 a5 cd bf 3a 0f 43 88 be f5 f8 1e be 62 db d7 b9
       0.001463343 -0.26613662 -0.15524657 -0.00041171449
000100 00 3a 87 3d 45 87 9a bd 57 01 15 be b4 07 41 bd
       0.066028595 -0.07545332 -0.14551292 -0.047126487
000110 f5 e7 b3 bc f3 ba 24 3d e8 9e 38 3e 1e f3 5f bd
       -0.021961192 0.04021735 0.18029368 -0.054675214
000120 38 da 41 3d b8 45 47 bd 34 0c 95 3e ce 87 3b 3d
       0.04732725 -0.048650473 0.29110873 0.04578381
000130 99 08 3a 3d e2 51 07 3e dc 58 1f 3e d2 be 20 3e
       0.045418356 0.1321483 0.15561241 0.15697792
000140 03 e0 ad 3c 55 aa bd 3c d1 e2 35 be ed 8e 8e 3d
       0.021224981 0.02315251 -0.17762305 0.06960855
000150 0c c7 71 be 65 56 0f 3e 6e ed e9 3d b0 a5 1f 3e
       -0.23611087 0.139978 0.11422239 0.15590549
000160 6d 93 6f 3b 7d b4 55 bb 56 78 8d 3d 1d a3 2f bb
       0.0036556378 -0.00326088 0.06907718 -0.0026800104
000170 cd 6c 85 bc b4 ea 4b 3d 66 91 28 bc f5 df 94 bd
       -0.016287232 0.049784377 -0.010288572 -0.07269279
000180 01 f0 02 bd 50 c9 3d 3d ba 45 5e 3d f4 e3 66 3d
       -0.031967167 0.046334565 0.054265715 0.056369737
000190 9c ee a3 3c 98 38 6f 3c 04 76 03 3e d8 6b 97 bd
       0.020011239 0.014600895 0.12837988 -0.073936164
0001a0 5e f2 2a 3e 18 e8 eb 3c e8 d2 76 3d 5c d3 95 bd
       0.16694018 0.028797194 0.06025973 -0.07315704
0001b0 72 62 e5 bc ae 83 b6 3d 1b ad 46 3e a3 37 e4 bd
       -0.028001044 0.08911835 0.19401972 -0.11143424
0001c0 b1 24 4e bd 0f c2 16 3f a3 8e 02 ba 04 f0 a5 3b
       -0.05032796 0.5888986 -0.0004980361 0.0050640125
0001d0 65 ab d5 bc 86 77 51 3e 46 88 94 3d 41 b8 91 be
       -0.026082704 0.20455751 0.072525546 -0.28460887
0001e0 32 b2 51 bd 84 b8 04 3d f7 53 b8 3d 95 82 68 bb
       -0.05119533 0.03240253 0.0900039 -0.0035478224
0001f0 42 46 fd bc 25 55 15 3d 10 63 1a bd 2b d7 99 3e
       -0.03091729 0.036458153 -0.03769213 0.30046973
000200 fd 46 2b 3d 3a fc 96 3c 56 ff 57 bd bb a7 26 bb
       0.041815747 0.018430818 -0.05273374 -0.0025429565
000210 65 ce 96 bd 61 f1 8e bc 4a 1c bf 3d 26 6a e6 bc
       -0.073635854 -0.017449083 0.093315676 -0.028126787
000220 e0 41 07 bc 76 36 67 bd fc 22 48 bd dc cd 09 bd
       -0.008255452 -0.056448422 -0.04886149 -0.03364359
000230 a6 34 11 bd 7b 5e 1f bd 30 62 99 bd 4c fe 79 bc
       -0.0354506 -0.038908463 -0.07489431 -0.015258383
000240 e2 ee a3 3e cc 36 62 3e 02 a7 25 3e 28 68 ad bc
       0.3201819 0.22091216 0.1617699 -0.02116783
000250 7c 0e a7 3e f1 59 08 bd 31 25 b5 3d 2b 2b 43 3d
       0.32628238 -0.0332889 0.08844984 0.04764859
000260 a6 e3 03 bc 8c 81 e7 bd 82 92 cc 3d 2e cb 4f 3d
       -0.008049881 -0.11304006 0.09988882 0.050730877
000270 05 6f f6 3c a7 ac 0a 3e 61 b8 1b 3e 50 44 56 3c
       0.030082235 0.13542424 0.15207054 0.01307781
000280 e1 58 70 3d f6 11 2c 3c 87 57 2c bd 34 85 a8 3d
       0.05867851 0.010502329 -0.04207566 0.082285315
000290 a0 3d a7 3d 1e 11 b7 bc 9c e7 f0 3d 41 ed 52 be
       0.08166051 -0.02234703 0.11762926 -0.20598318
0002a0 89 4f 2d 3d d2 c0 09 bb 71 e9 e9 bc c1 a6 db bd
       0.04231218 -0.002101947 -0.028553696 -0.10725165
0002b0 c3 7b 84 3b d2 2a 12 bd 01 90 64 3c d6 18 2f bb
       0.004043074 -0.035685368 0.013950349 -0.0026717684
0002c0 7c 65 0b bd 7c d4 2e 3d 87 2d 1f 3d f4 a5 88 3d
       -0.03403233 0.04268311 0.038861778 0.06672278
0002d0 64 0d ef 3d 86 47 21 bd ef ed c5 3d 53 ac ab 3c
       0.11672476 -0.03937485 0.09664523 0.020956194
0002e0 07 66 57 be f4 d6 8e bc 12 91 00 bd 5f e4 f3 3d
       -0.21035014 -0.017436482 -0.03138835 0.11908793
0002f0 f2 b5 51 3c 8d c0 da bd 52 a1 ec bc e6 24 33 3d
       0.012799727 -0.106812574 -0.028885517 0.04373636
000300 7e 19 c7 3c 6f a6 04 be 0f 21 44 3d 2a d2 eb 3d
       0.024304148 -0.12954114 0.04788309 0.11514695
000310 9f b1 66 3c 6a f9 5b 3d bc ad 1b 3e fa d9 c6 3d
       0.014080434 0.053704657 0.15202993 0.097095445
000320 c8 9a 1f 3e c8 5d 2c 3e 17 42 0a 3d 43 b6 38 3e
       0.15586388 0.1683265 0.033754434 0.18038277
000330 79 bd 13 3e f4 0e 5c be d5 17 ba bd 77 d8 9a bc
       0.14427747 -0.21490079 -0.09086577 -0.018902047
000340 91 ee 47 3c c4 a9 89 bd cb 26 29 3d 52 85 fe 3d
       0.012202875 -0.06721833 0.04129676 0.124277726
000350 33 a2 3c 3e 10 e9 48 3d 08 42 ca 3d 11 1d d4 bd
       0.18421249 0.04905039 0.09875876 -0.103571065
000360 d3 4c 9b 3d a0 0d 3e 3c 65 f0 11 3d 36 0c 68 3d
       0.075830124 0.011599928 0.03562965 0.05665227
000370 d9 7c 90 bd 74 ee 33 bd 40 a6 f7 bb 94 9b a3 3d
       -0.07055063 -0.04392858 -0.0075576603 0.079886585
000380 bb 37 d1 3c 0d cb b1 3b 4a a0 62 3d 27 68 13 be
       0.02553927 0.005425817 0.055328645 -0.143952
000390 30 ea f7 3d 6c ee b8 bc e0 de 43 3c f0 e0 02 bd
       0.121052146 -0.022574626 0.011954993 -0.0319528
0003a0 fc 48 ff bd a6 34 73 bd 2f 48 d5 3c 91 21 00 bd
       -0.124650925 -0.05937638 0.026035396 -0.03128201
0003b0 8b 68 3c bd d3 29 5f 3c 60 32 21 3c c1 61 b5 bd
       -0.045998137 0.0136208115 0.0098386705 -0.08856536
0003c0 3b 7a 20 3e bc 8b 81 3e a5 61 a4 3d 65 3c f3 3b
       0.15671627 0.2530192 0.08026437 0.007422971
0003d0 13 38 5a bc 68 88 2c 3d 50 0c 00 3d 85 d6 28 be
       -0.013319033 0.042122275 0.031261742 -0.16488083
0003e0 4d 02 38 bc 3d 50 29 3d 6d e7 d7 bc eb c7 11 3e
       -0.011231017 0.041336287 -0.02635547 0.14236419
0003f0 39 09 87 bd aa 97 85 3c a1 31 da 3d f3 ad 37 bd
       -0.06593556 0.01630767 0.10653997 -0.044843625

fc3.weight f4 [128, 256]
000000 6d 67 19 bf 6b 32 53 3d 04 fd 7f bd de 13 8f 3b
       -0.5992344 0.051561754 -0.062497154 0.004366382
000010 ee 53 47 bf 18 d4 bc bd 68 22 ba 3d a1 c1 81 3d
       -0.7786244 -0.09220141 0.09088594 0.0633576
000020 dc 6b 23 3d 03 92 7d be cf 1d 13 3f e6 0e 72 bd
       0.039897785 -0.2476273 0.5746736 -0.05909624
000030 50 61 d9 be f7 db 57 3d fa d4 21 bd 2f 44 1b bf
       -0.42457056 0.05270001 -0.03950975 -0.60650915
000040 2b df 7c be 44 a9 77 3c 41 b3 03 bd 1c 88 c0 3d
       -0.24694507 0.01511604 -0.03215337 0.09400961
000050 80 13 3b 3d 5f 79 0a bd 6a c3 86 3e aa e3 2d 3e
       0.045672894 -0.033807155 0.26320964 0.16981378
000060 f2 35 96 3e c1 2d 3c 3d 36 49 08 3e 2e f3 6b 3d
       0.29338032 0.04594207 0.13309178 0.05760496
000070 7f b3 e4 3f 42 4a 49 3f 3d b1 0c 3d e8 2a 3c 3e
       1.7867278 0.78628933 0.034348715 0.18375742
000080 2a 14 75 bd c7 06 27 3f a5 23 fe bc e8 75 c9 be
       -0.059833683 0.65244716 -0.031022856 -0.39347768
000090 0c 56 58 bd 54 83 df 3c 3b 01 18 3e c5 e4 5d bf
       -0.052816436 0.027284302 0.1484422 -0.866772
0000a0 42 3a 6c 3d 03 34 56 bd 8a 8a 2f bd 3d c4 3f 3e
       0.057672746 -0.052295696 -0.04285673 0.18727203
0000b0 e7 07 2e 3e d8 3e dd 3c cf 9f a6 bc 3a 50 09 bf
       0.16995202 0.027007505 -0.020339875 -0.5363804
0000c0 02 5f c4 3e db 47 7d bc 12 57 35 bd 44 ba c3 3c
       0.38353735 -0.015459026 -0.04427249 0.02389253
0000d0 f8 a5 35 3d f0 fe ba 3c ec b7 b7 be a6 13 99 3e
       0.044347733 0.022826642 -0.3588251 0.29897803
0000e0 94 88 84 3d d0 9a f4 bc 8a 6d 36 bf af b3 00 bc
       0.06471363 -0.029858977 -0.71260893 -0.00785534
0000f0 ad bf 64 3c f2 6d 77 be d1 b8 2b 3e 41 dc d2 bb
       0.013961715 -0.24163035 0.1676972 -0.0064349477
000100 69 27 1e be 8a d5 29 3e 60 33 7a be 83 5a 83 be
       -0.15444721 0.16585365 -0.2443366 -0.25654992
000110 bc e2 53 3d cf 30 49 bd 42 0c c3 bd 04 cf 08 3c
       0.051729903 -0.049118813 -0.09523822 0.008350138
000120 70 1b 91 3d 60 0b e3 3b f2 6c 19 be b4 27 ff 3b
       0.070853114 0.0069288462 -0.14982966 0.0077867154
000130 ae 57 85 3d 13 82 c7 3e 08 8c bc 3f 28 5d 12 3e
       0.06510864 0.38966426 1.4730234 0.14293349
000140 24 23 ce bc e9 47 37 3f e6 4e a9 be b5 42 82 3e
       -0.02516324 0.715941 -0.33068007 0.25441518
000150 54 0a 78 be 69 24 41 3e 4e 66 dd 3e e2 e6 0b be
       -0.2422269 0.18861546 0.43242115 -0.13662294
000160 00 29 f5 bc e4 6c 15 bd c4 bf 10 3e a4 ac 1b 3c
       -0.029926777 -0.0364808 0.14135653 0.00950161
000170 ee f0 f8 bb a8 6b 35 3d ab 32 2e 3d 91 a8 b7 be
       -0.0075970804 0.044292122 0.04252879 -0.35870793
000180 d9 cb 4b bd af 29 02 3e a8 55 6c 3d 0c 63 b3 bd
       -0.04975495 0.12711214 0.057698876 -0.08759126
000190 95 34 80 3c ec bc 8c 3c 38 78 1d be 61 ee 50 bc
       0.015650073 0.017179929 -0.15377891 -0.012752146
0001a0 ae aa c1 bd 6e 73 e7 3d f5 db 45 3f 4a d0 3a bc
       -0.09456383 0.11301313 0.7728875 -0.011402199
0001b0 0b 72 83 bd fb 0e 1d 3e e7 60 18 3d 08 32 82 bc
       -0.06418236 0.15337746 0.03720179 -0.015892997
0001c0 f4 57 35 3d ab 38 c8 3c 70 11 75 3d e3 9f 71 bf
       0.04427333 0.024441084 0.059831083 -0.9438459
0001d0 ca 79 d1 be 6a 29 8e be df 0c f8 3d d9 92 59 bf
       -0.4091323 -0.2776597 0.1211183 -0.84989697
0001e0 18 8c 0f 3d c1 32 17 bd ca 18 ae be 77 18 be bc
       0.035045713 -0.036913637 -0.34003288 -0.023205025
0001f0 2a cc bc bc cc 9c b7 3e 68 93 fd 3c 56 53 f5 3d
       -0.023046572 0.35861814 0.030954078 0.11978786
000200 59 c8 3f 3e 9a 3b e0 bd 50 4e bd bc be e8 8a 3e
       0.1872877 -0.10948868 -0.023108631 0.27130693
000210 4f 1b 80 3e c4 39 fb bc 8c 5f a8 3e 37 74 47 3d
       0.25020835 -0.030667193 0.32885396 0.048694815
000220 39 a3 c0 3c 11 3b aa bc 10 2a 2f 3f c3 6d 22 bd
       0.02351533 -0.020780118 0.6842356 -0.03965546
000230 96 00 ef bc 8e 91 78 bc a7 2e 26 bc eb 1e 49 3b
       -0.029175084 -0.015171422 -0.010142959 0.0030688595
000240 3a 69 2d bd 87 fa 53 bf 5a d3 29 3e b6 ae c4 3b
       -0.04233668 -0.8280415 0.1658453 0.0060022725
000250 12 2f 40 3e bd c7 dd bd 67 46 b5 3f cb ba 02 be
       0.18767956 -0.10829113 1.416211 -0.12766568
000260 d7 14 07 3d 56 13 ac bf c3 ae 79 3d 1b 23 8a 3c
       0.03297886 -1.3443401 0.06095768 0.016862443
000270 cc 24 ef bc 8a 7c 9d 3e 95 26 8b be d2 38 e2 3c
       -0.02919235 0.30759078 -0.27177873 0.027614985
000280 6b ec 84 3e a9 34 03 3f fc 46 08 3c 8c c2 d8 3e
       0.25961623 0.5125223 0.008317705 0.42335927
000290 02 78 b3 3e b7 a2 7d bd b4 49 cb 3e a2 dc 78 be
       0.35052496 -0.061922755 0.3970467 -0.24302915
0002a0 64 f6 61 3d ed 72 0d bd b5 6e bb 3a 4b 2a e3 be
       0.055166617 -0.03453343 0.0014299961 -0.44368204
0002b0 84 3a 11 bd 00 d0 64 3a 8a 11 0c bd 0b d4 14 3d
       -0.035456195 0.0008728504 -0.034196414 0.036335032
0002c0 72 7b 3a 3d 6c 60 df 3c 20 c8 62 3f d9 81 26 3e
       0.045527883 0.027267657 0.88586617 0.1626047
0002d0 4a 5b 0c 3f d6 a4 a1 bd 5e b3 c2 3e 84 cb 89 3d
       0.54826796 -0.07892768 0.3802747 0.06728271
0002e0 a9 e4 51 be d5 26 46 bc 78 68 3e bd 37 f1 f9 3e
       -0.20497383 -0.012094219 -0.046486348 0.48816845
0002f0 3c 38 a2 3c e6 a3 45 be 6b 70 5d 3f ae c4 46 bd
       0.019802205 -0.19300804 0.8649966 -0.048527412
000300 59 bb 54 3f f0 a1 a3 be 56 7b 98 bf 3b 8a 84 3c
       0.8309837 -0.31959486 -1.1912639 0.016179195
000310 ee 1e 36 bc 52 b8 e5 3e 01 95 a9 3e 5a 2c a1 3f
       -0.011115773 0.44867188 0.33121493 1.259166
000320 f1 0b 04 3e f0 c4 45 be a5 a7 0b bd d9 2b 4f 3e
       0.1289518 -0.19313407 -0.034095425 0.2023157
000330 42 cb 30 bf b1 b8 79 be 4f a9 04 be 94 30 4b ba
       -0.69060147 -0.2438686 -0.12955211 -0.0007751074
000340 d9 70 c3 be f1 dc 58 3d dc 26 cc bc c1 f4 2b bf
       -0.38172033 0.05294508 -0.024920873 -0.6717034
000350 48 29 37 be 5f 1e 73 bc 17 a2 8a 3f 17 19 cb 3a
       -0.17886841 -0.014838784 1.0830716 0.0015495148
000360 38 ae a8 bc f0 3b 39 bd 23 32 3a 3e 3f e0 d8 ba
       -0.020590886 -0.045223176 0.18183188 -0.0016546323
000370 38 a5 45 bd 11 c7 fe 3c 30 6f 3c bb 76 78 03 3e
       -0.048253268 0.031100782 -0.0028752796 0.12838921
000380 cb 9d 75 3b 9b eb 40 bb 82 45 a9 bc 19 20 95 be
       0.0037478085 -0.0029437307 -0.020663027 -0.2912605
000390 d4 77 da bc 8c e9 89 bc 06 e8 06 3a 9f 2e 65 3d
       -0.026668467 -0.016834997 0.00051462685 0.055952664
0003a0 9e 4f d0 3e 73 65 15 bf 56 89 79 bd f0 02 a2 3c
       0.40685743 -0.58357924 -0.06092199 0.019776791
0003b0 50 97 b5 bc 91 4f 86 bd c8 b8 85 bb 12 a8 bc bd
       -0.022166878 -0.06558145 -0.0040808655 -0.09211744
0003c0 c3 dd 8c 3e ba 0a a3 3d 79 e4 93 3d c8 f8 82 3c
       0.2751294 0.0796103 0.07221312 0.015987769
0003d0 5c fb 34 3d 3c 2a 46 3d 1c ac 39 bd 59 4b 93 be
       0.044185027 0.04838012 -0.045330152 -0.28768423
0003e0 0a 21 65 3a ee 9c ac 3e 1c a6 87 3b a5 0e 03 3f
       0.000874058 0.33713478 0.004139675 0.5119422
0003f0 c4 b8 83 bc cc 20 17 3d 26 6d 6e 3e 02 85 1b 3d
       -0.016079314 0.036896512 0.23283824 0.037968643

fc3.bias f4 [128]
000000 dc eb 03 3e bb 51 e5 3d c1 30 f6 3c fa 3c 49 be
       0.12882942 0.111972295 0.030052545 -0.19652167
000010 15 50 24 3e 59 78 23 3d da 9b de 3d 35 b3 17 3e
       0.16046174 0.039909694 0.1086957 0.14814456
000020 3d 14 43 3d 1b 02 0c 3e 5c 7d 82 3b 9e 54 96 bd
       0.047626723 0.13672678 0.003982229 -0.07340358
000030 19 41 07 bc 22 30 97 3b ae 81 6f bd 35 8e a8 bd
       -0.008255267 0.004613892 -0.05847328 -0.08230249
000040 59 ca ee 3d 5e cb 0c be 19 b9 01 bd 46 e7 86 3d
       0.116596885 -0.13749453 -0.031670664 0.06587081
000050 ed 3c 3f be 76 69 13 3d f7 f7 38 bd be 22 de 3d
       -0.18675585 0.035989247 -0.045158353 0.1084647
000060 cb fc 04 3e 4c c5 7c bd 57 30 f9 3c b2 6d 0e 3e
       0.12987058 -0.061711594 0.030418558 0.13909033
000070 98 20 25 3e 15 0c b2 be f8 b9 f3 39 c6 7c 1f 3e
       0.16125715 -0.34774843 0.0004648713 0.15574941
000080 4c ff cf 3d 74 29 b4 3d 65 6c 8a be 64 9b ae bd
       0.10156116 0.08796969 -0.27035823 -0.08525732
000090 e3 3c e5 3d c2 50 09 3e 52 20 19 be 4a 0e 3a be
       0.11193254 0.13409713 -0.14953735 -0.18169513
0000a0 a2 3b 80 3e f7 d4 c4 bc 7f 55 0c 3e e0 88 79 3c
       0.25045496 -0.02402733 0.13704489 0.015230387
0000b0 c8 ee d4 3d 0d b9 d3 3d fd 88 13 be 0b 33 0e 3d
       0.103971064 0.1033803 -0.14407726 0.034716647
0000c0 1c cd c9 3d 08 1c f9 3d 52 3b 90 3c f8 13 51 3d
       0.09853575 0.1216355 0.017606411 0.051044434
0000d0 1d ea e3 3c 72 43 d0 3d 62 cf 5d bd ec c2 e7 3c
       0.027821595 0.10169114 -0.054152854 0.028291188
0000e0 f0 5d 28 3e 81 8a 91 be 98 db b9 bd 87 07 59 3c
       0.16442084 -0.28425983 -0.09075087 0.013246424
0000f0 ca 55 4a bd e4 9b 16 3e c6 2e 91 be e1 c8 07 bd
       -0.04939822 0.14707905 -0.28355998 -0.033150557
000100 3e e6 51 bd 15 f2 a2 3d 48 77 7b be a2 22 b5 3d
       -0.051244967 0.0795633 -0.24557221 0.08844496
000110 d5 90 37 bd a3 57 04 3e 5b 9c 00 be f2 d8 15 3e
       -0.044815857 0.12924056 -0.12559645 0.1463354
000120 c4 32 8c 3d 34 7c a6 3c 54 dd e8 bc 6f 58 f4 3d
       0.0684562 0.020322897 -0.02842585 0.1193093
000130 95 ab 39 3e 2d 34 89 be f8 d6 8c 3d 28 f6 ef bd
       0.1813186 -0.2679762 0.068769395 -0.117168725
000140 44 1a 2c bd 70 99 cc 3c 86 60 05 3e c5 e8 9f 3d
       -0.042017236 0.024975508 0.13025102 0.07808069
000150 9e 36 08 3e 63 28 b3 3e 71 32 3f 3e d0 a6 1d 3c
       0.13302085 0.3499175 0.18671586 0.009622291
000160 f6 17 75 bb 86 79 cf 3c 4f 61 cf 3d b0 eb 83 3d
       -0.0037398315 0.025326502 0.10125982 0.06441438
000170 3c 2e ee 3d 04 9f 5d 3d 2f 48 1f 3e ed 68 34 bc
       0.11629912 0.054106727 0.1555488 -0.011011344
000180 8f be 6b 3d 3e f7 11 3e d0 b2 3c 3d 4b 70 57 bd
       0.057554778 0.14254472 0.046068966 -0.052597325
000190 d0 a6 c1 3d 70 4f d4 bc 60 78 03 3e 9a 1e bd be
       0.09455645 -0.025916785 0.12838888 -0.3693741
0001a0 41 93 11 3e cb 6c 94 3d eb 92 1f 3e 3f dc 76 3e
       0.14216329 0.07247313 0.15583389 0.24107455
0001b0 d9 1e a9 3d 8a 86 2e 3e 71 76 8b 3d 47 e2 56 be
       0.08257837 0.1704351 0.068097 -0.20984755
0001c0 76 f4 24 bb f1 f3 2f bd b9 7b be 3d e6 af 0a 3d
       -0.0025170124 -0.04295725 0.09300942 0.033859156
0001d0 c6 b9 b3 3a 75 a9 cd bd c4 29 ab 3d d3 a5 fd 3d
       0.0013711981 -0.10042087 0.083575755 0.12385144
0001e0 58 f5 88 bd 54 06 59 3e e8 56 24 bd 69 84 9a 3d
       -0.066874206 0.2119382 -0.040121943 0.075447865
0001f0 b4 86 d4 3d 5b 4e 70 3e 8d 7a c3 3d 83 bc 9f 3d
       0.10377255 0.2346739 0.09544859 0.07799628

fc4.weight f4 [7, 128]
000000 62 38 30 bf f0 19 27 bf b6 21 53 bf dd 69 ea bd
       -0.68836033 -0.6527395 -0.82473314 -0.11445973
000010 2b c6 3b bf f2 e0 18 bf 77 f9 20 bf db 0a 19 bf
       -0.73349255 -0.5971824 -0.62880653 -0.5978219
000020 3c 19 10 bf ea bd 0d bf f5 22 4a bd 57 36 31 bc
       -0.56288505 -0.5536791 -0.049349744 -0.010816178
000030 58 8a 01 3d 92 88 4c be 0c 73 54 3d a7 50 99 be
       0.031626076 -0.19973972 0.05186753 -0.29944345
000040 24 8e 77 bf 2c a4 96 be 40 b3 17 3f 53 f3 20 bf
       -0.96701264 -0.29422128 0.5925789 -0.62871283
000050 f0 6a 9d bd 2b d3 18 bf 5a 4a ad be 70 01 17 bf
       -0.07686412 -0.59697217 -0.33845788 -0.5898657
000060 0b 51 00 3f b6 d5 40 3d a0 8b 09 bb 83 34 1e bf
       0.5012366 0.04707881 -0.0020987764 -0.61798877
000070 a6 2a 06 3f 6e 23 fb 3d 01 c6 86 3d 37 29 5b bf
       0.52408826 0.12262617 0.06580735 -0.85609764
000080 31 01 73 bf 90 56 cf 3e d2 ba a3 be 19 ac 47 bf
       -0.9492369 0.4049573 -0.3197847 -0.77996975
000090 7b 7c 22 bf 77 d2 1b bf 61 60 67 bf c9 24 c9 bd
       -0.6347119 -0.6086802 -0.9038144 -0.09821469
0000a0 87 93 7f bf 59 a6 3f 3f 3b 29 03 3f 00 c0 0c bf
       -0.99834484 0.748632 0.5123479 -0.5498047
0000b0 d0 b4 97 bf 16 f2 84 bf 1b 13 41 bd 7e 08 61 3d
       -1.1852055 -1.0386379 -0.04713736 0.05493974
0000c0 7f d7 5d bf f3 11 5a bf 56 c7 2e bf 12 56 88 3d
       -0.86656946 -0.8518364 -0.6827291 0.066570416
0000d0 35 a9 74 bd e9 e1 1b bf b9 94 a3 bc a7 a1 e2 bb
       -0.05973168 -0.60891587 -0.019968377 -0.006916243
0000e0 bb c7 ee 3e 5c ba 1b 3d ea b8 1c 3d 79 33 55 bf
       0.46636757 0.038019523 0.038262285 -0.83281666
0000f0 fc 6c 8f bd 2c 04 8b bf 08 c8 04 bd dc f8 88 bc
       -0.07003209 -1.0860648 -0.032417327 -0.016720228
000100 75 24 4d 3c 08 94 3b bf ff d0 34 bd 7d 03 f3 bd
       0.012520899 -0.7327275 -0.044144627 -0.118659
000110 ed e7 88 3b ae 90 20 bf e2 72 ac 3c 03 d5 06 3f
       0.0041780383 -0.62720764 0.021050874 0.5266878
000120 a2 ad 3c bf 07 a4 48 3d b8 22 85 bd 05 b7 91 3f
       -0.7370244 0.048984554 -0.06500763 1.1383978
000130 f1 d2 33 bf 22 f9 7f bd cb 22 8a bf cb 64 5b 3e
       -0.70243746 -0.06249345 -1.0791868 0.21425168
000140 d6 06 3e bf ba f3 9d 3d 44 bb 8a be 46 59 34 bf
       -0.7422918 0.07712503 -0.27095997 -0.7044872
000150 3b 40 48 bf 1d ad 6d bf 74 8f 11 3f 5d 35 cd 3e
       -0.7822301 -0.92842275 0.5685952 0.40079775
000160 e8 c6 60 3d 72 7d 40 3d 8b ca 08 3f 2e dc 14 bf
       0.05487719 0.046994634 0.53434056 -0.5814847
000170 9c ba 11 3f e7 a7 54 bf e9 33 49 3f d6 d3 50 3d
       0.5692537 -0.830687 0.78594834 0.050983272
000180 2b 59 27 3f 30 07 2b 3f 56 dd bc 3c b4 34 3d 3d
       0.65370435 0.6680784 0.02305476 0.04619284
000190 1b d8 04 3f cc d9 03 3d cc 2d 0d bf 4f cc df 3d
       0.5189225 0.03219013 -0.55148005 0.10927641
0001a0 33 60 d7 3e 3a 4d 25 3f 8c c6 5a bf b5 df 12 3f
       0.42065582 0.64570963 -0.8545921 0.573726
0001b0 39 e3 10 3f 96 fb 24 3f 68 a3 12 bf 33 ec b2 be
       0.56596714 0.6444639 -0.5728059 -0.3494583
0001c0 24 65 28 bf 4e 00 a8 bc 6e 82 68 bf 8e d1 f8 3e
       -0.6577933 -0.020507958 -0.9082402 0.48597378
0001d0 62 9b 23 bf e6 b1 7c 3c 6c f6 23 bf 9d 55 2d bf
       -0.6390897 0.015423274 -0.64047885 -0.6770876
0001e0 65 3c 8f 3d a9 6e 0b 3f a4 4a 28 bd b3 83 5e bf
       0.06993941 0.5446573 -0.041086808 -0.8691971
0001f0 91 c6 02 3f c5 c8 38 3f e3 8a 3e bf 67 ef 64 3e
       0.5108424 0.7218135 -0.74430674 0.2235695
000200 95 d5 09 bf bc bc 26 bf 0d e2 5e bf e8 71 6b be
       -0.53841525 -0.65131736 -0.87063676 -0.2299267
000210 57 c0 54 bf 7e 45 13 bf 23 5b 30 bf 34 9c 2f bf
       -0.8310599 -0.5752791 -0.68889064 -0.6859772
000220 5e 7a 22 bf 77 7c 2d bf e4 4b 6a bd 25 ca 90 bd
       -0.6346797 -0.67768043 -0.05720128 -0.07069806
000230 a6 79 b7 3c f9 4a 92 be 15 8d 9c bd eb fe a5 be
       0.022396874 -0.28572825 -0.07644097 -0.3242105
000240 f9 64 62 bf a2 46 81 be 80 ca 31 3f 88 ee 38 bf
       -0.8843532 -0.252492 0.69449615 -0.7223897
000250 24 35 2d 3e bb 40 eb be 24 d9 87 be 35 0a 2e bf
       0.16914803 -0.45947823 -0.26532853 -0.67984325
000260 0f da 0a 3f f7 a4 0d bd 2a f7 af ba a5 c0 22 bf
       0.5423898 -0.03458115 -0.0013425101 -0.635752
000270 b5 2d fd 3e ae d7 bb 3e ba f4 40 bd 9d db 37 bf
       0.49448934 0.36687988 -0.04710839 -0.7181948
000280 01 96 66 bf 33 13 0d 3f 93 09 5d be 85 cd 34 bf
       -0.9007264 0.5510742 -0.21585684 -0.706261
000290 8f b1 14 bf 7a b0 2f bf a5 cf 63 bf eb 20 0a 3e
       -0.5808343 -0.68628657 -0.88988715 0.1348912
0002a0 18 52 84 bf ef 9e 13 3f 8b 5d 0c 3f 99 8d 28 bf
       -1.0337553 0.5766439 0.54830235 -0.6584106
0002b0 44 9f 97 bf 0b dc 85 bf 9c 18 13 3e 19 fe b5 bd
       -1.1845479 -1.0457777 0.14364856 -0.08886356
0002c0 d3 5b 63 bf 1a 69 63 bf 62 7d f0 be 52 1a a9 bd
       -0.8881199 -0.8883225 -0.4697066 -0.08256973
0002d0 af 87 51 3d 70 4f 0f bf e5 12 7d bd d7 96 3c bc
       0.05115479 -0.55980587 -0.061785597 -0.011510572
0002e0 87 1e b1 3e 57 21 52 3e cf 44 ba bb c4 82 64 bf
       0.34593603 0.2052053 -0.005684472 -0.8926203
0002f0 68 65 4e 3d 52 a2 91 bf b7 bd 5c 3e 3c 70 e3 bc
       0.050389677 -1.1377661 0.21556745 -0.027763478
000300 7b b8 86 3b 6e 72 38 bf 28 22 89 3d f9 aa 7a be
       0.0041113473 -0.72049606 0.06695968 -0.24479283
000310 65 94 95 bd cd 59 12 bf 73 00 08 3d b7 a8 b7 3e
       -0.07303695 -0.57168275 0.033203553 0.35870907
000320 c6 54 13 bf 6f a7 2a 3d 68 a1 dc 3c 28 a2 89 3f
       -0.5755123 0.041663583 0.026932433 1.0752611
000330 c1 31 09 bf d3 75 2f 3e 9a e9 90 bf b9 14 6e 3e
       -0.53591543 0.1713479 -1.132129 0.23250093
000340 91 ad 37 bf 79 de 03 bd 54 75 c0 be be 77 67 bf
       -0.71749216 -0.03219459 -0.37589514 -0.9041709
000350 8b 28 48 bf ed 61 87 bf 32 fc 05 3f 5b 64 f5 3e
       -0.78186864 -1.057676 0.52337945 0.47928128
000360 46 3b 71 3a f4 97 5e 3d 73 3b 9c 3e 33 af 3d bf
       0.0009202253 0.054344133 0.30514106 -0.7409546
000370 c7 68 02 3f 8d f3 50 bf 50 91 45 3f 58 62 89 3d
       0.5094113 -0.8162163 0.77174854 0.06708211
000380 0f c9 1c 3f e4 30 21 3f 20 03 ac 3d d6 30 68 bd
       0.6124429 0.62965226 0.083990335 -0.0566872
000390 40 8c 0f 3f aa 40 6f 3c 7e 7e 21 bf ad ca 5c 3c
       0.5607338 0.014602819 -0.63083637 0.013476056
0003a0 3a 06 10 3f cc f8 12 3f b3 88 2e bf 26 f4 46 3f
       0.562595 0.57410884 -0.68177336 0.7771629
0003b0 0f 83 d4 3e 34 f6 09 3f 78 15 16 bf 2f ea a9 be
       0.4150624 0.538913 -0.5862651 -0.3318648
0003c0 bd b6 23 bf b1 fb 0b 3c f7 fe 4b bf 4b 1a f9 3e
       -0.6395071 0.008543895 -0.7968592 0.48652872
0003d0 ce a0 03 bf 34 1c 6b bd bc 06 2e bf 83 19 15 bf
       -0.51417243 -0.057399943 -0.67979026 -0.5824205
0003e0 db 58 18 bd a9 11 09 3f dc 03 9f bd 29 03 3f bf
       -0.037194114 0.5354257 -0.07764408 -0.74614197
0003f0 9b 0f 07 3f ef 8f 28 3f 1b bf 60 bf 98 8d 0a 3f
       0.5275819 0.65844625 -0.87791604 0.54122305

fc4.bias f4 [7]
000000 b5 54 1c bd d4 55 75 be 13 c6 82 3e f3 ef d5 bd
       -0.03816672 -0.23958522 0.25541744 -0.10446157
000010 81 a0 b9 3c 04 f6 22 bc c7 70 64 bd
       0.022659542 -0.00994635 -0.055771615
