models/lateral_stage1_seed7654_final.pth (torch, 411457 bytes, 8 tensors)

fc1.weight f4 [256, 9]
00000000: d86d 843e c9b7 d6be 833c 72be e091 2ebd
00000010: 9b3b 8ebe 4d84 e5bd e26c 433e 71ba 9f3e
00000020: 19a1 c63e 3628 69be e0f5 333e f3e9 583e
00000030: e429 143d 29e6 1d3f d6f8 663e d0c9 893d
00000040: 5e5e 52be 5603 b7bb 9607 db3d 0a9a 70be
00000050: 2292 a3bd 3cd7 5cbe 2cb8 acbd 4e6f 12bc
00000060: 811b 8c3e 0098 6bbd 9bc5 543e 8909 773e
00000070: 66f1 29be 7500 913e deb5 94be 47ec 08bc
00000080: ba44 803e d028 26be 4825 3bbe 6ba2 333e
00000090: 459e 883e d547 16be e854 11be ddde d03e
000000a0: 4de7 1ebe 2231 f33d 80cc 7ebc 9237 403e
000000b0: 5400 debe 8af7 2f3e e40f 9d3e 4685 1f3e
000000c0: 24ef 9cbe ba1a 5bbe 4b09 af3e eeee 4dbe
000000d0: 24f4 df3d 5ba8 1fbe e9c1 b73e b75e 83be
000000e0: 22a4 6abe 3cce 44be 1ad3 83be 2f25 42bf
000000f0: b4f9 92be 26e4 0bbe 22c1 8abd 7f18 c73e
00000100: 4862 b4be 1b84 333c a669 8d3e 2f22 913e
00000110: 09c0 0cbf fa3f 663e c5c1 a53e 2d81 c53e
00000120: 4ed4 d63d 46c7 afbe 4435 823d 7453 933c
00000130: 4c1f 893e 5972 e63e 7ecc a2be 6835 133d
00000140: 1962 023e 2372 bc3c fc5b b8bd f8f3 5b3e
00000150: e2bd 843e b0bb 733e a749 bcbe 4aba 5a3e
00000160: a34c aabe dddd 31be 2bcb 7c3e dcd0 3bbd
00000170: 7eea 68be 1c3a 9b3e 1b01 fc3e 1851 df3d
00000180: 8a8b 723e 3200 3c3e 6424 16bd dc60 d23d
00000190: c056 7f3e 7d15 803e 0b7e 2bbd 71ec cbbe
000001a0: e449 00be 2dd8 8e3e cc3b 83be cade 34bd
000001b0: 663b ee3e 034d f8bd 3d17 af3e 6699 88bd
000001c0: 1a3a 79bc 2ab3 3f3e 865c 6e3e 98ad 203d
000001d0: a9ab 9fbe 1d92 31be 4daa 363d f0b6 c03e
000001e0: 1ce1 193e 061a 0ebe 787d 29bc 9269 173e
000001f0: 262f 24be f773 563e c3f1 9c3e 7e54 313e
00000200: 0d0f 443e 3ec0 983d 268d 2dbe e1fe 973e
00000210: 18e7 1a3e 404c d2bc c9e3 7f3e f520 bf3d
00000220: 7d82 053c aa8e 7fbe 2176 0fbe 2a30 20be
00000230: c307 a8bd 7a98 87be 90db 853d 60a3 123e
00000240: dd43 b9bd 5737 4a3e f759 523e 3319 70be
00000250: d292 98be e5da 0f3e a02e 05bc 2c0b 813d
00000260: fe31 89be 4bb6 c5be 0649 353e 0497 08be
00000270: f675 823e 4e74 34be ffbc 88bd e610 6b3e
00000280: 40f6 80bc a7c8 debe efb8 c63e 7c40 7cbe
00000290: 9182 c23e fbaf 4fbe 1afb 1b3e e65c f2be
000002a0: b172 903e a2cc 293e ebc3 85bd 138f 5d3d
000002b0: ead7 923d 4e9b a73c 25b8 02bc a61a 29be
000002c0: 97d8 ac3e 0b95 44be 7878 233d 8980 42bb
000002d0: e9e1 dabd 2074 babd 414c 4abe a76f 9dbe
000002e0: 619b 69be 6413 853e 507b d63d ea02 97be
000002f0: bd32 0a3e 3593 6a3e 9cb1 33be 40ae 8f3e
00000300: ef41 d83e d8a5 4ebe 19b6 1abe 808f 2bbc
00000310: 8a34 563e 147f 11bf d30d b8be e4be 103e
00000320: 5e74 e1be 5ab4 bf3e 1364 dbbd 59e9 d0be
00000330: 7c66 913d 5ffb 9ebe 9001 943d 0900 de3e
00000340: 15c5 fc3d 2348 02be f46f 883e 2d7b b9be
00000350: 0b70 0c3e 86b9 7f3e 632c 96be b367 83be
00000360: 30c4 193e 5ecb f6bd 64ac bdbe 964b ef3e
00000370: be67 6c3e aef1 723e 9038 81be c828 693d
00000380: 68d7 ab3e f3a9 52be e5ea 25be 77db aa3d
00000390: 8b12 efbd bf63 b93c e355 80bd db7d 2ebe
000003a0: 3eb8 543e de6c 0e3e ce1d b7bd c1b3 20be
000003b0: 5756 98be 95b6 b83e 31f5 683e 1040 923e
000003c0: 601d a23d adf7 853e 3312 f93d 1fdf 4a3e
000003d0: b85c a43c 3a94 543c 75d5 9a3e dd25 bbbe
000003e0: cf57 84be 7c9f a73d 2ee3 1bbe c1c6 c63e
000003f0: bc00 c4bc 8d6a 693d ac0f b0be ea58 b4bc
0.25865054 -0.41937092 -0.23655896 -0.042619586 -0.2777985 -0.11206875 0.19084504 0.3119693
0.38794783 -0.22769246 0.17574263 0.21182995 0.036172763 0.6167932 0.22555861 0.06727946
-0.2054381 -0.0055851145 0.10694806 -0.23496261 -0.07986857 -0.2156648 -0.084335655 -0.00893767
0.27364734 -0.057518005 0.20778506 0.24124731 -0.16595992 0.2832066 -0.29045004 -0.008357114
0.25052434 -0.16226506 -0.1827594 0.17542426 0.2668325 -0.14675839 -0.14192545 0.4079503
-0.15517922 0.11874606 -0.015551686 0.18771198 -0.43359625 0.17184272 0.30676186 0.15578184
-0.306512 -0.21396914 0.34186777 -0.20110676 0.10935238 -0.15591566 0.3589013 -0.256582
-0.22914174 -0.19219297 -0.25746995 -0.7583799 -0.28706133 -0.1366125 -0.067751184 0.38885877
-0.35231233 0.010956789 0.27619666 0.28346393 -0.5498052 0.22485343 0.32374397 0.38575116
0.10489713 -0.3433172 0.06357816 0.01798413 0.2678169 0.45009115 -0.3179664 0.035939604
0.12732734 0.023003643 -0.090019196 0.21479785 0.2592612 0.23802066 -0.36774942 0.21360126
-0.33261594 -0.1736979 0.24686877 -0.04585348 -0.22745702 0.3031777 0.49219593 0.10904139
0.23686042 0.1835945 -0.0366558 0.10272381 0.24935436 0.25016394 -0.04186825 -0.39828828
-0.12528187 0.27899304 -0.2563156 -0.04415778 0.46529692 -0.12124064 0.34197417 -0.066698834
-0.015211606 0.1872069 0.23277482 0.039228052 -0.31185654 -0.17340894 0.044596005 0.3763957
0.15027279 -0.13877115 -0.0103448555 0.14786366 -0.1603361 0.20942675 0.306532 0.17317387
0.19146366 0.07458542 -0.16948375 0.29686645 0.15127218 -0.025671124 0.24989237 0.09332458
0.008148787 -0.24956766 -0.14009906 -0.15643373 -0.082046054 -0.26483518 0.06536019 0.14320135
-0.09046147 0.19747673 0.20542131 -0.23447113 -0.29799515 0.14048345 -0.008128792 0.06300959
-0.26795954 -0.3861564 0.17703637 -0.13338858 0.25480622 -0.17622492 -0.06676673 0.22955665
-0.015742421 -0.4351246 0.38812968 -0.24633974 0.3799024 -0.20281975 0.15232506 -0.473365
0.28212503 0.16581967 -0.06531509 0.054091524 0.071700886 0.020459797 -0.007978474 -0.16514072
0.33758995 -0.1919748 0.03990981 -0.0029678664 -0.1068762 -0.0910418 -0.19755651 -0.30749246
-0.22813179 0.25991356 0.10472739 -0.2949441 0.13495918 0.22907718 -0.17548221 0.2806263
0.42237803 -0.20180452 -0.15108527 -0.010471225 0.2091848 -0.5683453 -0.35948047 0.14135319
-0.44034094 0.37442285 -0.10712447 -0.4080303 0.070996255 -0.31051156 0.072268605 0.43359402
0.12342278 -0.1272283 0.26647913 -0.36226788 0.13714616 0.24973115 -0.2933074 -0.25665054
0.15016246 -0.12050508 -0.37045586 0.46737355 0.2308645 0.23725006 -0.25238466 0.056923658
0.3356278 -0.20572643 -0.16202886 0.08342641 -0.11673459 0.02263057 -0.062663816 -0.17040198
0.20773408 0.13908717 -0.08941232 -0.1569357 -0.29753372 0.360768 0.22749783 0.285645
0.07915759 0.26165524 0.12161674 0.19811676 0.020063743 0.012974793 0.3024098 -0.36552325
-0.25848243 0.08184716 -0.15223381 0.38823512 -0.023926131 0.05698638 -0.34386957 -0.022015054

fc1.bias f4 [256]
00000000: ea70 17be fbca 85be dfe3 6f3d 16e6 903e
00000010: ecff 9d3e c54f a53c 4513 5e3e 15c5 3b3e
00000020: 5e7c cbbd d80e 6d3e 035b 33bc 8f5c c8bd
00000030: 6d25 1a3e f0d3 d53e 0be3 a6ba f43c 8e3e
00000040: c320 643e aa10 b33d b7c8 623e eb42 bf3c
00000050: b3fc 0a3e 81d2 7c3d 97ad 3fbd c240 6abe
00000060: 25d0 513e bf2a c93d 25ae 013e d1ba d6bd
00000070: 6204 1dbe 5226 d33d 9804 b6be dca6 923e
00000080: d88a 483e aa33 e2bd 20a3 563e 634a 06be
00000090: 3576 d73d 71ef d1be 476d 893e d51b f6bb
000000a0: 8905 af3e 6ed0 dfbd a838 20be add7 f7bd
000000b0: f61d 8bbe dfe1 a7bd 570d e7be ebd8 873e
000000c0: 783c 7ebe 9ce0 253e 07c3 5f3e d711 d03d
000000d0: 2c0e 863d 1e28 fd3d 4494 84be c9ef 8f3e
000000e0: 4a10 773e 21a5 ee3b 8ec5 ce3d ca7d b3bb
000000f0: a45f 063e 8087 53be ca85 1fbe 74bd 0abe
00000100: c698 d7b9 7bf6 fe3d dfac c6bd 77b2 7dbe
00000110: 31b5 babd 2989 96bc 8cc9 0ebe b6be 123e
00000120: f681 93be 3401 57bd 33ff 0fbe b6f1 14be
00000130: ee13 a83d 33d8 6dbe e7f5 a23e 7eef 943e
00000140: 4407 51be 89cc 373e 7398 6abe 570e 883e
00000150: a480 22be d1d1 a53e 83f1 823c 51e9 12be
00000160: da96 af3e eba3 4abe 7b5f 593c d3b2 5e3e
00000170: d43c 97bd 3541 2abe 1289 4e3e 2784 91bd
00000180: 77b1 0a3e 6b79 54be d3bf 1ebe 973c 92bd
00000190: f3c0 973e 172c 8fbe c3e7 31be 196a 3c3b
000001a0: 818d 443e 2222 5dbe 4080 ca3e 3cbf 843e
000001b0: 60d7 323d 6cb7 8c3e 2d3e 943e 00b2 923e
000001c0: 14d4 8fbe 40d3 e73d 6bad 78be 94b6 eb3c
000001d0: 9ef6 efbd 70d6 883d a5d1 823b ac98 1f3e
000001e0: 754e f7bd 8544 2abe ca84 ad3e 3f73 843e
000001f0: e2d1 403e b04d 8e3e f63b eb3d 664a 673d
00000200: 7a39 53bd 20c3 163e eed6 aa3e 90a1 8f3e
00000210: a1d8 9abe ed4b 4f3e 84ed 8bbe f059 91bc
00000220: 1141 803d 9d17 8c3e ec7f d13d 00dc 70be
00000230: 6ec0 8d3e d4b4 503e 7c11 7d3e 9ddd 18be
00000240: 0dcb 8f3e b2b0 a43d 777f 64be 434e 75be
00000250: 8af9 aabd 6e7c 7ebe 9d6d 0f3e 60db ed3d
00000260: 578c fabd 0549 99bd 9250 2bbe a525 01bd
00000270: 8d41 583e c8ba 4dbd 38a9 a83e 9a52 13bd
00000280: 27f1 41be 3d3c 833e 5eee 263d 15fa 153e
00000290: 4a60 6d3e bfbb b53d 3d73 ae3c 343f 79be
000002a0: 8bd1 e73d aab5 773e d573 eabc 77d9 183e
000002b0: e3cd 35be 03d5 00bd f9d2 c63d c8c0 85bd
000002c0: e10d bbbe 5d5e 24be 91b4 c93d beef 903e
000002d0: 3cb0 5abd a03a bbbe f134 c73d 685d 2abc
000002e0: 60bb 673e dc26 8e3e 6d31 b6be 0a86 6abc
000002f0: fd88 64be e378 7bbe 8b96 9abe c053 b43e
00000300: 49d6 39be 4378 9dbe d4b8 3f3e 4a2d efbd
00000310: 25f5 3f3e 439d a63e c645 d43c 3d7b 773e
00000320: ece7 8dbe 9b17 2a3e 319a 733e ec7a 19be
00000330: e7fa 69bd 7f8f 73be cc59 93bd 2589 9d3e
00000340: 1a1e d2be 6d48 af3d 5de2 a33e 6e4f 103e
00000350: f150 9a3e 6b92 9bbe 192d 06be 0b3b a43e
00000360: afde d7be 24ae cf3e 2510 033e a71f 51bd
00000370: 155a c73c 1113 e8bd 969a 14be 85d2 b5bc
00000380: 5fea a83c 0311 08be ce95 6a3e 78ea 48be
00000390: 8cff 623e 4ac3 f03d f031 0e3e 912f c6be
000003a0: 54f9 4b3e 66e9 963e 65a0 9e3d d0a5 7e3e
000003b0: 4542 11be 356d 933e 2c9c 543d b9af 963e
000003c0: bdc5 573d edf6 6a3d 49e4 ce3e 9d6b a83e
000003d0: dbc6 a93e 070b 85be 3b61 903e 3985 9dbe
000003e0: 1778 283e 1cfe 803e 6c9c a13d 58b2 1fbd
000003f0: ad06 523e 37a6 6abe 31f8 173e 6370 883e
-0.14789167 -0.26131424 0.058566924 0.28300542 0.30859315 0.020179639 0.21687038 0.183369
-0.099358305 0.23150194 -0.010946992 -0.09783279 0.1505334 0.41763258 -0.0012732459 0.2778088
0.22278123 0.08743413 0.22146879 0.023347339 0.1357296 0.06172419 -0.046796408 -0.22876266
0.20489557 0.09822606 0.12664087 -0.10484851 -0.15333703 0.103100434 -0.3555038 0.2864293
0.19584215 -0.110450104 0.20960665 -0.13114314 0.10520593 -0.41002992 0.26841184 -0.007510642
0.3418391 -0.10928427 -0.15646613 -0.12101684 -0.27171296 -0.08197378 -0.45127365 0.26532683
-0.24827754 0.16198963 0.21851741 0.10159653 0.06545672 0.12361167 -0.25894368 0.2811263
0.24127308 0.0072828685 0.10096274 -0.0054776417 0.13122422 -0.20657158 -0.1557838 -0.13548833
-0.0004112182 0.12449356 -0.09700941 -0.2477511 -0.09116591 -0.01837595 -0.13944072 0.14330563
-0.2881009 -0.05249138 -0.14062195 -0.1454533 0.08206926 -0.23227005 0.31828234 0.29088968
-0.20412928 0.17949118 -0.22909717 0.2657344 -0.15869385 0.3238664 0.015984302 -0.14346816
0.34294778 -0.19789092 0.013267393 0.21747904 -0.07384649 -0.16626437 0.20169476 -0.07105284
0.1354426 -0.20749442 -0.15502863 -0.07140463 0.29639396 -0.27963325 -0.17373566 0.0028749763
0.19194604 -0.21595052 0.39550972 0.2592715 0.04366243 0.2748369 0.28953686 0.28651428
-0.2809149 0.113195896 -0.24284904 0.028773583 -0.1171696 0.06681526 0.0039922767 0.15585583
-0.12075511 -0.166277 0.33890373 0.25869176 0.18830064 0.27793646 0.11486046 0.056467436
-0.051568486 0.14722872 0.33367103 0.2805295 -0.302434 0.20243807 -0.27329648 -0.01774308
0.062624104 0.27361766 0.10229477 -0.23521423 0.27685875 0.2038148 0.24713701 -0.14928289
0.28084603 0.080415145 -0.22314249 -0.23955636 -0.08348377 -0.24852154 0.14006658 0.11614108
-0.12233799 -0.074846305 -0.16729954 -0.03153004 0.21118756 -0.050226957 0.32941604 -0.035967447
-0.18939649 0.25631896 0.04075467 0.1464618 0.23181263 0.088737 0.021295184 -0.24340516
0.11319264 0.24190393 -0.028619686 0.14926706 -0.17754321 -0.031453144 0.097082086 -0.06530911
-0.36534026 -0.16051622 0.098488934 0.2830791 -0.053390726 -0.36568165 0.09726895 -0.010398246
0.22630072 0.27764022 -0.35584584 -0.014314184 -0.22317882 -0.24557833 -0.3019298 0.35220146
-0.1814815 -0.30755815 0.1872285 -0.1167856 0.18745859 0.32541856 0.025912177 0.24168105
-0.27716005 0.16610567 0.23789288 -0.14988297 -0.057124045 -0.23785208 -0.07194862 0.30768695
-0.4103859 0.08558736 0.3200864 0.140928 0.30139878 -0.30385146 -0.13103141 0.32076296
-0.42162082 0.40562546 0.12799127 -0.051055577 0.024334947 -0.11331762 -0.14512095 -0.02219511
0.02061957 -0.1328774 0.22908708 -0.19620693 0.22167796 0.117559984 0.13886237 -0.38708165
0.1991933 0.29474944 0.077454366 0.2486794 -0.14185436 0.28794256 0.05190675 0.2943094
0.052678812 0.057364393 0.40408543 0.32894602 0.33159527 -0.25984976 0.2819918 -0.30765703
0.1645206 0.2519387 0.07891163 -0.03898844 0.20510359 -0.22914968 0.14840771 0.26648244

fc2.weight f4 [256, 256]
00000000: f4df 60bd aec6 53bd c9b7 283d 49dc 163d
00000010: ede4 843c 3d85 9bbc 8c88 633d d862 893c
00000020: ca04 57bd 8a1b 3d3d c07c 303d 1afa 67bd
00000030: a1e8 513d 678e 673c 7594 4f3d f3bd 28bd
00000040: 69f0 c13a e3b6 f7bc c86f eb3c 5597 febc
00000050: b162 ffbc e4e0 88bd d8c3 4bbd bcdb 84ba
00000060: 32b7 03bd 517f f03b 9051 923c 6f31 f23c
00000070: 4e2b 483d d9a7 7ebd d4bb 013d c18b 47bd
00000080: 5c70 5fbd d692 4abd 9685 2cbc d8c2 c0bc
00000090: 56bb f5bc 7079 c0bc 8f50 963c c2d1 543d
000000a0: 86e5 b8bb 24da 7dbd 58d9 05bd cc42 19bd
000000b0: 56d5 0d3d c806 9bbc 7105 2dbb 68d8 383c
000000c0: 5045 2fbd 20b9 613d aa58 25bd ca37 463c
000000d0: ba46 f0ba e4d4 c33b d07a 82bc 843b 48bd
000000e0: 3e1b c0bb 1c48 2ebd 38fa 27bd cddb f33c
000000f0: 57b0 503d 30e1 53bc dec1 743c f08b 243c
00000100: 490e 3cbd 42b6 4fbd 38a5 133d 7ebf 48bd
00000110: ea65 2cbd 56d1 50bc 5aaf 60bd a7ea a1bc
00000120: a0a5 5abb 76f0 03bd 9d82 25bd cc67 90bc
00000130: 283c 3dbd 4d6a c2bc c519 1ebd c94b a9bc
00000140: c4db 5bba 1bc4 b9bc 7030 21bd 6960 4f3d
00000150: 8b59 1cbd 5c33 0fbd b8ad 81bc be55 12bd
00000160: f542 0e3c 3809 21bc 7bf7 113d b6f1 2f3d
00000170: c820 3f3d 1e9a 0b3d 746e cf3c 605b 6fbb
00000180: e85a 57bd 804b 8cba 32f5 5dbd 3c4a a23c
00000190: d397 49bb 6ea7 5f3d 1097 5e3d 84e4 10bd
000001a0: 6463 323d 71fa c0bc 457b 4dbb dbed 54bd
000001b0: b842 57bc ca03 5f3c de2a 2e3d 057b f8ba
000001c0: d646 763d 2624 fabb 902d 12bc d8cd 093c
000001d0: a897 cdbc ae90 f8bc dc9d 57bd 7eda 5dbd
000001e0: 083e 7dbd 709c bc3c 6c28 773d 27da 2a3d
000001f0: 0ed9 2c3d 79bb c5bb 2e6e 5a3c f4cd 60bd
00000200: f718 a6bb d5ca 08bd 2813 3cbc fc4d 77bd
00000210: 2868 1c3d 08f5 003d c6fb 373c ba3f 72bd
00000220: 862a 0b3d 2d2e ad3c 9ab9 843c 4028 1cbd
00000230: f860 2f3d c9e0 40bd 8c19 253d 8001 5e3a
00000240: 7e5f 8b3c 002a 0abb 6edc 60bd fad7 dc3c
00000250: 63b4 c5bc 0b91 54bd 248c 893c 58c5 253d
00000260: b6cb 71bd 16c1 78bd 95d1 de3c cc42 d63c
00000270: 9e94 4d3d 0c4e 58bd 883c 14bd fe1f 07bd
00000280: 681c 6e3c 72b4 753d ad93 a9bc e81b 40bd
00000290: 182c 3a3d 64d6 8e3c ae4a 75bd 60aa 39bb
000002a0: fe68 3a3d c0bc 153d 6878 18bc 8528 ef3c
000002b0: 3ae4 8bbd 8e6f 87bd 7066 703d 0178 2a3d
000002c0: 5d81 0dbd 6b6b 273d 61b7 553c 188b 2cbd
000002d0: b825 36bc fcb8 2b3d a0f0 143d 1005 13bc
000002e0: fff3 113d abfb 203c 8e6c 15bd 0b3b 77bd
000002f0: a493 d43c dca4 7bbd a082 563d 7e6e a6bc
00000300: b8ef 543c b771 0f3d 9e30 0ebd e0e3 223d
00000310: 5dc8 bf3c cc70 c1bc 9efa 073d 7ed3 98bc
00000320: 7c74 4f3d ca1e 12bd b052 1abc a173 443d
00000330: 0cf7 a53c f818 32bd f4be 7d3d 8333 0a3d
00000340: c853 1f3d f0d3 de3b 20a5 fd3c d004 9cbc
00000350: fe45 103d 4af2 16bd 3caa 7c3d b486 583d
00000360: 34ae 7fbd 5089 253d d040 fbbb 6423 d1bc
00000370: 8412 4cbd c0a4 423c 002c f2bb b6c4 6f3d
00000380: e2d0 193d ecd7 f3bc d8fd c03b a46b 943c
00000390: 9ce6 953b 5c25 b8bc bc22 b93c a0a9 82bd
000003a0: c550 7c3c 4b14 a03c 8079 5b3d 6010 64bd
000003b0: 9d68 d83c d395 7ebd bc60 243d 242e 1d3c
000003c0: 7a8d 7bbd 0033 00bb 4cc4 2ebd 6f66 55bd
000003d0: 003b bd3c 72b4 10bd 43fb 06bd 8a43 86bd
000003e0: e901 1cbd 67c9 59bd 3842 bf3c 2784 4bbd
000003f0: f01a 233c da40 463d c8b2 89bd 9e88 6bbd
-0.05490108 -0.051703148 0.041190896 0.036831174 0.016222442 -0.018984431 0.055550143 0.016770765
-0.0524948 0.04616884 0.04308772 -0.056635 0.051247243 0.014133072 0.05067869 -0.041196775
0.0014796379 -0.030238574 0.028739825 -0.03107802 -0.03117499 -0.066835195 -0.049747318 -0.0010136287
-0.03215713 0.007339396 0.017861158 0.029564587 0.048869424 -0.06217179 0.031673267 -0.048717264
-0.054550514 -0.04945644 -0.010529896 -0.023530409 -0.029996555 -0.023495406 0.01834896 0.051957853
-0.0056425957 -0.061975613 -0.03267798 -0.037417218 0.03462728 -0.018924132 -0.0026400948 0.011282064
-0.04279071 0.05510819 -0.04036776 0.012098262 -0.0018331625 0.0059763063 -0.015927702 -0.048884884
-0.0058626225 -0.042549238 -0.04101011 0.029767895 0.05094942 -0.012932107 0.0149388 0.010043129
-0.04591206 -0.050710924 0.036046237 -0.049010746 -0.04208938 -0.012745222 -0.05485473 -0.019765211
-0.003336288 -0.032211743 -0.040407766 -0.01762762 -0.046199948 -0.023732329 -0.038598794 -0.02066602
-0.00083869346 -0.022676518 -0.039352834 0.050629053 -0.038171332 -0.03496109 -0.015829906 -0.0357263
0.008682956 -0.009828858 0.035636406 0.042955123 0.046662122 0.034082524 0.025321223 -0.003652297
-0.05257693 -0.0010703653 -0.054188915 0.019810788 -0.003076066 0.054603033 0.054343283 -0.03537418
0.043551818 -0.02355692 -0.0031353992 -0.05198465 -0.013138466 0.013611743 0.04252135 -0.0018957561
0.06012615 -0.0076337038 -0.008921996 0.008410893 -0.02509673 -0.030342426 -0.05264078 -0.05416345
-0.061826736 0.023023814 0.060341284 0.041711953 0.042199187 -0.0060343114 0.013331933 -0.054883912
-0.005068894 -0.03339656 -0.011479177 -0.060377106 0.03818527 0.03148368 0.011229461 -0.059142806
0.0339761 0.021140182 0.016201783 -0.038124323 0.042817086 -0.04708937 0.040307567 0.00084688514
0.017013308 -0.0021082163 -0.054897718 0.026958454 -0.024133867 -0.051896136 0.016790457 0.040471405
-0.059032165 -0.060731016 0.027199546 0.026154898 0.05019056 -0.052808806 -0.03619054 -0.032989495
0.01453314 0.05998654 -0.0207003 -0.046901613 0.045452207 0.017436214 -0.059885673 -0.0028330311
0.045510285 0.03655696 -0.009306051 0.029194126 -0.0683064 -0.06613074 0.058691442 0.04161835
-0.0345472 0.040873926 0.013044209 -0.042124838 -0.011117391 0.04192446 0.03636229 -0.008973375
0.035633083 0.009825627 -0.03648048 -0.060359042 0.025949307 -0.06143652 0.052370667 -0.020316359
0.0129966065 0.035020556 -0.034714334 0.0397681 0.02341097 -0.023613356 0.03319799 -0.018655535
0.050648198 -0.035673894 -0.009419128 0.047961835 0.020259403 -0.043480843 0.061949685 0.03374053
0.03889826 0.0068001673 0.030962527 -0.019045264 0.035223 -0.03685216 0.061685786 0.052862838
-0.062421992 0.040414155 -0.0076676384 -0.02552957 -0.049822345 0.0118801 -0.007390499 0.058537208
0.03755272 -0.029766046 0.0058896355 0.018117733 0.00457461 -0.022478752 0.02259957 -0.0638001
0.015400116 0.019540926 0.05358267 -0.05567968 0.026417071 -0.062154602 0.040131316 0.00959352
-0.06141422 -0.0019561648 -0.042667672 -0.05209964 0.023099422 -0.035328336 -0.032954466 -0.06555851
-0.03808776 -0.053170588 0.023347005 -0.049686577 0.009955153 0.04840169 -0.06723553 -0.057503335

fc2.bias f4 [256]
00000000: 46ef 63bd 5f27 a5bd 8a50 4239 df09 933d
00000010: 5b7d 92bd 10cb a2bc 1f50 0ebc 1ea5 28bc
00000020: 3023 bdbd 37e0 143d af53 57bd 9d49 983d
00000030: 9cf2 8fbc 3737 243d dff2 b1bb 747f aebc
00000040: 98c6 853d 72f3 8ebb 3b5f 793d e6e7 8bbd
00000050: 20a4 1e3d eace eebd dd47 32bd 21c7 183d
00000060: b4c1 aebc 005e 1b3d 8605 0d3c 3421 eb3c
00000070: 6ade 393e 9bb0 38bd d6f5 d73d 96c0 903d
00000080: 4661 883d 6952 a2bd 9bd7 eb3c 3781 33bc
00000090: 7c0a be3c 64dc a83c 6d2b 483d a8e9 78bd
000000a0: 79c6 6d3d 0b2c aabc 1eb7 f33c fe38 fe3d
000000b0: a99e ad3b 54bf 023e 4d68 e03d 53bb c03d
000000c0: f8f2 59bd d82b 613b 37cb 2c3d 399d 8dbd
000000d0: ad1b 4d3c 37a9 a1bc 3dee 61bc c714 46bd
000000e0: e7ae 5b3d 7974 be3d 5db5 b03c a949 323d
000000f0: 52b6 92bb f7d6 b43d 8267 0a3d dc0a 903c
00000100: faa7 ad3d 78a9 513d 4f02 36be 3e81 c53c
00000110: 482d cd3d 720a 7fbc c988 293d 3055 cfbc
00000120: e619 3d3d 60a0 803d b590 74bc b607 093d
00000130: 279c 17bc 37f1 213d 7303 a5bc 8791 34bd
00000140: 3186 cb3d 8d78 3f3d 335c e0bb 7e93 3f3c
00000150: 8701 a13d 4e0c 033d 639e 543d 12c4 c3bc
00000160: 7b41 5cbd 80c8 5dbd 82db 1f3d d091 6ebc
00000170: eb70 dc3c e88f a0bc dc89 673d b893 903c
00000180: 04f2 3d3d a644 853d eefe 7bbd 3436 7e3d
00000190: 8f1f 49bd 2139 02bd fd5f b13d b63d a53d
000001a0: b58f 253e 98c3 86bd aee3 073d eb74 0cbd
000001b0: 3dea 8abc 0cee 3bbd 6d2e 503d ba7a c23d
000001c0: 1aa1 be3d 77e3 44bd 3009 873d 00c1 823d
000001d0: a276 64bd bf57 a43d 0c8f b1bb ca59 773c
000001e0: b512 5ebd 4962 79be 831b 86bd dace ae3d
000001f0: 7ba6 91bc 9c2c d6bc bee6 3d3d da8a 963d
00000200: 2e2d 183c 12d5 e4bc 5c2d e93c 9d94 ac3d
00000210: d554 743d c96c a33b 3cfb 58bd 3044 0cbc
00000220: f175 7e3d a2ac 85ba 7efe b13d e61b 39bd
00000230: fea4 3e3d c3e7 88bd ee25 57bd 523d ae3d
00000240: 14f4 cabd 23e4 92bc b2c4 1bbc 0ccd 10bd
00000250: fedc 3f3b 5986 623d 1478 bc3d 3244 6c3c
00000260: c8b3 333a 1f8c c33d 81f1 b53c 7486 0c3e
00000270: f147 433d e34b 623d c8f0 973d 1fd5 773b
00000280: 0be3 183d 9784 443c f439 e2ba d470 553c
00000290: 18a4 e6bb 5079 3bbd 19c0 323d fa71 6139
000002a0: ff05 2cbd f398 df3d 6969 5bbd e58f 52bc
000002b0: 991a 933c e366 823a dfea d53d bb98 a0bc
000002c0: 08bb c1ba f22d 3f3d 4ac0 6f3d 9e48 103c
000002d0: d543 b73c 10f4 493c 4022 78bd 7324 633d
000002e0: 5ec1 a1bd 4701 703d bbaf f5bc 315e 9a3d
000002f0: b1b9 8f3d 5a4c 793d 56eb 9d3d e2e4 1b3d
00000300: 6d0a c53b 96da 9e3d 65df 1ebb 9cd7 253d
00000310: 809e 88bc 78f5 263d d846 c2bc db04 56bd
00000320: 17fb aeb9 4971 87bd e3d6 ab3c a3eb 673c
00000330: 9ec7 713c 9648 73bb c67f 2abd d294 b73d
00000340: 21ba 933d 676a 2d3d f0a1 65bb 3b6e 1bbc
00000350: db1f 193d 90e2 8e3d afc1 183d 75ca b13b
00000360: 8026 c93b ec68 c43c 052f 533d 4026 7e3c
00000370: d19e d8bb 3e1b 55bd 3c5a b73d 9571 06bd
00000380: 49e1 233d b87a 203c 3a6d c03d 135c 873c
00000390: a300 043e 976b 1c3d 71e7 7a3d bc2f 5cbd
000003a0: 4fd7 b53b a116 ad3d b7f4 63bc e757 c93d
000003b0: 4611 2fbe 3131 aebc ee0f 2a3d 3805 b5bc
000003c0: eb59 5ebc 7f30 a0bc 0bf8 7c3d 5ee5 58bd
000003d0: 140c d2bd bfdc f6bb 4b29 d83c 0e7a f63b
000003e0: 67ab f93b e233 6f3d 580b 7b3b 535d 2e3d
000003f0: f9a5 713d b841 d43c 2194 07bd ccef 983c
-0.05564811 -0.0806415 0.00018531285 0.07179617 -0.07152816 -0.019872218 -0.008686095 -0.010293273
-0.09235227 0.03634664 -0.05257004 0.074359156 -0.01757174 0.04009172 -0.005430564 -0.021301009
0.065320194 -0.004362517 0.060881834 -0.068313405 0.03873074 -0.116605595 -0.043525565 0.03729928
-0.0213326 0.037931442 0.008607274 0.028702356 0.1815125 -0.0450903 0.10544936 0.07067983
0.066591784 -0.07925875 0.028789332 -0.0109561 0.023198359 0.020612903 0.04886954 -0.060769707
0.058050606 -0.020772954 0.029750403 0.12413214 0.005298455 0.12768298 0.10957394 0.09410729
-0.05321023 0.0034358408 0.04218599 -0.069147535 0.012518805 -0.019734008 -0.013789711 -0.04835966
0.053633597 0.09299559 0.021570856 0.04352728 -0.0044773007 0.08830064 0.03379012 0.017583303
0.084793046 0.05118701 -0.17774318 0.024109479 0.10018402 -0.015566455 0.041390214 -0.025309175
0.046167277 0.06280589 -0.014927079 0.03345462 -0.009253538 0.03953668 -0.020143246 -0.0440841
0.09937704 0.046745826 -0.0068469285 0.01169288 0.078616194 0.031994157 0.05190886 -0.023897205
-0.053773385 -0.05414629 0.0390277 -0.014561132 0.026909312 -0.01959987 0.056527957 0.017648563
0.046373382 0.06507234 -0.061522417 0.06206341 -0.049102362 -0.031792764 0.086608864 0.08068411
0.16168101 -0.06580275 0.033176117 -0.03429119 -0.016957397 -0.045881316 0.050825525 0.094960645
0.093080714 -0.04806849 0.06593549 0.06384468 -0.0557772 0.08024549 -0.005418664 0.015097091
-0.05421706 -0.24353899 -0.06548216 0.085355476 -0.01777958 -0.026144318 0.04636263 0.073507026
0.009288115 -0.027933631 0.028464012 0.08426783 0.059651215 0.0049873334 -0.05297397 -0.008561179
0.062124196 -0.0010198543 0.08691119 -0.04519262 0.046544068 -0.0668483 -0.052526407 0.0850779
-0.099098355 -0.01793105 -0.009507345 -0.035351798 0.0029276009 0.055303905 0.092025906 0.014420556
0.00068550976 0.0954821 0.022209885 0.13723165 0.04767603 0.055248152 0.07418972 0.003781624
0.0373259 0.0119945025 -0.0017259703 0.013027389 -0.0070386045 -0.04576999 0.04364023 0.00021500132
-0.041997906 0.109178446 -0.053567324 -0.01285169 0.017957019 0.0009948876 0.10445189 -0.019604078
-0.0014780471 0.046674676 0.05853299 0.008806376 0.022371212 0.012326255 -0.06057954 0.055454683
-0.0789821 0.05859497 -0.029991021 0.07537497 0.0701784 0.06086383 0.077109024 0.038060077
0.0060132057 0.07756536 -0.002424204 0.040488824 -0.016677141 0.04076144 -0.023715422 -0.052250724
-0.00033374943 -0.06613404 0.02097649 0.014155301 0.014757065 -0.0037122122 -0.04162576 0.08963932
0.07213236 0.0423378 -0.003503915 -0.00948673 0.037383895 0.06976807 0.037294086 0.005425746
0.0061386228 0.023975812 0.051558513 0.015512049 -0.0066107293 -0.052027933 0.08952758 -0.032823164
0.04000977 0.009794883 0.09395833 0.016523397 0.12890868 0.038188543 0.061255876 -0.05375646
0.0055493484 0.08451582 -0.013913325 0.09831219 -0.17096433 -0.02126369 0.041519098 -0.022097215
-0.013571243 -0.019554375 0.06175999 -0.052953117 -0.1025621 -0.007533639 0.026386878 0.0075218743
0.0076193097 0.05839909 0.0038306322 0.04256947 0.058996174 0.025910243 -0.03310025 0.018669032

fc3.weight f4 [128, 256]
00000000: 6912 febc 9947 76bd 41a9 923b 8eee a93c
00000010: 3170 2dbb b8a6 cdbc a696 403d 8e1e 6a3d
00000020: f029 0bbe a379 bc3c 67e7 12bd d799 ee3c
00000030: 23db 98bc dc67 1c3e 6894 243c 4ea9 69bd
00000040: aa2a d43d 8a33 2b3e 5849 80bd 1ed2 593a
00000050: bcda 35bd c4f9 01be 6f79 84bd 40a3 a73b
00000060: 3415 c53c 1a0f 4bbc e33d 373d 2ee3 cbbb
00000070: 86bb a23d 6a32 ecbc 4e7c 30bd 011f 98bd
00000080: e1ce 51bd bd3a 883d b3df 21be 4dcf 57bd
00000090: 9628 693e 5902 1ebe f860 aa3c 3b71 ae3c
000000a0: 9ecc 933d addb 3e3d 3453 013b 3270 293c
000000b0: 1428 cbbc 26a3 c93d e9f3 2a3d af11 8cbd
000000c0: d863 81bd 9e31 6ebd ecaa ae3d 2f07 0bbd
000000d0: df59 c9be 18aa 8ebb 0a1a a73d 3b38 8f3d
000000e0: d44d 06bd a597 d7bb 92ba f7bd 606f e53c
000000f0: c886 93bc bf07 bcbd 215c f93d ce69 4f3e
00000100: 0ece 1abd 21e7 db3d 7db0 7dbe 95b6 35be
00000110: eca1 82bd 486d bbbe 0ff2 ce3c 37ad 323d
00000120: 0739 c6bd 3674 cbbc 8106 80be 1e91 ccbd
00000130: 7860 05bd 335c 70be 73c2 be3c a7af 9ebd
00000140: 3b3d edbd c490 99bd 1e9f e8bb 6dcc dbbd
00000150: 2d99 05be d4a6 f6bc 8e84 0c3d 0826 7fbe
00000160: 1d4d ef3c 2048 993d 2d97 9e3d c159 aa3c
00000170: cdab e7be ab4e 37be 9087 0438 eb63 e9bc
00000180: 0479 3fbd a902 30bd 698d 1fbe aa33 a7bc
00000190: 0bcf fe3d 0e20 63bd 9539 8e3d d564 c0bd
000001a0: e0af 8d3c 6334 d23b d4c2 5ebc a8ea 243e
000001b0: b9e0 70bd 1877 873c b45a 793d 8a0f 8e3c
000001c0: abae 9ebd 0022 46be b446 32be e253 be3d
000001d0: c9e9 3abd 5e7c 0bbf 13ba 70be 34d6 cabe
000001e0: 4ea0 b43c ea10 5ebe 2fb4 743c 9213 43bd
000001f0: 6d4b 33be 8097 8bbb 9187 d93d 4db4 b5b8
00000200: 36d9 39bd a56d 50bd ebe2 4a3c ade7 a23d
00000210: 3a88 eabd ec1d d83c f434 4b3d b912 e2bd
00000220: 6901 fdbc 8f6c fa3b df09 57bd 0852 b63c
00000230: fb82 a1bc 1fba 0abd bcd9 50bd 3e13 3cbd
00000240: 4687 6a3e 1f74 32bd 4f04 c83b 7bf4 88bd
00000250: 0cb8 123e 0a2e 83ba 1d57 423e e0cc 123e
00000260: 7590 77be 7777 463c 0226 28bd 9597 933d
00000270: 741b 05be a9c1 8bbd 2c8b a03d a641 41be
00000280: 5ea4 883a 4a72 0b3e 71e0 af3d e3d3 c1bd
00000290: 545d 6a3d f27e 92bc 82bb 863d 7432 003d
000002a0: 688b c8bc 96fd a4bc 56d5 a43c ec74 82bc
000002b0: 7506 5ebd cd14 87be b84d 39bc 3225 00bd
000002c0: 69d6 5dbb 71ad a23c 2a6b 74bd c823 88bd
000002d0: 463b 13be 006e b3ba 0713 a6bd f025 213d
000002e0: 13d0 853d 6264 0dbe 3db0 a2bc 8a54 163d
000002f0: c16c a03d d8fa c43c 3e0d c5bc 7372 e43b
00000300: aa12 203e 2563 23bd 837d f63d 7e57 afbe
00000310: f722 063d 33e9 98be b45b 5e3d fa0a 243b
00000320: 2aa9 cfbb 68e0 6e3c 7940 44bd bb0b d33d
00000330: 1f36 f2bc 8e65 323c 986a a43d 3a07 0cbe
00000340: 3dee ca3d ae2f 683c e9c5 4dbc eca8 1cbb
00000350: a67d c13c 8337 c03d d2c2 b3bc 6063 0bbe
00000360: 2069 cfbd e856 713d d0e1 a53d 70ca 8d3d
00000370: 0bb7 3b3c 872b 65bd a8fa 783d 98ea d93d
00000380: 10ed 5b3d c9a5 e33c bfd0 ebbc 6304 0abf
00000390: 7790 183e 481d 143e 1172 913c 088e a4bc
000003a0: 43fa 503d 3d53 71bc ac3b 89bd 5bed d13d
000003b0: 5295 92bd 6a56 943b e1c0 1dbe 164e bcbd
000003c0: 34c8 253e a16e 81be 9b7e 00be 844e 98bb
000003d0: 5b1d 52be bdd6 1cbe 497b c4bd b305 b53d
000003e0: 4023 343d b82d c4be 57b9 a9bd ffa2 aa3d
000003f0: a155 073e 045f 523d be88 ea3c 887c 05bc
-0.031014638 -0.060126875 0.004475743 0.020743635 -0.0026464576 -0.025103912 0.04701867 0.057158045
-0.13590217 0.02300722 -0.035865214 0.02912609 -0.01865918 0.15273994 0.010045148 -0.057046227
0.103597 0.1671888 -0.06263989 0.0008309203 -0.044398054 -0.12692934 -0.06468474 0.0051158965
0.024057962 -0.012393737 0.044736754 -0.0062221503 0.079459235 -0.028832633 -0.043087296 -0.074277885
-0.051222686 0.066518284 -0.1580799 -0.05268793 0.22769389 -0.15430583 0.020798191 0.021294227
0.07216762 0.046596218 0.001973343 0.010341691 -0.024799384 0.09845571 0.041736517 -0.068393104
-0.06317872 -0.058152787 0.085286945 -0.033942398 -0.3932638 -0.004353773 0.081592634 0.06993147
-0.032789066 -0.0065793567 -0.12096132 0.02800721 -0.018008605 -0.09181165 0.12175775 0.20255205
-0.037794165 0.10737444 -0.24774356 -0.17745431 -0.063785404 -0.36606812 0.025261907 0.04362222
-0.09678846 -0.024835687 -0.25004962 -0.099886164 -0.032562703 -0.23472671 0.02328608 -0.07748347
-0.115839444 -0.07498315 -0.0070990464 -0.107323505 -0.13046713 -0.030108847 0.0343061 -0.24916852
0.029211575 0.0748446 0.07743678 0.020794751 -0.4524826 -0.17901103 3.1597505e-05 -0.028490027
-0.04674627 -0.042971287 -0.15581287 -0.020410378 0.12441834 -0.05545049 0.06944577 -0.09394232
0.017295778 0.0064149364 -0.013596255 0.1610514 -0.058808062 0.01653628 0.060877517 0.017341394
-0.07748159 -0.19348907 -0.17409784 0.09293343 -0.04563311 -0.54486644 -0.23508482 -0.3961655
0.022049095 -0.2168614 0.014935537 -0.047626086 -0.17509241 -0.0042600036 0.1062156 -8.664336e-05
-0.045373164 -0.050885815 0.012383203 0.07954345 -0.114517644 0.026381455 0.049611047 -0.11038727
-0.030884461 0.0076423357 -0.05249965 0.022255912 -0.019715777 -0.033868905 -0.050988898 -0.04591679
0.22903165 -0.043567773 0.0061040292 -0.06687256 0.14328021 -0.0010008228 0.18978544 0.14335966
-0.241762 0.012113444 -0.041051872 0.07206646 -0.12998754 -0.06824047 0.07839045 -0.18872699
0.0010424962 0.13617817 0.08587731 -0.09464242 0.05721791 -0.017882798 0.06578733 0.031298116
-0.024480537 -0.02014045 0.020121258 -0.015924893 -0.054205377 -0.26383057 -0.0113100335 -0.031285472
-0.0033849722 0.019858094 -0.059672512 -0.0664745 -0.1437808 -0.0013689399 -0.08109098 0.03934282
0.06533828 -0.13807824 -0.019859428 0.036701716 0.07833243 0.024045393 -0.024054166 0.006971651
0.1563212 -0.039889473 0.12035658 -0.3424644 0.03274819 -0.29865417 0.054286674 0.0025030957
-0.0063373046 0.01457987 -0.04791305 0.10304972 -0.029566823 0.01088847 0.08028144 -0.13674632
0.099087216 0.014171524 -0.0125593925 -0.0023904396 0.023619484 0.09385588 -0.021943484 -0.13612127
-0.10127473 0.05892077 0.08099711 0.069233775 0.011457215 -0.055949714 0.06078592 0.10640448
0.053692877 0.027789013 -0.028786061 -0.53912944 0.14898859 0.14464295 0.017754586 -0.020087257
0.05101992 -0.014729318 -0.06700835 0.1025035 -0.07157387 0.004526903 -0.15405609 -0.09194581
0.16189653 -0.25279716 -0.12548296 -0.0046480317 -0.2051901 -0.15316291 -0.09593827 0.08838978
0.04397893 -0.3831613 -0.08287304 0.0833187 0.13216259 0.051360145 0.028629657 -0.008147366

fc3.bias f4 [128]
00000000: ccf7 cb3c aa00 b63d e87f 91bd 60b5 cf3c
00000010: cd68 25bd a36d 73bd 1396 0e3d f44a b9bc
00000020: d9f4 9a3d e0e2 7d3e 8f02 5b3e 59b3 713d
00000030: d55a 243c d420 d43d b239 8dbd 19d1 4ebd
00000040: 82ff 623d a760 e73d f803 14bb d11f 573e
00000050: d3d9 15bd f190 64bd 36be 4f3d 1ead 7e3d
00000060: 9f9e bd3d 084b c0bc 1645 8d3d 645c fe3d
00000070: 3cc7 ea3d bbaf 883e def1 4c3d b9b4 c53d
00000080: 30d6 1a3e ab7a 883d fa1c 3fbc 4bb6 a83d
00000090: 640a 233e 02ad 643d 88e8 0b3d 76f1 d3bc
000000a0: fb38 a73d aafa 5fbd 2b45 25bd db27 2fbc
000000b0: 8258 3abd c324 2d3d 8504 ed3d 97de 14bd
000000c0: 2d22 a4bc 0e7b 673d 889c 0c3d af9e 22bd
000000d0: abe5 2dbd af67 9a3c ced7 9fbd 2833 8abd
000000e0: cc76 f33d d4cc 0b3d c156 423e 3c88 e73c
000000f0: 6d44 b23c 0325 b7bd d1b4 9bbc 44ae fa3d
00000100: bcdb 033b 331d a73d 1623 22bd 3550 86bc
00000110: 22d7 0a3e 9124 eebc 2f16 383e 1ed7 a4bd
00000120: fad6 8c3d 0f7a 90bc b684 04bd ff44 753e
00000130: 157e 4ebe 6038 093c 3e7e ba3d 42ab 403d
00000140: ea2d 75bc ab47 0b3e 2f7a 4a3e ed40 89bc
00000150: d073 763e 0e68 083c 88e9 d23d 0cb4 243e
00000160: bcb7 1b3d 006f 69bd d3db 08bd 242e 18bd
00000170: 1d20 f43b c9a1 47bd 6268 b43d 654e 893c
00000180: 15e3 c8bc 9d70 153d 47c2 143e ae11 c6bd
00000190: 9f77 9bbc b82c 0dbd 9c9b 8b3d 7ea6 943b
000001a0: 9199 ce3d 4227 2ebd 330f 8b3d 7d8b 803d
000001b0: ee60 fe3d fd60 213d b0fc 1b3d 46bc e53b
000001c0: 4cdf 0b3d cd8d 5ebd 2ebf ba3c c4de 803c
000001d0: 5b24 293e 3c19 3f3d ff24 f7bc 0c9f 3a3d
000001e0: aeb0 503d ccf8 a63d cf2f de3b 2d80 38bb
000001f0: 75d5 103d 0825 91bd 4f14 5a3d 4d26 1b3d
0.024898432 0.088868454 -0.07104474 0.025355041 -0.04038315 -0.05943073 0.03481109 -0.022618748
0.07566232 0.24793577 0.21387695 0.05900893 0.010031422 0.10357824 -0.0689577 -0.05049238
0.055419452 0.11297732 -0.0022585373 0.21008231 -0.036584686 -0.05580229 0.05071851 0.062176816
0.0925877 -0.023473278 0.06897943 0.12419966 0.11463782 0.26696572 0.05003535 0.09653611
0.15120769 0.06664022 -0.011664623 0.082378946 0.15921932 0.055829056 0.034157306 -0.025871973
0.08165165 -0.05468241 -0.040349167 -0.010690655 -0.045494564 0.042271387 0.11573128 -0.03634509
-0.020035828 0.05651384 0.034328967 -0.039702114 -0.042455357 0.018848268 -0.07804833 -0.067480385
0.11887893 0.034130886 0.18978406 0.028263204 0.021761144 -0.08942606 -0.019007118 0.1224027
0.0020119986 0.08159866 -0.03958424 -0.016395668 0.13558629 -0.02907017 0.17977212 -0.08048843
0.06876941 -0.017636327 -0.032353126 0.23952101 -0.20165284 0.008375257 0.0910611 0.047038324
-0.01496456 0.13601558 0.19773172 -0.016754592 0.24067616 0.00832559 0.10298449 0.16084307
0.03801702 -0.056990623 -0.033412766 -0.037153378 0.0074501173 -0.048738275 0.08808972 0.016761014
-0.024522344 0.03648435 0.14527236 -0.09671341 -0.018977938 -0.034466475 0.068167895 0.004536449
0.10087884 -0.042517908 0.067900084 0.06276605 0.124208316 0.039399136 0.03808278 0.0070109693
0.0341485 -0.05433445 0.02279624 0.015731223 0.16517775 0.046654925 -0.030169008 0.045561835
0.050949745 0.08152923 0.0067806016 -0.002815257 0.03535982 -0.07087141 0.053242024 0.037878323

fc4.weight f4 [5, 128]
00000000: c845 27be e125 2cbe b810 e23d 81e5 b13e
00000010: a686 863d 6b9a a23d 8185 01bd 56ed 9cbd
00000020: cdec 5bbe 5d50 8abe f3fb 66be e2b1 f53d
00000030: d300 983d 8772 68be feb4 813d a093 5abd
00000040: 1f5e eebd ae67 8abe 1f90 50bd 575d 89be
00000050: 10d7 51bd ad42 1a3e 9803 d83d aae5 453e
00000060: 3126 563e fd4f 59bd 977a 503e 1e67 1bbe
00000070: 447d 5dbe 5ebe 7cbe 7c4e 2fbe 37e6 e73d
00000080: 98b8 5abe f6d8 463e 7858 863d fcc6 613e
00000090: 01ab 39be 3a04 75bd a0ee 42be 209d 733d
000000a0: ac1e e9bc dbd0 aebb fac5 be3c 911f 323e
000000b0: 1970 963d b12e 5fbd 3009 f8bd 3c3b 003e
000000c0: 70a7 053d 1e08 573e 75bc 0c3e bde5 9f3d
000000d0: cb48 583e ab06 513e b5f4 533e 2775 82bd
000000e0: 211e 25be c94c 5a3e 77d6 3cbe 8002 00be
000000f0: 9e2b ab3e 81c8 0d3d 761a b43e d1a6 22be
00000100: a7eb ad3e 66a6 d23d c7fc 733e 7bda fc3b
00000110: cac0 20be 4c36 1fbd 589b 5dbe b8bd dc3d
00000120: 62d4 c63e 0c68 5f3e 701a 6a3c 8816 24be
00000130: 4fa0 883d 945d bf3c 113b 09be fef7 8e3e
00000140: e88f 1e3e 1d94 67be 8fb1 4bbe db3d 293e
00000150: 5bef 94be dce7 7e3e a446 3bbe d4b8 96be
00000160: b9db 18be 14b7 afbc 1977 a33e e895 89bd
00000170: fddb 9cbd 65c4 833d a8b7 1fbe ca8f 463c
00000180: 3288 233d 815d c7bd cd1a b3be 7de5 523d
00000190: 9786 a03d f72c f63d c228 69be 2a0e 5fbd
000001a0: a102 66be c045 a9bd 4998 44be 3406 eb3d
000001b0: 6455 1dbe 9b34 ac3e 1fa4 0f3d a6d2 16bd
000001c0: 64d8 3d3e 87ed e73d 24c6 16bd 1e3d 793e
000001d0: d520 5bbe 4928 343e 93ca 583e b84c c6bd
000001e0: d9b8 e33d ef26 5fbe 7f23 83bd 3e31 9c3e
000001f0: 17b0 963e c5d6 043c 4c19 633e 241a 473e
00000200: a668 2fbe 5548 fabd d85d 36bd df57 733e
00000210: fd77 11bc dcc6 59bb fc44 383d b27f 743d
00000220: f3c3 43be 4fdf 6dbe 5b54 75be 5929 543e
00000230: c466 b1bc 0f31 f8bd 9b8e 153d 3092 373d
00000240: a9d3 1abe a0dd 2abe a17a 2a3d 3cbd 9dbe
00000250: 0bcc b03d 7fb9 493e b9cf e63d d1db 3b3e
00000260: 94db 273e f0c7 d83b 2b43 073e 0a1e 2bbe
00000270: d5e0 16be 809c 6dbe 8e50 8cbd fb41 d73d
00000280: 8327 7ebe 626c 453e fd50 f83c c2a1 d53e
00000290: ed03 2fbe 0fd3 693d d2c8 1dbe f222 d3bd
000002a0: a9b5 20be de5c 7b3d f1c8 4abd ce87 283e
000002b0: 0411 813c fd1e ea3c 7ea9 f9bd d2f5 153e
000002c0: 5b92 b23c 5fd1 013e 19d3 a63d e390 073d
000002d0: bdf2 653e 15ec 0f3e 95eb 633e 9191 e0bb
000002e0: 017f abbc 99bc 573e b79b 8cbe f5fc eebd
000002f0: 670d ac3e 7b7a 373d 8d02 c53e e663 06be
00000300: ca94 863e 1422 363e 2d78 4b3e 792f a83c
00000310: 8b51 2cbe ca39 073d 9860 7ebe 9752 2e3d
00000320: 9f4b ec3e fe88 853e a77d ac3d 8348 32be
00000330: e9ee d33d ec6d fc3c 733f 65be ad50 873e
00000340: 1251 b63d b064 7abe a883 88be c8c4 443e
00000350: e235 78be fe55 883e af5d 1ebe dba9 85be
00000360: 2789 8cbe e9be a83d cadc 613e 0177 98bd
00000370: c1de 9cbd 8c3d 963d 8ac1 8dbe a73f f73b
00000380: e4e9 31bb f4fb fcbd 76b1 36be 5a61 d03c
00000390: 8f67 91bd 98ac 6a3e 22b6 4fbe c0b8 a9bd
000003a0: a2c4 67be 029a f1bc 75f8 84be bf48 543e
000003b0: 8588 96be 91f5 b13e b372 843d 5cb7 ff3a
000003c0: 3f9b ff3d e496 563e cef4 2b3c 9348 943e
000003d0: 7850 45be c672 993d cc4e 913e f0cc 1bbe
000003e0: 7e2b 583e c868 13be 72fc 00bc 939a 993e
000003f0: ad42 453e 1f57 c4bc 380f 4a3e 3066 433e
-0.16335213 -0.16811325 0.11038345 0.3474541 0.06568651 0.07939609 -0.03162146 -0.07662456
-0.21477051 -0.27014437 -0.22557048 0.11996819 0.07422032 -0.22699939 0.0633335 -0.053363442
-0.11639046 -0.27032226 -0.050918695 -0.26829025 -0.05123049 0.15064497 0.105475605 0.19325891
0.20913006 -0.0530548 0.20359264 -0.15176055 -0.21629816 -0.24681994 -0.17119783 0.11323207
-0.2135948 0.19418702 0.06559843 0.22048563 -0.18131639 -0.059818484 -0.1903634 0.059476018
-0.028457008 -0.005334956 0.023287762 0.17394854 0.073456 -0.054487888 -0.121111274 0.12522596
0.032630384 0.2099919 0.13743766 0.07807491 0.21121518 0.204127 0.20698817 -0.06370001
-0.16124775 0.21318354 -0.18441187 -0.12500954 0.33431715 0.034615044 0.35176438 -0.15883948
0.3396885 0.10285644 0.23826896 0.0077164746 -0.15698543 -0.03887014 -0.2164129 0.107783735
0.3883391 0.21817034 0.01428853 -0.1602422 0.066712014 0.023360051 -0.13401438 0.27923578
0.15484583 -0.22615094 -0.19891952 0.16527502 -0.29088864 0.24893135 -0.18288666 -0.29437888
-0.14927568 -0.021449603 0.31926802 -0.067180455 -0.07659147 0.06433944 -0.15597403 0.012119243
0.039924808 -0.09734631 -0.34981385 0.05148839 0.07838171 0.12020295 -0.22769454 -0.054456867
-0.2246194 -0.08265257 -0.19198717 0.114757925 -0.15364605 0.33633885 0.035068627 -0.036821984
0.18539578 0.113246016 -0.036810055 0.2433972 -0.21399243 0.17593493 0.21171026 -0.09682602
0.11119241 -0.21792196 -0.06403255 0.3050632 0.2943122 0.008107846 0.22177619 0.19443566
-0.17129764 -0.122208275 -0.04452309 0.23763989 -0.008878705 -0.0033230102 0.044987664 0.059692092
-0.19117717 -0.23229717 -0.2395796 0.20718898 -0.021655448 -0.12118732 0.036512952 0.04481715
-0.15119804 -0.16686106 0.041620854 -0.30808437 0.08632668 0.19699667 0.11270089 0.18345572
0.16392356 0.0066156313 0.13209216 -0.16710678 -0.14734204 -0.23204231 -0.06851302 0.10510632
-0.2481976 0.19279626 0.030312056 0.41724974 -0.17091341 0.057086047 -0.15408638 -0.103094
-0.15694298 0.061367862 -0.04950804 0.16458055 0.015755184 0.02857923 -0.12190531 0.14644554
0.021798303 0.12677525 0.081457324 0.03309716 0.22455879 0.14054902 0.22257836 -0.0068532904
-0.020934584 0.21068038 -0.2746255 -0.116693415 0.33603975 0.04479454 0.3847851 -0.13124046
0.26285392 0.17786437 0.19870062 0.02053045 -0.16827981 0.033014096 -0.24841535 0.042559233
0.46151444 0.2608108 0.08422404 -0.17410474 0.10348303 0.030814134 -0.22387485 0.26428738
0.08902182 -0.24452472 -0.26662946 0.19215691 -0.24239305 0.26628107 -0.15465425 -0.26106152
-0.2744839 0.08239538 0.2205688 -0.07444573 -0.076596744 0.07335958 -0.2768672 0.0075454297
-0.0027147466 -0.12352744 -0.17841133 0.025437046 -0.0709983 0.22917402 -0.20284322 -0.082871914
-0.22633603 -0.029492382 -0.25970808 0.20730875 -0.2940103 0.34757665 0.0646719 0.0019509601
0.12480783 0.20955998 0.010495378 0.2896162 -0.19268978 0.074925944 0.2838043 -0.15214896
0.21110341 -0.1439544 -0.007872688 0.30000743 0.19263716 -0.023967324 0.19732368 0.1908195

fc4.bias f4 [5]
00000000: 1132 9d3c 24ea 45bd 1604 12bb 60d0 efbd
00000010: 5001 b5bd
0.019188913 -0.048318997 -0.0022280267 -0.11709666 -0.08838141
