models/lateral_stage2_seed123_best.pth (torch, 412453 bytes, 8 tensors)

fc1.weight f4 [256, 9]
0.848078 -0.052073114 0.05193683 0.60038614 -0.49259898 -0.021693477 -0.2422801 -0.265014
0.11211337 -0.71929944 -0.028684085 -0.09059962 -0.6674321 -0.36890557 0.15819433 -0.06550658
-0.2542878 0.24329859 3.0022318 -0.2651706 -0.12854527 0.19656903 -0.117852084 0.59847844
-0.15033647 0.10558376 -0.2539808 0.52531916 0.31164947 -0.29095808 0.36423847 0.30038542
-0.056393392 0.13722494 0.2770997 -0.0097444 -3.4863565 0.002477784 -0.21705563 -0.016538171
-0.011592336 -0.023479784 -0.030307144 0.3158013 -0.052687906 -4.3015723 -0.025948158 0.075125165
0.4376594 0.1558078 0.36890483 0.07243684 0.078597635 0.21123034 3.6986556 -0.19176103
-0.5225323 0.24933246 -0.12178401 -0.14995521 0.052575827 0.2754239 0.08288179 -3.152371
-0.2786334 0.08747974 -0.8103264 0.0044917585 -0.19403462 0.15609303 0.2925811 0.060988437
-3.1670396 0.019961767 0.18465312 -0.17154121 0.15860851 -0.13015239 -0.019874334 0.23508123
0.1344192 -3.289441 -0.15765312 -0.08773352 -0.21527909 0.006124961 -0.2570437 0.27686974
0.18342891 -0.08426134 -1.8381894 0.36572915 -0.041179534 0.16659558 -0.137619 -0.07137469
0.32546082 0.22421971 0.27581996 2.7624197 0.17170155 -0.44971818 -0.26056504 -0.12234578
-0.21944246 -0.08536582 0.024939686 0.38782752 2.4998894 -0.01660127 0.39260167 -0.38931802
0.15770297 0.042882692 -0.058003634 0.039024472 -0.29007 0.9089156 -0.016799401 0.681797
0.21154764 -0.1727634 0.19663854 -0.14298968 0.31686416 -0.51011544 1.5889382 -0.038621757
0.3052289 0.5819465 -0.17472422 -0.09519765 0.0018707216 -0.25071388 0.20728104 3.6087394
-0.059000604 0.05676164 -0.107104704 -0.020418394 0.10378131 -0.10368106 0.0957787 0.30166876
-2.9124897 -0.48601788 0.014245746 -0.22737208 -0.27554303 -0.3984605 -0.216959 -0.11321494
-0.13459878 1.2699652 0.26549467 0.6518607 -0.6223034 0.20428543 -0.122603334 0.19121906
0.06946996 0.18115349 2.1427991 0.6710084 0.17040206 0.9639569 -0.1833489 0.080840796
0.2226117 0.24869314 0.16593097 -1.9860965 0.051941212 0.063874364 -0.6037918 -0.2101957
-0.06980587 -0.116849154 0.2903562 -0.019000454 -3.5947506 -0.046456445 0.5483558 -0.29778492
-0.15201336 -0.13587539 -0.19183938 0.17192838 0.19012722 -2.1822135 -0.6307252 -0.40077326
-0.24727659 0.18257503 -0.1879957 -0.15431881 0.10607353 -0.020892015 -1.8061978 -0.19839652
0.03933643 -0.02713431 0.15655963 -0.029477507 -0.25828528 0.0022405386 -0.12134758 -0.080456875
-0.3156489 0.43681404 -0.094699785 0.057400525 0.3714551 -0.20981245 0.08925286 -0.059767053
2.0830853 -0.36087587 -0.01175207 0.12830444 -0.68045545 -0.5523505 0.12783778 -0.09701884
0.075542234 -6.5059695 -0.06216364 -0.43173504 0.029042594 -0.027795274 -0.15859228 -0.055457115
-0.26054963 0.16429932 0.67245024 -0.34663266 0.012757801 -0.0015708274 -0.7231082 -0.0008182686
0.1782957 -0.06280339 -0.105260566 -0.8307971 0.25319004 0.45082507 -0.27313378 -0.12143023
0.3513119 0.16292608 0.20633766 -0.24578835 0.81287795 -0.25306705 0.10308017 0.190752
00000000: a41b 593f 9e4a 55bd b7bb 543d e8b2 193f
00000010: ef35 fcbe 85b6 b1bc 4618 78be eaaf 87be
00000020: b29b e53d 0224 38bf e3fa eabc 4b8c b9bd
00000030: d5dc 2abf 31e1 bcbe b2fd 213e 5028 86bd
00000040: 0332 82be 4423 793e 9124 4040 71c4 87be
00000050: 5fa1 03be 6449 493e 6f5c f1bd e235 193f
00000060: cef1 19be 4c3c d83d c509 82be 517b 063f
00000070: 8590 9f3e 75f8 94be 777d ba3e 1ecc 993e
00000080: c2fc 66bd b284 0c3e 03e0 8d3e faa6 1fbc
00000090: 7720 5fc0 5162 223b d543 5ebe 0f7b 87bc
000000a0: c8ed 3dbc ad58 c0bc b046 f8bc b5b0 a13e
000000b0: 46cf 57bd 7ba6 89c0 3b91 d4bc 39db 993d
000000c0: e514 e03e 148c 1f3e 18e1 bc3e c459 943d
000000d0: ccf7 a03d c44c 583e c6b6 6c40 015d 44be
000000e0: adc4 05bf 0251 7f3e e569 f9bd dc8d 19be
000000f0: c059 573d 5d04 8d3e eebd a93d 72c0 49c0
00000100: 09a9 8ebe 9428 b33d 8d71 4fbf 9a2f 933b
00000110: 03b1 46be dad6 1f3e 31cd 953e 03cf 793d
00000120: c7b0 4ac0 dc86 a33c b515 3d3e 80a8 2fbe
00000130: 456a 223e ab46 05be 80cf a2bc 22b9 703e
00000140: 30a5 093e 3486 52c0 d26f 21be a2ad b3bd
00000150: 1f72 5cbe e6b3 c83b 3b9b 83be dfc1 8d3e
00000160: cad4 3b3e 3691 acbd ca49 ebbf da40 bb3e
00000170: dfab 28bd 0898 2a3e ffeb 0cbe e52c 92bd
00000180: cda2 a63e da99 653e 4638 8d3e 7ccb 3040
00000190: 88d2 2f3e 7641 e6be c868 85be 6d90 fabd
000001a0: 86b5 60be 46d4 aebd 504e cc3c 5491 c63e
000001b0: 30fe 1f40 63ff 87bc 1603 c93e b154 c7be
000001c0: e37c 213e c3a5 2f3d 3895 6dbd 20d8 1f3d
000001d0: 0e84 94be b1ae 683f e69e 89bc 408a 2e3f
000001e0: f29f 583e e4e8 30be 9d5b 493e e36b 12be
000001f0: 053c a23e ed96 02bf 5462 cb3f d931 1ebd
00000200: f646 9c3e 72fa 143f e8ea 32be fcf6 c2bd
00000210: 0033 f53a 925d 80be 7b41 543e 96f5 6640
00000220: 9eaa 71bd e57e 683d b659 dbbd 7a44 a7bc
00000230: 4c8b d43d bc56 d4bd a027 c43d 5474 9a3e
00000240: 3b66 3ac0 56d7 f8be fd66 693c 3ad4 68be
00000250: fa13 8dbe 0403 ccbe 802a 5ebe 3cdd e7bd
00000260: 43d4 09be 388e a23f ebee 873e 58e0 263f
00000270: 474f 1fbf 3330 513e 7517 fbbd eece 433e
00000280: 4446 8e3d 4d80 393e 9f23 0940 35c7 2b3f
00000290: e17d 2e3e e1c5 763f d0bf 3bbe dc8f a53d
000002a0: 52f4 633e 6aa9 7e3e cfe9 293e 6938 febf
000002b0: 4fc0 543d 90d0 823d 1992 1abf 8b3d 57be
000002c0: 61f6 8ebd 9c4e efbd 91a9 943e d7a6 9bbc
000002d0: 6510 66c0 1d49 3ebd 0c61 0c3f 4477 98be
000002e0: 64a9 1bbe eb22 0bbe 8b71 44be fe0d 303e
000002f0: b6b0 423e 63a9 0bc0 3577 21bf 2732 cdbe
00000300: 1336 7dbe f3f4 3a3e f281 40be c005 1ebe
00000310: 143d d93d bb25 abbc 7d31 e7bf 7528 4bbe
00000320: 3d1f 213d c648 debc 2b51 203e d07a f1bc
00000330: f83d 84be 00d6 123b 1485 f8bd 93c6 a4bd
00000340: bc9c a1be 17a6 df3e f6f1 c1bd d01c 6b3d
00000350: 5d2f be3e 13d9 56be 34ca b63d 4cce 74bd
00000360: 4551 0540 b9c4 b8be c18b 40bc 3d62 033e
00000370: 5432 2ebf d866 0dbf e8e7 023e d0b1 c6bd
00000380: e3b5 9a3d e730 d0c0 4d9f 7ebd 600c ddbe
00000390: bcea ed3c eab2 e3bc 0466 22be 0027 63bd
000003a0: c366 85be 153e 283e b325 2c3f d679 b1be
000003b0: 1906 513c 39e4 cdba 9e1d 39bf 1481 56ba
000003c0: 2693 363e 109f 80bd da92 d7bd 1eaf 54bf
000003d0: 20a2 813e 8bd2 e63e 31d8 8bbe 6ab0 f8bd
000003e0: 27df b33e 18d6 263e 2e4a 533e f1af 7bbe
000003f0: c518 503f 0192 81be b21b d33d 7e54 433e

fc1.bias f4 [256]
-0.24653378 0.26539862 0.35537058 0.2620913 0.28305107 0.07895396 -0.026984682 0.015751837
-0.2319329 0.18484285 0.097311914 -0.2970868 0.018983651 0.1490141 -0.16490202 0.22701919
0.306617 -0.473232 -0.05081208 0.16653496 0.017773401 0.24388176 0.29474074 -0.26958585
-0.012854825 -0.02220371 -0.02765238 -0.44795617 -0.6219219 0.21976376 0.009490137 0.14962813
0.3119546 0.30913448 0.18585481 0.117607966 0.45297316 -0.05669303 0.3736677 0.16092971
0.055878937 0.07303557 0.4023386 0.1536494 0.25008827 0.026591284 0.25166905 -0.22593246
0.32630733 0.25202587 -0.07391892 0.20204419 0.20954485 -0.22209157 -0.31480113 0.09679547
0.12916358 -0.23406902 -0.039194215 -0.12392163 0.18748222 0.6255727 0.41971502 -0.1492231
0.29334626 0.1733103 -0.5314374 -0.40310583 0.15572834 -0.20403202 0.21280749 -0.43195882
-0.01944142 -0.34502625 0.16905333 -0.08069827 0.29684412 -0.4300714 0.25744435 0.34439474
-0.18163869 -0.40439954 -0.2825276 -0.29687735 0.27972186 0.24599068 0.21726367 -0.07760459
-0.25797135 -0.055369064 -0.1503687 -0.41135052 0.01799253 0.42874297 -0.16269894 0.3450834
0.305233 -0.0056803417 -0.3893688 -0.34354773 -0.15342908 -0.3020398 0.1297415 0.21858247
0.26901904 -0.04063859 0.09789839 0.33016512 0.52667165 0.016346304 0.189522 0.16349265
0.11730085 -0.18085755 -0.117866375 -0.30806142 0.38080183 0.20253992 -0.009235842 -0.13280569
0.23338513 0.098055035 -0.2786198 0.431494 0.050806876 -0.33298627 -0.18526714 0.06398807
-0.035800282 0.33027577 0.37684253 0.17273623 -0.06614429 0.17122827 -0.2543925 0.34777603
0.31628093 -0.23276867 -0.40637693 0.3722002 0.05765862 0.14852834 -0.5022495 0.23508076
-0.047924366 0.23080102 0.311779 0.2950366 0.45002395 0.32779756 0.13318424 0.31599134
-0.22063239 0.23910868 -0.12751359 0.2883543 -0.32964402 -0.043099284 -0.2603872 0.18681191
0.25802898 0.27064708 0.6167865 -0.060084224 -0.060472213 -0.26292914 0.42224368 -0.07997689
-0.16446841 -0.116247326 0.45022854 -0.21978764 -0.28092757 0.25850436 -0.45482078 -0.3418094
-0.41463658 -0.015263385 -0.2419916 0.14240134 -0.19464831 -0.084215604 -0.22235578 0.21169844
-0.27270842 0.036463156 0.35765168 -0.27405107 -0.40973446 0.32037297 0.09732316 -0.38781786
0.004683076 -0.23679468 0.3482336 0.15754965 0.24505647 0.47530586 -0.07278308 -0.45782682
0.36738944 0.24377759 0.46590215 0.34166694 -0.080540374 0.26249018 0.26323754 0.0371998
0.28298587 0.048199173 -0.44854215 0.30082715 -0.18464836 -0.36680076 -0.4086263 0.3189177
0.19204108 -0.10094087 -0.37788826 0.21710186 0.295585 0.07044116 -0.19618526 0.1283966
-0.0037186027 0.28210577 0.26502562 -0.116496794 0.37403682 -0.45547113 -0.018571755 0.25120196
-0.39541566 0.45566073 0.15947634 0.45288077 -0.19044253 0.41086814 -0.29039368 -0.07629598
-0.2729906 -0.4078 0.3586604 0.17691086 -0.19747409 0.08634344 0.022184221 -0.27365914
0.00077654124 -0.16467643 -0.25101644 0.47508332 -0.5470848 0.30593932 0.23455794 -0.09162713
00000000: 5a73 7cbe 54e2 873e 22f3 b53e d530 863e
00000010: 12ec 903e 9db2 a13d fb0e ddbc ff09 813c
00000020: d17f 6dbe 7247 3d3e 784b c73d c31b 98be
00000030: 9a83 9b3c 2797 183e 13dc 28be b877 683e
00000040: e7fc 9c3e 774b f2be 5420 50bd 2488 2a3e
00000050: 8699 913c 24bc 793e 42e8 963e 2807 8abe
00000060: 0b9d 52bc 8ee4 b5bc 3e87 e2bc 835a e5be
00000070: 4636 1fbf c009 613e 857c 1b3c 1e38 193e
00000080: 83b8 9f3e e046 9e3e b950 3e3e 72dc f03d
00000090: 19ec e73e f336 68bd 5f51 bf3e c2ca 243e
000000a0: 50e1 643d ac93 953d 53ff cd3e 4556 1d3e
000000b0: 920b 803e f7d5 d93c c4da 803e d75a 67be
000000c0: c111 a73e 8909 813e cd62 97bd ace4 4e3e
000000d0: ed92 563e f96b 63be 9d2d a1be b43c c63d
000000e0: 7543 043e caaf 6fbe 1d8a 20bd a0ca fdbd
000000f0: 57fb 3f3e 8825 203f e3e4 d63e f1cd 18be
00000100: 7b31 963e 4178 313e 480c 08bf e363 cebe
00000110: 4077 1f3e c5ed 50be 35ea 593e b529 ddbe
00000120: 9d43 9fbc 48a7 b0be 511c 2d3e 2245 a5bd
00000130: f4fb 973e 5232 dcbe bfcf 833e 8254 b03e
00000140: 7eff 39be 750d cfbe 75a7 90be 4f00 98be
00000150: b437 8f3e fbe4 7b3e 5e7a 5e3e 28ef 9ebd
00000160: d214 84be acca 62bd 41fa 19be 899c d2be
00000170: 1265 933c 3384 db3e 8d9a 26be c5ae b03e
00000180: 8047 9c3e 2922 babb 595b c7be 7de5 afbe
00000190: 831c 1dbe f6a4 9abe f5da 043e 15d4 5f3e
000001a0: ddbc 893e a674 26bd f37e c83d 670b a93e
000001b0: f4d3 063f afe8 853c 0e12 423e 9e6a 273e
000001c0: 6e3b f03d b932 39be ed63 f1bd 3aba 9dbe
000001d0: 75f8 c23e a066 4f3e ee51 17bc 37fe 07be
000001e0: 83fc 6e3e 14d1 c83d 41a7 8ebe c8ec dc3e
000001f0: df1a 503d 2d7d aabe abb6 3dbe 2d0c 833d
00000200: 51a3 12bd e819 a93e 81f1 c03e c4e1 303e
00000210: a876 87bd 7756 2f3e bc3f 82be b30f b23e
00000220: 93ef a13e e95a 6ebe a310 d0be 0691 be3e
00000230: 722b 6c3d d017 183e 6c93 00bf 03b9 703e
00000240: 574c 44bd 1a57 6c3e 7fa1 9f3e 0a0f 973e
00000250: 8a69 e63e 15d5 a73e 7361 083e 9ec9 a13e
00000260: 75ed 61be e8d8 743e ec92 02be 2da3 933e
00000270: 1ac7 a8be e088 30bd 7951 85be 9f4b 3f3e
00000280: 601c 843e 4192 8a3e b8e5 1d3f e01a 76bd
00000290: b6b1 77bd a69e 86be 5330 d83e ecca a3bd
000002a0: 686a 28be 1413 eebd 5b84 e63e 0310 61be
000002b0: bdd5 8fbe af5a 843e 45de e8be a401 afbe
000002c0: 3f4b d4be 4713 7abc a5cc 77be a8d1 113e
000002d0: e351 47be 3b79 acbd 3cb1 63be 7ac7 583e
000002e0: 70a0 8bbe 645a 153d 1f1e b73e 6c50 8cbe
000002f0: b7c8 d1be ed07 a43e 5d51 c73d 1090 c6be
00000300: 7d74 993b 4e7a 72be ad4b b23e b254 213e
00000310: 15f0 7a3e 4a5b f33e 4c0f 95bd 4768 eabe
00000320: 781a bc3e d5a0 793e ba8a ee3e f8ee ae3e
00000330: 5af2 a4bd 1d65 863e 12c7 863e d15e 183d
00000340: 86e3 903e 7f6c 453d 51a7 e5be 0406 9a3e
00000350: 7614 3dbe 4fcd bbbe 7737 d1be 2e49 a33e
00000360: 6ba6 443e 16ba cebd 927a c1be f34f 5e3e
00000370: eb56 973e 7443 903d cae4 48be 667a 033e
00000380: cdb3 73bb 2b70 903e 70b1 873e df95 eebd
00000390: c181 bf3e 8333 e9be cb23 98bc 8b9d 803e
000003a0: ec73 cabe 5d4c e93e c44d 233e fddf e73e
000003b0: 5e03 43be 4f5d d23e 7bae 94be 1141 9cbd
000003c0: 6dc5 8bbe 29cb d0be 56a2 b73e 1f28 353e
000003d0: a636 4abe d4d4 b03d afbb b53c 0d1d 8cbe
000003e0: cd90 4b3a f0a0 28be 3a85 80be 1f3e f33e
000003f0: c00d 0cbf 14a4 9c3e f52f 703e 01a7 bbbd

fc2.weight f4 [256, 256]
0.048132084 -0.10752067 -0.030140687 0.014334117 -0.026735187 0.043568622 -0.058917835 -0.24264874
-0.14064606 -0.07417332 -0.07937266 -0.03944465 -0.0063058333 -0.015660863 0.06219831 0.030583188
0.051409066 0.017502647 0.055453826 -0.12688495 -0.111638285 -0.17942543 0.023725133 -0.15897779
-0.078527644 -0.06226279 0.008956909 -0.2937975 -0.055222996 0.07025395 -0.0930819 -0.07944255
0.0009868586 -0.043342393 -0.2859104 0.02773507 -0.16455016 -0.3453988 -0.19208668 -0.03878988
-0.05369451 -0.012574433 0.044312034 -0.13468488 -0.09007155 0.03243864 -0.011546189 0.003575104
-0.068100736 0.03470689 -0.17197654 -0.08117602 -0.07022352 -0.0048599765 -0.103579566 0.048372533
-0.046301402 -0.014345112 0.0005196123 -0.32262698 -0.0048435377 -0.07532639 -0.10664384 0.041289076
-0.24269186 -0.118220285 -0.06498957 0.0654718 0.0015552102 -0.12149147 0.002730191 0.04039317
-0.11486436 -0.05441088 0.0062875645 -0.02408562 0.026302397 -0.027986856 -0.13502201 0.050859503
0.048805617 0.06096173 -0.15112683 -0.1352299 -0.37311664 -0.06477258 0.056721095 -0.0541253
0.0060970713 -0.05862403 -0.4364965 0.035240874 -0.01180927 -0.06508786 -0.0054773707 0.002793722
-0.014659668 0.013971388 -0.21744107 -0.042213 0.0037855357 0.062402792 -0.057740547 -0.17697473
0.020202253 -0.04718631 -0.016409252 -0.08246767 -0.006777347 -0.0031072188 0.06082084 -0.23095895
-0.023104057 0.008730339 -0.053604033 -0.4512725 0.010174966 -0.0097905295 -0.0586188 -0.110401705
-0.05872071 -0.018330371 0.006646298 0.0008237881 0.025418067 -0.116231464 -0.043047126 -0.013609105
-0.013000772 0.03187522 0.0047362056 -0.10461171 -0.04082244 -0.065182865 -0.028129235 0.04903499
-0.15202178 -0.22054407 -0.1725935 -0.3461378 0.048588492 0.06271297 0.011319853 -0.2323047
-0.036629423 -0.011975542 0.05470726 -0.2761286 0.07980079 0.015198537 0.052580744 0.0011409232
0.025828876 0.02725184 1.261432e-05 -0.21043934 0.017534165 -0.013611725 0.0014171451 -0.103863254
-0.3628787 0.02158673 -0.04354132 0.052764446 -0.0750415 0.047400255 -0.062158972 -0.037477303
-0.008177818 0.035401423 -0.018594462 -0.27568835 -0.07622786 0.076869465 -0.35506362 -0.009157762
-0.03436601 -0.03346215 0.043085665 -0.09133867 0.005778528 -0.046670172 0.040945977 -0.010745469
-0.027981102 0.0587162 -0.012673097 -0.35583687 -0.03207211 0.0507758 0.04069984 -0.026444225
-0.057980746 -0.0025605788 -0.18015221 -0.017880304 0.012460894 -0.016708873 -0.20430091 -0.021373257
-0.0461183 0.029344544 -0.10040356 -0.09716414 -0.39731866 -0.062224083 -0.057799768 -0.031750947
0.027387097 -0.17943981 -0.006984964 0.022549419 -0.07053065 -0.20257801 -0.099667184 -0.37311447
-0.34119183 0.044298388 0.041825525 -0.083011 0.0024613822 0.017475585 0.05916759 -0.052491337
-0.08417233 -0.15703957 0.07077159 -0.1283049 -0.13058291 -0.004209541 -0.009510702 0.0064616576
-0.015633924 -0.0838205 -0.106355265 -0.21455011 -0.13804372 -0.13522454 -0.04161329 0.019603066
-0.011860251 -0.06927192 0.00783495 -0.17486933 -0.27156207 -0.0843991 0.034844138 -0.046125107
-0.03257507 0.021422617 0.01833371 0.10892611 -0.12900193 0.060064264 -0.14624286 -0.10799572
00000000: 2626 453d cc33 dcbd 9ae9 f6bc a5d9 6a3c
00000010: c003 dbbc 0375 323d d453 71bd e978 78be
00000020: 8505 10be 2ee8 97bd 228e a2bd b790 21bd
00000030: 2aa1 cebb 364b 80bc a8c3 7e3d 9889 fa3c
00000040: 5092 523d b661 8f3c 8d23 633d 21ee 01be
00000050: 9da2 e4bd 4dbb 37be 365b c23c 13cb 22be
00000060: 1ad3 a0bd 4407 7fbd 00c0 123c a06c 96be
00000070: 8231 62bd 4ee1 8f3d b9a1 bebd c7b2 a2bd
00000080: 7b59 813a cb87 31bd d962 92be a834 e33c
00000090: d67f 28be 1dd8 b0be 5fb2 44be 23e2 1ebd
000000a0: c6ee 5bbd ff04 4ebc 8980 353d d5ea 09be
000000b0: 6f77 b8bd 61de 043d 3a2c 3dbc 4b4c 6a3b
000000c0: 6678 8bbd d028 0e3d 9e1a 30be 9d3f a6bd
000000d0: 59d1 8fbd 7040 9fbb 8621 d4bd 4722 463d
000000e0: 8aa6 3dbd c307 6bbc 9736 083a 5d2f a5be
000000f0: 8ab6 9ebb b944 9abd 1668 dabd bc1e 293d
00000100: 3784 78be 7a1d f2bd 4019 85bd 1416 863d
00000110: 32d8 cb3a 85d0 f8bd 01ed 323b 4f73 253d
00000120: 013e ebbd f1dd 5ebd ea07 ce3b 354f c5bc
00000130: 2078 d73c b144 e5bc 3643 0abe 0e52 503d
00000140: 66e8 473d 02b3 793d fec0 1abe b579 0abe
00000150: 2509 bfbe 7da7 84bd 6154 683d 7eb2 5dbd
00000160: f1c9 c73b c01f 70bd 787c dfbe bc58 103d
00000170: ab7b 41bc c94c 85bd 847b b3bb e116 373b
00000180: 1b2f 70bc 40e8 643c dfa8 5ebe 8ae7 2cbd
00000190: c016 783b 129a 7f3d 5a81 6cbd dd38 35be
000001a0: 327f a53c 6f46 41bd b26c 86bc cfe4 a8bd
000001b0: 8214 debb 7ba2 4bbb 461f 793d 8180 6cbe
000001c0: b844 bdbc b209 0f3c e78f 5bbd 300d e7be
000001d0: e7b4 263c 7568 20bc 441a 70bd 4a1a e2bd
000001e0: 2185 70bd 9329 96bc 30c9 d93b 7cf3 573a
000001f0: 8d39 d03c c30a eebd 2f52 30bd b9f8 5ebc
00000200: 3101 55bc 978f 023d 2c32 9b3b aa3e d6bd
00000210: 6e35 27bd 987e 85bd 486f e6bc ead8 483d
00000220: 99ab 1bbe 4ed6 61be 5abc 30be f938 b1be
00000230: ba04 473d a86f 803d e876 393c 49e1 6dbe
00000240: bc08 16bd 1035 44bc b814 603d ba60 8dbe
00000250: 996e a33d 4903 793c e85e 573d 088b 953a
00000260: 1497 d33c 403f df3c 18a2 5337 697d 57be
00000270: cfa3 8f3c b603 5fbc 80bf b93a 42b6 d4bd
00000280: 3dcb b9be a7d6 b03c 6258 32bd 881f 583d
00000290: 5caf 99bd c526 423d 689a 7ebd cd81 19bd
000002a0: 41fc 05bc 1501 113d 6a53 98bc 0627 8dbe
000002b0: 5a1d 9cbd bd6d 9d3d e6ca b5be 700a 16bc
000002c0: 60c3 0cbd 9b0f 09bd 987a 303d c50f bbbd
000002d0: ce59 bd3b 3929 3fbd f8b6 273d c30d 30bc
000002e0: a038 e5bc 6680 703d d2a2 4fbc 4030 b6be
000002f0: 0b5e 03bd 49fa 4f3d e0b4 263d 8fa1 d8bc
00000300: 387d 6dbd 62cf 27bb d279 38be b779 92bc
00000310: c728 4c3c 0ce1 88bc 4234 51be f816 afbc
00000320: 8be6 3cbd f863 f03c 62a0 cdbd fefd c6bd
00000330: 5a6d cbbe aede 7ebd 73bf 6cbd 480d 02bd
00000340: e85a e03c 12bf 37be 20e2 e4bb 8fb9 b83c
00000350: 6072 90bd 9c70 4fbe 4f1e ccbd dc08 bfbe
00000360: b2b0 aebe 3a72 353d 3e51 2b3d ac01 aabd
00000370: 244f 213b f528 8f3c b759 723d 2801 57bd
00000380: 8b62 acbd fbce 20be b2f0 903d 5c62 03be
00000390: 87b7 05be 30f0 89bb c7d2 1bbc 50bc d33b
000003a0: b712 80bc 15aa abbd cad0 d9bd 06b3 5bbe
000003b0: 555b 0dbe 4d78 0abe b272 2abd 9c96 a03c
000003c0: 8051 42bc 70de 8dbd 2a5e 003c f210 33be
000003d0: 2f0a 8bbe 6fd9 acbd bab8 0e3d aeed 3cbd
000003e0: 706d 05bd 7c7e af3c 9430 963c a714 df3d
000003f0: 1519 04be f205 763d b0c0 15be dc2c ddbd

fc2.bias f4 [256]
0.019341385 -0.06890305 -0.048433416 0.18976289 0.024460115 -0.036468036 0.010309549 -0.03268018
-0.051554307 0.010698642 0.0014836354 0.13186312 0.28959516 -0.039093096 -0.053905338 0.14603704
-0.0874875 -0.05658445 -0.036324702 0.037445378 0.107191965 -0.16432305 0.0030298121 -0.017863145
0.02295371 -0.039894897 -0.026518207 -0.061192203 0.7629207 0.02846282 -0.062646374 -0.08268076
-0.072399475 -0.07831852 -0.04080383 -0.050808042 -0.11180385 0.012136249 0.10537703 -0.073244594
-0.10229225 0.027000232 -0.040817317 -0.180012 0.042052705 0.025185166 0.101560175 -0.062297642
0.110785745 -0.013986625 -0.01293507 -0.031824615 0.11104001 0.14558092 -0.01750939 0.0403285
0.036181506 -0.034167074 -0.052757837 0.035895348 -0.07446969 -0.0645621 0.045949046 -0.066236876
-0.020726597 -0.0043890923 0.029374987 -0.0066283722 0.032758053 -0.06461189 -0.22518517 -0.10475536
-0.025244502 -0.11074545 -0.056508012 -0.24477828 0.00966497 -0.14148806 0.09282909 0.31732976
-0.045367863 -0.0058214418 -0.06463345 0.05259948 -0.09190813 -0.06713647 0.12896591 0.29781446
0.16540526 -0.1187954 0.038340267 0.02887585 -0.05164893 0.12274454 -0.065410405 -0.05982009
0.03753861 0.020733586 0.13412558 0.030510254 -0.034367032 -0.065439284 0.008709573 0.35264826
-0.04038778 0.0047218925 -0.006679734 -0.122165196 -0.25376442 0.0055713896 -0.0014669345 -0.119166754
-0.06164031 0.32293057 -0.04062938 -0.038315874 0.025269039 -0.02626638 0.056343608 -0.06994914
0.015622856 -0.10895464 -0.10289589 0.1099585 -0.03604134 -0.10614376 -0.10395743 -0.09570003
-0.05807377 -0.19255686 -0.16910136 -0.073495165 -0.012402969 -0.065257095 -0.053641498 0.023634154
-0.04416793 -0.4003485 0.056439977 0.1318379 0.030906836 0.07141867 -0.02700366 -0.07350416
-0.03006659 -0.002799895 0.1626856 0.08497936 0.06425935 0.016585335 -0.17599523 0.17612386
-0.090237394 0.11091201 -0.14990386 0.110925145 0.041980457 0.39253652 -0.01816144 0.105351835
-0.16984777 -0.056827802 -0.023563342 -0.08900697 0.08560274 0.010377835 -0.04255664 0.040340118
-0.097533844 -0.079844065 0.11842507 -0.19232568 -0.12079133 -0.07239675 0.016715495 0.031597994
0.026908424 0.0018755606 -0.051357597 0.03952973 -0.017058173 -0.0699062 -0.058604788 -0.05937978
-0.025585528 -0.017023461 0.08507368 0.060077254 0.12055493 -0.1109393 0.058365304 -0.003783387
-0.01010961 0.014863409 0.013304301 -0.12333531 0.035838768 0.37551537 -0.012648049 0.016566338
-0.029217143 0.02031139 -0.10277531 -0.023633111 -0.0037957737 -0.057615396 -0.12466113 -0.061773207
0.17811373 -0.010556097 0.032552186 -0.04713257 -0.057166878 -0.0018083786 0.4251401 0.054017473
-0.07277969 0.12137783 -0.035810627 -0.0014922101 -0.08697816 -0.033183303 -0.021218741 -0.05401283
-0.05253445 0.25698072 -0.016061744 0.013423196 -0.031732712 0.058923915 -0.016912948 -0.03750094
0.018434484 -0.069355294 0.0047254637 -0.025294097 0.013495014 -0.029331852 0.05895363 0.65860283
-0.116816774 0.028552769 0.5021363 -0.057881013 -0.08271578 0.003990551 -0.18607898 -0.0572874
0.07502567 0.009103064 -0.0037849674 -0.028063452 0.032784224 -0.017652491 -0.029349672 -0.057472195
00000000: d371 9e3c 0b1d 8dbd 1e62 46bd 3451 423e
00000010: 9460 c83c 825f 15bd 62e9 283c a7db 05bd
00000020: 9c2a 53bd 5b49 2f3c 8b76 c23a 2007 073e
00000030: d145 943e 1520 20bd d8cb 5cbd bc8a 153e
00000040: a52c b3bd 19c5 67bd 36c9 14bd 5360 193d
00000050: 7687 db3d 4d44 28be d08f 463b bb55 92bc
00000060: 6b09 bc3c d568 23bd b63c d9bc ada4 7abd
00000070: c54e 433f dc2a e93c be4c 80bd 8854 a9bd
00000080: 2d46 94bd 7665 a0bd eb21 27bd 181c 50bd
00000090: 6bf9 e4bd 1ed7 463c eacf d73d 4301 96bd
000000a0: 997e d1bd 972f dd3c 0f30 27bd 1155 38be
000000b0: 753f 2c3d 1f51 ce3c c8fe cf3d d02b 7fbd
000000c0: a3e3 e23d 2828 65bc 9eed 53bc 875a 02bd
000000d0: f268 e33d 2a13 153e da6f 8fbc 7f2f 253d
000000e0: 0f33 143d c6f2 0bbd 9a18 58bd 0007 133d
000000f0: 9183 98bd 2239 84bd 1135 3c3d 33a7 87bd
00000100: d3ca a9bc 60d2 8fbb d0a3 f03c d132 d9bb
00000110: 4f2d 063d 3d53 84bd f196 66be fa89 d6bd
00000120: 8fcd cebc 83ce e2bd f274 67bd 28a7 7abe
00000130: d359 1e3c 3fe2 10be 2e1d be3d 0c79 a23e
00000140: a7d3 39bd cbc1 bebb 8b5e 84bd 8d72 573d
00000150: 543a bcbd d87e 89bd a40f 043e 237b 983e
00000160: ff5f 293e 014b f3bd af0a 1d3d 0c8d ec3c
00000170: d48d 53bd 7d61 fb3d e4f5 85bd e905 75bd
00000180: 16c2 193d 7bd9 a93c 3758 093e a4f0 f93c
00000190: 72c4 0cbd 0805 86bd 99b2 0e3c 508e b43e
000001a0: a86d 25bd 1bba 9a3b ace1 dabb bf31 fabd
000001b0: 69ed 81be 3490 b63b 2746 c0ba b30d f4bd
000001c0: 8d7a 7cbd 2857 a53e fe6a 26bd 1bf1 1cbd
000001d0: 0401 cf3c 972c d7bc 8ec8 663d 7f41 8fbd
000001e0: 02f7 7f3c 9c23 dfbd 15bb d2bd ec31 e13d
000001f0: 16a0 13bd e661 d9bd a2e7 d4bd 61fe c3bd
00000200: c3de 6dbd a02d 45be e828 2dbe a284 96bd
00000210: d335 4bbc 83a5 85bd 30b7 5bbd 6a9c c13c
00000220: 6ee9 34bd 7bfa ccbe 9b2d 673d 8400 073e
00000230: 5530 fd3c f443 923d c836 ddbc 5989 96bd
00000240: 364e f6bc 717e 37bb 0e97 263e a909 ae3d
00000250: 689a 833d f8dd 873c 1838 34be d059 343e
00000260: 62ce b8bd d625 e33d 6680 19be b92c e33d
00000270: b3f3 2b3d 8cfa c83e 4dc7 94bc b4c2 d73d
00000280: 93ec 2dbe 45c4 68bd e907 c1bc 4949 b6bd
00000290: 7d50 af3d cb07 2a3c df4f 2ebd ae3b 253d
000002a0: d3bf c7bd 4985 a3bd d888 f23d 06f1 44be
000002b0: 7261 f7bd bf44 94bd efee 883c e66c 013d
000002c0: 0e6f dc3c 5fd5 f53a 585c 52bd ede9 213d
000002d0: 95bd 8bbc fb2a 8fbd 930b 70bd 3638 73bd
000002e0: be98 d1bc c974 8bbc 1c3b ae3d 9113 763d
000002f0: 81e5 f63d 2534 e3bd 7510 6f3d b3f2 77bb
00000300: c7a2 25bc a885 733c 48fa 593c 3997 fcbd
00000310: accb 123d 8d43 c03e c339 4fbc 21b6 873c
00000320: ca58 efbc 1264 a63c dd7b d2bd 3a9a c1bc
00000330: 84c2 78bb 1ffe 6bbd 564e ffbd e705 7dbd
00000340: 7263 363e 7bf3 2cbc 7155 053d 150e 41bd
00000350: d127 6abd 1e07 edba f7ab d93e 6d41 5d3d
00000360: 850d 95bd f194 f83d 2aae 12bd 4396 c3ba
00000370: 9b21 b2bd 37eb 07bd edd2 adbc 8f3c 5dbd
00000380: 5d2e 57bd fa92 833e eb93 83bc f7ec 5b3c
00000390: 29fa 01bd 345a 713d 068d 8abc 969a 19bd
000003a0: ea03 973c 260a 8ebd 10d8 9a3b 9135 cfbc
000003b0: 311a 5d3c 5a49 f0bc 5d79 713d 329a 283f
000003c0: a23d efbd 7fe7 e93c 018c 003f a414 6dbd
000003d0: e466 a9bd 2bc3 823b 7d8b 3ebe 31a6 6abd
000003e0: 0fa7 993d 0525 153c 370d 78bb 53e5 e5bc
000003f0: c048 063d f59b 90bc b96e f0bc f767 6bbd

fc3.weight f4 [128, 256]
-0.014186002 -0.02944222 -0.029254876 -0.05884487 -0.045140795 0.048484914 0.037245832 0.017804295
0.019898362 -0.023043156 0.042318866 0.02496064 0.025543494 0.009234987 0.026733652 0.041744858
-0.038649708 0.002740547 0.03292974 0.0030174926 0.021491215 -0.0010791854 -0.036530644 -0.009199254
0.029973865 0.010288864 0.04668542 0.04641381 0.0028081597 -0.04780595 -0.0273154 0.040345944
0.0474673 -0.041139044 -0.026283652 -0.049105346 0.04764832 -0.058860328 0.043062426 -0.046391323
0.055975072 0.059310675 0.04252071 -0.04731883 0.00866576 0.047086746 0.018321112 0.0012324601
-0.025771804 0.05568237 0.030615382 -0.008603044 -0.03404603 0.0571786 0.01907958 -0.01822526
-0.00023982674 -0.052273266 0.056609362 0.005273089 -0.017697783 -0.012159757 0.01701504 -0.060220018
0.01748006 -0.05615592 -0.057047784 -0.03620825 -0.038593136 -0.031041503 0.027134698 -0.035692036
0.050184272 -0.026468359 0.0066730455 0.006605911 0.060396947 -0.01627373 0.028750408 -0.015854234
-0.010461003 -0.036848575 0.061231762 -0.069048636 -0.015156604 0.027885534 -0.018127888 0.03196198
0.01597339 -0.06718148 0.0030908287 0.03966461 -0.008708001 -0.057964966 -0.037256427 -0.062112365
0.015762605 -0.041794688 0.01081913 0.030091122 0.03015928 -0.044681817 0.062191285 -0.026875023
-0.054242693 -0.041949723 0.03345307 -0.029733479 -0.05855117 0.043217305 -0.056471698 0.0516954
-0.03614966 -0.06661024 0.007270843 0.05931165 0.054897226 -0.054942906 0.061446466 0.056576237
0.04668115 -0.03797642 -0.05274 -0.0016627014 -0.010195173 0.040160127 -0.009405144 0.0004074118
-0.029068708 0.025924407 -0.0050843204 0.028652914 -0.03288222 0.035314597 -0.036137924 -0.05188974
0.007317081 0.03714425 -0.03038542 -0.07767263 0.06013757 0.006843437 -0.013207391 -0.06644962
0.04247506 -0.0026867464 -0.032451127 0.035577565 0.04409811 0.025205895 0.02232159 -0.026871236
0.012671709 -0.022056049 -0.022234276 -0.05241184 0.047710598 -0.07406044 -0.032782838 0.03736426
-0.026884638 0.039588027 -0.030043773 -0.05341339 -0.027716435 -0.014501296 0.0597732 -0.009355456
-0.006286189 0.0359362 0.040087745 0.028891042 0.04627581 -0.01601594 -0.056719285 -0.030014597
0.037026703 -0.054619387 0.041852042 0.055650838 0.05548422 -0.053194635 -0.07054823 0.04085944
-0.009323671 -0.035174467 -0.018321268 0.016181596 -0.03517393 0.018384583 0.007992186 -0.02583509
0.029478043 -0.047080763 0.016858935 0.01576706 0.0105522275 -0.078391306 -0.03782326 0.052742682
-0.016598932 -0.0053436756 0.009419426 -0.040479645 -0.021250367 -0.047222726 0.020102877 0.025091462
0.044108465 -0.002532266 -0.059482053 -0.009078935 0.04363528 -0.023457572 -0.040727455 0.048837
-0.038027085 -0.008078352 -0.045259245 0.021489285 -0.05638673 -0.00897871 -0.02147866 0.024819575
-0.046562925 0.029140249 0.028045155 -0.033011317 0.053543262 -0.003949769 -0.05080074 0.031778082
-0.05072502 0.049887888 0.0059474558 -0.048474133 -0.034238055 -0.05922594 -0.021626608 0.0010842052
-0.042069003 -0.027381748 -0.015259229 -0.010819621 0.014110841 0.02905447 0.0200326 -0.0039774133
-0.020065004 -0.013412468 0.051253624 -0.020919316 -0.03295078 0.008064471 0.034387305 0.029162616
00000000: 686c 68bc d030 f1bc eca7 efbc 5207 71bd
00000010: 8ee5 38bd 1e98 463d 168f 183d 50da 913c
00000020: e401 a33c 00c5 bcbc 8c56 2d3d 427a cc3c
00000030: 9740 d13c 584e 173c 8800 db3c a8fc 2a3d
00000040: 284f 1ebd c09a 333b 56e1 063d 20c1 453b
00000050: 580e b03c 7473 8dba 28a1 15bd 78b8 16bc
00000060: c08b f53c a092 283c 3639 3f3d 681c 3e3d
00000070: 1a09 383b 2cd0 43bd 8cc4 dfbc ca41 253d
00000080: 126d 423d 6a81 28bd d050 d7bc b022 49bd
00000090: e32a 433d 8717 71bd 3a62 303d d404 3ebd
000000a0: 1e46 653d c0ef 723d 322a 2e3d 64d1 41bd
000000b0: d5fa 0d3c 08de 403d 2816 963c 808a a13a
000000c0: 641f d3bc 3213 643d 1ccd fa3c c8f3 0cbc
000000d0: da73 0bbd 1c34 6a3d c84c 9c3c 244d 95bc
000000e0: 007a 7bb9 7e1c 56bd 38df 673d e0c9 ac3b
000000f0: f1fa 90bc b839 47bc 2063 8b3c 44a9 76bd
00000100: 5832 8f3c c003 66bd f0aa 69bd 1a4f 14bd
00000110: d613 1ebd c04a febc 9649 de3c d031 12bd
00000120: 068e 4d3d 2cd4 d8bc 90a9 da3b 6676 d83b
00000130: ca62 773d 7c50 85bc fa85 eb3c bde0 81bc
00000140: a064 2bbc 88ee 16bd 28ce 7a3d 5f69 8dbd
00000150: 6853 78bc 3470 e43c f080 94bc 91ea 023d
00000160: a0da 823c 7296 89bd 808f 4a3b 5c77 223d
00000170: 01ac 0ebc ac6c 6dbd 329a 18bd 8969 7ebd
00000180: 9420 813c e830 2bbd b842 313c a881 f63c
00000190: 9810 f73c 4804 37bd 4abc 7e3d 0229 dcbc
000001a0: 962d 5ebd 79d3 2bbd 1606 093d a093 f3bc
000001b0: 5ad3 6fbd a104 313d de4e 67bd 8ebe 533d
000001c0: aa11 14bd f36a 88bd 4040 ee3b c6f0 723d
000001d0: eadb 603d d00b 61bd 4aaf 7b3d 7cbc 673d
000001e0: bc34 3f3d 2a8d 1bbd e605 58bd 00ef d9ba
000001f0: a809 27bc f27e 243d 0818 1abc e399 d539
00000200: 8021 eebc 6c5f d43c 5f9a a6bb 84b9 ea3c
00000210: 82af 06bd 0aa6 103d 5c05 14bd 568a 54bd
00000220: 20c4 ef3b 9224 183d d8ea f8bc d412 9fbd
00000230: d052 763d e93e e03b d063 58bc bd16 88bd
00000240: 54fa 2d3d 2014 30bb 79eb 04bd c8b9 113d
00000250: 38a0 343d 987c ce3c c4db b63c 1121 dcbc
00000260: 009d 4f3c e3ae b4bc a824 b6bc ccad 56bd
00000270: 306c 433d 00ad 97bd 4c47 06bd 440b 193d
00000280: 2c3d dcbc 0e27 223d 5c1e f6bc 00c8 5abd
00000290: 940d e3bc d896 6dbc bed4 743d a047 19bc
000002a0: 60fc cdbb d631 133d 0c33 243d e8ac ec3c
000002b0: b48b 3d3d dc33 83bc 7b52 68bd 2ce1 f5bc
000002c0: 50a9 173d 94b8 5fbd 0c6d 2b3d 22f2 633d
000002d0: 6c43 633d 9ee2 59bd 977b 90bd 3a5c 273d
000002e0: 50c2 18bc 1a13 10bd 7c16 96bc 448f 843c
000002f0: 8a12 10bd 449b 963c a8f1 023c 1ca4 d3bc
00000300: f07b f13c c2d7 40bd c01b 8a3c ec29 813c
00000310: 40e3 2c3c 9f8b a0bd 90ec 1abd b608 583d
00000320: 7cfa 87bc 001a afbb f053 1a3c fccd 25bd
00000330: 4015 aebc 9e6c 41bd caae a43c 9c8c cd3c
00000340: 14ab 343d 60f4 25bb 74a3 73bd d0bf 14bc
00000350: e8ba 323d 182a c0bc d5d1 26bd 4e09 483d
00000360: 4ac2 1bbd 105b 04bc c261 39bd 4c0a b03c
00000370: c6f5 66bd 701b 13bc 04f4 afbc 6c52 cb3c
00000380: c4b8 3ebd 88b7 ee3c f4be e53c e036 07bd
00000390: 2e50 5b3d 106d 81bb 7014 50bd bc29 023d
000003a0: 0ac5 4fbd 3e57 4c3d e0e2 c23b d08c 46bd
000003b0: 343d 0cbd e696 72bd 492a b1bc e41b 8e3a
000003c0: 8c50 2cbd b04f e0bc d801 7abc c844 31bc
000003d0: 2831 673c a403 ee3c 681b a43c f654 82bb
000003e0: 5d5f a4bc f8bf 5bbc 52ef 513d fc5e abbc
000003f0: 66f7 06bd d820 043c b4d9 0c3d 70e6 ee3c

fc3.bias f4 [128]
0.015699754 0.02704769 -0.24078695 0.1816731 0.05244668 0.124458976 0.07711882 0.041410666
-0.03694316 -0.1388439 -0.06306816 -0.038327355 0.110763654 -0.10030203 -0.04385442 -0.033721086
0.06797609 0.020585548 0.048834763 -0.029762723 0.28528413 -0.052283056 -0.02412793 -0.039170403
-0.06361302 -0.013734792 0.09319821 0.110888556 0.28488815 -0.06989516 0.008738771 -0.07136186
-0.11231899 -0.035652943 -0.005333867 -0.034724154 0.037802454 0.004899945 0.23979117 -0.1699446
0.23631656 -0.09187683 0.0030723861 0.023154547 -0.07639176 0.32943505 -0.06250633 -0.110224895
-0.0473081 -0.0074773 0.021876285 0.1503192 -0.04816436 -0.07427907 0.009852802 -0.17974663
-0.028074637 0.24984446 -0.086059034 0.25276887 -0.038852118 0.038216494 -0.017766882 -0.061375223
0.008825181 -0.07336018 -0.03820106 0.027748086 0.024933904 0.07866939 0.045322996 0.034517612
-0.078846484 -0.013746698 -0.06755117 -0.032251325 -0.17900285 -0.14255165 0.044227313 0.30696997
0.28268263 0.080883674 -0.27606004 0.008832103 -0.007687012 0.15979743 0.1773218 0.3308887
0.055178173 -0.025571942 -0.023552328 0.024484547 -0.06704187 -0.13680635 0.06618951 -0.042742826
-0.009280296 -0.011148432 -0.047994174 -0.08954409 0.03741471 0.29870152 0.061124716 0.036523215
-0.10669424 0.292348 -0.05816357 0.0071055912 0.005678848 -0.21803588 -0.178686 0.031364378
-0.021144003 0.02941084 0.33829182 0.04177273 -0.06231548 -0.039902475 0.035659615 -0.11734385
-0.17584594 -0.37716246 -0.027478801 -0.08938078 -0.002714219 -0.013690471 -0.09969007 0.007517948
00000000: c59c 803c 1e93 dd3c db90 76be 8308 3a3e
00000010: 54d2 563d 59e4 fe3d 79f0 9d3d 3b9e 293d
00000020: b651 17bd 182d 0ebe e129 81bd 25fd 1cbd
00000030: 0ed8 e23d 276b cdbd b1a0 33bd 1f1f 0abd
00000040: 0c37 8b3d 06a3 a83c f606 483d f4d0 f3bc
00000050: c310 923e c226 56bd f0a7 c5bc 2571 20bd
00000060: 8b47 82bd e507 61bc b4de be3d 8a19 e33d
00000070: dcdc 913e 3225 8fbd 102d 0f3c 2b26 92bd
00000080: 8007 e6bd d208 12bd b8c7 aebb ea3a 0ebd
00000090: bfd6 1a3d b88f a03b d18b 753e f505 2ebe
000000a0: f8fc 713e eb29 bcbd 165a 493b 9bae bd3c
000000b0: 4873 9cbd b6ab a83e 5203 80bd 97bd e1bd
000000c0: 23c6 41bd 2304 f5bb e535 b33c 47ed 193e
000000d0: fe47 45bd a01f 98bd a66d 213c 800f 38be
000000e0: c8fc e5bc 3ad7 7f3e b83f b0bd ec6a 813e
000000f0: 6623 1fbd e688 1c3d da8b 91bc 9664 7bbd
00000100: 7e97 103c dd3d 96bd b778 1cbd f44f e33c
00000110: 3042 cc3c 6b1d a13d 9ba4 393d 5762 0d3d
00000120: 447a a1bd d539 61bc 4558 8abd f719 04bd
00000130: 864c 37be 0ff9 11be b327 353d 2b2b 9d3e
00000140: c7bb 903e 57a6 a53d be57 8dbe 86b4 103c
00000150: 55e3 fbbb f0a1 233e d993 353e 3e6a a93e
00000160: 8202 623d 407c d1bc d0f0 c0bc d193 c83c
00000170: 3f4d 89bd f716 0cbe 5e8e 873d 1a13 2fbd
00000180: 620c 18bc eaa7 36bc 8a95 44bd e462 b7bd
00000190: 2b40 193d 68ef 983e e95d 7a3d 5e99 153d
000001a0: 8282 dabd a3ae 953e ec3c 6ebd 05d6 e83b
000001b0: a115 ba3b cc44 5fbe 76f9 36be ef77 003d
000001c0: 3036 adbc 00ef f03c 9634 ad3e e219 2b3d
000001d0: 843e 7fbd c770 23bd d10f 123d f951 f0bd
000001e0: f510 34be 701b c1be 391b e1bc 450d b7bd
000001f0: 0ae1 31bb ff4d 60bc 4f2a ccbd 1e59 f63b

fc4.weight f4 [7, 128]
0.0047222157 -0.6338554 -0.6508647 -1.0576435 -0.68649954 -0.70157534 -1.0837775 0.011091648
0.07505477 0.09068683 0.070777334 -0.062939845 -0.630916 -0.003993546 -0.51383287 0.049992494
-0.6778538 0.60000974 0.036415298 0.07133403 0.48715115 0.020036474 -0.023912469 -0.725939
0.0036256106 0.019609727 -0.7083207 -0.5835528 0.76007795 -0.05206255 0.1304756 -0.011089298
0.14302512 -0.029080668 -0.014379046 -0.7088184 -0.006651221 -0.65497684 0.38006893 0.22416279
0.46688455 -0.014838755 -0.5805197 0.053710453 -0.63391775 1.55262 0.009266554 0.05425916
-0.061238613 0.06599338 -0.6033511 -0.61165893 0.028081678 -0.026446454 -0.02983458 0.21350583
-1.0605332 0.81283534 -0.56492496 0.40244576 0.040026475 -0.65103185 -0.60645 0.03625213
-0.59063834 0.031947583 0.002493346 -0.66888255 -0.5873767 -0.57411015 -0.07946251 -0.014721167
-0.4893827 -0.6039778 -0.5711465 -0.034923725 0.10766053 0.16803826 -0.5577396 0.5890446
0.6391988 -0.84450114 -0.5056169 -0.6080499 -0.0048444443 0.46249098 0.62533545 0.6302044
0.08219108 -0.67666423 -0.6248123 -0.65825623 0.014559036 0.22033629 -0.6658615 0.06985245
-0.044081684 0.073305085 0.019659828 0.07008744 0.021186532 0.56235117 -0.85131973 0.030814
-0.8385791 1.1599216 0.034016553 -0.6436592 0.0732066 0.21368235 0.1328183 -0.7031118
-0.5909689 -0.7052484 0.81682324 -0.69429463 -0.7133968 0.04250736 -0.6701147 -0.8386669
0.09104394 0.07088774 -0.64045066 0.085627474 0.013912703 -0.59503484 -0.033760197 -0.011112724
-0.013126634 -0.5256372 -0.70724964 -1.1066681 -0.6526473 -0.5921787 -1.1100857 0.015636435
0.030421011 -0.07327264 0.03228925 0.05642106 -0.612671 -0.06652714 -0.68966955 -0.05049176
-0.55937964 0.562881 0.06657513 0.070527375 0.530781 0.074436165 -0.03269665 -0.6509256
-0.043367177 -0.055856787 -0.62951124 -0.61914283 0.5684927 0.020678058 0.029906854 0.052491426
0.06983937 -0.071898386 -0.010693654 -0.6634485 0.082915656 -0.6822045 0.6312958 0.037134267
0.41774783 -0.066545814 -0.60855675 -0.113926545 -0.744067 1.6219989 -0.03618599 -0.08331605
0.08444076 0.016297089 -0.5389098 -0.5578635 0.048536133 -0.07626311 0.05430787 0.025821652
-0.9392814 0.7559611 -0.580681 0.54746354 0.07904003 -0.6855364 -0.6711811 -0.13468355
-0.6188474 -0.13650744 0.09084473 -0.69529885 -0.602693 -0.6947026 -0.059165075 -0.079138674
-0.6498571 -0.63693833 -0.59282726 -0.055758428 -0.028561864 -0.009272794 -0.74842125 0.55669343
0.5212081 -0.82083905 -0.43200704 -0.60932106 0.043920543 0.55974454 0.66125953 0.5645208
-0.03369934 -0.5592509 -0.52860063 -0.6645557 -0.1048764 -0.04619819 -0.6326109 0.027709207
-0.052257463 0.027405938 -0.08089618 -0.028713679 -0.024350628 0.55135965 -0.92855996 -0.045333315
-0.56323534 1.2023959 0.020032138 -0.65095454 0.016773505 0.030986482 0.043700732 -0.71286124
-0.6944884 -0.5638439 0.81076545 -0.62346375 -0.87360424 -0.00402508 -0.6467626 -1.0640727
0.02246283 -0.1775069 -0.5665228 -0.039397277 0.01897894 -0.5160916 -0.24282311 0.04360796
00000000: d1bc 9a3b 5944 22bf 129f 26bf dd60 87bf
00000010: 6fbe 2fbf 719a 33bf 39b9 8abf beb9 353c
00000020: 51b6 993d 04ba b93d b5f3 903d 9be6 80bd
00000030: b683 21bf 4bdc 82bb 8d8a 03bf eec4 4c3d
00000040: d487 2dbf 3d9a 193f 3528 153d 9317 923d
00000050: e06b f93e 8823 a43c 15e4 c3bc 23d7 39bf
00000060: a79b 6d3b 94a4 a03c 8154 35bf b763 15bf
00000070: 7894 423f 8a3f 55bd 659b 053e e3af 35bc
00000080: 2d75 123e 953a eebc 1796 6bbc 1f75 35bf
00000090: 7cf2 d9bb 90ac 27bf 6598 c23e ee8a 653e
000000a0: 7e0b ef3e 401e 73bc f09c 14bf 7eff 5b3d
000000b0: 6f48 22bf 41bc c63f bfd2 173c da3e 5e3d
000000c0: 57d5 7abd 8a27 873d 3875 1abf ae95 1cbf
000000d0: 8c0b e63c 3ca6 d8bc a667 f4bc 46a1 5a3e
000000e0: 8dbf 87bf fa15 503f ec9e 10bf 5f0d ce3e
000000f0: cdf2 233d 06aa 26bf 4f40 1bbf 1d7d 143d
00000100: 1334 17bf 78db 023d 6867 233b e33b 2bbf
00000110: 525e 16bf e2f8 12bf 3ebd a2bd 0d31 71bc
00000120: 5f90 fabe 4a9e 1abf a836 12bf 2e0c 0fbd
00000130: 207d dc3d 3912 2c3e 06c8 0ebf a0cb 163f
00000140: 88a2 233f 3a31 58bf 1c70 01bf 29a9 1bbf
00000150: 25be 9ebb 9ecb ec3e fc15 203f 1355 213f
00000160: cc53 a83d de39 2dbf b3f3 1fbf 7b83 28bf
00000170: 0689 6e3c d69f 613e e675 2abf cd0e 8f3d
00000180: ff8e 34bd fa20 963d a60d a13c 018a 8f3d
00000190: 618f ad3c 3ff6 0f3f 17f0 59bf a46d fc3c
000001a0: 1fad 56bf 5078 943f f154 0b3d d9c6 24bf
000001b0: 58ed 953d 8ccf 5a3e 8501 083e 23ff 33bf
000001c0: bd49 17bf 298b 34bf 541b 513f 4bbd 31bf
000001d0: 2ca1 36bf 331c 2e3d a38c 2bbf e0b2 56bf
000001e0: 3f75 ba3d 972d 913d 93f4 23bf 755d af3d
000001f0: 1bf2 633c 3454 18bf 2248 0abd 2512 36bc
00000200: 1811 57bc 2990 06bf 500e 35bf 4da7 8dbf
00000210: e513 27bf 0699 17bf 4a17 8ebf fb17 803c
00000220: 7c35 f93c f70f 96bd bc41 043d c519 673d
00000230: 02d8 1cbf 623f 88bd 2f8e 30bf 73d0 4ebd
00000240: 8133 0fbf f818 103f 8b58 883d a870 903d
00000250: 43e1 073f fd71 983d ecec 05bd 0fa3 26bf
00000260: c8a1 31bd 16ca 64bd a627 21bf 2580 1ebf
00000270: bd88 113f 0865 a93c 38ff f43c 4001 573d
00000280: f207 8f3d 763f 93bd 7034 2fbc c3d7 29bf
00000290: afcf a93d f4a4 2ebf 9a9c 213f 1a1a 183d
000002a0: 0be3 d53e 2c49 88bd 60ca 1bbf 5252 e9bd
000002b0: 2d7b 3ebf a99d cf3f c337 14bd 9ba1 aabd
000002c0: 47ef ac3d 7981 853c fef5 09bf 24d0 0ebf
000002d0: d3cd 463d d52f 9cbd ee71 5e3d ee87 d33c
000002e0: bf74 70bf ab86 413f 83a7 14bf 9226 0c3f
000002f0: bddf a13d 507f 2fbf 86d2 2bbf 7cea 09be
00000300: c96c 1ebf 9bc8 0bbe cd0c ba3d 1bff 31bf
00000310: 174a 1abf 08d8 31bf 1457 72bd 7513 a2bd
00000320: 095d 26bf 640e 23bf 87c3 17bf f362 64bd
00000330: 92fa e9bc ebec 17bc 8998 3fbf 7683 0e3f
00000340: e56d 053f 8222 52bf 0730 ddbe 77fc 1bbf
00000350: 07e6 333d 6b4b 0f3f 4e48 293f 6f84 103f
00000360: 5208 0abd 112b 0fbf 5f52 07bf 5320 2abf
00000370: 70c9 d6bd 503a 3dbd caf2 21bf 6bfe e23c
00000380: ec0b 56bd 6b82 e03c e5ac a5bd f338 ebbc
00000390: f87a c7bc e825 0d3f 1bb6 6dbf 6daf 39bd
000003a0: 3130 10bf 1ce8 993f 701a a43c f5a4 26bf
000003b0: 9768 893c 5dd7 fd3c 8aff 323d 137e 36bf
000003c0: fec9 31bf 1358 10bf 538e 4f3f 529b 1fbf
000003d0: 87a4 5fbf d1e4 83bb 3c92 25bf 8933 88bf
000003e0: f803 b83c 5ec4 35be a307 11bf 0a5f 21bd
000003f0: b979 9b3c 941e 04bf 9fa6 78be 439e 323d

fc4.bias f4 [7]
-0.09965179 -0.04167597 0.5840842 -0.12563308 0.12520844 -0.31709057 0.35632432
00000000: 3d16 ccbd 6cb4 2abd 8b86 153f f5a5 00be
00000010: a436 003e b259 a2be 2470 b63e
