models/lateral_stage2_seed1111_best.pth (torch, 412467 bytes, 8 tensors)

fc1.weight f4 [256, 9]
0	0x4011555f	2.2708356
1	0xbeddfc6f	-0.43356654
2	0x3c47e5d0	0.012200788
3	0xbe131de2	-0.14366868
4	0x3f3b0ee5	0.730696
5	0x3d1800da	0.037110187
6	0xbc438ca0	-0.011935383
7	0x3e97c0cb	0.29639277
8	0xbcafb657	-0.021449251
9	0x404abbbd	3.1677086
10	0xbdef93f8	-0.11698145
11	0x3f07a1e7	0.5298142
12	0x3e28faa7	0.16501866
13	0x3ec617eb	0.38690123
14	0x3cb5f67e	0.022212263
15	0xbd786b68	-0.060649306
16	0x3e67fd32	0.2265518
17	0x3e96603e	0.29370302
18	0xbf60987f	-0.8773269
19	0xbea13843	-0.31488237
20	0xbec7a2f2	-0.38991505
21	0xbeaa93c7	-0.3331587
22	0xbd104f85	-0.035232086
23	0xbeded1ee	-0.4351954
24	0xbdec3e6c	-0.115353435
25	0x3e2964fa	0.16542426
26	0x3e2cab24	0.1686216
27	0x3eb1b519	0.3470848
28	0xbe3d5b08	-0.18491757
29	0xbdc75f07	-0.09734922
30	0x3e5d9336	0.21638188
31	0xbe94bdc6	-0.29051036
32	0xbeb46ae6	-0.35237807
33	0x3e0344e8	0.12819254
34	0x3dafd5b4	0.085856825
35	0xbe0af28e	-0.1356909
36	0xc0575a23	-3.3648765
37	0xbe87314a	-0.26404792
38	0xbf1dedbc	-0.6169088
39	0xbe9b7fad	-0.30370846
40	0x3d28dfd6	0.04122909
41	0xbc0d107e	-0.008609889
42	0xbe62b8de	-0.22140834
43	0x3e28df30	0.1649139
44	0xbf0a9eca	-0.5414854
45	0x3a612485	0.00085885107
46	0xbf599571	-0.84993654
47	0xbf209c0b	-0.627381
48	0xbedddc41	-0.43332103
49	0x3e9505ea	0.29106075
50	0x3f33f0fc	0.7028959
51	0x3ea3d97d	0.32001868
52	0x3e778f8e	0.24175856
53	0xbe6a3277	-0.22870813
54	0xc064e7de	-3.576652
55	0xbe99a1ff	-0.30006406
56	0xbf25019a	-0.6445557
57	0xbd1e39fb	-0.038629513
58	0xbe991778	-0.29900718
59	0xbdd76189	-0.1051665
60	0x3d9679d0	0.07347453
61	0x3ea23c7d	0.31686774
62	0xbe628635	-0.22121508
63	0x40016a45	2.0221112
64	0xbf129d78	-0.5727153
65	0x3eaa625a	0.3327816
66	0xbe8196df	-0.25310418
67	0x3e9d893f	0.30768773
68	0x3d1c51b1	0.038163844
69	0xbe35d783	-0.17757992
70	0xbe9e202a	-0.30883914
71	0x3e75a46e	0.23988506
72	0x3e3c8e32	0.18413618
73	0xbeb4429f	-0.35207078
74	0x3f065dac	0.5248668
75	0xbf18ff08	-0.59764147
76	0xbdc3b3ce	-0.095557794
77	0x3dce0e28	0.10061294
78	0x3e3e5fba	0.18591204
79	0x3c886090	0.016647607
80	0xbe303ed4	-0.17211467
81	0xc03cc677	-2.9496133
82	0xbf08b361	-0.5339871
83	0x3e95420a	0.29151946
84	0xbbffd631	-0.007807516
85	0xbeab88c0	-0.3350277
86	0xbe6076d6	-0.21920332
87	0x3e1332b0	0.14374804
88	0x3b31d480	0.0027134717
89	0x3da1a794	0.07893291
90	0xc0620171	-3.531338
91	0x3ea9153e	0.3302402
92	0x3e366692	0.17812565
93	0xbe7df573	-0.24800663
94	0xbd51dc5f	-0.051235553
95	0x3ea2420c	0.31691015
96	0xbdddf286	-0.10837273
97	0x3ea3cf85	0.31994262
98	0xbe9e6a24	-0.30940354
99	0x3fa6da73	1.3035415
100	0xbee6cf01	-0.45079806
101	0xbe2ffbed	-0.17185946
102	0xbca406e9	-0.020022826
103	0xbccfd571	-0.025370331
104	0x3e134deb	0.14385192
105	0x3da35ce4	0.07976702
106	0x3e9439eb	0.28950438
107	0x3ed5b790	0.4174161
108	0x40482490	3.1272316
109	0xbe1167c9	-0.14199747
110	0x3f13022f	0.57425207
111	0xbcf74bb8	-0.030187473
112	0x3e32ac09	0.17448439
113	0xbe08a011	-0.1334231
114	0x3cb34480	0.02188325
115	0xbe8c3fe4	-0.27392495
116	0xbe1703d7	-0.14747559
117	0xbe7f9274	-0.24958211
118	0xbe3b97e9	-0.18319668
119	0xbe2eb674	-0.17061788
120	0xbc57042c	-0.013123553
121	0x3ec5a316	0.38600987
122	0xbe1d6fbb	-0.15374653
123	0x3d3407b8	0.043952674
124	0x3e43a39a	0.19105378
125	0xbe9218cc	-0.28534544
126	0x408a2437	4.3169208
127	0x3e48f042	0.19622901
128	0x3e38dd94	0.18053275
129	0xbf241047	-0.6408734
130	0x3de0bb4d	0.10973225
131	0x3e4f2d9a	0.2023224
132	0x3e40f78e	0.18844435
133	0x3e7c6bba	0.2465047
134	0x3e010cb6	0.12602505
135	0xc06968a1	-3.647011
136	0x3deb382d	0.11485324
137	0xbe07315c	-0.13202423
138	0x3f4230e1	0.75855833
139	0xbe27d3ba	-0.16389361
140	0x3e36db96	0.17857203
141	0xbd73b588	-0.059499294
142	0x3e1dd520	0.15413332
143	0xbe318004	-0.1733399
144	0xc00a69f2	-2.1627164
145	0x3e2f94ee	0.17146656
146	0x3d50676c	0.05087988
147	0xbeeee759	-0.4666088
148	0x3eb034fa	0.34415418
149	0x3dff5531	0.12467421
150	0x3e9ddf5f	0.3083448
151	0xbe425b1b	-0.18980066
152	0xbe38f3b5	-0.18061717
153	0x3ff98bbe	1.9495771
154	0x3d82f3ad	0.06394134
155	0x3e571fd3	0.21008234
156	0xbf0835cf	-0.53207105
157	0x3f14ab31	0.5807372
158	0xbea2f3df	-0.31826684
159	0xbe5b6526	-0.21425304
160	0x3e254840	0.16140842
161	0x3cf5c1db	0.029999664
162	0x40108cd0	2.2585945
163	0xbd81d364	-0.06339148
164	0x3f4b998d	0.79531175
165	0xbde6f1de	-0.11276601
166	0x3e57537a	0.21027938
167	0xbdf3c792	-0.119032994
168	0xbe554ce3	-0.20830111
169	0x3cb1e2b0	0.021714538
170	0x3dd1e404	0.10248569
171	0xbffaa049	-1.9580165
172	0xbf07db9a	-0.5306946
173	0x3e619f6d	0.22033472
174	0x3f3e6fe8	0.74389505
175	0x3ea37201	0.31922916
176	0x3f15f0c7	0.5857052
177	0xbd9b9b00	-0.07597923
178	0x3e14ad96	0.14519343
179	0x3db1ccae	0.08681618
180	0x3e9a351f	0.30118653
181	0x3eb39257	0.35072586
182	0xbf1b7ce4	-0.6073744
183	0xbe00d370	-0.12580657
184	0x3d219a03	0.039453518
185	0xbe9754ee	-0.29556984
186	0xbdb9f796	-0.090804264
187	0xbe2152f6	-0.15754303
188	0xbc35a25f	-0.011086076
189	0x409acc08	4.837406
190	0x3b66c434	0.003521216
191	0x3d482569	0.048863802
192	0x3d392497	0.04520091
193	0xbe496809	-0.19668593
194	0x3e5ec7f3	0.21755962
195	0x3e66503a	0.22491542
196	0xbdc32c96	-0.095299885
197	0x3e7f2974	0.24918157
198	0x3fe7758e	1.808275
199	0x3e5bf52d	0.21480246
200	0x3ec1e3c0	0.37869072
201	0x3e4d4ed5	0.20049603
202	0x3e63ad66	0.22234115
203	0x3dc3770a	0.09544189
204	0xbe516fcb	-0.20452802
205	0x3e8f7c71	0.2802463
206	0x3ec1b8bc	0.37836254
207	0xbfe14247	-1.7598351
208	0x3ec018d5	0.37518945
209	0xbe939fca	-0.28832847
210	0x3dbaa911	0.09114278
211	0xbefcf917	-0.4940879
212	0x3e7de44b	0.24794118
213	0xbe345856	-0.17611822
214	0xbcc8d8f0	-0.024517506
215	0xbeb56ce5	-0.35434642
216	0xbe6ddc93	-0.23228674
217	0x3eb78f40	0.3585148
218	0xbf32d071	-0.69849306
219	0x3f44746a	0.76740134
220	0xbd8581d2	-0.06518902
221	0x3e2efe73	0.17089252
222	0x3e141166	0.14459762
223	0x3da6dd54	0.08147684
224	0xbe2db2f4	-0.16962796
225	0xbfd1e983	-1.6399387
226	0x3ee5f264	0.44911492
227	0x3e4c2107	0.19934474
228	0xbe94ebf1	-0.2908626
229	0xbe32bbf5	-0.17454512
230	0x3ccfd868	0.025371745
231	0xbdce8cac	-0.10085425
232	0x3e27d428	0.16389525
233	0xbe43afbd	-0.19110008
234	0xc08cc55a	-4.399091
235	0x3de58a13	0.11207976
236	0xbe561f8f	-0.20910476
237	0xbb2a0281	-0.0025941434
238	0x3e40f324	0.18842751
239	0xbdec0862	-0.115250364
240	0xbe480013	-0.19531278
241	0x3e832dfb	0.25621018
242	0x3e6ae275	0.22937949
243	0xc0a4e1fd	-5.1525865
244	0x3e4547c1	0.19265653
245	0x3eba0ae3	0.3633643
246	0xbd6a5f8a	-0.05722002
247	0xbb3f9f29	-0.0029239154
248	0x3d25e3d3	0.040500473
249	0xbe731730	-0.23739314
250	0x3e40d0ea	0.18829694
251	0xbda983d0	-0.08277094
252	0x3ffe7ec7	1.9882439
253	0x3e94e7c9	0.29083088
254	0xbf3ea508	-0.7447057
255	0x3dd3064d	0.10303936

fc1.bias f4 [256]
0	0x3e2cc4be	0.16871926
1	0x3e8dae09	0.2767184
2	0x3eb7714f	0.35828635
3	0x3e8ba800	0.2727661
4	0xbd620e5d	-0.05518948
5	0xbe19d754	-0.15023547
6	0x3ea629ac	0.32453668
7	0xbe3331e7	-0.17499505
8	0xbe0e7157	-0.13910423
9	0x3e5122f3	0.20423488
10	0x3ea5becb	0.32372126
11	0x3dfebcb1	0.12438334
12	0x3e2d5053	0.16925173
13	0xbecc04bb	-0.3984736
14	0x3e790ebc	0.24322027
15	0x3e5bfe6d	0.21483774
16	0x3e4a2d20	0.19743776
17	0xbda574b0	-0.08078897
18	0x3eb8ff97	0.361325
19	0x3ec57534	0.3856598
20	0xbdf1f01e	-0.11813377
21	0x3e73d677	0.2381228
22	0xbdb927b1	-0.09040774
23	0x3e0bea18	0.13663518
24	0xbeb03682	-0.34416586
25	0x3ee0cc7c	0.4390601
26	0x3e0d0d0a	0.13774505
27	0xbe34951d	-0.17635007
28	0xbef5fde8	-0.48045278
29	0xbed1c55f	-0.40970895
30	0x3e88c999	0.26716307
31	0xbe8182a5	-0.25294986
32	0xbe2cb3e2	-0.16865495
33	0x3e9e0959	0.30866507
34	0x3ec9e696	0.39433736
35	0xbe21541f	-0.15754746
36	0xbe9c8864	-0.30572808
37	0x3d940821	0.07228113
38	0xbca36b02	-0.019948486
39	0xbe9823a8	-0.29714704
40	0x3d860558	0.06543988
41	0xbd3c2361	-0.045932177
42	0x3d42f9a5	0.04760136
43	0xbea2722f	-0.3172774
44	0x3eb541b2	0.35401684
45	0x3d75b440	0.059986353
46	0x3e614f66	0.22002944
47	0xbe4b3461	-0.198442
48	0x3d8bb1b7	0.06821006
49	0x3e9f3cb4	0.31101
50	0xbeb3327d	-0.34999457
51	0x3e91d02b	0.28479132
52	0xbecdb8de	-0.40180105
53	0x3e9e0ef9	0.30870798
54	0x3e319e42	0.17345527
55	0xbe8c6a40	-0.27424812
56	0x3e8369ef	0.25666758
57	0xbee444df	-0.44583794
58	0xbdd186e1	-0.10230804
59	0xbe5772c0	-0.21039867
60	0xbc951b0e	-0.018201377
61	0x3e2a024b	0.16602437
62	0x3cff112f	0.031136123
63	0x3e0fc0dc	0.14038414
64	0x3b0e2d93	0.0021694645
65	0x3dcbfca8	0.099603
66	0xbdaaf54a	-0.083475664
67	0x3e5adb8b	0.21372811
68	0x3db4dc23	0.0883105
69	0xbec11d6c	-0.3771776
70	0xbe392a03	-0.18082432
71	0x3efc6c3b	0.49301323
72	0x3e79722f	0.24359964
73	0xbe67eafe	-0.22648236
74	0x3d96ee00	0.07369614
75	0xbf1f6888	-0.6226888
76	0xbd7630e5	-0.060105223
77	0xbebec905	-0.3726274
78	0xbe48994c	-0.19589728
79	0xbeaf7ef6	-0.3427655
80	0xbe654031	-0.22387768
81	0x3d2107fa	0.039314248
82	0x3eb20648	0.34770417
83	0xbd34168e	-0.043966822
84	0x3daab708	0.08335692
85	0xbe677ff7	-0.22607408
86	0x3d1584ad	0.036503483
87	0x3ed0a1ca	0.40748435
88	0xbe93ed32	-0.28891903
89	0xbea264d5	-0.31717554
90	0x3ed934b3	0.4242302
91	0xbe6e2698	-0.2325691
92	0xbd89b44b	-0.06723841
93	0x3eb67aa5	0.35640445
94	0x3ef239c4	0.47309697
95	0x3ece4487	0.40286657
96	0xbedab2f8	-0.42714667
97	0xbee1655c	-0.44022644
98	0x3e06912d	0.13141318
99	0x3e3e4d5b	0.18584196
100	0x3e1a3876	0.150606
101	0xbe58926e	-0.21149608
102	0xbdb90eeb	-0.090360485
103	0xbed7ae68	-0.4212525
104	0x3eb2149b	0.34781346
105	0xbe8abbcb	-0.270964
106	0xbde7428d	-0.112919904
107	0x3e8ebca4	0.27878296
108	0x3dcf2fa6	0.1011651
109	0xbe5abbfd	-0.21360774
110	0xbe1e46d1	-0.15456702
111	0xbef98e69	-0.48741463
112	0x3e700cf1	0.23442437
113	0xbe860207	-0.26173422
114	0x3d80f05e	0.062958464
115	0x3d93f82c	0.072250694
116	0xbea76f9b	-0.32702336
117	0xbeba6037	-0.3640153
118	0xbe3f369d	-0.18673177
119	0xbe47ec63	-0.19523768
120	0xbe3cb91c	-0.18429989
121	0xbb734111	-0.003711764
122	0xbdc34a1b	-0.09535619
123	0xbecba3f4	-0.39773524
124	0xbe906c2c	-0.2820753
125	0x3f0161c3	0.505398
126	0x3cc56394	0.024095334
127	0xbe75e2d0	-0.24012303
128	0xbe8d5dce	-0.2761063
129	0x3c44a22b	0.0120015545
130	0xbd7d3230	-0.06181544
131	0x3d67bc33	0.056575965
132	0x3ea0ce85	0.31407562
133	0xbe6b3387	-0.22968875
134	0x3c5fd269	0.0136610055
135	0xbe8c4f59	-0.27404287
136	0xbec3deea	-0.38256007
137	0x3e81bea3	0.25340757
138	0x3d49a7fe	0.049232475
139	0x3eed4d65	0.4634811
140	0x3da74e47	0.08169227
141	0x3eba5c20	0.3639841
142	0xbef6d28c	-0.4820751
143	0x3e85dabb	0.2614344
144	0x3ef05a92	0.469441
145	0xbe6f2620	-0.23354387
146	0xbd7b8448	-0.06140545
147	0xbe38e5c0	-0.18056393
148	0xbd610781	-0.054938797
149	0xbc6db0cf	-0.0145074865
150	0xbd408d87	-0.04700997
151	0x3ea5044f	0.3222985
152	0x3ed68808	0.4190066
153	0xbeb03420	-0.34414768
154	0xbea8a506	-0.32938403
155	0xbe654c38	-0.22392356
156	0xbdf04d8c	-0.11733541
157	0x3d29ab5a	0.04142318
158	0xbdb6dc98	-0.08928794
159	0x3c8f3725	0.01748235
160	0x3eb47c45	0.3525106
161	0xbde3c794	-0.11122051
162	0x3d98b9e4	0.07457331
163	0xbd8a9482	-0.06766607
164	0xbe910cf8	-0.28330207
165	0x3b788339	0.0037920012
166	0x3e30d1d3	0.17267542
167	0xbdf0672d	-0.11738429
168	0x3ec0c21e	0.376481
169	0xbeb856de	-0.36003774
170	0x3e95286d	0.29132405
171	0xbdd14003	-0.102172874
172	0x3e081995	0.13291009
173	0xbeecc2fd	-0.46242514
174	0x3e90d0f2	0.28284413
175	0x3e5437ec	0.20724458
176	0xbe456ce2	-0.19279817
177	0xbed39b47	-0.41329405
178	0x3eb0e75f	0.34551522
179	0x3e702cda	0.2345461
180	0xbba67ddf	-0.005080923
181	0xbe8ee9a2	-0.27912623
182	0xbeffec4a	-0.49984962
183	0x3e88b041	0.2669697
184	0x3deab4d5	0.11460272
185	0x3ecbec10	0.3982854
186	0xbdd15bbe	-0.102225766
187	0x3b297b09	0.0025860688
188	0xbea3b43d	-0.31973448
189	0xbf15de24	-0.58542085
190	0xbdc65b1d	-0.09685347
191	0xbe7eb69e	-0.2487435
192	0xbe9e721e	-0.3094644
193	0x3e9dcfa0	0.30822468
194	0x3e8fd07e	0.28088754
195	0x3eee2a6b	0.46516737
196	0x3e4192e4	0.1890369
197	0x3ea28891	0.31744817
198	0x3e967f69	0.2939408
199	0x3d4498b2	0.047997184
200	0x3d0beca4	0.034161225
201	0x3e87ff44	0.2656194
202	0x3c0d3429	0.008618393
203	0xbc9502c9	-0.018189805
204	0x3e813225	0.2523357
205	0x3d74eaae	0.05979412
206	0xbe501a49	-0.20322527
207	0xbe367f52	-0.17822006
208	0xbcb905c5	-0.022585759
209	0xbedd1a8e	-0.43184322
210	0xbd87694b	-0.0661188
211	0x3e983dc6	0.2973463
212	0x3e2adf02	0.16686633
213	0xbe285613	-0.16439085
214	0xbefe4aa0	-0.4966631
215	0x3ea314dd	0.31851855
216	0xbe42a76e	-0.19009182
217	0x3f00ff84	0.50389886
218	0xbec36393	-0.38161907
219	0x3c144cda	0.009051526
220	0x3e3a1e72	0.18175676
221	0x3e667f69	0.2250954
222	0x3e85c564	0.2612716
223	0xbc0f9acf	-0.008764937
224	0x3e4c7c6a	0.19969335
225	0xbcad18e0	-0.021130025
226	0x3e98f3e8	0.29873586
227	0xbf01a125	-0.5063651
228	0x3d9fadfa	0.07796855
229	0x3ec24e7b	0.379505
230	0xbe86df40	-0.263422
231	0xbe9b9341	-0.30385783
232	0x3c7d3818	0.015455268
233	0xbd86f8bd	-0.06590412
234	0x3ce69234	0.028145887
235	0xbf10faf7	-0.5663294
236	0xbf0addc2	-0.54244626
237	0xbdd579c4	-0.104236156
238	0xbe6897c9	-0.22714151
239	0x3ea27922	0.31733042
240	0xbe878a4e	-0.26472706
241	0x3eca4dab	0.3951238
242	0xbe420d22	-0.18950322
243	0x3d935856	0.07194583
244	0xbe87b481	-0.265049
245	0xbeba940b	-0.36441073
246	0x3e3bba95	0.18332894
247	0x3eb2908c	0.34875906
248	0x3d6c28ac	0.057655975
249	0x3cef4e02	0.029212002
250	0x3e61ba63	0.22043757
251	0xbe8d0642	-0.27543837
252	0xbec3f77b	-0.3827475
253	0x3f00f43c	0.5037267
254	0xbe22030c	-0.15821475
255	0x3e740550	0.23830152

fc2.weight f4 [256, 256]
0	0x3d55a8f3	0.052163076
1	0x3c23a8e5	0.009988998
2	0xbc69ef25	-0.014278208
3	0xbd8ce25d	-0.06879113
4	0x3be75370	0.007059507
5	0x3cc49ea7	0.024001433
6	0x3ba286f3	0.004959935
7	0xbd22b9c0	-0.039727926
8	0xbc01c20c	-0.0079198
9	0xbc098834	-0.00839429
10	0xbc4768d8	-0.012170993
11	0xbd2b9228	-0.041887432
12	0xbd7a6570	-0.061131895
13	0x3c5ea7b0	0.0135897845
14	0xbcb3cbc7	-0.021947755
15	0xbc47c061	-0.012191863
16	0xbc416bd0	-0.01180549
17	0xbabd61b9	-0.0014448679
18	0x3ccd5184	0.025063284
19	0xbcadeebc	-0.021232001
20	0x3cd396cf	0.025828747
21	0xbb2f1e57	-0.0026720965
22	0xbd2dbff5	-0.042419393
23	0x3d4a6316	0.049410902
24	0xbc3691e8	-0.011143185
25	0xbc93d73f	-0.018046973
26	0xbce1729e	-0.027520474
27	0xbce10a56	-0.027470749
28	0x3d7d3740	0.06182027
29	0x3bea7f60	0.0071562976
30	0x3cf680aa	0.030090649
31	0xbd5048b0	-0.05085057
32	0x3d351152	0.04420597
33	0xbcf23c2b	-0.029569706
34	0x3cd2948d	0.0257056
35	0xbd3e6671	-0.046484414
36	0x3d4596d6	0.04823955
37	0xbd0234f0	-0.031788766
38	0x3cd3536f	0.02579662
39	0x3b7552c5	0.0037433368
40	0xbced320d	-0.02895453
41	0xbd7f88bc	-0.06238626
42	0xbd905ce5	-0.07048968
43	0x3b0c5c20	0.0021417215
44	0xbcab5b28	-0.02091749
45	0x3c88b442	0.016687516
46	0x3d23f8d7	0.040032234
47	0xbd84d8ee	-0.064866886
48	0xbd3af725	-0.04564585
49	0x3c0b599e	0.008505253
50	0xbd409fcf	-0.047027405
51	0xbd4a8df2	-0.049451776
52	0x3d4092d6	0.047015034
53	0xbd7d55e4	-0.06184949
54	0xbd48c93e	-0.049020045
55	0x3d1040b4	0.035217956
56	0xbcf66f10	-0.030082256
57	0x3d38618d	0.045014907
58	0xbd8321dc	-0.064029425
59	0xbcf6e027	-0.030136181
60	0x3c184125	0.009292875
61	0x3d04acb5	0.03239127
62	0x3bcb7624	0.006209152
63	0xbd32e045	-0.04367091
64	0x3b90aa62	0.0044148425
65	0xbd7a7dcd	-0.06115513
66	0xbd6851e0	-0.056718707
67	0xbd82e82d	-0.0639194
68	0xbd0b7fdf	-0.034057494
69	0x3d485e30	0.04891795
70	0x3d50bd0f	0.05096155
71	0x3c90a058	0.017654583
72	0xbd4d78a8	-0.050163895
73	0xbd385f60	-0.04501283
74	0x3d09d4f0	0.03365034
75	0x3d36ee0a	0.044660605
76	0xbc3089bf	-0.010775029
77	0x3c2a8bc0	0.010409296
78	0xbd377500	-0.044789314
79	0xbce16721	-0.027514996
80	0xbd026018	-0.031829923
81	0x3d0e6288	0.034761935
82	0xbcb82882	-0.022480253
83	0xbb930834	-0.004487062
84	0x3d402c10	0.04691702
85	0x3c24350c	0.010022413
86	0x3cbf9aba	0.023389209
87	0x3c146798	0.009057902
88	0xbac7001c	-0.0015182528
89	0x3ca63f48	0.020293847
90	0xbc959a42	-0.018262032
91	0x3c96a0cc	0.01838722
92	0xbd208b06	-0.039195083
93	0xbd834111	-0.06408895
94	0x3c7aa6a9	0.015298524
95	0x3d5ba297	0.053621855
96	0xbd0def66	-0.034652136
97	0xbd1ab8d6	-0.03777393
98	0x3d293b6e	0.041316442
99	0xbd0145ba	-0.031560637
100	0xbd920a63	-0.07130887
101	0x3cc349ae	0.023838844
102	0xbd445965	-0.047936816
103	0x3c28b2e0	0.010296553
104	0xbd55a4f6	-0.052159272
105	0x3cb5aa9e	0.022176083
106	0x3d065e69	0.03280488
107	0xbcf707d9	-0.03015511
108	0x3d07f17d	0.033189286
109	0x39af7b49	0.00033470456
110	0xbd1fcd86	-0.03901436
111	0x3ce69463	0.028146928
112	0xbd23b3d8	-0.039966434
113	0xbc824220	-0.015900671
114	0x3abf3533	0.0014587998
115	0xbd320558	-0.043462127
116	0x3c898abc	0.016789787
117	0x3d5aab1a	0.05338583
118	0xbc30587f	-0.010763287
119	0x3b9a8b8f	0.0047163437
120	0xbd334db4	-0.043775275
121	0x3cfba23e	0.030717012
122	0xbd83e14c	-0.06439456
123	0xbc59256b	-0.01325355
124	0xbbb63dde	-0.0055615744
125	0x3c0329da	0.008005584
126	0xbc45b1c3	-0.0120663075
127	0x3c95e054	0.018295445
128	0xbc842aa0	-0.016133606
129	0x3cee13d9	0.029062198
130	0xbc8a624c	-0.016892575
131	0x3cee0589	0.029055374
132	0xbd450b4e	-0.048106484
133	0xbcfe4545	-0.03103889
134	0xbd5401ee	-0.051759653
135	0xbd27abfa	-0.040935494
136	0xbc360f60	-0.011112064
137	0xbd71daf5	-0.059046704
138	0x3cacfaa9	0.021115618
139	0xbd7c3e49	-0.061582837
140	0x3cbf5f12	0.023360763
141	0xbc20bf93	-0.0098113
142	0xbc5aa6d0	-0.013345435
143	0x3d065fe7	0.032806303
144	0xbc6c4e1f	-0.014422922
145	0xbc4e4e00	-0.012591839
146	0xbd015742	-0.031577356
147	0xbce3dc5c	-0.027815036
148	0xbd8e3319	-0.0694334
149	0x3cc65232	0.024209116
150	0x3d250451	0.04028732
151	0xbb79fc90	-0.0038144924
152	0xbbc7ec38	-0.0061011575
153	0x3c85daa4	0.016339608
154	0x3d592328	0.053012043
155	0xbd3d91bc	-0.04628156
156	0xbd0b8f33	-0.034072112
157	0xbd0349d8	-0.032052845
158	0xbc7c22e5	-0.015389179
159	0x3bec74a0	0.007216051
160	0x3d0d7849	0.03453854
161	0x3d4aca86	0.049509548
162	0xbd83c1bf	-0.064334385
163	0x3c9d7024	0.019218512
164	0x3d4db380	0.050220013
165	0xbceb45c8	-0.028719798
166	0x3c9aba62	0.018887702
167	0xbd2558c4	-0.040367857
168	0xbd1b42e7	-0.0379056
169	0x3ca4dbcb	0.020124337
170	0x3cada7a9	0.02119811
171	0x3d3ca296	0.04605349
172	0x3d19edaf	0.03758019
173	0xbce2ff83	-0.027709728
174	0xbd4edd99	-0.0505043
175	0xbc580fd7	-0.01318737
176	0xbd0a694f	-0.033791836
177	0xb913a917	-0.00014082003
178	0xbd811fbe	-0.063048825
179	0xbcf4303e	-0.02980816
180	0xbd600977	-0.054696526
181	0x3d530f80	0.051528454
182	0xbc914e3c	-0.0177375
183	0xbd5dffb0	-0.05419892
184	0x3cc235c4	0.023707278
185	0xbd4290fc	-0.04750155
186	0xbd3a4217	-0.045473184
187	0x3d2fcd2c	0.042920277
188	0x3c93f270	0.01805994
189	0xbd68d9ba	-0.056848265
190	0xbd1b4adf	-0.0379132
191	0xbce45514	-0.0278726
192	0x3d2da961	0.04239786
193	0x3d59756c	0.053090498
194	0xbb87d8d2	-0.00414572
195	0x3c92c16f	0.017914502
196	0x3d3c8958	0.04602942
197	0xbd9b52df	-0.07584166
198	0xbd617fae	-0.055053405
199	0xbcc4b7f1	-0.024013491
200	0xbd039990	-0.03212887
201	0x3cf37310	0.029717952
202	0xbd5fabac	-0.05460708
203	0x3b6721c0	0.003526792
204	0x3cac1eb2	0.02101073
205	0x3d3d67dc	0.046241626
206	0xbd80e249	-0.062931605
207	0x3c98088a	0.01855876
208	0xbc0dc184	-0.008652095
209	0x3c8aa8a8	0.016926125
210	0x3cccf80e	0.025020625
211	0xbd95e4a7	-0.073190026
212	0xbd65f2db	-0.05613981
213	0xbd376f3a	-0.04478381
214	0xbd707c35	-0.058712203
215	0xbd45d84d	-0.048301984
216	0xbc510a70	-0.012758836
217	0xbc7654e9	-0.015034893
218	0xbc992e28	-0.018698767
219	0xbd837155	-0.06418101
220	0x3d56850a	0.05237297
221	0xbd5a8218	-0.053346723
222	0x3d1cd9d7	0.038293686
223	0xbd5ab7f7	-0.0533981
224	0x3d2ab3c2	0.041675337
225	0xbd7e693a	-0.06211207
226	0xbbde2f8d	-0.006780571
227	0x3ce4a1a0	0.0279091
228	0x3d1f2aa2	0.038859017
229	0x3bc5b9bd	0.0060341046
230	0x3d06135e	0.032733314
231	0x3d262c5f	0.04056966
232	0x3d2cdae8	0.042200953
233	0x3cf09801	0.029369356
234	0xbd3f4bb5	-0.04670306
235	0x3ce97dbc	0.028502338
236	0x3c8809bc	0.016606204
237	0xbd7ef268	-0.062242895
238	0x3d47a517	0.048741426
239	0x3d2c49e6	0.042062663
240	0xbd7ddf3a	-0.061980464
241	0xbca923d7	-0.020646973
242	0x3ca36aac	0.019948326
243	0x3be2ca18	0.006921064
244	0xbd82c31d	-0.06384871
245	0x3c94fbb8	0.018186435
246	0xbd02b51f	-0.03191101
247	0xbd141ab1	-0.036158267
248	0xbb263e06	-0.0025366559
249	0x3d1dfc76	0.038570844
250	0x3cbc2df8	0.022971138
251	0x3d3121a0	0.043244958
252	0x3cf80604	0.030276306
253	0xbd13787f	-0.036003586
254	0xbd221435	-0.039570052
255	0xbc2c2916	-0.0105078425

fc2.bias f4 [256]
0	0xbd19f4cb	-0.03758697
1	0x3e0e2776	0.1388224
2	0xbe1b9400	-0.15193176
3	0xbcce0007	-0.025146497
4	0xbd8c011b	-0.06836148
5	0x3c0e7bb6	0.008696487
6	0xbbc8c3a2	-0.006126837
7	0xbd0a3861	-0.033745173
8	0x3db3a82e	0.08772312
9	0xbc3ad560	-0.011403412
10	0x3ec2f1ee	0.38075203
11	0x3d156111	0.036469523
12	0xbd8a1a51	-0.06743301
13	0xbe141238	-0.14460075
14	0x3d5d2256	0.053987823
15	0xbdfc0fdc	-0.123077124
16	0x3b458667	0.0030139924
17	0x3dae8026	0.08520536
18	0xbd85522e	-0.06509815
19	0xbd68d493	-0.05684335
20	0xbdf00ed2	-0.11721577
21	0xbd168133	-0.036744308
22	0x3b30f1c9	0.0026999584
23	0xbd25ebac	-0.040507957
24	0xbd24396c	-0.040093824
25	0xbe08971e	-0.13338897
26	0xbd16dcab	-0.03683154
27	0x3d0f9f47	0.035064008
28	0xbd89abfb	-0.06722256
29	0x3b02666f	0.001989748
30	0xbc95dc74	-0.018293597
31	0xbd1abbf5	-0.037776906
32	0xbe62024b	-0.22071187
33	0xbe343ba8	-0.17600882
34	0x3c9ee9e3	0.019398635
35	0xbd049bc2	-0.032375105
36	0xbaa9f190	-0.0012965668
37	0x3be017b9	0.0068387655
38	0x3bc0f48a	0.0058885263
39	0xbd80f867	-0.06297379
40	0x3d06862d	0.032842804
41	0xbe2808c2	-0.16409591
42	0xbbc1308a	-0.005895679
43	0x3d3da705	0.04630186
44	0xbe49a8bd	-0.19693275
45	0xbd03d628	-0.032186657
46	0xbba3b065	-0.004995393
47	0xbd90bdf5	-0.070674814
48	0xbe4d0338	-0.20020759
49	0xbea4aeec	-0.32164705
50	0xbe3d868f	-0.18508361
51	0xbd38d53f	-0.045125242
52	0xbdea492a	-0.11439736
53	0x3d1d12d8	0.03834805
54	0x3ded57d3	0.11589017
55	0xbd6233e5	-0.05522527
56	0x3d87ea9d	0.06636546
57	0xbe80bfc7	-0.25146315
58	0x3dd29f53	0.10284295
59	0xbcf2c8ba	-0.02963673
60	0x3e0cf65d	0.13765855
61	0x3e24acaf	0.16081499
62	0x3d6cc33b	0.057803374
63	0xbe4e3e99	-0.20141067
64	0xbaaed189	-0.0013337593
65	0x3e484287	0.19556628
66	0x3d2ff978	0.04296252
67	0x3da622d1	0.081121095
68	0x3d89da7c	0.06731126
69	0xbd364d06	-0.04450705
70	0xbcfa4fa1	-0.030555548
71	0x3e049038	0.1294564
72	0xbce10016	-0.027465861
73	0x3e2abe4e	0.16674158
74	0x3c9d9455	0.01923577
75	0xbd8f8988	-0.07008654
76	0x3d768686	0.060186885
77	0xbc9b8b05	-0.018987188
78	0x3e578a68	0.21048892
79	0x3ce48b0f	0.02789834
80	0x3b5f8ded	0.0034111694
81	0xbcde40af	-0.027130453
82	0xbc508548	-0.012727089
83	0x3d2102ac	0.03930919
84	0xbc78f407	-0.015194899
85	0x3e304394	0.17213279
86	0xbd05c382	-0.032657154
87	0x3dcb2452	0.09919037
88	0x3db8cd91	0.09023584
89	0x3d1a0421	0.037601594
90	0xbbc4462f	-0.005989812
91	0x3d0518f3	0.032494497
92	0x3cc9fe47	0.024657382
93	0xbd8a4657	-0.067516975
94	0xbbdfb0e3	-0.0068265065
95	0x3ddf8fd2	0.109161034
96	0x3cbd0720	0.023074687
97	0xbea0fe37	-0.3144395
98	0x3de138be	0.10997151
99	0xbdab98a5	-0.08378724
100	0xbd16d7f7	-0.036827054
101	0xbd5fdb1c	-0.05465232
102	0x3d8d39f4	0.06895819
103	0x3cfd9978	0.030956969
104	0xbcb3b064	-0.021934696
105	0xbd3f0e4b	-0.04664449
106	0x3d0b99b1	0.03408212
107	0x3d3dedd5	0.046369392
108	0x3e468702	0.19387439
109	0xbd52baea	-0.051447786
110	0xbc9593cf	-0.018258957
111	0x3d981aa3	0.074269556
112	0x3c3c92d7	0.011509619
113	0xbd669a57	-0.056299534
114	0x3c4e35f4	0.012586106
115	0xbd11e1e4	-0.035615817
116	0xbe0af5c3	-0.13570313
117	0xbe8b4fea	-0.27209407
118	0x3cd960ca	0.02653541
119	0xbab5db89	-0.0013874631
120	0x3e0f9c76	0.14024529
121	0x3d1f966d	0.038961817
122	0xbd54ef43	-0.05198599
123	0xbc9ded04	-0.019278057
124	0xbe7a9880	-0.24472237
125	0x3df80112	0.12109579
126	0xbcba0463	-0.02270717
127	0x3cd1e501	0.025621893
128	0xbd874a70	-0.06605995
129	0xbd3bfe3b	-0.04589675
130	0x3d42524e	0.047441773
131	0x3e61aef1	0.22039391
132	0x3e083674	0.13302022
133	0x3d43eecd	0.04783516
134	0x3ddc1a25	0.10747174
135	0xbbcbff36	-0.006225492
136	0xbe92df63	-0.28686056
137	0x3cc1d3e6	0.023660611
138	0xbd7035fc	-0.058645234
139	0xbd6103a0	-0.054935098
140	0x3d7e13a4	0.06203045
141	0xbd3f9092	-0.046768732
142	0xbc784693	-0.015153545
143	0xbd7a85d7	-0.061162796
144	0xbc05e66e	-0.0081726145
145	0x3dfbcfaa	0.12295468
146	0xbe6fc260	-0.23413992
147	0x3e3fabc0	0.18717861
148	0x3e1e73a7	0.15473805
149	0x3e3ba9d2	0.183265
150	0xbd6f0276	-0.058351956
151	0xbd25e42a	-0.040500797
152	0xbd8314be	-0.06400441
153	0xbd8daae5	-0.06917361
154	0xbd892199	-0.06695861
155	0xbb8e3bfc	-0.004340647
156	0x3c0630aa	0.008190313
157	0x3d91e8f7	0.07124513
158	0x3e0a2354	0.13490039
159	0x3d913ed7	0.07092064
160	0x3e57fa44	0.21091563
161	0xbcb87283	-0.022515541
162	0x3e5ad0ec	0.2136876
163	0x3d9585e6	0.0730093
164	0x3e454126	0.19263133
165	0x3d0bfd85	0.034177322
166	0xbdd16e53	-0.10226121
167	0xbd1674f2	-0.03673262
168	0xbd2fb963	-0.042901408
169	0xbd4d6005	-0.0501404
170	0x3cdbf686	0.02685095
171	0xbd6bc5b8	-0.057561606
172	0x3c389f0b	0.011268388
173	0xbe34c088	-0.1765157
174	0xbe4a3ca5	-0.19749697
175	0x3d37839c	0.044803247
176	0xbd123d44	-0.03570296
177	0xbd77513b	-0.0603802
178	0x3d2e9348	0.042620927
179	0x3d8823a4	0.06647423
180	0xbd976de8	-0.0739401
181	0x3caa8c78	0.020818934
182	0x3d667783	0.05626632
183	0xb9f0f438	-0.00045958324
184	0x3dac956a	0.08426936
185	0xbd3d7205	-0.046251316
186	0xbd6d01e4	-0.05786313
187	0xbd7ca359	-0.061679218
188	0x3e1078e6	0.14108619
189	0x3d8eada3	0.06966712
190	0x3de2cfb2	0.11074771
191	0x3b5c8060	0.0033645853
192	0x3c9f015e	0.019409832
193	0xbea3a3e2	-0.3196097
194	0x3e16ec68	0.1473862
195	0x3d973e35	0.07384912
196	0xbcb585e8	-0.022158578
197	0x3e40c84c	0.18826407
198	0xbe84b3bf	-0.25918385
199	0x3d41321f	0.04716694
200	0xbe664622	-0.22487691
201	0xbd8f24e0	-0.06989455
202	0xbd9d9277	-0.076939516
203	0x3e0c281f	0.1368718
204	0x3c0c88d3	0.008577543
205	0x3b6b57ab	0.0035910408
206	0x3c056fe1	0.00814435
207	0x3d897e81	0.06713582
208	0x3dae725b	0.08517905
209	0x3e5b60f1	0.21423699
210	0xbb2b1ec8	-0.0026110876
211	0xbcfd8b36	-0.03095017
212	0xbd019502	-0.031636246
213	0x3d0458f9	0.032311413
214	0x3ccb0526	0.024782728
215	0x3dd4c9ba	0.10390039
216	0x3d1f7597	0.0389305
217	0xbced150e	-0.028940704
218	0xbdcf486d	-0.10121236
219	0xbca4fdf3	-0.020140624
220	0xbc813a96	-0.015775006
221	0x3cf11c95	0.029432574
222	0x3d8d781d	0.069076754
223	0x3e564241	0.20923711
224	0xbd0e777c	-0.034781918
225	0xbddf454a	-0.10901888
226	0x3b74cd2b	0.0037353735
227	0x3d0b0717	0.03394231
228	0x3e016754	0.12637073
229	0x3cebc991	0.028782638
230	0x3e16f8a6	0.1474329
231	0xbb0bbdb6	-0.0021322793
232	0x3d09d8a6	0.033653878
233	0x3cdb7fb5	0.026794294
234	0xbd605b1c	-0.05477439
235	0x3e3ff0ba	0.18744174
236	0x3d696132	0.05697746
237	0xbd84a47e	-0.06476687
238	0xbd9a64af	-0.07538735
239	0x3d6ba667	0.05753174
240	0x3c828f45	0.015937457
241	0xbc10fbd9	-0.008849108
242	0xbd8dd178	-0.069247186
243	0xbcc40dce	-0.023932364
244	0xbe7ede23	-0.24889426
245	0x3d0e35a7	0.034719136
246	0x3e2671f6	0.1625441
247	0x3d1a2f9a	0.037643053
248	0xbc3cfb0c	-0.011534464
249	0x3e247e4c	0.16063803
250	0xbda0cdaf	-0.07851731
251	0xbd168d1d	-0.03675567
252	0xbceec120	-0.029144824
253	0x3e1f0329	0.15528549
254	0x3c802f09	0.015647428
255	0xbd55a79f	-0.05216181

fc3.weight f4 [128, 256]
0	0x3d8350c5	0.0641189
1	0xbc682a4d	-0.014170242
2	0xbe8d911a	-0.27649766
3	0x3e817292	0.25282723
4	0x3f09d572	0.53841317
5	0x3e873712	0.26409203
6	0x3ea7070f	0.32622573
7	0x3f573454	0.8406422
8	0x3ef689f3	0.48152122
9	0x3f1713aa	0.5901438
10	0x3d74a64a	0.059728898
11	0xbd2015d3	-0.039083313
12	0xbd0a0e2e	-0.03370493
13	0x3f5d8cad	0.8654278
14	0x3f077a96	0.52921426
15	0x3f76fca2	0.9647924
16	0x3eb6cfd8	0.35705447
17	0xbf52f414	-0.82403684
18	0xbcb11a00	-0.021618843
19	0xbd24b4c2	-0.040211447
20	0xbe72cdfd	-0.23711391
21	0x3cdc417e	0.026886698
22	0xbcb923a1	-0.022599997
23	0x3d3a5d5a	0.045499183
24	0xbf2e04e4	-0.6797621
25	0x3f3dd54b	0.74153584
26	0x3f88ccbd	1.0687481
27	0x3d68618a	0.056733645
28	0xbcb2d696	-0.021830838
29	0x4000eb0e	2.0143466
30	0x3d21eaac	0.03953044
31	0x3f2d46a5	0.6768592
32	0xbea5a7b8	-0.32354522
33	0x3ec43712	0.38323265
34	0x3fd26f7d	1.6440274
35	0x3d430bc0	0.047618628
36	0x3ee97420	0.4559641
37	0xbc461627	-0.0120902425
38	0x3d6016b0	0.054709136
39	0x3d131f1a	0.035918333
40	0x3ea5b697	0.32365867
41	0x3f1505d6	0.5821203
42	0xbea74687	-0.32670996
43	0xbce1f834	-0.027584173
44	0x3eda1151	0.42591336
45	0xbc6aca48	-0.014330454
46	0x3f22ec05	0.6364139
47	0x3f2928fc	0.6607816
48	0xbdc6a6a7	-0.09699755
49	0xbe8ab96e	-0.27094597
50	0xbe36e999	-0.17862548
51	0xbd3bcfeb	-0.045852583
52	0x4017e5ce	2.3734012
53	0xbc8124cf	-0.015764622
54	0x3f02d425	0.51104957
55	0xbb9ab100	-0.004720807
56	0x3ee31a6a	0.4435609
57	0x3ee72e75	0.4515263
58	0xbd16a70e	-0.03678041
59	0x3efcc2e1	0.4936743
60	0x3c1b5859	0.009481513
61	0x3e40d3e4	0.1883083
62	0x3e978640	0.29594612
63	0x3f78b8cb	0.9715697
64	0xbd442dc0	-0.047895193
65	0xbccf4778	-0.025302634
66	0x3d0dda8c	0.03463225
67	0x3ef1455d	0.47123232
68	0xbd6c0658	-0.057623237
69	0x3d081b6c	0.033229277
70	0x3ed8272e	0.42217392
71	0xbdbff489	-0.09372813
72	0x3b34ec9c	0.002760685
73	0xbdb55255	-0.08853594
74	0x3c3ef504	0.011655096
75	0x3cf90b4b	0.030400893
76	0x3d1e6da7	0.03867879
77	0xbed8b336	-0.42324227
78	0x3d0aa9ca	0.03385333
79	0xbce90320	-0.028443873
80	0x3d34e9c7	0.04416826
81	0xbc691ca9	-0.0142280245
82	0x3e8682bd	0.2627162
83	0x3f085253	0.53250617
84	0x3d339cb9	0.043850634
85	0xbd80a3aa	-0.062812164
86	0x3b563c4e	0.0032689753
87	0x3ea7558f	0.32682464
88	0x3ead5719	0.33855513
89	0x3df88411	0.12134565
90	0x3d074132	0.03302116
91	0xbc94a1c0	-0.018143535
92	0x3c978fc1	0.018501164
93	0xbee4a36f	-0.4465594
94	0x3d54b2b3	0.051928233
95	0x3eb07bfa	0.34469587
96	0xbeff2fc3	-0.49841127
97	0xbe4ca188	-0.19983494
98	0xbc47de9b	-0.012199069
99	0xbd67728c	-0.056505725
100	0x3bee75cc	0.007277226
101	0x3d27785e	0.040886275
102	0x3fbed2af	1.4908046
103	0x3d4164bf	0.04721522
104	0x3c8c2b55	0.017110506
105	0x3bfdcf7f	0.0077456827
106	0x3d38e198	0.045137018
107	0xbeb3069f	-0.3496599
108	0xbe0866ec	-0.13320512
109	0xbc44e7c3	-0.012018147
110	0x3d08f21e	0.033434026
111	0x3f3243e4	0.6963484
112	0xbf386352	-0.7202655
113	0xbc83c13a	-0.016083349
114	0x3f61836b	0.8809115
115	0x3efb3834	0.49066317
116	0x3ed6e9dd	0.419753
117	0xbde66ab2	-0.11250819
118	0xbc122e69	-0.008922198
119	0x3ea261b5	0.3171517
120	0x3f45f639	0.7732883
121	0xbea8e7b0	-0.32989264
122	0xbef7e932	-0.484201
123	0x3ebc2f50	0.36754847
124	0xbb69d78a	-0.003568145
125	0xbe31780e	-0.17330953
126	0x3be8777f	0.007094323
127	0x3e9fd199	0.31214598
128	0xbd0ccdfb	-0.034376126
129	0x3f2f7a49	0.6854597
130	0x3f0dcad0	0.5538759
131	0xbd9f6b17	-0.07784098
132	0xbe175781	-0.14779474
133	0x3c58685a	0.013208473
134	0xbd8f616e	-0.07001005
135	0x3d2f004b	0.04272489
136	0xbeda4295	-0.42628923
137	0x3ea99659	0.3312252
138	0xbd4adfb9	-0.049529765
139	0xbd6e3aad	-0.058161426
140	0x3f6ee8e4	0.9332411
141	0x3c6478c2	0.0139448065
142	0xbd306d79	-0.04307315
143	0x3f1d44d9	0.6143318
144	0x3fdb7e53	1.7147926
145	0xbf3edab8	-0.7455249
146	0xbe2d9a8c	-0.16953486
147	0xbdcc5470	-0.09977043
148	0x3c929715	0.017894307
149	0xbd9586c6	-0.073010966
150	0x3bd9e2f3	0.006649369
151	0x3d497811	0.04918677
152	0x3cec59af	0.028851358
153	0x3ca24b94	0.01981143
154	0xbd2cf13c	-0.042222247
155	0x3f3d4730	0.7393675
156	0xbbce97b7	-0.006304707
157	0x3ea11681	0.31462482
158	0xbaa2e23b	-0.0012427041
159	0x3e860160	0.26172924
160	0xbc82f27e	-0.01598477
161	0xbd592ae4	-0.05301942
162	0x3dfd9e71	0.12383736
163	0x3e9fd7c9	0.31219319
164	0xbd2b14d8	-0.041767925
165	0x3e738c0d	0.23783894
166	0x3eebccc6	0.46054667
167	0xbc595015	-0.013263722
168	0xbe9c8aa3	-0.3057452
169	0xbd3a70c0	-0.045517683
170	0xbe5f82a4	-0.21827179
171	0x3ec8cbb6	0.3921792
172	0xbc8bf6db	-0.017085483
173	0x3ea413d6	0.32046384
174	0xbdee742a	-0.1164325
175	0x3d7dc01e	0.061950795
176	0x3cc6a124	0.02424676
177	0xbeb9cbb2	-0.3628822
178	0x3e65f7f6	0.22457871
179	0x3ef1ec69	0.4725068
180	0xba6f8543	-0.0009136984
181	0xbc160dac	-0.009158533
182	0x3e66a6b3	0.22524528
183	0xbca60976	-0.020268183
184	0x3de4ec4d	0.11177883
185	0x3cb71c15	0.022352258
186	0x3c949a00	0.01813984
187	0xbd176595	-0.03696211
188	0x3d7c24a4	0.06155838
189	0x3ebee27c	0.3728217
190	0x3dfb16b1	0.122601874
191	0xbd52d4bb	-0.051472407
192	0xbc339f37	-0.010963253
193	0xbe4d3e6b	-0.20043342
194	0x3f4578ec	0.7713764
195	0x3e787647	0.24263869
196	0x3ee0cdef	0.43907115
197	0x3cd27d72	0.025694583
198	0xbee92df0	-0.4554286
199	0xbe57011d	-0.20996518
200	0x3f9363d5	1.1514841
201	0x3d30ce98	0.043165773
202	0xbc550a01	-0.013002873
203	0xbc81aeea	-0.015830476
204	0x3fce8183	1.6133274
205	0xbca658d4	-0.020306028
206	0xbd26b73a	-0.040702082
207	0x3ec0cfb4	0.37658465
208	0x3ecdf115	0.40222993
209	0xbc9d7fa4	-0.019225903
210	0xbcd99969	-0.02656241
211	0x3d8095af	0.0627855
212	0xbd0046e5	-0.03131761
213	0xbcc803bc	-0.024415843
214	0x3d8204ae	0.06348549
215	0xbeeed0b1	-0.46643594
216	0xbd8843ce	-0.06653558
217	0xbd3cea1a	-0.046121694
218	0x3fb6de06	1.4286506
219	0x3d2091aa	0.039201416
220	0xbd3b82e8	-0.04577914
221	0xbe5edad4	-0.21763164
222	0x3e82bbe3	0.2553397
223	0x3d30b1fb	0.043138485
224	0x3f488a03	0.7833559
225	0x3edfa25b	0.43678555
226	0xba1f01ec	-0.0006065655
227	0x3cc2498d	0.023716712
228	0xbe340f6e	-0.17584011
229	0x3edd351e	0.43204588
230	0x3fb3924e	1.4029024
231	0x3ee0ef4f	0.43932578
232	0x3be83277	0.007086094
233	0x3f42f066	0.7614807
234	0xbceae040	-0.028671384
235	0xbddd0a03	-0.10792925
236	0x3f8e2eb9	1.1108009
237	0xbc1968c9	-0.009363362
238	0xbe9e7a00	-0.30952454
239	0xbd5e5d5b	-0.05428825
240	0x3efea405	0.49734512
241	0xbbc6536a	-0.006052424
242	0x3efc2153	0.49244174
243	0x3ca80aca	0.020512957
244	0xbe342ad2	-0.1759446
245	0xbeecbdd4	-0.46238577
246	0xbd9297b5	-0.07157842
247	0xbcd26647	-0.025683535
248	0x3fab3f9d	1.3378788
249	0x3a03ee48	0.000503276
250	0x3deefe59	0.11669607
251	0xbc882ebf	-0.016623853
252	0x3d1a4756	0.037665688
253	0xbdb8b981	-0.09019757
254	0x3f9e6ce0	1.2376976
255	0x3db2ab64	0.087240964

fc3.bias f4 [128]
0	0x3d1f8694	0.038946703
1	0x3cd9cbde	0.02658647
2	0x3e77bb49	0.24192537
3	0x3e64585e	0.22299334
4	0x3cb83ac6	0.022488963
5	0x3ded9b97	0.11601942
6	0xbc4c5dbf	-0.012473523
7	0x3c09aae5	0.008402561
8	0x3c49a255	0.012306769
9	0x3dc11830	0.094284415
10	0x3da71709	0.081586905
11	0xbd5d60ea	-0.054047503
12	0x3d4f4875	0.05060621
13	0x3d8c7b50	0.068594575
14	0xbd700070	-0.058594167
15	0xbe2f0ec1	-0.17095472
16	0x3e415f05	0.18883903
17	0x3dc59549	0.096476145
18	0x3db9bae6	0.09068851
19	0xbd8c59c5	-0.0685306
20	0xbc7fc73f	-0.015611469
21	0x3def14d3	0.11673894
22	0xbc06b611	-0.008222119
23	0xbc808f36	-0.015693288
24	0xbe3ceae8	-0.18448985
25	0xbdee7932	-0.1164421
26	0x3eade8d7	0.33966705
27	0xbe4feb83	-0.20304684
28	0x3dd711c8	0.105014384
29	0xbcf6d724	-0.030131884
30	0x3dfd7538	0.12375873
31	0xbd90742f	-0.0705341
32	0xbc58a154	-0.013222057
33	0x3e3c830a	0.18409362
34	0x3d30b0b1	0.043137256
35	0x3d117844	0.035515085
36	0x3d45e936	0.04831811
37	0x3e4d6b40	0.20060444
38	0x3d3424df	0.043980476
39	0x3e179c83	0.14805798
40	0xbd93e82e	-0.07222019
41	0xbe6a16a2	-0.22860196
42	0xbd35a512	-0.044346876
43	0xbe4900f5	-0.19629271
44	0x3e004ecc	0.12530059
45	0x3b8d1d59	0.004306477
46	0xbccf2a07	-0.025288595
47	0x3c47be4c	0.012191366
48	0x3e756462	0.23964074
49	0xbe3df813	-0.18551664
50	0x3e3f68ae	0.18692276
51	0x3d90a9a4	0.070636064
52	0xbe6ab82a	-0.22921816
53	0x3d2f1761	0.042746905
54	0xbc244c47	-0.010027952
55	0xbe0f41d3	-0.13989954
56	0xbd80af44	-0.06283429
57	0x3c0f023a	0.008728558
58	0xbd76f214	-0.060289457
59	0xbd8772db	-0.06613704
60	0x3e0a9e1c	0.13536876
61	0x3e884e9a	0.26622468
62	0x3de09a1b	0.10966893
63	0x3d7d69ac	0.061868355
64	0xbd22f24c	-0.039781854
65	0x3ddff293	0.10934939
66	0xbc7ffa20	-0.015623599
67	0x3d342505	0.043980617
68	0x3e564789	0.20925726
69	0xbe176380	-0.1478405
70	0x3d477f30	0.04870528
71	0x3e550b4f	0.20805095
72	0xbb5bf029	-0.0033559895
73	0x3dbcc673	0.09217539
74	0x3d70a082	0.058746822
75	0x3ce5cc27	0.028051449
76	0x3e1cc451	0.15309264
77	0x3dbdfae6	0.09276371
78	0xbc47a088	-0.01218427
79	0xbccaeb54	-0.024770416
80	0x3dea48a6	0.11439638
81	0x3c1c6415	0.009545346
82	0x3dbf3bb8	0.09337562
83	0xbd346d16	-0.044049345
84	0x3db24b1d	0.08705733
85	0x3e22bd3e	0.15892503
86	0x3d3e7fc3	0.04650856
87	0x3de9defa	0.114194825
88	0x3eae8b97	0.34090874
89	0xbd563871	-0.05229992
90	0x3d8666e0	0.065625906
91	0x3e023f57	0.12719475
92	0x3e13f97d	0.14450641
93	0xbcff9043	-0.031196719
94	0xbd7b3556	-0.061330162
95	0xbd966e02	-0.07345201
96	0x3bbe55af	0.005808554
97	0x3c67b993	0.014143365
98	0x3df04a13	0.117328785
99	0xbcec96ce	-0.028880503
100	0x3ddf4d2a	0.1090339
101	0x3d6a401e	0.057190053
102	0xbdd9ac86	-0.10628609
103	0xbd7a23ff	-0.061069485
104	0xbd1b8460	-0.03796804
105	0x3e07a844	0.13247782
106	0x3e62a2d6	0.2213243
107	0x3e722b4b	0.23649327
108	0x3d2b873d	0.04187702
109	0x3e18c455	0.14918645
110	0x3e0fe11a	0.14050713
111	0xbd8740a3	-0.06604125
112	0x3e37c29e	0.17945334
113	0xbe132e51	-0.14373137
114	0xbd308cce	-0.04310303
115	0xbd849851	-0.064743645
116	0x3d1bc779	0.03803203
117	0x3bd462de	0.0064815124
118	0x3e922fda	0.28552133
119	0xbdc818d9	-0.09770364
120	0x3e03a676	0.12856469
121	0x3e945257	0.2896907
122	0xbe2e57ce	-0.17025682
123	0x3c7bb0bf	0.015361964
124	0x3ca0bb3d	0.019620532
125	0xbd16d8bc	-0.036827788
126	0xbd52db15	-0.051478464
127	0xbd4e05e5	-0.05029859

fc4.weight f4 [7, 128]
0	0xbf0f0211	-0.5586253
1	0xbf1836cf	-0.5945863
2	0x3f0ff732	0.56236565
3	0x3ef11612	0.4708715
4	0x3d79b1bc	0.060960516
5	0x3ee8d3a1	0.4547396
6	0x3cc00908	0.023441806
7	0xbd55ad99	-0.05216751
8	0x3cf96445	0.03044332
9	0xbf0a8659	-0.5411125
10	0xbf14fcaf	-0.58198065
11	0x3d141dc9	0.036161218
12	0xbdbe350d	-0.092874624
13	0xbf31db91	-0.69475657
14	0x3d27a34a	0.04092721
15	0x3d9b2ad0	0.07576525
16	0x3efd45d4	0.49467337
17	0x3fd87349	1.6910182
18	0x3f3d82f1	0.74027926
19	0xbce906de	-0.028445657
20	0x3da0acdd	0.07845471
21	0xbf27f85c	-0.6561334
22	0x3cf87e3a	0.030333627
23	0x3da3e3a4	0.080024034
24	0xbf155a57	-0.5834097
25	0xbf17df81	-0.59325415
26	0x3d3c0101	0.045899395
27	0xbf123d00	-0.5712433
28	0xbef57423	-0.47940168
29	0x3cd609cf	0.026127724
30	0x3f06c0d2	0.5263797
31	0xbc744bd6	-0.014910659
32	0xbed66910	-0.4187703
33	0x3efc02e0	0.49220943
34	0xbc87acf8	-0.01656197
35	0xbd59a762	-0.053138144
36	0x3c48d1ec	0.0122570805
37	0xbf549897	-0.83045334
38	0x3f8630d3	1.048365
39	0x3ef2a1e6	0.47389144
40	0xbf38ee36	-0.7223848
41	0xbe631172	-0.22174624
42	0x3dd70c39	0.10500378
43	0xbf0cc689	-0.5499044
44	0xbf16be16	-0.588838
45	0x3f74699d	0.95473653
46	0xbcf06ed4	-0.029349722
47	0x3d4ab19a	0.04948578
48	0x3fc7dd4c	1.561441
49	0x3d816589	0.063181944
50	0xbf1d11c6	-0.61355245
51	0xbf02e5e7	-0.51132053
52	0xbf222b6c	-0.63347507
53	0xbefefe6a	-0.49803478
54	0x3d4a86d6	0.049444996
55	0xbf2514f5	-0.644851
56	0x3c26dc7a	0.010184402
57	0xbcf0f489	-0.029413478
58	0xbcdec9df	-0.027195869
59	0xbd3fa1ff	-0.04678535
60	0xbef38c73	-0.47568092
61	0x3ec063cc	0.3757614
62	0xbf16394c	-0.5868118
63	0xbf111af3	-0.56681746
64	0xbec4d950	-0.38447046
65	0xbf002872	-0.50061715
66	0xbda6384c	-0.081162065
67	0xbf122489	-0.57087
68	0x3efaf940	0.49018288
69	0xbf2af361	-0.66777617
70	0x3bcf4e94	0.006326506
71	0x3eee4573	0.4653736
72	0x3d788d2a	0.0606815
73	0xbeda4b99	-0.426358
74	0xbf0ea7cd	-0.55724794
75	0xbe9ab972	-0.3021961
76	0xbf06222f	-0.5239591
77	0xbf08a760	-0.53380394
78	0xbca2b5ac	-0.019862019
79	0x3d814f19	0.06313915
80	0xbf29a248	-0.66263247
81	0xbf02be62	-0.5107175
82	0xbf102ac8	-0.5631528
83	0xbd3ccbc2	-0.046092756
84	0xbef93bd2	-0.48678452
85	0xbf1b2f0f	-0.6061868
86	0x3d90211a	0.070375636
87	0xbefe7213	-0.49696407
88	0xbf387d94	-0.72066617
89	0xbf0d0794	-0.5508969
90	0xbedba1a4	-0.4289676
91	0x3ee7d768	0.4528153
92	0x3ee7bf57	0.45263168
93	0x3ccd95f5	0.02509592
94	0x3ce2e02f	0.02769479
95	0x3db535a5	0.088481225
96	0x3c83e94e	0.01610246
97	0x3d5437fc	0.051811203
98	0x3f0695a2	0.5257207
99	0x3d8eb5a0	0.06968236
100	0xbf10ecc4	-0.56611276
101	0x3d5b501d	0.0535432
102	0xbe825abc	-0.2545985
103	0x3d1a18f8	0.03762147
104	0x3d34bcec	0.044125482
105	0xbf0ae651	-0.54257685
106	0x3f0c6809	0.54846245
107	0xbf46fb4f	-0.77727216
108	0xbbabefb1	-0.0052470793
109	0x3f072d3c	0.528034
110	0xbeddccf1	-0.4332042
111	0x3d561528	0.05226627
112	0x3f017d11	0.5058146
113	0x3e8faa0f	0.28059432
114	0x3d0ce78f	0.03440052
115	0xbcf57592	-0.029963288
116	0x3c12a0a0	0.008949429
117	0xbd176c5d	-0.036968578
118	0xbe8a8786	-0.2705652
119	0xbeef4a48	-0.4673636
120	0x3f1db8de	0.6161021
121	0xbf56d8c8	-0.8392453
122	0xbf10c875	-0.56555873
123	0x3d27045a	0.040775634
124	0x3caff347	0.021478308
125	0xbf2e9462	-0.68195164
126	0x3d8ad559	0.06778974
127	0xbf0472fc	-0.5173795
128	0xbed99b70	-0.42501402
129	0xbf2ba840	-0.67053604
130	0x3f0ae2df	0.5425243
131	0x3ef4cb6c	0.4781145
132	0x3c387d03	0.011260274
133	0x3ec0b09f	0.3763475
134	0x3c94329e	0.018090542
135	0x3dad009b	0.08447381
136	0x3d0ace5c	0.033888206
137	0xbeb7aca9	-0.35873917
138	0xbefbd631	-0.49186853
139	0x3d9cddd1	0.076594956
140	0x3d4b02b7	0.049563136
141	0xbf394f18	-0.7238631
142	0x39b83800	0.00035136938
143	0x3e041923	0.12900214
144	0x3eff9492	0.49918038
145	0x3fd683aa	1.6758931
146	0x3f201039	0.62524754
147	0x3d98dc87	0.07463937
148	0xbb5d80ae	-0.0033798623
149	0xbf23623d	-0.63821775
150	0x3c4105ec	0.011781197
151	0x3d681db9	0.05666897
152	0xbf4d340c	-0.8015754
153	0xbee8687b	-0.45392212
154	0x3d42bd78	0.047543973
155	0xbf0882fe	-0.5332488
156	0xbf08f8ee	-0.53504837
157	0xbd88ee62	-0.06686093
158	0x3f194c16	0.5988172
159	0xbd3cc1e6	-0.046083353
160	0xbf032f7f	-0.5124435
161	0x3ef24fae	0.47326416
162	0x3d93f147	0.072237544
163	0x3da1fefd	0.07909963
164	0x3d797935	0.060906608
165	0xbf4d96fa	-0.80308497
166	0x3f82129d	1.016193
167	0x3f13c277	0.57718605
168	0xbf52e64e	-0.8238267
169	0xbe128865	-0.14309843
170	0x3d91c591	0.07117761
171	0xbf181ca5	-0.5941871
172	0xbf0d70b4	-0.55250096
173	0x3f87d1d8	1.0610914
174	0xbc9b03fd	-0.0189228
175	0xbd6a6762	-0.0572275
176	0x3fcc7cca	1.5975583
177	0x3e0bf4ce	0.13667604
178	0xbf3e30d2	-0.74293244
179	0xbf20eb74	-0.6285927
180	0xbf270080	-0.6523514
181	0xbf08bebf	-0.53416055
182	0x3d2c45a8	0.042058617
183	0xbf407e4d	-0.7519272
184	0x3d31dfea	0.04342643
185	0xbba28c2d	-0.004960558
186	0xbbd67ffd	-0.006546019
187	0x3d8a8e31	0.06765402
188	0xbf0f7679	-0.5604015
189	0x3ef5e240	0.48024178
190	0xbec5b056	-0.38611096
191	0xbeef10fa	-0.4669264
192	0xbee3d9f6	-0.44502228
193	0xbf0b655d	-0.54451543
194	0x3b64e020	0.0034923628
195	0xbf003502	-0.50080884
196	0x3ee49712	0.44646508
197	0xbf38f17b	-0.7224347
198	0x3ca0a442	0.019609574
199	0x3eeea8e4	0.46613228
200	0x3ccbb838	0.024868116
201	0xbef7aaf0	-0.48372602
202	0xbf15d08c	-0.5852134
203	0xbe018a31	-0.12650372
204	0xbeef62ec	-0.4675516
205	0xbf029277	-0.5100474
206	0xbd00af5d	-0.03141724
207	0x3d7df387	0.061999824
208	0xbef973c5	-0.48721138
209	0xbef6a2ba	-0.48171026
210	0xbf111e7d	-0.56687146
211	0xbd24ac15	-0.040203173
212	0xbf069975	-0.52577907
213	0xbf1c15fa	-0.60971034
214	0x3b697b56	0.0035626492
215	0xbf049993	-0.51796836
216	0xbf6c7c0f	-0.923768
217	0xbf042d7e	-0.51631916
218	0xbef21dfb	-0.47288498
219	0x3eeb0be8	0.4590752
220	0x3efab103	0.48963174
221	0x3c906a33	0.017628765
222	0x3c33f3c7	0.010983414
223	0x3c95767b	0.018244972
224	0x3c2872ba	0.010281259
225	0x3aab7923	0.0013082366
226	0x3f22b644	0.63559365
227	0x3ba34e5a	0.0049837055
228	0xbf157c9e	-0.58393276
229	0xbd1aff7b	-0.0378413
230	0xbe94cd41	-0.29062846
231	0xbdbb45b9	-0.09144158
232	0xbd4296ae	-0.04750698
233	0xbf0bb483	-0.54572314
234	0x3f18343d	0.5945471
235	0xbf1c440b	-0.61041325
236	0x3d88fffa	0.06689449
237	0x3ed0115b	0.4063824
238	0xbf0c4ae6	-0.54801786
239	0xbd2b33a6	-0.041797303
240	0x3eae6987	0.34064886
241	0x3e5201fa	0.20508566
242	0x3d641666	0.055685423
243	0x3d1b6b96	0.0379444
244	0x3d77afe1	0.060470466
245	0xbc1c3f3f	-0.009536563
246	0xbe971076	-0.29504746
247	0xbf0c3e3d	-0.5478247
248	0x3f26df38	0.65184355
249	0xbf59f67f	-0.8514175
250	0xbf2a6422	-0.6655904
251	0xbd20da04	-0.039270416
252	0x3da8b4cd	0.0823761
253	0xbf20d43b	-0.6282384
254	0x3bd6cde3	0.0065553053
255	0xbf09d3c6	-0.53838766

fc4.bias f4 [7]
0	0xbd48c816	-0.04901894
1	0x3de8db82	0.11369993
2	0x3ee058d8	0.43817782
3	0xbe538296	-0.20655283
4	0xbdb56984	-0.08858016
5	0xbdfb6586	-0.122752234
6	0x3e685761	0.22689582
