models/lateral_stage3_seed5000_best.pth (torch, 412467 bytes, 8 tensors)

fc1.weight f4 [256, 9]
00000000: 0f94 6b40 85e3 e23d e933 d33d ea0d 36bf
00000010: 1255 cbbd 390e 1fbe 2620 6a3e 1098 f83d
00000020: 6b65 46ba 7161 9cc0 fb25 293e ccb3 aebd
00000030: 15f4 82be 58c3 c33e 9b88 983d 1837 80be
00000040: c6c3 453e 72f3 393d 3713 2640 d8d9 29bd
00000050: 86b5 863e 35dc 313e f2ea f5bd a27c 8a3e
00000060: e0a1 53be 5eda 50be 39a1 30be f7d5 1840
00000070: 8cc7 01bd 69d4 f13c 181f fdbe 6b5d b1be
00000080: 0d64 043d 9169 873e 00cc 89ba c3a3 46bc
00000090: 8594 b4be 6dc5 9a3e e256 c639 fe61 983e
000000a0: 4255 8ebe 9dfa e73e 8eeb 5d3e 91a5 a33e
000000b0: 9341 013e 2b5d 5040 d1c7 583e a320 9a3e
000000c0: 762e a8bb 39b9 973d da91 21bd e288 553e
000000d0: a390 4ebe 42fd 813e 5593 b340 60f0 8c3e
000000e0: 649c 323d 75a8 88bc c539 6bbe c056 f5bd
000000f0: 068b 41be e09e 6cbc 4a18 f8bd 1b4a f1bf
00000100: ea5e 513e 560c 0bbe 86ff 023f 8e63 9a3e
00000110: dc36 323f 684e 1e3d bae1 723e 784c 18bc
00000120: 5775 f2bf 5207 a2be 1fde e4be e16c b9be
00000130: cc4d 54be d4e6 2d3e 643b 953d f018 9e3c
00000140: d342 53be f6ce f03e b279 26be ac92 71be
00000150: 3ad6 2c3e 7673 513e 26ac 0a3e 5334 a5be
00000160: 7b91 82be 3dfb 96be a3c4 0bbf 86cd 05bf
00000170: 8a59 95bd 273c f0be 5f34 213e f4d0 983e
00000180: f0e9 d2bd 3962 813e 9f37 ebbe 19e7 b6bf
00000190: 89b8 58bc a1c7 22bf 6370 b8be 8ce8 953d
000001a0: b13e f13b 5e84 0a3e e47e f03d 3dcc b4be
000001b0: 5b02 9440 683d c83e e670 d53d 4665 273e
000001c0: 09da 4b3e 8bdf 843c 7e80 1ebe 497b a23e
000001d0: 974b 9abe 3b53 1040 8553 833e 0f55 053f
000001e0: 4a69 5b3e 9e6d a13d ed6f 983d 96d6 5dbe
000001f0: 6ee7 03be c7c0 613d 2ac2 503d a704 563d
00000200: 05ba 7abd 03ad c43e af08 ba3d 8d11 bfbe
00000210: 48aa 2e3d 8006 79bc d2ec 8bbd 6cb0 f63f
00000220: 9453 f8bd d22c c8bd cf00 3f3f 0a77 20be
00000230: a37a b8be 83b6 8fbe ebf7 8b3e 50ab ac3d
00000240: 0f13 48bf 47ec 4dbe 5c16 a6bd da43 3b3f
00000250: ace6 d2be 1f0a 83be fe6c 473e 5e92 80be
00000260: 7281 79bc f5af 93be 46f0 e2bd cf6f b03c
00000270: d67a a33f 6fa1 63bd f95c a4bd b019 52be
00000280: cbac 3abe d578 733d acb7 08c0 fb08 35bf
00000290: fa23 123f 5c68 dbbd 4e5f 1e3e 7814 743d
000002a0: 0860 24bd 3e74 12be 882c 19bf e2ff 3f40
000002b0: 8467 cd3d 4b69 8b3e 3814 3bbd ef91 6d3e
000002c0: 4747 4b3e def0 2e3e f2f8 083e a90f 29be
000002d0: c8f7 a840 86af 83bd 4ee9 1fbe 5504 023f
000002e0: da71 163e 3389 12bf 70da d23d 53db 58be
000002f0: 7e76 133e f7ac 7d40 7ff9 d5be c7f9 39be
00000300: 708e 9c3e 8785 38be de62 99be 9012 0e3e
00000310: f5df 803e ffa0 2b3e c52c 57bf c291 24bf
00000320: 7299 b1be d22f c63d 4ed4 133e 3524 c1bd
00000330: 80bd 03bb c0ee d5bd c465 4a3e 38ad 15be
00000340: 3ca4 0ebf a5b8 7dbd e06d e63e f999 973e
00000350: 4b92 3b3e 0a0c 97be d6fa 4c3e 0d8f 2a3e
00000360: 4b1c 633f 5571 58be 4346 843e c356 02bf
00000370: 9264 0a3f bdee 173f 6860 76bd a4c4 89be
00000380: 3895 ccbe 2122 c33e a53e ccbe 3b68 233e
00000390: d0b9 b9be d1ae 14be ad18 c1bd 43d5 98be
000003a0: 2aa9 5b3e 948e 62be 6cee 553f bdf4 513d
000003b0: 187f 88be 09c0 1dbe baca 7c3e 2562 213f
000003c0: bad5 5e3e a488 a0be 4c99 cebd bab9 94c0
000003d0: d1a0 313f e90c 213e b3a8 4bbe 28a1 c13d
000003e0: de61 b5be 48f3 79be be25 723e de05 403e
000003f0: 43a5 fbbf af99 a0bd ddbf cdbe 226f 8dbe
3.6809118 0.11078552 0.103126355 -0.7111498 -0.09928335 -0.1553277 0.22863826 0.121383786
-0.0007568213 -4.8868947 0.16518395 -0.08530387 -0.25576845 0.38234973 0.074479304 -0.25042033
0.19312963 0.045398183 2.5949228 -0.041467518 0.26310366 0.17369159 -0.12007703 0.27048212
-0.20667219 -0.203958 -0.17249002 2.3880594 -0.031684443 0.02952023 -0.49437785 -0.34641585
0.03232198 0.26447728 -0.0010513067 -0.012124005 -0.3526956 0.3022875 0.00037830236 0.29762262
-0.27799422 0.4530839 0.21671888 0.31962255 0.12622671 3.2556865 0.21169974 0.30103025
-0.0051324917 0.07408375 -0.039445736 0.20852998 -0.20172362 0.25388533 5.611735 0.27527142
0.043606177 -0.01668189 -0.22971256 -0.11979437 -0.1890069 -0.014442176 -0.12114008 -1.885074
0.20446363 -0.13578925 0.5117115 0.3015408 0.6961496 0.038648993 0.2371892 -0.009295575
-1.8942059 -0.3164621 -0.44700715 -0.3621588 -0.20732802 0.16982585 0.072867185 0.019299
-0.2063096 0.470329 -0.1625736 -0.23591107 0.16878596 0.20454201 0.13542232 -0.32266483
-0.25501618 -0.29488555 -0.5459692 -0.5226673 -0.07292469 -0.46920893 0.15742634 0.2984692
-0.10298526 0.2527025 -0.45940873 -1.4289275 -0.01322759 -0.6358586 -0.36023244 0.073197454
0.0073622097 0.13527057 0.117429525 -0.3531207 4.6252875 0.3910935 0.10421924 0.16347227
0.19907393 0.016219875 -0.15478703 0.31734684 -0.30135795 2.25508 0.25649658 0.52082914
0.21426883 0.07882236 0.07443223 -0.2166389 -0.12881252 0.055115487 0.05096642 0.05225053
-0.06121256 0.38413247 0.090836875 -0.37318078 0.04264286 -0.015199304 -0.06832279 1.927259
-0.12125316 -0.09774174 0.7461061 -0.1567041 -0.36031064 -0.28068933 0.27337584 0.08431113
-0.7815408 -0.20109664 -0.081097335 0.7315041 -0.41191614 -0.2559366 0.19475171 -0.2511167
-0.015228616 -0.28845182 -0.11080985 0.02153769 1.2771862 -0.055573877 -0.080255456 -0.20517612
-0.18229978 0.059441406 -2.1362104 -0.7071683 0.57086146 -0.10713264 0.15466043 0.059589833
-0.040130645 -0.14302155 -0.59833574 2.9999928 0.1002951 0.2722877 -0.04567358 0.232002
0.19851409 0.17084071 0.13376215 -0.1650988 5.2802467 -0.06429963 -0.15616342 0.5078786
0.14691868 -0.572406 0.1029557 -0.21177416 0.1440067 3.963682 -0.41791913 -0.18161689
0.3057742 -0.18019687 -0.29958242 0.13874269 0.25170866 0.16760634 -0.8405269 -0.6428491
-0.34687382 0.0967709 0.14436457 -0.09430734 -0.0020101964 -0.104459286 0.19765383 -0.14616859
-0.5571935 -0.06194367 0.45005703 0.2960966 0.18317525 -0.29501373 0.20017561 0.16656132
0.88715047 -0.21136983 0.25834855 -0.5091364 0.5405971 0.5934866 -0.060150534 -0.26907837
-0.39957595 0.38111976 -0.39891544 0.1595773 -0.36274576 -0.14519812 -0.09428535 -0.29850206
0.2145125 -0.22124702 0.8356693 0.05125879 -0.26659465 -0.15405287 0.24686709 0.6304038
0.21761218 -0.3135425 -0.10087833 -4.6476717 0.6938601 0.15727581 -0.19888572 0.09454566
-0.3542623 -0.2440921 0.2364721 0.18752238 -1.9659809 -0.07841813 -0.40185443 -0.2762385

fc1.bias f4 [256]
00000000: b46a 473c c5a2 f2be 0d35 773e 7dea f03d
00000010: d65f 86be 4f70 e9be 2e41 013e f045 83be
00000020: 8f05 b83e f8da cbbe 25bf 66be d0b5 21be
00000030: 39bb a03e 6b72 87be f920 9cbe 2545 083e
00000040: aca0 aa3e 2660 db3e a990 063e e469 1e3e
00000050: 3003 633e 92a4 a53d dd6b 10be 9ea3 ad3e
00000060: 18fa 8dbe c561 923e 4b15 88be 8477 563b
00000070: abc5 06be 62d7 03bc c6b5 bd3e ee71 133e
00000080: 5516 c1be a31c b13e 6ea7 953e 63fc f4bc
00000090: 439f 383e baee 293e 5600 08be 3010 dfbe
000000a0: 3012 1c3e 9eed c43e 50c7 c2be f983 a9be
000000b0: 8b35 5cbe 3d3f 383e 6b7c 59ba 5dca 503d
000000c0: 3420 823e 3c2b 9cbc 53f2 cd3e 96f9 97be
000000d0: 3682 013e 45d4 e23e db9b 773e 1ffb c03d
000000e0: e0d5 b83e e7aa 0f3e 3ba3 c53e 4783 81be
000000f0: fbba 03bf 53bd 0b3e f5ae 0b3e 234b 833e
00000100: dfd5 b7be 2187 fabd f579 bf3e dae2 c63e
00000110: 7580 bd3d d383 3f3e 340b 913e e7e6 85be
00000120: b27b a4be a928 19be e567 8fbe 026c e5bc
00000130: 73aa 2f3d 97cb 933e 8660 b13d fba5 d93d
00000140: 397a 983e 94ca a03e 94ad e03e d314 afbd
00000150: 8df9 bebe 9551 903e e619 8bbe 2581 923d
00000160: 1f52 933e 7fcb bdbd 3fbc 083e 6884 213e
00000170: da22 eb3e 64df 8c3e 63b5 783e 93e6 0bbc
00000180: f51b d93d e6dd b7be 7918 d6be 3dba eabd
00000190: 8647 f1bd 281a 1bbe 2e29 913e 21c2 1abe
000001a0: a0fc ecbd 7b6e 86be dac7 42be 4000 873e
000001b0: 796c b23e 6aed 6abe 9e89 35be 9eb8 42be
000001c0: 38f6 06bf dac5 b9be b3c5 013e 7046 72bd
000001d0: 9568 bf3d 0e4a 85bc 2dc2 52be d781 cf3e
000001e0: 57af 033e 50b8 873c 7129 93be b70a 473e
000001f0: 00f2 96be 0642 bcbe 483f ea3e 0165 7dbe
00000200: 0e0f fd3e 6b5a 843e fcf1 993e 10b4 c53e
00000210: 25be 9b3c 4d87 40be 5012 62be e09c 373e
00000220: d492 b13e 7914 ae3e f594 9abe 7da9 b43e
00000230: 0fbd aa3d e3ab e6bc dc4f bcbc 66f0 553e
00000240: 4a29 6a3d 5df8 9abd 0aac 6c3e b606 ab3b
00000250: 97d1 bf3e be33 a73e c800 c83d 2ad5 a63c
00000260: b231 f93d 5447 d63c be5f c13e f02f 14bf
00000270: e592 7b3d 1e4d acbe 6e45 52be 6fa0 94be
00000280: 1f90 4cbe ac19 563d e387 9bbe 9670 92be
00000290: 43f1 453d 66af b6be da0c edbe 9afb c5be
000002a0: 403b 7c3c a31e 2e3d e5ab 32bd bcdf 3dbe
000002b0: 3eb6 2d3e 5371 5abd 316c 15bf dafe 303c
000002c0: ab95 2ebe 1bf8 7c3e 496d 343e 1945 493e
000002d0: 8bf2 153e 8af4 8fbe 5e6d 30be 4457 173e
000002e0: 6b39 6a3e a863 7b3e 0049 933e 10ea eb3e
000002f0: cc79 b2be 99af bbbe c5c7 973e 1b8d c83c
00000300: 1810 c83e c34a b13e 2fd5 0e3e f1d1 35bc
00000310: 19f4 c73e d1ca 29bf ccf0 b83e aeda 99be
00000320: 0b36 0f3e d0c0 27be baae 333e d1b4 79bd
00000330: 9d4b 943e 0909 92bd de0d aebe 969c f6be
00000340: 9b7c a7be b297 08be d47c 9e3d ccd5 bf3d
00000350: d557 8c3e c445 193e 5926 b9bd a513 25bf
00000360: 4d36 2b3d 5427 1c3e e0a1 833e fcca 023e
00000370: 08d2 bc3e eba9 f1be 69ad ccbe b331 33bf
00000380: b7d3 8abe 4dd8 fcbe a6eb ecbe 0830 573e
00000390: 6c7b 11be 111f 18bf 90b2 1cbd e0ff fbbd
000003a0: 4edc b53d 7986 643e 664a 153e ba88 8ebe
000003b0: 2c65 5b3c 5e03 78be 8d7b 08be 3c90 9dbe
000003c0: d11c b9be da1d 08bf 264f b9be f335 00bf
000003d0: 6a6d 993e a7bd 3d3d 8bcd 953e 49ed 70be
000003e0: fad4 6dbe 5b74 51bd 8a1b 953e 27c5 163e
000003f0: 4953 5a3e 6b08 543e b930 a03d 9753 c5be
0.012171436 -0.47389808 0.24141331 0.11763475 -0.26244992 -0.45593497 0.1262252 -0.25639296
0.3594174 -0.39815497 -0.22533853 -0.15792012 0.3139284 -0.2645448 -0.30493906 0.13307627
0.33325708 0.42846793 0.13141121 0.15470082 0.22169185 0.0808803 -0.14103647 0.33913893
-0.2772987 0.28590217 -0.26578745 0.0032725045 -0.13161342 -0.008046957 0.37052745 0.1439893
-0.3771235 0.3459216 0.292293 -0.029905504 0.18029504 0.16594973 -0.13281378 -0.43567038
0.15241313 0.38462538 -0.38042688 -0.331085 -0.215048 0.17992873 -0.0008296433 0.05097424
0.25415194 -0.019063585 0.4022394 -0.29682606 0.12647328 0.44302574 0.24180548 0.094228975
0.36100674 0.14030038 0.38601097 -0.2529547 -0.51457185 0.1364644 0.1364096 0.25643262
-0.35905358 -0.12232805 0.37397733 0.3884495 0.09253017 0.1870263 0.2832886 -0.26152727
-0.32125622 -0.14956917 -0.28008953 -0.028005604 0.042887162 0.28866264 0.086609885 0.106273614
0.29780748 0.31404555 0.4388243 -0.08548894 -0.37299767 0.28187242 -0.27168196 0.071535386
0.2877359 -0.092673294 0.1335306 0.15773165 0.45925027 0.27514184 0.24287944 -0.00853886
0.106010355 -0.35911483 -0.41815546 -0.114613034 -0.1178122 -0.15146697 0.2835173 -0.15113117
-0.11571622 -0.26256165 -0.1902155 0.26367378 0.34848383 -0.22942129 -0.17728278 -0.19015738
-0.5271945 -0.3628376 0.12673073 -0.059149206 0.09346119 -0.016270664 -0.20581885 0.40528747
0.12859856 0.01656738 -0.28742555 0.19437681 -0.29481506 -0.36769122 0.45751405 -0.24745561
0.49425548 0.25850233 0.30067432 0.3861394 0.019011566 -0.18801613 -0.22077298 0.17930937
0.34682333 0.33999994 -0.3019177 0.3528556 0.08336841 -0.028158134 -0.022987299 0.20892486
0.057168283 -0.07566903 0.23112503 0.005219306 0.37464592 0.32656664 0.09765774 0.020365316
0.12167682 0.026157059 0.37768358 -0.57885647 0.061419386 -0.33652586 -0.20534298 -0.2902865
-0.19976853 0.052270576 -0.3037711 -0.2860152 0.04832579 -0.35680693 -0.46298867 -0.3866852
0.015394986 0.042509686 -0.043620963 -0.18542379 0.16964051 -0.05333073 -0.5836821 0.010802949
-0.17049281 0.2470402 0.17619814 0.19655265 0.14643304 -0.28116256 -0.1722922 0.14779383
0.22873466 0.24549735 0.28766632 0.46077013 -0.3485855 -0.36657408 0.296446 0.024481347
0.3907478 0.3462735 0.1394851 -0.011097417 0.3905342 -0.663251 0.36121213 -0.30049652
0.1398546 -0.16382146 0.17547122 -0.060963456 0.28963938 -0.071306296 -0.33994955 -0.4816634
-0.32712254 -0.13339117 0.07738653 0.093669504 0.2741076 0.1496802 -0.09040517 -0.644831
0.041799832 0.15249377 0.25709438 0.12772745 0.3687899 -0.4719995 -0.3997605 -0.6999771
-0.2711465 -0.49383774 -0.46273535 0.21014416 -0.14207238 -0.59422404 -0.038256228 -0.12304664
0.088799104 0.22316922 0.14579162 -0.2783869 0.0133908205 -0.24220034 -0.13328381 -0.30774105
-0.36154798 -0.5317055 -0.36193198 -0.5008232 0.2996629 0.046323445 0.2925838 -0.23528017
-0.23225775 -0.051136356 0.29122573 0.14723645 0.21320833 0.20706336 0.07821793 -0.38540336

fc2.weight f4 [256, 256]
00000000: 0b04 25be 611e b7be c8bb d53e b018 fb3d
00000010: 81f1 0dbd 012f 9dbe 9a41 4fbd 4610 833d
00000020: 66c0 243f a73e 7ebe f7c8 c9bc bc51 003f
00000030: fd86 913e 3266 96be 0fbe b7bd 481f 943d
00000040: 137e 363e 324d 223e af02 843e 563d 043f
00000050: f9b4 bc3e 8b51 113e 4a71 903f 3c0f 7d3e
00000060: ed45 39be 93a3 2c3e 3eb4 34be c2d1 c6bd
00000070: 08f2 043f 6abd d2be 2edf bc3e e1e9 8fbf
00000080: d346 8ebe 012d 843e c53c 0b3f 1091 b13d
00000090: 1cd1 7f3e 19fa 063f e072 62be 5473 193f
000000a0: 75e0 82be 4e3b c03e cb32 0cbe 2fc2 53bc
000000b0: 1a5c 933e 17a6 953e 72fc 0d3e f672 c3be
000000c0: 5afd a03e 8158 25bd b7f2 833e bf03 9d3c
000000d0: 230d 713e 6ade 973e 41fe 973e 4feb 0c3e
000000e0: c1c0 003f 9eef c73e ce1b f63e 0a06 b2be
000000f0: 6907 b4be 5ce0 6b3e ac2e 083f 90dc d93e
00000100: 6dd3 4ebf da2c 5dbf 8449 c43e 4757 153f
00000110: 992b 8b3f f951 9bbe 9dda bb3e 487b 17bf
00000120: adde 5dbf 9d19 5fbe deb5 d0be fb81 663e
00000130: 4d27 44be 4e1b 893e 164e c63e ae47 0f3e
00000140: 11fb 013f cdfb dd3e 81a5 8f3e 0b00 4e3f
00000150: c5e1 24be 36c2 043f 614a d6bd 781d 893e
00000160: fcdd 853e 78bb d2bd a22f ae3c 1ee1 9a3e
00000170: a8ee 073f 2ca9 7dba e55a 493f d1d3 c23e
00000180: 6bc2 463c 7233 4fbe 24e1 b13e b93d aa3e
00000190: d6ab 9f3e 4090 c3be 4260 513e 8e76 903f
000001a0: 32c7 853f b95c b0be c43b 26bf ec7e f43e
000001b0: 7e27 5f3e dd45 813e 8e0d 8cbd 7e76 99be
000001c0: a47f a8be b919 33bf 29c8 b53e 9140 f4bb
000001d0: 92e3 883e 2755 60be fef1 98bd f36c 023f
000001e0: ceb3 673e ec08 2bbe e4af 3ebe 0240 a43d
000001f0: 9547 cbbe 9610 05bf a7aa b33d 33a7 cabe
00000200: ad11 c83e 0bbf d23e e7da 8d3e 03b7 2a3e
00000210: 7026 eabc 1af8 a73c 77c4 f7bd 7bd6 a03e
00000220: d551 703e 6646 543f d276 a13e 6631 3a3e
00000230: 44a8 443e bf50 44bf e376 0abd efba 8e3e
00000240: 842f 9f3e 2aa1 f03e 7b0e 89be e637 c83f
00000250: 99eb 8d3e 10a8 923d 6725 283f f2a8 6d3e
00000260: 51ba b83e a655 febc 2afe 253d 74e0 4abf
00000270: ddfc c63e 102e 35bf 8f41 c9be 6c6c 61bf
00000280: 9bf6 8dbf a144 473e 427e 08bf c854 963f
00000290: 5b5b 6bbe c8c4 52bf b48c 48be f465 013d
000002a0: 9765 c23e 6183 553d 8c8b 363c c697 253e
000002b0: 4100 3d3e ac6f 8dbe 1223 f8be 08e3 b93e
000002c0: d03b 75be ef47 a63e 19e2 0fbe 0a3d a93e
000002d0: 56f3 213f ad93 44bf 666e c43e 7a16 8f3e
000002e0: 1a50 7e3e 5e62 593e 6a2e f3bb a0dd f63e
000002f0: cb3e 09bd 6fc1 c3be e882 ea3e 1fb0 b8bd
00000300: 87b9 a03e ed30 e03e e522 95bd f3a4 c9be
00000310: 6982 b13e 5767 7dbf 9fa8 4a3f e02a 213f
00000320: b4ad d3bb 172d 913e 9201 0d3f 27c7 a63e
00000330: a892 953e 53d7 04be bc65 2cbf 5d9d b9bf
00000340: cf42 55be 7f5c 033f af7d 6e3e 3a60 96bd
00000350: 8005 7a3d 063a 483f 9338 7e3e e514 cebd
00000360: e2df 89bc 7db9 013e dcd4 983e 4f08 363e
00000370: 9431 0d3f 509f 50be c2df 20bf ff8d 91bf
00000380: 0524 5ebf 29cb 943e d436 10bf 35ce 3d3e
00000390: 6b3d 1f3f 27a8 c6be 78ef 96bd 686e dd3c
000003a0: dcc1 bd3e 9cd3 9c3e de7a 173e f2ee bdbe
000003b0: 3816 8d3e ad01 53be 2787 c4bd 0289 51bf
000003c0: 2cd7 71bf efee 04be b8bc a2be f360 ecbe
000003d0: 539f 5b3e 09ba 383e 6f69 d63e 4fbd c9bd
000003e0: 12d1 8e3c 89b8 0c3e db2f 853d 550a d53d
000003f0: 720d 2bbe 65b8 8ebd 854d 613e 045e 843e
-0.16114824 -0.35765365 0.41744828 0.12260568 -0.034654144 -0.30699924 -0.050599672 0.06399588
0.64356077 -0.24828587 -0.02463196 0.50124717 0.284233 -0.29374844 -0.08971798 0.07232529
0.17821531 0.1584976 0.25783297 0.5165609 0.3685682 0.14191262 1.1284573 0.24712843
-0.18093081 0.16859274 -0.17646882 -0.09707977 0.5193181 -0.41160136 0.36889023 -1.1243249
-0.2778841 0.25815585 0.543896 0.086702466 0.24982113 0.5272537 -0.22114134 0.599416
-0.25561872 0.37545246 -0.13691251 -0.012924715 0.28781205 0.2922828 0.13865831 -0.38173646
0.31443292 -0.040367607 0.25771114 0.019166825 0.23540168 0.29661876 0.29686168 0.13761638
0.5029412 0.3905 0.48068088 -0.34770232 -0.35161904 0.23034805 0.53196216 0.42551088
-0.8079136 -0.86396563 0.38337338 0.583363 1.087268 -0.30335978 0.36690226 -0.5917249
-0.866679 -0.21787114 -0.40763754 0.22510521 -0.19155617 0.26778644 0.3873145 0.13992187
0.5077372 0.4335617 0.28055957 0.80468816 -0.16101749 0.5185884 -0.104634054 0.26780295
0.26145923 -0.10289663 0.021262947 0.30249876 0.53098536 -0.00096763927 0.7865432 0.38052228
0.012131314 -0.20234469 0.3474208 0.33250216 0.31185788 -0.38195992 0.20446876 1.128618
1.0451415 -0.34445742 -0.64934945 0.47753084 0.21792409 0.25248614 -0.06838523 -0.29973215
-0.32909882 -0.69961125 0.35504273 -0.007453986 0.26736122 -0.21907483 -0.07468031 0.50947493
0.22627184 -0.16702622 -0.18621784 0.08020021 -0.3970305 -0.51978433 0.08772784 -0.39580688
0.39075986 0.4116138 0.27706072 0.16671376 -0.028582782 0.020504046 -0.120980196 0.31413636
0.23468716 0.8291992 0.31535965 0.18182907 0.19204813 -0.7668571 -0.033804785 0.27876994
0.3109094 0.46997958 -0.2676886 1.5642059 0.2771881 0.07160962 0.6568207 0.23208979
0.36079648 -0.0310467 0.040525593 -0.7924874 0.38864794 -0.7077341 -0.3930783 -0.88056064
-1.1090883 0.19459774 -0.53317654 1.1744623 -0.22984068 -0.82331514 -0.19584924 0.03159137
0.37968132 0.052127246 0.011141669 0.16171178 0.18457128 -0.2762426 -0.48464257 0.36306024
-0.23948598 0.32476756 -0.14051093 0.33054382 0.63261926 -0.76787835 0.38365477 0.27946836
0.24835244 0.2122893 -0.0074213045 0.4821596 -0.03350715 -0.38233516 0.45803 -0.090179674
0.31391546 0.43787327 -0.07282046 -0.3938366 0.34669808 -0.9898581 0.79163545 0.6295605
-0.006459916 0.28354713 0.5508052 0.32573816 0.29213452 -0.12972765 -0.67342734 -1.4501148
-0.20826267 0.5131301 0.23290132 -0.073425725 0.0610404 0.78213537 0.24826269 -0.10062579
-0.016830388 0.12668414 0.298499 0.17776607 0.55153775 -0.20373273 -0.6284143 -1.1371459
-0.8677371 0.2906125 -0.5633366 0.18535693 0.6220309 -0.38800165 -0.07369894 0.027030185
0.37061965 0.30630195 0.14792964 -0.37096363 0.27556014 -0.20606108 -0.09596091 -0.8184968
-0.9446895 -0.12981771 -0.31784606 -0.46167716 0.21447496 0.18039717 0.41877314 -0.09850561
0.017433677 0.1374227 0.06503268 0.10402361 -0.16704348 -0.06968764 0.22002228 0.25852978

fc2.bias f4 [256]
00000000: bb1c d53e 6a53 6d3c 95f5 66bd 46da 82bd
00000010: e48d 563c dc2f 46bd dd50 92bd 19a4 863d
00000020: 8ea6 783d 086e 62be 9dec 1f3e 6f55 b53d
00000030: 0fe3 bdbc cd1b 33bd 80a2 6f3e 5c19 d5bd
00000040: 6f08 4a3d 4414 a73e 0c89 c03c 0626 87bc
00000050: 1fbc 723e 58c9 7dbd 70a6 cbbd fd9e 00bd
00000060: 3988 3fbd 56eb 3b3d 19a7 6abd fae4 f73c
00000070: c585 d13e cff0 c93d b260 333e ba39 b33c
00000080: f862 f53e 8c06 43bd 1445 073a 7996 b0bd
00000090: 0534 0abb fd99 e53c 6178 d1bd d613 943c
000000a0: 04fd 92bd 9bd6 103e 4b26 aebd 2a4e 583e
000000b0: 2af1 16be d059 083d 8250 8c3d 37af 413d
000000c0: 90c8 1bbd 4671 70bd d845 4f3c 3626 9ebd
000000d0: b400 8b3e 00b5 723c 834c 80bd 36b3 163d
000000e0: 8777 ae3d 5863 85bd a4ce 46be 8bfd 83bc
000000f0: 2b40 5e3d 2c41 d2bc 0b1e 0ebd 6b3e e53e
00000100: 9010 443d 31ae fb3d bc7e 1bbd 7173 653b
00000110: 7d56 7cbd b48b 583d d950 8cbd 4479 c1b6
00000120: 8c56 2f3e cbdb 0b3e 36d4 da3d f5ae 02bd
00000130: 4dd1 dcbc eee8 5ebd dcbe 413c 7cae 593d
00000140: 176b 1b3e f350 d03c d323 42bd 73fa c43d
00000150: 7e23 453d d934 913d 2f0c 1f3d d46f 303e
00000160: 610e 0c3c f71c 0a3e 9e3d e13a 55ae 1bbd
00000170: c3ee 4a3e 41c7 47bc 9e7d 1abd 3bf0 2ebd
00000180: 1fd6 2c3d 0241 043d f911 99bb afe1 27bd
00000190: cafb e7bc b1e7 113d 4513 5ebc a5a7 aa3d
000001a0: fb9b f03d 7112 1e3c 762e c53c ac5a 253d
000001b0: 035a 9a3d 2443 803d 0a9a d33d f24f 37bd
000001c0: f4f1 d83c 7dea 80bd bdda 13bd ffb7 9abd
000001d0: 0b70 733d 0612 bebd 0386 bfbd e91c 9cbc
000001e0: 9d4a 0a3e c517 8abb 460c efbc 53ef 1c3d
000001f0: d208 ab3c fee7 373d 4c44 9d3c e0ae 6e3b
00000200: ef9d 213f a8c0 17bd 89c9 37bd e130 1c3b
00000210: 83c5 d3bd 5885 17bc 27b3 c53d fa61 e0bd
00000220: b3d6 99bd 1b51 71bd 6686 25bd 8507 de3c
00000230: 3841 813d ce54 be3b a135 9f3d 0677 4b3b
00000240: 86b2 a93c a8f4 c83d 7037 19bd 5258 c73e
00000250: c016 923d 1f5a 1f3d 2384 7a3d 8d46 ebbd
00000260: dd52 583b 4034 ea3d 1afd 173e 98d6 eb3e
00000270: 2fbd a4bd be8d a6bd 1561 013e cad8 2f3d
00000280: ef22 783e 5546 143d dc0f 923b 79d5 1fbd
00000290: 0242 b13c 4757 3e3d 6bb8 d13c d378 d6bc
000002a0: fd33 243e 9d43 463e 1905 d93d 8761 d43d
000002b0: d9df a0bc cc15 763d f535 573c 66a5 07be
000002c0: 2bc8 b53c 02f8 0abd 714c 10be 6aa7 a2ba
000002d0: c471 13bc cd26 7dbd a569 0f3b 604e bfbd
000002e0: eb0c 8a3d 64bc 3f3e 47b8 003e d700 393e
000002f0: f7f2 d23e 0595 43be f697 11be 3bd0 96bd
00000300: 7367 be3e 2c0a f33d 42c1 12bd e5dc 4fba
00000310: 4f6d f83d cc13 a5bd 1dd4 cabd f8ed 3c3d
00000320: 1e68 9a3c ef98 9fbd aedd c73c 8db8 d4bd
00000330: 7cf9 0b3e 82c2 753a 301b 28be 19cd fabd
00000340: d9e2 2d3d bd8c 03be e74e 803c 9611 5c3d
00000350: 4fe2 49bd ce70 b5bc 316e 8c3e c4ff 8abc
00000360: 7afc 6c3d 34f3 e03d 7717 103d d4df 87bd
00000370: 3059 5abc cbf1 2abd b496 89bd dc5e 3fbd
00000380: e0c9 abbc 60dc 763d 36e6 61bd fbbb 12be
00000390: e7a7 09bc 42b5 8f3d dc31 afbd 8931 c03e
000003a0: eb33 7cbd a321 c83d 7e4c 3b3d a511 f33c
000003b0: 94ff e6bc 4bb4 a53c 7880 263e 3b4c 00bd
000003c0: e315 f43b 14f1 c33e 8ced eebc 6048 fbbb
000003d0: c918 8dbd 47e0 623d 6c89 a2bc 192f 5dbd
000003e0: 8819 5b3c abeb 8d3d a07d 6d3e f30a afbd
000003f0: 34f1 83bd fc75 9f3d 20fd 85bd 4f12 6cbc
0.41623482 0.0144852195 -0.05638655 -0.063892886 0.013095353 -0.048385486 -0.0714433 0.06574268
0.060705714 -0.22112286 0.15617605 0.08854186 -0.023179559 -0.043727685 0.23401833 -0.104052275
0.04932445 0.3263265 0.023502849 -0.016497623 0.23704575 -0.061959594 -0.09943855 -0.031401623
-0.04676077 0.04587873 -0.057288263 0.030260552 0.4092237 0.09860384 0.17517355 0.021878112
0.4792707 -0.047613665 0.0005160135 -0.086224504 -0.0021088135 0.028027529 -0.102280386 0.018075865
-0.07177165 0.14144365 -0.085033976 0.21123567 -0.14740434 0.033288777 0.06851293 0.04728624
-0.03803307 -0.058701776 0.012650929 -0.07722132 0.27148974 0.014813662 -0.062645935 0.036792003
0.08518892 -0.06513089 -0.19414765 -0.01611211 0.054260414 -0.025665842 -0.03469662 0.44774184
0.047867358 0.12289084 -0.03796266 0.0035011435 -0.06160592 0.052867606 -0.06851358 -5.7659654e-06
0.17122859 0.13658063 0.10685007 -0.031905133 -0.026955271 -0.054421358 0.01182529 0.053144917
0.1517757 0.025429225 -0.047397446 0.09618082 0.04812955 0.07090158 0.03882998 0.17230159
0.00854835 0.13487612 0.0017184501 -0.038008053 0.19817643 -0.012193502 -0.037717454 -0.04270957
0.04219639 0.03228856 -0.004671332 -0.040986713 -0.028318305 0.03562135 -0.013554399 0.08332757
0.11748501 0.009647951 0.024070006 0.040369675 0.075366996 0.06262806 0.10332115 -0.044753976
0.02648256 -0.06294725 -0.036097277 -0.07554626 0.059433024 -0.092807814 -0.093517326 -0.019056754
0.13505025 -0.0042142593 -0.029180657 0.038314175 0.02087823 0.04489898 0.019197606 0.0036420152
0.6313161 -0.037048966 -0.044869933 0.0023832845 -0.10340407 -0.0092481 0.09653311 -0.109561875
-0.07511654 -0.05891524 -0.040411375 0.027103195 0.063112676 0.0058084494 0.07773901 0.0031046285
0.02071501 0.098122895 -0.037406385 0.3893457 0.071332455 0.038904306 0.06116117 -0.11488066
0.0033008375 0.11435747 0.14842644 0.4606216 -0.080438964 -0.08132504 0.1263469 0.042931356
0.24232076 0.036199886 0.004457457 -0.039021943 0.02163792 0.046469953 0.025600633 -0.02618066
0.16035457 0.1936173 0.105966754 0.10370164 -0.019637989 0.06007938 0.013135423 -0.13246688
0.022190174 -0.033927925 -0.1409166 -0.0012409512 -0.008999292 -0.06180458 0.0021883037 -0.09341121
0.06740745 0.18724209 0.12570296 0.18066727 0.41200992 -0.19099815 -0.14218125 -0.073639356
0.371883 0.118671745 -0.035828836 -0.0007929339 0.12130224 -0.080604166 -0.09903739 0.046125382
0.018848475 -0.07792842 0.024397697 -0.10386763 0.1366939 0.0009374992 -0.16416621 -0.122461505
0.042452667 -0.12846656 0.015662624 0.05372771 -0.04928809 -0.022148516 0.2742782 -0.016967662
0.057857968 0.10983887 0.035178628 -0.06634489 -0.013326928 -0.041734498 -0.067181975 -0.046721324
-0.020970285 0.06026876 -0.055151187 -0.14329521 -0.008401847 0.07016994 -0.08554432 0.37537792
-0.06157295 0.09772041 0.045727246 0.0296715 -0.028198041 0.020227572 0.16259944 -0.0313227
0.007448898 0.38269866 -0.029166006 -0.00766854 -0.06889493 0.05538967 -0.019840918 -0.053999994
0.013372786 0.06929716 0.23192453 -0.0854701 -0.0644249 0.077861756 -0.065424204 -0.014408662

fc3.weight f4 [128, 256]
00000000: fe1c 273c 148d 26bd 9e90 28bd 09a8 593c
00000010: 44df f93c 98b3 ca3c f08f b0bc 36e4 04bc
00000020: 5625 2e3d 5ce5 d0bc 1506 93bd 3c37 1dbd
00000030: 00ce 1639 0a07 493d 5521 033d 20a6 783d
00000040: a511 173c 95ba a2bd 8a3c 603d e0f1 6f3b
00000050: bf2f afbc 8290 643b 6734 c6bc 483b 343c
00000060: d0dc 52bd 6d31 33bd 0697 643d 560a e63c
00000070: cca9 413d f770 ac3c 8c30 0cbd 760e 4cbd
00000080: 339a afbc 3854 5d3c 5bb3 8d3c 7fba 86bc
00000090: fb6d 58bc e452 cd3c b78f a7bc 52cc cabc
000000a0: 8ebe 15bd 7f36 26bc a08e ebbb dc71 ac3c
000000b0: 4423 4ebd 5c6d 56bd 9e92 55bd cc8e 56bc
000000c0: 5c74 a0bc 8096 293c 83d1 55ba bcf0 b53a
000000d0: bd7c 92bd 450d 223c 1458 1cbd bfc2 743d
000000e0: c0b1 53bd 58a0 25bd a664 10bd 35b8 49bd
000000f0: a26e 0c3d da88 81bc a0b2 6f3d cfd9 e53c
00000100: ce2a 88bd bebf 15bc 3437 933c 04a0 0ebd
00000110: 7034 00bd c701 203c 3f1a c33b 876d 13bd
00000120: 4454 86ba a317 2e3d 83e7 a2bd 38f7 dbbb
00000130: 10da 4fbc 5875 1bbc 7de0 65bd 04eb 973c
00000140: 8bce d13c a235 10bd d4c5 e83c 0bfc 0c3d
00000150: beef 21bd 7d71 e23b a995 70bd 4ff0 a9bc
00000160: 7031 50bd eb7c 8bbb ecdf e9bc f124 4c3d
00000170: cb16 c9bc 9479 d93c 29c7 e33b 2cc5 18bc
00000180: 6863 db3c 65fe 30bd 7cdb efbc 00a0 b03c
00000190: 8c0a a0bc c78b a0bc a4ec 57bd 4cb5 773c
000001a0: ab16 94bb de44 78bd c68a 3d3d 1748 90bd
000001b0: 2f74 c53c a7c4 34bc 302d 60bc c0ed 9cbc
000001c0: b0fe 273c 068d 2e3d 6342 6cbd f5ea f8bc
000001d0: ee52 c73b d133 15bd b4a4 343b 0024 99bc
000001e0: 953a a7bd a2df 24bd 6031 1c3c 8262 74bc
000001f0: 64ba c2bc f973 12bd 80da 2aba e6cb 3fbd
00000200: d95d f93c fe8d 4f3d 2273 693d 4c6c 83bc
00000210: f854 2a3d 048f 22bd 4d7a a23c d1df c83c
00000220: 9efd 5ebd f01a 673d c7f7 cf3c e204 3fbc
00000230: f360 0f3d fbf2 05bd c9a4 28bd c4d2 a8bc
00000240: 5479 3fbd 0086 0439 2bd9 603d e044 083d
00000250: baf0 0c3d f9e1 243d 60b9 da3c 08fa a63c
00000260: 2b98 a9bc cd98 36bc 8963 81bc 749d 463d
00000270: 561f 563d 40d8 213c 0651 c9ba 8fd0 c13c
00000280: 5d7c 1f3d ecbb e9bc c07b d03a 90d0 6dbc
00000290: 7ae6 ab3c c9d4 fe3c c86e d9bc d2f9 663d
000002a0: 5f61 92bd b3a2 af3c 0c24 36bd 78c9 84bc
000002b0: 5e34 243d 4785 3c3d b816 773c 4017 463b
000002c0: 8036 d73b f365 01bc e7e4 75bd 4001 99bc
000002d0: 8584 8dbd 5ef2 a9bc a216 ba3c 25d8 49bd
000002e0: 6035 9a3b 9bf6 35bd 5558 4d3d 4a61 853b
000002f0: 3c78 f6bc 742b 82bd 3603 35bd d878 6a3c
00000300: 15bd 0cbd 4273 70bd a2d7 f7bc 376f 303d
00000310: 9208 123c 7244 7dbd 7e54 f6bc 9d60 083d
00000320: 0033 9539 9883 7c3b 9121 67bd fff6 6cbd
00000330: b4f1 f33b b0c5 d53c 6948 f2ba e0f0 dc3c
00000340: d5a3 d4bc a08e 9cbc 38c3 8abb 03dc 553c
00000350: d8b3 ea3c a17f 5dbd 923e bdbb 1c95 9abc
00000360: 6bdc 75bd 79cd 243c 4c59 a53c dec5 2dbd
00000370: 16d9 fabc 34da b33c 2fb7 2b3d 6c0a 5e3d
00000380: c804 573c 728c 073c e6fc fabb 4531 513d
00000390: f1f7 50bd 26b5 2f3d 60b6 713b 307b 91bb
000003a0: 30ef 5cbd 6dbb 023d f374 91bd f9a5 123d
000003b0: 7fba 8cbb e88d 983c ebf5 403d 1939 c63c
000003c0: e8a2 dc3c d860 31bd d5f6 97bc eb22 ab3b
000003d0: 64f6 6cbd f4db e6ba bc7e 663d a4ab 40ba
000003e0: e194 fd3c a65f 463d 3cfd 8fbd 2f39 163d
000003f0: c0b6 4abd 1028 693c 9403 be3c 3a1e 81bd
0.010199783 -0.040661886 -0.041153543 0.013284692 0.03050197 0.02474384 -0.02155301 -0.00811105
0.042516075 -0.025499992 -0.071788944 -0.038382754 0.00014381856 0.04907898 0.03201421 0.060705304
0.009220515 -0.07945744 0.054745235 0.0036612675 -0.021385072 0.0034876172 -0.02419491 0.011000462
-0.051480114 -0.043748308 0.05580809 0.0280811 0.04728107 0.02104996 -0.034225985 -0.04981848
-0.021435833 0.013508849 0.017297437 -0.01644635 -0.013209815 0.02506394 -0.02045427 -0.02475563
-0.03655868 -0.010144829 -0.007188633 0.021050386 -0.0503266 -0.052350387 -0.05214178 -0.013095569
-0.019586734 0.010350823 -0.0008156525 0.0013880949 -0.07152698 0.009890859 -0.038169935 0.059756037
-0.051683187 -0.04043612 -0.035252236 -0.04924794 0.034285195 -0.015812326 0.05851996 0.02805796
-0.06648789 -0.009139953 0.017970659 -0.03482057 -0.03130001 0.009766049 0.0059540565 -0.035993125
-0.0010248502 0.04250301 -0.079543136 -0.0067128204 -0.0126862675 -0.009488426 -0.05612229 0.018544681
0.025611183 -0.0352074 0.028414644 0.034420054 -0.039535277 0.0069105015 -0.058736477 -0.02074447
-0.050828397 -0.0042568347 -0.028549157 0.049839918 -0.024547001 0.02654723 0.006951232 -0.009324353
0.026780799 -0.04321136 -0.029279463 0.021560669 -0.01953628 -0.019597901 -0.052715912 0.015118908
-0.004519304 -0.060612552 0.046274923 -0.07045 0.024103252 -0.011033214 -0.013682649 -0.019156337
0.010253593 0.04261496 -0.0576805 -0.030385474 0.006082884 -0.03642637 0.002756399 -0.018693924
-0.081654705 -0.040252335 0.009533256 -0.014916064 -0.023770519 -0.03575513 -0.00065175444 -0.046825312
0.030440258 0.050672524 0.056994565 -0.01604285 0.04158494 -0.03968717 0.019833708 0.024520786
-0.054441087 0.056422174 0.025386704 -0.011658879 0.035004567 -0.032702427 -0.041172776 -0.020608313
-0.046746567 0.0001263842 0.054894608 0.03326881 0.034409262 0.040254567 0.026699722 0.020382896
-0.020702442 -0.011144829 -0.015794532 0.048490003 0.052275978 0.009878218 -0.001535923 0.023659019
0.03893696 -0.028531991 0.0015906021 -0.014515057 0.020983923 0.031107323 -0.026542082 0.05639059
-0.07147478 0.021439886 -0.04446797 -0.016209349 0.040089004 0.04602554 0.0150811 0.003022626
0.006567776 -0.007897842 -0.06003275 -0.018677354 -0.06910042 -0.020745452 0.02271587 -0.049278397
0.00470607 -0.044424634 0.050133068 0.0040704357 -0.03008663 -0.06355944 -0.044192515 0.014311038
-0.03436001 -0.05870367 -0.030254189 0.043074813 0.008913176 -0.061832853 -0.030069586 0.033295263
0.00028457493 0.0038530584 -0.056428496 -0.05785274 0.0074445847 0.026095241 -0.0018484715 0.026970327
-0.025957027 -0.019110978 -0.0042346977 0.013052943 0.02865021 -0.054076795 -0.005775281 -0.018869929
-0.06002466 0.010058754 0.020184182 -0.04242503 -0.030621093 0.021954633 0.041922744 0.054209158
0.0131236985 0.008273231 -0.0076595424 0.051072378 -0.051017705 0.042897366 0.0036882386 -0.004439734
-0.053939044 0.031917024 -0.071023844 0.035802815 -0.004294693 0.018622354 0.047109526 0.024197148
0.026933149 -0.043305248 -0.018550316 0.0052226684 -0.057852164 -0.0017613159 0.056273207 -0.0007349795
0.03095478 0.04843106 -0.070307225 0.03667563 -0.04949069 0.014230743 0.023195066 -0.063045934

fc3.bias f4 [128]
00000000: e0a4 43bc f057 89bd 6aaf 5dbd d4c2 52be
00000010: 0dac c53c 538d 49bd 82fe 5e3d 4ca6 893e
00000020: 8ed9 7c3d d792 c03d 9cc5 8b3d 7e0d f23d
00000030: 3433 babd b68d 0abd ade9 55bd 2677 d93c
00000040: 03a5 363d fdd8 4abc e74d bd3d 7c3f 013e
00000050: 4b91 81bd 9a60 5ebd bb27 a13d 8cf3 de3d
00000060: fca4 05bd 9cbc cd3c 446b b63d 1a3c 9e3c
00000070: edc8 5e3d 66a5 76bd 35f6 3cbd 84cd a53c
00000080: e868 14be e295 973c 776c 1a3d e151 6c3e
00000090: e1ef 3e3e 01c2 e5bd a8b7 033d c365 e73d
000000a0: 36ea bd3c 528e 193d 3ce8 953d 8c28 b6bd
000000b0: bf14 5abd 4b18 1f3e eccd 1b3d 6c86 6cbd
000000c0: c9f1 243d 2910 9a3d b8bc 90bd bb82 8c3c
000000d0: 08a4 87bd 6c7e e9bc 36a2 3c3e 2419 463d
000000e0: c71a 133e 7973 97bc 373e 10bc 2f64 afbd
000000f0: 871d b93c f795 d93d 28c2 7e3d d695 f5bc
00000100: 9926 0dbc a299 373e 2b3f ee3c a84f 4dbd
00000110: 0926 27bd 8fdc d43c ecde d4bc 8c1d a43d
00000120: fcda 493e fadf 8bbd b00a 0a3d 5319 493d
00000130: 371b ca3c a0c5 773d 0af4 2c3e 3ee9 953d
00000140: 438a 693e cb6e 2a3e d5a2 84bd 126c 8fbd
00000150: 3a2f 17bd 3b5e f138 3ae7 493e 8a20 0b3c
00000160: 80ee 323c 4343 d33d 9256 363d badf 4bbe
00000170: 4bc3 60ba c5a4 f73d 464c 5bbd d3d6 96bb
00000180: 177f a13d d0f0 2a3e bc9b e1bc 014e c53d
00000190: 7da8 1b3e 872e 1cbc 984e 6a3d dddd 323c
000001a0: 6f42 c23d edf8 0dbd c6c1 333c ced1 21bc
000001b0: e8f1 fa3c f217 533e f79e e33d 307e 0dbd
000001c0: a6f6 103c 0639 b7bd 4337 24bd 971f 72bd
000001d0: 3cf1 403e c4a3 45bd caac ab3d c4bb 503e
000001e0: 2706 cdbc 2ca6 da3d 980f fcbc 88c5 67ba
000001f0: f76f 7a3c 53c4 9bbc 596c 893c c0d6 a83c
-0.011941165 -0.06706226 -0.054122366 -0.20582134 0.024129892 -0.049207043 0.054441936 0.26884687
0.061730914 0.094030075 0.068248 0.1181898 -0.090917975 -0.033826552 -0.052224804 0.026546072
0.04459096 -0.012380836 0.09243374 0.12621874 -0.063265406 -0.054291345 0.07868906 0.10886297
-0.032628044 0.02511435 0.08907178 0.019315768 0.054390837 -0.06021633 -0.04613324 0.020239599
-0.14493144 0.018504087 0.037701096 0.2307811 0.18646194 -0.11218644 0.03215757 0.112987064
0.02318297 0.037489243 0.07319686 -0.088944525 -0.05324244 0.15536611 0.03803818 -0.057745382
0.040269647 0.075226136 -0.07067245 0.01715218 -0.06623083 -0.028502665 0.18421254 0.04836382
0.14365683 -0.018487679 -0.008803896 -0.085640304 0.022597088 0.10624307 0.06219688 -0.029978674
-0.008615159 0.179297 0.029082855 -0.050124794 -0.040807758 0.025984077 -0.025985204 0.08013448
0.19712442 -0.068298295 0.0337016 0.049096417 0.02467118 0.060491204 0.16889969 0.07319878
0.22806649 0.16643827 -0.0647637 -0.07003035 -0.036910273 0.00011509327 0.19717112 0.008491645
0.010921121 0.103155635 0.044516154 -0.19909564 -0.0008574023 0.12091974 -0.053539537 -0.0046032458
0.078855686 0.16693425 -0.02754008 0.09634019 0.15200992 -0.009532577 0.05720386 0.010917154
0.094853275 -0.034661222 0.010971492 -0.0098766815 0.030632928 0.20614603 0.111143045 -0.03454417
0.008847868 -0.08946423 -0.040091764 -0.059112158 0.18842024 -0.048251882 0.08382566 0.20384127
-0.025027348 0.10676226 -0.030769154 -0.0008841385 0.015285484 -0.019014513 0.016775297 0.020610213

fc4.weight f4 [7, 128]
00000000: 040c 65bd 1041 86bc 41a1 aabd 85f4 6ebe
00000010: 5e67 38bf 909f cbbc 8d96 35bf 11aa 013f
00000020: 340e 23bf 3227 23bf 8ced 16bf c1fe 3abf
00000030: 0a66 333d 607a 36bc c8fe 2b3d 5696 223d
00000040: 4aab 93bf 024d ee3e 47ba a4bf dd5c 2cbf
00000050: 22a9 9bbd 083a 7abd ce21 3abf 26e1 31bf
00000060: b96b a3bd 2cc6 ed3c 96da 31bf b29d a53c
00000070: 9318 54bf acc4 623e 9213 41bf e9b9 e4bc
00000080: ebb6 10bf 459d c7bc 6faf 2fbf 0ba2 f63e
00000090: 675c 0c3f 4999 4fbe 0592 863d 0efd 95bf
000000a0: e7e2 2f3e ef3f 14bc 7b19 4fbf 0477 7b3d
000000b0: d1f3 3cbd a480 eb3e f7be 3a3d 2fb5 563c
000000c0: b5cc 8dbf e48f 3ebf 2d50 ffbc f769 fa3b
000000d0: 08c0 4f3c 0aa8 febc ae23 4d3f c8d1 aa3c
000000e0: 2121 4ebf 7ecf 01bf 9bd7 7d3c 666b 4ebd
000000f0: c550 e2bc a6cb 99bf a652 70bf cafb 30bd
00000100: 9487 db3b d88e f83e b119 b53c c857 933d
00000110: b3be 15bf c6a3 2fbf ec70 883c 94f4 46bf
00000120: c649 0a3f 3ebb 933d 333f 01bd 6267 d8bc
00000130: cd1b c23c 7319 26bf 5373 563f ef99 46bf
00000140: 6592 023f 1e56 5dbf 8100 1abd e1bc 3c3d
00000150: ed6c 39bf 44ea 4ebf 3c85 f73e 3c1e 4dbf
00000160: 6aac 8c3d 6e6b 2abf 11d2 d23c d395 efbd
00000170: 6416 39bf ea63 35bf 90b7 c43c b728 ef3c
00000180: 9097 3cbf a938 093f d1ec 013c 4b29 27bf
00000190: e303 f93e 92be 143d 9fe2 43bf d4c1 2dbb
000001a0: 7c75 2ebf bac6 cfbc 6035 1fbb bff4 7a3d
000001b0: f0dc ccbc ccb6 023f 1ea2 35bf 0522 373c
000001c0: f24f 62bd 9ffb 7e3c b587 a23d 7ec8 873d
000001d0: 9aee 023f 771d 45bd bf79 75bf aae4 183f
000001e0: 3c01 84bf 0fe9 a83f e4e0 c5bc a6e9 8d3c
000001f0: c5c5 653b 499b 843d 41fc 6cbf 38f3 cabc
00000200: 5275 f2bc 50f1 06bc 1e21 9a3d 3dc6 3ebe
00000210: ceed 3cbf 38df 2d3c 41d0 2ebf 1771 0e3f
00000220: c82e 40bf a7bb 35bf 3373 e3be a5f1 1fbf
00000230: 0950 5d3d 84a2 223c 8c47 72bd 34eb 7c3d
00000240: 577a 7ebf 63b5 063f 2a4c 9dbf 83e5 3bbf
00000250: 19ec 33bd f8b0 38bc 44b1 1bbf c783 28bf
00000260: cd45 bf3c aaad a0bd f4f9 32bf 455e 853c
00000270: 1af5 3abf f76f 9fbe c56c 28bf e78d 1f3d
00000280: 0854 50bf c48f c13c d0f0 08bf 0725 ee3e
00000290: 435a 0c3f c174 5ebe b83a 04bd 4efd 92bf
000002a0: 97d9 2cbd b948 623d 83cf 7ebf a1d1 24bb
000002b0: 3d75 bc3d 63a4 083f a372 903d 1697 14bd
000002c0: 2391 9bbf bf39 5cbf 34f4 de3d 6e33 123d
000002d0: 8efe 5d3d 0e78 04bd 6093 443f a8d9 c1bd
000002e0: 4b86 80bf adf3 b5be d171 8d3d 10d1 9cbd
000002f0: ac3a 713c 7543 a1bf 6e94 86bf 737c a23d
00000300: 1d4f 1a3b 182b d93e fde2 313d 4a25 b73c
00000310: ded7 15bf 904e 43bf fde9 b4bc 1fcc 31bf
00000320: d0aa fe3e cd4e 973d bf9e 323d 065d 813c
00000330: 5270 56bd 3cdf 35bf 9e72 4f3f be47 2dbf
00000340: b7c3 ce3e f9c4 48bf 9886 9abb 4239 513d
00000350: 1c8b 3abf ba73 51bf f31d 0f3f 1702 07bf
00000360: ad7e 943d 116a 4fbf 0387 88bd be45 3ebe
00000370: c26b 57bf 5813 3fbf 3061 ab3a 4de1 913c
00000380: 2d85 3abf 9fde e93e 745b 203d 0fe8 13bf
00000390: 5545 0d3f afa5 6a3d 7603 3dbf 4814 773c
000003a0: 299b 18bf 5dfe 38bd 678a a0bd 3256 453d
000003b0: 09fd 1f3d 9ff7 e83e 0217 36bf 6732 643d
000003c0: 077a 583d edd4 d9ba 0453 e8bc d7bb 95bd
000003d0: a66b 143f 3cc4 1dbd 36ba 53bf 8a33 2b3f
000003e0: 7da7 86bf 0d7f 9b3f 0fad ab3d 241a 143d
000003f0: 27e6 8c3d d9b5 d8bc 90e0 87bf 000d 463b
-0.055919662 -0.016388446 -0.08331538 -0.23335464 -0.72032726 -0.024856359 -0.7093285 0.50650126
-0.6369355 -0.6373168 -0.5895622 -0.73044974 0.043798484 -0.011137575 0.041991025 0.039694153
-1.1536648 0.46543127 -1.2869347 -0.673292 -0.07600619 -0.0610905 -0.7270783 -0.69484174
-0.07979531 0.02902516 -0.6947416 0.020216797 -0.8285 0.22145337 -0.75420487 -0.02792068
-0.5652911 -0.024366984 -0.68627065 0.48170504 0.54828495 -0.20273317 0.0657082 -1.1717851
0.171764 -0.009048446 -0.80898255 0.0613928 -0.04613096 0.45996583 0.045592275 0.013104721
-1.1078097 -0.7443831 -0.03116616 0.0076420265 0.012680061 -0.031085987 0.8013257 0.020851985
-0.805193 -0.5070723 0.015493299 -0.050395392 -0.027626405 -1.2015274 -0.9387611 -0.043208875
0.006699512 0.4854648 0.022106977 0.07194477 -0.5849411 -0.68609273 0.016655408 -0.77716947
0.5401882 0.07213448 -0.031554412 -0.026416484 0.023694897 -0.6488258 0.8376972 -0.77578634
0.5100463 -0.8645953 -0.037598137 0.046078566 -0.7243183 -0.8082621 0.48343837 -0.8012426
0.06868823 -0.66570175 0.025734933 -0.116984986 -0.7229979 -0.7085558 0.02401331 0.029194219
-0.73668766 0.5360208 0.007929997 -0.65297383 0.48635778 0.036314555 -0.7651767 -0.0026513236
-0.68148017 -0.025363315 -0.0024293289 0.061268564 -0.025007695 0.51060176 -0.70950496 0.0111775445
-0.055252023 0.015562921 0.0793604 0.06630038 0.5114533 -0.048123803 -0.95888895 0.59723914
-1.0312877 1.3196124 -0.024155088 0.017323326 0.0035060507 0.06474931 -0.9257241 -0.024774179
-0.029596958 -0.008236244 0.07525848 -0.1863031 -0.7380036 0.0106123015 -0.6828652 0.5564131
-0.7507138 -0.7098946 -0.44423828 -0.62478095 0.054031406 0.009926442 -0.059150264 0.061747745
-0.99405426 0.52620524 -1.2288868 -0.7339708 -0.043926332 -0.011272661 -0.6081736 -0.65826076
0.023348713 -0.07845624 -0.6991265 0.016280303 -0.73030245 -0.3114011 -0.6579097 0.038953688
-0.8137822 0.023628123 -0.5349245 0.46512625 0.5482523 -0.21724226 -0.03228256 -1.1483552
-0.042199697 0.055245135 -0.9953539 -0.0025149363 0.09202049 0.53375834 0.07053115 -0.0362769
-1.2153667 -0.86025614 0.10886422 0.03569358 0.05419784 -0.032341056 0.76787376 -0.09465343
-1.0040983 -0.35537472 0.069064744 -0.07657063 0.014723461 -1.2598711 -1.0514047 0.07933893
0.002354569 0.4241569 0.043429364 0.022356648 -0.5853251 -0.7629175 -0.02208423 -0.6945209
0.49739695 0.07388077 0.043608423 0.015791427 -0.05235321 -0.71043754 0.81034267 -0.67687595
0.40383694 -0.78425556 -0.004715752 0.051079996 -0.72868514 -0.8181721 0.55905074 -0.52737564
0.07250724 -0.8102122 -0.066663764 -0.18581292 -0.841488 -0.7463889 0.0013075229 0.017807627
-0.7285946 0.4567766 0.039149716 -0.5777597 0.5518392 0.057286914 -0.73833406 0.015080519
-0.59611756 -0.045164455 -0.07838898 0.048177905 0.039059673 0.4550142 -0.7112886 0.05571213
0.05285075 -0.0016619243 -0.028359897 -0.07311218 0.5797676 -0.03851722 -0.8270601 0.6687552
-1.0519863 1.2148148 0.08382618 0.036157742 0.068798356 -0.0264539 -1.0615406 0.003022015

fc4.bias f4 [7]
00000000: 18d6 1c3d 2565 20be dc10 86bd 71d8 753e
00000010: dee1 503e ddb8 8b3e 1b8a 973c
0.038290113 -0.15663584 -0.065461844 0.24008347 0.20398661 0.27289477 0.018498471
