models/lateral_stage2_seed2222_final.pth (torch, 412481 bytes, 8 tensors)

fc1.weight f4 [256, 9]
00000000: 243e aa3f d38c 04bd 1372 093f 3990 31bd
00000010: 6d29 683e 0ec0 363e ab3f 7ebe c076 c33b
00000020: 27ea 07bd 948d 59bd 52ff d6be 81d0 22be
00000030: 4e37 2b3f 7dc8 c33d 4139 dbbe c0ba d9bc
00000040: 6bea 993e 2ffa 36be 05ce d03e 31a9 ba3e
00000050: c096 8a3e 36f6 043f 4e79 ea3d df5c b83e
00000060: 6d38 9b3e b6c3 373e bfa1 a03d b35d 58c0
00000070: ef5e a5be 1235 243f 04bc 873e 01c8 d33d
00000080: a6f5 f73d 27a0 9dbe 908f d6bd d6fd 83bd
00000090: 5b46 c23f e0ea ebbd 2b44 d33e c648 0abf
000000a0: 51eb b7bd 15ac a03e 68e4 703d 4604 fcbd
000000b0: 05f1 f5be ab19 5e3f a0db c8bd d8d2 ef3c
000000c0: cf94 023f 8350 633e 6b7d 073f 70de 87be
000000d0: 9276 a6be 08a7 6f3e 8102 c6bf 3413 033e
000000e0: 9953 18bf 978a bebe a00e d4bc 4b4c 183c
000000f0: 31b0 803e 38a2 0e3d cabc 2fbe c4d6 37bf
00000100: 04ff 7d3e ce69 c33d 1f0f d8bd 4db3 983e
00000110: 4c0b c53e 4214 773e 3379 11be 6fb0 4fbf
00000120: 4a2d 57c0 b5d0 b1be 222c cb3c 4965 0dbf
00000130: cdb0 92bd 728a 9fbc 9634 26be 40e2 3bbd
00000140: ee25 48bd 74f8 783f ee1e 113f 7b99 15bf
00000150: 5eb3 113f 16a9 2ebc 3ec5 7a3e 2336 0abe
00000160: 4eea 773e ce43 a9be 1a9b 41be ced0 3dbe
00000170: fe02 7ebd 2d2c 9f3e 05b0 db3e 98f8 c03e
00000180: 507f 2dbe 5481 92bd 898f ebbd 2d8f 0b40
00000190: 9428 19bd e262 f2be 7b08 c23e fbe4 07be
000001a0: 56ef a5be 4626 373e 4000 b6bd 7c68 573e
000001b0: 10e7 8b40 4799 80bd 9309 f83d 3649 053f
000001c0: a3c2 313e a699 633d 8028 3b3b 0c18 f23d
000001d0: edcf a3bd fe1a a7c0 20be d33d 5b00 c93c
000001e0: 59e8 6bba 4360 b2be 51fc e23e deb7 1b3e
000001f0: dee1 91be f230 6b3e e4ac 403e fde9 79be
00000200: eae8 253f c758 55bd ba14 aebd 7e87 233e
00000210: 6608 0d3e 1a64 273e e9a6 c2be 2c97 01c0
00000220: 630f dabe 4ff1 8f3e 109a 13be 4625 bfbd
00000230: ccb2 90be d82f 31be 362a 5e3e 1773 9b3e
00000240: c963 80be 1558 f83d a289 1a3e 4c49 1f3e
00000250: 89db fc3e 3915 d9bc 5c90 bbbd 07e4 9fbe
00000260: f76e 133d 3aec 783d d87d e3bd af05 08be
00000270: 96ad 003e f6e2 65bd 0c96 3c3e b3fb 843e
00000280: 7e6a 3d3e 1ccf d7be 6e62 9c40 43f4 8b3e
00000290: 0b80 093e 2530 d33d 324b d9be 5e17 a63e
000002a0: 7d14 983e 88fc 93be 9880 d2bd 6b16 46c0
000002b0: 4f46 b0bd 9d40 8cbe 0867 603e 751b 5fbc
000002c0: 3109 12bd 4c3c 98bd fe6a 94be ecfe ffbd
000002d0: b6bd 3ec0 0d69 d83b de34 0fbf 8c7d 963c
000002e0: aa2f a93b fb02 acbe 0023 dfbd 080f 273d
000002f0: 5af9 753e ab7a 9ac0 c7c3 ca3e c034 9c3e
00000300: 2adb 1ebf 6195 223d e403 ce3e 7be9 26be
00000310: d658 343e 5ffd 89bd df1b 8240 c15f 06be
00000320: a421 503f 366b 6c3e 9602 fa3d 3d3c 2cbd
00000330: 5683 c9bd b471 e73d 9d19 bf3d de2d 93bf
00000340: a3e3 fc3d 44d2 9bbe d0fa 393e 19fd d93d
00000350: e601 c23e 0b5f 28be d0d8 df3d f449 34bd
00000360: ef95 b2c0 7ea5 14be cd03 4f3e a1ff 993d
00000370: 9997 e03b 1454 313f ac62 9f3d 9ac5 8ebe
00000380: 0aa0 c33d edba 133f cadd 1a3f 5074 693e
00000390: 9091 453c fa30 fcbe 1119 ebbd 6c4a 84be
000003a0: f0ea ffbc 715b 16bf 9cab 183d 9341 96be
000003b0: f4ff e1bc 3598 70bd fe02 d43e 1d13 53bb
000003c0: 1750 a63e 866b 7a3e ce1a 733e e1a9 58c0
000003d0: 2a5e 3fbe 3106 1dbf 0cce 1ebe b9c9 03bd
000003e0: defd bdbd ec1c 8fbe 9683 5cbe 8a48 053e
000003f0: 5ec1 63c0 7c48 88be 945c c83d 13b6 ffbe
1.3300214 -0.032360863 0.5368969 -0.043350432 0.22672053 0.178467 -0.24828975 0.005965084
-0.03318229 -0.053113535 -0.4199167 -0.1589985 0.66881263 0.095597245 -0.4281712 -0.026578307
0.3006166 -0.17868875 0.4078218 0.36457208 0.27068138 0.5193819 0.11448918 0.36008355
0.30316487 0.17945752 0.078433506 -3.380719 -0.3229899 0.6414348 0.26510632 0.10340882
0.121074006 -0.3078625 -0.10476601 -0.064449 1.5177721 -0.11519408 0.41262946 -0.54017293
-0.0898043 0.31381288 0.058811575 -0.123055026 -0.48035446 0.86757916 -0.09807515 0.029275343
0.51008314 0.22198682 0.5292575 -0.26536894 -0.32512337 0.23403561 -1.5469514 0.12800294
-0.5950256 -0.3721511 -0.02588588 0.009295533 0.25134423 0.034822673 -0.17161861 -0.7181208
0.24804312 0.09541665 -0.10549759 0.29824296 0.3848518 0.24128821 -0.1420639 -0.8112859
-3.3621392 -0.34729543 0.024801318 -0.55232674 -0.07162628 -0.019475196 -0.16230997 -0.045870066
-0.048864298 0.9725411 0.5668782 -0.5843732 0.5691432 -0.01066043 0.24489304 -0.13497214
0.24210474 -0.33059543 -0.18906823 -0.18536684 -0.062014572 0.3108839 0.4290773 0.37689662
-0.16943097 -0.07153574 -0.115019865 2.1806138 -0.037392214 -0.47341067 0.37897095 -0.13270943
-0.3240916 0.17885694 -0.088867664 0.21035951 4.371956 -0.06279235 0.12111201 0.52064836
0.17359404 0.055566452 0.0028558075 0.11820993 -0.07998643 -5.222045 0.10338998 0.024536302
-0.0008999161 -0.34839067 0.44333127 0.15206859 -0.28492635 0.2296789 0.18815953 -0.24405666
0.64808524 -0.052086618 -0.08500047 0.15969655 0.13772735 0.1634678 -0.38017967 -2.0248518
-0.42589864 0.2811379 -0.14414239 -0.09333281 -0.2826141 -0.17303407 0.2169579 0.30361244
-0.2507613 0.12126175 0.15091565 0.15555304 0.49386242 -0.026499378 -0.09158394 -0.3122866
0.035994496 0.06077216 -0.11107987 -0.13283418 0.12566218 -0.05612465 0.18416613 0.2597328
0.18497655 -0.421502 4.8870153 0.27334794 0.13427751 0.10311917 -0.42440182 0.32439703
0.2970313 -0.28903604 -0.102784336 -3.0951183 -0.0860716 -0.27393046 0.21914303 -0.013617386
-0.035653297 -0.07433376 -0.2898788 -0.12499794 -2.980329 0.00660432 -0.55940044 0.018370412
0.0051631527 -0.33596024 -0.108953476 0.04078582 0.24020901 -4.827474 0.3960249 0.30508995
-0.6205317 0.03969324 0.40237343 -0.16300003 0.17612013 -0.0673778 4.065902 -0.13122465
0.8130133 0.23087773 0.122075245 -0.042049635 -0.098395035 0.11300984 0.09331057 -1.1498373
0.12348106 -0.30433857 0.18162084 0.10643978 0.37892073 -0.16442506 0.109300256 -0.04401584
-5.5808024 -0.14516255 0.20216294 0.075194605 0.0068540093 0.6926892 0.07782492 -0.27885133
0.095520094 0.577071 0.60494673 0.22798276 0.012058631 -0.49256116 -0.114793904 -0.2583803
-0.031239957 -0.5873328 0.037273034 -0.29346904 -0.027587868 -0.058738906 0.41408533 -0.0032207437
0.3248298 0.2445508 0.23740694 -3.3853686 -0.18688264 -0.6133757 -0.15508288 -0.0321748
-0.09276937 -0.27951753 -0.21534571 0.13015953 -3.5586772 -0.266178 0.09783283 -0.499436

fc1.bias f4 [256]
00000000: 3081 6c3e b8ab c9be 7dab 853d 7c37 063e
00000010: da00 98be 1419 2c3e 8dbf 3dbe f916 87be
00000020: 4fd4 2b3d 5b07 fabd 7d85 89be dd60 a63d
00000030: 075f 743e eee8 a43c d098 a43e 90df 07bd
00000040: d651 94be 7ed4 b1be fe37 5e3e 5136 673e
00000050: c24a 0c3a 8aba c2be 4242 4ebd f898 11bf
00000060: aaf7 a13e e193 aabe ef16 fe3d 5be4 91bc
00000070: 19ed c73e dd00 a0be 28b2 3c3e e831 b03d
00000080: 0a55 eebc 1d36 8e3d e29b 5a3d 3d16 ebbd
00000090: b6cc db3c 7c3f 6abc 38a6 f33d 4fff a33d
000000a0: 5544 91be d4b5 f8bd 0679 b4bd 476e 8b3e
000000b0: 1bfd da3d 2f34 b53e 6729 d13d 5ff2 963c
000000c0: b33a 6f3e f6dd 1c3e eba1 083d 3df9 aebe
000000d0: 1a1e e5bb b493 8cbd c483 f13d 7bcd 05bf
000000e0: 87fd a6be 2bf0 a2bd ffd6 0f3e a10f afbd
000000f0: e8c5 2f3c 23c1 c1be 7d1a 283e 6422 0dbe
00000100: 78c4 cfbe 3deb edbe e88e 1e3e b8b6 813e
00000110: 8589 85be a5ce af3e 3bd5 d23d 6755 933d
00000120: 38db a0be 1f1d 8c3e 09a0 e1bd b8cf c3be
00000130: 5e7a 9bbe f49a 7dbe bb5e f4be 11a7 bfbb
00000140: c066 f3be 3381 1ebe 5d31 4ebd 5835 4d3e
00000150: 8a04 2ebb ab9b a4be cd4a 09be 7ec0 9cbd
00000160: f669 053e d7b5 f3be 0365 82be 5db1 c73d
00000170: 3c96 febe bc50 553a 86c4 9f3e a509 0cbd
00000180: a1be 01be 3c19 f8bd 4287 d3be 1e9f aebe
00000190: 4d5b fc3c 54c8 093e b539 38be 7714 9f3e
000001a0: 6c9d f7bc 5bb1 333e d418 ecbe 5988 bcbe
000001b0: 7638 0bbd 1b00 9ebd 6294 12bd 4d49 1cbe
000001c0: fcbd 75be af8d a6be a85f 563c 1e00 943e
000001d0: a826 b7bd d8dc 2fbc 668c 3b3e d0ec 633e
000001e0: 95c5 9e3d eced 04be 202e 1fbd 5611 c0be
000001f0: c028 4a3e 3b97 2d3e 104c d0be d5d8 71bd
00000200: 27b9 7e3e 4ac8 a0be d00a b33d 608b e73b
00000210: f4c2 09bd f93d 4abd 8d6a 5b3e 5673 9c3d
00000220: cf68 33be 9da2 a0be e5d7 dcbd b024 7ebe
00000230: 5bd8 703e cf57 98be b0ab 813e 854c 713c
00000240: c3e3 1dbd 4543 82be fdb1 953d 517f 4ebe
00000250: 8125 59be 3b3a 3a3e c0b2 cbbd a4b5 9fbb
00000260: 1f38 8ebe 5904 42bd f78d bc3b 1263 80be
00000270: 4034 a7bd 5694 9fbe 6561 acbe b1c2 903e
00000280: d076 98be 67e4 a2bc 235f abbe 2b37 113d
00000290: 59de 6bbe 793e 2b3e 2afa 9bbe 9a54 1e3e
000002a0: 4ca3 9cbe 9367 8dbd 6de3 243e 8337 e3bd
000002b0: 3707 4ebe 3297 67be d226 86be 7aa2 67bd
000002c0: e343 4f3c be04 19be e0cb a63c a6f4 87bd
000002d0: 1b6b a2be 0911 883e 505a be3e 2de7 0ebf
000002e0: 82bb 203d 5229 37be cfc5 a7bd ba74 4e3e
000002f0: 4a6f 8f3d 7103 8a3d a8a1 883e e6b9 b2be
00000300: a856 0ebe 8148 65be 9609 2e3e 7287 55bd
00000310: 4b32 b2bd 075e 253c dfa2 e63d 6d96 cf3e
00000320: a2ca 7bbd 6a0f 033e c5e7 843d dcd8 df3d
00000330: 57b1 98be 1599 91be 565c e33d 2802 993e
00000340: 7378 febd 9b4a 0b3e 28d4 963e 0bea a53e
00000350: 96b2 1d3e 2d86 163d ece9 6d3e b0c7 063c
00000360: f921 893e df57 3b3e 557a 9d3e caca b23d
00000370: 4721 07be a977 1e3d 6e60 74be c199 9b3e
00000380: 765c 743e 59f5 81be 24ec c13e c9b2 963e
00000390: 8995 343e fd27 173e 0611 983e f524 ab3e
000003a0: 14cf a8bc 7b30 373d 8be6 c5bd ab52 003e
000003b0: d0dd b23d da86 b73e 64cb 14bf 2d13 393e
000003c0: d24d 16bd 9ee7 543d 6262 a83e 51cc 7abd
000003d0: 42f4 9b3e 420a 98be 2a7f efbe 3403 51be
000003e0: c4a8 7c3d 2304 a0be 7f7c 81be c697 debc
000003f0: 4506 b23d 9f3a 313e b583 633e 42d4 12bb
0.23096156 -0.39388824 0.065268494 0.13107103 -0.2968815 0.16806442 -0.18530102 -0.26384714
0.04195052 -0.12208434 -0.26859656 0.08123944 0.23864375 0.0201306 0.32147837 -0.03317219
-0.28968686 -0.3473243 0.21701047 0.22579314 0.0005351716 -0.38032943 -0.050356157 -0.56874037
0.31634265 -0.33315948 0.12406718 -0.017809084 0.3904808 -0.3125066 0.18427336 0.08603269
-0.029093284 0.06943915 0.053371318 -0.11478851 0.026831012 -0.014297362 0.11896938 0.080076806
-0.28372446 -0.12144056 -0.08812146 0.27232572 0.10692807 0.35391375 0.10212975 0.018426118
0.23362236 0.15319046 0.033357542 -0.3417453 -0.006992114 -0.0686411 0.117927104 -0.52266663
-0.326153 -0.07955965 0.14046858 -0.08547903 0.010728337 -0.37842664 0.16416354 -0.1378265
-0.4057958 -0.46468535 0.15484202 0.25334716 -0.26081482 0.34337345 0.10294577 0.071940236
-0.3141725 0.27365968 -0.110168524 -0.38244414 -0.30366796 -0.24766141 -0.47728524 -0.0058487733
-0.4753933 -0.15478973 -0.050340045 0.2003988 -0.0026552998 -0.32150015 -0.1340744 -0.076539025
0.13028702 -0.4759967 -0.2546769 0.09750626 -0.49723995 0.00081373355 0.31204623 -0.034188885
-0.12670375 -0.12114188 -0.4131413 -0.34105772 0.030805254 0.13455325 -0.17990763 0.310703
-0.030226432 0.17548124 -0.46112692 -0.36822775 -0.033989392 -0.07714864 -0.03578604 -0.15262337
-0.23998255 -0.3252997 0.01308433 0.2890634 -0.0894292 -0.010733806 0.18315277 0.22258306
0.077525295 -0.12981385 -0.038862348 -0.37513226 0.19742107 0.16952221 -0.4068303 -0.059044678
0.24875318 -0.31402808 0.08742297 0.0070661753 -0.033633187 -0.049375508 0.21427365 0.07639186
-0.1752045 -0.31374064 -0.10783366 -0.24818683 0.23520033 -0.29754493 0.253263 0.014727716
-0.03854729 -0.25441948 0.07309339 -0.20165755 -0.21205713 0.18186276 -0.09946203 -0.004873948
-0.27777192 -0.047367427 0.005754228 -0.25075585 -0.08164263 -0.3116786 -0.33668056 0.28273538
-0.29778147 -0.019884301 -0.3347102 0.035453003 -0.23034038 0.1672305 -0.30464298 0.1546196
-0.30593336 -0.06904521 0.16102381 -0.110945724 -0.2011994 -0.2261627 -0.26201493 -0.056551434
0.012650463 -0.14943215 0.020360887 -0.0663846 -0.3172234 0.26575497 0.37178278 -0.55821496
0.03924132 -0.17886856 -0.08192026 0.20161715 0.070036486 0.06738938 0.26685834 -0.34907454
-0.13900244 -0.2239094 0.16995844 -0.052131124 -0.08700999 0.010093219 0.11261534 0.40544453
-0.061472543 0.12798849 0.06489519 0.109300345 -0.298228 -0.28437105 0.11101596 0.29884458
-0.124253176 0.13602678 0.29458737 0.32405123 0.15400156 0.036749054 0.23233765 0.00822632
0.26783732 0.18295239 0.30757394 0.08730085 -0.13196288 0.038688336 -0.2386491 0.30390742
0.23863396 -0.25382498 0.37875473 0.29433277 0.17635168 0.14761348 0.29700488 0.33426633
-0.020606555 0.04472397 -0.09663113 0.12531535 0.087337136 0.3584507 -0.5812285 0.18073721
-0.03669531 0.0519787 0.3288756 -0.061230008 0.3045979 -0.29695326 -0.46776706 -0.20411378
0.061684385 -0.31253156 -0.25290295 -0.02717198 0.08692602 0.17307518 0.22218211 -0.0022404348

fc2.weight f4 [256, 256]
00000000: c403 ebbc 7c48 c43c 6b48 923c 148b 0c3d
00000010: 364d bf3c 277c 9e3c eb54 1cbd e62f 4a3d
00000020: a687 67bc 49c6 843c d022 d5bc da6c 0d3d
00000030: 12d2 103c 59a0 263d cfc9 45bd c893 713d
00000040: 0ce2 3e3d 5867 a63c 55b0 7fbd 162d 84bd
00000050: 8ee8 f0bc 0e66 2c3b 7669 7abd c3e1 263d
00000060: 8f2e d83c dac3 1a3d bdb7 86bd 4278 00bd
00000070: 5dba 0fbd e69c 78bd c556 f6bb 1bc5 28bc
00000080: f1bb d9bc f47f 003d 8e91 5bbd 800e 6b3d
00000090: 270a 343c 7027 54bd 1af3 7ebd a08d 0c3d
000000a0: 8c49 eebc 6caa 2b3d 4d07 9a3c a3ba 7ebd
000000b0: 3fbe 423d 3dcd 40bd 2004 f23c 6839 303d
000000c0: c3a4 17bd db95 583b 96f0 33bd 2490 16bd
000000d0: 5ac7 89bd 1444 79bd 955e 53bd a8d0 e23c
000000e0: 2308 7abd d947 19bc a3e2 3f3d e652 33bd
000000f0: 5651 98bc 1b75 abbc e8d3 11bd 66b5 37bd
00000100: 2472 9dbc 5042 103c 9243 c83b 40a3 2bbd
00000110: 7fe3 8c3c 5e3b 03bd b67a 31bd bc38 2abd
00000120: 9e96 61bd 1b88 063c ec97 81bc 001f abb9
00000130: d759 323d d249 d33c a90c debc 0652 7dbc
00000140: 04e8 383b f1a9 3dbd cfdc 283c 603b 0cbd
00000150: 144f 613d 8858 cebc b0cc 863c a4f0 cd3c
00000160: 4567 55bd 9d43 9cbd 9a08 20bd f6b6 04bd
00000170: 0cdb 0a3d 350b 843c 0c79 02bd 61a5 94bd
00000180: 1244 5fbd 66dd 48bc e694 cdbc f880 1ebc
00000190: 76ce cbbb 389c bd3c e02d 46bd 926b a2bc
000001a0: 7071 9f3b 0f47 82bd 683a 0fbd 289f 79bc
000001b0: f735 5dbd bcde 2d3d 85e4 ce3a 8051 52bd
000001c0: 4216 69bd cabc 10bd ee22 68bd b3c1 0b3d
000001d0: 4df9 2cbc 84cc 34bc 057f bcbc 4fb0 41bd
000001e0: 54d2 3a3d a046 07bd 4e82 87bd 30d2 31bc
000001f0: 92bf 2f3d 587b 5f3c 200f 833c 4ad2 923c
00000200: 9d3c d03c d9ef 333c dc62 4abb c48b 4fbd
00000210: a1a9 9abb 3be6 e93a dc8e dbbc 672d 6dbd
00000220: 8176 983c cd3e 7b3c 2421 18bd 887a a3bc
00000230: 1176 56bd 6055 863c 0e08 703d 507f f13c
00000240: 23f4 f93c d450 b9bc a8f9 3f3d 3ce4 193d
00000250: 6770 6bbd 8398 d9ba 8ab2 3a3d a899 de3c
00000260: 82e6 77bd 5c56 78bd 0ec7 48bb 5072 6b3c
00000270: 4f21 21bd 2db3 ad3c 650f 55bc db60 8fbd
00000280: 1c5c 133d df5e 803c 5e45 58bd aa93 6dba
00000290: 9082 bf3c 4ede 83bd 0457 c23c a82d 34bd
000002a0: c57f e03c 42c4 cc3c 2555 253d 76c2 8abc
000002b0: 5186 4a3d 8462 9c3c b9ee 8dbd b025 48bb
000002c0: 75ed ba3c 5e13 febc 54b0 ddba c788 7ebd
000002d0: 3109 87bc b213 7c3c f25a 7f3c a8ee 183d
000002e0: 0f89 dbbc 3047 a0bb 2832 4fbc c066 1ebd
000002f0: 73f9 86bd d64c 5c3d ceb5 6cbd b631 353d
00000300: 83be 053c ae2d 483d d661 b8bc 1d93 9abc
00000310: 9855 c83b da77 67bd 1066 86bd 54a3 1d3c
00000320: 3acd 04bd feb6 58bd b7d8 4cbc d82f a1bb
00000330: d08d 313c f97a 70bd a607 35bd a642 0bbd
00000340: 0374 d7bc 3e71 7bbd 9c93 2b3d 4f22 88bc
00000350: 0f44 d2bb 7323 dd3c e5ee f0bc 2e64 70bd
00000360: 211b 303d 1b6d b63c 0bf0 d63c 36af 233c
00000370: 4b3a 4bbd 3c7e 99bc c3e6 55bd 904a 71bd
00000380: b95a 293d 3877 663c 1acb dc3c 9e79 9ebc
00000390: 1f22 533d 46ef 563d 9666 34bd 0530 d8bc
000003a0: 8bb3 b03c 1e75 8cbc 0480 5b3d 992e 1c3d
000003b0: 5acc 0bbd dafe f7bc e2ae 793d 06df 03bd
000003c0: 9c28 083d 337f 51bd b05f 2d3d 2c02 6fbd
000003d0: 9ecc b9bc 608d ad3c a20c d63c b017 60bd
000003e0: 2c6f 853c 3987 57bd 62c0 46bd 7060 563d
000003f0: 393f 9e3a 3839 c93c 54c1 36bd 003e 9cbc
-0.028688319 0.023960344 0.017856797 0.034312323 0.023352247 0.01934631 -0.03816692 0.049362086
-0.014131462 0.016207831 -0.026017576 0.034527637 0.008839147 0.040680263 -0.048288163 0.058978826
0.046602294 0.02031295 -0.062424023 -0.06453912 -0.029407766 0.0026305947 -0.06113573 0.040742647
0.026389388 0.037784435 -0.06578014 -0.031364687 -0.03508984 -0.060696505 -0.007517668 -0.0103009
-0.026578875 0.031372026 -0.05360561 0.057386875 0.010988749 -0.051795423 -0.06224356 0.03431475
-0.029087804 0.041910574 0.01880231 -0.06218971 0.047544714 -0.04707073 0.029542983 0.043023497
-0.037022363 0.0033048305 -0.043930613 -0.036758557 -0.067274764 -0.06085594 -0.051603872 0.027687386
-0.061042916 -0.009355509 0.046846997 -0.04378023 -0.018593471 -0.020929864 -0.03560248 -0.04485073
-0.019219466 0.008804873 0.0061115706 -0.041903734 0.017198322 -0.03203904 -0.043329917 -0.041558012
-0.05507528 0.008211161 -0.015819512 -0.00032638758 0.04354271 0.025792036 -0.027105646 -0.01546145
0.0028214464 -0.046304647 0.010306551 -0.034236312 0.055007055 -0.0251887 0.016455024 0.02513916
-0.05210044 -0.07630084 -0.039070703 -0.032401048 0.033900306 0.016118625 -0.03185372 -0.07258106
-0.054508276 -0.012259817 -0.025095414 -0.009674303 -0.0062196804 0.02314578 -0.048383594 -0.019826684
0.0048658177 -0.063612096 -0.03496781 -0.0152357 -0.054006543 0.042448744 0.0015784657 -0.051347256
-0.056905992 -0.035336293 -0.056673937 0.034120273 -0.010557485 -0.011035088 -0.023009786 -0.04728728
0.04561074 -0.033026338 -0.066166505 -0.010853335 0.042907305 0.013640247 0.015998423 0.01792254
0.025419528 0.010982477 -0.0030881679 -0.0506704 -0.0047199284 0.0017845103 -0.02680152 -0.057904627
0.018611195 0.015334797 -0.03714098 -0.019955888 -0.05235869 0.016398132 0.05860143 0.029479653
0.030511921 -0.02262155 0.04686895 0.037571177 -0.057480242 -0.0016601238 0.045580424 0.027172878
-0.060522564 -0.060629234 -0.0030636224 0.014370516 -0.039338406 0.021203602 -0.013004159 -0.070008956
0.035976514 0.015670238 -0.05280053 -0.0009062836 0.023377687 -0.06438886 0.023723133 -0.043988854
0.027404675 0.024995927 0.040364403 -0.01693843 0.0494445 0.019089945 -0.06930298 -0.0030540042
0.022818306 -0.031015094 -0.0016913512 -0.06214216 -0.016483875 0.015385555 0.015585648 0.037336975
-0.026798753 -0.0048912987 -0.0126462355 -0.03867221 -0.065905474 0.053784214 -0.05779057 0.04423686
0.008163097 0.04887169 -0.02250759 -0.018868977 0.006113719 -0.056510784 -0.065624356 0.00962146
-0.03242228 -0.05290889 -0.012502841 -0.0049190335 0.010837033 -0.058711026 -0.044196747 -0.033999108
-0.026300436 -0.061387293 0.04188882 -0.016617922 -0.0064168046 0.026994443 -0.029410789 -0.05868929
0.042994622 0.022268822 0.026237508 0.009990504 -0.04961614 -0.018736951 -0.052222025 -0.058909
0.041346285 0.01406651 0.026952315 -0.019345101 0.051546212 0.052474283 -0.044043146 -0.026390085
0.021569988 -0.01714569 0.053588882 0.038130376 -0.03413043 -0.03027289 0.060957797 -0.032195114
0.033241853 -0.051146697 0.042327583 -0.05835168 -0.022680577 0.021185577 0.02612907 -0.05471009
0.016288362 -0.052619193 -0.048523314 0.052338064 0.0012073285 0.024563417 -0.044617966 -0.019072533

fc2.bias f4 [256]
00000000: dc9c 4c3d ffc8 9fbc 6487 553e 64c5 103d
00000010: cc94 003d 176c 373e a821 d43c 73e6 d03c
00000020: fa10 24be 94b4 39bd e86e 1c3e f348 253d
00000030: 599f da3c 93cb 633d 8c0a 463e 4e0e f4bc
00000040: 4f6d cebd 0806 883d 724b 6f3c adfa 17bd
00000050: 093a a43d 48ff 47bd 5baa cf3d 3b43 f03d
00000060: 70b4 e9bb e852 5bbc 7fe0 7b3c 1ee1 24bd
00000070: 971c bcbc 1e32 173d f6d5 81bd f058 143d
00000080: 6026 4b3e 754f 5d3c 48c2 dfba 168b 54bd
00000090: 6550 83bd 6e45 9a3d e50a c53c fabf 293e
000000a0: c067 ce3d 728c af3b d0ce afbd 026b d73d
000000b0: 6264 d23d 6eb7 343b 9ccd e33d d62d 893d
000000c0: 4e32 da3d 0ceb f1bc a8b6 b53d d9dc 99bd
000000d0: 3082 93bd fe17 023c 4908 31bd 1de6 b93d
000000e0: b4f3 85bc f5ce c8ba 2512 f23d 3767 963d
000000f0: 92a2 cf3b 8fc4 033f bf08 a1bd fc10 fd3d
00000100: 9ffa adbd f733 e43d 26d4 c73d bc48 933d
00000110: 4625 54bd 5b56 5abe 8ad5 15bd fa6d f1bb
00000120: 350e 603d 0eff 433d 6f1e 533d 0451 83bd
00000130: 779c 283e fac1 603d 4f26 67bd bc6d 283d
00000140: 55f7 8dbd f498 b53d 085d 2cbb 5ee3 0f3d
00000150: 00b8 e83c 4755 eb3c 39ff 983d 3647 7c3d
00000160: d659 26bd ebbb 2a3d 11e4 aabd 66d0 6b3d
00000170: 57f5 ff3c 9c97 7f3c 1989 513e 8e06 b8bd
00000180: d7be b43e 4f61 a43d f0e1 0d3b adf6 c73b
00000190: 7682 9d3d d17f 713e aea2 c5bd e9f3 933d
000001a0: a22a 99bd 2e66 b33c f0cc afbb a7e3 5a3e
000001b0: cfc3 463e 5c49 80bd 3001 973d d3bc 8b3d
000001c0: 99c0 7bbc 9927 ec3b 40c3 21bc 21fc 333d
000001d0: 60fb 56bd 2aac ab3d 867a a03d 15af 87bc
000001e0: d732 79bd 22fb 383e 52b8 203d 64e8 12bd
000001f0: 03a7 20bb 9b60 aebc b45e c33d f2ea a23d
00000200: 8196 563d 3672 d6bd 3113 bbbd 23c5 55bc
00000210: cb14 cb3d fcf5 8b3e efd3 483d bd4b 663d
00000220: 0a0b 6cbc b2c4 1bbd 91a6 b83d 6479 c53d
00000230: c11b 9dbc c291 f43d 820f 9cbd 466e 0d3d
00000240: a412 ec3d c717 1ebd 01d1 343e cd7c 953d
00000250: 3e34 a4bd db0e c73d bea6 673d 5f4c 603d
00000260: aa08 323c 81dd 2cbc 0a6f c3ba 80e0 ea3b
00000270: 7bde 323d ff6c 43bd 2bb1 5dbd b95f 3e3d
00000280: b19f 8a3a 53a4 533d 7f49 cf3d 8d99 1d3c
00000290: daff 413b ab5d eb3d c434 df3d f034 253b
000002a0: 0230 34bd 4d38 8abd 46d2 a83d dfc9 e2bb
000002b0: 315e b33c 9de6 5d3d 8c31 b6bc 61b7 e4bb
000002c0: f1c0 7bbd 803b 123c 22f9 b5bc baa3 873c
000002d0: 2773 e63d a607 8dbc 2213 843c fca3 4a3e
000002e0: 2caa 26bd 57ac b43d 6dd2 9ebd 8bcd 08bd
000002f0: cd43 bf3d d252 c7bd 7485 d93d 2d7c 9fbc
00000300: 0002 963c 55d2 9b3c a104 c3bc 1c40 843d
00000310: d4e4 d63d 8051 273d a154 88ba 98c4 8abd
00000320: 85f4 33bd e295 fc3c 83d7 203d a926 c73d
00000330: d7f3 1d3e 417e 283c 5ba8 9d3d edac 063d
00000340: b9c8 21bd 79e1 8a3d 90fb 443c 5013 e5bc
00000350: 31ea 43bd e6ad 8c3c 1bfe 43be 07ba 7fbc
00000360: e1ca 98bd 890a 90bd bbbb d73d c79b 6e3d
00000370: e0c2 a73d 469d 12bd 2ac2 65bd 0a9a 133d
00000380: 8506 2f3d 9869 e83d ab5b 08bd 2428 433e
00000390: 6aba 6bbd 696c 213e d665 553c fe44 7dbd
000003a0: 003e 7e3d c3a7 3cbd 9cf6 623b 09d0 7a3d
000003b0: bf08 2c3d 6f7a ec3d 4245 ee3c be41 8dbc
000003c0: 590f f13d d425 51bd f0ea 823d 8c8e d2bc
000003d0: 3d28 2a3d fc21 49bd 0b66 623c 610a 2a3e
000003e0: ee80 be3d 5561 003e 69b9 9a3d af8f 94bb
000003f0: 77e6 993d daf7 20bd dd36 263e 3b11 153e
0.04995428 -0.019505022 0.20852429 0.035344496 0.031391904 0.17912327 0.025894955 0.025500512
-0.16022101 -0.04533823 0.15276682 0.040352773 0.026687311 0.055614065 0.19339961 -0.029791977
-0.10079443 0.06641775 0.01460539 -0.037104297 0.08018882 -0.04882744 0.101399146 0.11731573
-0.0071321055 -0.013386466 0.015373348 -0.04025375 -0.022962851 0.03691303 -0.06339638 0.03621763
0.19838858 0.013507714 -0.001707145 -0.051890455 -0.064118184 0.07532774 0.024053046 0.1657714
0.100783825 0.0053573186 -0.08584368 0.10518457 0.10273053 0.0027575153 0.11123201 0.06698196
0.10654126 -0.029531024 0.088727295 -0.075128265 -0.07202566 0.0079402905 -0.043220792 0.09077094
-0.016351558 -0.0015320467 0.11819867 0.073439054 0.0063365186 0.514718 -0.07862996 0.12356755
-0.08495068 0.11142724 0.09757261 0.07191607 -0.05179336 -0.21322004 -0.0365806 -0.0073678466
0.05470105 0.04785066 0.051542696 -0.06411937 0.16465937 0.05487249 -0.05643302 0.041120276
-0.069319405 0.08867064 -0.0026300568 0.035128944 0.02840805 0.028727187 0.07470555 0.06159135
-0.040613018 0.04168312 -0.083442815 0.05757179 0.031244917 0.015600111 0.20462455 -0.08985625
0.3530185 0.08026373 0.0021649562 0.006102404 0.07690899 0.23583914 -0.09650169 0.072242565
-0.07478835 0.021899309 -0.0053650066 0.21375905 0.19410633 -0.06263992 0.073732734 0.06823125
-0.015365743 0.007206869 -0.009873211 0.04394162 -0.052485824 0.08382447 0.078358695 -0.016562978
-0.0608395 0.1806455 0.03923828 -0.035866156 -0.002451361 -0.0212863 0.095395476 0.079549685
0.052389625 -0.10471003 -0.0913452 -0.013047489 0.09916075 0.2733611 0.04903024 0.056224573
-0.014406929 -0.03802938 0.09016145 0.09642294 -0.019178273 0.119418636 -0.076201454 0.034528993
0.11526993 -0.038596895 0.17657854 0.072991945 -0.08017777 0.0971963 0.056555502 0.054760333
0.0108663235 -0.0105508575 -0.0014910412 0.0071678758 0.043669205 -0.04771137 -0.05412404 0.046478007
0.0010576156 0.051670384 0.1012144 0.009619129 0.0029601962 0.11492475 0.10898736 0.0025208555
-0.043991096 -0.0674902 0.082432315 -0.0069210376 0.0218955 0.054175008 -0.022240423 -0.0069798683
-0.0614633 0.008925319 -0.022213522 0.016557563 0.11252432 -0.017215561 0.016122404 0.19789118
-0.040689632 0.08821934 -0.07754979 -0.033399146 0.09339104 -0.097325936 0.10621157 -0.019468391
0.0183115 0.019021193 -0.023805918 0.064575404 0.10492864 0.04084921 -0.0010401198 -0.067757785
-0.043934364 0.030833188 0.039268028 0.09724171 0.15425049 0.0102840075 0.07698127 0.03287976
-0.039498065 0.06781287 0.012022868 -0.02796331 -0.047830764 0.017172765 -0.19139902 -0.015608317
-0.07460571 -0.070332594 0.105338536 0.05825403 0.08191466 -0.03579452 -0.056093372 0.036035575
0.042730827 0.113482654 -0.033290546 0.19058281 -0.057550825 0.15764011 0.013024768 -0.061833374
0.062070847 -0.046058428 0.0034631854 0.061233554 0.04200053 0.1154679 0.02908576 -0.017243262
0.117705055 -0.051061466 0.06392467 -0.025702737 0.04154228 -0.049104676 0.013818274 0.16605522
0.09301935 0.12537129 0.075548954 -0.00453373 0.07514661 -0.03929887 0.16231866 0.14557354

fc3.weight f4 [128, 256]
00000000: 818f d93c 5e62 673d dce2 8a3e 7566 edbc
00000010: 8c97 a7be b732 0abf b840 2d3c dbf3 15bf
00000020: 3582 ccbe 701d dcbc 9130 933e f115 5bbf
00000030: 16e7 cbbe 6115 0b3f 51d7 7a3e 2757 1abd
00000040: af1a 593f baf5 da3e a656 fcbc 3f7b 8dbc
00000050: 6a35 40bf 7f3e 4f3d f142 9abd 1fed 4ebf
00000060: f736 7c3d c581 e33e d6dc 1d3d ccd8 073d
00000070: a325 163d 5f95 ba3e 4c48 32bd a2fe e43e
00000080: c9de 863e 74a4 493b 05e9 f2bc 4f95 74bd
00000090: 6918 cc3c c73e bbbd 8f80 8bbe 15cb 8a3e
000000a0: a863 c2bf 1f2e ff3b 2b21 4f3d 9991 07bd
000000b0: be05 89bd eaab 43bf 176f b13c 23c6 2abd
000000c0: dfe5 c9bd d49e 8f3d e0d1 a1bd 3caa c23c
000000d0: dc2e 80bd f265 acbf aedf 05bd 443f cfbe
000000e0: 389a 7dbb dd87 b1ba eb81 ad3e b8ff 97bf
000000f0: af85 173f f915 633e 69a1 21bd 3881 e0bd
00000100: 1e27 2ebe 97f4 ccbd 02eb 7dbf 804b f7bc
00000110: de72 843c 89b0 ba3f 54e9 4f3d 91a7 f3bc
00000120: c92c 013f 5794 b03e 560b b7bd 7635 2c3d
00000130: c2ff 113f 25c2 97bf ac87 e4bc a4bb 88bd
00000140: 7828 183d 00eb 833e efc8 0f3d 4bd6 1a3c
00000150: 48a2 9dbe c0cb aebc deec f6be 9f77 3dbe
00000160: 473d eabc bc9a 333d 8637 9c3f 3df8 e43e
00000170: 7e06 babf 79f7 30bd 0f58 993e d0e4 8b3f
00000180: f5ad 4b3e bbbe 1f3e 8658 d9ba 0167 f33c
00000190: 71ad ecbe 0596 703e b4da 9b3f f7f9 8d3e
000001a0: 9243 ec3b 1eee 2fbc 3108 06bd 2e72 763e
000001b0: 082e 663e 246a b2bc 6da4 1cbf 7a42 8ebe
000001c0: 60b5 8fbd 8fb5 e03c ac26 853d 2c5b ed3e
000001d0: 05b1 703d 796e 22bf fc60 8b3c b391 3c3d
000001e0: 2d8d 27bd df72 0fbf bce9 383c e7b3 9abe
000001f0: 52ea 0abd f8be 01bc 85df ec3d 7bdc f1bd
00000200: 13f3 17bf 81ab ecbf c96c 973d 74c9 08bf
00000210: 7398 77bf 592a 593e 5849 4e3d f31c c83e
00000220: 8575 40bd d410 ebbc a8fc 03c0 f379 1cbf
00000230: 1174 713d c3e8 963e 021a 32bd 9d9c a0bd
00000240: cde4 77bf f863 20bd e5c1 343e b704 bb3c
00000250: 89a6 d3bb f41b 1abe 9a59 bcbe 24f3 0740
00000260: fb62 fa3b 3766 1c3d 78db 6bbf 2eaa 8f3c
00000270: c074 53bf 9ddf 183f 6bbc 1cbd 6bbc a5bc
00000280: 56f6 d1bc 53f0 dbbd d84e 8ebf faa0 f73c
00000290: 2c8c 25be bf34 c03e 08ef 67be 3d53 b2be
000002a0: 1791 30bd 4273 c239 b90a babe 7809 05bd
000002b0: 6c8d 89be 1edc a2bf 4478 f23c 253b 34bf
000002c0: 374b 0b3d f721 cd3c 7d25 413d ef24 7cbd
000002d0: 1008 90bf eb0b ac3c 8874 d4bc 7397 783e
000002e0: 68a5 b7bc 05ea 87be 1920 34bd 3973 7b3d
000002f0: e4d2 0dbf a02f 0cbf 567a 9b3e a71a f23c
00000300: a6ba 3c3b 0e57 2ebd fc93 6bbc 0bea 64be
00000310: 674b 113e 579b 513d 1996 123b 122d 0bbd
00000320: d834 87bb fc6d 8dbc 1245 e8bc 7620 a03d
00000330: 7715 903e 5354 48bd c0e5 9dbe ad72 db3e
00000340: d1a3 2fc0 1477 833e 666f afbe 5cc6 4dbc
00000350: e8b1 293d 11cf 4cbd d71c 933f 734c 243d
00000360: 739f e2bc dc86 533d c3b7 3bbe b142 133e
00000370: 793e 9a3e dc08 033d 2889 62bd ccfc 0e3d
00000380: 12ec 733e 92f0 ff3f dd90 363d eb6e 823e
00000390: 77f7 213c 0e9c 5d3e ef02 ccbd f32c 2cbd
000003a0: 2abd 91bf 9c88 67be 14e3 4f3d 7671 53be
000003b0: ecca 963e 6a44 21be 4eb6 cd3e b884 38bd
000003c0: 7b36 0ebe 14a4 22bd 32eb 1dbe 6b21 4a3c
000003d0: d153 32bd 9849 2b3b 92d2 3d3d f6c7 05bf
000003e0: cf30 18be ed1f 9e3e 1c18 b93e 9bb8 9a3c
000003f0: 0b9e 66bf 5c2f e4bc 097e 943e 3ea7 64bf
0.026557686 0.056490295 0.27126205 -0.02897952 -0.3273281 -0.53983635 0.010574512 -0.5857522
-0.3994309 -0.026869506 0.2874799 -0.85580355 -0.39824742 0.54329497 0.24496199 -0.03768077
0.8480634 0.427656 -0.030803036 -0.017270682 -0.75081503 0.05059671 -0.07532299 -0.8083057
0.061575856 0.44434944 0.038540684 0.033165738 0.036656987 0.36442086 -0.04352598 0.4472552
0.26341847 0.0030768188 -0.029652128 -0.059712704 0.024913983 -0.09142833 -0.2724652 0.27108064
-1.5186663 0.0077874805 0.05056874 -0.033097837 -0.06690548 -0.76434195 0.021659417 -0.041692864
-0.098582976 0.07012716 -0.079013586 0.023762815 -0.06258938 -1.3468611 -0.03268402 -0.40477955
-0.0038696658 -0.0013544519 0.33888182 -1.1874914 0.5918836 0.2217635 -0.039460573 -0.109621465
-0.1700711 -0.10007589 -0.9918672 -0.030187368 0.016168054 1.4585124 0.05075963 -0.029742988
0.5045896 0.34488174 -0.08937709 0.04204317 0.5703088 -1.1856123 -0.027896725 -0.066764146
0.03714797 0.25765228 0.035103735 0.0094505055 -0.30787873 -0.02133739 -0.4822759 -0.18502663
-0.028593672 0.043848738 1.2204444 0.4472064 -1.4533231 -0.04320476 0.29949996 1.0929203
0.19890578 0.15600102 -0.0016582168 0.029712202 -0.46226075 0.23494728 1.2176118 0.2772977
0.0072102034 -0.010737924 -0.032722656 0.24066994 0.22478497 -0.021779127 -0.61188394 -0.27785093
-0.070170164 0.027430324 0.06501517 0.4635862 0.05876257 -0.6344982 0.01701402 0.046037387
-0.04090612 -0.56034654 0.011286195 -0.3021538 -0.03391487 -0.007919066 0.115660705 -0.118096314
-0.59355277 -1.8489839 0.07393796 -0.53432393 -0.96716994 0.2120756 0.050362915 0.39084587
-0.046987075 -0.028694548 -2.062296 -0.6112358 0.05894858 0.29474458 -0.043481834 -0.078423716
-0.968335 -0.039157838 0.1765209 0.022829397 -0.0064590615 -0.15049726 -0.3678711 2.1242151
0.007641194 0.038183417 -0.9213176 0.017537203 -0.8260002 0.59716207 -0.038265627 -0.020231446
-0.025630157 -0.107391976 -1.1117811 0.030228127 -0.16166753 0.37540242 -0.22649777 -0.3482913
-0.04310712 0.00037088437 -0.36336306 -0.032479733 -0.2686571 -1.2723424 0.029598363 -0.7040275
0.034007277 0.02504061 0.047154892 -0.06155866 -1.125246 0.021001777 -0.025934473 0.24276523
-0.022417739 -0.2654573 -0.043975923 0.06138918 -0.5539992 -0.5476017 0.30366772 0.029553724
0.0028797775 -0.04256349 -0.014378544 -0.22354905 0.1418892 0.051173534 0.0022367297 -0.03397853
-0.0041261725 -0.017264359 -0.028353248 0.078186914 0.28141376 -0.048908543 -0.30839348 0.42860928
-2.7443736 0.25676787 -0.34264678 -0.0125595 0.04142943 -0.05000216 1.1493176 0.04011197
-0.027663922 0.051642284 -0.18331818 0.1438091 0.30125788 0.03199087 -0.055306584 0.034909055
0.23820522 1.9995291 0.044571746 0.2547525 0.00988566 0.21641561 -0.09961497 -0.042035054
-1.1385853 -0.22610706 0.050753668 -0.2064875 0.29451692 -0.15748754 0.4017815 -0.045048445
-0.1388797 -0.03970726 -0.15421751 0.012337069 -0.043536965 0.0026136395 0.046343394 -0.5225824
-0.14862369 0.30883732 0.36151206 0.018886855 -0.90084904 -0.027854614 0.29002407 -0.8931769

fc3.bias f4 [128]
00000000: 4f14 133e 7e64 a63c 2ea8 0b3d dc08 c63c
00000010: a5e0 d53d 7d35 fc3d 38dc 3b3d 567b e33d
00000020: a8a0 5abd 7179 893d 863f 623d df1b 263e
00000030: ec44 a0bb 7bd9 ba3d b620 90bd df11 aa3d
00000040: 5e56 6fbd ac65 4c3c f2df 573d 8e13 7fbd
00000050: 3d66 e13d 2f72 6f38 09d8 02bd 9794 6e3d
00000060: c959 29bd 5c73 ae3d 03e0 783d 749f 983d
00000070: 61c9 fb3c f9a4 dc3d 02a1 c73c 4d6c 5bbd
00000080: 120c 173e 2920 39bd 20fb f83d bfe2 8e3d
00000090: a5db 653d c94a 2c3e f73e b33d 59ea 113e
000000a0: 62c0 b1bc 8bff 383e 1a52 1f3d 5fd1 f93d
000000b0: 6923 f73d b513 d53c 092d f3bc 7ea3 e03d
000000c0: 3659 febc dae7 aabc 59c2 4cbd 4456 043e
000000d0: 4762 da3d 64b0 043e feac 313d b7b1 8a3d
000000e0: 3193 3cbd 10d6 923d aad4 8e3d 94e6 153d
000000f0: 88c7 98bc dc8e 92bc fa5d 9d3d d00f 8a3d
00000100: 6016 583c e096 773d d998 563c abaf b63c
00000110: 40d7 b63d 90f5 b63d 3830 173c cf69 c13b
00000120: 7fc8 403d 8a1a c13d 1b99 793d f794 e23d
00000130: 7ec0 fe3b 77b0 583d d04a e83d 0e4e 2f3e
00000140: 8c25 3d3d 7d82 f03d 90cb b53c 74cc 953d
00000150: b817 6b3d 268a 173c 66c4 ad3d 9db1 643a
00000160: b470 bd3d a21b 0e3e 280a 8e3d 8df4 463d
00000170: 4fbb 333d 0327 8d3d 5f96 203e 0f4d 643c
00000180: c7e4 123e 3122 3d3e abf9 563d 8cda 09bc
00000190: 619f 8ebd 232a d03d 6d5a 82bd 9abf 053e
000001a0: 3c7e 8cbc 2d15 b73d 9bf2 ad3d 88c7 6bbc
000001b0: 0699 863d afff ce3d 0e74 aa3d 84e7 d43b
000001c0: 974e 70bd 746f c73b da7b 5abd c30b a83d
000001d0: 4ec2 c63d bfd5 173e 4c73 293e 4058 b9bb
000001e0: a134 393d 202c c13d 6e1e 8bbb 3b09 e63d
000001f0: c027 b63d 58de 173e 8b0d 37bd a498 ff3d
0.14363216 0.02031159 0.034095936 0.024174146 0.10443238 0.123148896 0.045864314 0.11107509
-0.05337587 0.06712616 0.055236362 0.1622157 -0.0048910286 0.09123512 -0.07037489 0.0830419
-0.058431976 0.012475412 0.052703805 -0.06227451 0.110058285 5.7088382e-05 -0.03194431 0.058247175
-0.04134539 0.08518097 0.06076051 0.07452288 0.030735673 0.107736535 0.024368767 -0.05357008
0.14750698 -0.045196686 0.12157273 0.06976842 0.056117672 0.16825403 0.08752244 0.14249553
-0.02169818 0.18066232 0.038896658 0.121981375 0.12067301 0.026010374 -0.02968456 0.10968684
-0.031048398 -0.020862509 -0.049990032 0.12923533 0.10663276 0.12957913 0.04337787 0.06772178
-0.04603881 0.071697354 0.06974156 0.03659685 -0.018649831 -0.017890386 0.0768394 0.06741297
0.013188928 0.06044662 0.013097965 0.022300562 0.089277744 0.08933556 0.009227805 0.005902506
0.047066208 0.0942889 0.06093703 0.11063569 0.0077744117 0.052902665 0.11342394 0.17119619
0.046178386 0.11743639 0.022191793 0.07314387 0.057395667 0.009249246 0.08484726 0.0008723976
0.09250012 0.13877729 0.06935531 0.048573066 0.043879803 0.068922065 0.15682362 0.013934388
0.14345084 0.18470074 0.052484196 -0.008413922 -0.06963993 0.10164287 -0.063649036 0.13061371
-0.017150037 0.08939586 0.08493539 -0.014390834 0.06572156 0.101073615 0.08322917 0.0064973254
-0.0586687 0.0060862843 -0.05334077 0.08205368 0.097050294 0.14827631 0.16547889 -0.005656272
0.045216206 0.09432244 -0.004245571 0.11232229 0.088943005 0.14830911 -0.04469065 0.12480286

fc4.weight f4 [7, 128]
00000000: f44f 2ebf 3175 b03c d71a 41bd 3932 26bd
00000010: 9466 e03e b554 bf3e 7800 ab3e 13cd d53e
00000020: 518a 823d 982b efbe 8a75 913c c743 1abf
00000030: 5526 c13e b5b4 d73e 7428 7ebd 647f a63e
00000040: 0af4 05bd 9ee8 ef3e b203 85bc 187e 07bc
00000050: dbaa ac3e 78f2 503c 65f9 07bd fd09 d53e
00000060: 82ef 4bbc 39c0 17bf 0412 a63e 4465 1c3f
00000070: 2588 11bf f4f3 d43e 0b06 85bc c3d9 8a3d
00000080: f66f 20bf 42f1 243e dfff c93e 5e37 18bf
00000090: 926d b03e f080 25bf 55bd f33e 672d 1abf
000000a0: f44c 68bd 3c52 15bf 70d7 583b 4ea6 23bf
000000b0: 8ef0 e33e e5f1 9fbf 3f02 093d 27f2 dc3e
000000c0: 742a 77bd 1d71 72bc 8ad1 34bc 2e97 0b3f
000000d0: fee8 30bf 3ab5 1fbf 062d 10bf a80a a83e
000000e0: 5485 803d fcc4 29bf 3dd7 27bf a8f1 b03e
000000f0: 1006 14bd 24f2 563d 355b b73e 8f79 0b3f
00000100: 0445 af3e 3075 ca3e b3f3 a33d 5c44 343d
00000110: a308 30bf e828 1bbf 506e 3238 7927 c9bb
00000120: 5ab6 e13e 9d6d ec3e f8e6 fdbe b73e 15bf
00000130: 3884 f03e 0e1f d83e 20f4 c23e 58e6 28bf
00000140: de11 d73e 5c4b 1f3f 2f97 8b3d 3757 a33e
00000150: 4067 a2bd 2183 58bb 32a1 d23e 616b 88bc
00000160: 7e3f f63e 8c88 153f 7b01 4e3e 2c0e 88bd
00000170: 4aad 9cbd ef66 c03e 0e3a 29bf 3a0d e13e
00000180: e713 21bf c9bc 30bf f820 303f cd1e 6f3c
00000190: aada c83d 1443 c43e 238a 87bd 5259 0ebf
000001a0: 0dcf ac3d 3bfc 02bf 82a8 0ebf 12da 7ebd
000001b0: 8481 7e3e e5bd 06bf be91 dc3e 728e 5e3d
000001c0: 2862 01bd 476d ddbc 56be 6c3d 6dfa b23e
000001d0: f1ef 9d3e 892b 28bf 137b 2abf e854 883d
000001e0: 3e03 44bd acac cd3e 157f 803d 0168 dd3e
000001f0: 9900 053f 914c c93e 34b8 973d 2a04 a1bf
00000200: 5c03 25bf 8c7a 6cbd 9ce9 3abc c58e bbbc
00000210: 9efc f73e 0857 b13e 1e0d d63e bf70 9e3e
00000220: 0e81 75bd e962 0cbf 6b30 0ebd 8e00 2cbf
00000230: a994 f43e 8930 c03e d9ca a5bd 3d36 df3e
00000240: 37bf 96bd 2d8f e13e ee25 e6bc a360 38bd
00000250: 579a bf3e 83e0 c8bc bdfb 683d 1eb9 c53e
00000260: e449 51bd 2c8b 2abf f08f ea3e 1092 2e3f
00000270: 98fe 18bf ee8b e13e e0fb a93d e538 6c3d
00000280: 73fe 25bf a5dd fc3c 1620 a33e d09c 2bbf
00000290: 9051 c63e e4bb 38bf f9ec 0b3f 31e0 30bf
000002a0: 3e99 3a3c f2ec 05bf 0daa 1d3d c02c 09bf
000002b0: 77d6 9f3e 85cb bdbf e1ea 92bd 9d68 9f3e
000002c0: 898c 2bbd 1f23 51bd d573 7b3d b1de 333f
000002d0: 898c 32bf 305d 01bf 9362 94be d5c6 e63e
000002e0: 600d 59bd 8459 10bf a7e4 30bf 4be6 b43e
000002f0: 64b2 84bd 2b04 6cbd e3d4 c73e a698 2a3f
00000300: 9ee7 b23e d9fc cc3e 7412 423d e6f5 d13d
00000310: 4351 25bf 74c7 29bf 583e 12bb 2f47 09bc
00000320: 1ddf 983e e2c5 ef3e f06c 23bf feed 26bf
00000330: b4ce 7b3e 0716 cb3e a553 9a3e 021e 12bf
00000340: c0f9 c53e edfe 0b3f 74b1 c2bc d7e0 9e3e
00000350: 0c39 63bc 0da7 91bd b199 da3e a051 9cbd
00000360: f550 033f 36c9 093f b847 243e 9f6c 39bd
00000370: 53e9 78bd 7b47 7e3e 8d13 14bf 918c ed3e
00000380: c918 1ebf 5a97 17bf ee54 4c3f 7f8a 033d
00000390: c271 94bc 814e 1c3f c605 bc3c 2f06 27bf
000003a0: c015 5ebd a7c8 0cbf e845 1cbf 8e4a 593d
000003b0: 3a75 863e bb4e 09bf cc25 aa3e a892 6ebd
000003c0: 11cf f2bc 9262 7e3d e077 ba3c 80f6 de3e
000003d0: d229 013e 3d9c 13bf 591e 23bf 1961 5c3d
000003e0: b6cb b73c 4045 8f3e 4af8 16bd 9ec8 023f
000003f0: e877 083f 6825 9a3e 3083 6f3d 1f70 86bf
-0.6809075 0.021540256 -0.047144737 -0.04057524 0.4382826 0.37369314 0.33398795 0.41758022
0.06374038 -0.46712947 0.017756242 -0.6025967 0.37724558 0.42130056 -0.062050298 0.32519066
-0.032703437 0.4685716 -0.016237114 -0.008269809 0.33724102 0.012753122 -0.033196826 0.41609183
-0.01244724 -0.59277683 0.3243562 0.6109202 -0.56848365 0.4159237 -0.016238233 0.06779816
-0.6267084 0.16107658 0.39453027 -0.59459484 0.34458596 -0.6464987 0.47605386 -0.6022553
-0.056714013 -0.58328605 0.0033087395 -0.63925636 0.44519466 -1.2495695 0.033449408 0.43153498
-0.06034322 -0.014797476 -0.011036286 0.54527557 -0.6910552 -0.62385905 -0.563187 0.3282063
0.0627543 -0.663162 -0.655628 0.3455937 -0.036138594 0.052477017 0.35811773 0.5448236
0.34232342 0.39542532 0.08005466 0.044010505 -0.6876318 -0.60609293 4.2541244e-05 -0.0061387387
0.44084436 0.46177378 -0.49590278 -0.5829882 0.46975875 0.42211193 0.38076878 -0.65976477
0.4200582 0.62224364 0.06815945 0.31902477 -0.079298496 -0.0033037143 0.41138607 -0.016652765
0.48095316 0.5841148 0.20117752 -0.06643328 -0.0765024 0.37578532 -0.6610421 0.43955404
-0.62920994 -0.69038063 0.68800306 0.014594746 0.09807332 0.38332427 -0.06618144 -0.5560504
0.08437929 -0.51166123 -0.5572587 -0.062219687 0.24854094 -0.52633506 0.43079942 0.054335065
-0.03158775 -0.027029647 0.057798706 0.34956685 0.30847123 -0.6569143 -0.66594046 0.066568196
-0.047854654 0.401708 0.06274239 0.4324341 0.51954037 0.39316228 0.07408181 -1.2579396
-0.6445825 -0.057734057 -0.011408236 -0.022895226 0.4843492 0.34636712 0.41806883 0.30945393
-0.05993753 -0.54838425 -0.034714144 -0.67188346 0.4776967 0.3753703 -0.08095331 0.43596068
-0.0736069 0.44054547 -0.028094258 -0.045014035 0.3742244 -0.024521118 0.0568807 0.38617796
-0.05109586 -0.6661861 0.4581294 0.68191624 -0.5976348 0.4405207 0.082999945 0.057671446
-0.64841384 0.030867407 0.31860417 -0.6703615 0.38734102 -0.721617 0.54658467 -0.6909209
0.011389075 -0.52314675 0.03849225 -0.5358391 0.3121831 -1.4827734 -0.07173706 0.311345
-0.04188207 -0.051058885 0.061389763 0.70261675 -0.6974569 -0.5053282 -0.28981456 0.45073572
-0.05299127 -0.5638659 -0.69098896 0.3533195 -0.06479338 -0.057621162 0.39029607 0.66639173
0.34942335 0.40036657 0.04738088 0.102519795 -0.6457712 -0.66319966 -0.0022314992 -0.008378788
0.29857722 0.4683066 -0.638381 -0.652069 0.2459057 0.39665243 0.3014194 -0.5707704
0.38667107 0.5468586 -0.023766257 0.31030914 -0.0138685815 -0.071119405 0.42695382 -0.07632756
0.51295406 0.5382265 0.16042984 -0.045269605 -0.06076939 0.24831955 -0.5784233 0.46396306
-0.6175657 -0.5921532 0.7981709 0.032114502 -0.01812065 0.6105729 0.022951972 -0.6524381
-0.05421996 -0.5499367 -0.6104417 0.053049617 0.26261312 -0.5363576 0.33231962 -0.05824533
-0.029639753 0.062105723 0.022762239 0.4354744 0.1261361 -0.57660276 -0.6371818 0.053803537
0.022436004 0.2798252 -0.03685788 0.5108737 0.5330796 0.30106664 0.05847472 -1.0502967

fc4.bias f4 [7]
00000000: 35ba 56bd 5d49 393b 60c6 4dbc 5f10 b03d
00000010: 8970 0e3e cc62 643e 65c5 20be
-0.052423675 0.0028272488 -0.012559503 0.085968725 0.13910116 0.22303313 -0.157003
