models/lateral_stage2_seed3333_final.pth (torch, 412481 bytes, 8 tensors)

fc1.weight f4 [256, 9]
000000 44 f8 e1 bf de 29 21 be 61 82 94 3f ce 25 b0 3e
       -1.765389 -0.15738627 1.1602288 0.34403843
000010 b7 ab 11 3e e7 a9 55 3e 41 ea 9b 3e 20 91 7a 3d
       0.1422566 0.20865594 0.3045216 0.06117356
000020 57 e8 17 3e 35 b1 26 c0 b1 23 a8 3b 25 5f 0a bf
       0.14834724 -2.6045659 0.005131208 -0.5405143
000030 8a 8c 20 3e 11 15 8b bc 18 e1 2d be 22 00 67 3e
       0.15678611 -0.016977819 -0.16980398 0.22558644
000040 60 96 f0 bd 77 4b 81 3e 83 b8 27 c0 d7 81 66 bf
       -0.11747432 0.25252888 -2.6206367 -0.9004187
000050 ab af ae 3c 22 cc 8b be 31 a6 90 be 9c 2d 7a 3e
       0.021324 -0.27304178 -0.28251794 0.24431461
000060 18 67 77 be fc e4 92 be 51 7f 03 3d a8 8b 63 40
       -0.24160421 -0.28690326 0.03210384 3.555399
000070 5b 94 cc be e7 3d cb 3e 65 d9 d4 be 6b 51 7f be
       -0.39956936 0.39695665 -0.4157211 -0.24933402
000080 7e 26 ba 3e 48 fd 62 be cc a3 d1 bd bd 3c 09 3e
       0.36357492 -0.22166932 -0.1023632 0.13402076
000090 53 6b 99 c0 b4 27 56 3e e0 27 6f be 69 80 0c bf
       -4.794351 0.20913583 -0.23355055 -0.5488344
0000a0 c1 5f 81 bd 00 d0 98 be 60 38 3b bc ae 42 76 be
       -0.06317092 -0.2984619 -0.011427015 -0.24048874
0000b0 8b 0c a4 3d 14 5f ad 40 72 50 32 be 47 40 e4 be
       0.08010205 5.417856 -0.174135 -0.4458029
0000c0 2c 8a a4 bd 35 6c 15 be c5 7e 51 be ca 60 77 3e
       -0.08034167 -0.14592059 -0.20458515 0.24158016
0000d0 9c f4 99 be 72 c2 a0 3d 54 82 aa c0 fe 6f 4d 3e
       -0.30069435 0.078495875 -5.328409 0.20062253
0000e0 91 39 be 3e 73 fe 47 be f8 3a c7 3d 0c 2e 7d 3d
       0.37153295 -0.19530658 0.09728044 0.06181149
0000f0 92 48 3f 3e 18 c8 3e 3d 5b c6 4c bd 2f a4 85 40
       0.18680027 0.046577543 -0.049993854 4.176292
000100 02 ab 34 bf c7 56 01 3e 7e f7 dc be 24 fc a7 3d
       -0.7057344 0.12630759 -0.43157572 0.08202389
000110 be 44 98 bc 76 58 a4 be 94 45 e0 3d d9 a7 a8 3e
       -0.018587466 -0.3209874 0.10950771 0.32940558
000120 7f 20 af bf 60 01 36 3e f7 2c ef 3d 64 6b d1 be
       -1.3681792 0.17773962 0.11678498 -0.40902245
000130 49 2e e4 be 7f b5 35 bf ec 42 d1 3d 65 a3 85 3e
       -0.44566563 -0.70980066 0.102178425 0.26101223
000140 32 c1 21 be 2b 8a db 3f 87 63 44 be 53 21 c7 3e
       -0.15796354 1.715154 -0.19178592 0.38892612
000150 0a 98 91 bf 4e 73 5f be d6 f0 bd be 50 a6 c8 3c
       -1.1374524 -0.21821329 -0.37097806 0.024493366
000160 6e 98 0c be bf 80 b9 3c ca 76 39 40 1a 22 b3 3c
       -0.13730022 0.022644399 2.8978753 0.021866847
000170 b0 71 35 3d 60 52 9c 3e f6 d7 12 be de c2 8a 3e
       0.044297874 0.30531597 -0.14340195 0.27101797
000180 c7 2e 9f be d8 7b 5b 3d 5c 57 3c bd d1 e3 ab 3f
       -0.31090376 0.053584903 -0.04598175 1.3428899
000190 a9 80 2a 3d b7 94 be 3e 2f bc 73 3d ef ae 1b bf
       0.041626606 0.37222835 0.059505638 -0.608138
0001a0 89 d7 e4 3e 3e 29 13 3e a3 2e 47 be b0 b1 dd bc
       0.4469569 0.14371201 -0.19451384 -0.027062267
0001b0 06 9d b7 bf c2 60 f5 3e d3 63 e9 be bf 31 e2 be
       -1.4344795 0.47925383 -0.45583972 -0.44178578
0001c0 c4 f5 5b be c2 e5 19 bf 18 82 8d be 22 88 78 3e
       -0.21480471 -0.6011621 -0.27638316 0.2427068
0001d0 3e 5a 0c be 7a 7e 9b 40 64 f0 2a 3e d5 20 f6 3d
       -0.137063 4.859189 0.16693264 0.12017981
0001e0 4e 16 35 bf 2e 00 03 3c 7d a5 e1 be 70 d8 5f be
       -0.7073716 0.007995648 -0.4407157 -0.21859908
0001f0 97 39 81 3e 6a 83 13 3e 4c bb 1f c0 a0 63 8d 3d
       0.2523925 0.14405599 -2.4958067 0.069037676
000200 d7 4e 0c 3f b8 77 11 bf f5 8d 04 be ec 9a 02 bf
       0.548078 -0.568233 -0.12944777 -0.5101764
000210 73 35 2f be b3 5a 82 be 85 c2 49 be 49 f2 12 c0
       -0.17110233 -0.25459823 -0.1970311 -2.296038
000220 71 7d f7 3d 1d fb 12 3d 67 aa bd bd 40 36 aa 3c
       0.12084473 0.03588401 -0.09261017 0.020777822
000230 0d c1 3f 3e d2 00 4a 3e 13 6a 3f be 76 ed c4 3c
       0.18725987 0.19726875 -0.18692808 0.024039011
000240 ca ba 3e bf 7b 67 0b bd 7f 4e dc 3e 7e 26 35 be
       -0.7450377 -0.034034234 0.43028638 -0.17690465
000250 8d bf 2c be 6d e2 3c bf 80 52 47 3c fb 9a 42 be
       -0.16869946 -0.73783 0.012165666 -0.19004433
000260 45 51 6d be c4 17 21 c0 40 cd 87 3d 43 ae ba 3e
       -0.23175533 -2.5170755 0.06630945 0.36461076
000270 bb 58 e8 be 48 bd 82 bd bb 58 10 bf f0 e5 f6 bc
       -0.45380196 -0.06383759 -0.5638539 -0.03013894
000280 e4 7c a7 bd fa f0 25 bd 74 96 4a 40 6f d1 31 be
       -0.08178118 -0.040513016 3.165433 -0.17365049
000290 74 a2 ee 3e d6 04 50 be 06 03 5e 3c b9 aa d8 ba
       0.46608317 -0.20314345 0.0135505255 -0.0016530372
0002a0 7c 69 d3 3d a0 d4 bc 3d d5 18 96 3e 1f 55 8a c0
       0.10322854 0.092202425 0.2931582 -4.3228908
0002b0 ac d7 8a be 4d 88 77 bb e1 ea 3d bf a4 c8 cc 3d
       -0.2711767 -0.003777045 -0.7418652 0.09999207
0002c0 f4 f1 a7 be cb fe 15 be 80 42 94 3d 82 76 ed bd
       -0.32801783 -0.14647977 0.07239246 -0.11594869
0002d0 bb 2f 25 3e 91 29 9b be 9c 50 b9 3d 0d 0d 18 3f
       0.16131489 -0.3030515 0.09048578 0.59394914
0002e0 8a ba 5b 3c 3a da 33 3e 92 a2 07 3e 40 18 e7 3d
       0.013411174 0.17563716 0.1324561 0.11283922
0002f0 e8 f5 a4 3e 66 68 7b 40 69 58 5a 3e 72 65 d3 3d
       0.32218862 3.928247 0.21322788 0.103220835
000300 38 63 c3 3d 75 1d ad bc 02 a7 97 3e 41 cb 98 3e
       0.09540409 -0.02113221 0.29619604 0.2984257
000310 80 72 00 be 3e 6f fa bd 80 15 ca bf 23 d4 87 3e
       -0.12543678 -0.12228249 -1.5787811 0.26529035
000320 9b 23 65 bd 63 ad 3a be 24 f4 23 3f 4f 9a a5 bd
       -0.05594216 -0.18230204 0.64044404 -0.08086073
000330 f0 7e 7b be 70 ec 0b 3e 1b f6 c9 be 0b b9 6f 40
       -0.24560142 0.13664412 -0.39445576 3.7456691
000340 a1 be f5 be 6a f1 c8 3e 92 04 e7 be 75 12 b3 3c
       -0.47997 0.39246684 -0.45120674 0.021859387
000350 23 34 08 3f 96 c5 00 be 18 0d 5e bd ce eb 08 3e
       0.53204554 -0.12575373 -0.054211706 0.13371202
000360 7d 28 23 40 8b 76 7d 3e 4c 57 0c 3e 80 d9 d2 3b
       2.5493462 0.24752252 0.13705176 0.0064346194
000370 d3 6b fd be 6d 6b c1 3e 60 2b 99 be 68 2d 2e 3d
       -0.49496326 0.37777272 -0.29915905 0.04252377
000380 15 8e 9f 3e 90 19 42 40 2d 1e 07 bf 61 cb 63 3b
       0.31163087 3.0328102 -0.5278042 0.0034758674
000390 45 f3 4e 3f 1c 97 9b be 6c 80 4e 3e 90 98 0f 3e
       0.8083995 -0.30388725 0.20166177 0.14023042
0003a0 fe 7e 2a be bf 85 08 3e 4c 68 23 c0 aa a3 5e 3e
       -0.16650006 0.1333227 -2.5532408 0.2174212
0003b0 a1 b7 a9 3e 97 2a 53 3f 47 28 33 3c e0 eb 20 3e
       0.3314791 0.8248686 0.010934896 0.15714979
0003c0 28 d9 52 3d 94 82 86 be 29 aa a7 3e 9e c9 c4 bf
       0.051476628 -0.26271498 0.3274701 -1.5374029
0003d0 ee 61 98 be 74 36 f2 be 0b 6c 90 3e 2f 97 9f 3e
       -0.29762214 -0.4730717 0.2820743 0.3117003
0003e0 af 1a a0 bf 0a 20 41 3e e7 af 80 be 4c 13 7e be
       -1.2508143 0.18859878 -0.25134203 -0.24812049
0003f0 0b 18 69 40 b1 13 19 3e 4a f1 3a 3f a4 a6 dd bd
       3.6420925 0.14948918 0.7302443 -0.108228

fc1.bias f4 [256]
000000 f4 89 b3 3e 14 8d 31 be 11 f5 d2 3e f0 3c a3 3e
       0.35066187 -0.17338973 0.41202596 0.3188243
000010 a8 bb ba 3b 46 42 8a bd 2c 9e 84 be ae 53 8f 3e
       0.00569864 -0.06750922 -0.25901926 0.2799353
000020 2c d4 8c 3d ce 20 0d 3e 45 0e 2f 3e dd f3 bd be
       0.06876406 0.13782045 0.17095287 -0.37100115
000030 b0 5b 63 be fd 66 f6 3d fa 6e 9d 3e 93 53 ed bb
       -0.22202945 0.12031362 0.3074873 -0.007242629
000040 52 04 b1 be a3 b4 f7 3c 3a b8 53 3d 6b df 26 3e
       -0.3457361 0.030237501 0.051689364 0.16296165
000050 8f 53 89 be 22 84 c0 3e 6e 52 0d bf cd bc aa 3d
       -0.26821563 0.3760081 -0.552039 0.08336792
000060 a6 5c f7 3d 6c 1a cc 3e 7a 10 95 be 5d f1 db be
       0.12078218 0.39863908 -0.29114133 -0.42957583
000070 0a d8 cd 3e 55 e4 30 3d c4 8f d8 3e fc 33 dd 3e
       0.40203887 0.043186504 0.42297184 0.43203723
000080 a8 67 e6 bc 8a 8e 7d be 2d fc 0a be 26 07 c4 bd
       -0.028125599 -0.24761406 -0.1357276 -0.09571676
000090 66 4d 10 bf b0 4f ed 3e d7 bd 0f bd 3d d3 b5 3e
       -0.563681 0.4634986 -0.035093155 0.35512725
0000a0 b7 20 c1 bd da 4e cc 3e 6a 06 1b bf 14 dc da 3d
       -0.09430068 0.3990391 -0.6055666 0.10686508
0000b0 1b 36 7f be a9 b8 cf be a8 eb d5 3e 9a ce 04 bf
       -0.24922983 -0.40570572 0.41781354 -0.5187775
0000c0 05 2a 4b 3e 42 02 cd be 5f 29 05 bf e5 0d 93 be
       0.19840248 -0.40040785 -0.5201625 -0.28721538
0000d0 bd 90 e4 3e f3 2a 28 bf 3d ba b1 3d 14 43 04 3f
       0.44641677 -0.65690535 0.086781 0.51664853
0000e0 0b d4 13 be 8a 91 44 be 44 ee c5 bd 9d 83 b3 3d
       -0.14436357 -0.19196144 -0.09664586 0.087653376
0000f0 2a 9e f0 bd b5 99 e0 be ca 28 d1 3e 38 50 f4 be
       -0.117489174 -0.4386727 0.40851432 -0.47717452
000100 58 94 dc be 77 65 27 3e b1 34 b3 be fb 3c 8e 3e
       -0.43081927 0.163473 -0.35001138 0.277809
000110 ce b4 f1 bd a2 0b 40 bf 81 26 81 3e 0e cc 15 3f
       -0.11802064 -0.7501775 0.2522469 0.5851449
000120 97 4f 27 be 87 94 7f bc 9c da 89 3e ec 12 bc be
       -0.16338955 -0.0155993765 0.26924598 -0.36733186
000130 c8 82 db 3c bd 0a 14 bd 59 89 b0 bd cd 68 e3 3e
       0.02679576 -0.036143053 -0.08619947 0.44415894
000140 89 8c 07 bf 33 80 8f be 6f 53 89 3e 91 8e be 3d
       -0.52948815 -0.28027496 0.26821467 0.09304536
000150 a9 73 f9 3e 34 7b de bd 41 c0 a9 be e8 f0 3b bd
       0.48721054 -0.10863343 -0.3315449 -0.045884043
000160 6d 5e 14 3e 69 b3 c6 3e 40 23 84 3e bc d6 36 3f
       0.14489146 0.38808754 0.25808144 0.7142141
000170 1b 5f fb bd be 44 07 3f 88 54 d9 3e e0 08 8a bd
       -0.12273999 0.5283927 0.42447305 -0.06739974
000180 c4 2d 25 be 1a 0d 5a 3e 7d 30 d9 3e c8 9d fc bd
       -0.1613074 0.2129406 0.42419806 -0.12334782
000190 4b 4c a4 3e bb 92 96 3e f2 49 e0 3d 94 dc b5 3d
       0.32089457 0.2940882 0.10951604 0.088799626
0001a0 74 bc e2 be 80 f0 1d bd d5 99 07 3e 2a 8b 8c 3e
       -0.44284403 -0.038559437 0.13242276 0.27449924
0001b0 92 73 98 3e 33 8c dd 3e 10 2e 0d bf 5f c5 20 bd
       0.29775673 0.43271026 -0.5514841 -0.039250728
0001c0 bc af e9 3e 11 84 92 be 5b 25 7c bd ca 6e 87 3d
       0.45641887 -0.28616384 -0.061559062 0.06612928
0001d0 e1 b4 ee 3d 01 5b 3a 3d 92 1c f2 3e 82 7b cd 3d
       0.11655594 0.045496944 0.47287422 0.10033323
0001e0 37 aa c2 bd f7 e6 d2 3e 31 b3 34 be 89 ae ea be
       -0.09505122 0.41191837 -0.17646481 -0.45836285
0001f0 88 2b 59 3d bf fa f3 3e 99 1d 2d 3e 87 10 f2 3e
       0.05302003 0.47652242 0.16905822 0.47278234
000200 80 17 03 3e 94 86 16 bd 72 c0 42 be e7 fc b6 3e
       0.12801933 -0.036749437 -0.19018725 0.35739824
000210 a4 e8 1b 3e a0 2a 53 be 51 d4 e9 3e 26 a9 79 be
       0.15225464 -0.20621729 0.45669797 -0.24380931
000220 4f 36 6b be 89 1a 03 3e 45 5d 1d be 3d 7d e6 3e
       -0.22969936 0.12803091 -0.15367611 0.45017424
000230 1b aa bd 3e c1 c7 43 be 06 c1 44 3e 47 34 a3 3d
       0.37043843 -0.19119169 0.19214258 0.079689555
000240 d9 63 5f 3e 40 b5 fa 3d 67 37 79 3e 0c a4 24 3e
       0.21815433 0.12241602 0.2433754 0.16078204
000250 dc 31 27 bf 01 24 aa 3e fe 0b 1a 3e 92 7e cc 3e
       -0.65310454 0.33230594 0.15043637 0.39940315
000260 09 29 f8 be f0 c7 62 be 38 17 11 3e 2e f5 1a bf
       -0.48468807 -0.22146583 0.14169014 -0.60530365
000270 45 2b 9b 3e 0c 53 82 3e bf b8 79 be ff 21 33 be
       0.3030645 0.25453985 -0.24386881 -0.17493437
000280 b9 8c b4 3e a1 9a e4 bd a3 87 cc be 52 e6 e5 3d
       0.35263613 -0.111623056 -0.39947233 0.11225571
000290 af d7 88 3e 6c 2a c3 3e 48 51 34 3e 86 d0 8a 3e
       0.26727054 0.38118303 0.17609131 0.27112216
0002a0 44 fe 85 3e 9f 91 40 bd 5b 35 57 be 4d 63 af bc
       0.26170552 -0.047013875 -0.21016447 -0.021409655
0002b0 d4 7c 3d 3e d7 7d 27 be 41 da 25 bf 47 1a 73 3e
       0.1850465 -0.16356598 -0.64786154 0.23740493
0002c0 5d 3d bc be 79 28 5c 3e 5a 56 ac 3e 21 f9 fc 3e
       -0.36765566 0.21499814 0.3365963 0.4940882
0002d0 ae fc c9 3e 6c f9 86 3e ad 8b d0 be 1a 44 6f 3e
       0.39450592 0.2636217 -0.40731564 0.23365822
0002e0 97 c7 8d 3c f6 de c8 3e 80 5e ab 3e 98 b6 cd be
       0.017307086 0.39232606 0.33470535 -0.4017837
0002f0 eb ea a0 3e b4 f6 99 3e 8e ad 3e bd e7 f4 13 be
       0.31429228 0.30071032 -0.046552233 -0.14448892
000300 22 ab c1 bd 25 64 cb 3e 03 47 23 bf f1 f1 b7 3e
       -0.09456469 0.39724842 -0.6378023 0.35926774
000310 8d 0a 5b 3e d1 0f cf bd 07 ea f4 be e1 d8 1d 3a
       0.21390744 -0.101104386 -0.478348 0.0006021392
000320 22 ba d6 be 09 31 4c be 3c eb 18 bd e2 0a f3 bd
       -0.41938883 -0.1994058 -0.037333712 -0.1186731
000330 a1 58 55 3e 2a 52 8d be 67 db d7 3c 13 da f4 3e
       0.2083459 -0.2760175 0.026349736 0.47822627
000340 48 3c 2c bf b2 c9 86 38 e6 c2 19 3e 68 4d 89 be
       -0.6727948 6.4271866e-05 0.15015754 -0.2681687
000350 a8 ab 83 be c1 eb 19 bf d1 4e b2 be 3d 34 0d bf
       -0.257169 -0.60125357 -0.34825757 -0.55157834
000360 96 02 9d be 69 7f d0 be 51 17 76 be 97 91 cd 3e
       -0.30666035 -0.40722206 -0.24032332 0.4015014
000370 ff a1 b3 3d 03 10 11 3f 02 4d 8e be ba a0 83 3e
       0.08771133 0.56665057 -0.27793127 0.25708562
000380 b4 35 a2 3e 93 ba af 3d 2c bf a7 3d c2 b7 1d be
       0.31681597 0.08580508 0.0819076 -0.1540213
000390 0e c0 7f 3e ed dd da bb 67 12 81 3e cc 42 c3 3e
       0.24975607 -0.0066792876 0.25209352 0.381369
0003a0 08 6a df 3e 8d 03 fc 3a 36 33 1f 3e ce 44 dd 3e
       0.43635583 0.0019227132 0.15546879 0.43216556
0003b0 2d 98 44 3d 7c 16 72 be cf ad 5e 3d 69 2b bb be
       0.04799669 -0.2364139 0.054364976 -0.36556557
0003c0 26 5d ee bd 70 1b f3 be f6 9d b3 be 71 ef 9c 3e
       -0.116388604 -0.4748187 -0.35081452 0.3065143
0003d0 f4 ca 84 3d 5c 6c 87 3e 74 69 e9 3d 8c bf ce 3e
       0.06484023 0.2644986 0.11397067 0.40380514
0003e0 ee 22 0c 3f 68 eb 72 bc c2 34 55 bd f3 e7 87 3e
       0.547408 -0.014826633 -0.052052267 0.2654415
0003f0 52 fa 2a 3e 23 6d 99 3e bd ce e7 be 29 a5 14 3d
       0.16697052 0.29966077 -0.45274916 0.03629032

fc2.weight f4 [256, 256]
000000 23 02 ad bd a2 45 2d 3d bf cd bd 3b 89 f0 3c 3e
       -0.08447673 0.042302735 0.005792349 0.18451132
000010 be 68 f1 3d ce b9 17 bf 3e e3 06 bf 24 68 16 3e
       0.11787556 -0.5926789 -0.52690494 0.14688164
000020 1b 35 91 3e de 39 88 3d f4 1b b4 3d 13 13 2a 3d
       0.2836083 0.06651662 0.08794394 0.041522097
000030 13 9a 82 3d 6c 26 30 3e cc f5 be 3a 92 2d fa 3d
       0.063770436 0.17202157 0.0014569103 0.12215723
000040 b6 61 f0 be 1a 50 f2 3d 71 81 9d 3d b8 92 5b bd
       -0.46949548 0.118316844 0.076907046 -0.05360672
000050 8f 17 be 3e 43 de 7b 3d 11 27 0d 3e fc 83 7c 3e
       0.3712735 0.061491262 0.13784434 0.24659723
000060 2e be 47 3e 77 cc a1 be b0 08 c9 bd 50 48 ac 3e
       0.19506142 -0.31601307 -0.0981611 0.3364892
000070 c9 36 50 3c 5e b3 09 3b a8 10 1f 3e 79 b4 a6 bc
       0.012708374 0.0021011452 0.15533698 -0.020349728
000080 9b 6a ea 3c f9 72 23 bd c0 ea a4 3c e8 16 23 be
       0.028615287 -0.03990457 0.020131469 -0.15926707
000090 dd 65 33 3e 51 6d 93 bd 83 dd 37 3e 81 60 59 3d
       0.17519327 -0.07198585 0.17955594 0.05307055
0000a0 16 3a d2 3e ff f0 52 3d 7d f3 d3 be fb 71 20 3e
       0.4105994 0.051499363 -0.41396704 0.1566848
0000b0 61 37 12 3e 27 39 18 be 32 93 b5 bc 38 be 91 3d
       0.14278938 -0.14865552 -0.022164915 0.071163595
0000c0 a7 67 63 bd 1f 94 bf 3e 53 64 34 be ae 63 f8 3d
       -0.055518772 0.37417695 -0.17616396 0.121283874
0000d0 a5 d3 cb 3d 31 70 42 be d2 61 ad bc 38 cb 43 be
       0.09952477 -0.1898811 -0.021164808 -0.1912049
0000e0 f5 7b e2 3d 14 98 fa be 72 89 35 be 30 4c 7b 3d
       0.11058799 -0.4894415 -0.17728212 0.061351955
0000f0 7b 2a 2f 3c 3e 04 15 3e 8c 89 c6 3d 4c cd a5 be
       0.0106912805 0.145524 0.09694204 -0.32383192
000100 50 79 ad be f0 fd b8 3d 4a b6 9b 3e f6 18 06 3e
       -0.33881617 0.0903281 0.30412513 0.1309546
000110 73 fb 80 3c 19 54 7c 3e 7a 5d 9f 3d 90 e5 87 bd
       0.0157449 0.24641456 0.07781501 -0.066355824
000120 9e ac ae 3e 3c bd 7f be f3 e6 f4 bd c5 06 2f 3f
       0.3411607 -0.24974531 -0.119581126 0.68369704
000130 c4 2a 2f bd ac b6 3e 3d e4 f8 4e 3e 28 f6 3d bd
       -0.042765394 0.04656093 0.20212132 -0.04637733
000140 3a 51 85 be 7a ed ff 3e d5 98 d3 bd 6f 08 48 3e
       -0.26038533 0.49985868 -0.10331885 0.19534467
000150 41 b3 82 3d 0a 63 6a 3e 4e ac 35 3d 40 6b 57 3e
       0.06381846 0.22889343 0.044353776 0.21037006
000160 29 80 be 3d 17 fc 84 3d 69 88 2e 3d cc 3b b6 bc
       0.09301788 0.06493395 0.04261056 -0.02224531
000170 7a 4a 45 3c 50 7b 59 be 0d d0 45 3d 68 ac 86 3e
       0.012041682 -0.21238446 0.048294116 0.2630341
000180 48 db 10 3e e5 0f 81 3e 6a 5c 9e be c2 9e d7 3e
       0.14146149 0.2520744 -0.3092988 0.4211331
000190 06 df 6a bd 89 e3 08 3e 68 75 4e be 0d 7a cd 3d
       -0.057341598 0.13368048 -0.20161974 0.10033045
0001a0 5e 6b f0 3d 95 b4 8e 3e 7f c7 49 3e c6 23 ff bc
       0.11739229 0.27872148 0.19705008 -0.031144988
0001b0 08 5c 9a 3c df 76 f0 3d 27 7c 23 3e fc 1f 01 3e
       0.018842712 0.11741423 0.15965329 0.12609857
0001c0 e6 59 47 bd ca e3 12 3e 68 5f cf 3d 5b fb 41 3d
       -0.04866972 0.14344707 0.10125619 0.047358852
0001d0 c3 d3 1a be 86 c4 54 3e 04 43 80 bd a3 8a 88 be
       -0.15119843 0.20778093 -0.06262782 -0.2666827
0001e0 a5 d4 57 3d 89 7f 83 be aa ce 13 3e fe 13 34 be
       0.052693028 -0.2568324 0.14434305 -0.17585751
0001f0 00 98 f1 be 15 1c 68 be 7b 8a 1a 3e 49 3b d9 bd
       -0.4718628 -0.22666962 0.15091889 -0.10607011
000200 d6 5a 27 3e e1 b4 ba 3e bb 8b 10 bf e7 ac 1a 3e
       0.16343245 0.36466125 -0.5646321 0.1510502
000210 3a 96 55 3d bc 39 7a 3d e2 7b aa 3d 87 7e 39 3e
       0.05214522 0.061090216 0.0832441 0.18114673
000220 6d 42 33 3f b7 2e 46 3e b6 f8 98 3e 89 13 72 bc
       0.7002323 0.19353758 0.2987725 -0.014775165
000230 21 9d f8 3d 8b b2 fb 3e cb 24 15 3e 56 92 c1 be
       0.12139345 0.49159655 0.14564817 -0.37806958
000240 95 cd 08 bf 47 51 40 3e d6 2b 0d 3e e2 73 31 3e
       -0.53438693 0.18781005 0.13786253 0.17329362
000250 a5 47 d9 3e 8c af eb 3d 8b 80 f9 3e 53 34 aa 3d
       0.42437473 0.11508092 0.48730883 0.08310761
000260 1d 58 93 be 5c 2a b4 3d e2 01 ac bd 47 1d 15 3d
       -0.28778163 0.08797142 -0.083987966 0.036404874
000270 57 f4 9f 3d 6d 69 0d 3e 6e f3 1a 3e b4 84 34 bd
       0.07810276 0.13809748 0.15131924 -0.044071868
000280 6b 05 1e 3b 88 94 c0 3c 04 fc 1f 3f 5d 2d e1 be
       0.0024112116 0.023508325 0.6249392 -0.43979922
000290 39 c0 0d 3e 00 4a db 3d 66 e6 bc 3d 6a 44 89 3d
       0.13842858 0.10707474 0.092236325 0.06702502
0002a0 66 11 c9 3d b2 65 38 bd 26 3a 97 bd 65 67 d6 bd
       0.098177716 -0.04501886 -0.07384138 -0.1046894
0002b0 1d b8 6e 3d 96 18 3c 3e 03 5f 97 bd 62 b5 a0 bc
       0.058281053 0.18368754 -0.07391169 -0.01961774
0002c0 01 e3 c5 3e 9b f0 ff 3c 39 59 a2 3d cb ff 04 bd
       0.38649753 0.03124266 0.07927174 -0.032470506
0002d0 a2 d6 3a bd b2 2f 81 bd 7a ff ae 3c 0f 15 19 3d
       -0.045614846 -0.06307925 0.021362055 0.0373736
0002e0 9f 85 ad 3d d5 44 70 be f3 79 99 3d be ee 28 3d
       0.08472752 -0.23463757 0.07493963 0.041243307
0002f0 41 71 18 be 00 ce 9f 3d 9f 58 a3 3d 00 17 3b 3e
       -0.14886953 0.07802963 0.079758875 0.18270493
000300 7c 10 92 be d5 f9 9c be c5 af 12 3e e2 dc 8b 3d
       -0.28528202 -0.30659357 0.14324863 0.068292394
000310 fa c1 35 bd 6f 75 c5 3e 56 1d 66 be 30 b4 bf bc
       -0.044374444 0.38566157 -0.22472128 -0.02340135
000320 a3 d7 c7 be 48 b3 96 3d a4 39 77 3e b2 e1 f5 3e
       -0.39031705 0.07358414 0.24143082 0.48023754
000330 f7 10 7f 3c da 75 43 bd da bc 50 3d 87 cd 1a 3d
       0.01556801 -0.047719814 0.050961353 0.037793662
000340 04 4e b4 bc 3f f0 97 bb 98 0a 09 be fc dc c1 3e
       -0.022009857 -0.004636794 -0.13382947 0.3786391
000350 15 a2 e5 3d 81 d4 2e be 42 a6 38 be f1 18 c5 3e
       0.11212555 -0.17073251 -0.18032172 0.3849559
000360 f6 d3 05 3f 03 59 39 bc 1c e8 8d bd d9 25 cf 3d
       0.5227655 -0.011312726 -0.06929037 0.10114641
000370 58 75 76 3d 08 08 75 bd a7 10 d2 3e 20 db 25 3d
       0.0601705 -0.059822112 0.4102833 0.040492177
000380 5e 40 2a bc b4 26 1a 3c 08 45 96 3e 62 45 1b bc
       -0.010391323 0.009408642 0.29349542 -0.009476991
000390 3f 40 de bd 42 bc 58 3c 11 d0 93 3d 1b 64 2c 3d
       -0.10852098 0.013228478 0.0721742 0.042087656
0003a0 49 2a 43 be 6b 68 2c 3e 21 87 8f 3d 33 9f a0 bd
       -0.190591 0.16836707 0.07008196 -0.07842865
0003b0 38 2e 8a 3f 03 0c 22 be 60 03 f3 3b 9b 02 60 3e
       1.0795355 -0.15824895 0.007416174 0.21875994
0003c0 18 a9 47 3e f6 65 a4 be ee 8d c3 3d e1 1d 46 3d
       0.19498098 -0.3210904 0.09548555 0.04836834
0003d0 99 be 92 bd 12 35 a8 bd c5 7c c7 be 54 51 c5 3c
       -0.0716526 -0.08213247 -0.3896238 0.024086632
0003e0 17 20 00 3d f2 5a 4f 3d d5 bd 2f 3e d6 01 2c 3e
       0.031280603 0.05062384 0.17162259 0.16797575
0003f0 f1 90 39 3e fb d8 59 3d 28 9d b0 bd 25 b9 79 3d
       0.18121697 0.053185444 -0.08623725 0.060967583

fc2.bias f4 [256]
000000 6c 3b 9b 3c 12 c0 12 3c 94 da b5 3d 7e b0 36 3c
       0.018949233 0.008956926 0.08879581 0.011150477
000010 ef f0 e4 bd 0e 14 87 bd da 76 86 3d 73 55 28 be
       -0.11178767 -0.06595622 0.06565638 -0.16438846
000020 08 a7 ae 3c f0 96 74 bd 9b 22 56 be 45 bd 38 bd
       0.021319881 -0.059714258 -0.20911638 -0.045102376
000030 69 36 5f bb b7 d8 40 bb 63 84 84 bd 69 8e 43 3e
       -0.003405953 -0.0029426047 -0.06470563 0.19097294
000040 b5 91 64 3c 24 33 36 be dc ea 24 bd 9a 6d 4f bd
       0.013950755 -0.17792946 -0.04026304 -0.050641634
000050 3c 04 06 3e 0d e0 5f bd 59 0c e2 3c 30 c6 8a 3d
       0.13087553 -0.05465703 0.027593778 0.067760825
000060 99 fd c9 3e 60 6e 42 bd ad 5f 54 bd 26 30 b1 bd
       0.39451292 -0.047468543 -0.051849056 -0.08651762
000070 02 e3 84 bd 59 22 77 bd 37 9e 90 bd 5f e2 50 bd
       -0.06488611 -0.06033549 -0.07061427 -0.050997134
000080 90 02 a6 3c 84 38 5b 3e e0 de 4a bd 4d d7 86 bc
       0.020264894 0.21408278 -0.049528956 -0.016460085
000090 9b 79 a1 bd c2 48 99 bd 33 a9 ba 3c df c5 e4 3c
       -0.078845225 -0.074845806 0.022785759 0.027926384
0000a0 62 36 a3 3c 43 5d 40 bd b4 87 ce 3c 52 01 05 3d
       0.019923393 -0.04696394 0.025211193 0.032471962
0000b0 06 64 97 3b 93 33 09 bd b7 4d 37 3e 66 f6 01 be
       0.004620078 -0.03349645 0.1790074 -0.1269165
0000c0 dd 5a ef bd 44 6e b6 3c f1 8f d5 bc 6f d0 42 be
       -0.11687253 0.022269376 -0.026069613 -0.19024824
0000d0 ec ec f9 3d 8b 98 a6 3e ec 20 6b bd a6 f7 2b be
       0.122033924 0.32538256 -0.057404444 -0.16793689
0000e0 74 d0 4d 3d bc 8d 00 3e 09 f3 4b bd 40 05 16 3c
       0.050247625 0.12554067 -0.049792323 0.009156525
0000f0 d5 a3 f2 bd 72 9f 21 be d3 d1 50 be bf d9 93 3c
       -0.11847655 -0.1578348 -0.20392542 0.018048165
000100 27 8a 8f bd a4 42 3c 3d 9c e7 56 bc 20 56 98 bd
       -0.07008772 0.04596199 -0.013116743 -0.07438302
000110 c4 b6 74 3d 1d 6a d0 bd 13 e8 99 bd 88 f9 94 3d
       0.05974461 -0.101764895 -0.07514968 0.07274157
000120 02 d5 f4 bb ef b3 3a bd 8b 20 9c bd f9 db c7 bd
       -0.0074716816 -0.045581754 -0.076233946 -0.09758753
000130 9c 46 86 be 67 59 90 3d a4 ff 63 3c fa 46 1d 3c
       -0.26225746 0.07048302 0.01391593 0.009599442
000140 17 41 5c be 2f d7 a7 3b e6 7f 48 bd 37 5f 28 bd
       -0.21509205 0.0051220874 -0.0489501 -0.04110643
000150 1f 75 00 be 36 34 ed bc 70 35 36 bb 1a 8b 57 3d
       -0.12544678 -0.02895556 -0.0027802847 0.052622892
000160 41 88 55 bd c1 07 a8 3c 0b bc f5 ba b0 e3 9f bc
       -0.052131895 0.02051151 -0.0018748058 -0.01951775
000170 ef 91 bd 3c 27 11 b3 be 4b 48 15 be a2 de 2c 3c
       0.023140876 -0.34974024 -0.14578359 0.010551127
000180 5c 4b d4 3d f2 17 65 3d e1 5f 39 3b 4c 08 1e 3d
       0.10365936 0.05593104 0.0028285908 0.03858213
000190 03 dc e3 3e 46 cf f5 bc 54 a0 b9 3d ea 27 31 3e
       0.44503793 -0.030006062 0.09063783 0.17300382
0001a0 44 e4 f8 bc 6a fb ab 3c 9f 2b 65 be a8 d1 d5 3d
       -0.030382283 0.020993907 -0.22379921 0.104403794
0001b0 56 24 7e bd 51 86 44 3d d9 3c 1c be 79 79 93 bd
       -0.06204637 0.047979657 -0.15257587 -0.072009034
0001c0 d4 f2 32 bc cb 7e a5 3c 87 69 71 3c ba 91 c4 3d
       -0.010922153 0.020202061 0.014734632 0.09598108
0001d0 76 c1 dc bc ca f8 22 bd 38 41 94 bc 78 14 89 bd
       -0.026947718 -0.039788045 -0.018097505 -0.06693357
0001e0 37 f3 50 bd ef 82 94 bd 03 65 60 3c ef 54 bf 3d
       -0.051013198 -0.07251536 0.013695958 0.09342372
0001f0 f1 4b 0c be 5d 77 14 bd 53 33 8b 3d a8 53 6f 3b
       -0.13700844 -0.036246646 0.06796899 0.003651837
000200 b0 3c de bb ad 13 5d bc 5c 39 22 3d a5 99 54 bd
       -0.006782137 -0.013493461 0.039605483 -0.05190434
000210 5e c3 95 bd 31 33 9c bb a3 5d c3 3a df 96 9b bd
       -0.07312654 -0.0047668447 0.0014905225 -0.07597136
000220 95 ef 81 3d 68 89 83 3d 63 45 08 bc 82 34 8f bc
       0.06344525 0.064226925 -0.008317324 -0.017481092
000230 d5 d2 5c bc 60 86 67 bd 44 1d 28 3d 06 0e 16 bd
       -0.013478001 -0.056524634 0.041043535 -0.036634468
000240 42 9e 65 3c 5b e1 49 bd 50 01 50 bd 97 f5 e8 bc
       0.014014782 -0.04928718 -0.0507825 -0.028437419
000250 7e d6 87 3c 26 bf 8f bd c1 33 36 bd 4a 62 72 bb
       0.01658177 -0.070188805 -0.04448295 -0.0036984854
000260 96 0d b1 bc d7 9c 67 3d 2c f5 1a be 37 55 35 3d
       -0.021612924 0.05654606 -0.15132588 0.04427072
000270 b0 34 c8 bd e0 0b eb bd 20 18 83 3c 26 b2 26 3d
       -0.09775674 -0.11476874 0.016002715 0.04069724
000280 c2 56 f4 bd 7e ec d1 bd 11 32 4b 3b a3 4c f3 bb
       -0.1193061 -0.102501854 0.0031005184 -0.0074249073
000290 fa c5 eb bc e5 2f 5f bd b8 38 3f bd 7a 0d ea 3d
       -0.028780926 -0.054489035 -0.04668495 0.11428352
0002a0 e7 a1 a4 3c 96 45 83 3c d0 78 ac bc a1 2a b9 3d
       0.020096732 0.016024392 -0.021053702 0.09041334
0002b0 63 c3 12 3d c2 84 4b bd 6f e3 cd 3d fb 6f bf 3e
       0.035830867 -0.049687155 0.10053145 0.37390122
0002c0 d3 6d e4 3b c7 ee bf 3d 6d 2c 17 3e e4 1c 31 be
       0.0069711 0.09371715 0.14763041 -0.17296177
0002d0 e5 f2 a8 bc 37 0b 26 b9 2d e7 17 3d a6 a0 bd 3e
       -0.020623634 -0.00015835172 0.0370857 0.37036628
0002e0 e6 0f 61 3d ba 56 db 3b cb ea 6b bd 58 37 56 3b
       0.054946803 0.006693688 -0.057596963 0.0032686796
0002f0 71 f2 4b bd 11 a2 a3 bb 16 21 22 bd bc 0b 99 bd
       -0.049791757 -0.004993685 -0.039582334 -0.07472941
000300 4c 92 1f bd 7f 93 78 bb 6b 9b cd 3d 5f 43 9c 3e
       -0.03895788 -0.0037929711 0.10039409 0.3052015
000310 6f 0f 92 bd 15 3e 49 bd 9e e0 91 3d 26 26 1c bd
       -0.0713185 -0.04913147 0.071229205 -0.03812232
000320 e5 d4 8d bd 01 fc 25 bd 8c df 79 bd 3f 48 0a 3c
       -0.06925372 -0.040523533 -0.061004207 0.008440076
000330 27 0a de bc a7 14 c0 bc 6f 14 e2 3c eb 5f a5 bd
       -0.02710445 -0.023447348 0.027597634 -0.080749355
000340 07 40 0a 3e 84 b7 34 3d b5 2f 96 bd b3 cd bd bc
       0.13500987 0.044120327 -0.07333318 -0.023169374
000350 5b f3 f4 3b f9 66 d0 bd 6a 72 6a bd 25 cf 53 be
       0.0074752993 -0.101758905 -0.05723802 -0.20684488
000360 4d 38 16 3e a9 84 4a bd bc 60 40 bc 92 4c 13 3d
       0.14669915 -0.04944292 -0.011741813 0.035961695
000370 4a cd cb 3d 86 78 ed bd f5 f7 90 bd 3f 59 45 be
       0.09951265 -0.11595254 -0.07078544 -0.19272326
000380 db ff 32 bd 3a 09 07 3d 65 e3 a8 3e 09 49 fb bc
       -0.043701034 0.032967784 0.32985988 -0.030674474
000390 31 c5 1b be 94 83 ee bc 43 69 07 3d e1 ca 32 be
       -0.15211941 -0.029115476 0.03305937 -0.17460205
0003a0 c0 06 01 be 9b 8d 37 3d 7a ce 06 be 33 dd 57 bd
       -0.12600231 0.04481278 -0.13164702 -0.052701186
0003b0 54 2f 0d be 25 19 94 3c 38 85 38 bd 1f 49 7d bc
       -0.13787585 0.018078396 -0.045048922 -0.015459328
0003c0 dd e8 2e bd a5 02 75 bc 97 bf 6d bc d8 72 3d 3d
       -0.042702544 -0.014954244 -0.014511011 0.0462521
0003d0 93 fa 52 3e b1 36 96 3e ce 35 96 3d c4 ac 1d be
       0.20603399 0.293386 0.07334481 -0.15397936
0003e0 0b 31 0d bd 15 29 00 3d 1a 12 1c be cd 36 8f bd
       -0.0344706 0.03128918 -0.1524128 -0.06992874
0003f0 fb 45 d3 3d 98 de cf 3b 76 2f 08 3c 99 19 50 bd
       0.10316082 0.006343674 0.008312097 -0.05080566

fc3.weight f4 [128, 256]
000000 6d ca 73 3e a4 ed 85 bc d8 49 36 bf 27 08 ac bc
       0.23807688 -0.016348667 -0.71206427 -0.020999981
000010 b5 18 1b 3e e8 75 ac bc ab 4d 84 3d 35 81 8e bf
       0.15146144 -0.021052316 0.064601265 -1.1133181
000020 0d 7a 1e be 22 05 14 bd 5a 2c b8 3c c2 7f 73 3f
       -0.15476246 -0.036137708 0.022482086 0.9511682
000030 36 3b 21 3e b4 ac 1e 3d f8 2d e8 bc 9b d5 c0 3d
       0.15745243 0.03873892 -0.028342232 0.09415742
000040 91 7b 91 3b 1c d2 e8 be 78 00 b6 3c 47 ea 8d 3c
       0.004439779 -0.454728 0.02221702 0.017323626
000050 6a 37 8a 3e c8 53 44 bf aa 7b 69 3d 70 66 7c be
       0.26995403 -0.7669034 0.0570027 -0.24648452
000060 4c 12 88 3d b6 f6 db be 0f 0f 5f 3d 56 88 33 3f
       0.06644115 -0.42961663 0.05445772 0.7012991
000070 8f e0 3f 3d 98 d8 45 3e 08 40 dc 3c c0 6b 5e bb
       0.046845015 0.19320905 0.026886001 -0.0033938736
000080 62 fe 6a 3d a9 cd 80 be ca de 42 3d 11 65 36 3d
       0.057371505 -0.25156906 0.04757575 0.04452998
000090 fa 5a 1d be 8e b6 c1 be 08 e4 71 3d 08 91 94 3d
       -0.15366736 -0.3783459 0.05905536 0.07254225
0000a0 ca 29 26 bc 40 23 59 bc 7c 7f 1e bc 34 ba 0a 3f
       -0.010141799 -0.013253033 -0.009673949 0.54190373
0000b0 b0 6f 23 bf 92 a3 fb 3c 2c 32 25 3e 13 f7 c7 3e
       -0.63842297 0.030717645 0.1613242 0.3905569
0000c0 a6 26 23 bd e2 68 3b 3e 1a 59 02 3d 61 82 e1 bd
       -0.03983178 0.18301728 0.031823255 -0.11011196
0000d0 cd e9 29 bf 5c b1 01 3d f0 3f 6b bc b5 24 e6 3e
       -0.66372377 0.031663284 -0.014358506 0.4494988
0000e0 c3 72 0d 3f 66 0a dd be 98 f9 11 bd 88 3a 5b 3d
       0.5525324 -0.43171996 -0.03563842 0.053522617
0000f0 9e bd 32 be c9 bd 15 be 4f e7 04 be 8e 22 9c bb
       -0.17455146 -0.14623179 -0.12978862 -0.0047648614
000100 06 de 7e 3d ec 06 93 bc d1 f3 20 bd 71 2a ff bd
       0.062223457 -0.017947637 -0.03929502 -0.12459267
000110 21 1e 21 3e 33 32 d3 3d e0 19 c2 3b 70 f4 a2 be
       0.1573415 0.10312309 0.0059234947 -0.31827116
000120 4f 4e 4f 3e f3 22 5a 3d 0e 2c 7c 3d 17 01 4d be
       0.20244716 0.053255986 0.06156545 -0.20019947
000130 08 ae ed bd 52 fd 8c 3e 0d 9b d3 3c 30 bf 07 bd
       -0.116054595 0.27537018 0.02583077 -0.033141315
000140 a5 8e 02 3e ba 08 06 3c a8 a0 44 3e 4a de 45 3d
       0.12749727 0.0081807915 0.1920191 0.048307694
000150 e6 ee 43 bd 52 89 7a 3d 01 e7 8d be 29 eb 8e bc
       -0.047835253 0.061166115 -0.27715304 -0.017446117
000160 e6 f3 64 bd 5d 73 a7 be 2f 13 47 bd 2d 26 0c bc
       -0.055896662 -0.32705203 -0.04860228 -0.008554024
000170 b8 6a ff 3c 22 7d 07 3f 0d e6 e4 be 35 43 0c bf
       0.031178817 0.5292531 -0.44706765 -0.5479005
000180 6e c3 a4 bd 53 55 a6 bd 5f 80 21 bc 9c db 03 40
       -0.08045088 -0.08121743 -0.009857266 2.060279
000190 1f 53 a9 3d 36 c7 d7 3c 49 e5 e8 3e 38 e1 3d 3e
       0.08267807 0.026340108 0.4548743 0.18542945
0001a0 6d a3 e2 3e d7 41 2a bd cd 80 a4 3f 47 56 59 bf
       0.4426531 -0.041566696 1.2851807 -0.84897274
0001b0 00 21 9b 3c 00 6b cb 3c f8 6a c0 3d 21 b1 34 3e
       0.018936634 0.024831295 0.09395403 0.17645694
0001c0 9d c1 37 bd 11 87 cf bc d9 09 ff bd 13 7a 96 be
       -0.04486238 -0.02533296 -0.1245305 -0.2939001
0001d0 68 16 fe bc c8 35 d9 3c 72 f0 51 3d ae f7 ff 3c
       -0.031016544 0.026514903 0.051254697 0.031246033
0001e0 a3 7b 82 bd 0c 2a 00 bd ce 02 f2 3e f7 b8 65 be
       -0.06371238 -0.0312901 0.47267765 -0.2243384
0001f0 93 d2 93 3c f5 18 80 3e 65 35 a9 be e6 de 47 bd
       0.018044746 0.2501904 -0.3304855 -0.048796557
000200 86 6a 6c 3d 14 d3 37 bc 3c 81 84 bc 22 2e 2e 3b
       0.057718776 -0.011219759 -0.016174905 0.002657779
000210 80 c2 bf 3d 2e 08 97 be c8 f8 a5 3c d3 6a ff be
       0.0936327 -0.29498428 0.02026023 -0.49886188
000220 6b 47 12 be bb a3 73 bf 5e da 2f bd 48 85 56 3d
       -0.14285056 -0.9517171 -0.04293286 0.0523732
000230 ea 08 17 3f 56 3f 14 3d c2 9c 0c 3c 16 4d 4a 3d
       0.58997977 0.036193214 0.008582296 0.04938992
000240 81 4a 42 be 9d 33 69 3c b8 d7 5b bc 87 67 82 bc
       -0.18973733 0.014233497 -0.013418131 -0.015918506
000250 e8 66 28 bd 99 0b eb be 1f ea 14 be 65 56 70 bd
       -0.041113764 -0.45907286 -0.14542435 -0.058676142
000260 c8 6b 6d 3d d6 71 98 3b cb d4 70 bd 07 50 c3 3d
       0.057964116 0.004652242 -0.058796685 0.095367484
000270 20 f8 7f be af 64 2b 3f c3 74 06 bd b0 39 a1 bc
       -0.24996996 0.66950506 -0.032826196 -0.019680828
000280 22 c8 f9 3e 43 53 1e 3f 22 6f 88 ba 7a e9 2b 3d
       0.48785502 0.618458 -0.0010409097 0.041970707
000290 a1 6f 5b be f0 2d db 3a b8 9e 60 bd 1b fb 9a 3d
       -0.21429302 0.0016722064 -0.054838866 0.07567426
0002a0 30 cc 95 bc e9 f6 4a bf 90 28 bc bc 6d 13 34 be
       -0.01828584 -0.79283005 -0.02296856 -0.17585535
0002b0 88 a5 93 3c e8 e6 d2 3c c4 19 54 bf ea 92 f8 3d
       0.018023267 0.02574487 -0.82851815 0.12137397
0002c0 ac 5e 80 3c 1a 66 f8 be e5 a9 a5 be 6b a1 e1 bb
       0.015670143 -0.48515397 -0.32356182 -0.0068856976
0002d0 44 69 18 3d 88 14 11 be 50 e7 ae 3c 93 2b 1e 3e
       0.037209764 -0.14167988 0.021350533 0.1544631
0002e0 46 e3 27 3e 1a ed 81 bf a2 64 11 bd 50 61 14 bd
       0.16395292 -1.0150483 -0.03549636 -0.036225617
0002f0 15 13 c3 3e e8 be d0 3c ee 70 44 be 7f 25 95 be
       0.38100496 0.025481656 -0.19183704 -0.2913017
000300 3d 4e 62 bc 79 4c a5 be 7f 86 ce 3e 60 53 b3 3d
       -0.013812599 -0.32284907 0.40336987 0.08756137
000310 31 ab 49 bc e7 fa 81 bc 72 b7 d8 be b0 cd 09 bc
       -0.012308882 -0.01586671 -0.42327458 -0.008410856
000320 92 28 58 3b af 70 78 bd aa 3f 26 3d 68 c5 7a 3d
       0.0032983166 -0.06065434 0.04058806 0.061223418
000330 02 9a a9 bc 70 78 ad 3b f3 ff 3f 3d 56 59 41 be
       -0.02070332 0.0052938983 0.04687495 -0.18881735
000340 c7 97 2c be c5 73 c9 bd 62 99 42 bf d4 8f 52 3d
       -0.16854773 -0.098365344 -0.76015294 0.051406696
000350 c8 86 bf 3e 1b 6d 9b 3e 90 2c 97 3e 58 c4 8f be
       0.37407517 0.30356678 0.29526186 -0.28079486
000360 8e 9c 7c 3e c4 be 6f bd 28 b6 8d bc 22 a2 af be
       0.24669096 -0.058531538 -0.017298773 -0.34303385
000370 43 6a 6f be a8 fe e7 3c e0 9a f4 bc 1e 9d 55 3e
       -0.2338038 0.028319672 -0.029859006 0.20860717
000380 06 19 22 be 45 ee 83 be 1f a4 5b 3d 57 fa a6 3b
       -0.15829858 -0.25767723 0.053623315 0.005095761
000390 b7 d4 3e 3c 79 57 29 c0 ca ca 48 bd de bd 27 bf
       0.011647395 -2.645964 -0.04902152 -0.6552409
0003a0 a0 93 76 3d 16 68 ea 3c bd 23 5f bf e0 1c 00 bd
       0.06019938 0.028614085 -0.8716391 -0.031277537
0003b0 a2 be df bd 4f fe 77 be 1d db c0 bb 20 7f ab 3c
       -0.10925032 -0.24218105 -0.0058854953 0.020934641
0003c0 d8 47 5f bc cf 58 08 3f f2 c5 05 3d ae 09 13 bf
       -0.013627969 0.5326051 0.03265948 -0.57436645
0003d0 e8 a5 9a be c1 0f 34 3d 47 13 68 bf ec ae d5 3e
       -0.302047 0.043960337 -0.90654415 0.41735017
0003e0 b8 e7 48 bc c0 8a a9 3a 26 13 04 bd 84 d9 eb 3e
       -0.012262277 0.0012935027 -0.032244824 0.4606439
0003f0 a7 fb ef 3e fc d8 83 3c 96 ba 92 3e 98 ec 9f bc
       0.46871683 0.016094677 0.2865798 -0.019521996

fc3.bias f4 [128]
000000 99 49 1c bd 39 09 c8 3d 9f ec 0e be 1d 09 af bc
       -0.038156126 0.09767384 -0.13957451 -0.02136665
000010 e8 65 90 3a 2b fa c0 3e 94 d3 c9 3e f5 25 69 bc
       0.0011016699 0.37690863 0.39419234 -0.014230241
000020 df e9 86 3b 73 30 ec 3d c5 6f 1e 3c f5 a5 8a bd
       0.004117235 0.115326785 0.009670203 -0.06769935
000030 3d bc ec 3b e7 a7 8b 3c b6 1e b5 3c 0b c6 9c 3e
       0.007224588 0.017047836 0.02210937 0.30619845
000040 75 5f ce bc f1 fb 27 3d 09 29 27 3e a3 b1 ba 3e
       -0.025192002 0.041011754 0.16324247 0.3646365
000050 cc 63 0e 3c b3 82 9d 3d 1b 2d 62 bd a9 42 31 3d
       0.008690786 0.076909445 -0.055218797 0.043276463
000060 5d 27 b8 3e 1c 8b 6d bd ab ef 04 3d f4 bc 8a 3e
       0.35967532 -0.057993993 0.032455128 0.27097285
000070 d3 47 39 3d 9e 1a 13 bd ed 3b 58 3b ad 63 82 bd
       0.045234513 -0.035914056 0.0032994703 -0.06366668
000080 a0 a2 f0 bc 96 87 5b bd c0 96 22 ba e5 31 cf 3c
       -0.02937442 -0.0535961 -0.0006202273 0.025292346
000090 2c 3c 4b bc 46 55 93 bd 48 ed 03 bd ca a8 36 3d
       -0.012404483 -0.07193999 -0.03220871 0.044594564
0000a0 f3 72 6d bd 54 7f 05 bd fb 95 92 bd f9 d3 52 bd
       -0.057970952 -0.032592133 -0.07157513 -0.051471684
0000b0 ad b5 9d 3d 07 59 e1 3d cc 0b 90 bb 6c 55 d8 3c
       0.077006675 0.11003309 -0.0043959375 0.02640792
0000c0 da 75 de 3c 8d 6d 0d be 4e 72 6a 3c 09 a1 2c bd
       0.027155805 -0.13811322 0.014309479 -0.042145763
0000d0 8b f1 8f bd f9 f9 33 3d 6f 4c 59 3e 2c e4 98 3c
       -0.070284925 0.043939564 0.21220563 0.018663488
0000e0 b8 82 0e bd 74 33 92 ba 2b f6 50 3d 25 21 97 3e
       -0.034792632 -0.001115425 0.051016014 0.29517475
0000f0 77 39 46 be ad 4d 10 3e d4 90 37 3d 92 10 80 3d
       -0.19357859 0.14092131 0.044815853 0.062531605
000100 a2 d3 3d 3b ad 59 93 3c c2 dd b4 bd 77 3b 80 bd
       0.0028965254 0.017987097 -0.088313594 -0.06261342
000110 9a 4b 38 3c 56 49 24 3d 77 5a a6 3d 59 01 c0 3c
       0.011248494 0.040109 0.081227235 0.023438143
000120 9e 76 e0 3c 1d 1d 2f 3e b9 e6 88 be 7f 6f 2d 3d
       0.027400311 0.1710095 -0.26738527 0.04234266
000130 23 83 8c bc 8d 56 6a bd e8 3c a2 3b dc 61 a8 3d
       -0.017152375 -0.057211448 0.0049511082 0.0822179
000140 a1 52 1d 3e 7f fc a6 bd 3b 7c 3b bd e1 45 c1 3d
       0.15363552 -0.081536286 -0.045772772 0.094371565
000150 e4 ba a1 bd b2 83 eb bc ed 08 e8 bc 47 ca 98 3c
       -0.07896975 -0.02874932 -0.028324569 0.01865114
000160 b8 63 a4 3e e2 aa e0 bd d2 c7 3b bd 49 bf 8e 3d
       0.3210733 -0.10970093 -0.04584486 0.069700785
000170 61 99 9e bd 13 51 42 bd 5d aa a8 bc d8 76 bb bc
       -0.077440985 -0.0474406 -0.020589048 -0.022883818
000180 ce 5e 88 3e d8 fa ab bd a6 dc f6 3d ca d8 87 bb
       0.2663483 -0.08397454 0.12053804 -0.0041457163
000190 97 ed 66 3c 3e 65 5b bd dd 53 30 bd e6 09 5f bd
       0.014094732 -0.05356335 -0.04304873 -0.0544528
0001a0 0f 11 0f 3d b1 e1 86 3d 6a 02 e0 3d ad eb 89 3d
       0.034928378 0.06586016 0.109379604 0.06734405
0001b0 c7 c6 aa ba 0c b3 f1 3d f1 19 11 3c 94 99 54 bd
       -0.0013029211 0.118017286 0.008856283 -0.051904276
0001c0 a0 85 03 bd 37 0a dc bc ed 97 9a 3c d1 ae 07 bd
       -0.032109857 -0.02686034 0.018871272 -0.033125702
0001d0 17 7b 47 3e 5f 0a 32 3e ad 42 c3 3c 95 2b 30 39
       0.19480549 0.17386769 0.023835504 0.00016800904
0001e0 ce df ad bb 35 f8 27 be cd 84 6b bd 5d 63 f7 3c
       -0.0053062206 -0.16403277 -0.057499696 0.030198747
0001f0 78 4f 4f bd a5 b7 0a 3d 31 32 5b 3e dd 38 4e 3d
       -0.050612897 0.033866543 0.21405865 0.050347198

fc4.weight f4 [7, 128]
000000 52 77 15 3f 5c 46 fc be f2 76 3b be 74 cd 57 3f
       0.58385193 -0.4927243 -0.18307093 0.8429787
000010 39 f1 75 3c 3f 79 83 3f d7 d0 7f 3f 27 70 32 3d
       0.015011125 1.0271376 0.9992804 0.043563988
000020 70 fc c2 3f a6 62 c7 3e 65 10 02 bd 81 31 d6 3b
       1.5233288 0.3894245 -0.031753916 0.006536663
000030 47 1f 28 bf d0 dc 14 bf 6d 11 1b bf 93 b5 38 3f
       -0.65672725 -0.58149433 -0.60573465 0.7215206
000040 8a 6d 12 bf 3b 5f 2c bd fe 45 1e 3f 82 a0 81 3f
       -0.57198393 -0.042083006 0.6182555 1.0127108
000050 a4 b2 05 bf f3 aa 95 3e 61 66 d3 3a b7 9b 1d bf
       -0.5222571 0.29231986 0.0016128534 -0.61565727
000060 13 1f 4e 3f 29 1b 1f bb 83 ac 10 3d ca 6e 6d 3f
       0.80516165 -0.0024277663 0.03532077 0.92747176
000070 de 6a f1 be 6f 60 1a bf 4e 29 1f 3c 11 57 a0 bd
       -0.47151846 -0.60303396 0.009714438 -0.078291066
000080 8d e0 97 bd 26 e1 6d 3d 17 11 36 ba 64 20 a5 3d
       -0.074158765 0.058076046 -0.00069452956 0.08062819
000090 8c 6c 11 bf d1 c1 4d 3d 55 54 87 bb 23 5b 08 bf
       -0.56806254 0.050233666 -0.004129926 -0.53264064
0000a0 ca 9a 04 bd 8f 80 22 bf 3c 76 9d bd af 42 a1 bc
       -0.03237418 -0.63477415 -0.07688567 -0.019685118
0000b0 4f ab 18 bf ca dc 3c 3f 81 d3 2b bb c1 22 18 bf
       -0.59636396 0.737744 -0.0026218595 -0.5942803
0000c0 c6 2f 0b 3f b3 61 b5 be cb 6a 2f 3d 0e 29 17 3d
       0.5436977 -0.354261 0.042826455 0.036904387
0000d0 22 4e a8 3d ad 14 19 bf cb d5 12 3f 9b d6 9d bc
       0.08218028 -0.59797174 0.5735747 -0.01926737
0000e0 ef b3 d9 3c 21 9e fd be 07 4b 42 bf c1 75 74 3f
       0.026575057 -0.49534705 -0.7589573 0.9549218
0000f0 ec 67 88 be 6f 1d fc 3e 67 16 43 3d b9 71 13 bf
       -0.26641786 0.49241206 0.047628786 -0.575954
000100 42 47 0d bc ca 45 9b be 48 d6 19 bf 64 81 3d 3d
       -0.008622946 -0.30326682 -0.6009259 0.046265975
000110 37 cd c0 bd 1b 95 6d 3e bf fa 20 bf f7 99 4a 3d
       -0.094141416 0.2320141 -0.6288261 0.04946324
000120 61 e8 9a 3d 48 e2 25 3f 7c 84 bf be d9 0d 46 3d
       0.07563854 0.647984 -0.37405765 0.04835305
000130 22 d9 2f 3c 90 d5 4d 3b de 41 30 bf 23 37 05 bf
       0.010732921 0.003140781 -0.68850505 -0.52037257
000140 1d eb 27 bf 50 6f d7 bc 98 f4 38 3c fe ca ee be
       -0.6559313 -0.026298195 0.011288784 -0.46639246
000150 2f 9f 37 bf 53 d5 35 3d 10 cc 83 3b 92 ae ac 3c
       -0.7172727 0.044392895 0.004022129 0.021079335
000160 66 fb 80 3f 65 33 31 bf 2f ae 23 bf 56 e3 cb 3e
       1.0076721 -0.69219047 -0.6393766 0.3982188
000170 4e 87 6d 3d 95 ad 9e bc 33 b2 8a bc 2f af 70 3c
       0.057990365 -0.01936988 -0.016930675 0.0146902045
000180 63 67 23 3f 93 e1 9f 3f 6b d7 10 3f 9b 09 f6 be
       0.6382963 1.2490715 0.565787 -0.48054203
000190 a3 65 1b bf a7 7a 84 bd 70 8b 62 3c ab aa 99 3b
       -0.6070196 -0.064687066 0.01382719 0.0046895347
0001a0 1d c6 14 bf 67 2b 07 bf 30 98 e2 bd fe 27 1f bf
       -0.58114797 -0.528006 -0.11064184 -0.621704
0001b0 2b a5 0f bf 5a bd e9 3f f9 79 6a bc 17 6e 94 3d
       -0.561114 1.826091 -0.014311307 0.072475605
0001c0 d0 10 b2 bc bb 4c 57 3c 51 09 81 bf f2 66 3d bf
       -0.021736532 0.013140853 -1.0080968 -0.7398521
0001d0 1f 3e 20 3f a8 11 44 3f 02 5f 8e bd 79 05 4e bd
       0.6259479 0.7658944 -0.06951715 -0.050298188
0001e0 66 e0 f5 be bf 6f 76 be 1c 9e 05 3d f6 11 1a bf
       -0.48022765 -0.24066065 0.032621488 -0.60183656
0001f0 84 86 ab 3d 48 5e 8f 3d 82 cd 6c 3f 6e e0 14 bf
       0.08375266 0.070004046 0.9250108 -0.5815495
000200 ed 9d 0f 3f c2 f2 2e bf 3f e7 8c be f8 ba 31 3f
       0.5610035 -0.6833917 -0.27520177 0.69425917
000210 c8 f2 24 3d 5c 6b 82 3f 09 5a 69 3f 84 ef de 3c
       0.040270597 1.0189013 0.9115301 0.02721382
000220 4f 23 cc 3f cb 5e 06 3f 42 5b 9c 3c 71 0d 3b 3a
       1.5948275 0.5248839 0.019086484 0.0007135487
000230 b1 4b 33 bf 42 26 01 bf 46 e6 04 bf 6b 8a 48 3f
       -0.7003737 -0.50449 -0.5191387 0.7833621
000240 76 f7 09 bf 1c b2 ec 3b 39 8c 0a 3f 13 52 83 3f
       -0.5389322 0.0072233807 0.5412021 1.0259422
000250 d3 80 de be 60 c5 01 bd 08 c4 4f bd 8f bf 0c bf
       -0.4345766 -0.031682372 -0.05072406 -0.54979795
000260 53 88 31 3f 34 30 28 3d f3 21 53 3c 80 54 7b 3f
       0.6934864 0.041061595 0.012886512 0.9817581
000270 7d 42 12 bf 68 be 1f bf 27 ab 39 3d 2b 2f 6f bd
       -0.57132703 -0.6239991 0.04532924 -0.058394592
000280 23 6d a6 3d 7b 6a 14 bd 39 af 46 bc 38 e8 27 3d
       0.08126285 -0.03623436 -0.012126737 0.040992945
000290 5f e7 0a bf de a4 e1 bb 74 be 44 bd ff d9 d6 be
       -0.54259294 -0.006886109 -0.048033193 -0.41963193
0002a0 b1 74 88 3d 10 95 11 bf ed 2d b3 bd de 8d 37 3d
       0.06662882 -0.56868076 -0.08748994 0.04481303
0002b0 42 4a 05 bf be ce 39 3f ff 50 8c 3d ac 27 17 bf
       -0.52066433 0.7258109 0.06851386 -0.5904491
0002c0 76 bc 04 3f 2d 69 eb bd 19 24 cc bd 99 91 8a bd
       0.5185007 -0.1149467 -0.099678226 -0.06766052
0002d0 42 4d 58 bd 86 84 f0 be 28 13 28 3f cb 45 45 3d
       -0.052808054 -0.46976107 0.6565423 0.048162263
0002e0 90 b9 ad 3b 50 db 0b bf a8 6a 3d bf cd 5a 79 3f
       0.005301662 -0.5463152 -0.7399087 0.97404176
0002f0 81 cb bf bd 06 d3 be 3e b0 02 88 3d c2 b1 0b bf
       -0.09364987 0.37270373 0.066411376 -0.5456811
000300 57 9e 43 bd 82 63 80 be 16 a8 22 bf 27 42 f0 bb
       -0.047758427 -0.25075918 -0.6353773 -0.0073321047
000310 ac 77 3c bd 66 14 e9 3e 45 64 2a bf dd c3 64 bd
       -0.046012565 0.45523375 -0.6655925 -0.055850852
000320 c9 19 c1 bd b1 47 35 3f b1 d8 60 3d 82 2c 0c bc
       -0.09428746 0.7081252 0.054894153 -0.008555533
000330 a5 68 25 3c 5c a2 42 bd 7d d0 08 bf 7b 74 09 bf
       0.01009575 -0.04751812 -0.5344313 -0.5369336
000340 04 71 05 bf 80 34 5c 3d 7f 28 88 bd d7 1b 2b bf
       -0.52125573 0.053761005 -0.06648349 -0.66839355
000350 58 c8 6a bf 64 40 f8 bc dc 2d cd bc e2 28 70 bd
       -0.9171195 -0.030304141 -0.025046282 -0.05863274
000360 31 71 72 3f 30 50 45 bf 2d 5f 28 bf c7 a1 c8 3e
       0.94703966 -0.7707548 -0.65770227 0.39185926
000370 31 98 36 3d c3 1e 88 3b 38 86 ff 3c 2b 97 ab bc
       0.044578735 0.0041540577 0.03119193 -0.020946106
000380 84 a9 06 3f a8 4b 9c 3f ee 2a 2a 3f de 11 00 bf
       0.5260241 1.2210588 0.66471756 -0.50027263
000390 49 0b 2e bf 81 47 40 3d c8 ef 55 3d c6 ab 98 bd
       -0.6798597 0.04694319 0.052230626 -0.07454638
0003a0 5f db 04 bf d6 74 01 bf 9f ad c1 3d a0 6d 20 bf
       -0.51897234 -0.505689 0.09456944 -0.62667274
0003b0 61 27 1e bf 01 c9 f0 3f 17 09 ac bd 78 be 78 bd
       -0.6177884 1.8811342 -0.08400171 -0.06072852
0003c0 7a cb 2a 3d 9e 18 2d bd 8e f1 88 bf 5c c2 28 bf
       0.041697957 -0.042259805 -1.0698717 -0.6592157
0003d0 5c 41 1a 3f df fd 47 3f 26 af 12 3d 18 8a 33 bd
       0.6025598 0.7812175 0.035811566 -0.04383287
0003e0 00 bb 1c bf 8e ec c7 3d 1e 2a 8e bd 5c 4d 3d bf
       -0.6122284 0.09761916 -0.06941627 -0.73946166
0003f0 9d 49 59 3c 44 f4 ff 3c 48 59 7d 3f a7 7b 19 bf
       0.01326218 0.031244405 0.9896436 -0.59954304

fc4.bias f4 [7]
000000 40 f4 e1 3d 81 e5 7b 3e 70 37 10 bd 17 ab e4 bc
       0.11032915 0.24599268 -0.03520912 -0.027913613
000010 18 a9 69 3b d8 98 28 bd 08 b3 49 3e
       0.0035653766 -0.04116139 0.19697201
