models/lateral_stage1_seed789_final.pth (torch, 411443 bytes, 8 tensors)

fc1.weight f4 [256, 9]
000000 c3 eb 03 3e 1d e8 84 3e 5f bb 98 3e 60 4f af bd
       0.12882905 0.25958338 0.29830453 -0.085600615
000010 ae 21 89 be 63 3e 09 be 46 ea 6f 3e d2 0e 8b be
       -0.26783508 -0.13402705 0.23429212 -0.27159745
000020 49 c7 25 3e cd cf 66 bd 61 ba 15 be ae f0 a1 be
       0.16189303 -0.056350518 -0.14621879 -0.31628937
000030 d9 d0 7b 3e 80 e5 34 be f5 a2 cf bd 2d 73 99 3e
       0.24591388 -0.17665672 -0.101385035 0.29970685
000040 18 68 49 bd f5 01 93 bd ec bc 27 3e 4e f7 4e 3e
       -0.049171537 -0.07178108 0.16380662 0.20211527
000050 fa a0 2f 3d fe d5 19 be 64 1e 40 be 51 21 20 bf
       0.04287813 -0.15023038 -0.18761593 -0.62550837
000060 f0 87 d2 bc 60 eb 0b 3e 2c c1 21 be 1c ca e9 bd
       -0.025699586 0.13664007 -0.15796345 -0.114155024
000070 14 7f 30 3e 11 72 49 be 27 57 02 3f cd 72 70 3e
       0.17235976 -0.19672419 0.50914234 0.23481293
000080 09 50 35 be 08 7b 0a be d0 f3 e4 3c d5 1a 29 be
       -0.17706312 -0.13523495 0.02794829 -0.16514142
000090 8c a4 c4 bc 8c 02 8f be 6e d7 0a be 09 87 f4 3e
       -0.024004243 -0.2793163 -0.13558742 0.47759274
0000a0 dc c6 94 bd 84 9a 3c be 30 bc d8 bd 70 a8 08 3e
       -0.07264492 -0.18418318 -0.10582769 0.13345504
0000b0 36 4b 8b 3e 9a 53 71 3d 46 a8 84 bb f6 92 cd 3d
       0.2720582 0.05891762 -0.00404838 0.10037796
0000c0 13 02 17 be ee 03 83 3e 81 6d c8 3e 2a a5 7c 3e
       -0.14746885 0.25588936 0.39146045 0.2467238
0000d0 6e fb 80 be 91 3b 78 3b 9c 79 fb be f2 4d 05 be
       -0.25191826 0.0037877301 -0.49116218 -0.13018015
0000e0 e0 69 38 be 6e c6 26 3e e1 96 98 be d8 ec 3e be
       -0.18009138 0.16286632 -0.2980261 -0.18645036
0000f0 f6 41 15 be b2 ba 72 3e bc 16 bd 3e 43 9c 27 bf
       -0.14575943 0.23704031 0.36931407 -0.6547281
000100 c7 37 e0 bd 92 13 59 3e 60 e9 96 3d 63 51 93 be
       -0.10948139 0.21198872 0.073687315 -0.2877303
000110 f9 12 aa be 94 fb bd 3d 33 18 88 3e 76 e5 3a 3e
       -0.332176 0.092765 0.26580963 0.18251595
000120 4a 58 1f 3d 27 aa 24 be 43 f6 4d 3a 6c 44 ed bc
       0.03890256 -0.16080533 0.0007856825 -0.02896329
000130 c7 82 80 3d ef 30 08 3f 9b 64 86 3e 40 92 9c 3c
       0.06274944 0.53199667 0.2624863 0.019112706
000140 90 7d c1 bc f9 e3 85 3d 17 bf 10 3e 84 c3 30 be
       -0.023619443 0.06537623 0.14135395 -0.17262083
000150 e9 c2 b9 be 84 4c 29 bd 55 fb aa 3d a0 c8 30 3c
       -0.36281517 -0.041332737 0.08348719 0.01079002
000160 aa af 75 3e b8 1f 81 3d 9b 2f e4 be c3 4f 2a be
       0.23992792 0.06304878 -0.4456757 -0.16631989
000170 57 90 7f bd f2 5c ee 3d c9 70 75 be 11 16 6a 3e
       -0.062393513 0.11638822 -0.23968805 0.2285998
000180 c8 a2 2c be f2 9f 95 be b7 be b8 3c 7b 26 a1 be
       -0.16858971 -0.2922359 0.022551877 -0.3147467
000190 be 46 a9 3e 55 3a 9a 3e aa de f5 3c f3 3f cd bd
       0.33061785 0.3012263 0.030013401 -0.10021963
0001a0 1c 37 b3 be 56 74 59 3e 2c d5 b3 3d 1b 17 bb 3e
       -0.35002983 0.21235785 0.08780894 0.36541066
0001b0 24 2e 32 be 42 55 9c 3e f1 82 4e 3e b1 5c de 3e
       -0.17400414 0.30533797 0.20167138 0.43430093
0001c0 5e 5f 59 bd bb 20 82 be 14 8c f3 3d 9c 4a a3 3d
       -0.053069465 -0.25415596 0.11891952 0.07973215
0001d0 ec 6f b9 3e 69 78 72 3e 52 bd 90 3e f2 2b 51 3e
       0.36218202 0.23678745 0.2826944 0.2042692
0001e0 38 f8 d7 3d 18 6e b3 3c 0e 72 aa be a0 39 52 bc
       0.10545391 0.021903083 -0.33290142 -0.012831122
0001f0 30 37 07 3e 8e d3 ba be 03 13 bd 3e a8 e8 52 be
       0.13204646 -0.36489528 0.36928567 -0.20596564
000200 c3 ad 83 3e 75 37 c7 be fa 4b 6c be e4 1d e1 3e
       0.25718507 -0.38909498 -0.23075858 0.43968117
000210 93 2c 35 be 83 13 8c 3e f9 32 80 be a4 dc bd be
       -0.17692785 0.27358636 -0.2503889 -0.37082398
000220 db 78 46 bd 72 07 bf be 0c 6e ac bd 29 5c 3a 3e
       -0.0484551 -0.37310368 -0.08419427 0.18199219
000230 10 09 99 3e 86 08 be bd 80 e2 92 3d 11 45 58 3e
       0.29889727 -0.092789695 0.07172108 0.21120097
000240 bc f3 c8 bd 48 8a 77 be d9 bb a7 bc 4e 3a 23 be
       -0.09812114 -0.24173844 -0.020475315 -0.1594021
000250 21 a3 61 be b5 66 97 be 30 fd eb bc fa fd 1c 3e
       -0.22034885 -0.29570547 -0.028807253 0.1533126
000260 7c 1c 48 bd 17 30 83 bd af bc 6f 3e a5 7d 9d 3d
       -0.04885529 -0.06405657 0.23411821 0.076899804
000270 78 d9 03 be b4 4c 21 3d ad db 98 3d b8 c1 19 bd
       -0.12875926 0.03937979 0.07463775 -0.03753826
000280 3e 34 44 be 5b 8b 21 be 59 c7 01 bf ae e8 8e be
       -0.19160554 -0.15775816 -0.50694805 -0.27911896
000290 ab e4 f3 bd 38 fc fc 3e 9c 7e b8 3e 17 89 36 be
       -0.11908849 0.49411178 0.36034095 -0.17825733
0002a0 44 70 9f be e2 f6 5a 3e 6c 9a b6 3d 98 97 25 be
       -0.3114034 0.21383241 0.089161724 -0.1617111
0002b0 ad e0 fa 3d f1 89 76 3d 91 9a bb be b6 f0 6d be
       0.12249885 0.060190145 -0.36641362 -0.23236355
0002c0 24 24 25 bf e0 ad 3c bc ac ca 9b bd 4b 98 85 3e
       -0.6450827 -0.011516064 -0.07607016 0.26092753
0002d0 48 d7 97 3d 46 90 3d 3e 1f 97 4e be 6c 02 06 bf
       0.074141085 0.18512067 -0.20174836 -0.52347445
0002e0 2a b0 b1 be df 44 08 be 34 24 f7 3d ce 26 57 3e
       -0.34704715 -0.13307522 0.12067452 0.21010897
0002f0 1e 88 03 be d4 45 dc 3e 93 9b 66 be c7 b9 83 3e
       -0.12844893 0.43022025 -0.22520284 0.25727674
000300 3b 4a d5 bd e8 6a 82 3e 1e 5a 01 3f 88 07 14 3e
       -0.10414549 0.25472188 0.5052813 0.14455998
000310 d0 30 d0 bd a5 7a 0c be 33 4b 12 be da 49 dc bb
       -0.1016556 -0.1371866 -0.14286499 -0.006722671
000320 4a df 8c be 43 ce a9 be ac 47 64 be d1 2f 0e bf
       -0.27514106 -0.33165178 -0.22292966 -0.5554171
000330 04 16 8a 3d 90 92 96 3d 8d 08 26 3d de 9a 7b bc
       0.067424804 0.07352173 0.0405355 -0.015356747
000340 dc 94 51 be cc c5 81 be e6 11 7e be 5e b3 5b bb
       -0.20466942 -0.2534622 -0.24811515 -0.003352366
000350 92 ca 73 bd 00 6c 51 be 12 1a 14 3e 80 11 18 3c
       -0.059519358 -0.20451355 0.1446307 0.009281516
000360 5b b0 a8 be a8 8b 94 be e6 84 62 3e 59 c7 fe 3d
       -0.3294705 -0.290128 0.22121009 0.12440366
000370 06 b4 8d be ea 87 d1 be 60 06 4e 3c 62 33 7e 3e
       -0.2767641 -0.40924007 0.012574762 0.24824288
000380 94 5b 4e 3e 0d ce ac 3e a5 0e b1 3e 87 5f 81 be
       0.20152122 0.33750954 0.34581485 -0.25268194
000390 c7 a4 15 be 6f 39 aa be 98 2a 4f 3c 38 9e 8b be
       -0.14613639 -0.33246943 0.0126444325 -0.2726915
0003a0 ea c6 00 3e 99 59 b2 be ae da 34 3e 91 ba b9 bd
       0.1257588 -0.34833983 0.17661545 -0.09068788
0003b0 66 1f 8e 3e 22 4e a4 be 59 22 94 3e 7e fe 3d bf
       0.2775833 -0.3209086 0.28932455 -0.7421645
0003c0 54 c9 fc 3d 81 ec 89 3e ff 6c 86 be d5 4f b0 3e
       0.12343088 0.2693825 -0.26255032 0.34435907
0003d0 d8 69 0f 3d 3c fd c8 bd 86 9c 17 be af d2 34 be
       0.03501305 -0.098139256 -0.14805803 -0.17658494
0003e0 f0 6e 04 bf 62 95 93 be 87 43 8e 3e a3 2f 9e bc
       -0.5173178 -0.28824908 0.27785894 -0.019309824
0003f0 cd 90 04 bf 3a 01 bf 3d b7 a7 56 3e f2 90 ed 3d
       -0.5178345 0.09326406 0.20962416 0.11599912

fc1.bias f4 [256]
000000 2f 22 2b 3d b7 be 7a 3e 75 49 83 3e 65 91 03 3e
       0.041780647 0.24486814 0.2564198 0.12848432
000010 e3 ef 98 3e d7 db bd bc c4 4d e4 bd 0c d7 d3 be
       0.2987052 -0.023176117 -0.11147645 -0.41375005
000020 fb 88 e1 3e b4 c2 8e 3e 5a 4a 9f be 69 08 9a be
       0.4404982 0.27882922 -0.31111413 -0.3008454
000030 c3 4f 1c be 79 8b 5d 3e 73 c2 5d bc eb 30 30 bb
       -0.15264802 0.21635236 -0.01353513 -0.0026884626
000040 d5 51 12 be 09 a1 46 3e 95 90 a8 3e e2 31 a8 3e
       -0.14289029 0.19397368 0.32922807 0.32850558
000050 43 b3 c1 bd 89 8e 6b be 0f 32 20 3e 44 87 9e 3e
       -0.094580196 -0.23003592 0.15644096 0.30962574
000060 2f d1 49 be fa 2e 38 be 60 5d bd 3d 89 00 2c be
       -0.19708703 -0.1798667 0.092463255 -0.16797079
000070 25 f8 c1 3d a9 7a 8b be 40 f4 69 bc 29 77 bd be
       0.09471158 -0.2724202 -0.014279425 -0.37004974
000080 b4 0d f4 3d cd 94 9e be 86 f5 c7 bd c3 ee 39 be
       0.11916676 -0.309729 -0.09763627 -0.18157487
000090 d1 2c 57 be a0 fa 98 be 3f e6 7d bd 31 ba 17 3c
       -0.2101319 -0.29878712 -0.061987158 0.0092607
0000a0 c5 8c 18 bd 4c 45 49 3c cd 57 54 3e 65 d8 ab be
       -0.037243623 0.012284588 0.20736618 -0.33563533
0000b0 ed 01 0f 3e b1 dc 94 3b da 26 0d 3d 33 ea c0 be
       0.13965578 0.00454291 0.03446088 -0.3767868
0000c0 51 cd d9 bc ac 8f 7e 3e 66 78 cc bd 6a 41 35 3e
       -0.02658716 0.24859494 -0.09983902 0.17700735
0000d0 61 c5 cd 3d 75 58 b9 3d 5d ef 85 3e 04 e1 a2 3e
       0.10047413 0.09050075 0.26159182 0.31812298
0000e0 95 66 21 be 00 bc 59 3e 3c ac a6 3e c7 e8 45 3e
       -0.15761788 0.21263123 0.3255328 0.19327079
0000f0 64 e1 4a 3e 9b c7 a0 3d 80 e0 96 3e 81 2a 1a 3d
       0.19812542 0.07850572 0.29468155 0.03763819
000100 50 49 28 be 06 85 d3 3e 40 90 60 3d 92 79 96 be
       -0.16434216 0.41312426 0.054825068 -0.29389626
000110 b5 14 26 3d 81 92 c7 3d 30 b2 53 bd 50 15 74 be
       0.04054709 0.0974474 -0.051683605 -0.23836255
000120 98 03 34 3e 2b 8a 8d 3e 53 a7 11 3e 0a e8 84 be
       0.17579496 0.27644476 0.14223985 -0.25958282
000130 5b 9a 70 3b b6 2c 8e be 91 fb 3e 3e 24 b0 d7 3b
       0.0036713097 -0.27768487 0.18650652 0.006582277
000140 0a 79 79 be 92 19 8e be 07 eb 4c 3c dd 58 a7 3e
       -0.24362579 -0.27753884 0.012507207 0.32684985
000150 f4 f1 a1 bc db 06 b7 3c 61 d7 cb 3d 45 a6 a0 3d
       -0.019768693 0.022342136 0.0995319 0.078442134
000160 11 90 12 3e e2 34 4e be 16 ec ae be 5b 2d 1b 3e
       0.1431277 -0.2013736 -0.34164494 0.1515402
000170 ab 63 eb 3d 23 0f c6 bd ec e6 3f 3e d0 67 25 3e
       0.114936195 -0.09670856 0.18740433 0.16152883
000180 16 42 3c 3d 29 69 43 bd 58 cd 9e bd cc fc 22 bd
       0.045961462 -0.04770771 -0.0775401 -0.039791867
000190 c8 4f 3b 3e 61 96 95 be 55 2c a9 3d 47 d1 b3 3e
       0.18292153 -0.29216293 0.08260409 0.35120603
0001a0 ce 33 5e 3d db 3d a6 be 3b f8 b7 3e a2 c2 0f be
       0.054248624 -0.32469067 0.35931572 -0.1403909
0001b0 3c 77 c4 3d 15 51 56 be 3b 98 d3 3e 1d f0 c0 3e
       0.09593055 -0.20929368 0.4132708 0.37683192
0001c0 9b 42 a0 3e 12 42 79 3e 06 9d 01 be f3 b8 9f be
       0.31300816 0.2434161 -0.12657556 -0.31195793
0001d0 58 fc 90 3e 0d 09 7f be 30 2f 2d 3d 04 fb 9e be
       0.28317523 -0.24905796 0.04228133 -0.31050885
0001e0 b0 50 30 be 84 02 81 3d 34 9a 8d be 0d 8a f6 bd
       -0.1721828 0.06299308 -0.2765671 -0.1203805
0001f0 fe 9b 86 3e c3 b4 aa bc 06 5e 88 bd d6 6a d3 bd
       0.26290888 -0.020838147 -0.066585585 -0.10323112
000200 58 e0 23 be c3 d7 5b be 9e e0 26 be 85 78 be 3d
       -0.16003549 -0.21469025 -0.16296622 0.09300331
000210 23 a9 d9 bd 94 72 a9 3e 3e 88 eb bd f5 44 e1 3d
       -0.106279634 0.3309523 -0.115005955 0.10999481
000220 91 2c a0 be 8b a0 d8 bd 53 e8 a4 3d 4d 40 f4 3c
       -0.31284 -0.10577496 0.08052125 0.029815817
000230 ae e3 85 3e 00 0c 67 be ec 5b 0b 3e 77 3f 54 3e
       0.26150268 -0.22563171 0.13609284 0.20727335
000240 3a a7 34 3d 59 a7 9a 3e 89 62 b9 bd 1d e0 40 be
       0.044104792 0.302058 -0.09051997 -0.18835492
000250 6a a6 6d be b2 a5 84 be 2a 39 ab be 85 bb 2b 3e
       -0.23208013 -0.25907665 -0.3344205 0.16770752
000260 cc 2b 95 3d de 61 b3 3e 0b e5 60 bc ba f0 0c 3e
       0.07283744 0.35035604 -0.013726483 0.13763705
000270 ed 3b 5e 3e 96 c9 4b bd 62 b0 c5 3e d8 43 5f 3e
       0.21702547 -0.049752794 0.38611132 0.21803224
000280 9e 26 8e be 04 bf 21 be 6b 8d 94 3c 4c e2 9f be
       -0.27763838 -0.15795523 0.01813384 -0.31227338
000290 21 f0 4d be 2e 20 83 bd 7e fb 9b 3d 84 c9 42 be
       -0.20111133 -0.06402622 0.07616328 -0.19022185
0002a0 27 ba eb 3d 03 c9 b7 be 18 d9 08 be ef 1a 2b be
       0.11510115 -0.35895547 -0.13364065 -0.16709493
0002b0 80 ad 91 be a5 e7 80 3b ca a6 35 3e 6b 4f 1e 3e
       -0.28452682 0.003933864 0.17739406 0.15459983
0002c0 dd 78 02 be b1 4a c5 3d 7f 73 2a be 21 88 7b be
       -0.12741418 0.09633387 -0.16645621 -0.24563648
0002d0 ae cb 67 3e f4 ca 44 3e a1 2d 8b be 1c 28 ed 3c
       0.22636291 0.19218045 -0.2718325 0.02894979
0002e0 f6 b4 01 be 9e aa a2 be 8c ea fb 3b e1 6d 16 3e
       -0.12666687 -0.31770796 0.0076878723 0.14690353
0002f0 82 95 35 3e 65 49 ba 3e b5 a7 41 3e dc f1 ff bc
       0.17732814 0.3638412 0.18911631 -0.031243257
000300 5d a0 38 3e cf bb 92 3e 25 2c 3b be 2c 7b 35 be
       0.18029924 0.28658912 -0.18278559 -0.17722768
000310 c4 8a a0 3e 78 74 42 3e 3a 07 72 3e ef 8f 9a be
       0.3135587 0.18989742 0.23635569 -0.30187938
000320 41 b6 9e be 10 a9 9f 3e 43 92 69 3e 61 c4 90 3e
       -0.30998424 0.31183672 0.228097 0.28274825
000330 40 ae 1b 3c a1 81 ca bc d3 35 28 be f7 e3 36 bd
       0.009501994 -0.024720015 -0.16426782 -0.044650998
000340 ef 5f c9 3d 9b 35 b6 bd 8d a9 8c 3d 11 d9 65 be
       0.09832751 -0.08896943 0.06868277 -0.22446086
000350 8f df 50 3e cc e2 90 3e c8 dd 46 be 80 3c 17 3e
       0.20397781 0.28298032 -0.1942054 0.14769173
000360 93 eb 2a 3e b4 4f 55 3e 9d ef 95 be 94 50 f0 bd
       0.16691427 0.20831186 -0.29284373 -0.11734119
000370 3b d4 ad 3e cd ba 9b be 0f 0e 9b 3e 4a e4 8c be
       0.33950981 -0.30415955 0.30284163 -0.2751792
000380 cb 12 1f be d5 28 5f 3d 1f 69 2c be 2c fa ba be
       -0.15534513 0.0544823 -0.16836976 -0.3651899
000390 bc 7b 87 bd 7b a7 c5 3d 0e b6 c1 3d 70 7b b5 bc
       -0.06615397 0.09651085 0.09458552 -0.022153586
0003a0 68 08 3d 3d 91 8d 3c 3e c6 04 79 be f6 13 c9 be
       0.046150595 0.18413378 -0.24318227 -0.3927304
0003b0 ee 76 8b be 18 5c 7d be 7a 9d bf 3e e8 b5 ac bc
       -0.27239174 -0.24742162 0.37424833 -0.021082833
0003c0 23 6e b8 3d d2 bb 93 3d b0 1b 59 3e 0b 3e b6 3b
       0.09005382 0.07213558 0.21201968 0.0055615953
0003d0 9f bf 46 3c c8 8d 44 3e b0 6d ed 3d 7c bd 5d 3c
       0.012130647 0.1919471 0.11593187 0.013533946
0003e0 88 8e 59 3e bf 0a 98 be 58 dc 8d 3e ea d5 4f 3e
       0.21245778 -0.296957 0.2770717 0.20296445
0003f0 cc 9a 5e bd 3b 75 db bb 29 bd 3e 3e eb 95 95 be
       -0.054346845 -0.0066973246 0.18626846 -0.2921594

fc2.weight f4 [256, 256]
000000 91 53 38 bd d6 d3 56 3d 5d 4b c8 bc de 59 17 3b
       -0.04500157 0.052448116 -0.024449999 0.0023094337
000010 90 e5 aa bb 11 07 02 3d 9a e3 97 3c 5d c1 59 bd
       -0.0052153543 0.03174502 0.018541146 -0.05316292
000020 08 7a 7f 3c 7b 2f 2c 3d 90 90 71 3a 70 1c 32 bd
       0.015593059 0.04203747 0.0009214962 -0.04348415
000030 3e cf 20 bd 33 cb 83 bd 26 9e a9 bb 10 52 c3 3c
       -0.03926014 -0.064352416 -0.0051763235 0.023842841
000040 25 0d 4a bd 73 d5 75 bd f8 91 30 3c 4c 65 53 3d
       -0.04932894 -0.060018014 0.010776989 0.051610276
000050 59 6d 1d 3d 34 9d 6c 3d 56 89 31 bd 82 37 58 bd
       0.03843436 0.057767108 -0.043343864 -0.05278731
000060 d3 bb 70 bd fb e3 a9 3c 90 24 2d 3d 70 c5 59 bd
       -0.058772873 0.020738592 0.042271197 -0.053166807
000070 b8 0a c0 bc 58 4e 25 3c 0c 3b 26 3d a2 8e 13 bd
       -0.023442611 0.010089479 0.040583655 -0.036024697
000080 26 4d 3b bd 7c 5b 5d bd 10 3d b3 bc 94 da 0b bd
       -0.04572787 -0.054042324 -0.021879703 -0.034144
000090 d5 4a 6d bd 57 69 71 3d 0e 30 55 bd 5b 00 28 bd
       -0.057932694 0.05893835 -0.05204778 -0.041015964
0000a0 6b 53 d4 bc 1f 05 76 3d ae d7 0f 3d da c3 81 bc
       -0.025918683 0.060063478 0.035117798 -0.01584046
0000b0 89 0f 6b 3c 49 31 60 3d dc 73 07 3d e7 31 86 bd
       0.014346966 0.054734502 0.033069476 -0.06552487
0000c0 62 08 0f 3d f5 3c ce bd e4 ae a4 bc 8a f0 15 bc
       0.034920104 -0.100702204 -0.020102926 -0.009151587
0000d0 4c 99 a6 3c 2b b8 0d bd 32 08 69 bd bc 69 59 bd
       0.02033677 -0.034599464 -0.05689258 -0.05307935
0000e0 de e5 79 bc 53 22 21 bd 8b f4 87 bd 60 64 8b 3c
       -0.0152525585 -0.039339375 -0.0663844 0.017015636
0000f0 ac d0 cd bc 8c 6e 68 bd 85 2d 9f bc 20 fd 0f 3c
       -0.025123917 -0.05674605 -0.019430885 0.008788377
000100 b4 ad c6 bc aa d6 46 3d 7b e5 2f bc 21 c3 e8 bc
       -0.02425275 0.048544563 -0.010735865 -0.028413357
000110 57 b2 83 bd 4e 55 2f bb d3 7e 92 bc b3 51 b7 bc
       -0.064305 -0.0026753726 -0.01788274 -0.022377824
000120 0e 4d 53 bd 11 71 25 bc 0c 60 d3 bb 31 c4 56 bd
       -0.051587157 -0.010097758 -0.0064506587 -0.052433196
000130 87 51 61 3c ae 54 47 3d aa 60 3c bd e2 c5 f5 bc
       0.013752348 0.04866474 -0.045990624 -0.030001584
000140 1a 9a 12 3d f0 9e f0 3b 38 3a ef bc e1 29 21 3d
       0.035791494 0.0073431656 -0.029202566 0.03934658
000150 36 ae 87 bd 9d ac 67 3d 97 bf 01 bd 33 7c 33 bd
       -0.06625025 0.0565611 -0.031676855 -0.043819617
000160 23 b0 61 bc f6 f8 93 3c e5 99 a5 3b bd 1d ac bc
       -0.013774904 0.01806305 0.005053746 -0.021010274
000170 0b 0e 29 3c 33 d1 10 3c 80 27 f8 3a 17 33 7f 3b
       0.0103182895 0.0088389395 0.001893267 0.0038940364
000180 56 34 95 bb 9d 6d bb 3c 22 27 7c 3c 36 e6 10 bc
       -0.004553358 0.022879416 0.015390189 -0.008843949
000190 7e 09 e9 bc ab b6 ce bc d2 fa 8b bb b1 74 06 bc
       -0.028446909 -0.025233587 -0.0042718435 -0.008206532
0001a0 b4 8c 80 bd bb 9d 2f bd 7f fa ca bc 70 0b 19 3d
       -0.06276837 -0.042875033 -0.024777649 0.037364423
0001b0 cc a7 8b 3d d2 51 4d 3d 0e d7 74 bd 90 c1 86 bc
       0.06819114 0.050126858 -0.059775405 -0.01644972
0001c0 46 3c f6 3a 46 e1 34 bc 7e 23 f8 bc bd 13 30 bc
       0.0018786273 -0.0110400375 -0.030290361 -0.0107468935
0001d0 9e b5 69 bd 2f fe 58 3d 41 b7 57 bd 4d 73 a6 bc
       -0.05705797 0.052976783 -0.052665 -0.020318652
0001e0 7a d1 ba 3c da a8 44 3c 4c 73 18 3b a9 bb 0b 3c
       0.022804964 0.012003148 0.0023262082 0.008528628
0001f0 a7 db 64 3c 21 f2 7b bc 0c ad 7c 3d e8 fc 2e 3c
       0.013968385 -0.015377552 0.061688468 0.010680415
000200 a2 bd 67 bd 1b 93 05 bd 2b 9c 37 3c b8 be 6d ba
       -0.056577332 -0.032610994 0.011206667 -0.0009069252
000210 43 79 06 bd f8 7b 49 bd 2d 30 f1 bc 15 b4 71 bc
       -0.032830488 -0.04919049 -0.029441917 -0.014752408
000220 01 30 08 bd b3 b3 63 3d b4 cf 78 bd 74 65 02 3a
       -0.033248905 0.055591296 -0.060744956 0.0004974224
000230 1b d5 81 3b 20 9b 77 3d 93 fe 3c 3c b5 21 04 3b
       0.0039621717 0.060450673 0.011535305 0.0020161693
000240 e6 fd b8 bc f6 7a fb 3c 82 d5 70 3b 75 3f 39 3c
       -0.022582006 0.03069828 0.0036748354 0.011306633
000250 6a 8f 1a ba fa bd 5f bb ab 05 a0 3d 8f 0c 89 bc
       -0.0005896004 -0.0034140334 0.07813581 -0.016729621
000260 02 30 0b bc 63 57 3b 3c b1 56 58 3c 41 62 82 3d
       -0.008495333 0.011434409 0.013204263 0.06366397
000270 b9 3a 38 bd 45 91 22 3b de 44 c2 bc 2a 16 8d 3c
       -0.044977877 0.0024805826 -0.023714479 0.017222483
000280 1c c2 7f bb 2f 14 bb bb 5d 37 47 bd 40 b2 33 bd
       -0.003902561 -0.005709193 -0.048636783 -0.043871164
000290 d4 55 13 3d c1 eb 3d 3d ba b7 22 3d eb 93 d7 bc
       0.035970524 0.04636741 0.039725997 -0.02631565
0002a0 46 87 43 bd 4e db 84 3d 04 0a 0b bc c9 0e 16 3d
       -0.04773643 0.064871415 -0.008486275 0.036635194
0002b0 ec 41 34 3d fa 1e 13 3d 66 ab f1 bb d8 ac 90 bc
       0.04400818 0.035918213 -0.0073751686 -0.017660543
0002c0 12 c5 fc 3c 59 3e a6 3a b3 d0 d1 bc 67 0e 90 bb
       0.03085569 0.0012683376 -0.02561221 -0.004396248
0002d0 1a 3f 54 bd 8b a2 3c 3d 5c 8d b0 3d 0b 97 20 bd
       -0.05181799 0.04605345 0.08620712 -0.039206546
0002e0 1d 6a 14 bc 1a 2c 84 3d c5 13 d4 bc b4 85 22 3d
       -0.0090585025 0.06453724 -0.025888333 0.03967829
0002f0 a2 51 80 3d 84 c6 e3 bc a3 7a 0b 39 71 90 05 bd
       0.0626557 -0.02780462 0.00013301759 -0.032608453
000300 63 4b 45 bd 86 e7 d2 3c eb 32 32 3d a8 9c 2e bd
       -0.048167598 0.025745165 0.04350559 -0.042629868
000310 98 09 bd 3d a6 d1 dc bc 38 d2 07 3d 64 c6 7f bd
       0.092303455 -0.026955437 0.033159465 -0.06244506
000320 f0 8a 7e 3c a3 ad 89 bd 23 e7 c3 bc 50 9f da 3c
       0.015536055 -0.06722572 -0.023913926 0.026687294
000330 4e e2 2c 3d 45 d8 68 bd 3b ed 2a 3d ac ad a7 3c
       0.04220801 -0.056846876 0.041730147 0.020468555
000340 f3 7e 3e 3d ae 07 ff 3c 07 ae 0a 3d 78 e9 6a 3c
       0.046507787 0.031131592 0.03385737 0.01433789
000350 a1 c9 a7 bb 51 c2 3f bc ee 85 81 3d 47 fb 6a 3d
       -0.0051204716 -0.0117040435 0.06324373 0.057368543
000360 c6 21 18 bd 7c f6 01 3d 87 2c 18 3d bb f9 a5 3b
       -0.037141584 0.031729206 0.03715184 0.0050651706
000370 33 0c 00 3b ff ef 05 bd aa fd 39 3d a4 58 62 bd
       0.0019538521 -0.03269958 0.04540793 -0.055260316
000380 09 65 5e 3d 38 ae 46 3d a3 0e 9b 3d d8 0b c7 b9
       0.054295573 0.04850599 0.07571151 -0.00037965062
000390 c8 00 15 3d fc 8c 48 3c ff dc f6 bb 9c ca 5a bd
       0.0363777 0.012240645 -0.007533669 -0.05341588
0003a0 30 c9 01 bc 04 e8 c5 3a 8e eb 09 3d 80 44 ee ba
       -0.007921502 0.0015099053 0.033671908 -0.0018178374
0003b0 de 0b 39 bd ae 0b 75 bd f3 eb bd 3c 6b 46 a6 3b
       -0.045177333 -0.05982559 0.023183798 0.0050743124
0003c0 dd fc 02 3d 59 f7 0e 3d 12 18 86 bd 0a 50 c5 3d
       0.03197943 0.034903858 -0.0654756 0.09634407
0003d0 3a 9f 4c bd ff a5 bc bc a7 1c 44 bd 22 da 64 bd
       -0.049956538 -0.023028372 -0.047878888 -0.05587209
0003e0 95 07 29 ba ef a4 60 bd cb b6 43 bd ec b5 f5 3a
       -0.0006447968 -0.054844793 -0.047781747 0.0018746234
0003f0 37 f5 9b 3c e4 8c 53 bc b4 41 34 bd c6 5d 49 bd
       0.019037826 -0.012912009 -0.044007972 -0.049161695

fc2.bias f4 [256]
000000 4b 64 69 3c 9f bc 5a 3d 80 ef 8e 3d e7 06 1e bd
       0.014245103 0.05340254 0.06979275 -0.0385808
000010 56 73 b0 3c 33 61 59 bd 5a 15 42 bb c6 60 2f bb
       0.021539371 -0.053071212 -0.0029614777 -0.0026760562
000020 6f 54 d5 3d 85 74 03 3d b0 b1 0e 3c 9b e9 3c bb
       0.10416495 0.032093544 0.008709356 -0.0028825763
000030 62 43 39 bd 44 84 3d 3d d4 bf 55 3d 66 13 3c 3d
       -0.045230277 0.046268716 0.052184895 0.045916937
000040 f5 03 73 3d 88 70 40 3d fe 32 43 3c c9 1e 6f 3d
       0.059329946 0.04698232 0.011914013 0.05837897
000050 29 65 86 bd 9a d7 0f 3d 25 38 7f bc 48 08 1d bd
       -0.065622635 0.035117723 -0.015577351 -0.038337976
000060 7d 69 01 3c 7d ad 1f 3d 73 9c c9 3d 59 56 bd bc
       0.0078986855 0.03898381 0.098442934 -0.023112463
000070 21 70 38 3d 43 11 16 3c 88 e6 65 bd ab fd e9 3c
       0.04502881 0.009159389 -0.056128055 0.028563341
000080 e1 36 97 3b c7 fd 4c bd 22 c7 d8 3b b7 d3 bb 3d
       0.0046146964 -0.05004671 0.0066155354 0.09171241
000090 f2 29 59 3b f5 f8 c4 3c 62 ef 86 bc 79 c2 e1 3c
       0.0033136574 0.024044493 -0.016471568 0.027558552
0000a0 26 4f 1f bd c1 1c 09 3e df e9 83 bd 23 bd ed bc
       -0.03889384 0.13389875 -0.06441092 -0.029020851
0000b0 ec d4 26 3d 48 d8 55 bd ae 11 11 bd 75 92 7c bc
       0.040730402 -0.052208215 -0.03541725 -0.015415777
0000c0 c6 c3 65 bd 8b 5f e0 3c 51 81 e7 bc 5a db 2f bd
       -0.056094907 0.027389308 -0.028259905 -0.0429338
0000d0 18 e9 2f bb 32 2a 1b 3d 6e 2b 5e bd 08 d0 2b bd
       -0.0026841816 0.037882037 -0.054240637 -0.04194644
0000e0 f2 ab 9d ba 74 80 26 bd 66 e7 07 be 20 36 1e 3b
       -0.0012029393 -0.040649846 -0.13271865 0.0024141148
0000f0 0b bf 09 3d 3c 1d 73 bc 2c f4 7b 3d 5a 84 1e bc
       0.03362946 -0.014838513 0.061512157 -0.00967511
000100 7c 57 83 bc aa 0c 01 bd 2b 7d b3 3c 92 cd 26 3d
       -0.016032927 -0.031506218 0.02191027 0.04072339
000110 31 e0 03 be 1e 5c 4d bd e5 6a 9e bc ad 9e ed 3c
       -0.12878491 -0.050136678 -0.01933808 0.029006327
000120 5c 76 8c b8 d5 34 15 bc 70 35 90 3c aa 61 08 bd
       -6.6977664e-05 -0.009106834 0.017603606 -0.033296265
000130 35 67 4c bb ba 8a 2a 3c ed 98 5f bd e7 be a7 bd
       -0.0031189446 0.010409052 -0.0545892 -0.081907086
000140 21 cd 79 3c cf 41 8c 3d bf 4a a3 bc e0 21 84 bd
       0.01524666 0.068484895 -0.019933103 -0.06451774
000150 01 bb e8 bc b0 fe b9 3c 32 d2 ce 3d cf d3 47 3c
       -0.028409483 0.022704452 0.10098685 0.012196495
000160 61 09 74 3c 3c 0f 15 3e 89 00 a3 bd cc 7b d6 bc
       0.014894814 0.14556593 -0.079590864 -0.026182078
000170 8c 20 1a bd c3 ed c0 3c be c2 9b bc 5d ad 94 bd
       -0.037628695 0.023550874 -0.019013759 -0.07259629
000180 93 a2 07 bb ca bc ff bc 62 8c 9d 3c 22 8e 27 bc
       -0.0020696267 -0.031217951 0.019231979 -0.010226758
000190 dc 97 45 bd 14 d9 c1 3c 95 d4 3a 3b 60 1a 43 3d
       -0.048240528 0.023663081 0.0028508056 0.047632575
0001a0 00 30 ec 3c e6 42 41 ba 8d d8 8b bd 52 dc 37 3d
       0.028831482 -0.00073723344 -0.06828413 0.04488785
0001b0 44 f6 bc bd 91 03 10 3d c6 66 14 be 1e cd 75 bd
       -0.09226659 0.03515965 -0.1449233 -0.060010068
0001c0 44 43 3b ba 80 8c c8 bd 1d 15 27 3d 9e 15 54 bc
       -0.0007143507 -0.09792423 0.04079162 -0.012944607
0001d0 fb 51 c7 bd 62 d5 be 3d dd dc 29 bd 4b 78 52 bc
       -0.097324334 0.09318043 -0.041470397 -0.012846063
0001e0 65 be f6 3c 8a 32 9c bd ae ad 99 bd 46 57 24 3b
       0.030120084 -0.07626827 -0.0750383 0.0025076433
0001f0 67 5b 73 bd 68 ba 6b 3c 37 52 ba bd d8 34 92 bd
       -0.05941334 0.014387704 -0.090977125 -0.071389854
000200 32 97 74 bd f7 ec d2 bb 60 f5 15 bc 99 08 b9 b9
       -0.059714504 -0.00643694 -0.00915274 -0.00035292355
000210 1b 32 00 3d 0d 15 81 bd c9 5e 44 3c 50 9d ac bc
       0.031297784 -0.06302843 0.011985489 -0.021071106
000220 a2 ce 86 3d 0e 9e 15 bd 1f 2e b9 bc d8 ae 7b bb
       0.06582381 -0.036527686 -0.022605 -0.0038403776
000230 c8 b4 a0 bc a7 36 cd bc ea 53 8f bc 46 1e ab bc
       -0.019617453 -0.025050474 -0.017496068 -0.020888459
000240 42 87 6f bd 64 24 c5 3d cc 11 07 bd 15 10 27 bc
       -0.0584786 0.096260816 -0.032975957 -0.010196705
000250 42 c3 f4 bc 64 16 94 bd 62 a4 34 3e 23 93 4a bd
       -0.029878262 -0.07230833 0.17640832 -0.049456727
000260 67 49 7c 3d 51 5c b3 3b fe b7 11 bc cf e9 14 bd
       0.06159344 0.0054736515 -0.008893965 -0.03635579
000270 8e 95 c0 bb 7e cc 20 bc 98 51 29 3c 15 ff da bc
       -0.0058772033 -0.00981438 0.010334395 -0.02673296
000280 71 89 75 3d 50 06 c5 bb 61 84 be bd 5b 4d a2 bb
       0.059945527 -0.0060127154 -0.09302593 -0.004953069
000290 fe 8e 08 be 63 ff 11 bc 66 e6 0b bd b5 68 3a 3d
       -0.13335797 -0.008910987 -0.034155272 0.045510013
0002a0 19 17 ba 3d 92 d9 56 3d 18 ac 89 bd b0 ed fa 3b
       0.09086437 0.052453585 -0.067222774 0.007657729
0002b0 06 cc dc bd fc ba 1d bd bf 30 fe 3d a7 ab 81 bd
       -0.10781102 -0.0385084 0.12411641 -0.06331568
0002c0 f7 5c 86 bd 76 50 9a 3d 86 7b 53 3d ed cb 65 3d
       -0.065607004 0.07534878 0.051631473 0.056102682
0002d0 04 d8 0a 3e 50 5f c7 bb aa 2d 89 bd 17 31 09 3d
       0.13558966 -0.00608436 -0.06698163 0.03349408
0002e0 72 7e 46 3d 3b f9 b6 3d d0 3a f2 3c 2a 79 13 bd
       0.04846043 0.08934256 0.02956906 -0.036004223
0002f0 56 0c 9a bb c4 b7 82 bb 25 75 5a 3d 0d 75 32 bd
       -0.0047011776 -0.0039891917 0.053334374 -0.04356866
000300 59 bd 3f bd f1 7f 75 bb 5b 8a 97 3d 75 0f 21 3d
       -0.046811435 -0.0037460292 0.07399436 0.03932138
000310 72 f4 23 bd ae 87 c4 bc 79 2b 60 3c 58 8c 15 bd
       -0.040028043 -0.023990478 0.01368224 -0.036510795
000320 95 c8 ab 3a 25 92 50 bd da 39 0d bd 40 97 f2 3c
       0.0013106043 -0.050920624 -0.034479 0.029613137
000330 49 21 13 bd 36 66 a9 3c 73 1a f3 bb b5 f1 89 bd
       -0.035920415 0.02067862 -0.0074189245 -0.06735555
000340 07 a2 77 bc a8 83 1a 3c 76 d3 16 bd 69 cb c1 3c
       -0.015114314 0.009430803 -0.03682276 0.023656564
000350 4a 7c b8 3c 4d 14 c9 3c 95 81 67 bd cb e2 df 3c
       0.022520203 0.024545813 -0.056520063 0.027329823
000360 6e 37 97 3d 2d 08 10 3d e9 3b ef 3d c2 7c f5 3b
       0.07383619 0.035164047 0.11681349 0.007491679
000370 94 00 76 3d 01 7e 25 bc 3b ac 98 bc 6b 7e ec 3d
       0.060059145 -0.010100842 -0.018636813 0.1154755
000380 ec df c3 bb 0f 92 3a bc c8 88 37 3b 37 a4 e1 bc
       -0.0059776213 -0.011387362 0.0028005112 -0.027544124
000390 9f 5c 04 bd 2f a2 ec 3d ec 23 f7 bc c5 c8 89 bb
       -0.032314893 0.115543716 -0.030168496 -0.004204842
0003a0 10 5c 68 3d d2 e0 c4 bc 1b bd 93 bc cd 43 87 bd
       0.056728423 -0.024032984 -0.018034508 -0.06604729
0003b0 b6 f3 d5 3c af c0 4a bd 55 f2 36 3c c7 a2 68 3d
       0.026117187 -0.049500164 0.011166175 0.05679586
0003c0 42 68 40 bd 75 ba 82 bd a5 65 0e 3e 4a e7 cf 3c
       -0.046974428 -0.0638322 0.13905962 0.025378842
0003d0 fc ee 15 bd 12 81 e8 3c 12 93 08 be 37 32 c2 bb
       -0.036604866 0.028381858 -0.13337353 -0.005926396
0003e0 dc 95 c7 bc ae f7 f8 3b 18 3d 92 bd 51 ff 98 3c
       -0.02436345 0.007597885 -0.07140559 0.018676432
0003f0 37 3a 0a bd f4 ff 7c 3c 0d 67 f8 bd f7 ad f1 bb
       -0.033746924 0.015441883 -0.121290304 -0.0073754746

fc3.weight f4 [128, 256]
000000 c4 39 be bc 14 26 8c bc 17 b3 59 bd 0f 8d 53 3c
       -0.023220904 -0.017108 -0.05314931 0.012912049
000010 e6 bc 1d 3d 3c 17 66 3d d1 68 59 3c a8 30 1e 3d
       0.038510226 0.0561745 0.013269619 0.03862062
000020 49 c4 8d bd 38 31 03 3c 20 64 31 bc 44 32 35 3d
       -0.06922204 0.00800734 -0.010827094 0.04423739
000030 46 6a 35 bd 9b 0b 83 bd d0 34 42 bb 69 4c 92 bc
       -0.044290803 -0.06398698 -0.002963353 -0.0178587
000040 5d ca 2a bd ad 99 c7 ba 56 87 4c bd c4 a7 30 bd
       -0.041696895 -0.0015228294 -0.049933754 -0.043128744
000050 1c e6 4b 3d e5 47 e2 bc 16 a5 56 3d 78 d9 e6 3c
       0.049779996 -0.027622173 0.052403532 0.028179869
000060 36 44 98 3c 71 95 81 bd ce 7c 1e 3d 3c 90 83 bd
       0.018587213 -0.06327332 0.03869324 -0.06423995
000070 14 b9 10 3d 5c 1a 0f 3c d0 60 8c 3c e5 02 51 bb
       0.035332754 0.008734312 0.017136008 -0.0031892594
000080 8d 6c 0a bd 1c 1b de bc d7 cc 8c bd 50 eb 32 3d
       -0.03379493 -0.027112536 -0.068750076 0.043681443
000090 12 dc 84 3c 00 25 39 3d 50 1b ff bc 6e c4 5a 3d
       0.016218219 0.0452013 -0.031140953 0.053409986
0000a0 74 34 04 bd e4 c0 4b bd 7e 4f 85 bc a2 fb 7a 3c
       -0.032276586 -0.0497445 -0.016273256 0.015318783
0000b0 e7 8b 1b 3d 68 6c cd bb bc 88 41 3d 5a 9b 0d 3d
       0.03797522 -0.0062690265 0.04724954 0.034571983
0000c0 59 3e 93 39 10 11 d8 3b 43 4f 7e 3c e8 a8 5a bc
       0.00028084478 0.006593831 0.015521827 -0.013345934
0000d0 87 db 04 bd 24 a0 1d 3d d8 0d 16 3c 60 fd de bc
       -0.03243592 0.0384828 0.009158574 -0.027220428
0000e0 da 91 46 bb 20 00 6b 3b 11 63 5a 3d a0 6e c3 3c
       -0.0030299337 0.0035858229 0.053317133 0.023856461
0000f0 a7 18 12 bc 38 f6 57 bd 37 01 19 bc f0 b0 88 bd
       -0.00891701 -0.052725047 -0.009338669 -0.06674373
000100 34 2a 37 3d ec 8b 6d bd 1c 7b b5 bb 6c 81 96 3c
       0.044717982 -0.057994768 -0.0055383574 0.01837226
000110 c7 57 1f 3d 60 2c 02 bc b5 20 82 bd b2 c8 42 3a
       0.03890207 -0.00794515 -0.063538946 0.00074304186
000120 78 97 e8 bb 68 e6 d4 3b fb fb bb 3c 8a 00 03 3d
       -0.0070981346 0.006497193 0.022947302 0.031982936
000130 d8 3b 34 3c 30 05 5a 3c 50 4d 60 3c a7 66 04 3d
       0.011000596 0.013306901 0.013690308 0.03232446
000140 4f 99 98 bd d2 13 da bc 80 a4 56 3d d9 8a cb bc
       -0.07451116 -0.02662078 0.052402973 -0.024846481
000150 a8 53 42 3d f6 16 fb bc ee d2 1f bc 23 c2 09 bd
       0.047443062 -0.030650597 -0.009754879 -0.03363241
000160 06 d4 66 bd 14 7e a3 3c 17 e0 65 3c 32 e7 30 3d
       -0.056354545 0.01995758 0.014030478 0.043189235
000170 22 ad 3f 3d 00 d6 e7 3c b7 09 e9 3c b0 8f ee bb
       0.04679597 0.028300285 0.028447015 -0.0072803125
000180 4d 55 af 3c e7 17 a1 bc 8e 15 0d 3d 95 1a 29 bd
       0.02140298 -0.019664718 0.034444384 -0.041285116
000190 f8 6f 44 bc d0 ec 7c 3d 00 fc f0 b8 45 00 87 bd
       -0.011989586 0.06174928 -0.000114910305 -0.06591848
0001a0 cf 36 1e bd 50 22 15 3d 90 da 25 3d 55 a8 2e bd
       -0.03862649 0.036409676 0.04049164 -0.042641003
0001b0 86 35 18 3d 38 e1 33 bc 26 71 3e bd 84 25 f5 3c
       0.03716042 -0.010978989 -0.046494626 0.029925115
0001c0 09 ea 83 bc 3a 27 48 bd fc ec bf bb e0 a6 0f bd
       -0.016102808 -0.048865534 -0.005857108 -0.035071254
0001d0 38 0b fa bc a2 aa fe bc 92 64 4f 3d b4 52 65 bd
       -0.030522928 -0.031087223 0.05063302 -0.055987075
0001e0 97 a7 5c 3d 66 3a fe 3c c8 7d ca bc 0b 07 40 3d
       0.053870764 0.031033706 -0.02471818 0.046881717
0001f0 d5 dc 51 3d 68 1d bd 3c 82 28 41 3d ac 44 b7 bc
       0.051235992 0.023085311 0.047157772 -0.022371612
000200 1c db d4 3c 86 7f 77 3d 07 d5 f3 3c 30 07 a2 3c
       0.025983386 0.06042435 0.029764665 0.019778818
000210 42 24 05 3c f9 cc 30 bc 65 85 27 bd 00 1c 5a bb
       0.00812632 -0.010791057 -0.0408987 -0.003328085
000220 59 81 db 3c 44 62 58 bd 16 f7 4d 3d c5 1c 32 3d
       0.026795076 -0.05282809 0.050284468 0.043484468
000230 70 4b c3 bc d4 47 d4 3c eb 4a 6c bb 60 b5 c5 3c
       -0.023839682 0.025913157 -0.0036055397 0.024134338
000240 00 8a 62 3d 9a 95 09 3d 52 a3 0d 3a 7c 58 d8 bc
       0.05530739 0.033589937 0.000540306 -0.02640938
000250 91 ae e4 ba bc 0a b4 bc bd 73 c5 bb 37 9f 9b 3c
       -0.0017447044 -0.021977775 -0.00602576 0.018996818
000260 e4 93 e4 bc 74 0a 3f bd 04 1a 31 bd 75 d9 c6 bc
       -0.027902551 -0.04664083 -0.0432377 -0.024273613
000270 0a a0 3c bd 84 0f 04 bd 8d f7 23 bd 24 be 44 3c
       -0.046051063 -0.03224136 -0.040031005 0.012008224
000280 0f 94 7b 3c a9 55 2d bd 4b c1 6d bd 18 b7 63 bd
       0.015355124 -0.04231802 -0.058045667 -0.055594534
000290 e5 03 34 bc 92 1f 03 bd 78 99 d4 bc 54 9a a7 3c
       -0.010987257 -0.03201253 -0.025952086 0.020459332
0002a0 0d 78 2c bd b1 99 08 3d 5a 80 a3 bc 34 f7 58 bd
       -0.042106677 0.033349697 -0.019958664 -0.052970126
0002b0 46 4a 2f bd b8 64 86 bd e8 58 d8 bc 43 ec 88 bc
       -0.042795442 -0.06562179 -0.026409581 -0.01671422
0002c0 ac 34 f6 bc d5 34 b4 3c 94 97 6a bd 86 ed 3c 3d
       -0.030054413 0.021997849 -0.057273462 0.046124958
0002d0 f9 d7 ca bc 29 ce 29 bd 88 9a 4c bd c0 a8 64 bb
       -0.024761187 -0.041456375 -0.04995206 -0.0034890622
0002e0 5c 36 0e bd 23 5f c9 bc 46 4b 2a bd a7 1a 47 bc
       -0.03471981 -0.024581498 -0.041575693 -0.0121523505
0002f0 72 e7 26 bd 20 41 4c bb b8 53 3f bc 68 24 2c bd
       -0.040748067 -0.0031166747 -0.011677675 -0.042026907
000300 d0 9b 03 bc b7 e4 89 3a 68 cb 60 bd 72 40 75 bd
       -0.008032754 0.0010520433 -0.054881483 -0.059875913
000310 14 b1 12 3d cc da fe 3c 41 f1 43 3d 85 06 fd bc
       0.035813406 0.03111019 0.0478375 -0.030886898
000320 dc 9b 54 bd 9e 47 03 3d 58 b4 62 3d c0 0f 58 bb
       -0.05190645 0.03205072 0.05534777 -0.0032968372
000330 ac b7 be 3c c4 65 2b 3c 76 dd b6 3c c8 88 75 bd
       0.023280941 0.010461275 0.022322398 -0.059944898
000340 f8 cb e9 bc 6d 96 bf 3a bd c6 67 3c 7b 83 83 bd
       -0.028539643 0.0014616974 0.014146504 -0.06421562
000350 a7 60 c8 bc 11 d2 16 bd f0 e6 b3 bc 0a 65 ff 3c
       -0.02446015 -0.03682143 -0.021960706 0.031176109
000360 66 ac 2d 3c b7 74 fd 3c 3a 27 4b bd a4 b8 8e bc
       0.010600185 0.030939443 -0.049597956 -0.017422028
000370 b0 1c 9a bc 6b b1 23 bc 4c ef 94 bb 3e 22 01 bd
       -0.018812507 -0.00999103 -0.004545128 -0.031526797
000380 28 18 b5 3c 64 0d f1 bc d0 69 41 3d 5c 91 4c bc
       0.022106245 -0.02942533 0.04722005 -0.012485828
000390 26 39 5d bd 7e 0a 4c bd 00 1f fa bc 01 19 3b 3d
       -0.05400958 -0.049814694 -0.03053236 0.045678142
0003a0 ba ff 88 bc d3 c4 ef bb cd 44 85 3c 86 97 5c 3d
       -0.016723502 -0.0073171644 0.016268158 0.05385544
0003b0 b4 ca 0e 3d ba bf 58 3d 80 ac 59 3d 85 fe 42 3d
       0.03486128 0.05291722 0.053143024 0.04760601
0003c0 fc 47 5f 3d 10 ab 71 3d 83 dd 9f 3c cc 9d 30 3d
       0.05451201 0.05900103 0.019514805 0.043119237
0003d0 2b 94 11 bc b1 fd e3 3c be b5 3a 3c 36 fd 4b 3d
       -0.008885424 0.02783093 0.01139587 0.049802028
0003e0 00 43 d1 ba fd ae c5 3c a9 5f 4d 3b 94 e8 58 3d
       -0.0015965402 0.024131292 0.0031337535 0.05295618
0003f0 80 8e d7 3b 68 e3 d6 bc 5e 9c 63 3d 1f 42 62 3d
       0.0065782666 -0.026231483 0.055569045 0.05523884

fc3.bias f4 [128]
000000 9c 61 18 bc f7 32 c1 3d 48 78 01 be e7 0a 07 bd
       -0.009300616 0.09433549 -0.1264354 -0.03296938
000010 68 48 0e 3d 36 15 13 3e ee 37 84 bd dc 71 79 3c
       0.03473702 0.1436356 -0.0645598 0.0152249
000020 1a d8 7c bd 14 bc 68 bb b6 97 82 3d 53 f1 ae bc
       -0.061729528 -0.0035512494 0.06376593 -0.021355307
000030 1a 1b e8 3a 76 3a 60 bd fa 62 f8 3d 54 98 b6 bc
       0.0017708272 -0.054743253 0.12128253 -0.022289433
000040 d4 6f 42 3d b0 e9 bb 3b 87 55 b8 3d c7 c4 18 bd
       0.04746993 0.005734645 0.09000688 -0.037297036
000050 4a 75 8b 3d 64 64 5a 3d 0b 11 76 bd 6a f2 6d bd
       0.068094805 0.053318396 -0.060074847 -0.058092512
000060 cb c7 a0 bd 1b 2e ec 3b 21 b7 ab 3b 2b 93 1c 3d
       -0.078506075 0.0072076446 0.0052403365 0.038226288
000070 95 6c a1 bd 64 69 2f 3d 90 96 16 3d 59 05 d8 bc
       -0.078820385 0.042825118 0.03676468 -0.026369737
000080 1f 2c 5e bd d3 87 38 3d 90 f4 40 bd 00 f1 4f 3b
       -0.054241296 0.045051407 -0.047108233 0.003172934
000090 a9 41 c3 3c af af 9c 3d b7 b6 97 3c 77 4c 83 3c
       0.02383502 0.076506965 0.018519742 0.016027672
0000a0 f4 3e 18 bd 90 e5 91 bc fb 1e 81 3d 46 e2 97 bd
       -0.03716941 -0.01780966 0.06304737 -0.07416205
0000b0 8f fc 36 bb 42 ca 36 3d 2d 80 8c 3d eb 47 22 3e
       -0.0027921533 0.04462648 0.06860385 0.15847747
0000c0 a7 9c db 3c 3d f7 53 3c 2e 5a 60 3c 04 6a 27 3c
       0.026808096 0.012937364 0.0136933755 0.010218147
0000d0 b7 b0 89 bd ca d0 95 bd a1 2f 03 3d ea 7e b9 3c
       -0.06723159 -0.07315214 0.032027844 0.022643525
0000e0 ca ca 2e bc 4f 14 99 bb 9c c4 99 3d d8 e5 e6 3d
       -0.010668466 -0.0046716104 0.075082034 0.11274308
0000f0 b6 32 2a bc d5 10 53 bc 79 71 2c 3d 86 91 a2 b9
       -0.010388067 -0.012882431 0.042100403 -0.0003100747
000100 e7 80 42 bd 89 8a 0a 3c d9 aa 9a bc f6 f8 56 bb
       -0.047486212 0.008455881 -0.018880295 -0.00328022
000110 03 58 20 3d 7f 2a 8c bc 55 3e 65 3d 71 77 60 bd
       0.039146435 -0.017110107 0.055967648 -0.05480141
000120 2a 57 47 3d 8d 2e 97 bb 15 68 91 3d f2 0a b1 3c
       0.04866711 -0.0046137036 0.0709993 0.021611664
000130 fe 68 fd 3c ff 68 bf 3d 60 36 71 3d 67 91 6f 3d
       0.030933853 0.09346198 0.058889747 0.058488276
000140 01 ad 33 3d 72 2f 2a 3c b7 db c6 bc 71 f6 aa bc
       0.04386616 0.010387288 -0.02427469 -0.020869466
000150 32 20 28 3d 75 9c 89 bd cb 1f 3b 3d da 61 f6 3b
       0.04104633 -0.06719295 0.045684617 0.007518989
000160 2f 67 d3 bc 04 6d 3b bd ed 9d ec bc 09 b0 47 3d
       -0.025806038 -0.045758262 -0.028883899 0.048751865
000170 36 81 13 3d 0c 36 35 3d 16 fb 74 3d 6e 7f c5 3d
       0.036011897 0.044240996 0.059809767 0.09643446
000180 83 57 11 3e b8 63 05 bd 6b e2 06 3e e7 26 c8 3d
       0.1419354 -0.032565802 0.13172309 0.09773045
000190 e6 f3 91 3c 53 9f ee 3c c4 d7 1b 3d b2 69 8b 3d
       0.017816495 0.029128706 0.038047567 0.06807269
0001a0 ee 86 92 3d d6 c7 ca bc 36 45 87 3d 5b 97 91 bd
       0.07154642 -0.024753492 0.06604998 -0.07108947
0001b0 88 51 4c bd 72 5a 4b 3d ce 51 96 bc af 03 2c 3d
       -0.04988244 0.049646802 -0.018349554 0.0419957
0001c0 b6 0a 50 3d db 2d 5c 3d 15 1a a7 bb 1a d1 2b bc
       0.050791465 0.05375467 -0.005099545 -0.010486865
0001d0 6a 41 73 bd 04 45 84 bd 3a 9b d1 3d 7a af 2e 3d
       -0.059388556 -0.06458476 0.10234685 0.042647816
0001e0 fc b6 fd bb cb 56 e1 ba f3 26 03 3e b9 15 03 3d
       -0.0077427607 -0.0017192004 0.12807827 0.03200314
0001f0 e2 60 c2 3c 17 92 78 bd e5 ea 4c 3c f0 d9 28 bb
       0.023727838 -0.060686197 0.012507175 -0.0025764666

fc4.weight f4 [5, 128]
000000 4e 7a 3e 3d 5a 96 62 3e 43 6f ec bd 44 05 23 3d
       0.046503358 0.22127667 -0.11544659 0.039799944
000010 5a 70 7d bd 27 3b eb bd d4 c4 f3 bd df 3a 07 be
       -0.061874725 -0.11485892 -0.11902776 -0.13206051
000020 60 78 6e bb 31 39 4a be 87 ec a7 3e e4 e1 c4 3c
       -0.0036387667 -0.1974838 0.32797644 0.024033494
000030 e6 a8 60 be d6 81 35 3d 1e 62 92 3e 9f 06 4a be
       -0.2193943 0.044313274 0.28590482 -0.19729088
000040 7d bd 45 be 1e 02 63 3e b7 5e ca 3e 5b 1d 47 3d
       -0.19310565 0.22168776 0.39525387 0.04861198
000050 a9 7e 45 be 9a a1 b1 3e b2 85 0c be f1 07 09 3d
       -0.19286598 0.34693605 -0.13722876 0.03345484
000060 71 73 9e be da 8d 22 3e 2e 2d 9e bc b1 68 88 be
       -0.3094745 0.15874425 -0.019308653 -0.26642373
000070 39 d7 9f bb d4 87 c2 bd 08 3c bb bd c9 83 6b be
       -0.0048779515 -0.094985634 -0.091423094 -0.22999491
000080 64 ff cd bd c8 56 5d 3e c1 d2 5b bc 91 25 b1 3c
       -0.100584775 0.21615136 -0.013416947 0.021624358
000090 9e aa c4 bd 3d 07 a2 3e 98 ea a1 3e 44 f4 c2 bd
       -0.09602855 0.31646147 0.31624293 -0.09519246
0000a0 53 0f 85 3e 96 92 46 3d b4 33 bf 3e a1 28 29 bd
       0.25988254 0.04847964 0.37344134 -0.041298512
0000b0 44 d8 85 bd 3a f3 a9 3e be 30 8a 3e a8 b5 bf 3e
       -0.0653539 0.3319338 0.26990312 0.3744328
0000c0 b8 48 1d be 9a a5 9f 3e 5c 12 88 3e 51 ea d0 3e
       -0.15359771 0.3118103 0.26576507 0.4080377
0000d0 7a 34 26 3d 92 67 a2 bd aa e4 a5 3e 00 19 90 3d
       0.04057739 -0.07929911 0.3240102 0.07036018
0000e0 4f d3 d9 3d 84 68 6e 3d 61 88 c6 bd 5a 1f 25 be
       0.10636007 0.058205143 -0.09693981 -0.16125241
0000f0 60 09 2c be 64 b2 21 be 5d 2e f2 3b b9 73 99 3e
       -0.16800451 -0.15790707 0.007390781 0.29971102
000100 db 4d 17 be 5a ef c8 3d 2b fe 39 be 95 3c 96 3d
       -0.14775793 0.09811278 -0.18163364 0.07335774
000110 26 37 95 bd 3e 3b 53 3c d6 26 36 be 89 a5 10 be
       -0.07285909 0.012892542 -0.17788252 -0.14125647
000120 40 13 cf 3e f6 b7 d0 3c c7 72 6c be f8 36 2c be
       0.40444374 0.025478344 -0.23090659 -0.16817844
000130 d6 26 81 3d 3c 16 ff 3d 64 3c 6d 3e 0f df 33 be
       0.063062355 0.12455413 0.23167568 -0.17565559
000140 fc 28 83 3d 95 7a 52 bd e2 b8 0a be 3c bb 89 3d
       0.064043015 -0.051386435 -0.1354709 0.06725165
000150 d3 69 ee 3e c1 90 0b 3c b2 0f 00 be 80 60 5e be
       0.46565112 0.008518399 -0.12505987 -0.217165
000160 50 4c b3 3c 25 dc ae 3d de 6a 1c 3d 97 35 76 3c
       0.021886975 0.08538083 0.038187854 0.015027425
000170 31 9e 5a be 8f b4 30 be c8 1a 59 3e 4b 1a 62 be
       -0.21349408 -0.17256378 0.21201622 -0.22080342
000180 52 2f 5f be 94 a7 6f bd 0e 77 21 be 7c 98 c4 3e
       -0.21795395 -0.058509424 -0.15768072 0.38397586
000190 ab 49 3e 3e ea 3e 12 be fb 2d b8 bc fe 1c 3b be
       0.1858279 -0.14281812 -0.022482863 -0.18272778
0001a0 b1 80 4a be d1 a7 97 3d 66 a1 3b be 1a 42 28 bd
       -0.19775654 0.07405055 -0.18323287 -0.041078664
0001b0 d6 6f ca 3c 85 54 1d be c8 70 68 bd 9d 60 3f bd
       0.02471153 -0.15364273 -0.05674818 -0.046722997
0001c0 ae 7e 07 3e e5 1a 56 3e de 9d 6f be 6b 8f 80 3e
       0.13231918 0.20908697 -0.23400065 0.2510942
0001d0 3d 1e 04 3d 5c 62 7a 3d a4 e0 12 be a8 10 9e 3b
       0.0322554 0.06112896 -0.14343506 0.004823763
0001e0 94 7a 91 bd 6f 77 f4 bd be 5b 16 be 1c c4 0e be
       -0.07103458 -0.11936843 -0.14683434 -0.13941997
0001f0 bc be 35 be 79 a8 58 bd 56 83 79 be 73 24 52 be
       -0.1774854 -0.052895043 -0.24366507 -0.20521717
000200 5a 74 a3 bd 44 70 2b 3e f6 ab 32 be 61 73 6d 3d
       -0.07981177 0.16742045 -0.1744841 0.057971362
000210 49 e4 18 3d 55 63 2f bd 5a b0 f7 bd d7 6b 65 be
       0.037327085 -0.04281934 -0.12094183 -0.22404419
000220 04 a5 88 bd 8a a7 85 be d7 28 a3 3e 53 57 c2 3d
       -0.06672099 -0.26104385 0.31867096 0.09489312
000230 2c b7 22 be c6 46 77 bd a1 41 8c 3e af 57 ba bd
       -0.15890187 -0.06037023 0.2739382 -0.090987556
000240 10 f6 18 be e7 b7 08 3e d9 35 e7 3e 6c 8a e5 3c
       -0.14937615 0.13351403 0.4515827 0.028020106
000250 d6 ca 41 be d7 44 cf 3e 56 be 5e be 13 37 89 bd
       -0.18925032 0.40482208 -0.21752295 -0.06699958
000260 84 b5 98 be ba 98 2c 3e 22 48 99 3d b1 a3 7a be
       -0.29825985 0.16855136 0.07484461 -0.24476506
000270 13 eb 40 3d 9c 9d ee bd 7f 9f 34 be 66 73 33 be
       0.047099184 -0.11651155 -0.17638968 -0.1752449
000280 16 1f f5 3c ad c0 8c 3e cf 04 cf 3c c1 79 f3 3c
       0.02992205 0.2749075 0.025270848 0.029721143
000290 8f 14 67 be d6 f0 96 3e 97 ad cb 3e 24 2b 05 be
       -0.22566436 0.29480618 0.39780876 -0.13004738
0002a0 60 6d a1 3e 9c 1a 7a 3c 3a c2 da 3e 6e 01 af bd
       0.3152876 0.015265133 0.42726308 -0.085451946
0002b0 74 69 4d bd 55 12 b9 3e 2e 44 67 3e 18 88 c4 3e
       -0.050149396 0.361468 0.22584602 0.3838508
0002c0 93 ac ff bd 03 47 c8 3e d8 ab 6c 3e 9c 9b 90 3e
       -0.12484088 0.39116678 0.23112428 0.2824372
0002d0 4c a4 1c bd 78 c4 65 be ed f5 81 3e 25 80 42 3d
       -0.038242623 -0.22438228 0.2538294 0.04748549
0002e0 d7 e6 ff 3c 56 bb 61 3d f5 6e 27 be 3e ba 19 be
       0.031238003 0.055110298 -0.1635092 -0.15012452
0002f0 5c 29 80 be 41 2a 2a be 93 ac 75 3d 6c 48 82 3e
       -0.25031555 -0.16617681 0.059979033 0.25445879
000300 94 ee 43 be ec 21 80 3d bd ed 42 be 6f 5a 8f 3d
       -0.19133979 0.0625647 -0.19036002 0.06999671
000310 1f ac 0b be a1 77 92 bd 54 80 6d be 22 e7 06 be
       -0.13639878 -0.07151724 -0.23193485 -0.13174108
000320 a7 51 b7 3e 73 4a a1 bc a4 55 54 be 83 af 3e 3d
       0.35804483 -0.01968882 -0.20735794 0.0465541
000330 ef 6c b0 3a 8c 59 7d 3e b4 78 32 3e 66 93 38 bd
       0.0013460199 0.2474119 0.17428857 -0.045062445
000340 0c 37 83 bd 00 e6 98 3d 4c ac 4f be af 96 94 3d
       -0.06406984 0.07465744 -0.2028057 0.07255303
000350 75 24 e4 3e 6f 40 77 3d 9d ae 35 be 23 4a 4f be
       0.44559065 0.060364183 -0.17742391 -0.20243125
000360 f3 b1 cd bc 41 d7 95 3d ee 0a 40 3d df a8 7c 3d
       -0.025109267 0.07316447 0.046885423 0.061684486
000370 7a 29 65 be 16 75 48 bd 54 ca 7b 3e 56 d7 40 be
       -0.22379103 -0.048939787 0.24588901 -0.18832144
000380 bb 4e 58 be 34 2b 7b 3d 16 dc 03 be 7d f2 83 3e
       -0.21123783 0.0613205 -0.12876925 0.2577094
000390 8c fb 90 3e 03 e5 1f be ac c6 80 3d 04 7d f1 bd
       0.28316915 -0.15614705 0.06287894 -0.11791423
0003a0 61 9d 80 be 1e 20 9e 3c 5a 8a ed bd b5 fc bb 3d
       -0.2512007 0.019302424 -0.11598654 0.091790594
0003b0 ef 7f cd 3c ee f1 41 be 96 a3 20 3d d1 c8 4b 3d
       0.025085418 -0.18939945 0.039218508 0.04975206
0003c0 40 ba 8c 3e 7b 3b 64 3e c5 e9 68 be 11 64 60 3e
       0.27485847 0.22288315 -0.22745426 0.21913172
0003d0 22 91 85 3d a3 bf ed 3c b1 50 19 be ae d6 88 bd
       0.065218225 0.029022044 -0.14972188 -0.06681572
0003e0 d1 db c1 bb 22 7b cc bd 1a c4 90 bd e5 29 30 bd
       -0.0059160967 -0.09984423 -0.070686534 -0.043008704
0003f0 87 d9 59 be d2 d9 b0 3c a9 cf 86 be 6a 57 52 be
       -0.21274386 0.02158824 -0.26330307 -0.20541158

fc4.bias f4 [5]
000000 d0 6b 4c bd 0b 94 12 bd 9c f1 74 bd b3 88 0c bd
       -0.049907506 -0.035785716 -0.05980073 -0.034310054
000010 eb 73 71 bd
       -0.05894844
