models/lateral_stage3_seed999_best.pth (torch, 412453 bytes, 8 tensors)

fc1.weight f4 [256, 9]
000000 8e f3 1a c0 4d 31 99 3e df 71 51 bf 2b 7b a9 3e
       -2.4211154 0.29920426 -0.8181438 0.33101782
000010 a6 e6 c0 be 32 02 0b 3e 9e 6f 30 3e 82 d8 9f be
       -0.3767597 0.13575056 0.17230079 -0.3121987
000020 86 ff 3f 3e 24 e3 12 bf 38 2e 34 bf f1 e9 d6 be
       0.18749818 -0.5737784 -0.70383024 -0.41975358
000030 5f 3e 1b 3e 26 41 95 be 99 6b bf 3e c0 29 9a be
       0.15160511 -0.29151267 0.37386778 -0.30109978
000040 ba 10 4d 3e aa cf be be 4c af c6 bf 33 06 92 be
       0.20025912 -0.3726781 -1.5522246 -0.28520355
000050 81 fd dd bd 61 cd 54 3c a4 09 91 3d cd cf 3c 3f
       -0.10839368 0.012988419 0.07081917 0.7375458
000060 10 25 2a 3e f4 8e a2 bd 2c 58 20 3e a4 7d cd 3d
       0.166157 -0.079374224 0.15658635 0.1003373
000070 1e d4 02 bf b1 89 a2 3e 77 f1 42 3d 8c 9b 9d be
       -0.51104915 0.31745675 0.04759356 -0.30782735
000080 36 9c d7 be d0 8c bc bc 36 f5 16 3e fc d4 19 3c
       -0.42111367 -0.023016363 0.14741978 0.009389158
000090 ce 93 ad bf 71 5e 36 3e ed 05 b9 3d 3c 19 63 be
       -1.3560731 0.17809464 0.090343334 -0.22177595
0000a0 1e 08 e0 be 75 fc c6 3e 2c e9 e6 bd 6a 4a 4a 3e
       -0.43756193 0.38864484 -0.11274943 0.19754949
0000b0 c3 79 02 3f 23 11 b7 3f 4a 32 18 3e b7 b6 25 3e
       0.50967044 1.4302105 0.14862934 0.16182981
0000c0 cb dc ae be db c0 48 3e 3f 16 d7 3e 39 6c 8a 3e
       -0.34152827 0.19604819 0.4200916 0.27035692
0000d0 ea 50 a9 be 56 8d 34 be 08 9d 81 c0 da 35 3d 3e
       -0.33069545 -0.1763204 -4.050419 0.18477574
0000e0 6c b7 42 3f b4 b7 b0 bc 0e 44 cc 3e f7 3f 72 bc
       0.7606113 -0.021571971 0.39895672 -0.014785758
0000f0 14 a7 9b be e3 14 79 be 03 0e a8 3e 78 68 3d 40
       -0.30400908 -0.24324374 0.3282319 2.9595013
000100 6f 52 ef bc ea 95 a4 be 51 d1 55 be 2e 8a d1 3d
       -0.029214112 -0.32145625 -0.20880629 0.10231434
000110 bd 17 f2 3e 96 60 14 be e0 56 11 be c6 52 8e 3e
       0.47283736 -0.1448997 -0.14193296 0.27797526
000120 55 c2 2b c0 e7 7d 4d be 9a 19 66 3f 52 7d 93 3e
       -2.683736 -0.20067559 0.89882815 0.2880655
000130 b0 13 bb 3e 72 cc 1e be fc 16 b1 bd f2 3d 69 3e
       0.36538458 -0.15507677 -0.08646962 0.22777537
000140 2b ae 93 3b a1 ac 80 c0 cd 9a cd 3e a6 31 3b be
       0.0045068464 -4.021073 0.40157166 -0.18280658
000150 75 87 0b be 8a c5 a0 bb ff f6 fe 3e ba 62 75 3e
       -0.13625892 -0.004906361 0.49797818 0.23963442
000160 40 45 b0 bd bb f2 f0 be a7 53 67 40 a1 e6 35 3e
       -0.086069584 -0.4706019 3.6144807 0.17763759
000170 77 0b 02 3f ba ef d6 bd fa 19 48 bd 62 57 ec be
       0.50798744 -0.10494943 -0.0488529 -0.46160418
000180 3c 7e dc 3d 5b c0 6e be 05 a0 31 be 20 d5 0f c0
       0.10766265 -0.23315565 -0.17346199 -2.247383
000190 86 ae ab 3e f7 6c d6 3e e9 b1 3e 3f 01 af 61 3e
       0.33531588 0.4188001 0.7449022 0.22039415
0001a0 2f b6 a0 3e 2e 07 87 be c8 4c 12 3d db cb 5a bb
       0.31388995 -0.26372665 0.035717756 -0.0033385667
0001b0 f7 25 25 c0 16 18 14 be 95 9d 88 3e 8f 78 87 3e
       -2.5804422 -0.14462313 0.26682726 0.26459166
0001c0 a9 a1 04 3f 73 c7 9b 3e f0 fc 34 be 43 1e 93 be
       0.51809174 0.30425605 -0.17674613 -0.28734025
0001d0 da b5 28 bd 80 3d 2b 40 ad 90 f0 3c d6 48 d7 3c
       -0.041189052 2.6756287 0.029365862 0.026279848
0001e0 9b a7 d6 bd 37 32 04 bf 6c 5d 68 be 60 52 41 bd
       -0.10481187 -0.5163912 -0.22691888 -0.0471977
0001f0 83 5e 26 be 18 51 a2 3d c2 56 91 c0 5b 7a e1 bc
       -0.16246991 0.07925624 -4.5418406 -0.027524164
000200 3e f1 3e be 2f f2 ff 3b c9 d0 a2 3e 95 b5 a2 bc
       -0.18646714 0.007810853 0.31799915 -0.019861976
000210 b9 28 8a 3e 50 53 9b 3d 1b 20 94 be 76 3e ce bf
       0.26984194 0.0758425 -0.28930745 -1.6112812
000220 c1 d5 7e be 63 b3 20 be 04 98 f2 3c af 0b 9f be
       -0.24886228 -0.1569343 0.029613502 -0.310636
000230 67 97 7f bf a5 4a 8b 3e da 87 24 3e 91 e0 46 3e
       -0.99840397 0.27205387 0.16067448 0.19421603
000240 87 62 46 40 dc 7c 2e be 5b 89 4b 3e d6 ef 1d bc
       3.0997636 -0.17039818 0.19876616 -0.009639701
000250 84 a7 54 be 14 2f 90 3d d8 6f 61 bd fc 77 bc bd
       -0.20767027 0.070402294 -0.055038303 -0.09202573
000260 c4 d9 d8 3e b9 46 5f bf 0e 36 1a 3c 01 9f 6e be
       0.42353642 -0.8721729 0.009412302 -0.23302843
000270 62 2b b6 bc 35 ae bc be 0c 5d 76 bf a6 74 51 be
       -0.022237483 -0.3685166 -0.9623573 -0.20454654
000280 de 38 3a 3e d5 85 a1 3d 9b 37 0d 40 97 cf e0 3d
       0.18185756 0.078868546 2.206519 0.109770946
000290 4d 9b c9 3d d5 68 be be ea cc 14 3c 29 ea 14 3f
       0.098440744 -0.37189355 0.009082058 0.581698
0002a0 00 aa 1a bd f3 69 03 be 03 63 64 3d 6f 20 38 40
       -0.03775978 -0.12833385 0.055758487 2.8769796
0002b0 17 66 74 bd 37 41 75 3e e8 fe e2 bd 57 96 9b be
       -0.059667673 0.23950659 -0.11083776 -0.30388138
0002c0 67 c1 89 3e b5 60 95 3e 26 16 eb bd 22 6e a1 3e
       0.26905367 0.29175344 -0.11478834 0.31529337
0002d0 79 e4 53 c0 e3 06 9c 3e e0 dd 0e be 78 02 ca 3e
       -3.3108199 0.30474004 -0.13951826 0.39455009
0002e0 c1 c0 fa be fa 43 0b bf 69 0d a3 3e 19 fe 89 3e
       -0.48975185 -0.544006 0.3184617 0.26951674
0002f0 25 47 89 3d b9 9a e6 3f e6 61 fa 3e c0 06 a4 3e
       0.06703023 1.8015968 0.48902816 0.320364
000300 63 2d 2b bf 3e c3 ab be 3f 8c ea be 08 8a 7f be
       -0.6686613 -0.33547395 -0.45810124 -0.24954998
000310 9e 0c 9d be 00 75 e0 3d 2e 8a 32 40 ce a8 c4 3e
       -0.3067369 0.10959816 2.7896838 0.38410038
000320 7f 43 5a 3d aa f3 73 be 43 2c 5b be 47 7e 1d bf
       0.053287026 -0.23823419 -0.21403603 -0.6152081
000330 39 25 a6 3e 42 09 23 3e 5c b7 ba be d0 14 92 bf
       0.32450274 0.159215 -0.36468017 -1.1412601
000340 76 ed a7 3e 97 20 20 be 5e e1 77 3e 17 f6 b4 be
       0.32798356 -0.15637432 0.24207065 -0.35344002
000350 e3 1d 2e bf 22 b8 41 3e 1b 89 a6 3e 3a cc 18 3e
       -0.68014354 0.18917897 0.32526478 0.14921656
000360 50 5f b5 3f fd 5c eb 3e 37 49 99 3e f8 42 87 3f
       1.4169712 0.45969382 0.2993867 1.0567312
000370 90 1b 9e bc 03 33 77 3e a6 c2 bd bd 88 55 16 3d
       -0.019300252 0.24140553 -0.09265642 0.036702663
000380 8e 93 5f 3e 40 4f be 3f fc 07 8b be c6 dd 8e be
       0.21833631 1.4867935 -0.2715453 -0.27903575
000390 63 44 c0 be 11 05 bd be 5d 9b 15 bf 78 98 84 be
       -0.37552175 -0.36917928 -0.5844019 -0.25897574
0003a0 59 2d 8d 3e 0e 0e 02 3e 40 48 fe 3f 53 ad c4 bd
       0.2757366 0.12700674 1.9865799 -0.096033715
0003b0 8e 1c 05 3e fc ca 52 be c3 b9 4a bc 07 f6 8d be
       0.12999174 -0.20585245 -0.012373391 -0.27726766
0003c0 9a d3 89 be 40 a8 1c bd e8 6f 28 3e a8 fe 71 bf
       -0.26919252 -0.038246393 0.16448939 -0.945292
0003d0 9a 0c 66 bd 63 59 06 3e 97 3c 63 be f7 cd 87 be
       -0.05616436 0.13120036 -0.22191082 -0.26524326
0003e0 23 79 89 bf 36 6c 2c be f0 05 c3 3d 82 f9 ee 3d
       -1.0740093 -0.16838154 0.09522617 0.116686836
0003f0 c7 f2 e8 3e 2b 0c bd 3e b8 8c dc 3e df 48 08 3e
       0.45497724 0.36923346 0.4307611 0.13309048

fc1.bias f4 [256]
000000 e5 f3 0a 3e 46 5e 0e 3e 6b 01 92 be 1a c7 7d 3e
       0.13569601 0.1390315 -0.28516707 0.24782982
000010 d7 de 72 be c9 b5 89 be 95 06 ab be 46 36 23 3e
       -0.23717819 -0.26896504 -0.3340346 0.15938672
000020 6c 2c 8c 3e 14 23 28 3e e3 1a 15 3e aa 39 6e be
       0.2737764 0.16419631 0.14561038 -0.23264185
000030 e2 18 a5 3e 02 ec 8a be 22 0c cd 3d 62 cf c1 3e
       0.32245547 -0.27133185 0.1001208 0.37853533
000040 98 bc 81 3e 13 23 f3 3d ee b8 5f be a3 61 7a 3e
       0.25339198 0.11871924 -0.21847889 0.24451308
000050 fb ce eb 3d e2 ed 91 be 29 f9 6e 3e ee d1 e8 bc
       0.11514088 -0.28501803 0.23337235 -0.028420415
000060 4a d2 d0 bd d3 18 80 3c fd 88 0f 3f 34 03 bc 3e
       -0.101963595 0.015636837 0.560684 0.36721194
000070 33 19 54 3e 30 88 f0 3e 54 b9 e6 be 93 d5 ff be
       0.20712738 0.46978903 -0.4506327 -0.49967632
000080 0e cf 45 be df 5c f7 bd b1 bb 28 be 36 d9 59 be
       -0.19317266 -0.12078261 -0.16477849 -0.21274266
000090 fd d5 c1 3e 36 79 97 3d 17 1f 54 3e d7 46 04 be
       0.37858573 0.07396166 0.20714985 -0.12917648
0000a0 c7 50 4a bd 15 bf 85 3c c7 2a cd bd f9 d8 9a bc
       -0.04939344 0.016326467 -0.10017925 -0.018902289
0000b0 3f 3d 11 bd 02 39 8e 3d 7a 9c 9b bc 2b dc 90 3e
       -0.0354588 0.06944467 -0.018995512 0.28292975
0000c0 c6 27 98 be 21 dc 39 bd c8 7a c6 bc cf 22 7b 3c
       -0.29717845 -0.045375947 -0.024228469 0.015328123
0000d0 21 02 b9 3e e5 cd 96 3e 6f ea be be a1 88 a8 bd
       0.36134437 0.2945396 -0.37288234 -0.08229185
0000e0 9c 38 99 be 4b 77 78 3e 20 68 34 bb 0f d8 0c 3e
       -0.29926002 0.24264257 -0.0027527884 0.13754295
0000f0 0f 94 2d bc 05 2c 0b 3e 00 ec 0e 3f 96 9e 4e 3e
       -0.010594382 0.13591011 0.5582886 0.20177683
000100 d8 69 d6 3e 45 4b 9c 3e 30 0f eb bd d6 76 fc 3d
       0.41877627 0.30526176 -0.11477506 0.12327354
000110 0e 9e 8f 3e ef 62 bd be d7 5b ae ba 0b 0c 5f be
       0.28050274 -0.36989543 -0.0013302517 -0.21781938
000120 34 f5 da be 17 32 18 3f 34 55 d3 3d 55 b1 86 3e
       -0.427652 0.5945143 0.103189856 0.2630717
000130 64 50 2f be 52 31 1b 3e 60 7c 64 be b9 e9 e2 3e
       -0.1712051 0.15155533 -0.2231307 0.4431894
000140 c0 4f 63 be b2 f1 f8 bc f7 66 96 be 88 f1 2c 3e
       -0.22198391 -0.030388687 -0.2937543 0.16889012
000150 4d c9 42 3d 9b 6f a9 be ee c7 e0 3e b8 d2 6e 3e
       0.047555257 -0.3309296 0.43902534 0.2332257
000160 da df 54 3e a7 8d fe bd 6b 41 8e 3d c3 e4 b0 be
       0.20788518 -0.12429362 0.06946071 -0.3454953
000170 96 e0 84 bd bb 60 a2 3e e1 ee ad bd 88 87 57 3d
       -0.06488149 0.31714424 -0.08492828 0.052619487
000180 c6 f5 d9 3e 9d 93 80 3e f4 83 57 be 52 39 96 3e
       0.42570323 0.2511262 -0.2104643 0.29340607
000190 fc a3 c6 bd fc 0d ae 3e 65 b8 b7 be 5f ca 0d 3f
       -0.09699246 0.33995044 -0.3588287 0.5538692
0001a0 14 e4 15 3e 84 af c4 be d5 93 5a 3e 94 3a 80 3d
       0.14637786 -0.38415158 0.21345456 0.06261173
0001b0 80 a0 c3 be a7 92 d2 3e fb 88 a1 3e 48 c9 f2 3e
       -0.3820839 0.41127512 0.3154982 0.4741919
0001c0 37 0d ed 3d 99 a2 0b 3e 35 54 71 be 2f e6 27 be
       0.11574786 0.13636245 -0.23567279 -0.16396402
0001d0 e8 48 04 be 79 33 2f 3f 36 ad a4 3e fa aa e1 3e
       -0.12918437 0.68437916 0.321634 0.44075757
0001e0 00 f8 c1 bc 7e da f0 bd 6c 98 17 be 28 db c9 3e
       -0.023677826 -0.11760424 -0.14804238 0.39425015
0001f0 16 78 23 be 31 67 a0 3c e9 e1 2d be 51 81 85 be
       -0.15963778 0.019580455 -0.16980709 -0.26075223
000200 a6 25 47 3e b1 15 65 3e 8d 00 1c bc 6b 1d e8 ba
       0.19447955 0.22371556 -0.009521616 -0.0017708963
000210 36 7f 8c bd 34 24 d4 be 06 4a b0 3d 96 e6 b0 3c
       -0.06860201 -0.4143387 0.08607869 0.021594327
000220 34 92 a6 be 00 ef 94 be 4c 1f 76 3e 73 d4 0d 3d
       -0.3253342 -0.29088593 0.24035376 0.034626435
000230 c6 32 e9 3e b7 1e dc bd b8 f2 dc 3e 3c c7 d1 bd
       0.4554655 -0.10748046 0.4315393 -0.10243079
000240 51 61 95 be 52 b9 df be bb 5d 92 3e bf d7 31 3e
       -0.2917581 -0.43696076 0.28587136 0.17367457
000250 6a f7 3a 3e 78 61 35 be cf 1d 96 be 6f 36 35 3e
       0.18258443 -0.17712963 -0.29319617 0.17696546
000260 3d 0f 26 3e c7 4f 56 be 20 47 e5 3e 16 84 a9 bd
       0.1621675 -0.2092887 0.44780827 -0.082771465
000270 8b 11 96 3e 95 61 d4 3e 5f 5b 0a 3f 3d 3f 6d 3e
       0.2931026 0.414807 0.5404567 0.23168655
000280 b7 cf 07 be c2 7f 9e be cc c8 86 be 7c 37 5d be
       -0.1326283 -0.30956846 -0.2632507 -0.21603197
000290 d2 ea d4 3e af 87 07 bc 96 4e 25 bf 0f bf 25 3e
       0.41585404 -0.008272096 -0.6457304 0.16186164
0002a0 27 67 a7 bc bf fe 95 be 92 fc 64 be 92 5f 13 3f
       -0.020434929 -0.29295918 -0.22361973 0.57567704
0002b0 ab 0c ae be fb 78 c5 3e aa d9 b3 be 21 62 b9 3e
       -0.3399404 0.38568863 -0.35127002 0.3620768
0002c0 f5 74 8e 3e 93 d9 7f 3e 6d 84 c8 3e 5d 19 0f 3f
       0.27823606 0.24985342 0.39163533 0.55898076
0002d0 c9 63 63 bd 1a 7b c4 bb 9b d3 7a 3c c2 ce 8e be
       -0.055515084 -0.00599612 0.01530924 -0.2789212
0002e0 a4 cd 6a 3e 53 b7 af 3e 96 a9 b8 be d1 1f 08 3e
       0.22930008 0.34319553 -0.36066884 0.13293387
0002f0 8f 68 97 3e dc ce a3 be 4c 5e 40 bc 96 d8 85 bd
       0.2957196 -0.3199376 -0.011741232 -0.06535451
000300 74 69 b6 bd a6 6f a4 be 82 87 9e 3e 39 50 94 be
       -0.08906832 -0.3211643 0.3096276 -0.28967455
000310 66 f0 65 3d 91 ab 9d 3e 07 e5 a8 be 96 8d aa 3e
       0.056137465 0.30794957 -0.32987234 0.33311146
000320 18 f7 85 3e 3c ff d7 be 57 84 7d 3e e5 ce 4b 3d
       0.2616508 -0.42186916 0.24757515 0.049757857
000330 cd 1e 81 3e bf 34 d6 3e 4c bd a1 be e4 5c d9 3c
       0.25218812 0.41837117 -0.31589735 0.026533552
000340 d2 89 d6 3c 3a 25 18 bc 62 0b a0 3e 6a 68 04 3f
       0.026188765 -0.009286219 0.31258684 0.51721823
000350 a7 4f 69 3e bc e5 93 3e c0 c7 8b 3e 9d 3d b6 3e
       0.22784291 0.2888621 0.27300835 0.35593882
000360 db b9 91 3e 7e d1 8d 3e 7a f5 8f 3e 25 65 da be
       0.2846211 0.27698892 0.2811697 -0.42655292
000370 6a d1 92 3e d0 6f 0f 3f 86 d5 8d 3e 95 9b b7 3e
       0.28675395 0.5602999 0.27701968 0.35860887
000380 7f 05 96 be cd 34 a6 be c8 86 2d 3e 2e 77 2e be
       -0.29301068 -0.3246216 0.16945946 -0.17037651
000390 31 90 02 3f 92 37 c8 3e da d4 f5 3e 76 63 89 3e
       0.5100127 0.39104897 0.48013955 0.26833695
0003a0 00 7c 04 3f bf 91 a0 be 59 a0 f2 3c c9 81 22 bd
       0.5175171 -0.31361195 0.029617475 -0.039674554
0003b0 1e f7 42 3d 40 54 25 3e a3 dc 40 be 82 c8 f7 be
       0.04759895 0.1614542 -0.18834166 -0.48395163
0003c0 07 1b 60 be 7a d5 2e 3e 42 06 c3 be da 55 c2 be
       -0.2188531 0.17073622 -0.38090712 -0.37956125
0003d0 4c ac 87 bc 5a b1 33 3e ff f6 71 be 27 f5 ea bd
       -0.01656165 0.17548123 -0.23629378 -0.1147254
0003e0 87 be a3 3e 1e 7b 70 be 90 20 ec 3d 74 9e 8c bd
       0.31981298 -0.23484465 0.11529648 -0.0686616
0003f0 9c a1 56 3e 61 58 eb 3e cc 30 5e 3d 50 ef 70 3e
       0.20960087 0.45965865 0.054245755 0.2352879

fc2.weight f4 [256, 256]
000000 5b 3c 81 bd 5b ec 91 3c a2 df 41 3d 34 3c fa bc
       -0.0631034 0.017812898 0.047332413 -0.030546285
000010 d0 bd 82 bd e0 97 5f bb 00 1d c6 3b ea f8 ae bc
       -0.0638386 -0.0034117624 0.0060459375 -0.021358926
000020 20 b2 ba 3c 71 99 4b 3c 05 a0 2c 3c 8d 81 6b 3d
       0.022790015 0.01242672 0.0105361985 0.057496596
000030 48 ce 6d 3d d7 0f 2f 3d ac f0 6a bd df 8e 82 bd
       0.058058053 0.042739715 -0.05735843 -0.06374907
000040 c7 92 5b bc 1d d5 23 3d 11 67 62 bd b9 ac 82 bd
       -0.013401694 0.039998163 -0.055274073 -0.063806005
000050 02 b0 2e 3d e1 4f ac 3a c9 51 4e bd 8a e9 17 bd
       0.042648323 0.0013146364 -0.050370965 -0.037087955
000060 d5 ed 29 bc d5 a3 69 bd f8 da 58 3d 96 1e 46 3d
       -0.010371645 -0.057041008 0.0529432 0.048369013
000070 e4 d9 e7 bc 68 4d 26 bd f8 20 0f bd 24 8a b7 bc
       -0.02830214 -0.040601164 -0.03494355 -0.022404738
000080 bc 15 77 3d fc ca c8 3c 82 e5 26 bd 96 12 55 3d
       0.060323462 0.024510853 -0.04074622 0.052019678
000090 30 ec b0 3b 1c c8 f5 bc 53 97 49 bd c0 07 7b bb
       0.0053992495 -0.030002646 -0.04921658 -0.003830418
0000a0 b8 65 b1 bc 0d 28 0b 3d 95 c0 eb bc 4c 45 d9 bc
       -0.021654949 0.033973742 -0.028778354 -0.026522301
0000b0 5a 25 36 3d f2 30 21 3d 10 e4 2e bd f7 08 73 3d
       0.044469215 0.03935332 -0.042697966 0.05933472
0000c0 d0 15 f3 3c 98 ec c7 bc dc 4f b3 3c 8a 4e 6f bd
       0.029673487 -0.024404809 0.021888666 -0.05842451
0000d0 c9 9e 84 3c 65 db 5c 3d 66 b8 7b bd 5a 91 73 3d
       0.016188996 0.05392017 -0.061455153 0.05946479
0000e0 75 26 2b bd b0 0c fe 3b 2a 8c 0e bd 66 5f 1a bd
       -0.041784722 0.0077529773 -0.03480164 -0.037688635
0000f0 31 72 0b 3d c0 bc 2a 3d 56 05 f7 bc 64 c4 b6 3c
       0.03404445 0.041683912 -0.030153912 0.022310443
000100 88 e8 63 bd 10 53 68 bd 7b 24 07 bd 66 3a 35 bd
       -0.05564168 -0.05671984 -0.032993775 -0.044245146
000110 4f cc f2 bc c0 42 ff 3a 90 ed 00 3b 0f 25 d7 3c
       -0.029638438 0.0019474849 0.0019672848 0.026262788
000120 34 59 b9 bc 99 49 ff 3c f5 4a 5d bc 85 10 1d bc
       -0.022625543 0.031163024 -0.013506641 -0.009586458
000130 88 fe a1 3c 1d 0e 4e bd f8 8a 7d bc 28 5e ff bc
       0.01977469 -0.05030643 -0.015475027 -0.031172827
000140 48 90 89 3c 78 b0 29 3d 23 00 e4 bb ec ca 27 3c
       0.016792431 0.04142806 -0.006958024 0.010241251
000150 2b ab 9d 3b 7c 83 5f 3d c4 fc 3b bd 07 b7 b6 ba
       0.0048116646 0.054568753 -0.045895353 -0.0013940044
000160 10 1b 07 bd 98 72 3a bd 3b 07 01 3d 0e 72 36 bd
       -0.032984793 -0.04551944 0.031501036 -0.044542365
000170 03 61 b6 3c 15 e9 72 3c 50 ce 16 bc db 30 36 3c
       0.022263056 0.014826079 -0.009204462 0.0111200465
000180 9a 5e 81 bd ab 7a 53 bd 69 aa 54 bd 61 e1 60 bd
       -0.06316872 -0.051630657 -0.05192033 -0.054902438
000190 38 6f 28 3d 7f 4c d4 bc 18 e7 b6 3b 03 13 0b 3c
       0.04112169 -0.025915382 0.0055817477 0.0084884195
0001a0 be 79 09 3d dc db 58 3d bc ad ab bb b0 c4 60 3d
       0.033563368 0.05294405 -0.0052392166 0.054875076
0001b0 4c 91 94 bc 09 ac 55 bd 32 dd f5 3c 12 a7 60 3d
       -0.01813569 -0.05216602 0.0300127 0.05484683
0001c0 e6 8e 5e bd 6f a5 32 bc 00 47 ec bb cb 6c 72 bc
       -0.054335497 -0.0109037 -0.0072106123 -0.014796446
0001d0 7a 0b 74 bd 61 bd 5c bc 47 ce 57 3d 4f 13 76 bc
       -0.059581257 -0.013472886 0.052686956 -0.015019252
0001e0 1f 35 83 bd 1a 45 7b bd 00 f0 a8 b9 14 28 49 3d
       -0.064066164 -0.061345197 -0.0003222227 0.049110487
0001f0 2e 93 52 bc 85 a5 65 3d 28 90 02 3d 82 3c 28 3d
       -0.012852473 0.056066055 0.03187576 0.04107333
000200 70 3f 30 3d 77 7a 35 3d 16 d1 60 bd 18 30 23 3d
       0.04302925 0.044306245 -0.0548869 0.039840788
000210 bc 08 a1 bc e9 6c 6a 3d e0 b0 0c 3c 00 3f 0d 3d
       -0.019657485 0.05723277 0.008587092 0.03448391
000220 a6 b4 0b bd 3d 7e d8 3c f9 b0 9c ba 48 74 53 3d
       -0.034107827 0.026427383 -0.0011954597 0.051624566
000230 4c d3 29 3d 68 7c e0 bc c8 bd f3 3c 57 f9 11 bd
       0.041461274 -0.027403072 0.02975358 -0.03563818
000240 c4 62 ff bc 84 5b 4d bd 82 85 d9 bb 7b 8a 22 bd
       -0.031175025 -0.050136104 -0.00663823 -0.039682847
000250 38 c2 83 bc f6 70 66 3c 98 78 7d 3d 4e 88 45 bd
       -0.016083822 0.014065018 0.061882585 -0.048225693
000260 66 52 4b bd 70 e0 4e bd a7 da 1e 3d d0 8f 8e bc
       -0.04963913 -0.05050701 0.038782742 -0.01740256
000270 4e 02 71 bd 41 d2 d1 bc 98 3a 0f bd 5d 45 4f bd
       -0.05884009 -0.025612952 -0.03496799 -0.05060326
000280 89 81 c8 bb 00 39 12 bc 96 58 32 3d e2 2b 23 bd
       -0.0061189574 -0.008924723 0.043541513 -0.03983677
000290 da cc 8d 3c 40 57 98 3c f2 ed 3a bc 78 8a 47 b8
       0.017309595 0.018596292 -0.01140927 -4.7574256e-05
0002a0 b6 07 75 bd cc 9a 38 bd ba 8d 2f bb 78 95 57 bc
       -0.059821807 -0.0450695 -0.0026787356 -0.013158195
0002b0 c0 8e c8 ba fa d5 25 bd f8 53 82 3c 94 27 07 bd
       -0.0015301332 -0.040487267 0.01590918 -0.03299673
0002c0 a1 75 89 bc 1b 9c ec 3c 7c 86 d5 3c 35 6e 26 bd
       -0.016779723 0.02888303 0.026065104 -0.040632445
0002d0 34 5d 43 bd c3 dd 2f 3d 54 08 6a bd 78 84 16 3d
       -0.047696307 0.042936098 -0.05713685 0.036747426
0002e0 8b 55 31 3d 84 82 c3 bc 50 ed 5a 3d 3b 90 ba bc
       0.04329447 -0.023865946 0.053448975 -0.022773853
0002f0 ad a2 88 3c a4 26 c4 bc 6b 02 3c ba 26 dc c0 bc
       0.016679132 -0.023944207 -0.0007171991 -0.023542475
000300 a0 4c 91 bc d8 bb 84 bc 68 fc 08 bd 5b 1c 47 bd
       -0.017736733 -0.016202852 -0.03344384 -0.048611026
000310 b6 37 85 bd 20 45 7d bc e4 0f 83 3c 0c cc 45 bd
       -0.06504767 -0.015458375 0.015998788 -0.048290297
000320 77 b5 61 3d 44 63 3f 3d 7c a2 6c bd f0 95 93 3b
       0.0551047 0.046725526 -0.057772145 0.004503958
000330 0d 52 55 bd 8a a6 17 ba af 1e 0b bd 19 bd 5c 3d
       -0.052080203 -0.0005785009 -0.03396481 0.053891275
000340 79 f9 38 bd 7e 6b 43 3d 56 7f 65 3c 80 8d c3 3b
       -0.04515979 0.047709934 0.01400741 0.005967796
000350 ac 9c 80 bc ba 1d 81 bc 8f 90 e9 bb cf b3 06 bd
       -0.015699707 -0.015761245 -0.0071278284 -0.032886323
000360 1d 7f c7 bc 87 78 b9 bb ff c7 c6 3a 60 ed 2f 3b
       -0.024352605 -0.00566012 0.0015165805 0.0026844367
000370 4f bb 7b bd 8e 23 d6 bc f0 7c 6f bd 5f 7f 2a bb
       -0.06145793 -0.02614 -0.05846876 -0.002601586
000380 0a a1 64 bd c5 91 95 bc 40 20 cf bb e9 e1 50 bc
       -0.05581764 -0.018257985 -0.006320983 -0.012749174
000390 52 85 66 bd 3e 91 63 3d ac 52 9a 3c aa a0 b2 bb
       -0.056279488 0.055558436 0.01883825 -0.0054512816
0003a0 26 ab 09 3d 6e fe 48 bc 98 4d 5f bd c9 3e 21 3d
       0.033610485 -0.012267692 -0.05451736 0.039366517
0003b0 0f e8 5c 3c 70 df 08 bd c9 02 1f bc 8b 93 47 3d
       0.013483061 -0.03341621 -0.009705254 0.048724692
0003c0 f4 2c c0 bc 2a 66 81 bd 54 c2 e2 3c a0 49 39 3c
       -0.023458935 -0.063183144 0.027680553 0.0113090575
0003d0 cc 3a 64 3d b7 7f 53 3d c6 f5 71 bd 9c a0 f7 bc
       0.055720136 0.05163547 -0.05907228 -0.030227952
0003e0 97 2e 43 bc a0 48 a7 bc 76 06 6a bd c9 5b fc bc
       -0.011912963 -0.020420372 -0.057135068 -0.030805485
0003f0 e8 35 84 bc 6d 41 ac bc e6 30 e2 bb f6 0b f2 bc
       -0.016138986 -0.021027291 -0.006902802 -0.029546719

fc2.bias f4 [256]
000000 f6 3b aa 3c 2b 35 e6 3e 99 8d 5c 3d 02 3e 31 bd
       0.020780545 0.4496244 0.053845976 -0.043272026
000010 84 7e 68 bd fb f6 c1 bc 40 23 4d bd 85 6e 8a 3c
       -0.05676128 -0.02367734 -0.050082445 0.016898403
000020 18 3d e4 bc 08 68 24 bd c5 e6 cf 3d f3 57 e3 bb
       -0.027861163 -0.040138274 0.10151438 -0.0069379746
000030 3b ad c4 3e 11 95 63 3c 93 c3 67 3e 29 29 5c 3c
       0.38413414 0.013890521 0.226332 0.013437548
000040 a3 5e 71 3d 09 b2 96 bd a5 97 56 bc b5 b6 d1 bd
       0.058928143 -0.07358176 -0.013097678 -0.10239927
000050 fe b1 d7 bb 1a c2 65 bd 31 5d 18 3e d2 8e c7 3d
       -0.0065824976 -0.056093313 0.148793 0.09744038
000060 56 da 9d bb 04 47 75 ba 4b 74 04 3e e9 f9 b9 3e
       -0.0048172874 -0.00093565905 0.12934987 0.3632348
000070 ec 10 49 bd b6 47 83 bd 69 fe 41 3d 04 9c 86 bd
       -0.049088404 -0.06410162 0.047361765 -0.06572726
000080 32 08 63 3d ea d0 2a 3d ee d5 46 bd 39 79 c6 bc
       0.055427738 0.041703142 -0.048543863 -0.024227725
000090 5b 43 8f 3d d7 88 37 be 98 8c e2 3d e1 c3 4e 3e
       0.06995269 -0.17923294 0.110619724 0.2019191
0000a0 99 b3 82 3c bf 5a 3f bd af 1a e8 3b 2f ea 90 3d
       0.01595478 -0.0467174 0.007083259 0.07075917
0000b0 d6 71 4a 3d 38 74 e5 3c 45 90 cf bc aa 38 81 bc
       0.04942497 0.028009519 -0.025337348 -0.01577409
0000c0 4f 45 1e 3d 3f 89 c1 3e 9c 9e 49 3e ae 5a dc 3d
       0.038640317 0.37800023 0.19689411 0.10759483
0000d0 22 db e2 bd 1a d8 3f bd 2f 5a 8c 3d ae 35 38 3d
       -0.110769525 -0.04683695 0.06853139 0.044973068
0000e0 7c 18 36 3c ae cc dc bd aa fe 3f be 50 7c 34 3c
       0.011114236 -0.10781227 -0.1874949 0.011015967
0000f0 5e 54 71 bd c7 e5 96 ba 83 8f da 3c 8a 90 37 3d
       -0.05891835 -0.0011512571 0.02667976 0.044815578
000100 3b 6e fa 3d a8 30 fc 3b 75 44 0b bd aa 15 bf bd
       0.12228056 0.00769623 -0.034000833 -0.09330304
000110 db 94 2d 3f 36 78 65 3e 0a 93 b6 3d cf d1 f5 bb
       0.6780526 0.22409138 0.08914764 -0.007501818
000120 dd de e3 3d c8 c6 80 bd 19 c4 ec 3d fe d1 99 bd
       0.11126492 -0.062879145 0.1156084 -0.07510756
000130 42 bc 39 3e 6a 5b 40 bd 75 7b 7a bd ec 55 b8 3b
       0.18138221 -0.04696218 -0.061152894 0.005625477
000140 64 d6 e7 3d 7d 4a 0c bd 21 04 85 bd 14 71 53 bd
       0.11320189 -0.034250725 -0.06494928 -0.05162151
000150 8d dc fd bd 91 f3 01 3d 25 79 f0 3e 07 44 4d 3d
       -0.12395582 0.031726424 0.46967426 0.050113704
000160 41 b7 76 3a 65 3c 69 3c 2b 56 32 bc d0 63 1e 3b
       0.0009411462 0.014235591 -0.010884802 0.002416838
000170 11 e6 61 3e 1c be 44 3d d1 84 76 bd d6 9a 05 3d
       0.2206042 0.048032865 -0.060185257 0.032618366
000180 cb 69 57 bd ca 57 8c bd 6b f3 df 3b 2b 0b a1 3d
       -0.052591126 -0.06852682 0.0068344376 0.07863458
000190 c4 2a 49 3a 84 ab b7 bd 2b 57 50 3e 68 c1 4e be
       0.0007673914 -0.08968261 0.20345752 -0.20190966
0001a0 01 27 6a 3f 47 26 ce bd df 97 66 bd 4c 0b 19 3e
       0.91465765 -0.100658946 -0.05629718 0.14945716
0001b0 a3 7d d5 bc fd 69 10 bb 30 3f 8b bb 39 a7 85 3d
       -0.026060885 -0.002203583 -0.004249476 0.06526036
0001c0 e5 dc 69 bc 09 41 29 3c bd 36 d1 3c 39 8c f7 3c
       -0.014273857 0.010330447 0.025538797 0.03021823
0001d0 3c 94 26 3d 39 5e 81 bd 58 3b 19 3f 45 dc 3b 3e
       0.04066871 -0.063168 0.59856176 0.18345745
0001e0 5d d6 41 bd 58 26 e7 bc 97 ac db bc 7f 6c 6d bd
       -0.047323573 -0.028216526 -0.026815696 -0.057964798
0001f0 42 ad 82 3d ff 8d b8 3d fa 7d 32 3d ba 88 a1 3e
       0.063807026 0.090114586 0.04357717 0.31549627
000200 7d 3a 01 3d 53 7f 1c 3e 42 dd 5c bc b5 a5 58 3c
       0.03154992 0.15282945 -0.013480486 0.013223101
000210 a1 8a 97 bd 66 b4 0b 3e d1 a6 79 bc 39 4a e9 3d
       -0.07399488 0.13643035 -0.015237526 0.1139111
000220 10 67 1b 3e 8d 99 d3 3d fc 29 38 be 2b d3 55 3d
       0.15176034 0.10332022 -0.17984766 0.05220334
000230 bf cb 3a 3e e2 78 8b 3c 14 51 6a 3c 1f c6 0b 3d
       0.18241785 0.017025415 0.014301557 0.03412449
000240 46 f7 d7 3c 56 b7 79 bd 8a f8 a6 3c 79 c1 81 bd
       0.026363026 -0.06096586 0.020382185 -0.0633573
000250 0d fc 6a bd b2 40 3d bd 9f e2 b5 3d 18 e8 a7 3e
       -0.05736928 -0.046204276 0.08881115 0.3279426
000260 83 39 26 bd 8e dc 24 bd 8c d4 36 3d 5c 59 c5 3d
       -0.04058219 -0.0402494 0.044636294 0.096361846
000270 63 11 87 bd 08 77 d7 3d 8c 38 1f 3c f4 07 41 bd
       -0.06595113 0.1052075 0.009718072 -0.047126725
000280 c6 f6 f4 3d e5 f6 27 be 65 4b 4f 3c 33 d9 ef bb
       0.11961131 -0.16402777 0.012652253 -0.0073195933
000290 bf ae a5 bb e6 ea 9f bc ca 99 eb 3d 00 ce e1 bd
       -0.0050562317 -0.019521188 0.11503942 -0.110256195
0002a0 77 73 3b bd 7b 3d 76 bd 89 5e 79 3e 26 cf 63 bc
       -0.045764413 -0.060117226 0.24352469 -0.0139043685
0002b0 dc 1a c2 3d 2a 18 6f 3d 2e 3b e5 bc 23 d2 18 3d
       0.09477779 0.058372654 -0.02798232 0.037309777
0002c0 ff 7e 08 bd 7b 63 2f 3d 35 31 31 be 7a 4b 55 bd
       -0.033324238 0.04281948 -0.17303927 -0.052073933
0002d0 60 2e 86 bd 78 8b 86 bd d7 69 d8 bd 5b 76 3d bd
       -0.06551814 -0.0656957 -0.10567062 -0.04625545
0002e0 0e 82 66 bd 7c 26 60 bd ad 87 59 3d a7 c7 b9 bc
       -0.056276374 -0.0547242 0.053107906 -0.02267821
0002f0 2f 51 5a 3e 36 03 2a bd 02 32 90 3d bd 53 e3 bd
       0.21320032 -0.04150697 0.07040788 -0.11099956
000300 c2 c2 82 be a4 6f 00 3e 9e 49 76 3b c5 38 87 3d
       -0.25539213 0.12542588 0.00375805 0.06602625
000310 12 f2 ae 3c 4d e2 e1 3c e2 b2 ca 3d 7e b8 04 3e
       0.021355662 0.027573729 0.098974004 0.12961003
000320 61 98 a1 bb 23 8a 95 bd 1d 6e a5 3d 52 bb a0 3d
       -0.004931495 -0.07301738 0.08077643 0.078482285
000330 71 00 37 3e ec 9f 24 3e 19 ab 50 bd 5a 3e ef 3c
       0.17871262 0.1607663 -0.05094442 0.029204536
000340 85 a9 52 3d 8d 72 5c bc 2e fc 06 ba 07 da 25 3f
       0.051431198 -0.013455045 -0.0005149272 0.6478581
000350 b9 0e 87 bd 45 0e 20 3c ba a8 47 3d 05 dd ac bc
       -0.06594605 0.009769027 0.048744895 -0.021101484
000360 14 d9 92 bd cc f8 18 3e 18 1e b8 bc 5a 1d 66 3d
       -0.071703106 0.14938658 -0.022475287 0.056180336
000370 b6 7b 14 3e 50 58 0b bd 4c 9b 7e bd b7 7d cb 3c
       0.14500317 -0.03401977 -0.06215982 0.024840219
000380 20 29 52 3b 0d 20 3a bd 75 12 c0 3d 85 b2 f1 bd
       0.003206797 -0.045440722 0.093785204 -0.11801628
000390 c3 8c 23 be a1 8a 36 3a 07 06 d8 3c f2 8f 3f bc
       -0.15971665 0.00069634063 0.026370062 -0.011692034
0003a0 3c 28 19 bd 6e 14 d2 bd 0e 6c 03 bd bf 31 87 3d
       -0.037391886 -0.10257803 -0.03208547 0.06601285
0003b0 32 e2 c5 ba aa 59 2b bd 64 c9 55 3e d6 09 b9 bd
       -0.0015097319 -0.041833557 0.20877606 -0.09035079
0003c0 5e e1 4f 3d 34 85 49 3d 47 f6 c4 bd 21 2c 7a bd
       0.050752036 0.049199298 -0.09617286 -0.06107724
0003d0 8c 94 68 3d 23 8c 11 bd 76 1a a7 3d e6 cc ae bd
       0.05678229 -0.035534035 0.08159344 -0.08535175
0003e0 48 c4 1e 3e c6 42 0d 3c 57 30 ba 3e ec c6 f6 3c
       0.15504563 0.008621877 0.36365005 0.03012415
0003f0 97 e0 40 3d 7d c4 88 bd 0a 0d 1d be 53 1b de bc
       0.047089186 -0.06678102 -0.15337005 -0.027112639

fc3.weight f4 [128, 256]
000000 80 54 9a bb d6 92 ad 3b ba ba 3c 3f ca b7 fa 3b
       -0.00470978 0.005297045 0.7372242 0.007651304
000010 7a c8 0e bd 88 24 2d 3d 7b 60 1a bd 32 bb 09 3f
       -0.034859158 0.042271167 -0.037689667 0.5380126
000020 62 4c 50 bd fe f2 30 bd a3 66 82 3f 65 05 b6 bc
       -0.050854094 -0.043200485 1.0187572 -0.02221937
000030 7c f5 ff 3e 17 7d 56 bd 7b 09 79 bc 52 50 9a 3f
       0.49991977 -0.05236539 -0.015200014 1.2055762
000040 84 c6 63 3f 93 1a e1 3e 96 c7 0f bd 8d fb 39 3f
       0.88974786 0.43965587 -0.03510245 0.7264946
000050 8e 3f 55 bd f8 22 07 3f d3 b0 9a bd c5 29 56 3f
       -0.052062564 0.52787733 -0.07553258 0.83657485
000060 61 de 4d 3f 36 50 7c 3d fe e6 24 3f be 79 ef 3a
       0.8041745 0.061599933 0.64414966 0.0018270535
000070 06 8b 5c 3b 6c 44 5d 3b 7f dc 22 3f e2 d4 80 3f
       0.00336522 0.0033762706 0.636177 1.0064967
000080 ea da 9d be a7 24 d1 3b 46 d5 31 3f c5 8a 94 3f
       -0.3083108 0.006382543 0.69466054 1.1604849
000090 2b c6 7b 3f 0c c1 04 bf c3 81 79 3f 45 a9 ca 3e
       0.98349255 -0.51857066 0.97463626 0.39582267
0000a0 42 c1 2b 3c da 56 7c bd fe 1d b8 38 13 7f 85 3e
       0.010483088 -0.061606266 8.77939e-05 0.26073512
0000b0 5a ff 69 3f 00 38 a4 3c 7f ce 1b bd 01 ad 06 bd
       0.9140526 0.020046234 -0.038038727 -0.032879833
0000c0 e5 a1 88 3f 26 d2 dd 3c 09 f5 d0 bb 31 22 88 3f
       1.0674406 0.027077746 -0.0063768667 1.0635434
0000d0 37 1f b9 3f c2 b7 a6 3f 21 62 e1 3f 31 82 d5 bc
       1.4462651 1.3024828 1.7608072 -0.026063057
0000e0 73 95 e2 bc f4 b5 15 3f 6b 5f 42 3f 1e bb fc 3c
       -0.027659154 0.58480763 0.75926846 0.030850943
0000f0 a9 27 b7 be 02 f9 8d 3f de e9 1d 3f 9c 05 a7 bf
       -0.35772446 1.1091616 0.6168498 -1.3048587
000100 25 2c 82 3f d8 53 a6 3d 68 a2 b7 3c 33 01 32 3f
       1.0169722 0.08121461 0.022416309 0.6953308
000110 85 9b 32 3e de c0 7b bd 2a 2c 93 3f a1 57 29 3d
       0.17442138 -0.06146323 1.1497853 0.041343335
000120 8d a5 20 40 da 93 8d bb af ca a3 3e 32 98 2a bd
       2.5101044 -0.004320604 0.31990573 -0.04164905
000130 d9 88 40 3f 6a b6 12 3d 99 a0 29 3f 3b 52 1b 3f
       0.7520881 0.035818495 0.6626068 0.6067235
000140 6a 33 55 bf 88 2e 8a bf ab 08 77 3d 98 77 55 3d
       -0.83281577 -1.079545 0.060311 0.052116007
000150 42 57 91 3f 9f f9 07 bd 7b 24 ed bb c1 4c 2f 3f
       1.1354754 -0.03319704 -0.007237015 0.6847649
000160 df d4 a6 bb 7b fa 91 bc 14 20 c7 bc f2 4e 01 3f
       -0.005091294 -0.017819634 -0.024307288 0.50511086
000170 81 ce 2c bd 67 0d a7 bc 51 c7 90 3f b6 18 07 bd
       -0.042189125 -0.020392133 1.1310827 -0.03298255
000180 a2 d9 1e 3d 73 b8 85 3f b0 ba 2d 3f e2 88 dc 3e
       0.03878177 1.0446914 0.6786299 0.43073183
000190 8f a6 0e bc 7d 1c 61 3f c2 8c 31 3f ce ff 5b 3f
       -0.008706703 0.87934095 0.69355404 0.859372
0001a0 56 89 3f 3e eb e9 e0 3e de 5b 82 3f 51 38 1b 3f
       0.18704733 0.43928465 1.0184286 0.60632807
0001b0 46 05 83 bd 7e 91 1a bd 5b c1 1b 3d 0f ef d6 3f
       -0.0639749 -0.03773641 0.038026195 1.6791705
0001c0 2e b8 ee 3c 76 2d 46 bd 11 4f 00 be f2 4d e6 be
       0.029140558 -0.0483832 -0.12530161 -0.44981343
0001d0 da ab 69 bd 04 aa 02 3d e9 ce 95 bb a0 b1 f8 3e
       -0.057048656 0.03190042 -0.0045717848 0.48573017
0001e0 06 6b 09 bd 24 bb b7 bb 98 0c 10 bd f6 fa 5b bd
       -0.03354933 -0.0056070257 -0.03516826 -0.053706132
0001f0 8a 69 10 3f 70 ea 2a 3f 36 2c 13 3d e1 32 e1 bc
       0.5641104 0.66763973 0.035930835 -0.027490081
000200 e5 18 27 c0 3a 1a 48 3f 8c 66 86 3c c7 56 8e bf
       -2.6108944 0.7816502 0.01640632 -1.1120232
000210 26 72 15 3d 19 94 b3 3e 4f 3f 44 3d 47 24 7e 3f
       0.036485814 0.35073927 0.04791194 0.99274105
000220 b5 17 7a bd 9b db 92 3f d7 7a 0c 3f d0 c3 18 40
       -0.061057765 1.1473268 0.5487494 2.3869514
000230 98 71 1b 3f be eb 80 3f 8b 49 68 3b d9 be 08 bd
       0.60720205 1.0071943 0.0035444226 -0.03338513
000240 3a 76 35 bd 24 50 63 3f 46 5c 58 3f b6 0c 16 3f
       -0.044302203 0.8879416 0.845158 0.58613145
000250 d2 41 dd bc 09 a2 82 3f aa d4 84 3f 20 84 db 3c
       -0.027008925 1.0205699 1.03774 0.0267964
000260 d9 63 59 3b 16 91 e6 bc c2 a5 bd 3e 72 9a 02 3f
       0.0033171086 -0.028145354 0.37040526 0.51016915
000270 57 c5 13 bc 97 1b 99 3f 4a b5 2e 3f a7 6f 97 bc
       -0.009019217 1.1961545 0.68245375 -0.018485857
000280 ad 47 28 3f 4f 09 09 bf 2a fd 68 3d 37 e9 48 bd
       0.6573437 -0.5352983 0.05688206 -0.049050536
000290 ba 9e 93 3b ba 08 da 3f cf b3 65 3f 5b 89 0d 3f
       0.0045050057 1.7033913 0.8972749 0.5528771
0002a0 48 b3 37 bd f0 64 83 3d 96 a2 bc bd c8 f0 2b 3d
       -0.04484871 0.06415737 -0.09210698 0.041977674
0002b0 5f e5 3d bf 9a 24 50 3f cd ea 37 bd 6e 9e 64 3d
       -0.7417812 0.8130585 -0.044901658 0.055815153
0002c0 50 da d5 3b 56 2f c5 3c 98 e6 dc 3e 1b 51 27 3c
       0.006526269 0.024070423 0.4314468 0.010212208
0002d0 92 53 9f 3d 3c 08 94 bc 2d 53 36 3d da a8 9d 3c
       0.07779612 -0.018070333 0.044512916 0.019245554
0002e0 b7 fd d1 bc 21 37 2a 3d cc 1c 88 3f 3c a6 08 3f
       -0.025633676 0.04155648 1.0633788 0.53378654
0002f0 22 e3 5f bd 0e f3 0b bd ad 38 25 3f 64 66 e8 3f
       -0.05465997 -0.034167342 0.64539605 1.8156247
000300 86 6d 5e be 9b 8f 3b 3f 81 b0 2a bd 0e 85 31 3f
       -0.21721467 0.73266 -0.041672233 0.6934365
000310 2f a6 4d bb f4 4c 20 3f 1e b6 9e 3e c3 72 3a 3f
       -0.003137957 0.6261742 0.3099832 0.7283136
000320 4d e4 f4 3e 94 7a bd 3e 89 ad 7d bd 57 c4 47 3f
       0.4783043 0.37007582 -0.061933074 0.78033966
000330 05 bc 4a 3f d8 6a 47 3f 98 6c 00 bd f7 d0 27 3f
       0.79193145 0.77897406 -0.031353563 0.6555323
000340 b0 fa dc 3e 5e bb 65 3d e3 c4 0e 3b 70 21 a3 3d
       0.4316001 0.05608689 0.0021784834 0.07965362
000350 10 98 99 3c c5 dc 4d 3c d0 63 9f be bc 8d ab 3d
       0.018749267 0.012564843 -0.31130838 0.08376643
000360 5c 42 16 3c 57 97 20 be 25 38 76 3c 1c 68 62 3f
       0.009171095 -0.15682732 0.015028034 0.8844011
000370 d4 db af 3f 0c 16 b3 3c 8f f4 60 bd d8 01 d5 3c
       1.3738961 0.021861099 -0.05492073 0.026001856
000380 e7 27 b2 bc cc 46 0b bc b5 47 03 bf 79 9c ac be
       -0.021747543 -0.008500766 -0.5128129 -0.3371313
000390 a4 8c 84 3f 3d 05 19 3f 8a 4f 91 3f fe a2 59 3f
       1.035542 0.5977362 1.1352398 0.8501433
0003a0 f2 53 a9 be 1f ce 8b 3f d1 60 86 3f 09 dc 51 3f
       -0.33071858 1.0922278 1.0498296 0.8197637
0003b0 de ae 35 3c 0d cd 2b 3f 44 8b 4c bd 11 b0 bc bc
       0.011089055 0.6710976 -0.0499375 -0.023033174
0003c0 cf 1d 25 3d af 1b 62 3f e6 7b 23 3d 6c 88 13 bd
       0.04031163 0.8832349 0.03991308 -0.036018774
0003d0 92 ac 5a be b4 ac be 3c 8f 91 73 3f 71 54 48 3f
       -0.21354893 0.02327571 0.9514398 0.7825385
0003e0 4f ae 8c 3f 01 ef 80 3e ed c9 5f 3d 4c 27 de bc
       1.0990695 0.25182346 0.05463593 -0.027118348
0003f0 69 ed 9b 3f 19 a1 70 bd dc 3c 35 3f f5 1b d0 3c
       1.2181827 -0.058747385 0.7079599 0.025403956

fc3.bias f4 [128]
000000 61 65 19 3e 5e 47 3a bc c3 c2 ad bd 8f e9 ae 3d
       0.14980079 -0.011369554 -0.084844135 0.085406415
000010 b4 9b 22 3e 24 51 1c 3d df b4 83 3d 6b 0b 0d 3d
       0.15879709 0.03816332 0.06430983 0.034434717
000020 63 38 ef 3d 09 fe 13 3f 5e d1 a2 bd fc 68 b1 3d
       0.11680677 0.578095 -0.0795009 0.08662602
000030 0b 47 21 3c bd 8d 32 3e d6 07 85 3c d6 91 98 bc
       0.009843598 0.17436881 0.016239088 -0.018624227
000040 1d 4f 0f 3e 3f a5 09 3d b8 2e e1 3e 87 17 0c 3e
       0.13995023 0.033604857 0.43980956 0.1368085
000050 fb 19 bc 3b 0c b9 1b be 11 25 1d 3e fc 2b 76 bc
       0.005740402 -0.15207309 0.15346171 -0.015025135
000060 08 6c 9d 3d 29 ab b5 3d 0c 9c 98 bc 53 f2 9b 3e
       0.07686621 0.08870537 -0.018629096 0.30458316
000070 b0 34 bd 3d 68 31 a6 bc 84 8c 8a 3d e5 76 db bc
       0.09238565 -0.02028723 0.067650825 -0.026790092
000080 ea 4a 44 bd ae 23 df bb 03 23 04 3e 90 a9 fc 3d
       -0.047923006 -0.0068096733 0.12903981 0.12337029
000090 da 98 2d 3d 44 16 65 3e 81 8b 5c 3d 94 a6 93 3d
       0.0423821 0.22371775 0.05384398 0.07209507
0000a0 b7 69 31 bd dc 9d 0d 3e 40 3d 65 bd 54 83 25 bd
       -0.04331371 0.1382975 -0.055966616 -0.040408447
0000b0 de 3f 4c 3e 32 fd 3f bd 04 7a f1 bc d1 63 81 bd
       0.19946238 -0.046872325 -0.029477127 -0.063178666
0000c0 ff 82 2f 3d 32 94 8e 3c e9 32 3f 3d f7 ee 03 3e
       0.042849537 0.01740465 0.04667941 0.12884127
0000d0 ae 7f 7a 3d 62 00 fc 3d 2b 79 b5 3d 41 55 43 3e
       0.06115692 0.123047605 0.088610016 0.1907549
0000e0 c8 5e 8a 3e 31 10 dc 3c 02 c3 74 bd c0 6d da 3d
       0.27025437 0.02686319 -0.059756286 0.106654644
0000f0 e1 1e ae 3c 52 85 3b bd f7 b5 e8 3d 1a 2d 4a bd
       0.021254959 -0.04578144 0.11362832 -0.04935942
000100 7c 4d cf 3d 47 be 49 3d ef a0 bd 3d 96 8b b1 bb
       0.10122201 0.04925373 0.09259211 -0.0054182513
000110 d5 02 5c bc 5c 60 5b 3e a6 78 a0 3c 9e de 1c 3c
       -0.01342841 0.21423477 0.01958878 0.00957456
000120 0b 49 2c 3e ad e1 f5 bc c9 f2 f6 3d 7d 25 48 3e
       0.16824739 -0.030014837 0.12058026 0.1954555
000130 d3 96 14 3e 0b f8 27 3e 47 56 d0 bc 45 a5 78 3e
       0.1451066 0.16403215 -0.025431765 0.24281795
000140 6e a3 b5 3e b6 72 05 3d 45 d9 18 3c 14 e9 1a 3d
       0.3547625 0.0325801 0.009329145 0.037819937
000150 ab e4 34 3d cf 2e 07 bd 32 8b 75 3e bb 50 a5 3d
       0.044163387 -0.033003625 0.2397888 0.08072039
000160 18 cb 31 be 11 75 24 bd d2 14 1b 3e 78 22 31 bc
       -0.1736263 -0.040150706 0.15144661 -0.010811441
000170 ae 6e 57 3d e2 71 64 3e 12 d1 91 bc 94 88 72 3e
       0.052595787 0.22309068 -0.017799888 0.23684913
000180 89 3e d1 bc ef dd 45 bd 86 a3 43 3c d2 dd 8d bd
       -0.025542514 -0.048307355 0.0119408425 -0.069270745
000190 2a 5b 2c bd 99 8f 93 3e e7 d1 3a bd 52 fe a3 bc
       -0.04207913 0.28820494 -0.045610335 -0.02001873
0001a0 20 b3 7a 3b 65 8c ef 3c 30 60 85 3d 47 9f 09 be
       0.003825374 0.02924175 0.06512487 -0.13439666
0001b0 a9 76 6f bd 44 3f 72 3c f9 f8 06 3e 2f a5 32 3c
       -0.058462773 0.0147855915 0.13180913 0.010903641
0001c0 1e b9 dd 3d 08 2a d4 3c d5 71 68 bd 86 74 a4 3d
       0.10826324 0.025898948 -0.056749184 0.080300376
0001d0 d8 d0 cd 3d bc 38 d3 3c 0c 0a df 3d 96 6d 95 3e
       0.100495994 0.025783889 0.10890588 0.2918517
0001e0 03 ac 4a bd 7c 14 e3 3c d9 77 8f 3e 17 f6 a9 3e
       -0.04948045 0.027719729 0.28021124 0.33195564
0001f0 46 52 bc bd f0 0e 4b bc 7b ec c8 3c 74 6d eb 3e
       -0.0919538 -0.012393698 0.024526825 0.45981944

fc4.weight f4 [7, 128]
000000 e0 9e 3e bf 02 63 54 3d bb bf 2b bd e6 c2 55 bf
       -0.74461174 0.051852234 -0.041930895 -0.83500516
000010 75 14 6d bf 7b d0 f3 be b8 be 48 bf 07 15 35 3c
       -0.9260934 -0.47619995 -0.78416014 0.011052377
000020 41 e1 5b bf 07 8a aa 3f 9d e7 10 bc 49 a0 56 bf
       -0.85890585 1.3323373 -0.008844283 -0.83838326
000030 87 68 a5 3d 67 eb 50 bf 56 a3 47 3d 4f 0f 54 bf
       0.08076578 -0.81609195 0.048739754 -0.8283586
000040 de 3b 3b bf d8 c9 4d bf ee 57 8b 3f 3c ca 3e bf
       -0.73138225 -0.80386114 1.0886209 -0.74527335
000050 d3 13 22 bd b2 3c 1e 3d 00 1f 49 bf b2 22 82 3d
       -0.039569687 0.038632102 -0.7856293 0.06354274
000060 e1 61 4a bf 85 71 45 bf 82 5b 48 3d 7c d2 36 3f
       -0.790556 -0.7712634 0.048915394 0.71414924
000070 99 d1 5b bf 23 48 b4 3d e8 08 53 bf 02 8d cc 3d
       -0.85866696 0.088028215 -0.82435465 0.099878326
000080 ec 93 ec 3c 8b ce 49 3d b8 9e 4d bf 42 e6 4c bf
       0.028879128 0.04926924 -0.8032031 -0.80038846
000090 a8 e7 69 bf ba b5 45 3f fc 5d 0b 3d 93 21 51 bf
       -0.91369104 0.7723042 0.034025177 -0.81691855
0000a0 73 4a a9 bc 4e b0 4b bf 93 e5 bc 3c 9f 06 a7 3d
       -0.020665383 -0.79565895 0.023058688 0.0815556
0000b0 14 60 84 bf 15 d7 a9 3d fe 72 18 3d e9 9b 55 bd
       -1.0341821 0.08292977 0.03721904 -0.05215064
0000c0 3d 16 9e 3d 6f a4 74 3d e3 5c 53 bf 4b d5 60 bf
       0.07719085 0.05972713 -0.8256361 -0.8782546
0000d0 d7 e2 4e bf c4 5d 45 bf 09 80 86 bf e4 68 99 bf
       -0.8081488 -0.770962 -1.0507823 -1.1985135
0000e0 80 a4 38 3f a5 21 51 bf 1a 6d 8a 3d 65 84 65 bf
       0.7212601 -0.8169196 0.06759091 -0.89655143
0000f0 00 7d 02 3a e9 1c 4a 3d e0 51 4c bf 07 2a 6a bd
       0.0004977733 0.049343977 -0.7981243 -0.057168987
000100 9d 57 4b bf 23 7a 82 3d 8e 6e 5d bf 42 81 45 3d
       -0.7943056 0.06370952 -0.8649682 0.048218973
000110 bc 13 8b 3c df 1b 55 bf 89 fd 5d bd 59 7c 8e 3d
       0.016977184 -0.8324565 -0.054196868 0.06957311
000120 51 42 5b bf 4e 80 08 3b 09 c0 73 bf 6a 0e 1b 3f
       -0.85648066 0.0020828429 -0.952149 0.6056887
000130 2c a8 85 bf 8c 99 5a bf 01 23 4c bd 34 7f 45 3f
       -1.0441947 -0.85390544 -0.04983807 0.7714722
000140 7b ba 83 3f 1c c4 a8 b9 ad db 88 bd 74 09 3a 3d
       1.0291284 -0.0003218957 -0.06682525 0.04541917
000150 28 a2 b5 bd 16 82 e3 bc e7 6f 38 3f d1 b6 4f bf
       -0.088688195 -0.02777199 0.7204575 -0.8113833
000160 2e 20 f2 be 22 29 fb 3c be 85 84 bf 0b c2 07 bd
       -0.47290176 0.030659262 -1.0353315 -0.03314404
000170 b6 d5 a0 3d c0 92 36 bf 80 3b 78 bd 50 5c 4f 3f
       0.07853262 -0.7131767 -0.06060362 0.8100023
000180 47 ec ae 3c 40 84 be 3c 47 cf 86 bc c0 01 a4 bc
       0.0213529 0.023256421 -0.01645626 -0.020020366
000190 91 06 5e 3d 10 55 3b 3f 1c 2f 84 bb 12 20 a4 3d
       0.05420548 0.7317667 -0.004033936 0.080139294
0001a0 aa 4c 3d 3d 05 d0 53 3d fe 1e 55 bf e7 be 09 bf
       0.04621569 0.051712055 -0.83250415 -0.5380692
0001b0 d7 d9 43 3d 6c e1 5c bf 86 4e 65 bf 0c b8 9c bc
       0.04781517 -0.86281466 -0.8957294 -0.01913073
0001c0 cd 36 60 bf 0f 21 15 3d 10 3f c3 3c 4c a5 60 bf
       -0.8758362 0.03640848 0.023833781 -0.87752223
0001d0 d8 e1 83 bf a0 d0 dd 3c 9e f5 5b bf 1f e7 43 3f
       -1.0303297 0.02707702 -0.8592166 0.7652454
0001e0 b3 6a da bb bc 57 91 bd a2 db 44 3f 0d 02 68 3f
       -0.0066655516 -0.07096812 0.76897633 0.9062813
0001f0 5f e3 1d bf 94 56 13 bd df be 5e 3d bb 64 9c 3f
       -0.61675066 -0.03597124 0.054381248 1.221824
000200 2f a4 4a bf 17 57 cb 3d ae 5f 8c bd b7 9c 55 bf
       -0.79156774 0.099287204 -0.06854187 -0.8344225
000210 7c 28 77 bf 48 3b 28 bf 8d 69 3b bf 98 e4 b7 bd
       -0.9654615 -0.65715456 -0.7320793 -0.08979148
000220 ee 45 6f bf f0 55 aa 3f 7f 3d 07 3d b4 70 1e bf
       -0.9346608 1.3307476 0.03301763 -0.6189072
000230 13 9e 4d bc 94 f2 36 bf a7 b1 9c 3d 3e b0 59 bf
       -0.012549895 -0.71463895 0.07651072 -0.8503455
000240 ec 5c 2e bf ad 6f 4b bf fd 6e 97 3f 4f 02 64 bf
       -0.6811054 -0.7946728 1.1830746 -0.8906602
000250 25 54 a2 bc 9d b4 90 be ef 2c 6c bf 2e a7 bd bd
       -0.019815514 -0.28262797 -0.92256063 -0.092604026
000260 a1 37 4e bf 7a c4 39 bf 84 1c af bc c2 cb 45 3f
       -0.8055363 -0.72565424 -0.021375902 0.77264035
000270 bd 93 3d bf 50 83 90 bb 5d 79 61 bf 16 bc 3a bd
       -0.74053556 -0.004410185 -0.8807581 -0.04558953
000280 40 ee ec bc 04 dc a0 bd 81 d4 59 bf 9f 92 4e bf
       -0.0289222 -0.07854465 -0.8508988 -0.80692476
000290 07 66 5f bf 5a 22 40 3f 34 b5 54 3d 30 2e 4a bf
       -0.87265056 0.75052416 0.05193062 -0.78976727
0002a0 d8 9a 11 3d 9c 55 4f bf 2e 95 0b 3d 4f 84 33 bd
       0.03554806 -0.80990005 0.034077816 -0.04382735
0002b0 17 90 75 bf a2 f4 65 3d 9e 25 98 bd 0f 1c 18 bb
       -0.9592299 0.056141503 -0.0742905 -0.0023210084
0002c0 1b be 75 3d 9f 4a a3 bd 55 72 3d bf 0a a5 43 bf
       0.05999575 -0.07973217 -0.7400258 -0.76423705
0002d0 ed 1c 48 bf 59 a4 6f bf 6a 19 8d bf 7c ba 94 bf
       -0.7816914 -0.9361015 -1.1023381 -1.161941
0002e0 ad 58 3b 3f 9d 96 76 bf 49 b1 62 3d c2 16 64 bf
       0.73182184 -0.9632357 0.055344854 -0.89097226
0002f0 84 cf 98 3d ec ad fd 3c a8 67 65 bf 46 d4 9d 3d
       0.074614555 0.030966721 -0.8961129 0.077065036
000300 ef 35 7f bf 47 50 d1 bc d8 d0 19 bf 6b dc 80 bc
       -0.9969167 -0.025550975 -0.60084295 -0.015730103
000310 f4 ee 67 3d 93 d8 27 bf 7d e7 12 3d 08 b4 c9 bc
       0.056624368 -0.6556484 0.035865296 -0.024621978
000320 e5 dd 79 bf 46 0c 0d 3d f0 2a 3f bf 03 2e 1e 3f
       -0.9760421 0.034435533 -0.7467489 0.6178896
000330 ee 9a 6c bf 01 fb 6f bf 0d a1 18 bd f6 b3 2a 3f
       -0.92423904 -0.93742377 -0.037262965 0.6668085
000340 39 6c 7c 3f 70 96 77 3c 19 cc dd bc ba 5c 58 3d
       0.98602635 0.015111551 -0.02707486 0.052822806
000350 bc cf 8a bd ac bc fb bd 38 6f 31 3f 4a e8 5f bf
       -0.067779034 -0.12291846 0.6931033 -0.8746382
000360 54 00 5e be ee c8 27 bd 5c 01 80 bf c6 08 db bc
       -0.21679813 -0.040963106 -1.0000415 -0.026737582
000370 d4 c1 c0 3c 72 94 50 bf 66 7e 54 3d 2a d8 36 3f
       0.023529924 -0.8147651 0.051878355 0.7142359
000380 b3 c5 e3 39 d1 7a a3 3d 2e c5 d5 3c 6a 45 af 3b
       0.0004344411 0.0798241 0.026095 0.005348851
000390 21 ab 4f 3d 6d c5 3e 3f 5c 64 86 bd ea 66 19 bd
       0.05070031 0.7452 -0.06562111 -0.037451662
0003a0 e5 f3 8b 3d 63 0c 1b bd 21 13 66 bf 89 e5 cb be
       0.068336286 -0.03785361 -0.8987294 -0.3982356
0003b0 55 2f 0c bd 26 a0 5e bf 1a 24 6d bf e2 07 b5 bd
       -0.034224827 -0.8696312 -0.9263321 -0.08839394
0003c0 c6 27 72 bf 2b b6 c5 3b e4 41 57 bd 8e 55 5d bf
       -0.9459194 0.006033679 -0.052553073 -0.8645867
0003d0 95 5b 91 bf 25 2a 86 bd d7 26 32 bf c4 c7 39 3f
       -1.1356074 -0.06551007 -0.69590515 0.72570443
0003e0 6e 17 38 3d 7a e2 56 3d af 53 4e 3f f3 d1 7b 3f
       0.04494422 0.05246208 0.8059644 0.9836723
0003f0 0f a8 fb be f4 35 1b bd 00 07 9e bd 9e 14 9e 3f
       -0.49151656 -0.03789325 -0.07716179 1.2350042

fc4.bias f4 [7]
000000 16 c3 41 bd ba 4b 3b bd 42 87 a7 3e 7a 82 f1 be
       -0.04730519 -0.045726515 0.3272038 -0.47169858
000010 ab 03 9d bc 9c 18 b6 3e de 18 e5 bd
       -0.019166788 0.3556565 -0.11186384
