models/lateral_stage2_seed123_final.pth (torch, 412467 bytes, 8 tensors)

fc1.weight f4 [256, 9]
00000000: 7dec 583f ba15 64bd 5a48 403d fb1b 1a3f
00000010: 7525 fbbe de68 c6bc 4618 78be eaaf 87be
00000020: 8f4d e93d 3c6b 38bf f689 eabc ac1d b9bd
00000030: 84be 2abf 3426 bdbe 827a 213e 5028 86bd
00000040: 0332 82be b0cb 783e eb37 4040 302a 88be
00000050: ac5c 03be 78af 4a3e ddb8 f1bd d77a 183f
00000060: cef1 19be 4c3c d83d 4118 82be 917f 073f
00000070: e2b9 9d3e 0db8 97be 31ae b93e 3ca6 963e
00000080: 66d8 70bd b284 0c3e 03e0 8d3e 3ba5 05bc
00000090: ce77 5fc0 5838 2c3b 15ed 5dbe f009 86bc
000000a0: 2157 35bc cb5e c1bc b046 f8bc b5b0 a13e
000000b0: dae7 59bd d905 8ac0 9a87 e5bc 3371 903d
000000c0: 7ab0 de3e 519c 183e 03d4 bc3e c459 943d
000000d0: ccf7 a03d a1c3 5a3e f851 6d40 7ea0 47be
000000e0: 4d93 05bf aae9 7d3e 693e fbbd b60d 13be
000000f0: c059 573d 5d04 8d3e 9054 a93d bbea 49c0
00000100: d298 8ebe 41b1 b43d a3a3 4fbf 41a1 a73b
00000110: c08b 43be dad6 1f3e 31cd 953e 88a5 743d
00000120: 6cf7 4ac0 9094 ad3c 92a1 3d3e 1175 32be
00000130: f9a7 223e 07ec 05be 80cf a2bc 22b9 703e
00000140: e07a 093e bbf5 52c0 a608 22be a16e b3bd
00000150: 39b6 5bbe 4d56 be3b 05c2 82be dfc1 8d3e
00000160: cad4 3b3e 3d5a afbd cb5b ebbf 38e0 ba3e
00000170: 9cbd 2dbd bdd2 2a3e 3331 0cbe 8c11 92bd
00000180: cda2 a63e da99 653e 851f 8d3e 74c6 3040
00000190: d325 2f3e ef73 e8be 7517 88be 86c9 f8bd
000001a0: 0df4 5dbe 46d4 aebd 504e cc3c 4b9c c63e
000001b0: 141d 2040 483a 93bc f353 c73e 6db3 c7be
000001c0: 22bb 233e 4aff 3f3d 3895 6dbd 20d8 1f3d
000001d0: 5857 96be 99a5 683f fa29 8bbc 26c3 2e3f
000001e0: eee0 593e 4152 32be ca65 4a3e e36b 12be
000001f0: 053c a23e 12c0 02bf 5502 cc3f 2315 1ebd
00000200: 6d52 9d3e 37bf 123f c576 32be f8ae d2bd
00000210: 0033 f53a 925d 80be d54c 553e 1644 6740
00000220: c2a8 7cbd 8398 663d 8584 d8bd 65a9 b4bc
00000230: caba d23d bc56 d4bd a027 c43d df73 9a3e
00000240: cd59 3ac0 1ba0 f8be 6ebb 793c 04bc 67be
00000250: c700 8cbe f111 ccbe 802a 5ebe 3cdd e7bd
00000260: 4bc8 09be 997d a13f 8b74 883e bcf0 253f
00000270: 4da2 1fbf bf8c 573e d5e5 e9bd eece 433e
00000280: 4446 8e3d 0e59 373e 8aad 0940 3149 2c3f
00000290: cb38 2c3e 191c 763f 66ad 39be b6ab a23d
000002a0: 52f4 633e 6aa9 7e3e 2449 2e3e 797a febf
000002b0: bef2 553d 16ee 823d ef82 1abf 840d 57be
000002c0: 6d92 8fbd 9c4e efbd 91a9 943e 06e0 9cbc
000002d0: a272 66c0 3cc5 3dbd f048 0c3f d003 99be
000002e0: 944c 1bbe 667a 0abe 8b71 44be fe0d 303e
000002f0: 631f 423e 3f9c 0bc0 d37a 21bf 21a1 cdbe
00000300: 8e2e 7bbe 2ea3 3b3e 3488 3fbe c005 1ebe
00000310: 143d d93d 63ed b6bc 666e e8bf 51f9 4cbe
00000320: 4508 213d f067 d7bc d827 1f3e 981a e5bc
00000330: f83d 84be 00d6 123b 832a f4bd 93c6 a4bd
00000340: bc9c a1be 17a6 df3e f6f1 c1bd d01c 6b3d
00000350: 5d2f be3e 13d9 56be 34ca b63d 4cce 74bd
00000360: ca98 0540 6523 bbbe 2e49 3cbc 9b9e 053e
00000370: 3314 2ebf c046 0dbf e8e7 023e d0b1 c6bd
00000380: 357b 9e3d b123 d0c0 8891 7dbd 032f ddbe
00000390: 9c7d e43c 103f e2bc d831 22be 0027 63bd
000003a0: c366 85be c4b6 283e 05a9 2c3f c305 afbe
000003b0: 116d 683c 8392 003a 98fa 39bf c313 90ba
000003c0: 2693 363e 109f 80bd 3d44 d9bd 5fb8 55bf
000003d0: 7c13 833e ece5 ea3e 5d7a 8bbe 9c62 fcbd
000003e0: f951 b13e 18d6 263e 2e4a 533e 7a67 77be
000003f0: c518 503f 0192 81be b21b d33d 7e54 433e
0.8473585 -0.055684783 0.046944 0.60198945 -0.49052015 -0.024219926 -0.2422801 -0.265014
0.11391746 -0.72038627 -0.028630238 -0.090388626 -0.66696954 -0.3694321 0.1576939 -0.06550658
-0.2542878 0.2429645 3.003413 -0.26594687 -0.1282832 0.19793499 -0.11802838 0.5956244
-0.15033647 0.10558376 -0.2540913 0.52929026 0.3080588 -0.29632607 0.3626571 0.29423702
-0.058800124 0.13722494 0.2770997 -0.00815707 -3.4916873 0.00262787 -0.21672471 -0.01636216
-0.011068136 -0.023604771 -0.030307144 0.3158013 -0.053199627 -4.313214 -0.028018761 0.07052841
0.43494016 0.1490338 0.36880502 0.07243684 0.078597635 0.21363689 3.708128 -0.19494817
-0.5217789 0.24796167 -0.12267763 -0.14360699 0.052575827 0.2754239 0.08268082 -3.1549518
-0.27850968 0.08822871 -0.81109065 0.0051156585 -0.19096279 0.15609303 0.2925811 0.059728175
-3.1713514 0.021189004 0.18518665 -0.1742747 0.15884389 -0.13078319 -0.019874334 0.23508123
0.1342578 -3.2962482 -0.15823612 -0.08761335 -0.21456231 0.0058086277 -0.2553865 0.27686974
0.18342891 -0.085621335 -1.8387388 0.3649919 -0.042417154 0.16681953 -0.13690643 -0.07132253
0.32546082 0.22421971 0.2756311 2.7621126 0.17104273 -0.4540095 -0.26580396 -0.121478125
-0.21675129 -0.08536582 0.024939686 0.38791117 2.5017748 -0.017972127 0.38931236 -0.39004079
0.15989354 0.046874322 -0.058003634 0.039024472 -0.29363513 0.9087768 -0.01698779 0.6826652
0.2127721 -0.1741419 0.19765392 -0.14298968 0.31686416 -0.51074326 1.5938212 -0.038594376
0.30726948 0.5732302 -0.1742812 -0.10287279 0.0018707216 -0.25071388 0.2083009 3.6135306
-0.061684377 0.05629779 -0.10572151 -0.02205343 0.102895334 -0.10368106 0.0957787 0.30166528
-2.911731 -0.4855965 0.015242441 -0.22630316 -0.27344343 -0.39857438 -0.216959 -0.11321494
-0.13455312 1.2616454 0.26651415 0.64820457 -0.62357026 0.21049784 -0.1142079 0.19121906
0.06946996 0.17905065 2.151217 0.6729918 0.1681854 0.96136624 -0.18132553 0.079429075
0.2226117 0.24869314 0.17020088 -1.9881126 0.05223345 0.063930675 -0.6035604 -0.2100125
-0.070103504 -0.116849154 0.2903562 -0.019149791 -3.6007466 -0.046330675 0.54798794 -0.2988572
-0.15165931 -0.13523254 -0.19183938 0.17192838 0.18957286 -2.1814115 -0.6307804 -0.40161994
-0.24529478 0.18323967 -0.18704301 -0.15431881 0.10607353 -0.022329992 -1.8158691 -0.20016982
0.039314527 -0.026294678 0.15542543 -0.027966782 -0.25828528 0.0022405386 -0.11922171 -0.080456875
-0.3156489 0.43681404 -0.094699785 0.057400525 0.3714551 -0.20981245 0.08925286 -0.059767053
2.0874505 -0.3655044 -0.011492057 0.13048784 -0.6799957 -0.5518608 0.12783778 -0.09701884
0.077383436 -6.504357 -0.061906368 -0.4319993 0.027891926 -0.027617961 -0.15839326 -0.055457115
-0.26054963 0.1647597 0.67445403 -0.34184083 0.01418616 0.00049046444 -0.72648 -0.0010992218
0.1782957 -0.06280339 -0.106087185 -0.8348445 0.25600803 0.4587854 -0.27241793 -0.12323496
0.34632853 0.16292608 0.20633766 -0.24160567 0.81287795 -0.25306705 0.10308017 0.190752

fc1.bias f4 [256]
00000000: f1a9 7ebe a0c4 873e af7c b63e 79bd 863e
00000010: d6cd 903e 187f a53d 603b e5bc 9aa1 863c
00000020: fe3e 6cbe 3398 3c3e 56f0 c63d 9c50 98be
00000030: b26d 8f3c 4111 193e cb12 29be ba54 683e
00000040: c40d 9d3e d9ca f1be f849 4dbd c86f 2a3e
00000050: bfdc 913c 71b4 793e 2e03 973e 2807 8abe
00000060: f27e 64bc 368e b1bc 95cd ecbc b59f e4be
00000070: 4636 1fbf dce1 603e 8637 253c a6ca 193e
00000080: 8ad9 9f3e e112 9e3e bb91 3e3e 971c f23d
00000090: 09fa e73e 1da1 66bd 6933 bf3e 6155 243e
000000a0: 87c2 5f3d 6ad3 953d de40 ce3e 3dac 1d3e
000000b0: 15a0 7f3e 08f0 dd3c d5fd 803e b989 67be
000000c0: 111d a73e 7c47 813e d0bc 99bd 41bd 4e3e
000000d0: 5193 563e ce8c 62be 010c a2be 6a83 c63d
000000e0: 4a6c 033e 7eca 70be 2c99 20bd 6f35 ffbd
000000f0: ea96 403e d000 203f abbc d63e 288d 18be
00000100: 8635 963e 2909 323e 480c 08bf bd50 d0be
00000110: d327 1f3e 2bb8 51be 2d47 5a3e de5c ddbe
00000120: 8d66 96bc 2fed b0be c17c 2f3e 65e0 a4bd
00000130: 49e5 973e b276 dbbe 2dd5 833e 716c b03e
00000140: 49e9 39be ad4e cfbe 5f57 90be fae6 97be
00000150: b31c 8f3e 78bd 7b3e 5a92 5e3e d2f0 9ebd
00000160: 9bb2 82be 5f3e 5ebd 7687 15be a95f d4be
00000170: 1239 aa3c 8972 db3e 471e 26be e47d b03e
00000180: 8558 9c3e 246b ebbb ad1e c8be 7de5 afbe
00000190: f1b2 1dbe 7872 9abe de54 043e f1c1 5f3e
000001a0: 65a9 893e 1ff6 27bd ad2b ca3d 75f3 a83e
000001b0: 759f 063f 5ce9 883c 0702 423e 991c 273e
000001c0: e3bb f13d 5953 34be dcb0 eebd 68df 9dbe
000001d0: 48a9 c23e e989 4f3e 1fa8 12bc c0f7 07be
000001e0: fa37 6f3e 803d ca3d 9302 8fbe 7fc7 dd3e
000001f0: d1bc 523d 02c3 aabe cf52 3abe e004 863d
00000200: 14f0 0ebd b01e a93e 9977 c13e 1e3b 313e
00000210: 70f9 88bd 3cd1 2e3e c1ea 82be 4612 b23e
00000220: 64e1 a13e e95a 6ebe 2e2e d0be 78c6 be3e
00000230: 39b9 6c3d a18f 163e 6c93 00bf 7163 703e
00000240: ee62 42bd e22b 6d3e d587 9f3e 2c0f 973e
00000250: d117 e63e ca67 a73e 5433 073e 1fc0 a13e
00000260: a1df 62be 9753 733e 29f4 00be b5e6 933e
00000270: 927d a8be 2d09 25bd 7b6a 85be 460f 3f3e
00000280: f70a 843e 3b8a 8a3e aac8 1d3f 354d 75bd
00000290: fc0b 7bbd 29dd 86be 012e d83e ad37 a6bd
000002a0: c859 2abe c3db ecbd 1d81 e63e f044 5fbe
000002b0: 1133 90be e349 843e 45de e8be db08 b0be
000002c0: 3f4b d4be 1a94 79bc 5a97 78be 671a 123e
000002d0: f84b 46be 07f3 acbd e06e 64be d463 583e
000002e0: b1a8 8cbe 265d 0f3d d2d4 b63e 6c50 8cbe
000002f0: eb5a d1be 143f a43e fb07 c93d c8fd c6be
00000300: 12f1 983b 081a 73be 79f9 b13e 1d49 223e
00000310: 3a4a 7a3e f210 f33e a28e 8fbd c575 e9be
00000320: 8b00 bc3e 8a26 773e 7063 ee3e 0328 af3e
00000330: 7da7 a4bd 4de3 853e 1213 873e 4382 143d
00000340: 19af 903e d7aa 413d 14f4 e3be 89a5 993e
00000350: 2b62 3ebe 4fcd bbbe 75eb d1be 8c5b a33e
00000360: b8dd 443e 8131 cdbd d206 c0be 002f 5e3e
00000370: b96d 973e cd0d 8f3d 7875 48be a756 033e
00000380: a487 a9bb df34 903e 23b7 873e 4b3b f0bd
00000390: 5f6c bf3e cbca efbe ea74 9cbc 177e 803e
000003a0: 541b c9be 0a7e e83e 44b1 233e 12ea e83e
000003b0: 10ff 40be 1556 d23e 3b64 94be a0cc 9bbd
000003c0: 6575 8bbe 29cb d0be 4693 b73e a269 353e
000003d0: a3dc 49be 2671 b13d 3beb c13c 84cb 89be
000003e0: 3326 9a38 5fbe 28be c5ab 7fbe 2135 f33e
000003f0: b74b 0cbf 7603 9d3e 602f 703e 9cee bdbd
-0.24869515 0.265172 0.35642 0.2631643 0.2828204 0.08080882 -0.027982414 0.01643448
-0.23070905 0.18417434 0.09713809 -0.29749 0.017508361 0.14947988 -0.16511075 0.2268857
0.30674565 -0.47225073 -0.05011937 0.16644204 0.017805455 0.24385239 0.29494613 -0.26958585
-0.013946282 -0.021674257 -0.028906623 -0.44653097 -0.6219219 0.21961159 0.010084039 0.1501871
0.31220657 0.30873778 0.1861028 0.11821859 0.4530795 -0.056305993 0.3734391 0.16048194
0.054628875 0.07315715 0.40283865 0.15397735 0.2496341 0.027091995 0.25193658 -0.22611131
0.32639363 0.2524985 -0.07506716 0.20189382 0.20954634 -0.22124025 -0.31649783 0.09693034
0.12834278 -0.23514745 -0.039208576 -0.124613635 0.18807569 0.6250124 0.41940817 -0.14897597
0.2933771 0.17386307 -0.5314374 -0.40686598 0.15542535 -0.20480411 0.21316214 -0.43234915
-0.018359447 -0.34555957 0.17137434 -0.08050612 0.29667118 -0.42863995 0.25748578 0.34457734
-0.18155397 -0.40489712 -0.2819166 -0.2966841 0.27951583 0.24583995 0.21735516 -0.077607766
-0.2552689 -0.0542587 -0.14602455 -0.41479233 0.020779166 0.4286082 -0.16222487 0.34471047
0.30536285 -0.007184403 -0.39085904 -0.34354773 -0.15400292 -0.30165458 0.12923 0.21851327
0.2688705 -0.041006204 0.09871612 0.32998243 0.5258706 0.016712837 0.18946086 0.16319503
0.11803415 -0.1760992 -0.11654827 -0.30834508 0.38019776 0.20267452 -0.008951216 -0.13278103
0.23361197 0.098750114 -0.2793165 0.43316266 0.0514496 -0.33351904 -0.18195651 0.065438986
-0.034896925 0.33031225 0.37786558 0.17307708 -0.066882014 0.17072004 -0.25569728 0.34779567
0.31617272 -0.23276867 -0.40660232 0.37260795 0.05779383 0.14703228 -0.5022495 0.23475434
-0.047457628 0.23161271 0.3115832 0.29503763 0.44940045 0.32696372 0.13203174 0.3159189
-0.2215562 0.23762356 -0.1259314 0.28886953 -0.32908303 -0.040291954 -0.260578 0.1865817
0.25789616 0.27058586 0.61634314 -0.059888083 -0.061290726 -0.26340607 0.42222598 -0.08116088
-0.16635811 -0.11565354 0.4502038 -0.21803641 -0.2816396 0.2583762 -0.45482078 -0.34381756
-0.41463658 -0.015233064 -0.24276486 0.14267884 -0.19364917 -0.08444791 -0.2230792 0.21131831
-0.2747245 0.035000943 0.35709244 -0.27405107 -0.40889677 0.32079375 0.09815975 -0.38865495
0.0046674097 -0.23740399 0.34760645 0.15848203 0.24442378 0.47473866 -0.07009627 -0.45597664
0.36719164 0.24135795 0.4656024 0.34210214 -0.08039758 0.2614998 0.26381737 0.03625704
0.2825859 0.047282066 -0.44522154 0.30009106 -0.18592136 -0.36680076 -0.40999952 0.31905782
0.19225204 -0.10019208 -0.37505203 0.21697617 0.295759 0.06985054 -0.19576061 0.12826024
-0.0051736403 0.28165337 0.2650691 -0.11730059 0.37387368 -0.46834406 -0.019098718 0.250962
-0.39278662 0.4540866 0.1598559 0.4549108 -0.18847299 0.410813 -0.2898272 -0.076073885
-0.27238002 -0.4078 0.35854548 0.17716077 -0.19713072 0.086641595 0.023671737 -0.26913083
7.3504074e-05 -0.16478871 -0.24967869 0.47501472 -0.5480303 0.30666703 0.23455572 -0.09274027

fc2.weight f4 [256, 256]
00000000: 2626 453d cc33 dcbd 9ae9 f6bc a5d9 6a3c
00000010: c003 dbbc 0375 323d d453 71bd e978 78be
00000020: 8505 10be 2ee8 97bd 228e a2bd b790 21bd
00000030: 2aa1 cebb 364b 80bc a8c3 7e3d 9889 fa3c
00000040: 5092 523d b661 8f3c 8d23 633d 21ee 01be
00000050: 9da2 e4bd 4dbb 37be 365b c23c 13cb 22be
00000060: 1ad3 a0bd 4407 7fbd 00c0 123c a06c 96be
00000070: 8231 62bd 4ee1 8f3d b9a1 bebd c7b2 a2bd
00000080: 7b59 813a cb87 31bd d962 92be a834 e33c
00000090: d67f 28be 1dd8 b0be 5fb2 44be 23e2 1ebd
000000a0: c6ee 5bbd ff04 4ebc 8980 353d d5ea 09be
000000b0: 6f77 b8bd 61de 043d 3a2c 3dbc 4b4c 6a3b
000000c0: 6678 8bbd d028 0e3d 9e1a 30be 9d3f a6bd
000000d0: 59d1 8fbd 7040 9fbb 8621 d4bd 4722 463d
000000e0: 8aa6 3dbd c307 6bbc 9736 083a 5d2f a5be
000000f0: 8ab6 9ebb b944 9abd 1668 dabd bc1e 293d
00000100: 3784 78be 7a1d f2bd 4019 85bd 1416 863d
00000110: 32d8 cb3a 85d0 f8bd 01ed 323b 4f73 253d
00000120: 013e ebbd f1dd 5ebd ea07 ce3b 354f c5bc
00000130: 2078 d73c b144 e5bc 3643 0abe 0e52 503d
00000140: 66e8 473d 02b3 793d fec0 1abe b579 0abe
00000150: 2509 bfbe 7da7 84bd 6154 683d 7eb2 5dbd
00000160: f1c9 c73b c01f 70bd 787c dfbe bc58 103d
00000170: ab7b 41bc c94c 85bd 847b b3bb e116 373b
00000180: 1b2f 70bc 40e8 643c dfa8 5ebe 8ae7 2cbd
00000190: c016 783b 129a 7f3d 5a81 6cbd dd38 35be
000001a0: 327f a53c 6f46 41bd b26c 86bc cfe4 a8bd
000001b0: 8214 debb 7ba2 4bbb 461f 793d 8180 6cbe
000001c0: b844 bdbc b209 0f3c e78f 5bbd 300d e7be
000001d0: e7b4 263c 7568 20bc 441a 70bd 4a1a e2bd
000001e0: 2185 70bd 9329 96bc 30c9 d93b 7cf3 573a
000001f0: 8d39 d03c c30a eebd 2f52 30bd b9f8 5ebc
00000200: 3101 55bc 978f 023d 2c32 9b3b aa3e d6bd
00000210: 6e35 27bd 987e 85bd 486f e6bc ead8 483d
00000220: 99ab 1bbe 4ed6 61be 5abc 30be f938 b1be
00000230: ba04 473d a86f 803d e876 393c 49e1 6dbe
00000240: bc08 16bd 1035 44bc b814 603d ba60 8dbe
00000250: 996e a33d 4903 793c e85e 573d 088b 953a
00000260: 1497 d33c 403f df3c 18a2 5337 697d 57be
00000270: cfa3 8f3c b603 5fbc 80bf b93a 42b6 d4bd
00000280: 3dcb b9be a7d6 b03c 6258 32bd 881f 583d
00000290: 5caf 99bd c526 423d 689a 7ebd cd81 19bd
000002a0: 41fc 05bc 1501 113d 6a53 98bc 0627 8dbe
000002b0: 5a1d 9cbd bd6d 9d3d e6ca b5be 700a 16bc
000002c0: 60c3 0cbd 9b0f 09bd 987a 303d c50f bbbd
000002d0: ce59 bd3b 3929 3fbd f8b6 273d c30d 30bc
000002e0: a038 e5bc 6680 703d d2a2 4fbc 4030 b6be
000002f0: 0b5e 03bd 49fa 4f3d e0b4 263d 8fa1 d8bc
00000300: 387d 6dbd 62cf 27bb d279 38be b779 92bc
00000310: c728 4c3c 0ce1 88bc 4234 51be f816 afbc
00000320: 8be6 3cbd f863 f03c 62a0 cdbd fefd c6bd
00000330: 5a6d cbbe aede 7ebd 73bf 6cbd 480d 02bd
00000340: e85a e03c 12bf 37be 20e2 e4bb 8fb9 b83c
00000350: 6072 90bd 9c70 4fbe 4f1e ccbd dc08 bfbe
00000360: b2b0 aebe 3a72 353d 3e51 2b3d ac01 aabd
00000370: 244f 213b f528 8f3c b759 723d 2801 57bd
00000380: 8b62 acbd fbce 20be b2f0 903d 5c62 03be
00000390: 87b7 05be 30f0 89bb c7d2 1bbc 50bc d33b
000003a0: b712 80bc 15aa abbd cad0 d9bd 06b3 5bbe
000003b0: 555b 0dbe 4d78 0abe b272 2abd 9c96 a03c
000003c0: 8051 42bc 70de 8dbd 2a5e 003c f210 33be
000003d0: 2f0a 8bbe 6fd9 acbd bab8 0e3d aeed 3cbd
000003e0: 706d 05bd 7c7e af3c 9430 963c a714 df3d
000003f0: 1519 04be f205 763d b0c0 15be dc2c ddbd
0.048132084 -0.10752067 -0.030140687 0.014334117 -0.026735187 0.043568622 -0.058917835 -0.24264874
-0.14064606 -0.07417332 -0.07937266 -0.03944465 -0.0063058333 -0.015660863 0.06219831 0.030583188
0.051409066 0.017502647 0.055453826 -0.12688495 -0.111638285 -0.17942543 0.023725133 -0.15897779
-0.078527644 -0.06226279 0.008956909 -0.2937975 -0.055222996 0.07025395 -0.0930819 -0.07944255
0.0009868586 -0.043342393 -0.2859104 0.02773507 -0.16455016 -0.3453988 -0.19208668 -0.03878988
-0.05369451 -0.012574433 0.044312034 -0.13468488 -0.09007155 0.03243864 -0.011546189 0.003575104
-0.068100736 0.03470689 -0.17197654 -0.08117602 -0.07022352 -0.0048599765 -0.103579566 0.048372533
-0.046301402 -0.014345112 0.0005196123 -0.32262698 -0.0048435377 -0.07532639 -0.10664384 0.041289076
-0.24269186 -0.118220285 -0.06498957 0.0654718 0.0015552102 -0.12149147 0.002730191 0.04039317
-0.11486436 -0.05441088 0.0062875645 -0.02408562 0.026302397 -0.027986856 -0.13502201 0.050859503
0.048805617 0.06096173 -0.15112683 -0.1352299 -0.37311664 -0.06477258 0.056721095 -0.0541253
0.0060970713 -0.05862403 -0.4364965 0.035240874 -0.01180927 -0.06508786 -0.0054773707 0.002793722
-0.014659668 0.013971388 -0.21744107 -0.042213 0.0037855357 0.062402792 -0.057740547 -0.17697473
0.020202253 -0.04718631 -0.016409252 -0.08246767 -0.006777347 -0.0031072188 0.06082084 -0.23095895
-0.023104057 0.008730339 -0.053604033 -0.4512725 0.010174966 -0.0097905295 -0.0586188 -0.110401705
-0.05872071 -0.018330371 0.006646298 0.0008237881 0.025418067 -0.116231464 -0.043047126 -0.013609105
-0.013000772 0.03187522 0.0047362056 -0.10461171 -0.04082244 -0.065182865 -0.028129235 0.04903499
-0.15202178 -0.22054407 -0.1725935 -0.3461378 0.048588492 0.06271297 0.011319853 -0.2323047
-0.036629423 -0.011975542 0.05470726 -0.2761286 0.07980079 0.015198537 0.052580744 0.0011409232
0.025828876 0.02725184 1.261432e-05 -0.21043934 0.017534165 -0.013611725 0.0014171451 -0.103863254
-0.3628787 0.02158673 -0.04354132 0.052764446 -0.0750415 0.047400255 -0.062158972 -0.037477303
-0.008177818 0.035401423 -0.018594462 -0.27568835 -0.07622786 0.076869465 -0.35506362 -0.009157762
-0.03436601 -0.03346215 0.043085665 -0.09133867 0.005778528 -0.046670172 0.040945977 -0.010745469
-0.027981102 0.0587162 -0.012673097 -0.35583687 -0.03207211 0.0507758 0.04069984 -0.026444225
-0.057980746 -0.0025605788 -0.18015221 -0.017880304 0.012460894 -0.016708873 -0.20430091 -0.021373257
-0.0461183 0.029344544 -0.10040356 -0.09716414 -0.39731866 -0.062224083 -0.057799768 -0.031750947
0.027387097 -0.17943981 -0.006984964 0.022549419 -0.07053065 -0.20257801 -0.099667184 -0.37311447
-0.34119183 0.044298388 0.041825525 -0.083011 0.0024613822 0.017475585 0.05916759 -0.052491337
-0.08417233 -0.15703957 0.07077159 -0.1283049 -0.13058291 -0.004209541 -0.009510702 0.0064616576
-0.015633924 -0.0838205 -0.106355265 -0.21455011 -0.13804372 -0.13522454 -0.04161329 0.019603066
-0.011860251 -0.06927192 0.00783495 -0.17486933 -0.27156207 -0.0843991 0.034844138 -0.046125107
-0.03257507 0.021422617 0.01833371 0.10892611 -0.12900193 0.060064264 -0.14624286 -0.10799572

fc2.bias f4 [256]
00000000: d371 9e3c 0b1d 8dbd 1e62 46bd 498a 423e
00000010: 217c c83c 825f 15bd 0154 1f3c a7db 05bd
00000020: 047a 50bd 5b49 2f3c 8b76 c23a fd2d 073e
00000030: 1f51 943e 1520 20bd d8cb 5cbd 9296 153e
00000040: a52c b3bd 19c5 67bd 36c9 14bd d0c6 183d
00000050: a0c6 db3d 4d44 28be d08f 463b bb55 92bc
00000060: 6b09 bc3c d568 23bd bfea d8bc 8ac3 79bd
00000070: 735a 433f dc2a e93c be4c 80bd 8854 a9bd
00000080: 2d46 94bd 7665 a0bd eb21 27bd 181c 50bd
00000090: 3bab e3bd 1d64 473c cc53 d73d 4301 96bd
000000a0: 997e d1bd 972f dd3c 0f30 27bd 7e18 35be
000000b0: 48db 2c3d 1f51 ce3c 2a49 d03d d02b 7fbd
000000c0: c565 e23d e430 54bc 9eed 53bc d030 2ebd
000000d0: f268 e33d d644 153e da6f 8fbc 7f2f 253d
000000e0: 0f33 143d c6f2 0bbd 9a18 58bd 0007 133d
000000f0: bc21 99bd 2239 84bd 1135 3c3d 33a7 87bd
00000100: d3ca a9bc 60d2 8fbb 335b f63c cbae e7bb
00000110: 4f2d 063d 3d53 84bd f196 66be fa89 d6bd
00000120: 8fcd cebc 09ae dfbd f274 67bd e798 7bbe
00000130: be4f 1f3c 3fe2 10be b3b9 be3d 1388 a23e
00000140: a7d3 39bd cbc1 bebb 8b5e 84bd 0047 593d
00000150: 543a bcbd d87e 89bd 6841 043e 4291 983e
00000160: 497e 293e 9a92 f1bd af0a 1d3d 026c ea3c
00000170: 704d 52bd beaa f93d e4f5 85bd a9ea 79bd
00000180: bc5e 173d e967 983c 3a80 093e a4f0 f93c
00000190: 72c4 0cbd 0805 86bd 99b2 0e3c 18a0 b43e
000001a0: a86d 25bd 1bba 9a3b ace1 dabb bf31 fabd
000001b0: 69ed 81be 356d a93b 2746 c0ba b30d f4bd
000001c0: 8d7a 7cbd fc58 a53e fe6a 26bd 1bf1 1cbd
000001d0: 0401 cf3c 972c d7bc 8ec8 663d 7f41 8fbd
000001e0: 02f7 7f3c a557 dfbd 15bb d2bd ec31 e13d
000001f0: 16a0 13bd e661 d9bd 6196 d0bd e789 c3bd
00000200: 1a5e 6cbd 62cd 46be 9879 2ebe 3c97 9abd
00000210: 6a27 73bc 83a5 85bd 30b7 5bbd 6a9c c13c
00000220: 6ee9 34bd 7bfa ccbe 9b2d 673d 1624 073e
00000230: 5530 fd3c 46cc 913d c836 ddbc cb69 95bd
00000240: 364e f6bc 717e 37bb 3361 263e 9a44 ae3d
00000250: a83f 833d f8dd 873c 61b1 35be df7e 343e
00000260: 8900 b8bd 21c3 e33d 6680 19be 4ac9 e23d
00000270: b3f3 2b3d 2205 c93e 9534 98bc 2f97 d63d
00000280: 93ec 2dbe d94e 65bd e907 c1bc 4949 b6bd
00000290: 7b0a af3d cb07 2a3c df4f 2ebd 4f08 233d
000002a0: d3bf c7bd 3c52 a0bd 2c37 f33d 06f1 44be
000002b0: 88a0 fbbd bf44 94bd 2668 833c e66c 013d
000002c0: 0249 e23c b028 9c3a 585c 52bd ede9 213d
000002d0: e2e3 8bbc fb2a 8fbd 8f6e 70bd 3638 73bd
000002e0: 9f06 dfbc 614d 95bc b9d8 aa3d 9113 763d
000002f0: baf4 f63d 2534 e3bd 74a8 723d b3f2 77bb
00000300: c7a2 25bc a885 733c 4f88 5d3c 3997 fcbd
00000310: accb 123d a40b c03e 53b7 53bc 21b6 873c
00000320: ca58 efbc 1264 a63c dd7b d2bd 15d9 c1bc
00000330: 84c2 78bb 7dbf 6cbd 564e ffbd e705 7dbd
00000340: e3e0 363e 7bf3 2cbc 4c0b 083d 150e 41bd
00000350: d127 6abd 1e07 edba bcbf d93e 6d41 5d3d
00000360: 6d0a 94bd adb0 f83d 2aae 12bd 4396 c3ba
00000370: 9b21 b2bd 37eb 07bd edd2 adbc 8f3c 5dbd
00000380: b5c3 55bd d79f 833e eb93 83bc f7ec 5b3c
00000390: 29fa 01bd aac8 683d 2d54 89bc 7f06 1bbd
000003a0: ea03 973c 260a 8ebd dac4 613b 9135 cfbc
000003b0: 311a 5d3c 5a49 f0bc f22b 703d 5ca7 283f
000003c0: 906d efbd 7fe7 e93c 6f8d 003f a414 6dbd
000003d0: e466 a9bd 2bc3 823b 1e2c 3ebe 31a6 6abd
000003e0: e317 983d 0525 153c b1ff 7bbb 53e5 e5bc
000003f0: b4f5 123d f59b 90bc b96e f0bc f767 6bbd
0.019341385 -0.06890305 -0.048433416 0.18998064 0.024473252 -0.036468036 0.009724618 -0.03268018
-0.050897613 0.010698642 0.0014836354 0.13201137 0.2896814 -0.039093096 -0.053905338 0.1460822
-0.0874875 -0.05658445 -0.036324702 0.037298977 0.10731244 -0.16432305 0.0030298121 -0.017863145
0.02295371 -0.039894897 -0.026479123 -0.060977496 0.7630989 0.02846282 -0.062646374 -0.08268076
-0.072399475 -0.07831852 -0.04080383 -0.050808042 -0.11116644 0.012169865 0.1051403 -0.073244594
-0.10229225 0.027000232 -0.040817317 -0.17685124 0.04220131 0.025185166 0.10170205 -0.062297642
0.11054567 -0.01295111 -0.01293507 -0.04252702 0.11104001 0.1457704 -0.01750939 0.0403285
0.036181506 -0.034167074 -0.052757837 0.035895348 -0.074771374 -0.0645621 0.045949046 -0.066236876
-0.020726597 -0.0043890923 0.030072784 -0.0070703975 0.032758053 -0.06461189 -0.22518517 -0.10475536
-0.025244502 -0.109218664 -0.056508012 -0.24570046 0.009723602 -0.14148806 0.09312763 0.3174444
-0.045367863 -0.0058214418 -0.06463345 0.053046227 -0.09190813 -0.06713647 0.12915576 0.29798323
0.1655208 -0.1179554 0.038340267 0.028615955 -0.05134338 0.121907696 -0.065410405 -0.061014805
0.03695558 0.018604236 0.13427821 0.030510254 -0.034367032 -0.065439284 0.008709573 0.35278392
-0.04038778 0.0047218925 -0.006679734 -0.122165196 -0.25376442 0.005170489 -0.0014669345 -0.119166754
-0.06164031 0.32294452 -0.04062938 -0.038315874 0.025269039 -0.02626638 0.056343608 -0.06994914
0.015622856 -0.10905389 -0.10289589 0.1099585 -0.03604134 -0.10614376 -0.101849325 -0.09547787
-0.05770693 -0.19414285 -0.17038572 -0.07548377 -0.01484094 -0.065257095 -0.053641498 0.023634154
-0.04416793 -0.4003485 0.056439977 0.1319736 0.030906836 0.0711904 -0.02700366 -0.07295569
-0.03006659 -0.002799895 0.16248016 0.085091785 0.06408626 0.016585335 -0.17743446 0.17626522
-0.08984477 0.11121202 -0.14990386 0.11073549 0.041980457 0.3926173 -0.01857976 0.10478055
-0.16984777 -0.055983398 -0.023563342 -0.08900697 0.08546921 0.010377835 -0.04255664 0.039802846
-0.097533844 -0.07828185 0.118757576 -0.19232568 -0.12286478 -0.07239675 0.016040873 0.031597994
0.027622703 0.0011913981 -0.051357597 0.03952973 -0.017076436 -0.0699062 -0.058699187 -0.05937978
-0.027224837 -0.018225374 0.08342118 0.060077254 0.12058397 -0.1109393 0.05924268 -0.003783387
-0.01010961 0.014863409 0.013521268 -0.12333531 0.035838768 0.3750888 -0.012922126 0.016566338
-0.029217143 0.02031139 -0.10277531 -0.023663083 -0.0037957737 -0.057799805 -0.12466113 -0.061773207
0.17859225 -0.010556097 0.0332139 -0.04713257 -0.057166878 -0.0018083786 0.42529094 0.054017473
-0.07228551 0.12143073 -0.035810627 -0.0014922101 -0.08697816 -0.033183303 -0.021218741 -0.05401283
-0.052188594 0.25707886 -0.016061744 0.013423196 -0.031732712 0.056831993 -0.016763771 -0.037847992
0.018434484 -0.069355294 0.0034449608 -0.025294097 0.013495014 -0.029331852 0.05863566 0.6588037
-0.11690819 0.028552769 0.5021581 -0.057881013 -0.08271578 0.003990551 -0.18571517 -0.0572874
0.07426431 0.009103064 -0.0038451965 -0.028063452 0.035878852 -0.017652491 -0.029349672 -0.057472195

fc3.weight f4 [128, 256]
00000000: 686c 68bc d030 f1bc eca7 efbc 5207 71bd
00000010: 8ee5 38bd 1e98 463d 168f 183d 50da 913c
00000020: e401 a33c 00c5 bcbc 8c56 2d3d 427a cc3c
00000030: 9740 d13c 584e 173c 8800 db3c a8fc 2a3d
00000040: 284f 1ebd c09a 333b 56e1 063d 20c1 453b
00000050: 580e b03c 7473 8dba 28a1 15bd 78b8 16bc
00000060: c08b f53c a092 283c 3639 3f3d 681c 3e3d
00000070: 1a09 383b 2cd0 43bd 8cc4 dfbc ca41 253d
00000080: 126d 423d 6a81 28bd d050 d7bc b022 49bd
00000090: e32a 433d 8717 71bd 3a62 303d d404 3ebd
000000a0: 1e46 653d c0ef 723d 322a 2e3d 64d1 41bd
000000b0: d5fa 0d3c 08de 403d 2816 963c 808a a13a
000000c0: 641f d3bc 3213 643d 1ccd fa3c c8f3 0cbc
000000d0: da73 0bbd 1c34 6a3d c84c 9c3c 244d 95bc
000000e0: 007a 7bb9 7e1c 56bd 38df 673d e0c9 ac3b
000000f0: f1fa 90bc b839 47bc 2063 8b3c 44a9 76bd
00000100: 5832 8f3c c003 66bd f0aa 69bd 1a4f 14bd
00000110: d613 1ebd c04a febc 9649 de3c d031 12bd
00000120: 068e 4d3d 2cd4 d8bc 90a9 da3b 6676 d83b
00000130: ca62 773d 7c50 85bc fa85 eb3c bde0 81bc
00000140: a064 2bbc 88ee 16bd 28ce 7a3d 5f69 8dbd
00000150: 6853 78bc 3470 e43c f080 94bc 91ea 023d
00000160: a0da 823c 7296 89bd 808f 4a3b 5c77 223d
00000170: 01ac 0ebc ac6c 6dbd 329a 18bd 8969 7ebd
00000180: 9420 813c e830 2bbd b842 313c a881 f63c
00000190: 9810 f73c 4804 37bd 4abc 7e3d 0229 dcbc
000001a0: 962d 5ebd 79d3 2bbd 1606 093d a093 f3bc
000001b0: 5ad3 6fbd a104 313d de4e 67bd 8ebe 533d
000001c0: aa11 14bd f36a 88bd 4040 ee3b c6f0 723d
000001d0: eadb 603d d00b 61bd 4aaf 7b3d 7cbc 673d
000001e0: bc34 3f3d 2a8d 1bbd e605 58bd 00ef d9ba
000001f0: a809 27bc f27e 243d 0818 1abc e399 d539
00000200: 8021 eebc 6c5f d43c 5f9a a6bb 84b9 ea3c
00000210: 82af 06bd 0aa6 103d 5c05 14bd 568a 54bd
00000220: 20c4 ef3b 9224 183d d8ea f8bc d412 9fbd
00000230: d052 763d e93e e03b d063 58bc bd16 88bd
00000240: 54fa 2d3d 2014 30bb 79eb 04bd c8b9 113d
00000250: 38a0 343d 987c ce3c c4db b63c 1121 dcbc
00000260: 009d 4f3c e3ae b4bc a824 b6bc ccad 56bd
00000270: 306c 433d 00ad 97bd 4c47 06bd 440b 193d
00000280: 2c3d dcbc 0e27 223d 5c1e f6bc 00c8 5abd
00000290: 940d e3bc d896 6dbc bed4 743d a047 19bc
000002a0: 60fc cdbb d631 133d 0c33 243d e8ac ec3c
000002b0: b48b 3d3d dc33 83bc 7b52 68bd 2ce1 f5bc
000002c0: 50a9 173d 94b8 5fbd 0c6d 2b3d 22f2 633d
000002d0: 6c43 633d 9ee2 59bd 977b 90bd 3a5c 273d
000002e0: 50c2 18bc 1a13 10bd 7c16 96bc 448f 843c
000002f0: 8a12 10bd 449b 963c a8f1 023c 1ca4 d3bc
00000300: f07b f13c c2d7 40bd c01b 8a3c ec29 813c
00000310: 40e3 2c3c 9f8b a0bd 90ec 1abd b608 583d
00000320: 7cfa 87bc 001a afbb f053 1a3c fccd 25bd
00000330: 4015 aebc 9e6c 41bd caae a43c 9c8c cd3c
00000340: 14ab 343d 60f4 25bb 74a3 73bd d0bf 14bc
00000350: e8ba 323d 182a c0bc d5d1 26bd 4e09 483d
00000360: 4ac2 1bbd 105b 04bc c261 39bd 4c0a b03c
00000370: c6f5 66bd 701b 13bc 04f4 afbc 6c52 cb3c
00000380: c4b8 3ebd 88b7 ee3c f4be e53c e036 07bd
00000390: 2e50 5b3d 106d 81bb 7014 50bd bc29 023d
000003a0: 0ac5 4fbd 3e57 4c3d e0e2 c23b d08c 46bd
000003b0: 343d 0cbd e696 72bd 492a b1bc e41b 8e3a
000003c0: 8c50 2cbd b04f e0bc d801 7abc c844 31bc
000003d0: 2831 673c a403 ee3c 681b a43c f654 82bb
000003e0: 5d5f a4bc f8bf 5bbc 52ef 513d fc5e abbc
000003f0: 66f7 06bd d820 043c b4d9 0c3d 70e6 ee3c
-0.014186002 -0.02944222 -0.029254876 -0.05884487 -0.045140795 0.048484914 0.037245832 0.017804295
0.019898362 -0.023043156 0.042318866 0.02496064 0.025543494 0.009234987 0.026733652 0.041744858
-0.038649708 0.002740547 0.03292974 0.0030174926 0.021491215 -0.0010791854 -0.036530644 -0.009199254
0.029973865 0.010288864 0.04668542 0.04641381 0.0028081597 -0.04780595 -0.0273154 0.040345944
0.0474673 -0.041139044 -0.026283652 -0.049105346 0.04764832 -0.058860328 0.043062426 -0.046391323
0.055975072 0.059310675 0.04252071 -0.04731883 0.00866576 0.047086746 0.018321112 0.0012324601
-0.025771804 0.05568237 0.030615382 -0.008603044 -0.03404603 0.0571786 0.01907958 -0.01822526
-0.00023982674 -0.052273266 0.056609362 0.005273089 -0.017697783 -0.012159757 0.01701504 -0.060220018
0.01748006 -0.05615592 -0.057047784 -0.03620825 -0.038593136 -0.031041503 0.027134698 -0.035692036
0.050184272 -0.026468359 0.0066730455 0.006605911 0.060396947 -0.01627373 0.028750408 -0.015854234
-0.010461003 -0.036848575 0.061231762 -0.069048636 -0.015156604 0.027885534 -0.018127888 0.03196198
0.01597339 -0.06718148 0.0030908287 0.03966461 -0.008708001 -0.057964966 -0.037256427 -0.062112365
0.015762605 -0.041794688 0.01081913 0.030091122 0.03015928 -0.044681817 0.062191285 -0.026875023
-0.054242693 -0.041949723 0.03345307 -0.029733479 -0.05855117 0.043217305 -0.056471698 0.0516954
-0.03614966 -0.06661024 0.007270843 0.05931165 0.054897226 -0.054942906 0.061446466 0.056576237
0.04668115 -0.03797642 -0.05274 -0.0016627014 -0.010195173 0.040160127 -0.009405144 0.0004074118
-0.029068708 0.025924407 -0.0050843204 0.028652914 -0.03288222 0.035314597 -0.036137924 -0.05188974
0.007317081 0.03714425 -0.03038542 -0.07767263 0.06013757 0.006843437 -0.013207391 -0.06644962
0.04247506 -0.0026867464 -0.032451127 0.035577565 0.04409811 0.025205895 0.02232159 -0.026871236
0.012671709 -0.022056049 -0.022234276 -0.05241184 0.047710598 -0.07406044 -0.032782838 0.03736426
-0.026884638 0.039588027 -0.030043773 -0.05341339 -0.027716435 -0.014501296 0.0597732 -0.009355456
-0.006286189 0.0359362 0.040087745 0.028891042 0.04627581 -0.01601594 -0.056719285 -0.030014597
0.037026703 -0.054619387 0.041852042 0.055650838 0.05548422 -0.053194635 -0.07054823 0.04085944
-0.009323671 -0.035174467 -0.018321268 0.016181596 -0.03517393 0.018384583 0.007992186 -0.02583509
0.029478043 -0.047080763 0.016858935 0.01576706 0.0105522275 -0.078391306 -0.03782326 0.052742682
-0.016598932 -0.0053436756 0.009419426 -0.040479645 -0.021250367 -0.047222726 0.020102877 0.025091462
0.044108465 -0.002532266 -0.059482053 -0.009078935 0.04363528 -0.023457572 -0.040727455 0.048837
-0.038027085 -0.008078352 -0.045259245 0.021489285 -0.05638673 -0.00897871 -0.02147866 0.024819575
-0.046562925 0.029140249 0.028045155 -0.033011317 0.053543262 -0.003949769 -0.05080074 0.031778082
-0.05072502 0.049887888 0.0059474558 -0.048474133 -0.034238055 -0.05922594 -0.021626608 0.0010842052
-0.042069003 -0.027381748 -0.015259229 -0.010819621 0.014110841 0.02905447 0.0200326 -0.0039774133
-0.020065004 -0.013412468 0.051253624 -0.020919316 -0.03295078 0.008064471 0.034387305 0.029162616

fc3.bias f4 [128]
00000000: c59c 803c dce6 dd3c db90 76be 5a07 393e
00000010: ea71 5a3d 3242 003e 43d1 9b3d 3b9e 293d
00000020: b651 17bd 182d 0ebe e129 81bd 25fd 1cbd
00000030: 5e17 e23d 276b cdbd 18e9 34bd 1f1f 0abd
00000040: 0b58 8a3d c4eb aa3c f606 483d f4d0 f3bc
00000050: 052d 923e c226 56bd f0a7 c5bc 008e 22bd
00000060: 8b47 82bd e507 61bc 5644 bf3d 456b e23d
00000070: 360f 923e 3225 8fbd 102d 0f3c 2b26 92bd
00000080: 8007 e6bd d208 12bd b8c7 aebb f5d5 0fbd
00000090: bfd6 1a3d 03b8 a63b 5178 753e f505 2ebe
000000a0: 386d 723e eb29 bcbd e215 2e3b 9bae bd3c
000000b0: abfd 9abd 5ece a83e 5203 80bd 97bd e1bd
000000c0: 23c6 41bd 2304 f5bb ef69 b53c 6e76 193e
000000d0: fe47 45bd a01f 98bd a66d 213c 800f 38be
000000e0: 4cbe e9bc 4f17 803e 5a0e b1bd b972 813e
000000f0: 6623 1fbd 6760 1c3d 05ba 94bc 9664 7bbd
00000100: 0136 0a3c dd3d 96bd b778 1cbd d392 e53c
00000110: 2d0d c93c d083 a03d 9ba4 393d 5762 0d3d
00000120: 4216 a2bd fb2f 5ebc 6903 8abd f719 04bd
00000130: 864c 37be 0ff9 11be 8be7 373d be4c 9d3e
00000140: ddec 903e dea5 a33d 4ed1 8fbe 18ed 133c
00000150: 55e3 fbbb e194 233e 84c3 353e fb8c a93e
00000160: 8202 623d 83e3 d5bc 7545 c1bc 0855 ca3c
00000170: 3f4d 89bd f716 0cbe 76b5 863d 1a13 2fbd
00000180: 620c 18bc eaa7 36bc 8a95 44bd e462 b7bd
00000190: 2b40 193d 4813 993e e8d7 7d3d 5e99 153d
000001a0: 9ced dbbd 7dce 953e ec3c 6ebd be34 dc3b
000001b0: a115 ba3b cc44 5fbe 76f9 36be 9b54 f93c
000001c0: 36fe afbc 76d9 ec3c 6356 ad3e b72f 293d
000001d0: b322 7cbd c770 23bd db6c 103d d9be f1bd
000001e0: f510 34be 5c9f bfbe 6526 e5bc 450d b7bd
000001f0: 0ae1 31bb 093d 5ebc 4f2a ccbd 1e59 f63b
0.015699754 0.027087621 -0.24078695 0.1806921 0.053331293 0.12525252 0.07608273 0.041410666
-0.03694316 -0.1388439 -0.06306816 -0.038327355 0.11039613 -0.10030203 -0.044167608 -0.033721086
0.06755074 0.020864375 0.048834763 -0.029762723 0.28549972 -0.052283056 -0.02412793 -0.039686203
-0.06361302 -0.013734792 0.09339206 0.11055616 0.2852723 -0.06989516 0.008738771 -0.07136186
-0.11231899 -0.035652943 -0.005333867 -0.035116155 0.037802454 0.005087854 0.23971678 -0.1699446
0.23674476 -0.09187683 0.0026563336 0.023154547 -0.075679146 0.32969946 -0.06250633 -0.110224895
-0.0473081 -0.0074773 0.02214524 0.14986584 -0.04816436 -0.07427907 0.009852802 -0.17974663
-0.028533123 0.25017783 -0.086453155 0.2528284 -0.038852118 0.038177874 -0.018155107 -0.061375223
0.008435727 -0.07336018 -0.03820106 0.028024113 0.024542416 0.07837641 0.045322996 0.034517612
-0.079144016 -0.013561244 -0.06738932 -0.032251325 -0.17900285 -0.14255165 0.04489855 0.30722612
0.28305712 0.07990621 -0.28089374 0.0090286955 -0.007687012 0.15974762 0.17750365 0.33115372
0.055178173 -0.026109463 -0.02359269 0.02469875 -0.06704187 -0.13680635 0.0657758 -0.042742826
-0.009280296 -0.011148432 -0.047994174 -0.08954409 0.03741471 0.29897523 0.061973482 0.036523215
-0.1073868 0.292591 -0.05816357 0.0067201545 0.005678848 -0.21803588 -0.178686 0.03043585
-0.021483522 0.028912287 0.3385497 0.04130527 -0.06155653 -0.039902475 0.035260063 -0.118039794
-0.17584594 -0.3742627 -0.02797241 -0.08938078 -0.002714219 -0.013564357 -0.09969007 0.007517948

fc4.weight f4 [7, 128]
00000000: d1bc 9a3b 42bf 21bf 129f 26bf 8387 87bf
00000010: afb5 2fbf 9466 33bf ad1c 8cbf beb9 353c
00000020: 51b6 993d 04ba b93d b5f3 903d 9be6 80bd
00000030: 4685 21bf 4bdc 82bb c704 03bf eec4 4c3d
00000040: f452 2dbf 4e6f 193f 3528 153d 9317 923d
00000050: 8d98 f93e 8823 a43c 15e4 c3bc 3505 3bbf
00000060: a79b 6d3b 94a4 a03c 19f8 34bf 2a58 15bf
00000070: 70b9 423f 8a3f 55bd 659b 053e e3af 35bc
00000080: 2d75 123e 953a eebc 1796 6bbc e626 35bf
00000090: 7cf2 d9bb 8379 27bf b0d9 c23e ee8a 653e
000000a0: 9d4b ef3e 401e 73bc d141 14bf 7eff 5b3d
000000b0: b7da 21bf 53d6 c63f bfd2 173c da3e 5e3d
000000c0: 57d5 7abd 8a27 873d fe1e 1abf ef73 1cbf
000000d0: 8c0b e63c 3ca6 d8bc a667 f4bc 46a1 5a3e
000000e0: 2ad6 88bf 692d 503f 6a8f 10bf 013d ce3e
000000f0: cdf2 233d a3d6 26bf 2ff0 1abf 1d7d 143d
00000100: cbdf 16bf 78db 023d 6867 233b 780d 2bbf
00000110: 1f0a 16bf acbf 12bf 3ebd a2bd 0d31 71bc
00000120: 6af4 f9be 3657 1abf e6ff 11bf 2e0c 0fbd
00000130: 207d dc3d 3912 2c3e 0561 0ebf 8ef7 163f
00000140: 8fc9 233f 8c30 5abf 006a 01bf 9749 1bbf
00000150: 25be 9ebb 560c ed3e 02fd 1f3f d479 213f
00000160: cc53 a83d 2fef 2cbf a655 1fbf 597a 28bf
00000170: 0689 6e3c d69f 613e 772c 2abf cd0e 8f3d
00000180: ff8e 34bd fa20 963d a60d a13c 018a 8f3d
00000190: 618f ad3c da1d 103f 6bcb 59bf a46d fc3c
000001a0: ef98 57bf 8991 943f f154 0b3d ae81 24bf
000001b0: 58ed 953d 8ccf 5a3e 8501 083e d23f 35bf
000001c0: e701 17bf 4052 34bf 6a38 513f f35e 31bf
000001d0: a34c 36bf 331c 2e3d bb40 2bbf 85e4 57bf
000001e0: 3f75 ba3d 7e7a 973d deb0 23bf 755d af3d
000001f0: 1bf2 633c 31f2 17bf 2248 0abd 2512 36bc
00000200: 1811 57bc 54d2 06bf 500e 35bf dc92 8dbf
00000210: 8c5b 27bf 739a 17bf f84f 8fbf fb17 803c
00000220: 7c35 f93c f70f 96bd bc41 043d c519 673d
00000230: cdfa 1cbf 623f 88bd 377e 30bf 73d0 4ebd
00000240: 632e 0fbf 07f4 0f3f 8b58 883d a870 903d
00000250: a0be 073f fd71 983d ecec 05bd 4a4d 27bf
00000260: c8a1 31bd 16ca 64bd f544 21bf c7a3 1ebf
00000270: fa57 113f 0865 a93c 38ff f43c 4001 573d
00000280: f207 8f3d 763f 93bd 7034 2fbc 81df 29bf
00000290: afcf a93d a9d9 2ebf 8573 213f 1a1a 183d
000002a0: bf85 d53e 2c49 88bd 5cce 1bbf 5252 e9bd
000002b0: 819a 3ebf 1779 cf3f c337 14bd 9ba1 aabd
000002c0: 47ef ac3d 7981 853c b316 0abf 2215 0fbf
000002d0: d3cd 463d d52f 9cbd ee71 5e3d ee87 d33c
000002e0: fb15 70bf fb3d 413f df1c 15bf b800 0c3f
000002f0: bddf a13d a574 30bf 07f3 2bbf 7cea 09be
00000300: 8d98 1ebf 9bc8 0bbe cd0c ba3d b418 32bf
00000310: 9756 1abf 57f1 31bf 1457 72bd 7513 a2bd
00000320: fe55 26bf c120 23bf 4fe3 17bf f362 64bd
00000330: 92fa e9bc ebec 17bc 0add 3fbf 725c 0e3f
00000340: 8542 053f 219c 50bf 0730 ddbe ee45 1cbf
00000350: 07e6 333d f829 0f3f b14f 293f 425b 103f
00000360: 5208 0abd fe2a 0fbf 6a26 07bf f23e 2abf
00000370: 70c9 d6bd 503a 3dbd 84f0 21bf 6bfe e23c
00000380: ec0b 56bd 6b82 e03c e5ac a5bd f338 ebbc
00000390: f87a c7bc e9fc 0c3f 0fdf 6dbf 6daf 39bd
000003a0: 3960 0fbf 50c6 993f 701a a43c 73b1 26bf
000003b0: 9768 893c 5dd7 fd3c 8aff 323d 71a8 37bf
000003c0: 9dd6 31bf bc7d 10bf 3e49 4f3f f27f 1fbf
000003d0: 7be7 5fbf d1e4 83bb 12b8 25bf f7aa 88bf
000003e0: f803 b83c f866 36be f026 11bf 0a5f 21bd
000003f0: b979 9b3c a140 04bf 9fa6 78be 439e 323d
0.0047222157 -0.6318246 -0.6508647 -1.058823 -0.686366 -0.70078397 -1.0946251 0.011091648
0.07505477 0.09068683 0.070777334 -0.062939845 -0.63093984 -0.003993546 -0.51179165 0.049992494
-0.677047 0.5993546 0.036415298 0.07133403 0.487492 0.020036474 -0.023912469 -0.7305482
0.0036256106 0.019609727 -0.70691067 -0.5833765 0.76064205 -0.05206255 0.1304756 -0.011089298
0.14302512 -0.029080668 -0.014379046 -0.7076248 -0.006651221 -0.6541979 0.38056707 0.22416279
0.46737376 -0.014838755 -0.5791293 0.053710453 -0.6322436 1.5534157 0.009266554 0.05425916
-0.061238613 0.06599338 -0.6020354 -0.611144 0.028081678 -0.026446454 -0.02983458 0.21350583
-1.0690358 0.8131929 -0.5646883 0.40280917 0.040026475 -0.6517126 -0.6052274 0.03625213
-0.5893523 0.031947583 0.002493346 -0.66817427 -0.58609194 -0.5732372 -0.07946251 -0.014721167
-0.48819286 -0.60289323 -0.57031095 -0.034923725 0.10766053 0.16803826 -0.5561679 0.5897149
0.6397943 -0.85230327 -0.5055237 -0.60659164 -0.0048444443 0.46298474 0.62495434 0.6307652
0.08219108 -0.67552465 -0.62240064 -0.6581169 0.014559036 0.22033629 -0.664741 0.06985245
-0.044081684 0.073305085 0.019659828 0.07008744 0.021186532 0.5629555 -0.85076016 0.030814
-0.84217733 1.1606914 0.034016553 -0.64260375 0.0732066 0.21368235 0.1328183 -0.7080051
-0.5898728 -0.70438004 0.81726706 -0.69285506 -0.7121069 0.04250736 -0.66895646 -0.8433307
0.09104394 0.073964104 -0.6394175 0.085627474 0.013912703 -0.5935393 -0.033760197 -0.011112724
-0.013126634 -0.52664685 -0.70724964 -1.1060443 -0.65374064 -0.59220046 -1.119628 0.015636435
0.030421011 -0.07327264 0.03228925 0.05642106 -0.6132019 -0.06652714 -0.6894259 -0.05049176
-0.55930156 0.5623173 0.06657513 0.070527375 0.53025246 0.074436165 -0.03269665 -0.6535231
-0.043367177 -0.055856787 -0.62995845 -0.61968654 0.56774867 0.020678058 0.029906854 0.052491426
0.06983937 -0.071898386 -0.010693654 -0.66356665 0.082915656 -0.68300873 0.63066894 0.037134267
0.41703603 -0.066545814 -0.60861754 -0.113926545 -0.74454504 1.6208829 -0.03618599 -0.08331605
0.08444076 0.016297089 -0.53940886 -0.5589162 0.048536133 -0.07626311 0.05430787 0.025821652
-0.9378354 0.754852 -0.5824718 0.54688597 0.07904003 -0.68927985 -0.67167705 -0.13468355
-0.61951524 -0.13650744 0.09084473 -0.69568944 -0.60288376 -0.6950888 -0.059165075 -0.079138674
-0.64974964 -0.63721853 -0.5933122 -0.055758428 -0.028561864 -0.009272794 -0.74946654 0.5560981
0.52054626 -0.81488234 -0.43200704 -0.61044204 0.043920543 0.55923414 0.66137224 0.5638925
-0.03369934 -0.55924976 -0.5279299 -0.66502297 -0.1048764 -0.04619819 -0.6325762 0.027709207
-0.052257463 0.027405938 -0.08089618 -0.028713679 -0.024350628 0.5507341 -0.92918485 -0.045333315
-0.560062 1.2013645 0.020032138 -0.65114516 0.016773505 0.030986482 0.043700732 -0.71741396
-0.694681 -0.56441855 0.80971134 -0.62304604 -0.87462586 -0.00402508 -0.64733994 -1.0677174
0.02246283 -0.17812717 -0.5670004 -0.039397277 0.01897894 -0.51661116 -0.24282311 0.04360796

fc4.bias f4 [7]
00000000: b1d6 c8bd 2862 31bd 2bbf 153f f2a2 00be
00000010: 71a4 003e 3e77 a2be 9d0e b73e
-0.09806574 -0.0433065 0.58494824 -0.12562159 0.1256273 -0.317316 0.35753337
