models/lateral_stage2_seed5000_final.pth (torch, 412481 bytes, 8 tensors)

fc1.weight f4 [256, 9]
000000 4a 5c 62 40 d6 66 81 3d 8e f8 02 3e 98 8c 43 bf
       3.5368829 0.063184425 0.12790129 -0.76386404
000010 b1 4b 6a bd c3 3c de bd 26 20 6a 3e 10 98 f8 3d
       -0.05720109 -0.10851433 0.22863826 0.121383786
000020 c4 1d 70 3c 16 e7 9e c0 1a 3d 0c 3e 3e 89 ab bd
       0.014655534 -4.9657087 0.13695183 -0.08375786
000030 3b ab aa be bd 43 bc 3e 96 1e 05 3e 18 37 80 be
       -0.33333763 0.3677043 0.12999949 -0.25042033
000040 c6 c3 45 3e 4e cb ff 3c 62 f7 26 40 f7 2b be bc
       0.19312963 0.031224873 2.608849 -0.023214323
000050 36 2a 88 3e 1d b0 2f 3e c0 19 aa bd 50 79 9a 3e
       0.26594704 0.17157026 -0.08305693 0.3017068
000060 e0 a1 53 be 5e da 50 be 30 de 25 be ec da 1d 40
       -0.20667219 -0.203958 -0.16198039 2.466487
000070 a4 b6 10 3a 4f 38 b5 3d 11 de 00 bf 79 89 b3 be
       0.00055203796 0.08848631 -0.50338846 -0.3506582
000080 04 25 a5 bc 91 69 87 3e 00 cc 89 ba 5b 8c 1b bd
       -0.020159252 0.26447728 -0.0010513067 -0.03797565
000090 c3 43 d0 be b9 3d 9a 3e da 02 a7 3c 54 60 ba 3e
       -0.40676698 0.30125216 0.020387102 0.36401618
0000a0 a4 ae 7b be 8c 2f df 3e 8e eb 5d 3e 91 a5 a3 3e
       -0.24578339 0.43590963 0.21671888 0.31962255
0000b0 63 47 e4 3d 66 c2 5c 40 55 bc 8c 3e f2 c3 9b 3e
       0.111464284 3.4493651 0.27487436 0.30422932
0000c0 28 64 de bd 7d 5a 4c 3d d2 21 1a 3d e2 88 55 3e
       -0.10858947 0.049890984 0.03762991 0.20852998
0000d0 a3 90 4e be 39 44 3c 3e c2 51 b7 40 30 81 78 3e
       -0.20172362 0.183854 5.72873 0.24268031
0000e0 3a 1d 7c 3d 31 d4 d5 bc 73 8e 99 be 6b f5 df bd
       0.06155131 -0.026102157 -0.29991493 -0.10935482
0000f0 06 8b 41 be e0 9e 6c bc 4f 79 d5 bd bc 27 fc bf
       -0.1890069 -0.014442176 -0.104235284 -1.9699626
000100 61 98 60 3e d0 23 6b bd 98 b7 17 3f 28 62 b6 3e
       0.21933128 -0.0574072 0.59264517 0.35621762
000110 a8 9d 56 3f 68 4e 1e 3d ba e1 72 3e e6 1f b6 3c
       0.83834314 0.038648993 0.2371892 0.022232007
000120 c4 d9 f7 bf ce 75 ad be 93 bd c8 be 58 39 b0 be
       -1.9363332 -0.3387894 -0.39207134 -0.3441875
000130 f7 0c 62 be f1 d0 de 3d 64 3b 95 3d f0 18 9e 3c
       -0.22075258 0.10879696 0.072867185 0.019299
000140 9b 38 2f be f6 ce f0 3e b2 79 26 be ac 92 71 be
       -0.17111437 0.470329 -0.1625736 -0.23591107
000150 3a d6 2c 3e 76 73 51 3e 26 ac 0a 3e 53 34 a5 be
       0.16878596 0.20454201 0.13542232 -0.32266483
000160 7b 91 82 be 3d fb 96 be b8 14 f0 be 94 ee 15 bf
       -0.25501618 -0.29488555 -0.46890807 -0.58567166
000170 5b 0a 37 be 91 72 f2 be 6b a6 d6 3d d6 4a a5 3e
       -0.17875044 -0.47353032 0.104809605 0.32283658
000180 f0 e9 d2 bd 39 62 81 3e e2 01 bc be 18 f7 b0 bf
       -0.10298526 0.2527025 -0.36720186 -1.3825407
000190 d8 e7 61 3c 55 96 1f bf 68 70 96 be 57 29 5a 3d
       0.013788186 -0.62338763 -0.29382634 0.05326208
0001a0 14 55 bc 3d 5e 84 0a 3e e4 7e f0 3d 14 68 ed be
       0.09195915 0.13527057 0.117429525 -0.46368468
0001b0 ae fa 93 40 b3 98 be 3e c0 90 dc 3d fa cc 37 3e
       4.6243505 0.37225875 0.10769796 0.17949286
0001c0 a7 87 4c 3e 1f 12 f9 3c 7e 80 1e be 49 7b a2 3e
       0.19973622 0.030404149 -0.15478703 0.31734684
0001d0 fc 80 98 be c3 b1 1d 40 d6 94 9a 3e 93 8d 08 3f
       -0.29785907 2.4639747 0.30191678 0.53341025
0001e0 3e f6 29 3e 5e 86 12 3d af 11 54 3d 96 d6 5d be
       0.1659784 0.035772674 0.051774677 -0.2166389
0001f0 6e e7 03 be ca b4 b2 3d fb db 0b 3d a0 67 9f 3d
       -0.12881252 0.08725889 0.034145337 0.07783437
000200 19 47 2a bd 3c da f1 3e 08 be 10 3e 3a 5a be be
       -0.04157171 0.47236812 0.14134991 -0.37178212
000210 48 aa 2e 3d 80 06 79 bc c3 15 da bd 16 1e 03 40
       0.04264286 -0.015199304 -0.10648682 2.0487113
000220 7c cf ea bd 2e 09 98 bc b0 1b 3d 3f ba d7 2e be
       -0.11465356 -0.018559065 0.7387037 -0.1707448
000230 c1 69 b6 be 83 b6 8f be eb f7 8b 3e d3 cc c5 3d
       -0.3562756 -0.28068933 0.27337584 0.09658208
000240 ff 0d 42 bf 33 0b 62 be e9 26 6e bd 27 71 3b 3f
       -0.75802606 -0.22074585 -0.058142576 0.7321953
000250 60 ae d2 be 14 84 83 be fe 6c 47 3e 5e 92 80 be
       -0.41148663 -0.25686705 0.19475171 -0.2511167
000260 10 18 a7 3b c8 9c 9b be 82 90 29 be 2d 0a f4 bb
       0.005099304 -0.30393052 -0.16559032 -0.007447502
000270 d5 51 a7 3f bc c4 0e bd 75 6c 66 bd b0 19 52 be
       1.3071848 -0.03485559 -0.056255776 -0.20517612
000280 cb ac 3a be ce da ad 3d 1b f4 37 c0 d9 06 36 bf
       -0.18229978 0.08488999 -2.874274 -0.711042
000290 21 68 1e 3f 65 fb 0c 3e bb 53 96 3e 08 ac bf bc
       0.6187764 0.13767774 0.29360756 -0.02339746
0002a0 08 60 24 bd 3e 74 12 be 1d 2b e4 be 2e 2c 47 40
       -0.040130645 -0.14302155 -0.44564143 3.1120715
0002b0 cd 50 ac 3d b3 9e 97 3e 54 f7 51 bc 63 e6 62 3e
       0.08413849 0.29613265 -0.012815315 0.22158198
0002c0 7c 5b 4d 3e de f0 2e 3e f2 f8 08 3e eb 01 2f be
       0.2005443 0.17084071 0.13376215 -0.17090575
0002d0 55 cc ab 40 5a 5a 88 bd 1d 4f 10 be 63 c0 03 3f
       5.368693 -0.06657858 -0.1409268 0.51465434
0002e0 fc 93 24 3e 44 27 06 bf 70 da d2 3d 53 db 58 be
       0.16072077 -0.52403665 0.1029557 -0.21177416
0002f0 42 0e 29 3e 31 25 7d 40 87 de cf be 4e 37 2c be
       0.16509345 3.955395 -0.40599462 -0.16817972
000300 53 94 8d 3e 4f 16 b1 bd 53 35 a1 be 90 12 0e 3e
       0.27652225 -0.08646833 -0.31485996 0.13874269
000310 f5 df 80 3e e7 bf 3d 3e 87 bd 79 bf 66 b4 55 bf
       0.25170866 0.18530236 -0.9755482 -0.8347839
000320 36 53 85 be 75 63 66 bd 2d 99 f4 3d 74 c2 b4 bd
       -0.26040047 -0.056247193 0.119432785 -0.088261515
000330 80 bd 03 bb c0 ee d5 bd ed 76 65 3e 13 d0 7e be
       -0.0020101964 -0.104459286 0.22408648 -0.24884062
000340 bf 4f 13 bf 96 05 64 bd 01 e1 a7 3e 41 8a 91 3e
       -0.5754356 -0.05566939 0.32788852 0.28425792
000350 e2 24 8b 3e 0a 0c 97 be d6 fa 4c 3e cf 1d 24 3e
       0.27176577 -0.29501373 0.20017561 0.16026996
000360 1f f7 68 3f 7a 71 77 be 11 b0 77 3e e7 97 bc be
       0.91002077 -0.24164382 0.24188258 -0.36834642
000370 6f 0f f4 3e ae ce 41 3f 68 60 76 bd a4 c4 89 be
       0.47668025 0.75705993 -0.060150534 -0.26907837
000380 c1 23 d9 be 1d 5f f3 3e b7 70 be be 1b e0 cd 3d
       -0.4241009 0.47533503 -0.3719537 0.1005251
000390 81 f1 90 be d8 97 a3 bd 5f 06 2f be 43 d5 98 be
       -0.28309253 -0.07987946 -0.17092274 -0.29850206
0003a0 2a a9 5b 3e 44 1b 32 be 5e 2e 4f 3f 4b 27 33 3e
       0.2145125 -0.17393214 0.80930126 0.17495458
0003b0 19 d3 5e be 45 5a af bd 0e 49 98 3e d1 7e 21 3f
       -0.21760215 -0.085621394 0.29743236 0.6308413
0003c0 ba d5 5e 3e a4 88 a0 be 9b c2 6c be 50 6e 94 c0
       0.21761218 -0.3135425 -0.23121111 -4.638466
0003d0 d1 0e 27 3f d2 0a 15 3e 8e bb 5d be 14 a3 eb 3d
       0.65256983 0.14554909 -0.21653578 0.11505714
0003e0 0f f6 db be 48 f3 79 be be 25 72 3e 69 31 14 3e
       -0.42961165 -0.2440921 0.2364721 0.14471973
0003f0 d8 a4 0a c0 25 ae f3 bd b1 fd bc be 06 2b 98 be
       -2.1663113 -0.1189845 -0.369123 -0.29720324

fc1.bias f4 [256]
000000 f3 3d 80 3c a0 d0 fb be 45 e9 73 3e ed 11 01 3e
       0.01565454 -0.49182606 0.23819454 0.12604494
000010 c4 1f 84 be a1 00 f2 be e2 45 08 3e cc 7c 6b be
       -0.25805485 -0.47266105 0.13307908 -0.22996825
000020 bb 63 bf 3e f8 da cb be 7a a6 62 be 81 5a 15 be
       0.37380776 -0.39815497 -0.22133818 -0.14585306
000030 d3 28 97 3e 1a e7 9c be 17 22 9a be ad 90 0f 3e
       0.29523334 -0.30645066 -0.30104133 0.14020033
000040 33 e8 a9 3e 9d 14 de 3e 9f 75 8c 3e 0a 60 15 3e
       0.33184966 0.43375102 0.27433488 0.14587417
000050 1c 88 63 3e 88 74 76 3d 1e d1 f4 bd 74 3b ad 3e
       0.2221989 0.060169727 -0.119539484 0.33834422
000060 eb d6 42 be f1 53 8b 3e 39 f5 85 be d4 d9 25 bc
       -0.19027297 0.2721248 -0.26163653 -0.010122735
000070 d5 ae 0e be 9d 95 bb ba 70 0a bc 3e b4 a5 1b 3e
       -0.1393388 -0.0014311556 0.36726713 0.1519993
000080 70 98 b8 be 1c 41 c0 3e 78 00 89 3e f0 12 50 bc
       -0.360538 0.37549675 0.2675817 -0.012699828
000090 98 f1 38 3e dd a0 4f 3e 40 33 5d be 92 c4 d7 be
       0.1806091 0.20276208 -0.21601582 -0.4214216
0000a0 c1 fe 15 3e 66 65 ad 3e 12 94 af be e4 67 af be
       0.14647962 0.33866423 -0.34292656 -0.3425895
0000b0 46 b4 27 be e2 9e 3c 3e 60 90 2a bc ad e5 a4 3d
       -0.16377363 0.18419984 -0.010410398 0.0805162
0000c0 4a 11 58 3e 02 47 b4 3b 2b 7d cc 3e 0e b4 90 be
       0.21100345 0.005501629 0.39939246 -0.2826237
0000d0 b5 e6 f6 3d 62 4f de 3e c8 1b 62 3e 19 58 cb 3d
       0.120557226 0.4341994 0.2208091 0.09928913
0000e0 b8 f4 ab 3e 01 4b a2 3d 01 f3 c5 3e f4 a3 66 be
       0.33585143 0.07924462 0.3866196 -0.2252348
0000f0 3b e4 1e bf 40 f8 10 3e bf 8d 0c 3e f5 1e 26 3e
       -0.62067 0.141572 0.13725947 0.16222747
000100 a1 fa a1 be 37 a5 b5 bd 73 d3 bd 3e 73 f8 b5 3e
       -0.31636527 -0.08869403 0.37075385 0.35541114
000110 cc 6e c7 3d af 81 42 3e 8a 01 95 3e 35 31 a5 be
       0.0973793 0.18994783 0.29102737 -0.32264104
000120 9d 80 b9 be a4 11 1a be a5 8f a5 be b7 8a e8 bd
       -0.36230937 -0.15045792 -0.32336155 -0.11354583
000130 10 a6 0a 3d a2 49 91 3e 53 bf 9b 3d fb b9 2a 3d
       0.033849776 0.2837649 0.076048516 0.04168127
000140 b9 ce 8d 3e 9e 43 96 3e 7c 5b e1 3e cd 68 67 bd
       0.2769678 0.29348463 0.4401511 -0.05649643
000150 6a ec b4 be c8 a0 84 3e 55 a4 93 be a9 51 98 3d
       -0.3533662 0.25903916 -0.28836313 0.074374504
000160 5e cd 86 3e 1e a1 b4 bd c3 9d 03 3e 91 85 f8 3d
       0.26328558 -0.08819793 0.1285315 0.12134851
000170 f9 71 e4 3e aa ef 83 3e 3c c4 73 3e 37 8d 45 3c
       0.44618204 0.25768787 0.23805326 0.012057594
000180 42 1d f1 3d 82 58 d9 be b4 fa d4 be d2 14 ad bd
       0.117731586 -0.4245034 -0.4159752 -0.08451237
000190 8f 7a 36 be ee 63 16 be 84 8f 8b 3e e0 e5 55 be
       -0.1782019 -0.14686558 0.2725793 -0.20888472
0001a0 bc 4d a7 bd ad db 98 be 56 bd 2e be e0 7c 5b 3e
       -0.081691235 -0.298551 -0.17064413 0.21434355
0001b0 33 84 a7 3e 91 4b 8e be bf af 3f be 6a 20 67 be
       0.32718047 -0.27792028 -0.18719386 -0.22570959
0001c0 93 09 0b bf 09 d6 a6 be 27 33 ea 3d c3 76 8a bd
       -0.54311484 -0.3258517 0.11435538 -0.06760933
0001d0 a8 62 72 3d 58 a4 be bc d9 cb 71 be 67 d6 c5 3e
       0.059176117 -0.023271725 -0.23612918 0.38640139
0001e0 0d 86 0b 3e 70 26 69 39 d4 04 98 be b6 c7 5a 3e
       0.13625355 0.0002223493 -0.29691184 0.21365246
0001f0 bb 2b b7 be df 02 c9 be 79 7e e2 3e 36 e9 76 be
       -0.3577555 -0.39260003 0.44237116 -0.241124
000200 53 4e f0 3e 6a 73 69 3e 4b db 9a 3e 68 55 b6 3e
       0.46934757 0.22797933 0.30245432 0.35612035
000210 29 74 ee 3b 17 46 4d be 0a 10 77 be bf 91 20 3e
       0.007277031 -0.20046268 -0.24127212 0.15680598
000220 3c 48 ae 3e 1c c0 ae 3e e2 83 8f be c4 73 b0 3e
       0.34039485 0.34130943 -0.28030306 0.34463322
000230 e3 94 bd 3d 2c fc 41 bd a5 87 64 bd a5 23 2a 3e
       0.092569135 -0.04735963 -0.055793423 0.1661516
000240 f6 e3 bf 3d 6d 86 90 bd 28 86 75 3e c7 af 88 bc
       0.09369652 -0.0705689 0.23976958 -0.01668538
000250 db 04 c0 3e b8 48 9d 3e bb 42 9c 3d 6b 99 06 3d
       0.37503704 0.30719543 0.07629915 0.032861155
000260 06 5e c4 3d 2b 64 2d 3d 4c 41 b6 3e 5e 97 20 bf
       0.09588246 0.042331856 0.35596693 -0.6273097
000270 f1 d6 a0 3d fb 40 a7 be 0c ce 58 be 31 b6 c5 be
       0.07853497 -0.32666764 -0.2117235 -0.38615564
000280 55 ac 97 be 15 91 14 3d 4b 5a 9c be 29 fa 8b be
       -0.29623666 0.036271174 -0.30537638 -0.27339295
000290 c2 dd 69 bb 1d 82 b3 be d7 e4 fa be 1b 80 ae be
       -0.0035685156 -0.35060206 -0.49002716 -0.34082112
0002a0 af 84 85 3d 68 51 72 3c 90 06 8d bb f7 f1 52 be
       0.06519448 0.014789917 -0.004303761 -0.20600115
0002b0 21 b8 1f 3e fd e6 03 bd b9 cb 14 bf 5b 3a 55 3d
       0.15597583 -0.03220271 -0.58123356 0.052057605
0002c0 9f 2f 47 be 27 23 78 3e c6 93 39 3e fa 7a f2 3d
       -0.1945176 0.2423216 0.18122777 0.11839862
0002d0 e0 ca 0f 3e 97 b4 9a be df c2 42 be 14 06 0a 3e
       0.14042234 -0.30215904 -0.1901965 0.13478881
0002e0 b3 2c 57 3e df c2 5c 3e 7c 50 8a 3e 9d 7b ea 3e
       0.21013145 0.21558712 0.2701453 0.45797434
0002f0 6b 31 b8 be 4f 0a c8 be 12 09 8d 3e 7f 99 2e 3c
       -0.35975203 -0.39070365 0.27545983 0.0106567135
000300 a5 a2 d9 3e 9b a5 85 3e 23 e3 27 3e 96 5b 72 bc
       0.425069 0.2610291 0.1639524 -0.014792344
000310 b8 9d b5 3e 56 3b 2c bf 0e 93 b4 3e 8b 3f 8a be
       0.35471892 -0.6727804 0.35268444 -0.27001604
000320 49 18 d9 3d 1c 3d 15 be 5b 13 2f 3e 45 68 69 3c
       0.10600335 -0.14574093 0.17097227 0.014246051
000330 db 06 7b 3e 57 ec 78 bd 3d 88 bd be be 81 02 bf
       0.24514334 -0.060772266 -0.37018004 -0.5097922
000340 30 b6 ae be cc b9 a5 bd 78 0c a8 3d bb 60 c2 3d
       -0.34123373 -0.080920786 0.08205503 0.09491106
000350 e7 97 71 3e f4 a1 29 3e 9b 9f f9 bd 87 5d 26 bf
       0.23593102 0.16565686 -0.121886455 -0.6498646
000360 7b 42 38 3d f2 bf 32 3e 27 55 81 3e 3d 92 0a 3e
       0.044985276 0.17456034 0.2526028 0.13532348
000370 b1 c4 b0 3e cd a7 cf be ab f1 b9 be c2 9b 3b bf
       0.34525064 -0.4055771 -0.3631719 -0.7328454
000380 e2 96 99 be ca 7a 08 bf 96 21 f7 be 4e db 64 3e
       -0.29997927 -0.5331236 -0.48267812 0.22349283
000390 89 67 53 be d4 e9 22 bf f4 a4 1d bd ee c3 11 be
       -0.20644964 -0.63638043 -0.03848739 -0.14234897
0003a0 43 0e d4 3d 84 f1 4e 3e 97 44 04 3e 7e 16 69 be
       0.10354283 0.20209318 0.1291679 -0.22762486
0003b0 ca b9 19 bc be 6a 7b be c3 48 06 be 62 36 aa be
       -0.0093826745 -0.24552438 -0.13113694 -0.33244616
0003c0 82 5f c3 be da 1d 08 bf 91 80 a1 be f5 84 08 bf
       -0.38158804 -0.5317055 -0.315434 -0.53327876
0003d0 10 7a 90 3e 67 54 85 3c b7 98 8c 3e ad a8 47 be
       0.28218126 0.016275598 0.27460262 -0.19497938
0003e0 f2 29 88 be a9 87 69 3d 92 82 99 3e 86 e4 13 3e
       -0.26594502 0.05701414 0.2998243 0.14442644
0003f0 1a 51 50 3e 06 da 48 3e ce 6e a0 3d 18 60 ca be
       0.20343438 0.1961442 0.07833634 -0.3952644

fc2.weight f4 [256, 256]
000000 ee 04 30 be d3 e1 a2 be 30 b2 c1 3e 52 82 d5 3d
       -0.1718938 -0.31812915 0.3783126 0.10425247
000010 25 a7 bc 3b 74 e1 73 be 45 d4 88 bd 81 6a 26 3c
       0.00575723 -0.23816472 -0.06681112 0.010157228
000020 77 b1 24 3f a7 3e 7e be 9d 87 48 3b 51 b8 f7 3e
       0.6433329 -0.24828587 0.003059841 0.4838281
000030 2a 33 8f 3e f6 bb fb bd 04 8c 54 bd 0d 64 9e 3d
       0.27968723 -0.1229171 -0.05189134 0.07733927
000040 9d c8 31 3e a8 0e 13 3e a2 66 45 3e 31 17 04 3f
       0.17361684 0.1436106 0.19277433 0.5159789
000050 36 b1 ca 3e f3 f1 74 3e a6 0d 91 3f de 12 89 3e
       0.39588326 0.23920421 1.133229 0.26772207
000060 95 ee 27 be f4 c2 45 3e 38 f3 68 be 18 6c b6 bd
       -0.16399606 0.1931265 -0.2274903 -0.08907336
000070 47 30 f1 3e b0 04 b2 be f0 32 d8 3e bd 72 77 bf
       0.47107145 -0.347692 0.42226362 -0.9665945
000080 a8 2b a5 be a9 a9 85 3e bd 8a 0a 3f ee d6 38 bb
       -0.3225987 0.26106003 0.5411795 -0.002820428
000090 17 b0 95 3e 32 bf 0c 3f c7 22 9b be 5c 06 24 3f
       0.29235908 0.5497924 -0.3029997 0.64072204
0000a0 94 e8 5a be be d3 bd 3e 7b f1 0a be 47 1f a3 bc
       -0.21377784 0.3707561 -0.1356868 -0.019912375
0000b0 2c 0d a4 3e 3d 89 82 3e be 3e e8 3d fb ec b3 be
       0.320413 0.2549533 0.11340092 -0.3514174
0000c0 ff f0 93 3e fa 0d 9d bd 60 74 7e 3e 67 43 47 3d
       0.28894803 -0.076686814 0.24849081 0.048648264
0000d0 e0 82 82 3e 55 37 8b 3e ac 8e a5 3e d7 28 c4 3d
       0.25490475 0.27190652 0.32335413 0.09578102
0000e0 b0 12 ff 3e 22 6f b7 3e 0f e8 e6 3e b0 b5 87 be
       0.49818945 0.35826975 0.45098922 -0.26505804
0000f0 73 bd 37 be de 7b 44 3e 0b d2 00 3f bb 7c cd 3e
       -0.17943363 0.19187877 0.503205 0.40134224
000100 6a 2d 3f bf c2 a1 55 bf ec 0c c4 3e 78 e9 20 3f
       -0.7467867 -0.8344995 0.3829111 0.62856245
000110 4c 28 99 3f a9 8c 97 be f1 15 bd 3e c3 02 1f bf
       1.1965423 -0.29599503 0.36930802 -0.6211359
000120 37 73 6b bf 70 68 29 be 88 3a ad be b0 ac 7c 3e
       -0.9197268 -0.16543746 -0.33833718 0.2467525
000130 ab a6 3a be 74 86 98 3e 12 29 ca 3e 33 dd ca 3d
       -0.18227641 0.2979008 0.3948446 0.09905472
000140 9a 08 01 3f 9e a9 ee 3e 39 14 99 3e 8b 0e 50 3f
       0.5040375 0.46613783 0.2989824 0.8127219
000150 89 d6 35 be 15 5b 0b 3f e7 59 8b bd e7 17 8c 3e
       -0.1775762 0.54435855 -0.06804257 0.27361986
000160 47 a1 73 3e c6 78 22 be 91 db 25 bb d2 e9 9a 3e
       0.23791991 -0.15866384 -0.0025307874 0.30256516
000170 d8 92 10 3f 1e cd 25 bc cf 76 4f 3f 39 e8 c8 3e
       0.56474066 -0.0101197045 0.8104066 0.39239672
000180 d5 ed 00 3e 2a 77 2a bd 74 6f f2 3e fe d8 c3 3e
       0.12590726 -0.04161755 0.47350657 0.3825149
000190 21 f8 b4 3e 1d ca 90 be 6d 86 39 3e 1d 80 95 3f
       0.35345557 -0.282792 0.18117686 1.1679722
0001a0 ed 7e 90 3f ca d1 3d be 9c 33 1b bf a1 05 f0 3e
       1.1288735 -0.1853706 -0.60625625 0.46879295
0001b0 ad 96 61 3e 94 4d a6 3e a2 f9 bd bd f6 98 06 be
       0.22030134 0.32481062 -0.09276129 -0.13144287
0001c0 89 82 ae be 86 9e 20 bf e1 ca ac 3e d1 41 90 bd
       -0.34083965 -0.6274189 0.33748534 -0.070438035
0001d0 18 91 83 3e b0 22 0a be e5 97 86 bd 32 1d 08 3f
       0.25696635 -0.13489795 -0.0657194 0.5316955
0001e0 a9 88 61 3e 71 4e 35 bd 00 df 80 be f2 aa 10 3e
       0.22024788 -0.04426426 -0.25170135 0.1412771
0001f0 95 fc 00 bf 2c 38 07 bf 9a 0e 7f 3d a6 bd d3 be
       -0.5038541 -0.52820086 0.062269785 -0.41355628
000200 4e 1e cf 3e 45 da b7 3e a3 a6 9a 3e 2b ed 1f 3e
       0.40452808 0.35908714 0.3020526 0.15617816
000210 29 ca be 3a 63 d3 a4 bd 88 4b 52 be a2 e2 bd 3e
       0.0014556098 -0.08048131 -0.20536625 0.3708697
000220 0e 0f 72 3e 22 b4 63 3f 87 d7 9c 3e 43 f1 41 3e
       0.23638555 0.88946736 0.30633184 0.1893969
000230 2b bc a2 3e 5e cd 3f bf ac ec 09 bd 91 1f 9e 3e
       0.31784186 -0.7492274 -0.033672974 0.30883458
000240 bc 2d b7 3e 43 98 fa 3e d6 bc 9d bd 95 1e cd 3f
       0.3577708 0.4894429 -0.07702033 1.6024958
000250 7a 81 79 3e 56 3d a4 3d 04 33 2e 3f ce 55 8b 3e
       0.24365798 0.080195114 0.68046594 0.272139
000260 ea 26 d6 3e 76 2b 4e bd a6 f8 4e 3d d4 8a 3c bf
       0.41826564 -0.050334416 0.0505301 -0.73649335
000270 75 6b 9e 3e bb ab 34 bf 08 14 b2 be 77 3f 61 bf
       0.30941358 -0.7057454 -0.34780908 -0.87987465
000280 b3 ce 8a bf 3f 12 2a 3e d6 1f 03 bf f9 e6 8a 3f
       -1.084433 0.16608523 -0.5122045 1.0851737
000290 39 4b 5a be 4b 5b 60 bf ca 17 f8 bd 67 60 fe 3d
       -0.21317758 -0.876393 -0.121139124 0.12420731
0002a0 7c 41 c5 3e 98 d5 73 3d 02 74 1c 3c f8 20 28 3e
       0.38526523 0.05952987 0.009549143 0.16418827
0002b0 11 d1 5b 3e 91 78 17 be 84 51 e3 be 9e 73 be 3e
       0.21466471 -0.14792086 -0.4439813 0.37197584
0002c0 d8 5a 0e be 94 23 9f 3e 0a 35 04 be 3e 50 a7 3e
       -0.13901842 0.3108183 -0.12910858 0.32678407
0002d0 56 e0 17 3f a7 13 41 bf 57 4c ac 3e 1a 7b 6e 3e
       0.59326684 -0.7542061 0.33651993 0.23289147
0002e0 a8 1d 6e 3e 36 d1 5f 3e 8d 8b 0a bc ef 2f 03 3f
       0.232535 0.21857151 -0.008456123 0.51245016
0002f0 74 d6 20 3d d7 97 6b be bb 99 ff 3e 52 09 8d bd
       0.03926702 -0.23007141 0.49921975 -0.06886543
000300 bd 2b 98 3e 06 65 e5 3e 0c 05 b3 bd 75 6f d1 be
       0.2972087 0.44803637 -0.08741197 -0.40905347
000310 35 c3 a8 3e 41 22 7b bf a1 7e 47 3f ac 13 3a 3f
       0.3296143 -0.9809914 0.77927595 0.72686267
000320 c5 ec 6d 3d c1 d4 ac 3e 77 bf 09 3f f7 f1 ac 3e
       0.05808713 0.33756068 0.5380778 0.33778355
000330 9b fc 97 3e 62 28 43 be 61 ed 19 bf ca 34 b9 bf
       0.2968491 -0.19058374 -0.60127836 -1.4469235
000340 60 0a 01 be 30 e3 03 3f 03 4c 4f 3e 13 81 53 bd
       -0.12601614 0.51518536 0.2024384 -0.051636767
000350 b1 3c 8e 3d a7 86 51 3f 0e ee af 3e e0 ac a7 bd
       0.0694517 0.8184609 0.3436131 -0.0818727
000360 f3 32 4d bd 2f a7 ca 3d c2 cb 9c 3e 76 c5 59 3e
       -0.050097417 0.09895169 0.30624205 0.21266732
000370 db 30 0a 3f 7d f2 56 be e5 24 2b bf 47 25 8c bf
       0.539808 -0.2099094 -0.6685317 -1.0948876
000380 f2 65 29 bf e8 93 b3 3e a5 bf 00 bf 34 ea 18 3e
       -0.6617118 0.3507378 -0.50292426 0.14933091
000390 35 a0 2c 3f 79 3c a2 be 4a 50 0b 3d 7d ac d3 3d
       0.67431957 -0.31686762 0.034012116 0.10335634
0003a0 45 89 bb 3e 1f ec 9f 3e 7f 63 52 3e d0 43 a4 be
       0.36628166 0.31234834 0.20545767 -0.32082987
0003b0 07 5b 70 3e 8c 64 40 be 9c 76 35 be 17 d9 44 bf
       0.23472224 -0.18788356 -0.17721027 -0.7689375
0003c0 9b 28 53 bf ef ee 04 be 4c c0 c1 be b3 48 9b be
       -0.82483834 -0.12981771 -0.37842023 -0.30328903
0003d0 2b 74 7e 3e 88 0e 2b 3e 9c e5 cb 3e ed 27 9e 3d
       0.24849002 0.16704762 0.39823616 0.07722459
0003e0 74 75 0d 3c 4d 10 95 3e ec 34 2e 3d d3 eb da 3d
       0.00863396 0.29114 0.04253094 0.10689511
0003f0 ae 49 22 be 07 0d 2a bd b9 a4 29 3e 99 99 2d 3e
       -0.15848419 -0.04151633 0.16566743 0.16953124

fc2.bias f4 [256]
000000 f1 b5 ce 3e 6a 53 6d 3c 95 f5 66 bd 46 da 82 bd
       0.40373185 0.0144852195 -0.05638655 -0.063892886
000010 32 2f 8f 3c dc 2f 46 bd 3b ed a2 bd fe 41 89 3d
       0.01747856 -0.048385486 -0.07955404 0.0670204
000020 dc 04 73 3d 08 6e 62 be dd e0 26 3e 4c bc c4 3d
       0.059330806 -0.22112286 0.16296716 0.09606227
000030 0f e3 bd bc cd 1b 33 bd e5 21 77 3e 67 a1 8e bd
       -0.023179559 -0.043727685 0.24134023 -0.06964379
000040 8d 3e 00 3d 12 79 a5 3e 0c 89 c0 3c 06 26 87 bc
       0.031309653 0.32318932 0.023502849 -0.016497623
000050 20 23 74 3e 58 c9 7d bd f1 36 d3 bd fd 9e 00 bd
       0.23841524 -0.061959594 -0.103132136 -0.031401623
000060 39 88 3f bd 56 eb 3b 3d 19 a7 6a bd fa e4 f7 3c
       -0.04676077 0.04587873 -0.057288263 0.030260552
000070 b3 08 d5 3e 57 db d1 3d 8c f4 3b 3e 1f 6f ed 3c
       0.416082 0.10246914 0.18355006 0.02898365
000080 f7 90 f4 3e 8c 06 43 bd 14 45 07 3a e6 66 b7 bd
       0.4776685 -0.047613665 0.0005160135 -0.08955173
000090 05 34 0a bb dc 17 f6 3c aa b5 79 bd d6 13 94 3c
       -0.0021088135 0.030040674 -0.060964264 0.018075865
0000a0 04 fd 92 bd 9e fb 18 3e f8 ec b6 bd 7d c2 5b 3e
       -0.07177165 0.14939734 -0.08931917 0.2146091
0000b0 2a f1 16 be 63 e8 71 3c 10 36 65 3d 04 76 8e 3d
       -0.14740434 0.014764878 0.05595976 0.069561034
0000c0 90 c8 1b bd 46 71 70 bd d8 45 4f 3c 36 26 9e bd
       -0.03803307 -0.058701776 0.012650929 -0.07722132
0000d0 ac 5d 7a 3e 95 d4 06 3c 83 4c 80 bd e8 bb 96 3c
       0.24449795 0.008229394 -0.062645935 0.018400148
0000e0 32 ec 95 3d 58 63 85 bd a4 ce 46 be 89 28 d0 bc
       0.07320441 -0.06513089 -0.19414765 -0.025409954
0000f0 09 c5 82 3d 2c 41 d2 bc 0b 1e 0e bd 84 98 de 3e
       0.06385238 -0.025665842 -0.03469662 0.43475735
000100 4c bc 41 3d 17 89 04 3e bc 7e 1b bd 33 6c a6 bb
       0.047298715 0.1294292 -0.03796266 -0.0050788163
000110 7d 56 7c bd f9 5c 70 3d d9 50 8c bd cc 5e 65 3b
       -0.06160592 0.058682416 -0.06851358 0.003499913
000120 37 d0 35 3e 43 78 10 3e f4 ab df 3d 72 46 0d bd
       0.17755209 0.14108376 0.10921469 -0.03449101
000130 4d d1 dc bc ee e8 5e bd dc be 41 3c 48 ee a8 3c
       -0.026955271 -0.054421358 0.01182529 0.020621434
000140 69 88 1f 3e 17 f5 8d 3c d3 23 42 bd 96 1f ae 3d
       0.1557938 0.017328782 -0.047397446 0.08502118
000150 63 97 67 3d de 60 a2 3d 1a 99 e3 3c f2 11 38 3e
       0.056540858 0.07928632 0.027782965 0.17975596
000160 61 0e 0c 3c 05 81 10 3e e8 7e a5 3b 55 ae 1b bd
       0.00854835 0.14111717 0.005050529 -0.038008053
000170 32 dc 2e 3e 41 c7 47 bc 4c 47 17 bd 01 d2 22 bd
       0.17076185 -0.012193502 -0.03693323 -0.039751057
000180 28 38 09 3d d2 4b 50 3d f9 11 99 bb c0 43 2d bd
       0.03350082 0.050853558 -0.004671332 -0.04230094
000190 ca fb e7 bc f1 3e f0 3c 48 aa cc bd 7f 06 b4 3d
       -0.028318305 0.029326888 -0.09993416 0.087903015
0001a0 ff da e5 3d 71 12 1e 3c 76 2e c5 3c a1 f7 1c 3d
       0.11223411 0.009647951 0.024070006 0.038322095
0001b0 48 de 8d 3d 52 93 31 3d 52 c6 cf 3d 94 f3 5d bd
       0.069271624 0.043353386 0.101452485 -0.054187372
0001c0 e0 85 54 3c 58 4c 81 bd 19 2d 8c bd ff b7 9a bd
       0.012971371 -0.063133895 -0.06844539 -0.07554626
0001d0 55 1f 8d 3d 11 18 9f bd 53 e0 8e bd e9 1c 9c bc
       0.06890742 -0.07768262 -0.0697638 -0.019056754
0001e0 4b 2a 0e 3e 1a a1 7f bc d7 68 16 bd 9b 36 d3 3c
       0.13883321 -0.015602374 -0.036721077 0.025782874
0001f0 d2 08 ab 3c c9 9f 41 3d 4c 44 9d 3c 48 57 3b bc
       0.02087823 0.047271524 0.019197606 -0.011434384
000200 9f 7b 22 3f a8 c0 17 bd 89 c9 37 bd e1 30 1c 3b
       0.6346988 -0.037048966 -0.044869933 0.0023832845
000210 83 c5 d3 bd 58 85 17 bc 73 9e cd 3d 11 10 f6 bd
       -0.10340407 -0.0092481 0.100399874 -0.12014783
000220 eb c1 6e bd 1b 51 71 bd 66 86 25 bd 85 07 de 3c
       -0.058290403 -0.05891524 -0.040411375 0.027103195
000230 d3 c2 8d 3d eb eb 69 3c 3d ae 7f 3d 06 77 4b 3b
       0.069219254 0.014277439 0.062422026 0.0031046285
000240 86 b2 a9 3c 97 f6 d8 3d b4 39 63 bc ae 04 ca 3e
       0.02071501 0.10593908 -0.013868738 0.39456695
000250 4f dc a0 3d fe 6a 40 3d 6c 9b 74 3d 8d 46 eb bd
       0.078545205 0.046977036 0.059718534 -0.11488066
000260 b4 07 8c 3c 6d df e9 3d 59 53 20 3e a4 f9 df 3e
       0.017093517 0.11419568 0.15656795 0.43745148
000270 2f bd a4 bd be 8d a6 bd a8 72 0b 3e 6b c0 a3 3c
       -0.080438964 -0.08132504 0.13617957 0.019989213
000280 9c ef 66 3e 55 46 14 3d dc 0f 92 3b 79 d5 1f bd
       0.22552341 0.036199886 0.004457457 -0.039021943
000290 9b 1e 92 3c 47 57 3e 3d 06 9c e1 3c d3 78 d6 bc
       0.01783686 0.046469953 0.027540218 -0.02618066
0002a0 7d 7c 2b 3e 5a 5c 4d 3e 62 fd e8 3d c0 a0 d6 3d
       0.16746707 0.2005476 0.11376454 0.104798794
0002b0 d9 df a0 bc 84 e8 8e 3d f5 35 57 3c 18 0f d4 bd
       -0.019637989 0.069779426 0.013135423 -0.103544414
0002c0 2b c8 b5 3c eb 7e d5 bc 71 4c 10 be 6a a7 a2 ba
       0.022190174 -0.026061496 -0.1409166 -0.0012409512
0002d0 95 5e 37 bc 1f 53 96 bd fc 13 1a bc 60 4e bf bd
       -0.011191984 -0.07340073 -0.009404179 -0.09341121
0002e0 04 e5 90 3d 99 df 4d 3e 2f 32 07 3e 23 96 41 3e
       0.07074931 0.20104827 0.13202737 0.18904929
0002f0 fb f1 c3 3e 05 95 43 be f6 97 11 be 3b d0 96 bd
       0.38270554 -0.19099815 -0.14218125 -0.073639356
000300 8d 11 bd 3e 8a 5d e0 3d ee 43 1b bd e5 dc 4f ba
       0.36927453 0.10955341 -0.03790658 -0.0007929339
000310 20 97 e4 3d cc 13 a5 bd 1d d4 ca bd f8 ed 3c 3d
       0.11161637 -0.080604166 -0.09903739 0.046125382
000320 c7 1e d2 3b ef 98 9f bd 91 c0 b2 3c 26 06 d8 bd
       0.0064123604 -0.07792842 0.021820338 -0.10548048
000330 af a2 0b 3e 82 c2 75 3a 30 1b 28 be 37 27 07 be
       0.13636278 0.0009374992 -0.16416621 -0.13198553
000340 c3 7a f9 3b bd 8c 03 be 5b 1f 1c 3c c5 e8 48 3d
       0.0076135113 -0.12846656 0.00952896 0.04905011
000350 4f e2 49 bd ce 70 b5 bc 0f 0c 92 3e c4 ff 8a bc
       -0.04928809 -0.022148516 0.28524825 -0.016967662
000360 94 47 55 3d bb e7 df 3d 77 17 10 3d 07 3a 81 bd
       0.052070215 0.10932871 0.035178628 -0.06309896
000370 30 59 5a bc cb f1 2a bd b4 96 89 bd dc 5e 3f bd
       -0.013326928 -0.041734498 -0.067181975 -0.046721324
000380 e0 c9 ab bc 11 16 9e 3d 36 e6 61 bd fb bb 12 be
       -0.020970285 0.077190526 -0.055151187 -0.14329521
000390 e7 a7 09 bc 88 ba 9a 3d dc 31 af bd be c8 c5 3e
       -0.008401847 0.07555109 -0.08554432 0.38629717
0003a0 eb 33 7c bd 06 ac cc 3d 91 ff 3e 3d a5 11 f3 3c
       -0.06157295 0.09993748 0.046630446 0.0296715
0003b0 94 ff e6 bc 84 c6 35 3c 32 92 2d 3e 3b 4c 00 bd
       -0.028198041 0.011094693 0.169503 -0.0313227
0003c0 e3 15 f4 3b c8 c0 d3 3e e5 de ff bc 60 48 fb bb
       0.007448898 0.41358018 -0.031234214 -0.00766854
0003d0 c9 18 8d bd 5d ab 50 3d 6c 89 a2 bc 19 2f 5d bd
       -0.06889493 0.050944675 -0.019840918 -0.053999994
0003e0 47 3a 76 bd e4 0b ae 3d 9a 92 6f 3e f3 0a af bd
       -0.06011417 0.08498362 0.23395768 -0.0854701
0003f0 ed 2a d2 bd bb 9e 7e 3d 20 fd 85 bd 4f 12 6c bc
       -0.10262094 0.062163096 -0.065424204 -0.014408662

fc3.weight f4 [128, 256]
000000 fe 1c 27 3c 14 8d 26 bd 9e 90 28 bd 09 a8 59 3c
       0.010199783 -0.040661886 -0.041153543 0.013284692
000010 44 df f9 3c 98 b3 ca 3c f0 8f b0 bc 36 e4 04 bc
       0.03050197 0.02474384 -0.02155301 -0.00811105
000020 56 25 2e 3d 5c e5 d0 bc 15 06 93 bd 3c 37 1d bd
       0.042516075 -0.025499992 -0.071788944 -0.038382754
000030 00 ce 16 39 0a 07 49 3d 55 21 03 3d 20 a6 78 3d
       0.00014381856 0.04907898 0.03201421 0.060705304
000040 a5 11 17 3c 95 ba a2 bd 8a 3c 60 3d e0 f1 6f 3b
       0.009220515 -0.07945744 0.054745235 0.0036612675
000050 bf 2f af bc 82 90 64 3b 67 34 c6 bc 48 3b 34 3c
       -0.021385072 0.0034876172 -0.02419491 0.011000462
000060 d0 dc 52 bd 6d 31 33 bd 06 97 64 3d 56 0a e6 3c
       -0.051480114 -0.043748308 0.05580809 0.0280811
000070 cc a9 41 3d f7 70 ac 3c 8c 30 0c bd 76 0e 4c bd
       0.04728107 0.02104996 -0.034225985 -0.04981848
000080 33 9a af bc 38 54 5d 3c 5b b3 8d 3c 7f ba 86 bc
       -0.021435833 0.013508849 0.017297437 -0.01644635
000090 fb 6d 58 bc e4 52 cd 3c b7 8f a7 bc 52 cc ca bc
       -0.013209815 0.02506394 -0.02045427 -0.02475563
0000a0 8e be 15 bd 7f 36 26 bc a0 8e eb bb dc 71 ac 3c
       -0.03655868 -0.010144829 -0.007188633 0.021050386
0000b0 44 23 4e bd 5c 6d 56 bd 9e 92 55 bd cc 8e 56 bc
       -0.0503266 -0.052350387 -0.05214178 -0.013095569
0000c0 5c 74 a0 bc 80 96 29 3c 83 d1 55 ba bc f0 b5 3a
       -0.019586734 0.010350823 -0.0008156525 0.0013880949
0000d0 bd 7c 92 bd 45 0d 22 3c 14 58 1c bd bf c2 74 3d
       -0.07152698 0.009890859 -0.038169935 0.059756037
0000e0 c0 b1 53 bd 58 a0 25 bd a6 64 10 bd 35 b8 49 bd
       -0.051683187 -0.04043612 -0.035252236 -0.04924794
0000f0 a2 6e 0c 3d da 88 81 bc a0 b2 6f 3d cf d9 e5 3c
       0.034285195 -0.015812326 0.05851996 0.02805796
000100 ce 2a 88 bd be bf 15 bc 34 37 93 3c 04 a0 0e bd
       -0.06648789 -0.009139953 0.017970659 -0.03482057
000110 70 34 00 bd c7 01 20 3c 3f 1a c3 3b 87 6d 13 bd
       -0.03130001 0.009766049 0.0059540565 -0.035993125
000120 44 54 86 ba a3 17 2e 3d 83 e7 a2 bd 38 f7 db bb
       -0.0010248502 0.04250301 -0.079543136 -0.0067128204
000130 10 da 4f bc 58 75 1b bc 7d e0 65 bd 04 eb 97 3c
       -0.0126862675 -0.009488426 -0.05612229 0.018544681
000140 8b ce d1 3c a2 35 10 bd d4 c5 e8 3c 0b fc 0c 3d
       0.025611183 -0.0352074 0.028414644 0.034420054
000150 be ef 21 bd 7d 71 e2 3b a9 95 70 bd 4f f0 a9 bc
       -0.039535277 0.0069105015 -0.058736477 -0.02074447
000160 70 31 50 bd eb 7c 8b bb ec df e9 bc f1 24 4c 3d
       -0.050828397 -0.0042568347 -0.028549157 0.049839918
000170 cb 16 c9 bc 94 79 d9 3c 29 c7 e3 3b 2c c5 18 bc
       -0.024547001 0.02654723 0.006951232 -0.009324353
000180 68 63 db 3c 65 fe 30 bd 7c db ef bc 00 a0 b0 3c
       0.026780799 -0.04321136 -0.029279463 0.021560669
000190 8c 0a a0 bc c7 8b a0 bc a4 ec 57 bd 4c b5 77 3c
       -0.01953628 -0.019597901 -0.052715912 0.015118908
0001a0 ab 16 94 bb de 44 78 bd c6 8a 3d 3d 17 48 90 bd
       -0.004519304 -0.060612552 0.046274923 -0.07045
0001b0 2f 74 c5 3c a7 c4 34 bc 30 2d 60 bc c0 ed 9c bc
       0.024103252 -0.011033214 -0.013682649 -0.019156337
0001c0 b0 fe 27 3c 06 8d 2e 3d 63 42 6c bd f5 ea f8 bc
       0.010253593 0.04261496 -0.0576805 -0.030385474
0001d0 ee 52 c7 3b d1 33 15 bd b4 a4 34 3b 00 24 99 bc
       0.006082884 -0.03642637 0.002756399 -0.018693924
0001e0 95 3a a7 bd a2 df 24 bd 60 31 1c 3c 82 62 74 bc
       -0.081654705 -0.040252335 0.009533256 -0.014916064
0001f0 64 ba c2 bc f9 73 12 bd 80 da 2a ba e6 cb 3f bd
       -0.023770519 -0.03575513 -0.00065175444 -0.046825312
000200 d9 5d f9 3c fe 8d 4f 3d 22 73 69 3d 4c 6c 83 bc
       0.030440258 0.050672524 0.056994565 -0.01604285
000210 f8 54 2a 3d 04 8f 22 bd 4d 7a a2 3c d1 df c8 3c
       0.04158494 -0.03968717 0.019833708 0.024520786
000220 9e fd 5e bd f0 1a 67 3d c7 f7 cf 3c e2 04 3f bc
       -0.054441087 0.056422174 0.025386704 -0.011658879
000230 f3 60 0f 3d fb f2 05 bd c9 a4 28 bd c4 d2 a8 bc
       0.035004567 -0.032702427 -0.041172776 -0.020608313
000240 54 79 3f bd 00 86 04 39 2b d9 60 3d e0 44 08 3d
       -0.046746567 0.0001263842 0.054894608 0.03326881
000250 ba f0 0c 3d f9 e1 24 3d 60 b9 da 3c 08 fa a6 3c
       0.034409262 0.040254567 0.026699722 0.020382896
000260 2b 98 a9 bc cd 98 36 bc 89 63 81 bc 74 9d 46 3d
       -0.020702442 -0.011144829 -0.015794532 0.048490003
000270 56 1f 56 3d 40 d8 21 3c 06 51 c9 ba 8f d0 c1 3c
       0.052275978 0.009878218 -0.001535923 0.023659019
000280 5d 7c 1f 3d ec bb e9 bc c0 7b d0 3a 90 d0 6d bc
       0.03893696 -0.028531991 0.0015906021 -0.014515057
000290 7a e6 ab 3c c9 d4 fe 3c c8 6e d9 bc d2 f9 66 3d
       0.020983923 0.031107323 -0.026542082 0.05639059
0002a0 5f 61 92 bd b3 a2 af 3c 0c 24 36 bd 78 c9 84 bc
       -0.07147478 0.021439886 -0.04446797 -0.016209349
0002b0 5e 34 24 3d 47 85 3c 3d b8 16 77 3c 40 17 46 3b
       0.040089004 0.04602554 0.0150811 0.003022626
0002c0 80 36 d7 3b f3 65 01 bc e7 e4 75 bd 40 01 99 bc
       0.006567776 -0.007897842 -0.06003275 -0.018677354
0002d0 85 84 8d bd 5e f2 a9 bc a2 16 ba 3c 25 d8 49 bd
       -0.06910042 -0.020745452 0.02271587 -0.049278397
0002e0 60 35 9a 3b 9b f6 35 bd 55 58 4d 3d 4a 61 85 3b
       0.00470607 -0.044424634 0.050133068 0.0040704357
0002f0 3c 78 f6 bc 74 2b 82 bd 36 03 35 bd d8 78 6a 3c
       -0.03008663 -0.06355944 -0.044192515 0.014311038
000300 15 bd 0c bd 42 73 70 bd a2 d7 f7 bc 37 6f 30 3d
       -0.03436001 -0.05870367 -0.030254189 0.043074813
000310 92 08 12 3c 72 44 7d bd 7e 54 f6 bc 9d 60 08 3d
       0.008913176 -0.061832853 -0.030069586 0.033295263
000320 00 33 95 39 98 83 7c 3b 91 21 67 bd ff f6 6c bd
       0.00028457493 0.0038530584 -0.056428496 -0.05785274
000330 b4 f1 f3 3b b0 c5 d5 3c 69 48 f2 ba e0 f0 dc 3c
       0.0074445847 0.026095241 -0.0018484715 0.026970327
000340 d5 a3 d4 bc a0 8e 9c bc 38 c3 8a bb 03 dc 55 3c
       -0.025957027 -0.019110978 -0.0042346977 0.013052943
000350 d8 b3 ea 3c a1 7f 5d bd 92 3e bd bb 1c 95 9a bc
       0.02865021 -0.054076795 -0.005775281 -0.018869929
000360 6b dc 75 bd 79 cd 24 3c 4c 59 a5 3c de c5 2d bd
       -0.06002466 0.010058754 0.020184182 -0.04242503
000370 16 d9 fa bc 34 da b3 3c 2f b7 2b 3d 6c 0a 5e 3d
       -0.030621093 0.021954633 0.041922744 0.054209158
000380 c8 04 57 3c 72 8c 07 3c e6 fc fa bb 45 31 51 3d
       0.0131236985 0.008273231 -0.0076595424 0.051072378
000390 f1 f7 50 bd 26 b5 2f 3d 60 b6 71 3b 30 7b 91 bb
       -0.051017705 0.042897366 0.0036882386 -0.004439734
0003a0 30 ef 5c bd 6d bb 02 3d f3 74 91 bd f9 a5 12 3d
       -0.053939044 0.031917024 -0.071023844 0.035802815
0003b0 7f ba 8c bb e8 8d 98 3c eb f5 40 3d 19 39 c6 3c
       -0.004294693 0.018622354 0.047109526 0.024197148
0003c0 e8 a2 dc 3c d8 60 31 bd d5 f6 97 bc eb 22 ab 3b
       0.026933149 -0.043305248 -0.018550316 0.0052226684
0003d0 64 f6 6c bd f4 db e6 ba bc 7e 66 3d a4 ab 40 ba
       -0.057852164 -0.0017613159 0.056273207 -0.0007349795
0003e0 e1 94 fd 3c a6 5f 46 3d 3c fd 8f bd 2f 39 16 3d
       0.03095478 0.04843106 -0.070307225 0.03667563
0003f0 c0 b6 4a bd 10 28 69 3c 94 03 be 3c 3a 1e 81 bd
       -0.04949069 0.014230743 0.023195066 -0.063045934

fc3.bias f4 [128]
000000 e0 a4 43 bc f0 57 89 bd 6a af 5d bd d4 c2 52 be
       -0.011941165 -0.06706226 -0.054122366 -0.20582134
000010 11 b2 82 3c 53 8d 49 bd cf 86 46 3d 4b 22 91 3e
       0.01595405 -0.049207043 0.048468407 0.28346476
000020 24 d5 4d 3d b4 a5 af 3d f3 17 54 3d a0 59 ea 3d
       0.050252095 0.08576527 0.051780652 0.11442876
000030 34 33 ba bd b6 8d 0a bd ad e9 55 bd 26 77 d9 3c
       -0.090917975 -0.033826552 -0.052224804 0.026546072
000040 de 77 ee ba 1e fc 9c 39 2d bb b6 3d e2 3b f6 3d
       -0.0018193682 0.0002994248 0.0892242 0.120231405
000050 4b 91 81 bd 9a 60 5e bd 2d 1d 93 3d b6 57 c6 3d
       -0.063265406 -0.054291345 0.07183299 0.09684698
000060 fc a4 05 bd 9c bc cd 3c d2 50 ae 3d 1a 3c 9e 3c
       -0.032628044 0.02511435 0.08511509 0.019315768
000070 c7 6a 64 3d 66 a5 76 bd c1 96 0e bd 84 cd a5 3c
       0.055765893 -0.06021633 -0.03481174 0.020239599
000080 3c d3 a5 bd e2 95 97 3c 8c 05 ea 3c 85 77 7b 3e
       -0.080969304 0.018504087 0.028567098 0.24557312
000090 25 15 4b 3e 01 c2 e5 bd a8 b7 03 3d 7e 4c a9 3d
       0.19832285 -0.11218644 0.03215757 0.08266543
0000a0 36 ea bd 3c 52 8e 19 3d a6 f6 68 3d 8c 28 b6 bd
       0.02318297 0.037489243 0.056875847 -0.088944525
0000b0 bf 14 5a bd 22 c8 2e 3e ec cd 1b 3d 6c 86 6c bd
       -0.05324244 0.17068532 0.03803818 -0.057745382
0000c0 fb c6 a7 bb 8e 69 9a 3d b8 bc 90 bd bb 82 8c 3c
       -0.005120156 0.07539664 -0.07067245 0.01715218
0000d0 08 a4 87 bd 6c 7e e9 bc 65 42 54 3e 24 19 46 3d
       -0.06623083 -0.028502665 0.20728453 0.04836382
0000e0 02 a3 1e 3e 28 e9 d0 3c 37 3e 10 bc 2f 64 af bd
       0.1549187 0.025501803 -0.008803896 -0.085640304
0000f0 87 1d b9 3c 00 bb cc 3d 24 fb 57 3d d6 95 f5 bc
       0.022597088 0.09996605 0.05272974 -0.029978674
000100 99 26 0d bc 3f 08 49 3e 2b 3f ee 3c a8 4f 4d bd
       -0.008615159 0.19632052 0.029082855 -0.050124794
000110 98 84 1e 3c 11 24 b7 3c ec de d4 bc ca b6 a8 3d
       0.0096751675 0.022356065 -0.025985204 0.08237989
000120 3e f7 54 3e fa df 8b bd b0 0a 0a 3d 53 19 49 3d
       0.2079744 -0.068298295 0.0337016 0.049096417
000130 37 1b ca 3c 22 5f 59 3d c1 00 42 3e 4f ba 8d 3d
       0.02467118 0.05306924 0.189456 0.06920301
000140 ab 3a 78 3e 42 38 1e 3e d5 a2 84 bd 12 6c 8f bd
       0.2424113 0.15451148 -0.0647637 -0.07003035
000150 f7 b0 3c bd 89 8d 8a bc 26 c8 55 3e b1 e3 76 bb
       -0.046067204 -0.016913192 0.20877132 -0.0037672336
000160 80 ee 32 3c 97 32 c5 3d 92 56 36 3d ba df 4b be
       0.010921121 0.0962879 0.044516154 -0.19909564
000170 7d 8f cf bc 5b ed ec 3d 46 4c 5b bd d3 d6 96 bb
       -0.025336975 0.115687095 -0.053539537 -0.0046032458
000180 63 25 5f 3d 1e ba 36 3e bc 9b e1 bc 72 73 a7 3d
       0.054479014 0.17844436 -0.02754008 0.08176316
000190 8c 48 27 3e 87 2e 1c bc 5f 98 14 3d dd dd 32 3c
       0.16336268 -0.009532577 0.036278125 0.010917154
0001a0 46 a7 aa 3d ed f8 0d bd c6 c1 33 3c ce d1 21 bc
       0.08332686 -0.034661222 0.010971492 -0.0098766815
0001b0 e8 f1 fa 3c 9e a7 5e 3e 60 c9 d2 3d 30 7e 0d bd
       0.030632928 0.21743628 0.102923155 -0.03454417
0001c0 4e 0b 82 b9 06 39 b7 bd 43 37 24 bd 97 1f 72 bd
       -0.00024803955 -0.08946423 -0.040091764 -0.059112158
0001d0 fe d0 4c 3e c4 a3 45 bd 91 f2 8a 3d a7 28 5d 3e
       0.20001599 -0.048251882 0.06784547 0.21597539
0001e0 6a 00 c8 bc 6c 9a be 3d 98 0f fc bc 88 c5 67 ba
       -0.02441426 0.093067974 -0.030769154 -0.0008841385
0001f0 f7 6f 7a 3c 53 c4 9b bc 44 fc d3 bc c0 d6 a8 3c
       0.015285484 -0.019014513 -0.025877126 0.020610213

fc4.weight f4 [7, 128]
000000 04 0c 65 bd 10 41 86 bc 41 a1 aa bd 85 f4 6e be
       -0.055919662 -0.016388446 -0.08331538 -0.23335464
000010 2d e5 2a bf 90 9f cb bc 48 7e 28 bf e6 77 03 3f
       -0.66755944 -0.024856359 -0.6581769 0.51354825
000020 df 6b 17 bf 53 ee 17 bf 42 ab 0d bf 08 0a 2b bf
       -0.59148973 -0.5934803 -0.55339444 -0.6681218
000030 0a 66 33 3d 60 7a 36 bc c8 fe 2b 3d 56 96 22 3d
       0.043798484 -0.011137575 0.041991025 0.039694153
000040 63 e8 8f bf 26 e4 f5 3e df f0 9e bf ca f6 20 bf
       -1.1242794 0.48025626 -1.2417258 -0.6287657
000050 22 a9 9b bd 08 3a 7a bd 4e b9 2d bf b0 32 25 bf
       -0.07600619 -0.0610905 -0.6786088 -0.6453047
000060 b9 6b a3 bd 2c c6 ed 3c a7 df 25 bf b2 9d a5 3c
       -0.07979531 0.02902516 -0.6479439 0.020216797
000070 7d c7 47 bf ac c4 62 3e 54 97 29 bf e9 b9 e4 bc
       -0.7803877 0.22145337 -0.66246533 -0.02792068
000080 7a cc 0d bf 45 9d c7 bc ac 8b 25 bf 35 d5 f9 3e
       -0.5539013 -0.024366984 -0.6466625 0.48795477
000090 44 29 0e 3f 49 99 4f be 05 92 86 3d 02 b3 8d bf
       0.55531716 -0.20273317 0.0657082 -1.1070254
0000a0 e7 e2 2f 3e ef 3f 14 bc 90 98 45 bf 04 77 7b 3d
       0.171764 -0.009048446 -0.77185917 0.0613928
0000b0 d1 f3 3c bd e7 5c ef 3e f7 be 3a 3d 2f b5 56 3c
       -0.04613096 0.46750566 0.045592275 0.013104721
0000c0 d7 fb 87 bf 85 b3 31 bf 2d 50 ff bc f7 69 fa 3b
       -1.062373 -0.6941455 -0.03116616 0.0076420265
0000d0 08 c0 4f 3c 0a a8 fe bc 80 37 51 3f c8 d1 aa 3c
       0.012680061 -0.031085987 0.8172531 0.020851985
0000e0 12 04 54 bf 9c 15 03 bf 9b d7 7d 3c 66 6b 4e bd
       -0.8281871 -0.5120485 0.015493299 -0.050395392
0000f0 c5 50 e2 bc 03 f5 93 bf 4c ba 62 bf ca fb 30 bd
       -0.027626405 -1.1559147 -0.88565516 -0.043208875
000100 94 87 db 3b 1d f0 fa 3e b1 19 b5 3c c8 57 93 3d
       0.006699512 0.49011317 0.022106977 0.07194477
000110 a9 1b 11 bf 1c 1e 22 bf ec 70 88 3c 30 6f 36 bf
       -0.5668283 -0.63327193 0.016655408 -0.7126341
000120 36 5a 0c 3f 3e bb 93 3d 33 3f 01 bd 62 67 d8 bc
       0.5482515 0.07213448 -0.031554412 -0.026416484
000130 cd 1b c2 3c 50 f7 1b bf 12 7f 59 3f 8d f7 38 bf
       0.023694897 -0.60924244 0.8495952 -0.7225273
000140 04 02 04 3f 1e fd 4c bf 81 00 1a bd e1 bc 3c 3d
       0.51565576 -0.80073726 -0.037598137 0.046078566
000150 05 54 2f bf 3b e2 44 bf 0a 8b fb 3e 60 5d 45 bf
       -0.6848758 -0.769077 0.49129516 -0.77095604
000160 6a ac 8c 3d 61 dd 1d bf 11 d2 d2 3c d3 95 ef bd
       0.06868823 -0.6166592 0.025734933 -0.116984986
000170 ac ea 33 bf 47 7a 27 bf 90 b7 c4 3c b7 28 ef 3c
       -0.70279956 -0.65420955 0.02401331 0.029194219
000180 d0 8f 33 bf 47 fa 0a 3f d1 ec 01 3c 87 5f 1d bf
       -0.70141315 0.5428814 0.007929997 -0.6147389
000190 8d 9f fc 3e 92 be 14 3d 2b 45 3d bf d4 c1 2d bb
       0.49340478 0.036314555 -0.73933667 -0.0026513236
0001a0 14 07 23 bf ba c6 cf bc 60 35 1f bb bf f4 7a 3d
       -0.63682675 -0.025363315 -0.0024293289 0.061268564
0001b0 f0 dc cc bc b7 91 04 3f 0c c3 27 bf 05 22 37 3c
       -0.025007695 0.51784843 -0.6553199 0.0111775445
0001c0 f2 4f 62 bd 9f fb 7e 3c b5 87 a2 3d 7e c8 87 3d
       -0.055252023 0.015562921 0.0793604 0.06630038
0001d0 5b f5 04 3f 77 1d 45 bd 7a 10 73 bf 22 a8 1a 3f
       0.5193688 -0.048123803 -0.94947016 0.604128
0001e0 97 25 80 bf 51 69 b1 3f e4 e0 c5 bc a6 e9 8d 3c
       -1.0011472 1.3860265 -0.024155088 0.017323326
0001f0 c5 c5 65 3b 49 9b 84 3d f7 93 49 bf 38 f3 ca bc
       0.0035060507 0.06474931 -0.787414 -0.024774179
000200 52 75 f2 bc 50 f1 06 bc 1e 21 9a 3d 3d c6 3e be
       -0.029596958 -0.008236244 0.07525848 -0.1863031
000210 7e f8 38 bf 38 df 2d 3c 01 62 25 bf 15 a0 0f 3f
       -0.7225417 0.0106123015 -0.6460267 0.5610364
000220 80 dc 36 bf 13 37 2a bf 95 86 cc be 12 ee 15 bf
       -0.71430206 -0.66490287 -0.39946428 -0.5856639
000230 09 50 5d 3d 84 a2 22 3c 8c 47 72 bd 34 eb 7c 3d
       0.054031406 0.009926442 -0.059150264 0.061747745
000240 a5 ab 86 bf 28 0a 0f 3f 73 1b 9b bf 2e a6 31 bf
       -1.0521132 0.5587487 -1.2117752 -0.69394195
000250 19 ec 33 bd f8 b0 38 bc ec d7 10 bf b8 35 1e bf
       -0.043926332 -0.011272661 -0.5657947 -0.6180072
000260 cd 45 bf 3c aa ad a0 bd b0 4d 26 bf 45 5e 85 3c
       0.023348713 -0.07845624 -0.6496229 0.016280303
000270 f3 4a 2c bf f7 6f 9f be 2c 68 16 bf e7 8d 1f 3d
       -0.67301863 -0.3114011 -0.58752704 0.038953688
000280 12 b0 39 bf c4 8f c1 3c 8a 6c f6 be 52 3c f1 3e
       -0.72534287 0.023628123 -0.48129684 0.47116333
000290 0d 4f 0e 3f c1 74 5e be b8 3a 04 bd 7b 7c 88 bf
       0.5558937 -0.21724226 -0.03228256 -1.0662988
0002a0 97 d9 2c bd b9 48 62 3d 35 12 69 bf a1 d1 24 bb
       -0.042199697 0.055245135 -0.91043407 -0.0025149363
0002b0 3d 75 bc 3d 86 73 0a 3f a3 72 90 3d 16 97 14 bd
       0.09202049 0.54082525 0.07053115 -0.0362769
0002c0 d3 fc 9a bf e7 bc 53 bf 34 f4 de 3d 6e 33 12 3d
       -1.2108406 -0.8271012 0.10886422 0.03569358
0002d0 8e fe 5d 3d 0e 78 04 bd dd a0 45 3f a8 d9 c1 bd
       0.05419784 -0.032341056 0.7719858 -0.09465343
0002e0 f3 ec 72 bf 85 91 b9 be d1 71 8d 3d 10 d1 9c bd
       -0.94892806 -0.36243835 0.069064744 -0.07657063
0002f0 ac 3a 71 3c 57 5b 99 bf 52 3e 7f bf 73 7c a2 3d
       0.014723461 -1.1981 -0.9970447 0.07933893
000300 1d 4f 1a 3b 10 55 db 3e fd e2 31 3d 4a 25 b7 3c
       0.002354569 0.42838335 0.043429364 0.022356648
000310 43 1f d2 be e3 a1 39 bf fd e9 b4 bc 34 f9 24 bf
       -0.41039476 -0.72512645 -0.02208423 -0.64442754
000320 c8 f1 00 3f cd 4e 97 3d bf 9e 32 3d 06 5d 81 3c
       0.5036893 0.07388077 0.043608423 0.015791427
000330 52 70 56 bd c7 5c 28 bf 6a 13 51 3f 5e 04 22 bf
       -0.05235321 -0.65766567 0.8167025 -0.63287914
000340 83 cb d1 3e 1f ae 44 bf 98 86 9a bb 42 39 51 3d
       0.4097558 -0.7682819 -0.004715752 0.051079996
000350 36 07 36 bf 05 e3 3e bf 63 24 11 3f 32 d9 06 bf
       -0.71104753 -0.74565154 0.56696147 -0.52675164
000360 ad 7e 94 3d 63 c9 45 bf 03 87 88 bd be 45 3e be
       0.07250724 -0.77260417 -0.066663764 -0.18581292
000370 63 1f 48 bf fa a7 35 bf 30 61 ab 3a 4d e1 91 3c
       -0.7817289 -0.70959437 0.0013075229 0.017807627
000380 09 4e 27 bf 5f a2 ed 3e 74 5b 20 3d 68 e0 07 bf
       -0.6535345 0.46412942 0.039149716 -0.5307679
000390 76 31 0f 3f af a5 6a 3d a8 7b 2a bf 48 14 77 3c
       0.55934846 0.057286914 -0.66594934 0.015080519
0003a0 e6 bf 0d bf 5d fe 38 bd 67 8a a0 bd 32 56 45 3d
       -0.5537094 -0.045164455 -0.07838898 0.048177905
0003b0 09 fd 1f 3d a2 7d ec 3e 46 01 2b bf 67 32 64 3d
       0.039059673 0.461896 -0.6679882 0.05571213
0003c0 07 7a 58 3d ed d4 d9 ba 04 53 e8 bc d7 bb 95 bd
       0.05285075 -0.0016619243 -0.028359897 -0.07311218
0003d0 6d f4 16 3f 3c c4 1d bd 6c 79 50 bf de f0 2c 3f
       0.58966714 -0.03851722 -0.81435275 0.67555034
0003e0 85 66 82 bf f7 be a0 3f 0f ad ab 3d 24 1a 14 3d
       -1.0187536 1.2558278 0.08382618 0.036157742
0003f0 27 e6 8c 3d d9 b5 d8 bc 54 1b 86 bf 00 0d 46 3b
       0.068798356 -0.0264539 -1.047709 0.003022015

fc4.bias f4 [7]
000000 aa a9 a4 3d 71 6f 3c be d0 7b 19 bc 90 6e 8e 3e
       0.08040173 -0.18401887 -0.009367898 0.27818727
000010 c0 30 88 3e ac 50 22 3e 5d 37 92 3d
       0.26599693 0.15851086 0.07139466
