models/lateral_stage1_seed2000_final.pth (torch, 411457 bytes, 8 tensors)

fc1.weight f4 [256, 9]
-0.20279181 -0.4277216 -0.026511494 -0.29737875 -0.38903633 -0.3527063 -0.24113068 0.14730945
-0.2960272 -0.0725187 -0.41900343 0.14278828 0.078612 0.45493346 0.2647366 0.2329382
0.267885 -0.1923429 -0.45421702 -0.011895714 0.25181553 0.15196116 0.051180255 0.3816253
0.21662572 -0.02994299 0.13277487 0.268293 0.29359114 0.12887487 -0.003717759 0.65344125
0.11467898 0.1971859 -0.12384018 0.05928159 -0.43972343 -0.1573523 -0.24792127 -0.14701892
-0.38963705 0.08546905 0.23010102 -0.2628872 0.35348436 -0.20037718 0.04849891 -0.15007025
0.52106506 -0.35236508 -0.19244426 0.10232866 -0.096258566 -0.068399146 -0.17234887 0.10855997
-0.20953111 -0.06980285 0.2797881 0.38391837 0.1397545 -0.15867727 0.05217762 -0.17989977
0.08411195 -0.17710766 -0.062323138 0.055182576 0.67229086 0.2078428 -0.10826008 -0.32116145
0.40238574 0.09384495 -0.20120265 -0.36998662 -0.20763302 -0.41263992 -0.2548772 0.2200518
0.19499077 -0.23277874 0.10250899 0.05193651 0.29313815 -0.2729699 -0.17514813 -0.26587638
-0.24442923 0.17619658 0.029373147 -0.28003275 -0.0716712 0.033989664 -0.19368881 -0.46102375
0.017332911 0.04564026 -0.05254215 0.8661706 -0.38336146 0.12563162 -0.028168578 0.27829033
0.291021 0.29710266 -0.19552653 -0.20580772 -0.0064306585 0.053315546 0.18117088 -0.24865882
-0.18895973 0.67615145 -0.14354932 0.2038984 0.18608409 0.18662582 -0.14024459 0.033853542
0.028120589 -0.15059194 -0.46856803 0.051582903 -0.030205756 -0.10447553 -0.1929111 0.15245181
0.17056169 0.22692256 -0.010585051 0.39473814 0.26498786 0.30900756 -0.4296363 -0.6026731
-0.32849613 -0.39253855 -0.062664434 0.50103426 -0.35807645 0.13472605 -0.19562738 0.27515873
-0.38083914 0.37371227 0.24784277 -0.40483946 0.37849614 0.4708757 0.0022715032 -0.050418645
-0.16117418 0.047498107 -0.24985152 0.14999315 0.38329548 0.052645404 0.17403415 -0.1693295
0.0624249 -0.27726048 0.37953016 0.27491787 -0.22277682 -0.09183204 -0.18249294 0.6461024
-0.19995055 0.025132418 -0.28381306 -0.27907163 -0.26063436 -0.2210308 -0.056957677 0.3430001
0.66792154 0.24568656 -0.044344157 0.2753002 -0.63313895 0.19239287 -0.117479764 0.11937864
0.2371659 0.35945123 -0.111080736 -0.16220698 -0.18300056 -0.25681537 -0.2970873 0.15774775
-0.15726931 0.17290911 -0.3244605 -0.30395663 -0.27453205 0.372722 -0.16984376 0.16550447
-0.0857124 0.13460812 -0.2378671 0.0148517685 0.30095533 -0.22722976 0.15427598 -0.7049211
-0.11490778 0.11873603 -0.074745804 0.075571656 0.71909165 -0.044758886 0.30574486 0.2713026
-0.27097815 0.10061339 -0.039702203 -0.08960902 -0.16301288 -0.414517 -0.028752059 0.1617378
0.2172769 -0.15273555 0.14389174 -0.11774152 0.43650085 -0.16907088 -0.20574035 0.14752236
-0.236729 -0.032482713 0.028038487 0.2752076 -0.13150261 0.2436016 -0.16123137 -0.40932024
-0.28145367 -0.10274312 0.2452336 -0.011488329 0.24967392 -0.36223522 0.35799572 0.42350444
-0.14190947 -0.041947335 0.057542473 0.09702056 0.04849556 -0.1705878 -0.29033804 -0.039489325
00000000: a8a8 4fbe 53fe dabe a22e d9bc 0742 98be
00000010: c52f c7be ec95 b4be f6ea 76be 4ad8 163e
00000020: e190 97be af84 94bd 9e87 d6be 1737 123e
00000030: 54ff a03d 0aed e83e 8e8b 873e 5a87 6e3e
00000040: 3928 893e 8af5 44be 228f e8be 3ee6 42bc
00000050: f7ed 803e b59b 1b3e 63a2 513d 6464 c33e
00000060: 22d3 5d3e 004b f5bc 23f6 073e b35d 893e
00000070: 9451 963e c6f7 033e a5a5 73bb ed47 273f
00000080: d0dc ea3d 1aeb 493e ec9f fdbd 41d1 723d
00000090: 6e23 e1be f620 21be 13df 7dbe 218c 16be
000000a0: 827e c7be 660a af3d 9a9f 6b3e 2799 86be
000000b0: e7fb b43e ad2f 4dbe cba6 463d 04ac 19be
000000c0: 8564 053f 3269 b4be 1c10 45be b091 d13d
000000d0: 3623 c5bd da14 8cbd 397c 30be b154 de3d
000000e0: 538f 56be ccf4 8ebd 6340 8f3e f390 c43e
000000f0: ce1b 0f3e 4b7c 22be 33b8 553d a537 38be
00000100: e342 ac3d b65b 35be 8c46 7fbd 2007 623d
00000110: 411b 2c3f bed4 543e 76b7 ddbd 466f a4be
00000120: 8105 ce3e c831 c03d 1108 4ebe e36e bdbe
00000130: c09d 54be 8a45 d3be 447f 82be 4255 613e
00000140: a9ab 473e 8d5d 6ebe 3cf0 d13d 61bb 543d
00000150: 3416 963e b6c2 8bbe 085a 33be f320 88be
00000160: a84b 7abe e06c 343e f49f f03c 7460 8fbe
00000170: 5ac8 92bd bf38 0b3d 5c56 46be 4e0b ecbe
00000180: c0fd 8d3c 48f1 3a3d 7036 57bd 5bbd 5d3f
00000190: f447 c4be 93a5 003e cac1 e6bc 127c 8e3e
000001a0: b400 953e d71d 983e 1b38 48be 42bf 52be
000001b0: 46b8 d2bb 6761 5a3d dc84 393e 6ba0 7ebe
000001c0: a97e 41be 4318 2d3f 98fe 12be beca 503e
000001d0: d48c 3e3e d71a 3f3e 479c 0fbe 03aa 0a3d
000001e0: 265d e63c c634 1abe 26e8 efbe 9848 533d
000001f0: 1072 f7bc 44f7 d5bd 7d8a 45be 541c 1c3e
00000200: b9a7 2e3e 635e 683e ec6c 2dbc 1e1b ca3e
00000210: 7dac 873e 3d36 9e3e 4af9 dbbe c948 1abf
00000220: a530 a8be d0fa c8be 3656 80bd c843 003f
00000230: cc55 b7be a0f5 093e 8b52 48be 9be1 8c3e
00000240: 59fd c2be 3757 bf3e 7fca 7d3e 1e47 cfbe
00000250: 3fca c13e 9f16 f13e 80dd 143b c883 4ebd
00000260: d80a 25be 608d 423d 14d9 7fbe ce97 193e
00000270: 4e3f c43e b5a2 573d 0236 323e b664 2dbe
00000280: 40b1 7f3d 16f5 8dbe c751 c23e 09c2 8c3e
00000290: 9b1f 64be 7012 bcbd 6edf 3abe f866 253f
000002a0: d6bf 4cbe 80e2 cd3c f24f 91be 7ae2 8ebe
000002b0: de71 85be e655 62be 744c 69bd b69d af3e
000002c0: e8fc 2a3f 4295 7b3e 38a2 35bd 26f4 8c3e
000002d0: 6515 22bf a302 453e 3b99 f0bd ca7c f43d
000002e0: 9edb 723e fe09 b83e 4c7e e3bd 9619 26be
000002f0: 8064 3bbe 4e7d 83be d41b 98be a088 213e
00000300: 350b 21be 160f 313e b01f a6be 34a0 9bbe
00000310: 778f 8cbe 6bd5 be3e 86eb 2dbe 017a 293e
00000320: fc89 afbd b6d6 093e 6f93 73be d554 733c
00000330: d116 9a3e ebae 68be 86fa 1d3e b675 34bf
00000340: c554 ebbd e02b f33d 5414 99bd 50c5 9a3d
00000350: 6416 383f 1855 37bd 978a 9c3e 2de8 8a3e
00000360: a6bd 8abe 650e ce3d c79e 22bd ef84 b7bd
00000370: d9ec 26be 923b d4be 7089 ebbc 989e 253e
00000380: d67d 5e3e b566 1cbe 5b58 133e 7722 f1bd
00000390: 0a7d df3e eb20 2dbe 99ad 52be 1a10 173e
000003a0: 1669 72be 980c 05bd f8b0 e53c 03e8 8c3e
000003b0: 9fa8 06be b372 793e d619 25be 6c92 d1be
000003c0: b21a 90be fc6a d2bd 841e 7b3e 8b39 3cbc
000003d0: 85aa 7f3e e576 b9be 374b b73e 93d5 d83e
000003e0: b750 11be f8d0 2bbd a8b1 6b3d b7b2 c63d
000003f0: 48a3 463d 91ae 2ebe 30a7 94be 8fbf 21bd

fc1.bias f4 [256]
-0.1889255 -0.07520435 -0.029387478 -0.27139118 0.53011996 0.17119057 0.14861783 -0.29810214
-0.04361409 0.1125238 -0.0995477 -0.6153384 -0.22095765 0.1174925 0.01989683 -0.051306624
-0.3180786 -0.02288784 -0.1486602 -0.26104334 -0.025503207 0.252927 0.3119776 -0.12588115
0.32208487 -0.06830091 -0.28666082 0.29609302 -0.25456512 -0.30232862 0.053936306 0.0023430649
-0.020824468 -0.185516 -0.13675979 0.26677358 -0.29119825 0.12487154 -0.23203534 -0.31456864
0.30977863 0.39463615 -0.007732307 0.37117705 0.31983754 0.24805751 0.040534206 0.25386006
0.013819992 -0.0097646555 0.11676359 -0.18669182 -0.17047068 -0.0008663281 0.22781844 -0.17860696
-0.23896268 0.16063896 -0.018811403 0.019300535 0.25427666 0.3660405 -0.080891564 0.36253136
-0.14281504 0.2008039 -0.07727517 0.054289527 0.034159016 -0.27623755 -0.3020581 0.15415798
0.31413966 -0.13031965 0.058131743 -0.20768835 0.30740008 -0.13161035 0.24009699 -0.049042065
0.080949 -0.43929833 -0.11297451 0.1858199 -0.1271316 -0.2152883 0.18588836 -0.25778344
-0.26128367 -0.3820129 -0.18057339 -0.2051358 0.23007075 -0.17049251 -0.34376132 0.031410318
0.31302306 0.20836577 -0.084172085 -0.02049912 -0.07304448 0.17387678 0.18670529 -0.012868123
-0.3620075 -0.13849428 0.0010994398 0.049883764 0.14862661 0.25084588 -0.13578823 0.19414881
0.33860603 0.17796211 0.3419821 -0.18331945 0.33604714 0.38982067 -0.0056420555 0.3377626
-0.06506712 0.37274852 0.12818068 0.045771297 0.012652286 -0.23717451 0.15800074 -0.17907749
0.11172754 -0.25905344 0.26915783 -0.24235773 0.17591935 0.16020826 0.29343516 -0.3955719
-0.029115308 0.027984072 0.2549944 0.24877542 -0.059735514 0.3517965 0.13667902 0.18771313
0.06008414 -0.11225229 -0.22951959 -0.024086382 -0.15249702 -0.21963358 -0.06736266 0.09483918
0.17137264 0.31541982 -0.22697246 -0.12400757 -0.06702043 -0.22595769 -0.2808036 0.2157498
-0.23251373 -0.25207955 -0.08174675 0.25889134 -0.15342882 -0.03207618 -0.17006361 0.1618523
-0.082467064 -0.20936926 -0.17715842 0.21622856 -0.04334387 0.20277138 -0.36745626 0.11651652
-0.31247526 0.3217215 -0.109026775 -0.19556265 -0.36458325 0.19425863 -0.17825866 0.21736433
0.12800373 0.19014914 -0.063984364 0.35770044 0.10727688 -0.10214435 -0.31582767 -0.23918416
-0.1432102 -0.012979286 -0.08977211 0.3652061 -0.05274663 0.2596952 -0.18587801 0.37016156
0.03699858 0.026061479 -0.36558768 -0.46991563 -0.017250547 0.020703945 -0.21750468 0.3308551
-0.08790194 0.006409048 0.2263123 -0.3384518 0.07344791 0.041773662 0.24008892 -0.2521085
-0.09037254 0.22674435 -0.11746294 0.0024122675 -0.16338333 -0.076859355 -0.33050284 -0.022673987
-0.4308768 -0.12999925 0.26888674 0.018356817 -0.31373993 -0.2319578 -0.1332526 0.22203189
0.25673893 0.18439795 0.082422994 0.08995802 -0.0824962 -0.3241365 0.1722622 -0.04229336
0.20547797 0.26497054 -0.15174094 0.07102727 0.019353056 0.05246039 -0.31502843 0.13732627
-0.025644798 -0.15363653 0.10445905 -0.10411781 0.038887814 0.2889616 -0.14212452 0.036448885
00000000: b075 41be bd04 9abd 02be f0bc c9f3 8abe
00000010: f1b5 073f 954c 2f3e 462f 183e d8a0 98be
00000020: b0a4 32bd e172 e63d aadf cbbd d186 1dbf
00000030: b942 62be e89f f03d adfe a23c e526 52bd
00000040: 33db a2be 487f bbbc 613a 18be 79a7 85be
00000050: 1aec d0bc a67f 813e 87bb 9f3e fde6 00be
00000060: 4fe8 a43e 59e1 8bbd 35c5 92be 8199 973e
00000070: 5c56 82be d1ca 9abe 51ec 5c3d 1b8e 193b
00000080: 1398 aabc e8f7 3dbe c20a 0cbe 8c96 883e
00000090: f017 95be a6bc ff3d ac9a 6dbe 240f a1be
000000a0: 4e9b 9e3e c00d ca3e 4b5f fdbb eb0a be3e
000000b0: bfc1 a33e ca02 7e3e 3207 263d f2f9 813e
000000c0: 3f6d 623c effb 1fbc c021 ef3d 242c 3fbe
000000d0: de8f 2ebe 4b1a 63ba 3d49 693e bee4 36be
000000e0: a2b2 74be 8a7e 243e 5f1a 9abc 281c 9e3c
000000f0: 8d30 823e a969 bb3e 7aaa a5bd b69d b93e
00000100: 1b3e 12be 8a9f 4d3e 7242 9ebd b25e 5e3d
00000110: 53ea 0b3d 026f 8dbe 5ca7 9abe 97db 1d3e
00000120: ead6 a03e 8472 05be 8d1b 6e3d 41ac 54be
00000130: 8b63 9d3e ddc4 06be fcdb 753e 55e0 48bd
00000140: 97c8 a53d b6eb e0be 2e5f e7bd 9247 3e3e
00000150: c92e 02be 8974 5cbe 8559 3e3e 31fc 83be
00000160: f9c6 85be 3297 c3be 3be8 38be 1f0f 52be
00000170: ab97 6b3e 9795 2ebe 7c01 b0be 1ba8 003d
00000180: 8f44 a03e d65d 553e 6a62 acbd c5ed a7bc
00000190: 5898 95bd c10c 323e ac2f 3f3e d2d4 52bc
000001a0: 0c59 b9be 72d1 0dbe 141b 903a eb52 4c3d
000001b0: 9331 183e df6e 803e 120c 0bbe f2ce 463e
000001c0: c55d ad3e b33b 363e 4718 af3e 18b8 3bbe
000001d0: 5f0e ac3e 9396 c73e fee0 b8bb 38ef ac3e
000001e0: e941 85bd e5d8 be3e cc41 033e af7a 3b3d
000001f0: 894b 4f3c e0dd 72be f2ca 213e 1760 37be
00000200: 69d1 e43d a7a2 84be 0ecf 893e a02c 78be
00000210: 3424 343e a20d 243e 223d 963e 6688 cabe
00000220: 3a83 eebc da3e e53c a08e 823e fcbe 7e3e
00000230: 3aad 74bd ac1e b43e 96f5 0b3e df37 403e
00000240: ca1a 763d 87e4 e5bd 2f07 6bbe ce50 c5bc
00000250: 2e28 1cbe a0e7 60be 6ff5 89bd 0b3b c23d
00000260: 4f7c 2f3e b57e a13e 786b 68be aef7 fdbd
00000270: 0242 89bd 7461 67be 7dc5 8fbe 84ed 5c3e
00000280: 1418 6ebe 9210 81be d76a a7bd 688d 843e
00000290: 721c 1dbe 5062 03bd 2825 2ebe 9cbc 253e
000002a0: 7ee4 a8bd e564 56be 0469 35be 056b 5d3e
000002b0: 5889 31bd 4da3 4f3e 3a23 bcbe 37a0 ee3d
000002c0: c2fc 9fbe aeb8 a43e 6e49 dfbd 9341 48be
000002d0: a8aa babe bceb 463e 7089 36be c194 5e3e
000002e0: 6913 033e 75b6 423e 3c0a 83bd 8324 b73e
000002f0: fbb3 db3d 0f31 d1bd 2ab4 a1be b1ec 74be
00000300: b2a5 12be 12a7 54bc 71da b7bd 4bfc ba3e
00000310: da0c 58bd c5f6 843e ce56 3ebe d185 bd3e
00000320: d38b 173d e27e d53c 4f2e bbbe c898 f0be
00000330: 0551 8dbc 529b a93c 8cb9 5ebe d765 a93e
00000340: ef05 b4bd fe02 d23b 69be 673e 8e49 adbe
00000350: dc6b 963d dc1a 2b3d dfd9 753e 5e14 81be
00000360: 3d15 b9bd ac2f 683e 6990 f0bd 2217 1e3b
00000370: f64d 27be 7068 9dbd ab37 a9be ccbe b9bc
00000380: e29b dcbe 861e 05be 86ab 893e 0961 963c
00000390: 85a2 a0be 5886 6dbe 5f73 08be 545c 633e
000003a0: 4973 833e d1d2 3c3e 63cd a83d e93b b83d
000003b0: c5f3 a8bd 38f5 a5be 8165 303e cd3b 2dbd
000003c0: d168 523e 38aa 873e fa61 1bbe bf76 913d
000003d0: 4d8a 9e3c b5e0 563d 684b a1be 429f 0c3e
000003e0: 0a15 d2bc e552 1dbe a0ee d53d b83b d5bd
000003f0: d448 1f3d c6f2 933e 1789 11be 6d4b 153d

fc2.weight f4 [256, 256]
-0.0413943 -0.18985368 0.07559727 -0.13633108 -0.16990282 0.006279192 0.066681094 0.23157626
0.07952229 -0.20027149 0.08215644 -0.94337106 -0.23771907 0.18950401 0.012474498 0.36661965
-0.06960181 -0.8989287 -0.15314476 0.028413918 0.16679128 0.17514136 -0.13727544 0.019739402
-0.029937074 -0.017600188 0.15352653 0.20607024 0.1554551 0.058161505 0.26243657 -0.3056509
-0.0013319266 -0.08144508 0.25750262 0.118214704 -0.08794672 0.09912013 0.0034322958 0.048727803
0.21137792 0.06989963 -0.3532009 0.09857631 0.07786829 0.15292135 0.103702284 0.0028727904
-0.14228837 -0.026680496 0.17222264 -0.44730484 0.21425995 -0.063046895 0.096256845 0.11032428
0.05457272 -0.09300948 -0.26812738 0.017492574 0.13718748 0.16864435 -0.0147511745 0.046726223
-0.09367346 0.10428136 -0.49865615 0.23151828 -0.15466933 0.15567508 -0.18724155 0.009931887
0.099053964 -0.03994244 0.20362969 -0.027671665 0.040928878 -0.03673975 0.13757244 -0.0072748405
0.07912268 -0.32304445 -0.47662187 0.24027927 -0.20448874 0.010096792 0.2008537 -0.11994618
-0.07207986 -0.1785312 -0.02691736 -0.058207612 0.1425009 0.23607253 -0.23257293 0.0065930807
0.06353852 0.01792723 0.13364251 0.15368807 -0.10978316 0.16071907 0.027587874 -0.102477856
0.029672751 -0.17026302 0.065473296 0.17695716 -0.10529403 0.10591869 0.008360688 0.103746116
0.030848822 0.06180492 -0.20246896 -0.18172906 0.13778213 0.16575481 -0.08335427 0.103286475
0.20525998 -0.12606408 -0.089029975 0.02900005 0.09771312 -0.062373236 -0.09933503 0.17516117
0.13484795 -0.001891427 0.22486785 -0.24402536 0.17372277 0.032841597 -0.001446614 -0.20979907
0.0060760286 -0.022268059 0.100034915 0.08293062 -0.06212996 0.077315226 -0.15550974 -0.015765496
0.037051152 -0.14135006 -0.23512931 -0.111018844 -0.1015251 -0.20302077 -0.04559493 0.039577875
0.058618113 0.25120342 -0.27834788 -0.14291915 -0.21045716 -0.12115112 -0.30195698 0.13405019
-0.010452053 -0.25151274 -0.036225967 0.031756084 -0.121469095 -0.19949289 -0.07725202 0.2137304
-0.048712898 0.15096712 0.0025237799 0.09288839 -0.07690396 -0.20569655 0.22889268 -0.22563145
0.070766546 0.19360204 -0.14077957 -0.46085125 -0.16297162 0.17794272 0.14118004 0.22595268
0.09199547 0.27278674 0.0808922 0.03449264 -0.2351915 -0.20328985 0.20756805 -0.007629292
-0.15211855 0.017379314 0.18399559 0.11893639 0.1297822 -0.19394901 -0.05640396 0.18728508
-0.3048725 0.07998352 -0.5853285 -0.4550616 -0.012321267 0.05148641 -0.012662803 0.08267206
0.13991371 -0.024910841 -0.15738724 -0.14123838 -0.05833549 0.088379666 0.18710966 -0.30969357
0.12843668 0.28328308 0.13426842 -0.11182552 0.033340123 0.10655914 -0.25141323 0.20991066
-0.24179688 0.12986363 0.084371194 -0.13272849 -0.04745513 -0.05207778 0.11708966 0.009797195
0.16188978 0.14061968 -0.07895108 -0.06341425 -0.281848 -0.11783918 -0.11648074 -0.21152571
-0.14138204 -0.19640477 -0.023386883 0.034869652 0.017713433 -0.36998802 -0.057741784 -0.036032908
-0.15400806 0.06706773 0.056885533 0.1917758 -0.19273378 -0.17815761 -0.15919995 -0.0028018681
00000000: 128d 29bd 0169 42be bed2 9a3d 609a 0bbe
00000010: 01fb 2dbe aec1 cd3b 1990 883d 5422 6d3e
00000020: 95dc a23d f813 4dbe a341 a83d c480 71bf
00000030: a16c 73be 570d 423e d661 4c3c 92b5 bb3e
00000040: 658b 8ebd 3120 66bf fbd1 1cbe 4ec4 e83c
00000050: 55cb 2a3e 4258 333e ef91 0cbe 87b4 a13c
00000060: 983e f5bc 452e 90bc 0f36 1d3e 1404 533e
00000070: 9f2f 1f3e c23a 6e3d 165e 863e 467e 9cbe
00000080: 0a94 aeba aecc a6bd 62d7 833e 8d1a f23d
00000090: 691d b4bd 7fff ca3d 5ef0 603b ce96 473d
000000a0: 7473 583e 8a27 8f3d c0d6 b4be 60e2 c93d
000000b0: 6979 9f3d 6a97 1c3e dd61 d43d 6d45 3c3b
000000c0: 0bb4 11be 0e91 dabc 225b 303e 2405 e5be
000000d0: f666 5b3e bb1e 81bd 4f22 c53d b2f1 e13d
000000e0: a587 5f3d c17b bebd fe47 89be 964c 8f3c
000000f0: e07a 0c3e 1bb1 2c3e e9ae 71bc ff63 3f3d
00000100: dfd7 bfbd 7791 d53d dc4f ffbe 2113 6d3e
00000110: a361 1ebe 4a69 1f3e 40bc 3fbe 5ab9 223c
00000120: cedc ca3d af9a 23bd 4d84 503e b0af e2bc
00000130: 0aa5 273d 6c7c 16bd cadf 0c3e c961 eebb
00000140: 120b a23d 1566 a5be c807 f4be c50b 763e
00000150: 7f65 51be 046d 253c 98ac 4d3e 58a6 f5bd
00000160: 9b9e 93bd e2d0 36be cc81 dcbc 1b6b 6ebd
00000170: c2eb 113e ffbc 713e 9927 6ebe c50a d83b
00000180: 7c20 823d 20dc 923c 95d9 083e 6860 1d3e
00000190: fed5 e0bd 8a93 243e f7ff e13c e9df d1bd
000001a0: 4514 f33c 6e59 2ebe dd16 863d 4234 353e
000001b0: 65a4 d7bd e6eb d83d 44fb 083c d878 d43d
000001c0: abb6 fc3c 2827 7d3d 0654 4fbe 2f17 3abe
000001d0: c216 0d3e a1bb 293e a5b5 aabd dc87 d33d
000001e0: ac2f 523e f116 01be 5955 b6bd 8391 ed3c
000001f0: d11d c83d 147b 7fbd 2a70 cbbd 735d 333e
00000200: 9515 0a3e c2e9 f7ba c243 663e c9e1 79be
00000210: 62e4 313e e984 063d 509c bdba 91d5 56be
00000220: 6c19 c73b 816b b6bc 1bdf cc3d 87d7 a93d
00000230: fc7b 7ebd 7257 9e3d f23d 1fbe a426 81bc
00000240: f3c2 173d 12be 10be bdc5 70be d95d e3bd
00000250: 64ec cfbd ade4 4fbe c0c1 3abd 691c 223d
00000260: 8c19 703d bc9d 803e 9d83 8ebe 6659 12be
00000270: 1582 57be 141e f8bd 1b9a 9abe 7444 093e
00000280: 163f 2bbc 47c6 80be ae61 14bd ab12 023d
00000290: cac4 f8bd dd47 4cbe 4f36 9ebd 24dc 5a3e
000002a0: 2d87 47bd 2097 1a3e 0066 253b 453c be3d
000002b0: d37f 9dbd 1ea2 52be d862 6a3e ee0b 67be
000002c0: 0dee 903d 9d3f 463e 8528 10be b2f4 ebbe
000002d0: 08e2 26be 9e36 363e 8091 103e 2460 673e
000002e0: 1f68 bc3d b4aa 8b3e cfaa a53d 2848 0d3d
000002f0: 0ad6 70be 372b 50be b88c 543e 24ff f9bb
00000300: f7c4 1bbe 105f 8e3c 5769 3c3e ec94 f33d
00000310: a0e5 043e 929a 46be d707 67bd a9c7 3f3e
00000320: 4018 9cbe 66ce a33d 17d8 15bf d6fd e8be
00000330: 24df 49bc 6ae3 523d a577 4fbc f84f a93d
00000340: 8a45 0f3e d211 ccbc 1f2a 21be cba0 10be
00000350: 32f1 6ebd 6600 b53d ad99 3f3e 2890 9ebe
00000360: e884 033e 7b0a 913e a97d 093e c704 e5bd
00000370: a78f 083d ae3b da3d 3cb9 80be d2f2 563e
00000380: 9a99 77be f9fa 043e ceca ac3d fae9 07be
00000390: 4f60 42bd 834f 55bd b4cc ef3d 6a84 203c
000003a0: 6fc6 253e 9bfe 0f3e 1bb1 a1bd 55df 81bd
000003b0: 624e 90be ab55 f1bd 748d eebd 329a 58be
000003c0: 74c6 10be 551e 49be d995 bfbc 7bd3 0e3d
000003d0: c31b 913c 126f bdbe a682 6cbd 3e97 13bd
000003e0: 4ab4 1dbe ce5a 893d ce00 693d e060 443e
000003f0: 015c 45be f36e 36be 5005 23be 8c9f 37bb

fc2.bias f4 [256]
0.20975883 0.0011003276 0.02879025 0.16241705 -0.0068999454 -0.06130649 -0.10246271 -0.013359979
0.11728656 0.09857903 -0.025294695 0.028601892 0.045695934 0.084405355 -0.030133374 0.03072351
-0.014000759 -0.102118395 0.0056345337 0.12821098 -0.041597176 0.007804588 0.16014269 0.0127554415
0.06640575 -0.34388354 0.014624716 0.085689805 0.0145715 0.12268036 0.09613932 0.104674175
-0.051691655 0.07827418 0.020915454 0.046201915 0.054283265 -0.11183869 -0.027707633 0.046344593
0.00096017617 -0.046498932 -0.052053574 0.119458646 0.048542585 -0.05305259 0.11910851 -0.057890974
0.033257145 0.03141127 -0.040265195 0.049823504 0.03623382 0.08388609 0.1416113 0.019751994
-0.045314413 -0.02496637 -0.07210923 0.08208604 -0.011524313 0.14732297 0.03236439 -0.038625978
0.05817363 -0.0019290923 0.08537766 0.005512483 -0.028321391 0.0071143876 0.0501284 0.051479336
0.036395214 0.044007774 -0.20290041 0.09194727 -0.008511572 -0.085324064 0.036858063 -0.0517197
0.04145784 -0.013372075 -0.05476417 0.023177436 0.09988767 0.08253242 -0.0072042714 -0.022913672
-0.0616451 0.021956956 0.107054 -0.0044938237 -0.06720511 0.17062055 0.021656219 -0.06535866
0.021088185 -0.00083083427 0.08372199 -0.044595942 -0.0658586 -0.04511288 0.055400945 -0.0056627495
0.042980455 0.17082447 -0.017414473 -0.09653464 0.00302826 -0.07401529 -0.050628904 -0.05528809
-0.044180386 0.06100201 0.105035715 0.045804523 0.096320905 -0.082286075 -0.054717153 -0.0872552
0.033447944 0.025481096 -0.06928859 0.0037053335 -0.073783435 0.11516864 -0.006109657 0.015155315
-0.031581186 -0.0042244974 0.046985075 0.0541425 -0.004967986 -0.0023786658 0.059247218 0.07258027
0.063742444 0.079149835 -0.047768578 -0.05403841 -0.046568554 0.06530123 0.13465339 -0.0056129913
0.10924911 0.045188546 0.10701461 0.01883385 -0.03580457 0.14272164 0.04330538 0.009326375
-0.041315127 0.05523558 -0.0308832 -0.022153908 0.06628431 -0.024985434 -0.011916143 -0.033180285
0.040696617 -0.096789755 -0.018767066 0.22063127 0.09476479 0.09666786 0.02590239 -0.0014310189
0.025889594 0.013651332 -0.07995743 0.09967109 0.073077455 -0.057307396 -0.0049426197 0.11601532
-0.07530742 0.04709285 0.027095184 -0.07051637 -0.0696017 0.10962861 0.07066065 0.027438078
-0.05857742 0.09511232 0.049280345 0.0927148 0.033290423 -0.0039043038 0.022652527 0.08186128
-0.029678121 0.0001997933 0.044353083 0.03567485 -0.0033250023 -0.036066696 0.08589481 0.04256415
-0.035561193 -0.031724054 0.09936265 -0.06300604 0.09817256 -0.036340322 -0.2127597 -0.007846332
-0.03881973 -0.08446189 0.0092455745 0.09829389 -0.0633984 0.009643509 0.03315567 -0.057330783
0.0028112372 -0.009797192 -0.079121664 0.025701629 0.0022254614 -0.05703599 0.017748404 0.072928175
-0.039123192 0.0012533617 -0.026525829 -0.059966944 0.09224377 0.015421989 0.012506828 0.025180848
-0.06718556 0.06694139 0.07662396 -0.017757513 0.114240274 -0.07052139 0.06594267 -0.04435099
-0.056905527 -0.027340937 0.095580295 -0.03573016 -0.0347662 -0.009201412 -0.047005042 0.0964219
0.04138836 0.058583386 0.040103246 0.053780805 0.05729636 -0.030219676 -0.019569442 0.10028815
00000000: 05cb 563e de38 903a 88d9 eb3c a850 263e
00000010: f018 e2bb 841c 7bbd f8d7 d1bd d0e3 5abc
00000020: f033 f03d cde3 c93d d236 cfbc 844e ea3c
00000030: a92b 3b3d b7dc ac3d 44da f6bc dfaf fb3c
00000040: 7163 65bc 7323 d1bd e5a1 b83b bd49 033e
00000050: cd61 2abd a1bd ff3b 72fc 233e 33fc 503c
00000060: bdff 873d 8111 b0be 819c 6f3c 237e af3d
00000070: 4dbd 6e3c d73f fb3d b1e4 c43d 6a5f d63d
00000080: a1ba 53bd 374e a03d e356 ab3c 383e 3d3d
00000090: 2158 5e3d af0b e5bd 1efb e2bc d4d3 3d3d
000000a0: 55b4 7b3a aa75 3ebd 2136 55bd bca6 f43d
000000b0: 97d4 463d ac4d 59bd 2aef f33d 161f 6dbd
000000c0: a538 083d 1ba9 003d 1eed 24bd bb13 4c3d
000000d0: ea69 143d 78cc ab3d 8d02 113e efce a13c
000000e0: 9b9b 39bd 4686 ccbc 01ae 93bd ba1c a83d
000000f0: 79d0 3cbc d5db 163e 8690 043d 4636 1ebd
00000100: 7947 6e3d 99d9 fcba 7cda ae3d 0fa2 b43b
00000110: 4302 e8bc cf1f e93b 7053 4d3d ffdb 523d
00000120: 2613 153d 7f41 343d 20c5 4fbe da4e bc3d
00000130: 1f74 0bbc 62be aebd 7bf8 163d 09d8 53bd
00000140: b2cf 293d 8c16 5bbc 6550 60bd 9bde bd3c
00000150: e891 cc3d c206 a93d cf11 ecbb 74b5 bbbc
00000160: 937f 7cbd 13df b33c 213f db3d ed40 93bb
00000170: d5a2 89bd 27b7 2e3e 6268 b13c c3da 85bd
00000180: 21c1 ac3c 58cc 59ba 6f76 ab3d 3caa 36bd
00000190: e0e0 86bd 49c8 38bd 1aec 623d 968e b9bb
000001a0: 460c 303d 9cec 2e3e cca8 8ebc f4b3 c5bd
000001b0: c675 463b 5495 97bd 4160 4fbd c475 62bd
000001c0: 7ef6 34bd 3edd 793d f71c d73d 869d 3b3d
000001d0: e543 c53d 9a85 a8bd 181f 60bd dbb2 b2bd
000001e0: b600 093d bbbd d03c 2de7 8dbd 2ed5 723b
000001f0: c51b 97bd 89dd eb3d 8533 c8bb 004e 783c
00000200: 465b 01bd a76d 8abb 6c73 403d 87c4 5d3d
00000210: 7dca a2bb 64e3 1bbb 36ad 723d f7a4 943d
00000220: 668b 823d 4f19 a23d fca8 43bd 6157 5dbd
00000230: abbe 3ebd a7bc 853d 94e2 093e 2fed b7bb
00000240: ffbd df3d a017 393d 7a2a db3d 7249 9a3c
00000250: d0a7 12bd 9f25 123e fb60 313d a7cd 183c
00000260: 0d3a 29bd b43e 623d c4fe fcbc 1d7c b5bc
00000270: 11c0 873d 41ae ccbc ed3b 43bc 0de8 07bd
00000280: 7fb1 263d b539 c6bd 64bd 99bc 2aed 613e
00000290: 0b14 c23d cdf9 c53d 4031 d43c 0791 bbba
000002a0: 6a16 d43c d6a9 5f3c b9c0 a3bd 5b20 cc3d
000002b0: a2a9 953d 29bb 6abd b3f5 a1bb 7199 ed3d
000002c0: c73a 9abd 6fe4 403d b8f6 dd3c e36a 90bd
000002d0: 568b 8ebd f784 e03d 88b6 903d d2c5 e03c
000002e0: e0ee 6fbd 3fca c23d 30da 493d 42e1 bd3d
000002f0: 8a5b 083d 59df 7fbb cb91 b93c e3a6 a73d
00000300: 881f f3bc 9b7f 5139 94ab 353d cb1f 123d
00000310: 48e8 59bb acba 13bd 9ee9 af3d bf57 2e3d
00000320: 9da8 11bd 15f1 01bd a57e cb3d 5009 81bd
00000330: b20e c93d 97d9 14bd aedd 59be e78d 00bc
00000340: 7001 1fbd 5bfa acbd c07a 173c 4f4e c93d
00000350: 05d7 81bd cfff 1d3c 3dce 073d afd3 6abd
00000360: bc3c 383b 6784 20bc 8a0a a2bd 398c d23c
00000370: 0cd9 113b 929e 69bd 1a65 913c 5e5b 953d
00000380: a43f 20bd d747 a43a b24c d9bc e69f 75bd
00000390: 4dea bc3d 83ac 7c3c 70e9 4c3c 1148 ce3c
000003a0: 9598 89bd 9118 893d 06ed 9c3d 3478 91bc
000003b0: cef6 e93d 856d 90bd f30c 873d 62a9 35bd
000003c0: c515 69bd 1afa dfbc 9abf c33d ca59 12bd
000003d0: 0167 0ebd 85c1 16bc 5c88 40bd d878 c53d
000003e0: d786 293d 22f5 6f3d 4d43 243d 4349 5c3d
000003f0: 97af 6a3d 418f f7bc 1850 a0bc e063 cd3d

fc3.weight f4 [128, 256]
-0.06393466 0.0072088838 0.045705453 0.012274635 0.044518165 0.019116178 -0.00939744 -0.073925994
-0.01566839 -0.08888353 0.0066229776 -0.041039877 -0.01477856 0.020744832 -0.044559702 -0.023756526
0.0301038 -0.08811093 -0.051827256 -0.017440679 -0.04932341 0.013323434 -0.053109143 -0.050485007
0.035687387 0.004687349 -0.054908913 0.016277334 -0.034906883 -0.04358744 -0.07082646 0.050621346
0.03182482 -0.04009839 -0.0045180237 -0.00023172214 -0.00096355303 0.019511398 0.05921703 -0.024736313
-0.01674413 -0.024902992 0.029841423 -0.067294076 -0.028129227 -0.008738102 -0.010849802 -0.06549532
-0.023820825 -0.00374572 -0.013432786 -0.02123294 -0.04201214 0.03580317 -0.045284722 -0.059631303
-0.062284335 -0.040395215 0.054023854 -0.013159519 0.008881627 -0.04428555 0.060716793 -0.06053174
-0.06900965 -0.013450412 -0.0045421356 -0.025901647 -0.04803538 -0.050139576 0.013742372 -0.0071030906
-0.016043562 0.0049677924 0.035455156 -0.038619585 -0.0047581755 0.012830591 0.008245006 0.006859294
-0.017581796 0.017826876 0.021959946 0.05008409 0.011292173 0.05508794 -0.010386772 -0.005913414
-0.080644704 -0.006550528 0.0056343647 0.032561943 -0.075653166 0.0197752 0.055806097 -0.046120748
0.055938892 -0.06988565 0.009835026 0.026701652 0.0016875545 0.034514576 0.034198057 -0.0468829
-0.04800935 -0.037846897 -0.049546484 -0.09473492 -0.02883789 -0.009764109 -0.0058801696 0.021350712
0.032806963 -0.05138925 -0.07355591 0.004654281 -0.04285384 0.024525777 0.02654397 -0.073548995
-0.058306992 -0.05585537 0.021821648 0.031000506 -0.054020204 -0.010346982 0.021376433 -0.027147941
0.01344835 -0.057566922 -0.019942423 -0.018279579 -0.007843003 0.027171638 -0.010582287 -0.014180717
0.0040492774 -0.010098673 -0.048644107 0.0016512906 0.007512588 -0.055506174 -0.06588898 0.0042149094
0.02169363 -0.025340557 0.050089277 -0.037525713 0.030890696 -0.04224748 -0.03780833 -0.06201063
-0.0695849 0.021983232 -0.03945902 -0.05839319 0.030193271 -0.06720835 -0.022117322 0.011086079
-0.049113743 0.00465241 0.055011667 -0.020129522 -0.05843534 -0.019727841 -0.009673208 -0.049745828
0.032494023 -0.053399857 0.020342536 -0.037702534 -0.012374778 0.02684208 0.01727053 0.015196007
-0.047283106 -0.035300657 0.020310119 0.056959935 -0.056157798 0.01876823 -0.055927303 -0.035650678
0.021443218 0.03763286 -0.0084180115 0.013152175 -0.03223028 -0.034100108 0.0428876 -0.030279292
0.03780651 -0.026562817 -0.058177214 -0.016386176 -0.009455569 0.058198966 -0.09162296 0.021019118
-0.03145407 -0.039251342 0.03198258 -0.03420965 -0.070167944 -0.08012894 0.02552353 -0.059454776
-0.053936087 -0.0907989 0.05805131 0.020039896 -0.072312824 0.010276977 0.039338224 -0.0440626
-0.029686984 -0.03424151 -0.04784227 -0.055795692 0.005434352 0.002636388 -0.041653395 0.039497692
0.025253251 0.045422003 -0.0641623 0.027747376 0.031046197 -0.013675059 0.0020799339 -0.069425695
-0.019106321 -0.006068637 0.04591037 0.010623724 0.0018531849 0.02549602 -0.07019798 0.042556196
0.038796857 -0.11333279 -0.05844576 -0.038807854 -0.06058583 0.024790198 -0.062274717 -0.021698793
0.055105887 -0.037064236 0.004440576 -0.063074976 0.049774274 -0.015410453 0.022516273 0.015497006
00000000: 2df0 82bd 8038 ec3b a435 3b3d 8d1b 493c
00000010: ae58 363d 8899 9c3c b8f7 19bc 8366 97bd
00000020: ff5a 80bc 9108 b6bd 9005 d93b 6e19 28bd
00000030: c621 72bc 11f1 a93c 3c84 36bd 0c9d c2bc
00000040: 3f9c f63c 8173 b4bd d148 54bd c1df 8ebc
00000050: 5807 4abd 884a 5a3c f988 59bd 5ec9 4ebd
00000060: f02c 123d 5598 993b 2be8 60bd 0b58 853c
00000070: 85fa 0ebd be88 32bd 770d 91bd 5458 4f3d
00000080: be5a 023d 363e 24bd ee0b 94bb 70fa 72b9
00000090: f396 7cba 5ed6 9f3c 8e8d 723d cfa3 cabc
000000a0: fc2a 89bc 5c01 ccbc 0076 f43c 7ad1 89bd
000000b0: 446f e6bc 422a 0fbc 5ec3 31bc 6922 86bd
000000c0: e423 c3bc c17a 75bb 3015 5cbc b4f0 adbc
000000d0: ec14 2cbd 58a6 123d 797c 39bd f43f 74bd
000000e0: dc1d 7fbd 7475 25bd 1e48 5d3d 069b 57bc
000000f0: 3e84 113c c464 35bd 2cb2 783d 21f0 77bd
00000100: ee54 8dbd 1e5f 5cbc 32d6 94bb b12f d4bc
00000110: bfc0 44bd 285f 4dbd b027 613c 0bc1 e8bb
00000120: ca6d 83bc ddc8 a23b 6d39 113d 922f 1ebd
00000130: 78ea 9bbb 6637 523c 1016 073c eec3 e03b
00000140: b307 90bc ab09 923c 58e5 b33c fa24 4d3d
00000150: ce02 393c e4a3 613d 482d 2abc 50c5 c1bb
00000160: 0d29 a5bd d0a5 d6bb 7aa0 b83b ac5f 053d
00000170: 0cf0 9abd 9aff a13c ef94 643d 1ce9 3cbd
00000180: 2e20 653d 3520 8fbd 1723 213c 6cbd da3c
00000190: ef30 dd3a 285f 0d3d 4313 0c3d 4908 40bd
000001a0: 74a5 44bd 5905 1bbd 41f1 4abd 6204 c2bd
000001b0: 703d ecbc a4f9 1fbc 70ae c0bb b0e7 ae3c
000001c0: 9860 063d 897d 52bd 7ba4 96bd f082 983b
000001d0: 8287 2fbd 48ea c83c bd72 d93c dba0 96bd
000001e0: 50d3 6ebd 9ac8 64bd 50c3 b23c c6f4 fd3c
000001f0: 4a44 5dbd 6386 29bc a11d af3c 5c65 debc
00000200: 7856 5c3c 4bcb 6bbd 4b5e a3bc 0ebf 95bc
00000210: f07f 00bc 0e97 de3c 5461 2dbc 3d56 68bc
00000220: cdaf 843b e874 25bc 0b3f 47bd 1e70 d83a
00000230: 282c f63b 715a 63bd cdf0 86bd 391d 8a3b
00000240: d7b6 b13c 0097 cfbc 6a2a 4d3d 90b4 19bd
00000250: 7c0e fd3c b20b 2dbd e8dc 1abd dcfe 7dbd
00000260: 8782 8ebd 2e16 b43c c89f 21bd b32d 6fbd
00000270: e157 f73c 88a4 89bd 632f b5bc 63a2 353c
00000280: 7e2b 49bd 3e73 983b ea53 613d abe6 a4bc
00000290: e559 6fbd 489c a1bc 607c 1ebc 48c2 4bbd
000002a0: 7418 053d cfb9 5abd 64a5 a63c f96d 1abd
000002b0: 95bf 4abc ece3 db3c ed7a 8d3c acf8 783c
000002c0: eeab 41bd 6c97 10bd 6861 a63c d24e 693d
000002d0: b805 66bd d5bf 993c 0714 65bd 7206 12bd
000002e0: b0a9 af3c ea24 1a3d b3eb 09bc 387c 573c
000002f0: e603 04bd 8eac 0bbd e8aa 2f3d 470c f8bc
00000300: 00db 1a3d 449a d9bc 3b4b 6ebd 4d3c 86bc
00000310: 88eb 1abc 0a62 6e3d d2a4 bbbd 4930 ac3c
00000320: fcd5 00bd 04c6 20bd 2a00 033d 6b1f 0cbd
00000330: 36b4 8fbd a41a a4bd b916 d13c da86 73bd
00000340: 16ec 5cbd c6f4 b9bd 36c7 6d3d b52a a43c
00000350: bf18 94bd c460 283c 1e21 213d fc7a 34bd
00000360: 1e32 f3bc d340 0cbd 42f6 43bd 068a 64bd
00000370: a612 b23b 40c7 2c3b c09c 2abd 55c8 213d
00000380: e8df ce3c 6c0c 3a3d 8667 83bd 774e e33c
00000390: 9854 fe3c 5b0d 60bc 804f 083b 0f2f 8ebd
000003a0: dc84 9cbc 6bdb c6bb 830c 3c3d 210f 2e3c
000003b0: 91e6 f23a 08dd d03c f5c3 8fbd 684f 2e3d
000003c0: 74e9 1e3d 061b e8bd d264 6fbd fcf4 1ebd
000003d0: d928 78bd d014 cb3c c613 7fbd abc1 b1bc
000003e0: b6b6 613d abd0 17bd 4082 913b 742d 81bd
000003f0: 1ce0 4b3d 207c 7cbc 0c74 b83c 27e7 7d3c

fc3.bias f4 [128]
-0.006523018 -0.02266582 0.079104535 0.065647826 -0.022298688 0.022293532 0.09220262 0.017359944
-0.05300898 0.010033252 -0.050848417 0.07879507 -0.044753917 0.07024322 0.14606412 0.025250528
0.2007287 0.13218407 -0.09524293 0.088877924 0.040887464 0.15872848 0.022535482 -0.0025199342
0.026959414 -0.031684406 0.036057435 -0.038782183 0.02066667 0.05737224 -0.019157507 0.06986956
0.0005829459 0.15332687 -0.009670664 0.024096128 0.12880859 -0.000539884 -0.054518834 -0.055992015
0.11744428 0.036396112 0.118509464 0.01775705 -0.09296137 0.00863471 0.16196217 0.082189545
0.09911686 0.08078424 -0.008714091 0.11507479 -0.040886045 -0.009131409 -0.0228695 0.026776722
0.088948235 0.1147246 0.0925904 -0.02750962 -0.08373049 0.047736485 -0.029508358 0.005189864
-0.04239163 0.002791676 0.052662 0.07018979 0.079272255 0.15745865 -0.0075835455 -0.022138916
0.047681134 0.08197171 0.10522925 0.03127712 0.23444548 0.074144915 0.09314389 -0.05672756
0.016157387 0.05258357 0.035853893 -0.07237997 -0.015329645 -0.0048592063 0.14541897 -0.055746347
0.10630066 0.007606762 -0.06584944 -0.021693962 0.11565004 -0.0129036615 -0.023792231 0.067631
0.07028309 -0.008389272 0.052015375 0.055037767 0.09944276 0.09837661 -0.01702923 0.037329134
0.11221307 -0.08815108 0.048555065 0.13027899 0.025904005 0.01158829 -0.03563353 0.15976116
0.048235174 -0.08098135 -0.027447226 0.02251286 0.041958865 -0.003959033 0.054593664 -0.060294032
0.070580326 0.12274387 -0.054692883 -0.04553053 0.13833843 -0.027464427 0.16239364 -0.07205421
00000000: 0abf d5bb abad b9bc 8f01 a23d 5e72 863d
00000010: bdab b6bc eda0 b63c bad4 bc3d 7136 8e3c
00000020: f21f 59bd 8262 243c 6e46 50bd 4f5f a13d
00000030: e24f 37bd addb 8f3d d591 153e 32da ce3c
00000040: d38b 4d3e 435b 073e ba0e c3bd a105 b63d
00000050: 9d79 273d b889 223e 559c b83c 7b25 25bb
00000060: fdd9 dc3c 82c7 01bd f6b0 133d 11da 1ebd
00000070: 264d a93c 27ff 6a3d 34f0 9cbc c617 8f3d
00000080: d6d0 183a b801 1d3e b471 1ebc 3e65 c53c
00000090: 66e6 033e 0087 0dba 244f 5fbd e257 65bd
000000a0: a086 f03d 1714 153d 17b5 f23d 3c77 913c
000000b0: 8862 bebd 9978 0d3c 69d9 253e fe52 a83d
000000c0: c8fd ca3d 3572 a53d 8cc5 0ebc 55ac eb3d
000000d0: 2078 27bd e89b 15bc d158 bbbc db5a db3c
000000e0: 7e2a b63d bbf4 ea3d 09a0 bd3d db5b e1bc
000000f0: e47a abbd 5587 433d 83bb f1bc bc0f aa3b
00000100: d9a2 2dbd 8df4 363b 1cb4 573d aabf 8f3d
00000110: 7e59 a23d d73c 213e 647f f8bb ac5c b5bc
00000120: 4b4d 433d c9e0 a73d 6f82 d73d 701c 003d
00000130: 7a12 703e 4ad9 973d 39c2 be3d 285b 68bd
00000140: 7f5c 843c df61 573d 88db 123d f33b 94bd
00000150: 3129 7bbc fa39 9fbb b6e8 143e 4856 64bd
00000160: 29b4 d93d 2542 f93b 12dc 86bd 89b7 b1bc
00000170: eed9 ec3d e169 53bc ede7 c2bc 1f82 8a3d
00000180: 95f0 8f3d 2873 09bc 130e 553d 486f 613d
00000190: a5a8 cb3d ad79 c93d e280 8bbc 6fe6 183d
000001a0: f7cf e53d 8e88 b4bd ade1 463d db67 053e
000001b0: a334 d43c d0dc 3d3c 77f4 11bd 6e98 233e
000001c0: 3f92 453d 8dd9 a5bd 01d9 e0bc e46c b83c
000001d0: 0fdd 2b3d c7ba 81bb 9b9d 5f3d e0f6 76bd
000001e0: 6b8c 903d 2361 fb3d a505 60bd 397e 3abd
000001f0: 97a8 0d3e 14fd e0bc 854a 263e 2891 93bd

fc4.weight f4 [5, 128]
0.0016844028 -0.07519554 -0.23501825 -0.20658174 0.21866564 0.050228827 -0.19419941 -0.03389965
-0.058030646 -0.020902673 -0.05265144 0.2929333 0.067718424 -0.23882438 -0.26654342 0.15482663
-0.2929216 -0.17956358 -0.04287792 0.18435985 0.7061005 0.5660735 0.2656915 0.053318452
0.47152963 -0.06784245 0.0063913465 -0.03187563 -0.13250865 -0.18646072 0.2287922 0.17278372
0.3439962 -0.2251135 0.03156425 -0.1739811 -0.3538476 -0.06411893 -0.24731134 -0.19619423
-0.17265457 -0.283067 0.77878916 -0.025798228 0.13402753 -0.043652456 -0.19404447 0.9114075
0.21322824 -0.16595313 -0.024125252 0.18427435 -0.010502107 -0.0010597706 0.15235822 -0.062424757
1.000373 -0.33347607 0.19880544 -0.052635036 -0.0021785116 0.18384565 0.27929544 -0.2574182
0.010221413 0.063580245 0.81345093 -0.23317555 -0.14150845 -0.21473707 0.38515005 0.091779605
-0.09919884 -0.15353127 -0.16805957 -0.025735425 -0.40609908 0.18608199 -0.16625157 -0.008322284
0.20982091 0.2194396 0.45364544 0.016683366 0.1728994 0.27300146 1.0183295 -0.018041037
-0.16738778 0.07098043 0.3009489 0.05723635 -0.123517 0.19879562 0.18125586 -0.18724713
0.95412296 0.034355476 -0.17444848 -0.19531535 -0.17221962 0.21534762 -0.022216942 0.22589228
0.11441931 0.14157674 0.12091407 -0.23330943 0.18286471 0.0024997413 -0.077884845 -0.19466719
-0.25278825 -0.0109118875 -0.049052466 0.1808502 0.24838966 -0.07972703 -0.14505088 0.040080108
0.1403505 0.20933262 -0.019282084 0.062169172 -0.26464626 0.019677818 0.2687361 0.061235458
-0.03037852 0.03955786 -0.24205431 -0.23922378 0.25151446 -0.009231038 -0.21883762 -0.07033927
-0.030306622 -0.023882687 0.053918175 0.20015037 0.0017084881 -0.16876976 -0.20047696 0.27126393
-0.36293343 -0.16041094 0.08344689 0.26201618 0.6194702 0.3171553 0.260895 0.005833937
0.57750255 -0.010292639 0.047392152 -0.018376015 -0.043291803 -0.120315574 0.29352558 0.11465284
0.18994693 -0.20405632 -0.0033379274 -0.09510115 -0.35878596 -0.0580076 -0.25548747 -0.17362902
-0.19039889 -0.22775185 0.7737632 -0.04294369 0.12283939 0.04583502 -0.23409307 0.88658667
0.19405855 -0.25120875 -0.013605564 0.100074045 0.076248236 0.0019426644 0.16421962 -0.072466835
0.8755246 -0.32130724 0.3022704 -0.042603306 -0.03704824 0.22071676 0.22304963 -0.24458806
0.042944007 -0.09056005 0.9733847 -0.24628554 -0.23223284 -0.31248358 0.39130935 0.052196335
-0.058726706 -0.28433555 -0.17682618 -0.031661186 -0.4270438 0.17721944 -0.21367325 0.025801428
0.14917919 0.22177064 0.5591141 0.06795499 0.16924176 0.28216025 1.2283529 -0.07604132
-0.22465393 0.12203037 0.116890766 -0.0063405754 -0.20324686 0.21307002 0.26087025 -0.14206702
0.8108583 0.028256163 -0.13322508 -0.079558924 -0.1243876 0.2721381 -0.002109951 0.18232436
0.06409023 0.28985634 0.1670136 -0.21029557 0.21596937 -0.045348413 0.06870709 -0.18651186
-0.19505823 -0.0060301633 -0.03928617 0.24141188 0.23043543 0.04995355 -0.23653515 0.08581398
0.14820236 0.191284 -0.05507856 -0.05054908 -0.09951134 -0.019334586 0.16363934 0.021971926
00000000: 2ec7 dc3a 1f00 9abd a0a8 70be 2a8a 53be
00000010: e3e9 5f3e bebc 4d3d 36dc 46be 5cda 0abd
00000020: 8bb1 6dbd 153c abbc 09a9 57bd 5afb 953e
00000030: f5af 8a3d 618e 74be 6178 88be df8a 1e3e
00000040: d2f9 95be 84df 37be c2a0 2fbd d4c8 3c3e
00000050: 01c3 343f 31ea 103f b708 883e 7364 5a3d
00000060: 556c f13e fcf0 8abd 806e d13b 0590 02bd
00000070: 59b0 07be 8fef 3ebe 8148 6a3e 37ee 303e
00000080: 4520 b03e 2784 66be 8449 013d 1a28 32be
00000090: 832b b5be c950 83bd 2f3f 7dbe 24e7 48be
000000a0: 5ccc 30be 28ee 90be ba5e 473f ce56 d3bc
000000b0: 833e 093e ebcc 32bd 98b3 46be 0052 693f
000000c0: 8158 5a3e 9eef 29be 52a2 c5bc 6ab2 3c3e
000000d0: 0811 2cbc 00e8 8aba cb03 1c3e 1ab1 7fbd
000000e0: 390c 803f 60bd aabe a793 4b3e d697 57bd
000000f0: 5cc5 0ebb 0942 3c3e d0ff 8e3e 51cc 83be
00000100: b777 273c 5c36 823d 523e 503f 92c5 6ebe
00000110: 97e7 10be 09e4 5bbe 6332 c53e f2f6 bb3d
00000120: c328 cbbd 4d37 1dbe cf17 2cbe 19d3 d2bc
00000130: 38ec cfbe 478c 3e3e da3d 2abe 305a 08bc
00000140: 4bdb 563e c6b4 603e 3744 e83e 8eab 883c
00000150: 8a0c 313e d9c6 8b3e 9f58 823f ccca 93bc
00000160: b467 2bbe 305e 913d f915 9a3e aa70 6a3d
00000170: 7bf6 fcbd 1491 4b3e 239b 393e b6bd 3fbe
00000180: 6741 743f 54b8 0c3d 9fa2 32be bf00 48be
00000190: 575a 30be 1684 5c3e 4e00 b6bc 4e50 673e
000001a0: ac54 ea3d 7ef9 103e cca1 f73d abe8 6ebe
000001b0: e340 3b3e b3d2 233b 1782 9fbd d656 47be
000001c0: 766d 81be c6c7 32bc 3deb 48bd cb30 393e
000001d0: dc59 7e3e ed47 a3bd 3888 14be 0a2b 243d
000001e0: 0bb8 0f3e 4a5b 563e 76f5 9dbc 1aa5 7e3d
000001f0: b77f 87be 6033 a13c c797 893e 08d2 7a3d
00000200: 60dc f8bc 6c07 223d 16dd 77be 14f7 74be
00000210: 81c6 803e c83d 17bc f816 60be 090e 90bd
00000220: 9845 f8bc a0a5 c3bc 4ed9 5c3d 38f4 4c3e
00000230: 59ef df3a fbd1 2cbe d549 4dbe 1be3 8a3e
00000240: 69d2 b9be c442 24be 34e6 aa3d fc26 863e
00000250: 9995 1e3f 2e62 a23e 0894 853e 9c2a bf3b
00000260: 35d7 133f 75a2 28bc 461e 423d 4c89 96bc
00000270: bf52 31bd 0368 f6bd fc48 963e 1ccf ea3d
00000280: 7381 423e 24f4 50be 21c1 5abb 64c4 c2bd
00000290: cbb2 b7be 6199 6dbd 41cf 82be cecb 31be
000002a0: edf7 42be c837 69be 5815 463f b9e5 2fbd
000002b0: 3893 fb3d 80bd 3b3d 18b6 6fbe 58f7 623f
000002c0: 49b7 463e 6f9e 80be dfe9 5ebc 9ff3 cc3d
000002d0: 0928 9c3d 00a1 fe3a 3029 283e 7e69 94bd
000002e0: 6122 603f 6282 a4be 30c3 9a3e ce80 2ebd
000002f0: e5bf 17bd 9303 623e 1f67 643e 4b75 7abe
00000300: 0ee6 2f3d 8c77 b9bd bd2f 793f 4732 7cbe
00000310: 72ce 6dbe d9fd 9fbe b359 c83e d3cb 553d
00000320: 6a8b 70bd 6e94 91be ec11 35be 29af 01bd
00000330: 7ca5 dabe 0379 353e 29cd 5abe 845d d33c
00000340: 6ec2 183e d817 633e 1a22 0f3f fc2b 8b3d
00000350: b64d 2d3e 4f77 903e ab3a 9d3f 8dbb 9bbd
00000360: ae0b 66be 0feb f93d 6d64 ef3d 9ac4 cfbb
00000370: f21f 50be 072f 5a3e c990 853e 047a 11be
00000380: 6994 4f3f 7879 e73c 286c 08be caef a2bd
00000390: edbe febd af55 8b3e 1b47 0abb 3db3 3a3e
000003a0: bd41 833d 0d68 943e 9d05 2b3e b957 57be
000003b0: 1327 5d3e 42bf 39bd 4eb6 8c3d f7fc 3ebe
000003c0: 58bd 47be ad98 c5bb 89ea 20bd ad34 773e
000003d0: 44f7 6b3e 189c 4c3d 4536 72be 3dbf af3d
000003e0: 5cc2 173e f4df 433e 0e9a 61bd 8d0c 4fbd
000003f0: 9acc cbbd 9163 9ebc 1291 273e 78fe b33c

fc4.bias f4 [5]
-0.05801608 -0.120185375 -0.013337928 -0.0049016424 0.031872716
00000000: 45a2 6dbd c023 f6bd 5387 5abc f59d a0bb
00000010: f78c 023d
