models/lateral_stage1_seed999_final.pth (torch, 411443 bytes, 8 tensors)

fc1.weight f4 [256, 9]
0	0xbd1bb7cc	-0.03801708
1	0x3e273722	0.16329625
2	0xbeac3c63	-0.3363982
3	0x3ebf025d	0.3730649
4	0x3c9d8856	0.01923005
5	0x3e941e2c	0.2892927
6	0x3e306f9e	0.17230079
7	0xbe9fd882	-0.3121987
8	0xbdce6502	-0.100778595
9	0x3e5078f4	0.2035864
10	0xbefa86a5	-0.4893085
11	0xbe8b86e7	-0.2725136
12	0xbda91a4d	-0.082569696
13	0x3d789c1a	0.060695745
14	0x3ed49534	0.41520083
15	0xbe9a29c0	-0.30109978
16	0x3e4d10ba	0.20025912
17	0xbd3cc9ed	-0.04609101
18	0xbcc31ce6	-0.02381749
19	0xbe3623c0	-0.17787075
20	0xbe3990eb	-0.18121688
21	0x3e93874d	0.28814164
22	0x3e6f0fee	0.2334592
23	0x3e95c425	0.2925121
24	0x3e2a2510	0.166157
25	0xbda28ef4	-0.079374224
26	0x3e543d34	0.20726472
27	0xbd7409a8	-0.05957952
28	0xbec5e642	-0.38652235
29	0x3e34763b	0.17623226
30	0x3dc21f9f	0.094786875
31	0xbec11b07	-0.37715933
32	0x3c733f3a	0.014846617
33	0xbcbc8cd0	-0.023016363
34	0x3e16f536	0.14741978
35	0xbddfeb57	-0.109335594
36	0x3e129c55	0.14317448
37	0x3dea4dd1	0.114406236
38	0xbe130b40	-0.1435976
39	0x3ea5280b	0.32257113
40	0xbc9b5ade	-0.018964227
41	0x3f222bb9	0.63347965
42	0xbde6e92c	-0.11274943
43	0x3e4a4a6a	0.19754949
44	0x3e983ec5	0.2973539
45	0x3e36ac31	0.17839123
46	0xbd542ba9	-0.05179945
47	0x3ca07322	0.01958615
48	0xbea69841	-0.32538036
49	0x3e8317ba	0.2560404
50	0x3f06ceed	0.52659494
51	0x3e8a6c39	0.27035692
52	0xbea950ea	-0.33069545
53	0xbe4d75a9	-0.20064415
54	0x3e5a4503	0.21315388
55	0x3e128906	0.14310083
56	0x3e87915d	0.2647809
57	0x3eda7128	0.42664456
58	0xbe365658	-0.17806375
59	0xbed0706f	-0.4071078
60	0xbe9ba714	-0.30400908
61	0xbe7914e3	-0.24324374
62	0xbe47aa7a	-0.19498625
63	0x3ec2a61a	0.3801735
64	0xbe0dca9b	-0.13846819
65	0xbde729a1	-0.11287237
66	0xbef36450	-0.4753747
67	0x3ec0b2c4	0.37636387
68	0xbd1ccbfb	-0.03828047
69	0xbe146096	-0.1448997
70	0xbe1156e0	-0.14193296
71	0x3e9c6cb2	0.30551678
72	0xbe2b07a8	-0.1670214
73	0xbc28df9f	-0.010307222
74	0x3eac03e2	0.33596712
75	0x3e348a9d	0.17631002
76	0xbdd15adc	-0.10222408
77	0xbf0a5afc	-0.5404508
78	0xbdb116fc	-0.08646962
79	0x3e693df2	0.22777537
80	0xbe85004e	-0.25976795
81	0xbe2d0611	-0.16896845
82	0x3e976465	0.29568782
83	0xbcf1c633	-0.029513454
84	0xbed2981b	-0.41131672
85	0x3e54e592	0.20790699
86	0x3e9315c0	0.2872753
87	0x3e7562ba	0.23963442
88	0xbdb04540	-0.086069584
89	0xbe9bbc64	-0.30417168
90	0x3e93c834	0.2886368
91	0xbd85561e	-0.06510566
92	0x3eb8af35	0.36071172
93	0xbdf35a0c	-0.118824095
94	0xbe21a6be	-0.15786263
95	0xbf017168	-0.5056367
96	0x3ddc7e3c	0.10766265
97	0xbe6ec05b	-0.23315565
98	0xbe94678a	-0.28985244
99	0x3de39893	0.111130856
100	0x3e196825	0.14981134
101	0xbc8a2081	-0.016861202
102	0x3f08839f	0.5332584
103	0x3ea5c716	0.32378453
104	0x3e010247	0.12598525
105	0xbe87072e	-0.26372665
106	0x3d124cc8	0.035717756
107	0xbe233ebc	-0.159419
108	0xbe806d40	-0.2508335
109	0x3d93468f	0.07191192
110	0x3c59699f	0.013269811
111	0x3dbcba3d	0.0921521
112	0x3f006a5a	0.5016228
113	0xbed7813b	-0.42090783
114	0xbe34fcf0	-0.17674613
115	0xbe931e43	-0.28734025
116	0x3e10bfb0	0.14135623
117	0x3ed4624e	0.4148125
118	0xbe05e90c	-0.13077182
119	0xbe2dd8f0	-0.16977286
120	0xbe923fbc	-0.2856425
121	0xbe924c0c	-0.28573644
122	0x3f47469a	0.77842104
123	0xbd415260	-0.0471977
124	0xbe265e83	-0.16246991
125	0x3bf68855	0.0075235763
126	0xbda682d4	-0.08130422
127	0x3dc437b1	0.09580935
128	0xbddbf05e	-0.10739206
129	0xbe1343dc	-0.14381355
130	0x3e59630d	0.21229191
131	0xbf03fa5c	-0.51553893
132	0x3e8a28b9	0.26984194
133	0x3d9b5350	0.0758425
134	0xbd9ace61	-0.07558895
135	0xbf7c9554	-0.98665357
136	0xbe3f096b	-0.18655936
137	0xbefa914b	-0.48938975
138	0x3e93ac24	0.2884227
139	0xbf054171	-0.5205298
140	0x3e82c368	0.25539708
141	0x3e8b4aa5	0.27205387
142	0x3e2487da	0.16067448
143	0x3c074613	0.008256453
144	0x3e734e27	0.23760282
145	0xbe765c0a	-0.24058548
146	0x3e7df211	0.24799372
147	0x3ecc3a78	0.39888358
148	0xbe09784f	-0.134248
149	0x3eb8ac28	0.36068845
150	0xbd616fd8	-0.055038303
151	0xbdbc77fc	-0.09202573
152	0x3e6d9907	0.23202907
153	0xbf11e6ae	-0.56992614
154	0x3e000cf7	0.12504946
155	0xbf186b73	-0.59538954
156	0x3e9f8147	0.31153318
157	0xbf254c47	-0.64569515
158	0x3aae44ff	0.0013295709
159	0xbe5174a6	-0.20454654
160	0x3e3a38de	0.18185756
161	0x3db8d869	0.09025652
162	0xbe701aab	-0.23447673
163	0xbe253aa0	-0.16135645
164	0x3bedc155	0.007255713
165	0xbe9be202	-0.30445868
166	0x3ea5b5fa	0.323654
167	0x3f0bcf31	0.54613024
168	0xbd1aaa00	-0.03775978
169	0xbe0369f3	-0.12833385
170	0x3ded2d99	0.11580963
171	0x3ea089fb	0.3135527
172	0xbe59a2ef	-0.2125356
173	0x3ec68310	0.38771868
174	0x3cdd839e	0.027040299
175	0xbe109509	-0.14119352
176	0x3eb876be	0.36028093
177	0x3e9560b5	0.29175344
178	0xbdeb1626	-0.11478834
179	0x3e8bd849	0.2731345
180	0xbe6f0845	-0.23342998
181	0x3e6a5d4d	0.22887154
182	0xbe4e703e	-0.20160004
183	0x3f3b5860	0.73181725
184	0xbeeade10	-0.45872545
185	0xbd32b1a2	-0.043626435
186	0x3ea30d69	0.3184617
187	0x3e89fe19	0.26951674
188	0xbcbd8ec1	-0.02313936
189	0xbdbca190	-0.09210503
190	0x3e0591f5	0.1304396
191	0x3b9d45cd	0.0047995807
192	0xbee096b7	-0.43864986
193	0xbf00eb48	-0.5035901
194	0xbe57f97f	-0.21091269
195	0xbe7f8a08	-0.24954998
196	0xbe9d0c9e	-0.3067369
197	0x3e958708	0.29204583
198	0x3d5f6027	0.054535057
199	0x3e4f4465	0.20240934
200	0xbdb91c64	-0.09038618
201	0xbe9b4e71	-0.30333284
202	0xbee4a07b	-0.44653687
203	0xbe12478f	-0.1428511
204	0x3ea62539	0.32450274
205	0x3e230942	0.159215
206	0xbe92a8d6	-0.28644437
207	0xbf248ee3	-0.6428053
208	0x3e4a06a6	0.19729099
209	0xbe7bfb99	-0.24607696
210	0x3ebe1ab5	0.3712975
211	0xbed1cf1e	-0.4097833
212	0xbe3d08fc	-0.18460459
213	0x3e41b822	0.18917897
214	0x3ea6891b	0.32526478
215	0x3d807420	0.06272149
216	0xbdeae504	-0.114694625
217	0x3e6b9f92	0.2301009
218	0x3e905bc1	0.28195003
219	0x3ec86a15	0.39143434
220	0x3e08088b	0.13284509
221	0x3e9ee3dc	0.31033218
222	0xbdbdc2a6	-0.09265642
223	0x3d165588	0.036702663
224	0xbdd192cc	-0.102330774
225	0xbdb3cc36	-0.087791845
226	0xbd95e94c	-0.073198885
227	0xbea2dcdd	-0.3180913
228	0xbda970ba	-0.08273454
229	0xbec50960	-0.38483715
230	0x3f02ae55	0.5104726
231	0xbe849878	-0.25897574
232	0x3e8d2d59	0.2757366
233	0x3e050575	0.12990363
234	0x3e478766	0.19485244
235	0xbe85b9c2	-0.26118284
236	0x3e856ec0	0.26061058
237	0xbdc34a33	-0.09535637
238	0xbe016029	-0.12634338
239	0xbef76648	-0.48320222
240	0xbe89d39a	-0.26919252
241	0xbd1ca840	-0.038246393
242	0xbcb30643	-0.021853572
243	0xbea938fa	-0.33051282
244	0xbdb3ac0f	-0.08773052
245	0xbe373e5e	-0.17894885
246	0x3def7aa7	0.11693316
247	0xbf28b2e1	-0.6589795
248	0x3bf3bb01	0.007438064
249	0xbe2c6c36	-0.16838154
250	0x3dc305f0	0.09522617
251	0x3e2b6758	0.16738641
252	0xbe7ed5ea	-0.24886289
253	0x3e4379c3	0.19089417
254	0x3e675bb5	0.22593577
255	0x3e08c585	0.13356598

fc1.bias f4 [256]
0	0x3e065e3a	0.13121882
1	0x3dc40596	0.09571378
2	0xbe98e916	-0.2986533
3	0xbd059477	-0.03261229
4	0xbe545944	-0.20737177
5	0xbe44d000	-0.1921997
6	0xbe648a79	-0.22318448
7	0x3dc12de8	0.09432584
8	0xbcbb6b7e	-0.022878405
9	0x3e861cec	0.2619394
10	0x3dc43626	0.095806405
11	0xbda04ec3	-0.078275226
12	0x3de33874	0.11094752
13	0xbe634cfd	-0.22197337
14	0x3e0333db	0.1281275
15	0x3eaf4fcc	0.34240568
16	0x3e04eb24	0.12980324
17	0x3da417e8	0.08012372
18	0xbe61874a	-0.22024265
19	0x3d81ed12	0.06344046
20	0x3df61b09	0.12016875
21	0xbe5cd9cf	-0.21567462
22	0x3e176230	0.1478355
23	0xbd15150c	-0.036397025
24	0xbcf737c6	-0.030177962
25	0xbdd72e06	-0.10506825
26	0x3e874330	0.26418447
27	0x3e7d18b5	0.24716456
28	0x3d91601e	0.07098411
29	0x3eac64b0	0.33670568
30	0xbe5bc040	-0.21460056
31	0xbe657a29	-0.22409882
32	0xbddd1e8c	-0.10796842
33	0xbea06081	-0.31323627
34	0xbd24813a	-0.040162303
35	0xbe7e5edd	-0.24840875
36	0xbc5441bb	-0.0129551245
37	0x3c167130	0.009182259
38	0x3df08579	0.11744208
39	0xbc7d7f52	-0.01547225
40	0xbd7439cb	-0.05962543
41	0xbd707e4d	-0.0587142
42	0xbdbbf2bd	-0.09177158
43	0x3c2b03b9	0.010437899
44	0xbcb8b03d	-0.022544974
45	0x3da3c11a	0.079958156
46	0xbd037fc0	-0.032104254
47	0x3e4de57e	0.20107076
48	0xbe8e8630	-0.27836752
49	0xbdf099e6	-0.11748104
50	0xbe836b5c	-0.25667846
51	0x3c90da03	0.017682081
52	0x3e6216e8	0.2207905
53	0x3e379c89	0.17930807
54	0xbd19016a	-0.037354864
55	0xbe02eb8d	-0.12785168
56	0xbe8a86e2	-0.27056032
57	0x3ea3a9f9	0.31965616
58	0x3da260bf	0.07928609
59	0xbcafadee	-0.02144524
60	0xbdca8877	-0.0988931
61	0xbcef17e0	-0.02918619
62	0xbe20ffdb	-0.15722601
63	0x3e33d43c	0.1756143
64	0x3dbb6e18	0.09151858
65	0x3e538721	0.20657016
66	0xbddebdfe	-0.10876082
67	0x3d6fe3d7	0.058566894
68	0x3dee3486	0.11631112
69	0xbe99901f	-0.29992768
70	0xbd194853	-0.03742249
71	0xbdf7eb16	-0.12105386
72	0xbe72879b	-0.23684542
73	0x3e29705b	0.16546766
74	0xbc0ec200	-0.008713245
75	0x3d09f0b6	0.033676825
76	0xbe4447b5	-0.19167979
77	0x3d9bfdcc	0.07616767
78	0xbe85fc2c	-0.26168954
79	0x3e90336e	0.28164238
80	0xbe97e2fd	-0.29665366
81	0x3d032d75	0.032025773
82	0xbd574dea	-0.05256454
83	0x3dc248b2	0.09486522
84	0xbd33be43	-0.04388262
85	0xbe61a39b	-0.22035067
86	0x3ebe485d	0.37164584
87	0x3e0f0aa2	0.139689
88	0x3e4711a6	0.19440326
89	0xbe624281	-0.22095682
90	0x3d80f1c4	0.06296113
91	0xbe5a81b2	-0.21338537
92	0xbd6cff18	-0.057860464
93	0x3d9ecd90	0.07754052
94	0xbe36338e	-0.17793104
95	0x3c33480b	0.010942469
96	0x3e629fb3	0.22131233
97	0x3d05583e	0.032554857
98	0xbd95754b	-0.072977625
99	0x3e58876d	0.21145411
100	0xbe15883c	-0.1460275
101	0x3e85b44a	0.26114112
102	0xbeb4c091	-0.35303167
103	0x3e8f4382	0.27981192
104	0x3dd1c097	0.10241812
105	0xbe950262	-0.2910338
106	0x3e25bfbc	0.16186422
107	0x3dc08072	0.09399499
108	0xbe6f6be3	-0.23381
109	0x3e9f4748	0.3110907
110	0x3e0c2d7c	0.13689226
111	0x3e9c2a85	0.3050119
112	0xbe160249	-0.14649309
113	0xbd79e7e3	-0.06101216
114	0xbe97b385	-0.2962915
115	0xbe74a9c8	-0.23892891
116	0xbe17cffe	-0.14825436
117	0x3e984031	0.29736474
118	0x3e960c91	0.29306462
119	0x3e860c88	0.26181436
120	0xbd372446	-0.044712327
121	0xbcb26d11	-0.021780523
122	0xbd810049	-0.062988825
123	0x3e8768fb	0.2644728
124	0xbe32a0fe	-0.17444226
125	0x3cc4b0a7	0.024010016
126	0xbd8545d1	-0.06507457
127	0xbeb219b9	-0.3478525
128	0x3d0e2849	0.034706388
129	0x3e506e87	0.20354663
130	0xbe1c5434	-0.15266496
131	0xbdb1d02c	-0.08682284
132	0xbdbcf681	-0.092267044
133	0xbe4b02af	-0.19825242
134	0x3db1d8a8	0.08683902
135	0x3cf45b93	0.029828822
136	0xbe73d006	-0.23809823
137	0xbe5cac75	-0.21550162
138	0x3e5ac3e3	0.21363787
139	0xbdbd8cec	-0.09255394
140	0x3e99a713	0.3001028
141	0xbd696a5d	-0.0569862
142	0x3e982729	0.29717377
143	0xbe4d4aa0	-0.20047998
144	0xbe834ee9	-0.2564614
145	0xbe85d253	-0.26137027
146	0x3e2ad2a9	0.16681923
147	0x3e0c7c9b	0.13719408
148	0x3e00a663	0.12563471
149	0xbe882290	-0.2658887
150	0xbe872542	-0.26395613
151	0x3d83ff19	0.064451404
152	0x3d9b828e	0.07593261
153	0xbe87ed59	-0.2654827
154	0x3e852032	0.26001126
155	0xbe45090b	-0.19241731
156	0x3dd31856	0.10307376
157	0x3e8cd265	0.27504268
158	0x3ea515ba	0.3224314
159	0x3e5efd4a	0.2177631
160	0xbe835f2b	-0.25658545
161	0xbe8b27e3	-0.2717887
162	0xbe3bdec7	-0.18346702
163	0xbe1fc040	-0.15600681
164	0x3e8681ac	0.26270807
165	0xbd34d166	-0.04414501
166	0xbec1fc7c	-0.37887943
167	0x3e06620c	0.1312334
168	0x3c93946e	0.018015113
169	0xbe579d58	-0.21056116
170	0xbe1cc9f6	-0.15311417
171	0x3edf0291	0.43556646
172	0xbe71f62c	-0.23629063
173	0x3e68e1eb	0.22742431
174	0xbe801f8f	-0.25024077
175	0x3eb06b2f	0.34456775
176	0x3e8b8b37	0.2725465
177	0x3e849695	0.25896135
178	0x3e8ed037	0.2789323
179	0x3e9a635d	0.30153933
180	0xbd6162ea	-0.055025972
181	0xbe6be877	-0.23037897
182	0xbd805ebd	-0.0626807
183	0xbeb7e176	-0.359142
184	0x3db88480	0.09009647
185	0x3e3abb94	0.18235618
186	0xbe758dfe	-0.23979947
187	0x3e15f46f	0.14644025
188	0x3e5c4036	0.2150887
189	0xbd9bbdf8	-0.07604593
190	0xbe48365b	-0.19551985
191	0xbdea4823	-0.1143954
192	0xbd8f04ed	-0.069833614
193	0xbe88e9df	-0.2674093
194	0x3daaf748	0.083479464
195	0xbe8efa44	-0.27925313
196	0x3d71d771	0.05904335
197	0x3d886a12	0.06660856
198	0xbea06be9	-0.3133233
199	0x3e7c2c32	0.24626234
200	0x3e4c2148	0.19934571
201	0xbe48ab21	-0.1959653
202	0xbcbe302e	-0.023216333
203	0x3d8d553e	0.06901024
204	0x3e559d94	0.20860893
205	0x3e0c5587	0.13704501
206	0xbdbba989	-0.09163196
207	0xbd4e6462	-0.0503887
208	0xbcb69db9	-0.022292005
209	0xbd0e4308	-0.034731895
210	0x3e9b8c84	0.30380642
211	0x3e9a398e	0.30122036
212	0x3d55d0d6	0.052201115
213	0x3e84995f	0.25898263
214	0x3e2189c1	0.15775205
215	0x3ea2422c	0.3169111
216	0x3e4dd3ac	0.20100278
217	0x3e2401fb	0.1601638
218	0x3e75a797	0.23989712
219	0xbea4ecf4	-0.3221203
220	0x3e842cad	0.25815335
221	0x3e47500d	0.1946413
222	0x3e88be9d	0.26707926
223	0x3e0f1ee5	0.13976629
224	0xbdc8e1a9	-0.09808666
225	0xbe452c9c	-0.19255298
226	0x3d230f21	0.03980935
227	0xbe58392e	-0.21115562
228	0x3ea4c419	0.3218086
229	0x3e0c1bb9	0.1368245
230	0x3e89f5e1	0.26945403
231	0x3e0c58d8	0.13705766
232	0x3e0eb87a	0.1393756
233	0xbe80d380	-0.25161362
234	0x3d8db6f8	0.06919664
235	0xbe179ab2	-0.14805105
236	0x3dab747e	0.083718285
237	0x3e309e41	0.17247869
238	0xbdfa6870	-0.12226951
239	0xbe4f722d	-0.20258398
240	0xbd90e29d	-0.07074473
241	0xbd8fca3f	-0.07020997
242	0xbe7a7e35	-0.24462207
243	0xbe641def	-0.22277044
244	0xbe5e81d0	-0.21729207
245	0x3c9fef9d	0.019523436
246	0xbcc29d7a	-0.023756731
247	0xbe106730	-0.14101863
248	0x3e24b58e	0.16084883
249	0xbe26d5f2	-0.16292551
250	0xbe4ea537	-0.20180212
251	0xbd03d9b4	-0.03219004
252	0x3ddcaef0	0.10775554
253	0x3e8f2060	0.27954388
254	0x3db0d2c1	0.08633948
255	0x3d86d790	0.06584084

fc2.weight f4 [256, 256]
0	0xbd772dac	-0.06034629
1	0x3ca470b4	0.020073272
2	0x3d41dfa2	0.047332413
3	0xbce98308	-0.028504863
4	0xbd765f4e	-0.060149483
5	0xbb5f97e0	-0.0034117624
6	0x3bc61d00	0.0060459375
7	0xbcabc484	-0.02096773
8	0x3cbab220	0.022790015
9	0x3c84d474	0.016214587
10	0x3c45e818	0.012079261
11	0x3d725f88	0.059173137
12	0x3d6dce48	0.058058053
13	0x3d3cf4e8	0.046132
14	0xbd6af0ac	-0.05735843
15	0xbd79126a	-0.060808577
16	0xbc2cdf50	-0.010551289
17	0x3d2efa28	0.042719036
18	0xbd5c0b46	-0.05372169
19	0xbd77305e	-0.06034886
20	0x3d3cdbea	0.046108164
21	0x3b92fdc0	0.0044858158
22	0xbd44a092	-0.048004694
23	0xbd0c03de	-0.034183376
24	0xbbf03a50	-0.00733117
25	0xbd5e170c	-0.054221198
26	0x3d58daf8	0.0529432
27	0x3d50aa14	0.05094345
28	0xbce7d9e4	-0.02830214
29	0xbd1ece3c	-0.0387709
30	0xbd0f20f8	-0.03494355
31	0xbcb78a24	-0.022404738
32	0x3d7fd12c	0.06245534
33	0x3cc8cafc	0.024510853
34	0xbd26e582	-0.04074622
35	0x3d5da8f2	0.054116197
36	0x3bb0ec30	0.0053992495
37	0xbcd92070	-0.026504725
38	0xbd3c8a20	-0.046030164
39	0xbb7b07c0	-0.003830418
40	0xbcb165b8	-0.021654949
41	0x3d120b96	0.03565558
42	0xbce02178	-0.02735971
43	0xbcd9454c	-0.026522301
44	0x3d41ebaa	0.047343887
45	0x3d2b44e6	0.041813754
46	0xbd2eb002	-0.042648323
47	0x3d7ef1ac	0.062242195
48	0x3cf315d0	0.029673487
49	0xbcc7ec98	-0.024404809
50	0x3cb34fdc	0.021888666
51	0xbd6e0b9a	-0.058116533
52	0x3c9e6b60	0.01933831
53	0x3d6b70b4	0.05748053
54	0xbd7bb866	-0.061455153
55	0x3d7f05dc	0.062261447
56	0xbd20dc7e	-0.039272778
57	0x3bfe0cb0	0.0077529773
58	0xbd0156fa	-0.031577088
59	0xbd1a5f66	-0.037688635
60	0x3d0b72d2	0.034045048
61	0x3d2abcc0	0.041683912
62	0xbcdb8870	-0.026798457
63	0x3cb6c464	0.022310443
64	0xbd561186	-0.052262805
65	0xbd685310	-0.05671984
66	0xbd072236	-0.03299161
67	0xbd3425ee	-0.043981485
68	0xbceada84	-0.02866865
69	0x3aff42c0	0.0019474849
70	0x3baebf40	0.0053328574
71	0x3ceabd48	0.02865471
72	0xbcb77bd0	-0.022397906
73	0x3d08a98a	0.03336481
74	0xbc40c2a0	-0.011765152
75	0xbbe67d30	-0.0070339665
76	0x3ca1fe88	0.01977469
77	0xbd4591f0	-0.04823488
78	0xbc7d8af8	-0.015475027
79	0xbcff5e28	-0.031172827
80	0x3c899048	0.016792431
81	0x3d368b74	0.044566587
82	0xbb86c830	-0.0041132197
83	0x3c2dfe20	0.01061967
84	0x3bc8c600	0.006127119
85	0x3d5f837c	0.054568753
86	0xbd32208e	-0.043488078
87	0x3b038940	0.002007082
88	0xbd071b10	-0.032984793
89	0xbd3a7298	-0.04551944
90	0x3d10dd64	0.035367385
91	0xbd36720e	-0.044542365
92	0x3cc23878	0.023708567
93	0x3c974e50	0.01846996
94	0xbc16ce50	-0.009204462
95	0x3c690250	0.014221743
96	0xbd76ea1a	-0.06028185
97	0xbd4777ec	-0.04869835
98	0xbd5472dc	-0.05186735
99	0xbd60573a	-0.054770686
100	0x3d286f38	0.04112169
101	0xbccad118	-0.024757907
102	0x3bbf77e0	0.0058431476
103	0x3c329b98	0.010901354
104	0x3d183622	0.037161
105	0x3d58dbdc	0.05294405
106	0xbaab9e40	-0.0013093427
107	0x3d6e6986	0.058206104
108	0xbc94914c	-0.01813569
109	0xbd539d9e	-0.051663987
110	0x3d09da50	0.033655465
111	0x3d60a712	0.05484683
112	0xbd5e8ee6	-0.054335497
113	0xbc156778	-0.009118907
114	0xbbec4700	-0.0072106123
115	0xbc503b18	-0.012709402
116	0xbd740b7a	-0.059581257
117	0xbc5c4138	-0.013443284
118	0x3d58b46a	0.05290643
119	0xbc733168	-0.014843322
120	0xbd7f7d62	-0.062375434
121	0xbd7b451a	-0.061345197
122	0xb9a8f000	-0.0003222227
123	0x3d55c35c	0.052188262
124	0xbc24e8c0	-0.010065258
125	0x3d70b39a	0.05876503
126	0x3d1033f8	0.03520581
127	0x3d283c82	0.04107333
128	0x3d303f70	0.04302925
129	0x3d365aba	0.044520117
130	0xbd60d116	-0.0548869
131	0x3d233018	0.039840788
132	0xbca108bc	-0.019657485
133	0x3d757ffc	0.05993651
134	0x3c288a78	0.01028692
135	0x3d13d2bc	0.036089644
136	0xbd0bb4a6	-0.034107827
137	0x3ce9f418	0.028558776
138	0x3adb2ec0	0.0016722307
139	0x3d537448	0.051624566
140	0x3d3284dc	0.043583736
141	0xbcc38884	-0.023868807
142	0x3cf3bdc8	0.02975358
143	0xbd05ead0	-0.032694638
144	0xbce54ef4	-0.02799175
145	0xbd4d5b84	-0.050136104
146	0xbb5d9f60	-0.0033816919
147	0xbd210794	-0.039313868
148	0xbc83c238	-0.016083822
149	0x3c9294d8	0.01789324
150	0x3d7d7898	0.061882585
151	0xbd45884e	-0.048225693
152	0xbd41b652	-0.047293015
153	0xbd40bc8e	-0.04705482
154	0x3d2d59c8	0.04232195
155	0xbc8e8fd0	-0.01740256
156	0xbd71024e	-0.05884009
157	0xbcbb4bd8	-0.022863314
158	0xbd0dd284	-0.03462459
159	0xbd405db0	-0.046964347
160	0xbbc84870	-0.006112151
161	0xbc123900	-0.008924723
162	0x3d3b7a2c	0.04577081
163	0xbd2270f6	-0.03965851
164	0x3cae04c8	0.021242514
165	0x3cb183e8	0.021669343
166	0xbc052070	-0.0081254095
167	0x3b1e6b80	0.0024172962
168	0xbd6d05fe	-0.057867043
169	0xbd389acc	-0.0450695
170	0x39f83400	0.0004734099
171	0xbc1cdaf8	-0.009573691
172	0xbac88ec0	-0.0015301332
173	0xbd1752c2	-0.03694416
174	0x3ca05b00	0.019574642
175	0xbd072794	-0.03299673
176	0xbc571550	-0.01312764
177	0x3d028840	0.03186822
178	0x3ce5d268	0.028054431
179	0xbd16f1fc	-0.036851868
180	0xbd394a06	-0.04523661
181	0x3d368c52	0.044567414
182	0xbd6a0854	-0.05713685
183	0x3d168478	0.036747426
184	0x3d3af0c8	0.045639783
185	0xbcc38284	-0.023865946
186	0x3d65f9e6	0.056146525
187	0xbca1d608	-0.019755378
188	0x3ca7e080	0.020492792
189	0xbcbdf010	-0.02318576
190	0x3b3a3ca0	0.0028417483
191	0xbcb4abbc	-0.022054546
192	0xbc6728f0	-0.014108881
193	0xbc84bbd8	-0.016202852
194	0xbd08fc68	-0.03344384
195	0xbd44db04	-0.048060432
196	0xbd7e298c	-0.06205134
197	0xbc7d4520	-0.015458375
198	0x3c830fe4	0.015998788
199	0xbd45cc0c	-0.048290297
200	0x3d638c60	0.055553794
201	0x3d4c4ee6	0.04987993
202	0xbd6ca27c	-0.057772145
203	0x3b9395f0	0.004503958
204	0xbd484f62	-0.04890383
205	0x3b43f880	0.0029902756
206	0xbd025662	-0.031820662
207	0x3d6aa5b0	0.05728692
208	0xbd336e80	-0.043806553
209	0x3d436b7e	0.047709934
210	0x3c7159c0	0.014730871
211	0x3bc38d80	0.005967796
212	0xbc809cac	-0.015699707
213	0xbc7f6ef0	-0.015590414
214	0xbb6fb080	-0.0036573708
215	0xbcf0be68	-0.029387668
216	0xbca9fa90	-0.02074936
217	0xbbb066c0	-0.0053833425
218	0x3b941690	0.004519291
219	0x3b2fed60	0.0026844367
220	0xbd6f0674	-0.058355764
221	0xbcc189e4	-0.023625322
222	0xbd6f7cf0	-0.05846876
223	0x3700c000	7.674098e-06
224	0xbd63d5c6	-0.055623792
225	0xbc79ea50	-0.015253618
226	0xbbcf2040	-0.006320983
227	0xbc133fa0	-0.008987337
228	0xbd668552	-0.056279488
229	0x3d707682	0.058706768
230	0x3cb5b918	0.022182986
231	0xbb0b1220	-0.002122052
232	0x3d15eeb0	0.036604583
233	0xbc1df800	-0.009641647
234	0xbd5f4d98	-0.05451736
235	0x3d2938a2	0.041313775
236	0x3c70ab50	0.014689282
237	0xbd08df70	-0.03341621
238	0xbbcb3da0	-0.0062024146
239	0x3d545ac0	0.05184436
240	0xbcc02cf4	-0.023458935
241	0xbd75dc78	-0.06002471
242	0x3cef65f4	0.02922342
243	0x3c3949a0	0.0113090575
244	0x3d643acc	0.055720136
245	0x3d621ea6	0.05520501
246	0xbd6d5bd6	-0.05794891
247	0xbcf7a09c	-0.030227952
248	0xbc3faf80	-0.011699557
249	0xbca748a0	-0.020420372
250	0xbd6a0676	-0.057135068
251	0xbcde2744	-0.027118333
252	0xbc8435e8	-0.016138986
253	0xbc9ae62c	-0.018908583
254	0xbbdf8580	-0.0068213344
255	0xbcdecf44	-0.027198441

fc2.bias f4 [256]
0	0x3cc89bc4	0.024488337
1	0x3de63ea2	0.11242415
2	0x3baa8a98	0.00520451
3	0xbd2b87a0	-0.04187739
4	0xbd687e84	-0.05676128
5	0xbcc1f6fb	-0.02367734
6	0xbd3494be	-0.044087164
7	0x3d0d13e5	0.0344428
8	0xbcca8502	-0.024721626
9	0xbd246808	-0.040138274
10	0xbd3c8d80	-0.046033382
11	0xbbe357f3	-0.0069379746
12	0x3e363bd9	0.17796268
13	0x3c639511	0.013890521
14	0x3d86ae0a	0.06576164
15	0xbc9676b9	-0.018367158
16	0x3c546b01	0.012964965
17	0xbd81fe4b	-0.06347331
18	0xbc5697a5	-0.013097678
19	0xbb38f890	-0.0028224327
20	0xbbd7b1fe	-0.0065824976
21	0x3d402f7f	0.046920296
22	0x3d29608d	0.041351844
23	0x3d581821	0.052757386
24	0xbd662f1a	-0.056197263
25	0xba754704	-0.00093565905
26	0xbd6695c3	-0.056295168
27	0x3dda5da6	0.10662393
28	0xbd4910ec	-0.049088404
29	0xbd8347b6	-0.06410162
30	0x3d40161c	0.046896085
31	0x3d6c9ba0	0.057765603
32	0x3caa82f8	0.020814404
33	0x3d513726	0.051077984
34	0xbcd05cf4	-0.025434949
35	0xbd278deb	-0.040906828
36	0x3d97784f	0.07395994
37	0xbdc5a2ba	-0.09650178
38	0x3ce3d4d7	0.02781145
39	0x3d8474e1	0.064676054
40	0x3cc7b63c	0.024378888
41	0xbd343b6d	-0.044001985
42	0x3be81aaf	0.007083259
43	0x3ce8f4b8	0.028437003
44	0x3c97360b	0.018458387
45	0x3ce57438	0.028009519
46	0xbccf9045	-0.025337348
47	0xbc5f1cd9	-0.013617718
48	0xbd0e5b30	-0.034754932
49	0x3dd5c9b0	0.104388595
50	0x3d94faa8	0.072743714
51	0xbd779e2c	-0.06045358
52	0x3caf26e4	0.02138085
53	0x3c7c390c	0.01539446
54	0xbd92a9a2	-0.07161261
55	0x3d45d18c	0.048295543
56	0x3c8c450b	0.017122766
57	0xbd93330a	-0.07187469
58	0xbd0cf916	-0.034417234
59	0x3c347c50	0.011015967
60	0xbcbee961	-0.023304643
61	0xbd2b51db	-0.04182611
62	0x3d3a4beb	0.045482557
63	0xbd49269f	-0.049109098
64	0x3bf7c023	0.0075607463
65	0x3bfc30a8	0.00769623
66	0xbcd11357	-0.025521917
67	0x3d510da5	0.051038403
68	0x3e2ae765	0.16689833
69	0x3db2f567	0.08738213
70	0x3d210846	0.03931453
71	0x3abf4927	0.0014593945
72	0x3d1e349b	0.038624387
73	0xbd80c6c8	-0.062879145
74	0x3d34b9d0	0.044122517
75	0xbd86a2a7	-0.06573992
76	0x3cc5a792	0.024127755
77	0xbd405b6a	-0.04696218
78	0xbce144a1	-0.027498545
79	0xbafe1a76	-0.0019386548
80	0x3cdd3037	0.02700053
81	0x3c8d944a	0.017282624
82	0xbd830f6f	-0.06399428
83	0xbd537114	-0.05162151
84	0xbb784394	-0.0037882077
85	0x3d01f391	0.031726424
86	0x3e2a3383	0.16621213
87	0x3d4c14f2	0.049824663
88	0x3a76b741	0.0009411462
89	0x3c693c65	0.014235591
90	0xbc00ecbe	-0.007868944
91	0xbd46c7cc	-0.048530385
92	0x3d4f4a80	0.050608158
93	0x3d44be1c	0.048032865
94	0x3b82e767	0.0039948705
95	0x3d059ad6	0.032618366
96	0xbd5769cb	-0.052591126
97	0x3d301494	0.042988375
98	0x3c1e106d	0.009647471
99	0x3d0ec0d3	0.03485186
100	0x3a492ac4	0.0007673914
101	0xbd31f70c	-0.043448493
102	0x3d1e6b48	0.03867653
103	0xbdc75fb3	-0.0973505
104	0x3e45e41e	0.19325301
105	0xbd960417	-0.07324999
106	0x3cec456f	0.028841702
107	0x3d7ac0e4	0.06121911
108	0xbcd57da3	-0.026060885
109	0xbb1069fd	-0.002203583
110	0xbb1b46ab	-0.0023693244
111	0x3d838874	0.06422511
112	0xbb9f9e7b	-0.0048711873
113	0x3c4b9de8	0.0124277845
114	0xbcd44433	-0.025911426
115	0x3cc962f7	0.024583323
116	0x3d476e5d	0.048689235
117	0xbd815e39	-0.063168
118	0x3e1a397f	0.15060996
119	0x3d741420	0.059589505
120	0xbd41d65d	-0.047323573
121	0xbccefe55	-0.02526776
122	0xbcdbac97	-0.026815696
123	0xbd4730c0	-0.048630476
124	0xbb4fd564	-0.0031712884
125	0xbd1da901	-0.038491253
126	0x3d327dfa	0.04357717
127	0x3deb1a7b	0.1147966
128	0x3d5de8bd	0.054177035
129	0x3d87d58c	0.06632528
130	0xbc5cdd42	-0.013480486
131	0xbcc09f77	-0.023513539
132	0xbd978aa1	-0.07399488
133	0x3d666f3b	0.05625842
134	0xbc79a6d1	-0.015237526
135	0x3cd5feb1	0.026122423
136	0x3d0856b0	0.033285797
137	0x3c9970ff	0.018730639
138	0x3accacc6	0.0015615455
139	0xbcec8620	-0.02887255
140	0xbd14dfab	-0.03634612
141	0xbbcef652	-0.0063159848
142	0x3c6a5114	0.014301557
143	0x3d0bc61f	0.03412449
144	0x3cff6c77	0.03117965
145	0xbd362af6	-0.044474564
146	0x3cdecf83	0.027198559
147	0x3b828650	0.0039832965
148	0xbd5e485a	-0.05426822
149	0x3bc91fa9	0.0061378074
150	0x3d287aa8	0.0411326
151	0x3e141701	0.144619
152	0xbd263983	-0.04058219
153	0xbd0a731a	-0.033801176
154	0xbcddca72	-0.027074073
155	0x3d5a669d	0.053320516
156	0xbd7853e0	-0.060626864
157	0x3a9ab125	0.0011802061
158	0x3d1f5c76	0.038906537
159	0xbd4107f4	-0.047126725
160	0x3d587f88	0.052856
161	0xbda2251c	-0.07917234
162	0x3c4f4b65	0.012652253
163	0xbbefd933	-0.0073195933
164	0xbba5aebf	-0.0050562317
165	0xbd448723	-0.04798044
166	0x3d22d0f6	0.039750062
167	0xbd0d780e	-0.03453832
168	0xbd365493	-0.04451425
169	0xbd763d7b	-0.060117226
170	0x3dddf2a6	0.10837297
171	0xbc63cf26	-0.0139043685
172	0xba34571e	-0.00068794366
173	0xbc35b0b7	-0.011089495
174	0xbce53b2e	-0.02798232
175	0x3d18d223	0.037309777
176	0xbd087eff	-0.033324238
177	0x3d2f637b	0.04281948
178	0xbd083822	-0.033256657
179	0xbd452900	-0.048134804
180	0xbd5bdd84	-0.05367805
181	0xbd868b78	-0.0656957
182	0xbdd869d7	-0.10567062
183	0xbd3d765b	-0.04625545
184	0xbd66820e	-0.056276374
185	0xbd60267c	-0.0547242
186	0x3d5a002d	0.053222824
187	0x3d6901da	0.05688653
188	0x3dddae8d	0.108243085
189	0xbd051b0c	-0.032496497
190	0xbb6b6cd8	-0.003592303
191	0x3bb5e7d4	0.0055513177
192	0xbdd2d11b	-0.1029379
193	0x3d8f10ac	0.06985602
194	0x3b76499e	0.00375805
195	0x3cc2e510	0.023790866
196	0x3cb974ea	0.022638757
197	0x3ba5d1f8	0.0050604306
198	0x3d39cbf6	0.045360528
199	0x3d7e4c45	0.062084455
200	0x3d21f403	0.03953935
201	0x3cc9558e	0.024576928
202	0x3c3be30b	0.0114677055
203	0xbd3bdfcf	-0.045867737
204	0xbc306d93	-0.010768312
205	0x3c939432	0.018015001
206	0xbd2dd036	-0.042434894
207	0xbc992e7a	-0.01869892
208	0x3cc9aea3	0.024619406
209	0xbc5c728d	-0.013455045
210	0x3c52e150	0.0128711015
211	0x3d8fd6cb	0.070233904
212	0xbd870eb9	-0.06594605
213	0x3c200e45	0.009769027
214	0xbb7979e7	-0.0038067044
215	0x3c3b1b38	0.011420064
216	0xbd7f18d7	-0.06227955
217	0x3d142a14	0.03617294
218	0xbca01816	-0.019542735
219	0xbcd64f42	-0.02616084
220	0x3d979840	0.07402086
221	0xbd0b5850	-0.03401977
222	0xbd76aefc	-0.06022547
223	0x3ccb7db7	0.024840219
224	0x3b522920	0.003206797
225	0xbd3a200d	-0.045440722
226	0x3d0126f8	0.031531304
227	0xbc91a82b	-0.017780384
228	0xbd5934cc	-0.053028867
229	0x3d786e55	0.060652096
230	0xbd65de80	-0.056120396
231	0xbbb1fe26	-0.005431908
232	0xbd8b98b0	-0.06816232
233	0xbd98d159	-0.07461805
234	0xbcdbf892	-0.026851926
235	0xbcc42f3a	-0.0239483
236	0x3c020ede	0.007938115
237	0xbbabcf94	-0.005243251
238	0x3d9854a5	0.0743802
239	0xbda5e273	-0.080998324
240	0x3d4fe15e	0.050752036
241	0x3d999c4b	0.07500514
242	0xbdafc541	-0.08582545
243	0xbd7a2c21	-0.06107724
244	0xbcc97225	-0.024590561
245	0xbd118c23	-0.035534035
246	0x3cef2f5e	0.029197391
247	0xbcd93d18	-0.02651839
248	0x3d8ed475	0.06974117
249	0xbd007e3d	-0.03137039
250	0x3e26b37d	0.16279407
251	0x3cf6c6ec	0.03012415
252	0x3cb15012	0.021644626
253	0xbd6b140c	-0.057392165
254	0xbca4a97b	-0.020100346
255	0xbcde1b53	-0.027112639

fc3.weight f4 [128, 256]
0	0xbb83b530	-0.004019402
1	0xbd389313	-0.045062136
2	0x3e326d8b	0.174246
3	0x3c503a93	0.012709278
4	0xbd0ec87a	-0.034859158
5	0x3d2d2488	0.042271167
6	0xbd346028	-0.044037014
7	0x3d50f26f	0.051012453
8	0xbd51442a	-0.051090397
9	0xbd30f2fe	-0.043200485
10	0x3e054127	0.13013135
11	0xbcb60565	-0.02221937
12	0x3ddfd01c	0.109283656
13	0xbd567d17	-0.05236539
14	0x3cd51f6e	0.026015963
15	0x3e521e85	0.20519455
16	0x3e151837	0.14560018
17	0x3d853dda	0.06505938
18	0xbd0fc796	-0.03510245
19	0x3d626891	0.055275504
20	0xbd553f8e	-0.052062564
21	0x3e0a526a	0.13508001
22	0xbd8d5465	-0.069008626
23	0x3dec0bd3	0.11525693
24	0x3cd28b84	0.025701292
25	0x3d7c5036	0.061599933
26	0x3e36f32c	0.178662
27	0xbc572749	-0.013131925
28	0x3b5c8b06	0.00336522
29	0x3b5d446c	0.0033762706
30	0x3e175315	0.14777787
31	0x3dbb361d	0.09141181
32	0xbbcf8ea1	-0.0063341414
33	0x3c80c517	0.01571898
34	0x3dfbfd31	0.12304152
35	0x3d3caf28	0.04606548
36	0x3e19be7a	0.15014067
37	0xbd9bc8dc	-0.0760667
38	0x3d6f6827	0.058448937
39	0x3d490ab4	0.049082473
40	0xbbbb7bad	-0.0057215304
41	0xbd7c5da9	-0.06161276
42	0x38b81dfe	8.77939e-05
43	0x3b9bdadf	0.004756316
44	0x3df32cb6	0.11873762
45	0x3ca43800	0.020046234
46	0xbd1bce7f	-0.038038727
47	0xbcf4f4af	-0.02990183
48	0x3e823e56	0.25438184
49	0x3c42ace1	0.011882038
50	0x3ba0a3c7	0.0049023363
51	0x3e1ad01d	0.15118451
52	0x3dc3a671	0.095532306
53	0x3d17c7fe	0.03705596
54	0x3db86d13	0.09005179
55	0xbcc9f43c	-0.024652593
56	0xbce522a7	-0.027970625
57	0x3e200cce	0.15629885
58	0x3d802019	0.06256122
59	0x3cfcbb1e	0.030850943
60	0x3cc307da	0.023807455
61	0x3daae516	0.08344476
62	0x3ddfdc73	0.10930719
63	0x3cadcb77	0.021215184
64	0x3e09e6fa	0.13467017
65	0x3da653d8	0.08121461
66	0x3cfa4f70	0.030555457
67	0x3d4ec88d	0.05048423
68	0x3d746f7d	0.059676636
69	0xbd3044d2	-0.043034382
70	0x3e3c1442	0.18367103
71	0x3d4d1758	0.05007109
72	0x3d2f4bca	0.042796887
73	0xbb8d93da	-0.004320604
74	0xbb498ec4	-0.003075526
75	0xbd05c563	-0.032658946
76	0x3e4508e1	0.19241668
77	0x3d12b66a	0.035818495
78	0x3d541795	0.051780302
79	0x3e23a35e	0.15980288
80	0x3ccffefb	0.025390139
81	0x3d7f6907	0.06235602
82	0x3d770758	0.060309738
83	0x3d557798	0.052116007
84	0x3d6853d1	0.05672056
85	0xbd07f99f	-0.03319704
86	0xbd16435f	-0.036685344
87	0x3e06a014	0.13147002
88	0xbba6d4df	-0.005091294
89	0xbc91fa7b	-0.017819634
90	0xbcc6b1f7	-0.024254782
91	0x3ceb23fd	0.028703684
92	0xbd45f793	-0.04833181
93	0xbca70d67	-0.020392133
94	0x3e12c4de	0.14332911
95	0xbd0718b6	-0.03298255
96	0x3d1ed9a2	0.03878177
97	0x3d6d5133	0.057938766
98	0x3d7422e4	0.059603587
99	0x3e3ec8e4	0.18631321
100	0xbc0ea68f	-0.008706703
101	0x3d5b8652	0.053594895
102	0x3e451508	0.19246304
103	0x3e010ae4	0.1260181
104	0x3da5f52c	0.081034034
105	0xbc28dbc1	-0.0103063
106	0x3deb84b2	0.11499919
107	0x3df5930b	0.11990937
108	0xbd830546	-0.0639749
109	0xbd1a917e	-0.03773641
110	0x3d23a9fa	0.039957024
111	0x3daed61a	0.085369304
112	0x3caa0752	0.020755444
113	0xbd528e06	-0.051404975
114	0xbd796c8b	-0.06089453
115	0x3dbcb318	0.09213847
116	0xbd6d2b11	-0.0579024
117	0x3d02aa04	0.03190042
118	0xbd322ea5	-0.043501515
119	0x3db482f1	0.088140376
120	0xbd096b06	-0.03354933
121	0xbc0978ec	-0.008390646
122	0xbd100c98	-0.03516826
123	0xbd662aa6	-0.056193016
124	0x3d9ff2d3	0.07809987
125	0x3e89f4f3	0.26944694
126	0x3d132c36	0.035930835
127	0xbd2a041d	-0.04150783
128	0x3c1e7198	0.009670638
129	0x3c00ee3f	0.007869302
130	0x3c86668c	0.01640632
131	0xbe18deaf	-0.14928697
132	0x3d157226	0.036485814
133	0x3d41191c	0.047143087
134	0x3d443f4f	0.04791194
135	0x3e4cd5bd	0.2000341
136	0xbd614942	-0.055001505
137	0x3dc25baa	0.0949014
138	0x3d88e494	0.06684223
139	0x3c203fc8	0.009780832
140	0x3d6b3338	0.057421893
141	0x3d4f5312	0.05061633
142	0x3b68498b	0.0035444226
143	0xbd08bed9	-0.03338513
144	0xbd2f7010	-0.04283148
145	0x3e3d21b3	0.18469886
146	0xbb30b138	-0.00269611
147	0x3deafe0e	0.11474238
148	0xbcc5e524	-0.024157114
149	0x3d420ab1	0.047373477
150	0x3dc2ee47	0.09518104
151	0x3cc2c5d4	0.023775972
152	0x3b5963d9	0.0033171086
153	0xbc95dc6a	-0.018293578
154	0x3bd6e95e	0.0065585813
155	0x3e0328ef	0.12808584
156	0xbc60a407	-0.013710982
157	0x3e0d487c	0.13797182
158	0x3dc92a22	0.09822489
159	0xbc976fa7	-0.018485857
160	0x3e36bbed	0.17845125
161	0xbea75068	-0.32678533
162	0x3d68fd2a	0.05688206
163	0xbd48e937	-0.049050536
164	0x3b939eba	0.0045050057
165	0x3d86e675	0.06586925
166	0x3d74f4c3	0.059803735
167	0x3e46a21f	0.19397782
168	0xbd2dafad	-0.042403866
169	0x3d8364f0	0.06415737
170	0xbdb57ae9	-0.08861334
171	0x3d2bf0c8	0.041977674
172	0xbcc7f9ed	-0.024411166
173	0x3e780d8a	0.24223915
174	0xbd37eacd	-0.044901658
175	0x3d649e6e	0.055815153
176	0x3bd5da50	0.006526269
177	0x3cc52f56	0.024070423
178	0x3da40939	0.080095716
179	0x3c00f539	0.007870966
180	0x3db2da07	0.08732992
181	0xbc94083c	-0.018070333
182	0x3d36532d	0.044512916
183	0x3c9da8da	0.019245554
184	0xbcd1fdb7	-0.025633676
185	0x3d2a3721	0.04155648
186	0x3dba5d77	0.09099858
187	0x3d04f04d	0.03245573
188	0xbd294386	-0.04132416
189	0xbcce1cd7	-0.025160236
190	0x3dccb06f	0.099945895
191	0x3db2a3bb	0.08722635
192	0xbd994cad	-0.07485328
193	0x3d277202	0.04088021
194	0xbd2ab081	-0.041672233
195	0x3dc779d1	0.097400315
196	0xbb4bf09a	-0.0031118752
197	0x3e0bb43e	0.13642976
198	0x3d570a8e	0.0525003
199	0x3cba823f	0.022767184
200	0x3c183597	0.009290121
201	0x3d2cd91f	0.04219925
202	0xbce65604	-0.028117187
203	0x3e477c16	0.19480929
204	0x3df7f73e	0.121077046
205	0xbcac3cda	-0.02102511
206	0xbc9bc96f	-0.01901695
207	0x3e146bb9	0.14494218
208	0x3d25c023	0.04046644
209	0x3d65bb5e	0.05608689
210	0x3b4b1920	0.0030990317
211	0x3d026f77	0.031844582
212	0x3c999810	0.018749267
213	0x3c4ddcc5	0.012564843
214	0xbda5221c	-0.080631465
215	0x3dfc0c42	0.123070255
216	0x3c1dde49	0.009635516
217	0xbcf2891e	-0.029606398
218	0x3c94b43b	0.018152347
219	0x3e4a61a5	0.19763811
220	0x3df73a30	0.12071645
221	0x3cb3160c	0.021861099
222	0xbd6a12a6	-0.05714669
223	0x3cd501d8	0.026001856
224	0xbcb227e7	-0.021747543
225	0xbc0b46cc	-0.008500766
226	0xbe2612ba	-0.16218081
227	0x3bc88d85	0.006120386
228	0x3e10103d	0.14068694
229	0x3d8f61d1	0.07001079
230	0x3d774bce	0.060375027
231	0x3e09f1e9	0.13471188
232	0x3d8cfa2b	0.06883653
233	0x3e0d6f2d	0.13811941
234	0x3dbf92ec	0.09354195
235	0x3d9022e6	0.07037906
236	0x3c1fe3a9	0.009758868
237	0x3ddce1a8	0.10785228
238	0xbd3b7557	-0.0457662
239	0xbc614870	-0.013750181
240	0x3d251dcf	0.04031163
241	0x3d37795a	0.044793464
242	0x3d3d97f8	0.046287507
243	0xbd13886c	-0.036018774
244	0x3d6894a6	0.056782387
245	0x3cbeacb4	0.02327571
246	0x3e20d34a	0.157056
247	0x3e139e8e	0.14415953
248	0x3db37999	0.08763427
249	0x3dca72ce	0.098851785
250	0x3d2429f7	0.040079083
251	0xbcde274c	-0.027118348
252	0x3e05d5ec	0.13069886
253	0xbd73d82e	-0.059532337
254	0x3daf76ab	0.08567556
255	0x3cd01bf5	0.025403956

fc3.bias f4 [128]
0	0x3d5ed431	0.05440158
1	0xbc3a475e	-0.011369554
2	0xbdadc2c3	-0.084844135
3	0xbc890247	-0.016724719
4	0x3c8ffcf3	0.01757667
5	0x3d514430	0.05109042
6	0xbce5bbf9	-0.028043734
7	0x3d0d0b6b	0.034434717
8	0xba1fb8dc	-0.0006092915
9	0x3e867687	0.26262304
10	0xbd8f9beb	-0.07012161
11	0x3ca58f8b	0.020210048
12	0x3c21470b	0.009843598
13	0x3d28703d	0.041122664
14	0x3c8507d6	0.016239088
15	0xbd2a61e9	-0.04159728
16	0x3d5e0e2b	0.05421273
17	0xbd33a538	-0.043858737
18	0x3e29aa4a	0.16568866
19	0x3d691d31	0.056912605
20	0x3bbc19fb	0.005740402
21	0xbd40d3f3	-0.04707713
22	0x3d47f0bd	0.04881357
23	0xbc762bfc	-0.015025135
24	0xb9533776	-0.00020143189
25	0xb990ea63	-0.00027640452
26	0xbc989c0c	-0.018629096
27	0x3e0646b1	0.13112904
28	0x3d257972	0.040399022
29	0xbca63168	-0.02028723
30	0xba8d11d2	-0.0010762757
31	0xbcdb76e5	-0.026790092
32	0xbd444aea	-0.047923006
33	0x3a3d04de	0.0007210503
34	0x3d4ae132	0.04953117
35	0x3d0a52d3	0.033770394
36	0xbd481727	-0.048850205
37	0x3d462dae	0.048383407
38	0x3d5c8b81	0.05384398
39	0x3cd8ad2c	0.026449762
40	0xbd3169b7	-0.04331371
41	0x3d4bfeb3	0.049803447
42	0xbd653d40	-0.055966616
43	0xbd258354	-0.040408447
44	0x3dd198a7	0.10234194
45	0xbd3ffd32	-0.046872325
46	0xbcf17a04	-0.029477127
47	0xbd645c95	-0.055752356
48	0x3d2f82ff	0.042849537
49	0x3c8e9432	0.01740465
50	0xbd0627ac	-0.032752678
51	0x3c8737a4	0.016506024
52	0x3cb18206	0.021668445
53	0x3cf7b3eb	0.030237159
54	0x3d259665	0.04042663
55	0xbdac9f1c	-0.08428785
56	0x3dbf0d7b	0.09328743
57	0xbd422de9	-0.047407065
58	0xbd4fc09a	-0.05072079
59	0x3d7b9085	0.06141712
60	0x3cae1ee1	0.021254959
61	0xbd3b8552	-0.04578144
62	0x3ce332a0	0.0277341
63	0xbd4a2d1a	-0.04935942
64	0x3d5990e4	0.053116694
65	0x3d49be47	0.04925373
66	0xba96baa4	-0.0011499715
67	0xbbb18b96	-0.0054182513
68	0xbc5c02d5	-0.01342841
69	0x3d97857e	0.073985085
70	0x3ca078a6	0.01958878
71	0x3c1cde9e	0.00957456
72	0x3d7063e3	0.05868901
73	0xbcf5e1ad	-0.030014837
74	0x3d2a1e2e	0.041532688
75	0x3d305438	0.043049067
76	0x3ce38c41	0.02777684
77	0x3d657710	0.05602175
78	0xbcd05647	-0.025431765
79	0x3d60b78c	0.054862544
80	0x3e0066e7	0.12539254
81	0x3d0572b6	0.0325801
82	0x3c18d945	0.009329145
83	0x3d1ae914	0.037819937
84	0x3d34e4ab	0.044163387
85	0xbd072ecf	-0.033003625
86	0x3d9823c9	0.074287005
87	0x3bbb6cad	0.0057197423
88	0xbd0ef7ac	-0.034904167
89	0xbd247511	-0.040150706
90	0x3c7a45b6	0.015275409
91	0xbc312278	-0.010811441
92	0x3d576eae	0.052595787
93	0x3d929fdf	0.07159399
94	0xbc91d112	-0.017799888
95	0x3d59e214	0.05319412
96	0xbc855db5	-0.016280035
97	0xbd45ddef	-0.048307355
98	0x3c43a386	0.0119408425
99	0xbd83d883	-0.06437781
100	0xbd2c5b2a	-0.04207913
101	0x3defa2d6	0.1170098
102	0xbd3ad1e7	-0.045610335
103	0xbca3fe52	-0.02001873
104	0x3b7ab320	0.003825374
105	0x3cef8c65	0.02924175
106	0x3c16f908	0.009214647
107	0x3d4a9971	0.04946274
108	0xbd6f76a9	-0.058462773
109	0xbd32a53e	-0.04361462
110	0x3d3e58b6	0.04647132
111	0x3c32a52f	0.010903641
112	0xbc2e1e98	-0.010627411
113	0x3cd42a08	0.025898948
114	0xbd6871d5	-0.056749184
115	0xbd116a59	-0.03550181
116	0xbcf98115	-0.030457059
117	0x3cd338bc	0.025783889
118	0x3bdcd950	0.006739773
119	0x3dab6f28	0.08370811
120	0xbd3dcb9a	-0.046336748
121	0x3ce3147c	0.027719729
122	0x3da21752	0.07914604
123	0x3da15124	0.078768045
124	0x3d504cf3	0.050854634
125	0xbc4b0ef0	-0.012393698
126	0x3cc8ec7b	0.024526825
127	0x3e3783fb	0.1792144

fc4.weight f4 [5, 128]
0	0xbdf8559a	-0.12125702
1	0x3d546302	0.051852234
2	0xbd2bbfbb	-0.041930895
3	0xbd862d98	-0.06551665
4	0xbdaac643	-0.08338597
5	0xbded914e	-0.1159998
6	0xbd07b5a3	-0.033132207
7	0x3c351507	0.011052377
8	0xbd903b3b	-0.07042547
9	0x3f24fda9	0.64449555
10	0xbc10e79d	-0.008844283
11	0xbde8e5dc	-0.11371967
12	0x3da56887	0.08076578
13	0xbd37a898	-0.044838518
14	0x3d47a356	0.048739754
15	0xbe1ca4d6	-0.15297255
16	0xbdac4267	-0.08411103
17	0x3c4114a1	0.0117847035
18	0x3f05c3cd	0.52251893
19	0xbd4cb195	-0.049974043
20	0xbd2213d3	-0.039569687
21	0x3d4cb022	0.04997266
22	0xbd90b4f6	-0.070657656
23	0x3d8222b2	0.06354274
24	0xbe03b9d0	-0.1286385
25	0xbe0ab3e5	-0.13545187
26	0x3d485b82	0.048915394
27	0x3de91aca	0.11382063
28	0xbe2964bd	-0.16542335
29	0x3db44823	0.088028215
30	0xbe012594	-0.12611991
31	0x3dcc8d02	0.099878326
32	0x3cec93ec	0.028879128
33	0x3c9777f1	0.01848981
34	0xbde370ab	-0.11105474
35	0xbdbefa0f	-0.09325039
36	0xbe19543c	-0.14973539
37	0x3e7e5a41	0.24839117
38	0x3d0b5dfc	0.034025177
39	0xbe283559	-0.164266
40	0xbca94a73	-0.020665383
41	0xbe058529	-0.13039078
42	0x3cbce593	0.023058688
43	0x3da7069f	0.0815556
44	0xbe84ab23	-0.25911817
45	0x3da9d715	0.08292977
46	0x3d1872fe	0.03721904
47	0xbd559be9	-0.05215064
48	0x3d9e163d	0.07719085
49	0x3d74a46f	0.05972713
50	0xbd864ec5	-0.06557993
51	0xbde4f017	-0.11178606
52	0xbe14ff68	-0.14550555
53	0xbdd2811d	-0.10278533
54	0xbd8c30c0	-0.06845236
55	0xbe0e3f35	-0.13891299
56	0x3e17bc55	0.14817937
57	0xbd6587be	-0.056037657
58	0x3d8a6d1a	0.06759091
59	0xbe085014	-0.13311797
60	0x3a027d00	0.0004977733
61	0x3d4a1ce9	0.049343977
62	0xbdcab14e	-0.098970994
63	0xbd6a2a07	-0.057168987
64	0xbd0c6bd3	-0.034282517
65	0x3d827a23	0.06370952
66	0xbe2edfd8	-0.17077577
67	0x3d458142	0.048218973
68	0x3c8b13bc	0.016977184
69	0xbdd2d7eb	-0.10295089
70	0xbd5dfd89	-0.054196868
71	0x3d8e7c59	0.06957311
72	0xbd504d04	-0.050854698
73	0x3b08804e	0.0020828429
74	0xbe15bc5f	-0.14622639
75	0x3d31346c	0.043262884
76	0xbe22ebfe	-0.15910336
77	0xbd746520	-0.059666753
78	0xbd4c2301	-0.04983807
79	0x3e197692	0.14986637
80	0x3eb937df	0.3617544
81	0xb9a8c41c	-0.0003218957
82	0xbd88dbad	-0.06682525
83	0x3d3a0974	0.04541917
84	0xbdb5a228	-0.088688195
85	0xbce38216	-0.02777199
86	0x3e26e7b1	0.16299321
87	0xbdefc10c	-0.11706743
88	0xbda19ee9	-0.07891638
89	0x3cfb2922	0.030659262
90	0xbe2d614e	-0.1693165
91	0xbd07c20b	-0.03314404
92	0x3da0d5b6	0.07853262
93	0xbd99eff9	-0.07516474
94	0xbd783b80	-0.06060362
95	0x3e78f8be	0.24313638
96	0x3caeec47	0.0213529
97	0x3cbe8440	0.023256421
98	0xbc86cf47	-0.01645626
99	0xbd01e3a0	-0.03171122
100	0x3d5e0691	0.05420548
101	0x3e26f689	0.16304983
102	0xbb842f1c	-0.004033936
103	0x3da42012	0.080139294
104	0x3d3d4caa	0.04621569
105	0x3d53d005	0.051712055
106	0xbddf7b6d	-0.109122135
107	0xbde5d184	-0.112216026
108	0x3d43d9d7	0.04781517
109	0xbe1ebf18	-0.15502584
110	0xbdecc5cf	-0.115611665
111	0xbc9cb80c	-0.01913073
112	0xbe001766	-0.12508926
113	0x3d15210f	0.03640848
114	0x3cc33f10	0.023833781
115	0xbd827403	-0.06369784
116	0xbdb0b58b	-0.086283766
117	0x3cddd0a0	0.02707702
118	0xbe3bd705	-0.18343742
119	0x3e3b3abe	0.18284127
120	0xbbda6ab3	-0.0066655516
121	0xbd9157bc	-0.07096812
122	0x3e30078c	0.17190379
123	0x3e5a7dcc	0.2133705
124	0xbde5888a	-0.112076834
125	0xbd135694	-0.03597124
126	0x3d5ebedf	0.054381248
127	0x3efbfb2f	0.49215075
128	0xbdcc4753	-0.099745415
129	0x3dcb5717	0.099287204
130	0xbd8c5fae	-0.06854187
131	0xbdd39a28	-0.10332137
132	0xbdf4eed2	-0.11959614
133	0xbe0ee7ee	-0.13955662
134	0xbce15230	-0.02750501
135	0xbdb7e498	-0.08979148
136	0xbd9739e5	-0.073840894
137	0x3f19c388	0.6006398
138	0x3d073d7f	0.03301763
139	0x3b105298	0.0022021886
140	0xbc4d9e13	-0.012549895
141	0xbc1654c0	-0.009175479
142	0x3d9cb1a7	0.07651072
143	0xbe00a204	-0.12561804
144	0xbca86a10	-0.020558387
145	0xbb396c6b	-0.0028293382
146	0x3f0ce33a	0.5503422
147	0xbdd5b47a	-0.10434814
148	0xbca25425	-0.019815514
149	0xbd779f90	-0.060454905
150	0xbe330a0a	-0.17484298
151	0xbdbda72e	-0.092604026
152	0xbd9baa00	-0.07600784
153	0xbd1507e0	-0.036384463
154	0xbcaf1c84	-0.021375902
155	0x3e439d37	0.19102941
156	0xbdbafd99	-0.09130401
157	0xbb908350	-0.004410185
158	0xbe38895b	-0.18021147
159	0xbd3abc16	-0.04558953
160	0xbcecee40	-0.0289222
161	0xbdbb210f	-0.09137165
162	0xbe03e0e3	-0.12878756
163	0xbde76c14	-0.11299911
164	0xbe1ebf7a	-0.1550273
165	0x3e82da05	0.2555696
166	0x3d54b534	0.05193062
167	0xbe122861	-0.14273216
168	0x3d119ad8	0.03554806
169	0xbddbf816	-0.10740678
170	0x3d0b952e	0.034077816
171	0xbd33844f	-0.04382735
172	0xbe766cf9	-0.24065007
173	0x3d65f4a2	0.056141503
174	0xbd98259e	-0.0742905
175	0xbb181c0f	-0.0023210084
176	0x3d75be1b	0.05999575
177	0xbda34a9f	-0.07973217
178	0xbd70395c	-0.058648452
179	0xbd6fb17e	-0.05851888
180	0xbdeb3ec1	-0.11486579
181	0xbe4966ee	-0.19668171
182	0xbd42882a	-0.047493137
183	0xbcd58610	-0.026064903
184	0x3e3662e3	0.1781116
185	0xbe1888e7	-0.14895974
186	0x3d62b149	0.055344854
187	0xbe0fa1aa	-0.14026514
188	0x3d98cf84	0.074614555
189	0x3cfdadec	0.030966721
190	0xbe0eb01f	-0.13934372
191	0x3d9dd446	0.077065036
192	0xbe188b96	-0.14896998
193	0xbcd15047	-0.025550975
194	0xba54f748	-0.0008124006
195	0xbc80dc6b	-0.015730103
196	0x3d67eef4	0.056624368
197	0xbc0bbf93	-0.008529562
198	0x3d12e77d	0.035865296
199	0xbcc9b408	-0.024621978
200	0xbe416172	-0.18884829
201	0x3d0d0c46	0.034435533
202	0xbd64d378	-0.055865735
203	0x3d88641f	0.066597216
204	0xbda52bb5	-0.08064977
205	0xbe336e85	-0.17522629
206	0xbd18a10d	-0.037262965
207	0x3d1f1c4f	0.038845357
208	0x3eb27a39	0.34858873
209	0x3c779670	0.015111551
210	0xbcddcc19	-0.02707486
211	0x3d585cba	0.052822806
212	0xbd8acfbc	-0.067779034
213	0xbdfbbcac	-0.12291846
214	0x3e06c654	0.13161594
215	0xbe279b44	-0.16367823
216	0xbce7d755	-0.02830092
217	0xbd27c8ee	-0.040963106
218	0xbe2cd807	-0.16879283
219	0xbcdb08c6	-0.026737582
220	0x3cc0c1d4	0.023529924
221	0xbdcff198	-0.10153502
222	0x3d547e66	0.051878355
223	0x3e185e8d	0.14879818
224	0x39e3c5b3	0.0004344411
225	0x3da37ad1	0.0798241
226	0x3cd5c52e	0.026095
227	0x3c2d93dd	0.010594335
228	0x3d4fab21	0.05070031
229	0x3e462b7f	0.1935253
230	0xbd86645c	-0.06562111
231	0xbd1966ea	-0.037451662
232	0x3d8bf3e5	0.068336286
233	0xbd1b0c63	-0.03785361
234	0xbe17710a	-0.14789215
235	0xbde7ccf6	-0.1131839
236	0xbd0c2f55	-0.034224827
237	0xbe1f9f6d	-0.1558816
238	0xbe40f45e	-0.18843219
239	0xbdb507e2	-0.08839394
240	0xbe34d50c	-0.17659396
241	0x3bc5b62b	0.006033679
242	0xbd5741e4	-0.052553073
243	0xbde220a6	-0.110413834
244	0xbdf76214	-0.12079254
245	0xbd862a25	-0.06551007
246	0xbcfee904	-0.03111697
247	0x3e1a05a1	0.1504121
248	0x3d38176e	0.04494422
249	0x3d56e27a	0.05246208
250	0x3e633c5e	0.22190997
251	0x3e80474d	0.25054398
252	0xbd77bf12	-0.060484953
253	0xbd1b35f4	-0.03789325
254	0xbd9e0700	-0.07716179
255	0x3f057613	0.5213329

fc4.bias f4 [5]
0	0xbc91f759	-0.01781814
1	0x3d5f04d7	0.054447975
2	0x3ca0b586	0.019617807
3	0x3d6e02f9	0.058108304
4	0x3bc87152	0.0061170245
