models/lateral_stage1_seed5000_best.pth (torch, 411443 bytes, 8 tensors)

fc1.weight f4 [256, 9]
0	0x3e8602e2	0.26174074
1	0x3dc69ff2	0.09698476
2	0xbc269422	-0.010167154
3	0xbef89c8a	-0.4855693
4	0xbebb3a07	-0.3656771
5	0x3e0c3526	0.1369215
6	0x3e6a2026	0.22863826
7	0x3df89810	0.121383786
8	0x3db2068c	0.08692655
9	0x3e844164	0.2583114
10	0x3e8574bf	0.26065633
11	0x3c563d6c	0.013076168
12	0xbe59423a	-0.2121667
13	0x3e44d020	0.19220018
14	0xbf09c0bc	-0.53809714
15	0xbe803718	-0.25042033
16	0x3e45c3c6	0.19312963
17	0x3df1293b	0.11775442
18	0x3e8dd486	0.27701205
19	0xbda923d3	-0.08258786
20	0x3d9af5bf	0.075664036
21	0xbc617fa2	-0.01376334
22	0x3d74cbde	0.059764735
23	0x3f175e53	0.591283
24	0xbe53a1e0	-0.20667219
25	0xbe50da5e	-0.203958
26	0xbe82a8fc	-0.2551955
27	0x3ee5415a	0.44776422
28	0x3c430731	0.01190357
29	0xbabe861a	-0.0014535815
30	0xbecf5c22	-0.4049998
31	0xbeda2428	-0.4260571
32	0x3ea0e0be	0.31421465
33	0x3e876991	0.26447728
34	0xba89cc00	-0.0010513067
35	0x3cc92ee1	0.024558486
36	0xbe729694	-0.23690253
37	0x3dfbae13	0.122890614
38	0x3dc1589f	0.09440731
39	0x3e8dd6c9	0.2770293
40	0x3e5a1b04	0.21299368
41	0x3ec61dee	0.3869471
42	0x3e5deb8e	0.21671888
43	0x3ea3a591	0.31962255
44	0xbe8bc572	-0.27299076
45	0xbca44513	-0.020052468
46	0x3e689003	0.22711186
47	0x3eacb4b0	0.33731604
48	0x3d14893c	0.03626369
49	0xbeccbbda	-0.3998707
50	0xbe9bbaa0	-0.3041582
51	0x3e5588e2	0.20852998
52	0xbe4e90a3	-0.20172362
53	0x3e6ad631	0.2293327
54	0x3ea7953e	0.3273105
55	0x3e8ea7ed	0.27862492
56	0x3de3308b	0.11093243
57	0xbe9455b0	-0.28971624
58	0xbe3384cd	-0.17531128
59	0x3b33ed20	0.002745457
60	0xbe418b06	-0.1890069
61	0xbc6c9ee0	-0.014442176
62	0xbe77edc1	-0.2421179
63	0x3e492642	0.196435
64	0x3df7aac3	0.12093117
65	0x3e43b1b7	0.19110762
66	0x3dfde6f8	0.123975694
67	0x3eadfbc5	0.33981147
68	0x3f154f41	0.58324057
69	0x3d1e4e68	0.038648993
70	0x3e72e1ba	0.2371892
71	0xbdbf6f7a	-0.09347434
72	0x3d8ab605	0.06772999
73	0xbeb2c109	-0.349129
74	0xbdd6f8da	-0.104966834
75	0xbee080d0	-0.43848276
76	0xbe8f8eb5	-0.28038564
77	0x3ee12985	0.4397699
78	0x3d953b64	0.072867185
79	0x3c9e18f0	0.019299
80	0xbe869a0a	-0.26289397
81	0x3f1c812f	0.6113462
82	0xbe162b19	-0.14664878
83	0xbe58cbc8	-0.21171486
84	0x3d9c246b	0.07624134
85	0x3e754597	0.23952328
86	0x3df2cdab	0.11855634
87	0xbea53453	-0.32266483
88	0xbe82917b	-0.25501618
89	0xbe8dc175	-0.27686659
90	0xbea13f63	-0.31493673
91	0xbe458cca	-0.19291988
92	0x3d81481c	0.06312582
93	0xbec9473c	-0.3931216
94	0x3e9812cc	0.2970184
95	0x3e58a1a2	0.21155408
96	0xbdd2e9f0	-0.10298526
97	0x3e816239	0.2527025
98	0xbec19a93	-0.37813243
99	0xbed031ce	-0.40662998
100	0xbebaf8a2	-0.36517817
101	0xbeb63b1c	-0.35591972
102	0xbebca0f2	-0.36841542
103	0x3ea4bbe9	0.32174614
104	0xbeb2009a	-0.34766084
105	0x3e0a845e	0.13527057
106	0x3df07ee4	0.117429525
107	0xbe69ccd9	-0.2283205
108	0x3e2999d5	0.16562589
109	0x3e96a3f8	0.29421973
110	0x3d8ac816	0.067764446
111	0x3cac16cd	0.021006966
112	0x3e81f1d6	0.2537982
113	0xbd9020d6	-0.07037513
114	0xbe1e807e	-0.15478703
115	0x3ea27b49	0.31734684
116	0xbe9f1d72	-0.31077152
117	0xbf1ed722	-0.62047017
118	0x3e4de538	0.20106971
119	0x3e95fc59	0.29294088
120	0x3e900d75	0.28135267
121	0xbe31131e	-0.17292449
122	0xbe05b8bb	-0.1305875
123	0xbe5dd696	-0.2166389
124	0xbe03e76e	-0.12881252
125	0x3d03622e	0.032076053
126	0x3cbd199d	0.023083502
127	0x3e190565	0.14943464
128	0xbe131ce7	-0.14366494
129	0x3ea81a98	0.3283279
130	0xbbb38f7c	-0.005479751
131	0xbe8b7eef	-0.2724528
132	0x3d2eaa48	0.04264286
133	0xbc790680	-0.015199304
134	0xbe4d7fe6	-0.2006832
135	0x3eefda7c	0.46846378
136	0xbde7ac0d	-0.11312113
137	0xbcf616b7	-0.030040128
138	0x3f06a5c8	0.5259671
139	0xbf05ee56	-0.52316797
140	0xbd404bc6	-0.046947263
141	0xbe8fb683	-0.28068933
142	0x3e8bf7eb	0.27337584
143	0xbcf5ac32	-0.029989336
144	0x3e70bed9	0.23510303
145	0x3b650ba7	0.0034949572
146	0xbe0747f7	-0.13211046
147	0x3ec46dee	0.3836512
148	0xbf1101ba	-0.5664326
149	0x3e31e6eb	0.17373244
150	0x3e476cfe	0.19475171
151	0xbe80925e	-0.2511167
152	0xbdae57bf	-0.0851283
153	0x3f02bd19	0.5106979
154	0x3d3d2741	0.046180014
155	0xbe104ab9	-0.14091004
156	0x3f2a3082	0.6648027
157	0xbdf554a0	-0.119790316
158	0xbdafbd0d	-0.085809804
159	0xbe5219b0	-0.20517612
160	0xbe3aaccb	-0.18229978
161	0xbe296ef0	-0.16546226
162	0xbf17e8ad	-0.5933941
163	0xbf878f07	-1.0590523
164	0x3e69f05e	0.22845599
165	0xbe5b9a4f	-0.21445583
166	0xbdd33435	-0.10312692
167	0x3df15d46	0.117853686
168	0xbd246008	-0.040130645
169	0xbe12743e	-0.14302155
170	0xbed77d72	-0.42087895
171	0x3dac6f30	0.08419645
172	0x3dee8d9d	0.11648104
173	0x3e7d2388	0.24720585
174	0xbe8af2fa	-0.271385
175	0x3e535894	0.20639259
176	0x3e2a64f4	0.16640073
177	0x3e2ef0de	0.17084071
178	0x3e08f8f2	0.13376215
179	0xbe5e47ab	-0.21707027
180	0x3f022937	0.5084414
181	0xbc6d5f0a	-0.014487991
182	0xbe1701a9	-0.14746727
183	0x3ebd1146	0.3692724
184	0xbdf47f9a	-0.119384006
185	0xbf071dce	-0.52779853
186	0x3dd2da70	0.1029557
187	0xbe58db53	-0.21177416
188	0x3d3f1129	0.046647225
189	0xbc67c0c6	-0.014145082
190	0xbdd8ae0e	-0.10580073
191	0xbe01d2f0	-0.12678123
192	0x3ed85dba	0.42259008
193	0xbef5bc1e	-0.47995085
194	0x3e298d34	0.16557771
195	0x3e0e1290	0.13874269
196	0x3e80dff5	0.25170866
197	0xbe39cec6	-0.18145284
198	0xbec0fa1e	-0.37690824
199	0xbe886a87	-0.26643774
200	0xbe957aa7	-0.2919514
201	0xbd2b39dd	-0.04180323
202	0x3dc39a34	0.09550896
203	0xbea0d374	-0.31411326
204	0xbb03bd80	-0.0020101964
205	0xbdd5eec0	-0.104459286
206	0xbd3665c4	-0.044530645
207	0x3e3a7f24	0.18212563
208	0xbeb34797	-0.35015556
209	0x3d9dde1c	0.077083796
210	0x3efdef18	0.49596477
211	0x3ec6a00f	0.3879399
212	0xbe86d28f	-0.26332518
213	0xbe970c0a	-0.29501373
214	0x3e4cfad6	0.20017561
215	0xbe70c402	-0.23512271
216	0x3eb19739	0.34685686
217	0xbdc0e7ba	-0.09419198
218	0x3e9bf677	0.30461475
219	0xbef15980	-0.47138596
220	0x3ef859fa	0.48506147
221	0x3e8fa5a8	0.28056073
222	0xbd766068	-0.060150534
223	0xbe89c4a4	-0.26907837
224	0xbef32a1c	-0.47493064
225	0xbcdd7f20	-0.027038157
226	0xbe720cc9	-0.2363769
227	0xbd941305	-0.0723019
228	0xbeaf755b	-0.34269223
229	0xbeea81bd	-0.45802107
230	0x3e12909b	0.14312975
231	0xbe98d543	-0.29850206
232	0x3e5ba92a	0.2145125
233	0xbda4db99	-0.080496974
234	0x3e08aa8a	0.13346305
235	0xbd58b132	-0.05290336
236	0xbdc9cc3f	-0.0985341
237	0x3d6a5f61	0.057219867
238	0x3f0697b9	0.5257526
239	0xbd0544b5	-0.032536227
240	0x3e5ed5ba	0.21761218
241	0xbea088a4	-0.3135425
242	0x3de9a5df	0.114085905
243	0xbeea02f7	-0.45705387
244	0x3ec8cccd	0.3921875
245	0x3e740112	0.23828533
246	0xbd99e6b3	-0.075147055
247	0x3d941816	0.072311565
248	0xbf29e442	-0.6636392
249	0xbe79f348	-0.2440921
250	0x3e7225be	0.2364721
251	0x3e061d0f	0.13097022
252	0x3c9188c8	0.017765418
253	0xbde9a2b5	-0.11407987
254	0xbe1224ef	-0.14271902
255	0x3e79809a	0.24365464

fc1.bias f4 [256]
0	0x3c857b1a	0.016294051
1	0xbef6d663	-0.4821044
2	0x3e6ec0b8	0.23315704
3	0x3e1879de	0.14890239
4	0xbe02231f	-0.1270871
5	0xbeeda471	-0.4641452
6	0x3dc29485	0.09500984
7	0xbea0b99e	-0.31391615
8	0x3eb0f34d	0.34560624
9	0xbeb10db6	-0.34580773
10	0xbe05c532	-0.13063505
11	0xbe36992e	-0.17831871
12	0x3ed942a3	0.42433652
13	0xbe994b38	-0.299402
14	0xbe8cbbdb	-0.27487072
15	0x3dc5ec51	0.096642144
16	0x3ea8eebe	0.32994646
17	0x3ea55ff5	0.32299772
18	0x3e9ceeea	0.30651027
19	0x3deaa304	0.11456874
20	0x3dfe582f	0.124191634
21	0xbd82e524	-0.06391361
22	0x3dc457de	0.09587072
23	0x3e87f18f	0.26551482
24	0xbea36021	-0.31909278
25	0x3ecb4a20	0.3970499
26	0xbe293208	-0.16522992
27	0x3de98fe6	0.114043996
28	0xbe3d7a9e	-0.18503806
29	0x3c2e65d5	0.010644396
30	0x3dfe94a8	0.12430698
31	0xbc8d024b	-0.017213007
32	0xbec2dcf7	-0.38059208
33	0x3e14f673	0.14547138
34	0x3ea5d863	0.32391652
35	0xbd23b7c5	-0.03997018
36	0x3e1330bb	0.14374058
37	0x3e5423de	0.20716807
38	0xbdea7493	-0.11448016
39	0xbecfa457	-0.4055507
40	0x3e777474	0.24165517
41	0x3ed3ffcb	0.41406092
42	0xbe94cd29	-0.29062775
43	0xbf06c873	-0.5264961
44	0xbe37c4f1	-0.17946221
45	0x3dbfafb6	0.09359686
46	0xbe2b6bfe	-0.16740415
47	0x3dc0cea8	0.094144166
48	0x3e80db3a	0.25167257
49	0xbd104d0b	-0.035229724
50	0x3ec9b94e	0.3939919
51	0xbe424a2a	-0.18973604
52	0x3da806e1	0.08204437
53	0x3ec96715	0.39336458
54	0x3e258abf	0.16166209
55	0x3e0c37d1	0.13693167
56	0x3ed18f96	0.4092986
57	0x3e829a4a	0.25508338
58	0x3edd6365	0.43239895
59	0xbe4f2bd0	-0.20231557
60	0xbec2190b	-0.3790973
61	0x3e061a53	0.1309598
62	0x3dd81d3f	0.10552453
63	0x3e9320f1	0.2873607
64	0xbe87ddc1	-0.26536372
65	0xbe681463	-0.22664027
66	0x3e9ead25	0.30991474
67	0x3e827408	0.2547915
68	0x3e19145f	0.14949177
69	0x3e3bf322	0.18354467
70	0x3e69ff52	0.22851303
71	0xbe5c6483	-0.21522717
72	0xbe8836f8	-0.26604438
73	0xbe8af0d1	-0.27136853
74	0xbe1a9977	-0.15097605
75	0xbda37077	-0.07980435
76	0x3def9ba6	0.116996095
77	0x3e91ace3	0.28452215
78	0x3e195f96	0.1497787
79	0x3e94a33f	0.29030797
80	0x3e812001	0.2521973
81	0x3eb3d782	0.35125357
82	0x3ec810ba	0.3907526
83	0xbe601e57	-0.21886574
84	0xbe8176fc	-0.2528609
85	0x3e4b5610	0.19857049
86	0xbe8ed865	-0.2789947
87	0x3e5e2e7d	0.21697421
88	0x3e9d9128	0.30774808
89	0xbe2ee817	-0.17080723
90	0x3e6a5a68	0.2288605
91	0x3e830b91	0.25594762
92	0x3ebb293d	0.365549
93	0x3e901a46	0.28145045
94	0x3e740a09	0.23831953
95	0x3b769c50	0.003762979
96	0x3dd58781	0.10426236
97	0xbe9d3691	-0.30705693
98	0xbe9232e7	-0.2855446
99	0xbdb681bd	-0.08911464
100	0xbde8f3c0	-0.113746166
101	0xbe632845	-0.2218333
102	0x3e62c374	0.22144872
103	0x3e31a17e	0.1734676
104	0xbd14a2aa	-0.03628794
105	0xbe3c6707	-0.18398677
106	0xbe38f7bb	-0.18063252
107	0x3e829020	0.25500584
108	0x3ea9f1a2	0.33192164
109	0xbe85b47c	-0.2611426
110	0xbe5dc40a	-0.21656814
111	0xbe2ce03f	-0.16882418
112	0xbee0218a	-0.43775588
113	0xbe805d97	-0.25071403
114	0x3dcf20b8	0.101136625
115	0x3d08032a	0.033206142
116	0x3e2c94ff	0.16853712
117	0xbd9adb53	-0.07561364
118	0xbe34ef46	-0.176694
119	0x3ea8c93d	0.32966033
120	0x3e3982ef	0.18116353
121	0x3e3a137c	0.18171495
122	0xbeadc260	-0.3393736
123	0x3e1de8d0	0.15420842
124	0xbe8354b3	-0.25650558
125	0xbe90feb1	-0.28319314
126	0x3f02cc63	0.5109312
127	0xbebc58db	-0.3678654
128	0x3ef04158	0.46924853
129	0x3e934070	0.287601
130	0x3eae12a1	0.33998588
131	0x3ee63053	0.44958743
132	0x3e5f5bf6	0.21812424
133	0xbe3f0e8b	-0.18657891
134	0xbe18ab9c	-0.14909214
135	0x3e3e2394	0.1856826
136	0x3ed5fc8d	0.41794243
137	0x3e4229c8	0.18961251
138	0xbe9a7ef6	-0.30174989
139	0x3ea56059	0.3230007
140	0x3e490159	0.1962942
141	0xbc0d21d5	-0.008614023
142	0xbd658c48	-0.056041986
143	0x3e1fd9fe	0.15610501
144	0x3dddf6a1	0.10838056
145	0x3d66b456	0.056324326
146	0x3e5c7b90	0.2153151
147	0x3dcd1246	0.10013251
148	0x3e9be989	0.3045161
149	0x3ed8ddc6	0.423567
150	0xbc465540	-0.012105286
151	0x3cf63883	0.030056244
152	0x3df59854	0.11991945
153	0x3db5d5c5	0.08878664
154	0x3eb4ab12	0.35286766
155	0xbf067e8e	-0.5253686
156	0xbce28b00	-0.027654171
157	0xbeba12c2	-0.36342436
158	0xbe6ec998	-0.2331909
159	0xbe6a5474	-0.22883779
160	0xbd662eef	-0.056197103
161	0xbd26a8ae	-0.04068821
162	0xbdc6fdab	-0.09716352
163	0xbe8e05ad	-0.27738705
164	0xbd2dbaaa	-0.042414345
165	0xbeb01531	-0.34391168
166	0xbecaf1a8	-0.39637494
167	0xbf12d564	-0.5735686
168	0x3d905609	0.0704766
169	0x3e82b52d	0.2552885
170	0xbe24211a	-0.16028252
171	0xbe546236	-0.2074059
172	0x3e8c639c	0.27419746
173	0xbd78b038	-0.06071493
174	0xbf0d4128	-0.55177546
175	0xbe23399c	-0.15939945
176	0xbe1e5a1e	-0.15464064
177	0x3e37550c	0.17903537
178	0x3eb1ea23	0.34748945
179	0x3eaefde2	0.34178072
180	0x3e188f4e	0.14898416
181	0xbe6eac50	-0.2330792
182	0xbe32f373	-0.17475681
183	0x3e7f72ee	0.24946186
184	0x3eae804b	0.34082255
185	0x3e8cc11e	0.27491087
186	0x3ebcd8ed	0.3688425
187	0x3ecfd858	0.40594745
188	0xbe8ae844	-0.2713033
189	0xbea0a878	-0.3137853
190	0x3e980145	0.2968847
191	0x3c95cd17	0.018286271
192	0x3ea30c53	0.3184534
193	0x3eca6313	0.39528713
194	0x3e4a5813	0.1976016
195	0xbe04edf7	-0.12981401
196	0x3ecc21ff	0.39869687
197	0xbf24f768	-0.6444001
198	0x3ea9d2b2	0.3316856
199	0xbe637f5c	-0.22216552
200	0x3e6b3066	0.22967681
201	0xbe025795	-0.12728722
202	0x3e0a1d91	0.13487841
203	0xbac46184	-0.0014982675
204	0x3ea88706	0.32915515
205	0xbdf14a9f	-0.11781811
206	0xbe93f612	-0.28898674
207	0xbece1d56	-0.40256757
208	0xbea51899	-0.3224533
209	0xbeb0d4cf	-0.3453736
210	0x3dab7094	0.08371082
211	0x3de158e8	0.11003286
212	0x3eab1bb1	0.33419564
213	0x3d5f9d78	0.054593533
214	0xbd62c210	-0.055360854
215	0xbf23d621	-0.6399861
216	0x3d6ef208	0.058336288
217	0x3e6bc4d1	0.23024298
218	0x3e40c706	0.18825921
219	0x3e364523	0.17799811
220	0x3ea13c25	0.314912
221	0xbe9c6ec5	-0.3055326
222	0xbe86d751	-0.26336148
223	0xbf247bc5	-0.6425136
224	0xbea5428b	-0.3227733
225	0xbed895ef	-0.4230189
226	0xbeb213f5	-0.3478085
227	0x3eb8655c	0.3601483
228	0xbe3a0210	-0.1816485
229	0xbef0bde6	-0.4701988
230	0xbe2a55a3	-0.1663423
231	0xbd80bcd0	-0.06286013
232	0x3c4469a2	0.011988075
233	0x3e976b48	0.29574037
234	0x3ed918a3	0.4240161
235	0xbe7e40ae	-0.24829361
236	0x3e3bebb8	0.18351638
237	0xbe472634	-0.19448167
238	0xbe2253ee	-0.15852329
239	0xbe85429d	-0.26027384
240	0xbeb796ef	-0.3585734
241	0xbed431a8	-0.41444135
242	0xbe041e4e	-0.12902185
243	0xbed7eb37	-0.42171642
244	0x3ead86e5	0.3389198
245	0xbd84a957	-0.064776115
246	0x3e482a09	0.19547285
247	0xbe8c8dc3	-0.27451906
248	0xbdfc2de3	-0.1231344
249	0x3dff8369	0.124762364
250	0x3e87fa96	0.2655837
251	0x3e6041a9	0.21900047
252	0x3e4b0548	0.19826233
253	0x3e5a4a6d	0.21317454
254	0x3e482ea3	0.1954904
255	0xbe84e075	-0.25952497

fc2.weight f4 [256, 256]
0	0xbe231991	-0.15927722
1	0x3df59ea5	0.1199315
2	0x3e5683f8	0.2094878
3	0x3db2a2ff	0.08722495
4	0xbdaa81b6	-0.08325522
5	0xbf34ff1d	-0.7070177
6	0xbe0fed85	-0.1405545
7	0x3dde11c3	0.108432315
8	0x3ea961c1	0.33082393
9	0xbeb181af	-0.34669253
10	0xbd927856	-0.071518585
11	0x3a37c47e	0.00070101756
12	0xbc66db69	-0.014090397
13	0xbf380645	-0.71884567
14	0xbda01384	-0.07816222
15	0x3e2410a7	0.16021977
16	0x3dbb9049	0.091583796
17	0x3b3b46f9	0.0028576239
18	0x3ee74370	0.45168638
19	0x3d7ec3f3	0.06219859
20	0xb8201fec	-3.8176702e-05
21	0xbe24aa73	-0.16080646
22	0xbd3c7f07	-0.04601958
23	0xbdefc908	-0.117082655
24	0xbe2cb591	-0.16866137
25	0xbbdcc9d8	-0.006737929
26	0xbd8f7352	-0.070044175
27	0xbe6dc50e	-0.23219702
28	0xbdc2a336	-0.09503786
29	0x3c863a14	0.016385116
30	0xbc20b950	-0.009809807
31	0xbedc1b4e	-0.42989582
32	0xbeb2269d	-0.34795085
33	0x3e51128f	0.20417236
34	0x3dc4b1d6	0.09604232
35	0x3d84147f	0.06449222
36	0x3e41d14c	0.18927497
37	0x3d8014be	0.06253956
38	0x3e78f06d	0.24310465
39	0x3ceff545	0.029291758
40	0xba7c4f0c	-0.0009624816
41	0x3d839b55	0.064261116
42	0xbd1fb119	-0.038987253
43	0xbeeda3d2	-0.46414047
44	0x3d20d633	0.039266776
45	0x3de3c768	0.11122018
46	0x3d93e9d9	0.07222337
47	0xbe85b503	-0.26114663
48	0x3dba16a6	0.09086351
49	0xbe72a8eb	-0.2369725
50	0x3ca372f0	0.019952267
51	0x3e3593e7	0.17732202
52	0x3e4bc5fa	0.19899741
53	0x3dc39ed1	0.09551776
54	0xbce28fcd	-0.02765646
55	0x3cc0e2ce	0.023545649
56	0x3e35dd20	0.17760134
57	0xba8e2efe	-0.0010847745
58	0x3d6e7df2	0.05822558
59	0xbf150d03	-0.5822298
60	0xbea71c91	-0.32638982
61	0x3e245e38	0.16051567
62	0x3e320724	0.17385536
63	0x3dc9af33	0.0984787
64	0xbeea49f2	-0.4575954
65	0xbeb51d12	-0.3537374
66	0x3d166b22	0.036723264
67	0x3eba1bae	0.36349243
68	0x3e64e3ff	0.22352599
69	0x3dcf714e	0.10129033
70	0x3e0ed8f5	0.1394995
71	0xbf2bf908	-0.67176867
72	0xbf6923a2	-0.91069996
73	0x3c8e802b	0.0173951
74	0xbe10ff8a	-0.1415998
75	0x3e4f748c	0.20259303
76	0xbe5f16dd	-0.21786065
77	0xbe843fe0	-0.25829983
78	0x3e230222	0.15918782
79	0xbdff6bc1	-0.12471724
80	0x3df9705b	0.12179633
81	0x3e5e5965	0.21713789
82	0x3e6cf368	0.23139727
83	0x3d761887	0.060081985
84	0xbd8dfe0b	-0.069332205
85	0x3e522374	0.20521337
86	0x3e2a2b16	0.16617998
87	0xbd972dfe	-0.07381819
88	0x3de77420	0.11301446
89	0xbc65619a	-0.014000321
90	0xbdda4262	-0.10657193
91	0x3d45498f	0.048165854
92	0x3e8d61d4	0.276137
93	0xbd5d876d	-0.05408423
94	0x3df6eaea	0.12056525
95	0x3d2f0e8f	0.042738494
96	0x3d787c41	0.060665373
97	0xbe9fdd69	-0.3122361
98	0x3e2808ed	0.16409655
99	0x3e229dfe	0.15880582
100	0x3dc615c7	0.096721224
101	0xbdb7935a	-0.08963652
102	0xbda87845	-0.082260646
103	0x3e8b31a0	0.27186298
104	0x3d99d933	0.075121306
105	0x3d8208ee	0.063493595
106	0xbe1ed7cc	-0.15512007
107	0x3d772116	0.060334288
108	0x3ce80e7b	0.028327217
109	0xbace84b2	-0.0015756099
110	0xbe0d5048	-0.13800156
111	0xbeb808c8	-0.359442
112	0xbec46318	-0.38356853
113	0xbead925f	-0.33900735
114	0xbe4a7a8e	-0.19773313
115	0x3db1006c	0.086426586
116	0x3e18969a	0.149012
117	0xbf1b8bfd	-0.6076048
118	0xbe549822	-0.20761159
119	0x3eb241f2	0.34815937
120	0x3d23b149	0.039963994
121	0xbeb8abb5	-0.36068502
122	0xbdf40066	-0.119141385
123	0xbd5b7c94	-0.053585604
124	0xbf643f91	-0.89159495
125	0xbebafea0	-0.36522388
126	0xbdc1267d	-0.09431169
127	0x3e6a42b9	0.22877015
128	0xbcdb452b	-0.02676638
129	0x3e41d3ce	0.18928453
130	0xbc682e74	-0.014171232
131	0xbd9debd8	-0.07710999
132	0xbe4ce887	-0.20010577
133	0x3c8a44d1	0.016878517
134	0xbc450186	-0.012024289
135	0x3d29fa22	0.04149831
136	0x3dd98579	0.10621161
137	0x3e958035	0.29199377
138	0x3db72786	0.08943085
139	0xbe19bb88	-0.15012944
140	0x3da61ffe	0.08111571
141	0xbeb93a72	-0.36177403
142	0x3bdf81a1	0.006820873
143	0x3db02fa8	0.0860284
144	0xbdcbc3e6	-0.09949474
145	0xbd27804c	-0.040893838
146	0x3eb4f631	0.3534408
147	0x3f156272	0.5835334
148	0x3de18331	0.11011351
149	0xbdc3c5cc	-0.09559211
150	0x3c7e78b5	0.0155317085
151	0x3b7a1d4d	0.0038164437
152	0x3e55b448	0.20869553
153	0xbdfe63b0	-0.12421358
154	0xbe8bf51e	-0.27335447
155	0xbf3dd166	-0.7414764
156	0xbd3785c5	-0.044805307
157	0xbed239f6	-0.41059846
158	0xbd8a2f57	-0.067473106
159	0xbf17a945	-0.5924266
160	0xbf24b968	-0.6434541
161	0xbcf1eb51	-0.029531153
162	0xbf276237	-0.6538424
163	0x3d4ae825	0.049537797
164	0x3d57e02c	0.05270402
165	0xbe8a3c35	-0.2699906
166	0xbc8d350e	-0.017237213
167	0xbe3b1715	-0.18270524
168	0x3db98665	0.09058837
169	0xbdc96110	-0.09832966
170	0xbc86f5be	-0.0164746
171	0xbd16f5c4	-0.036855474
172	0xbdcd738d	-0.10031805
173	0xbd1d299f	-0.03836977
174	0xbeef16fe	-0.4669723
175	0x3da4e982	0.080523506
176	0xbc1da538	-0.009621911
177	0x3dca45fa	0.09876628
178	0xbeb1cb6b	-0.34725508
179	0xbbdcb96b	-0.0067359707
180	0x3e452a34	0.1925438
181	0xbe6f2c03	-0.23356633
182	0xbd8c0c9d	-0.06838343
183	0x3d873045	0.066010036
184	0x3e1258ab	0.14291637
185	0x3dd6a658	0.10480946
186	0xbe3deeba	-0.18548098
187	0x3ebcccd6	0.36875027
188	0x3c9672f0	0.018365353
189	0xbe7bc64b	-0.24587362
190	0x3d056573	0.032567453
191	0xbde23f2d	-0.11047206
192	0x3e1cc42a	0.15309206
193	0x3e6cae8e	0.23113462
194	0xbd80c220	-0.062870264
195	0xbece7c83	-0.4032937
196	0x3e246b5e	0.16056582
197	0xbf8235f9	-1.0172721
198	0x3e9c7369	0.305568
199	0xbdd459cf	-0.10368692
200	0xbe49f09a	-0.19720688
201	0xbdc124b4	-0.09430829
202	0x3e59f43e	0.21284577
203	0x3e65be6a	0.22435918
204	0x3d0324ec	0.032017633
205	0xbe2bb5f4	-0.16768628
206	0xbec83d94	-0.3910948
207	0xbf92645e	-1.143688
208	0xbddb17a9	-0.10697872
209	0x3e09bf00	0.13451767
210	0xbd6feb74	-0.058574155
211	0xbe3374f5	-0.17525084
212	0xbe46fe6e	-0.19432995
213	0x3e3f1070	0.18658614
214	0xbe21cfb7	-0.15801893
215	0xbe7c954a	-0.24666324
216	0xbdaa89f2	-0.08327092
217	0x3cfb4ccb	0.030676266
218	0x3dcb5625	0.0992854
219	0x3cf061a2	0.02934343
220	0x3ebad8b7	0.36493465
221	0xbe289b7b	-0.16465561
222	0xbed39412	-0.41323906
223	0xbfa18609	-1.2619029
224	0xbe292d6f	-0.16521238
225	0x3e885962	0.26630694
226	0xbeecb0f4	-0.46228755
227	0x3cc0e25d	0.023545438
228	0xbd2b3147	-0.04179504
229	0xbeee2779	-0.4651449
230	0x3eaf5a8c	0.3424877
231	0xbddbffaf	-0.10742127
232	0x3e8cd2aa	0.27504474
233	0x3d493ea5	0.049132008
234	0xbd8947f9	-0.06703181
235	0xbf06f12b	-0.52711743
236	0x3c001696	0.007817885
237	0x3d5d1aa3	0.05398048
238	0x3db7dfde	0.08978246
239	0xbeb675a9	-0.35636643
240	0xbf1fe302	-0.6245576
241	0xbe2df177	-0.16986643
242	0xbda45416	-0.080238506
243	0xbf1259a5	-0.57168037
244	0xbd602e3c	-0.054731593
245	0x3e130cb4	0.14360315
246	0x3e6b97bd	0.23007102
247	0xbd957c7f	-0.07299136
248	0xbdb2889a	-0.08717461
249	0x3ee5d440	0.44888496
250	0xbe5a1a18	-0.21299016
251	0xbde62956	-0.11238353
252	0xbe03f56c	-0.1288659
253	0xbe26b6cf	-0.16280673
254	0xbc4d165c	-0.012517538
255	0xbe6521d2	-0.22376183

fc2.bias f4 [256]
0	0x3e331f00	0.17492294
1	0x3d8ed6d8	0.06974572
2	0xbd66f595	-0.05638655
3	0xbd82da46	-0.063892886
4	0xbd601ebb	-0.054716807
5	0xbd462fdc	-0.048385486
6	0xbdb52a8f	-0.08846008
7	0x3c9dddc4	0.019270785
8	0x3d54fc3b	0.05199836
9	0xbe40f58a	-0.18843666
10	0x3e03b8da	0.12863484
11	0x3d49ddb7	0.04928371
12	0xbcbde30f	-0.023179559
13	0xbd331bcd	-0.043727685
14	0x3e3716ea	0.17879835
15	0xbd0dee8b	-0.03465132
16	0x3d92d01a	0.071685985
17	0x3e03feb0	0.12890124
18	0x3cc0890c	0.023502849
19	0xbc872606	-0.016497623
20	0x3df0cc19	0.117576785
21	0xbd7dc958	-0.061959594
22	0xbd9db72e	-0.077009544
23	0xbd009efd	-0.031401623
24	0xbd3f8839	-0.04676077
25	0x3d3beb56	0.04587873
26	0xbd4e5332	-0.05037231
27	0x3cf7e4fa	0.030260552
28	0x3e2cc92e	0.16873619
29	0x3ca4da79	0.020123707
30	0x3e0e3e48	0.13890946
31	0x3cb662da	0.022263933
32	0x3e48034a	0.19532505
33	0xbd43068c	-0.047613665
34	0x3a074514	0.0005160135
35	0xbd89f107	-0.067354254
36	0xbb0a3405	-0.0021088135
37	0x3ce599fd	0.028027529
38	0xbc892af9	-0.016744124
39	0x3c9413d6	0.018075865
40	0xbd92fd04	-0.07177165
41	0x3dc14a6a	0.094380215
42	0xbd2ae685	-0.041723747
43	0x3ded5037	0.115875654
44	0xbe021cb5	-0.12706263
45	0x3d01a4df	0.031651374
46	0x3ce4059a	0.027834702
47	0x3d079dec	0.03310959
48	0xbd1bc890	-0.03803307
49	0xbd707146	-0.058701776
50	0x3cbfa92c	0.023396097
51	0xbd9e2636	-0.07722132
52	0x3e0aec6a	0.13566747
53	0x3c7f451a	0.01558044
54	0xbd804c83	-0.062645935
55	0x3d1128ae	0.035439186
56	0x3c1c80e8	0.009552218
57	0xbd856358	-0.06513089
58	0xbe1e5bfc	-0.15464777
59	0xbc83fd8b	-0.01611211
60	0x3d429e4c	0.047514245
61	0xbca3dd45	-0.02000297
62	0xbcda68c8	-0.026661292
63	0x3e376735	0.17910464
64	0x3d98d3a4	0.07462242
65	0x3dc15f8b	0.094420515
66	0xbd1b7ebc	-0.03796266
67	0x3da5efb3	0.081023596
68	0xbd7c567d	-0.06160592
69	0x3d16646d	0.036716867
70	0xbd76a59a	-0.060216524
71	0x3cf83386	0.030298006
72	0x3e13d013	0.14434843
73	0x3d85ebc5	0.0653911
74	0x3d03036d	0.03198569
75	0x3b634965	0.0034681198
76	0xbcdcd14d	-0.026955271
77	0xbd5ee8ee	-0.054421358
78	0x3c41bedc	0.01182529
79	0x3d32cb30	0.043650806
80	0x3d733770	0.05937904
81	0x3cfc6fe8	0.03081508
82	0x3c6947e7	0.014238334
83	0x3dd88fe5	0.10574321
84	0x3a41e6de	0.00073967676
85	0x3cbb2796	0.022846024
86	0x3d7dbad5	0.061945755
87	0x3e047003	0.12933354
88	0x3c0c0e61	0.00854835
89	0x3d894eab	0.06704458
90	0x3b22441c	0.0024759835
91	0xbd1bae55	-0.038008053
92	0x3de3600f	0.11102306
93	0xbc47c741	-0.012193502
94	0xbc6b22a0	-0.014351517
95	0xbd22d201	-0.039751057
96	0x3d30645a	0.043064453
97	0x3d14a4e4	0.036290064
98	0xbb9911f9	-0.004671332
99	0xbd27e1af	-0.040986713
100	0xbc9b2ead	-0.018943155
101	0x3b24f395	0.00251696
102	0x3cbcd0cd	0.023048783
103	0x3d340a11	0.043954913
104	0x3d8fa725	0.07014302
105	0x3c7178d6	0.014738282
106	0x3cc52e76	0.024070006
107	0x3d13c11c	0.036072835
108	0x3ddd63c1	0.10810042
109	0x3d82b88d	0.063828565
110	0x3da4d879	0.080491014
111	0xbd374ff2	-0.044753976
112	0x3cd8f1f4	0.02648256
113	0xbbe6d989	-0.007044975
114	0x3bf8fbae	0.007598362
115	0xbd892ae0	-0.06697631
116	0xba79afc9	-0.000952479
117	0xbd10def9	-0.035368893
118	0xbd10302f	-0.0352022
119	0xbc9c1ce9	-0.019056754
120	0x3d86325b	0.06552573
121	0x3c5fbb14	0.013655443
122	0xbcef0c46	-0.029180657
123	0x3d3d5fe6	0.046234034
124	0x3cab08d2	0.02087823
125	0xbb30b364	-0.0026962394
126	0x3c9d444c	0.019197606
127	0x3b6eaee0	0.0036420152
128	0x3e76caa7	0.24100743
129	0xbd17c0a8	-0.037048966
130	0xbd37c989	-0.044869933
131	0x3b1c30e1	0.0023832845
132	0xbd3d4b7f	-0.046214577
133	0xbc04cbf7	-0.00810527
134	0x3da4a51b	0.08039304
135	0xbde061fa	-0.109561875
136	0xbca1b52b	-0.019739708
137	0xbd71511b	-0.05891524
138	0xbd258666	-0.040411375
139	0x3d1ebfbe	0.03875708
140	0x3c324e07	0.010882861
141	0x3c6b0e6a	0.014346698
142	0x3db95edc	0.09051296
143	0x3b4b7706	0.0031046285
144	0x3ca9b286	0.02071501
145	0x3d94e28a	0.072697714
146	0xbdb8c6da	-0.09022303
147	0x3e639990	0.22226548
148	0x3cb0c432	0.021577928
149	0x3d1406b1	0.036139194
150	0x3d92c2c0	0.07166052
151	0xbdb01a68	-0.085987866
152	0xbc94f4f9	-0.018183218
153	0x3cf1ef05	0.029532919
154	0x3de18746	0.110121295
155	0x3e8149b5	0.25251547
156	0xbda4bd2f	-0.080438964
157	0xbda68dbe	-0.08132504
158	0x3d54d084	0.05195667
159	0x3d410b1b	0.04712973
160	0x3e23f3fb	0.1601104
161	0x3d144655	0.036199886
162	0x3b920fdc	0.004457457
163	0xbd1fd579	-0.039021943
164	0x3d465bc0	0.048427343
165	0x3d3e5747	0.046469953
166	0x3ce19c06	0.027540218
167	0xbcd678d3	-0.02618066
168	0x3e03074c	0.12795752
169	0x3e1b98a8	0.15194952
170	0x3d840fa1	0.064482935
171	0x3d64093c	0.05567287
172	0xbca0dfd9	-0.019637989
173	0x3cb1c63a	0.021700967
174	0x3c5735f5	0.013135423
175	0xbde96a9c	-0.11397287
176	0x3d016a39	0.031595442
177	0xbc17611f	-0.009239464
178	0xbde74dc5	-0.1129413
179	0xbaa2a76a	-0.0012409512
180	0xbc2cf6f0	-0.010556921
181	0xbb86de50	-0.004115857
182	0x3c8cdca6	0.017195057
183	0xbd82b525	-0.06382207
184	0x3dade91d	0.084917285
185	0x3ddc1cf7	0.10747712
186	0x3dc95c76	0.09832089
187	0x3e053eed	0.13012286
188	0x3e221dc5	0.15831669
189	0xbe1e98ba	-0.15487948
190	0xbdec0273	-0.11523905
191	0xbd96d03b	-0.073639356
192	0x3ea49413	0.32144222
193	0x3db34336	0.08753054
194	0xbcf42c60	-0.029806316
195	0xba4fdce5	-0.0007929339
196	0x3df1d8bb	0.11808916
197	0xbda513cc	-0.080604166
198	0xbdcad41d	-0.09903739
199	0x3d5715b3	0.05251093
200	0x3c530b8f	0.012881174
201	0xbd59d41c	-0.0531808
202	0x3cd6dda9	0.026228743
203	0xbd9f174e	-0.07768117
204	0x3dc32f95	0.0953056
205	0x3a75c282	0.0009374992
206	0xbe1819bb	-0.14853565
207	0xbdc3bdd1	-0.09557689
208	0x3d58187a	0.052757718
209	0xbdd012b2	-0.10159816
210	0x3c877f3e	0.016540166
211	0xbce0c33d	-0.027436847
212	0xbd33f344	-0.043933168
213	0xbcb570ce	-0.022148516
214	0x3e43ef1b	0.1913418
215	0xbc8affc4	-0.016967662
216	0x3d8dc606	0.069225356
217	0x3de072bb	0.10959383
218	0x3d101777	0.035178628
219	0xbd2cb7e4	-0.04216756
220	0xbba0364b	-0.0048892847
221	0xbd2af1cb	-0.041734498
222	0xbbdf59ba	-0.006816116
223	0xbd3f5edc	-0.046721324
224	0xbc7e028b	-0.015503536
225	0x3d8f1cdb	0.069879256
226	0xbd61e636	-0.055151187
227	0xbe075e2a	-0.13219514
228	0x38b66b5a	8.698432e-05
229	0x3d83a0cf	0.06427156
230	0xbdaf31dc	-0.08554432
231	0x3e86503e	0.26233095
232	0xbd56d7b0	-0.05245179
233	0x3d8332bb	0.064061604
234	0x3c92cb91	0.017919334
235	0x3cf311a5	0.0296715
236	0xbce6ff94	-0.028198041
237	0x3cf1da5b	0.029523065
238	0x3e059d44	0.13048273
239	0xbcb33d08	-0.021879688
240	0x3bf415e3	0.007448898
241	0x3edecc42	0.4351521
242	0xbd1238be	-0.035698645
243	0xbbfb4860	-0.00766854
244	0xbd8d18c9	-0.06889493
245	0x3d87bfb1	0.06628359
246	0xbca2896c	-0.019840918
247	0xbd5d2f19	-0.053999994
248	0x3d874053	0.06604066
249	0x3ddfb222	0.10922648
250	0x3e0fb37d	0.14033313
251	0xbdaf0af3	-0.0854701
252	0x3c00b566	0.007855749
253	0x3db6f83e	0.08934067
254	0xbd85fd20	-0.065424204
255	0xbbc04513	-0.0058676093

fc3.weight f4 [128, 256]
0	0x3c271cfe	0.010199783
1	0xbd268d14	-0.040661886
2	0xbd28909e	-0.041153543
3	0x3c59a809	0.013284692
4	0x3cf9df44	0.03050197
5	0x3ccab398	0.02474384
6	0xbcb08ff0	-0.02155301
7	0xbc04e436	-0.00811105
8	0x3d2e2556	0.042516075
9	0xbcd0e55c	-0.025499992
10	0xbd930615	-0.071788944
11	0xbd1d373c	-0.038382754
12	0x3916ce00	0.00014381856
13	0x3d49070a	0.04907898
14	0x3d032155	0.03201421
15	0x3d78a620	0.060705304
16	0x3c1711a5	0.009220515
17	0xbda2ba95	-0.07945744
18	0x3d603c8a	0.054745235
19	0x3b6ff1e0	0.0036612675
20	0xbcaf2fbf	-0.021385072
21	0x3b649082	0.0034876172
22	0xbcc63467	-0.02419491
23	0x3c343b48	0.011000462
24	0xbd52dcd0	-0.051480114
25	0xbd33316d	-0.043748308
26	0x3d649706	0.05580809
27	0x3ce60a56	0.0280811
28	0x3d41a9cc	0.04728107
29	0x3cac70f7	0.02104996
30	0xbd0c308c	-0.034225985
31	0xbd4c0e76	-0.04981848
32	0xbcaf9a33	-0.021435833
33	0x3c5d5438	0.013508849
34	0x3c8db35b	0.017297437
35	0xbc86ba7f	-0.01644635
36	0xbc586dfb	-0.013209815
37	0x3ccd52e4	0.02506394
38	0xbca78fb7	-0.02045427
39	0xbccacc52	-0.02475563
40	0xbd15be8e	-0.03655868
41	0xbc26367f	-0.010144829
42	0xbbeb8ea0	-0.007188633
43	0x3cac71dc	0.021050386
44	0xbd4e2344	-0.0503266
45	0xbd566d5c	-0.052350387
46	0xbd55929e	-0.05214178
47	0xbc568ecc	-0.013095569
48	0xbca0745c	-0.019586734
49	0x3c299680	0.010350823
50	0xba55d183	-0.0008156525
51	0x3ab5f0bc	0.0013880949
52	0xbd927cbd	-0.07152698
53	0x3c220d45	0.009890859
54	0xbd1c5814	-0.038169935
55	0x3d74c2bf	0.059756037
56	0xbd53b1c0	-0.051683187
57	0xbd25a058	-0.04043612
58	0xbd1064a6	-0.035252236
59	0xbd49b835	-0.04924794
60	0x3d0c6ea2	0.034285195
61	0xbc8188da	-0.015812326
62	0x3d6fb2a0	0.05851996
63	0x3ce5d9cf	0.02805796
64	0xbd882ace	-0.06648789
65	0xbc15bfbe	-0.009139953
66	0x3c933734	0.017970659
67	0xbd0ea004	-0.03482057
68	0xbd003470	-0.03130001
69	0x3c2001c7	0.009766049
70	0x3bc31a3f	0.0059540565
71	0xbd136d87	-0.035993125
72	0xba865444	-0.0010248502
73	0x3d2e17a3	0.04250301
74	0xbda2e783	-0.079543136
75	0xbbdbf738	-0.0067128204
76	0xbc4fda10	-0.0126862675
77	0xbc1b7558	-0.009488426
78	0xbd65e07d	-0.05612229
79	0x3c97eb04	0.018544681
80	0x3cd1ce8b	0.025611183
81	0xbd1035a2	-0.0352074
82	0x3ce8c5d4	0.028414644
83	0x3d0cfc0b	0.034420054
84	0xbd21efbe	-0.039535277
85	0x3be2717d	0.0069105015
86	0xbd7095a9	-0.058736477
87	0xbca9f04f	-0.02074447
88	0xbd503170	-0.050828397
89	0xbb8b7ceb	-0.0042568347
90	0xbce9dfec	-0.028549157
91	0x3d4c24f1	0.049839918
92	0xbcc916cb	-0.024547001
93	0x3cd97994	0.02654723
94	0x3be3c729	0.006951232
95	0xbc18c52c	-0.009324353
96	0x3cdb6368	0.026780799
97	0xbd30fe65	-0.04321136
98	0xbcefdb7c	-0.029279463
99	0x3cb0a000	0.021560669
100	0xbca00a8c	-0.01953628
101	0xbca08bc7	-0.019597901
102	0xbd57eca4	-0.052715912
103	0x3c77b54c	0.015118908
104	0xbb9416ab	-0.004519304
105	0xbd7844de	-0.060612552
106	0x3d3d8ac6	0.046274923
107	0xbd904817	-0.07045
108	0x3cc5742f	0.024103252
109	0xbc34c4a7	-0.011033214
110	0xbc602d30	-0.013682649
111	0xbc9cedc0	-0.019156337
112	0x3c27feb0	0.010253593
113	0x3d2e8d06	0.04261496
114	0xbd6c4263	-0.0576805
115	0xbcf8eaf5	-0.030385474
116	0x3bc752ee	0.006082884
117	0xbd1533d1	-0.03642637
118	0x3b34a4b4	0.002756399
119	0xbc992400	-0.018693924
120	0xbda73a95	-0.081654705
121	0xbd24dfa2	-0.040252335
122	0x3c1c3160	0.009533256
123	0xbc746282	-0.014916064
124	0xbcc2ba64	-0.023770519
125	0xbd1273f9	-0.03575513
126	0xba2ada80	-0.00065175444
127	0xbd3fcbe6	-0.046825312
128	0x3cf95dd9	0.030440258
129	0x3d4f8dfe	0.050672524
130	0x3d697322	0.056994565
131	0xbc836c4c	-0.01604285
132	0x3d2a54f8	0.04158494
133	0xbd228f04	-0.03968717
134	0x3ca27a4d	0.019833708
135	0x3cc8dfd1	0.024520786
136	0xbd5efd9e	-0.054441087
137	0x3d671af0	0.056422174
138	0x3ccff7c7	0.025386704
139	0xbc3f04e2	-0.011658879
140	0x3d0f60f3	0.035004567
141	0xbd05f2fb	-0.032702427
142	0xbd28a4c9	-0.041172776
143	0xbca8d2c4	-0.020608313
144	0xbd3f7954	-0.046746567
145	0x39048600	0.0001263842
146	0x3d60d92b	0.054894608
147	0x3d0844e0	0.03326881
148	0x3d0cf0ba	0.034409262
149	0x3d24e1f9	0.040254567
150	0x3cdab960	0.026699722
151	0x3ca6fa08	0.020382896
152	0xbca9982b	-0.020702442
153	0xbc3698cd	-0.011144829
154	0xbc816389	-0.015794532
155	0x3d469d74	0.048490003
156	0x3d561f56	0.052275978
157	0x3c21d840	0.009878218
158	0xbac95106	-0.001535923
159	0x3cc1d08f	0.023659019
160	0x3d1f7c5d	0.03893696
161	0xbce9bbec	-0.028531991
162	0x3ad07bc0	0.0015906021
163	0xbc6dd090	-0.014515057
164	0x3cabe67a	0.020983923
165	0x3cfed4c9	0.031107323
166	0xbcd96ec8	-0.026542082
167	0x3d66f9d2	0.05639059
168	0xbd92615f	-0.07147478
169	0x3cafa2b3	0.021439886
170	0xbd36240c	-0.04446797
171	0xbc84c978	-0.016209349
172	0x3d24345e	0.040089004
173	0x3d3c8547	0.04602554
174	0x3c7716b8	0.0150811
175	0x3b461740	0.003022626
176	0x3bd73680	0.006567776
177	0xbc0165f3	-0.007897842
178	0xbd75e4e7	-0.06003275
179	0xbc990140	-0.018677354
180	0xbd8d8485	-0.06910042
181	0xbca9f25e	-0.020745452
182	0x3cba16a2	0.02271587
183	0xbd49d825	-0.049278397
184	0x3b9a3560	0.00470607
185	0xbd35f69b	-0.044424634
186	0x3d4d5855	0.050133068
187	0x3b85614a	0.0040704357
188	0xbcf6783c	-0.03008663
189	0xbd822b74	-0.06355944
190	0xbd350336	-0.044192515
191	0x3c6a78d8	0.014311038
192	0xbd0cbd15	-0.03436001
193	0xbd707342	-0.05870367
194	0xbcf7d7a2	-0.030254189
195	0x3d306f37	0.043074813
196	0x3c120892	0.008913176
197	0xbd7d4472	-0.061832853
198	0xbcf6547e	-0.030069586
199	0x3d08609d	0.033295263
200	0x39953300	0.00028457493
201	0x3b7c8398	0.0038530584
202	0xbd672191	-0.056428496
203	0xbd6cf6ff	-0.05785274
204	0x3bf3f1b4	0.0074445847
205	0x3cd5c5b0	0.026095241
206	0xbaf24869	-0.0018484715
207	0x3cdcf0e0	0.026970327
208	0xbcd4a3d5	-0.025957027
209	0xbc9c8ea0	-0.019110978
210	0xbb8ac338	-0.0042346977
211	0x3c55dc03	0.013052943
212	0x3ceab3d8	0.02865021
213	0xbd5d7fa1	-0.054076795
214	0xbbbd3e92	-0.005775281
215	0xbc9a951c	-0.018869929
216	0xbd75dc6b	-0.06002466
217	0x3c24cd79	0.010058754
218	0x3ca5594c	0.020184182
219	0xbd2dc5de	-0.04242503
220	0xbcfad916	-0.030621093
221	0x3cb3da34	0.021954633
222	0x3d2bb72f	0.041922744
223	0x3d5e0a6c	0.054209158
224	0x3c5704c8	0.0131236985
225	0x3c078c72	0.008273231
226	0xbbfafce6	-0.0076595424
227	0x3d513145	0.051072378
228	0xbd50f7f1	-0.051017705
229	0x3d2fb526	0.042897366
230	0x3b71b660	0.0036882386
231	0xbb917b30	-0.004439734
232	0xbd5cef30	-0.053939044
233	0x3d02bb6d	0.031917024
234	0xbd9174f3	-0.071023844
235	0x3d12a5f9	0.035802815
236	0xbb8cba7f	-0.004294693
237	0x3c988de8	0.018622354
238	0x3d40f5eb	0.047109526
239	0x3cc63919	0.024197148
240	0x3cdca2e8	0.026933149
241	0xbd3160d8	-0.043305248
242	0xbc97f6d5	-0.018550316
243	0x3bab22eb	0.0052226684
244	0xbd6cf664	-0.057852164
245	0xbae6dbf4	-0.0017613159
246	0x3d667ebc	0.056273207
247	0xba40aba4	-0.0007349795
248	0x3cfd94e1	0.03095478
249	0x3d465fa6	0.04843106
250	0xbd8ffd3c	-0.070307225
251	0x3d16392f	0.03667563
252	0xbd4ab6c0	-0.04949069
253	0x3c692810	0.014230743
254	0x3cbe0394	0.023195066
255	0xbd811e3a	-0.063045934

fc3.bias f4 [128]
0	0xbc43a4e0	-0.011941165
1	0xbd8957f0	-0.06706226
2	0xbd5daf6a	-0.054122366
3	0xbe52c2d4	-0.20582134
4	0x3d3a2329	0.045443688
5	0xbd498d53	-0.049207043
6	0x3d948f98	0.07253951
7	0x3e1c7db7	0.15282331
8	0x3d9f3825	0.077743806
9	0x3d9efa01	0.07762528
10	0x3da770e6	0.081758305
11	0x3dfb8c23	0.12282588
12	0xbdba3334	-0.090917975
13	0xbd0a8db6	-0.033826552
14	0xbd55e9ad	-0.052224804
15	0x3cd97726	0.026546072
16	0x3bf951d7	0.007608633
17	0x3cc019e5	0.023449847
18	0x3c844716	0.016147178
19	0x3de54dd7	0.111964874
20	0xbd81914b	-0.063265406
21	0xbd5e609a	-0.054291345
22	0x3db1192b	0.086473785
23	0x3e04b749	0.12960543
24	0xbd05a4fc	-0.032628044
25	0x3ccdbc9c	0.02511435
26	0x3daffca9	0.08593113
27	0x3c9e3c1a	0.019315768
28	0x3d22574a	0.039634027
29	0xbd76a566	-0.06021633
30	0xbc9a54c2	-0.018839244
31	0x3ca5cd84	0.020239599
32	0xbd804c17	-0.06264513
33	0x3cce6efc	0.025199406
34	0x3d37a40e	0.04483419
35	0x3e0266fd	0.127346
36	0x3db08741	0.08619548
37	0xbde5c201	-0.11218644
38	0x3d03b7a8	0.03215757
39	0x3d3972f7	0.045275655
40	0x3cbdea36	0.02318297
41	0x3d198e52	0.037489243
42	0x3caf90ba	0.021431316
43	0xbdb6288c	-0.088944525
44	0xbd5a14bf	-0.05324244
45	0x3d8d51d3	0.06900372
46	0x3d1bcdec	0.03803818
47	0xbd6c866c	-0.057745382
48	0xbd9d6c28	-0.07686645
49	0x3d9dfc17	0.07714098
50	0xbd90bcb8	-0.07067245
51	0x3c8c82bb	0.01715218
52	0xbd87a408	-0.06623083
53	0xbce97e6c	-0.028502665
54	0x3c537dfb	0.012908454
55	0x3d461924	0.04836382
56	0x3db89be6	0.0901411
57	0x3d36f766	0.04466953
58	0xbc103e37	-0.008803896
59	0xbdaf642f	-0.085640304
60	0x3cb91d87	0.022597088
61	0x3d43a982	0.047769077
62	0xbd955e83	-0.07293417
63	0xbcf595d6	-0.029978674
64	0xbb3d58d1	-0.002889205
65	0x3d7cef38	0.061751574
66	0x3cee3f2b	0.029082855
67	0xbd4d4fa8	-0.050124794
68	0x3d02b810	0.031913817
69	0x3ca19ab1	0.019727083
70	0xbcd4deec	-0.025985204
71	0x3ddc4112	0.10754599
72	0x3dc228a6	0.09480409
73	0xbd8bdffa	-0.068298295
74	0x3d0a0ab0	0.0337016
75	0x3d491953	0.049096417
76	0x3cca1b37	0.02467118
77	0x3d51c4cc	0.05121307
78	0x3cb4ed3a	0.022085775
79	0x3d8f8227	0.070072465
80	0x3df7ee0f	0.12105953
81	0x3e10578a	0.14095894
82	0xbd84a2d5	-0.0647637
83	0xbd8f6c12	-0.07003035
84	0xbc88e942	-0.016712788
85	0xbb516200	-0.0031949282
86	0x3de41721	0.11137224
87	0xbc9c55d4	-0.019083895
88	0x3c32ee80	0.010921121
89	0x3dcc2124	0.099672586
90	0x3d365692	0.044516154
91	0xbe4bdfba	-0.19909564
92	0xbb0983fa	-0.0020983205
93	0x3df0b1a1	0.1175263
94	0xbd5b4c46	-0.053539537
95	0xbb96d6d3	-0.0046032458
96	0x3dbd1f0c	0.09234437
97	0x3d5d52af	0.05403393
98	0xbce19bbc	-0.02754008
99	0x3de60c72	0.112328425
100	0x3d6d178f	0.057883795
101	0xbb1e9778	-0.002419917
102	0x3d7aca8e	0.061228327
103	0x3c32dddd	0.010917154
104	0x3db0ab4e	0.08626424
105	0xbd0df8ed	-0.034661222
106	0x3c9babcd	0.01900282
107	0xbc21d1ce	-0.0098766815
108	0x3cfaf1e8	0.030632928
109	0x3db54407	0.08850866
110	0x3e0f6c63	0.1400619
111	0xbd0d7e30	-0.03454417
112	0x3c10f6a6	0.008847868
113	0xbdb73906	-0.08946423
114	0xbd243743	-0.040091764
115	0xbd721f97	-0.059112158
116	0x3dde280f	0.10847484
117	0xbd45a3c4	-0.048251882
118	0x3e0103a7	0.1259905
119	0x3db47430	0.088112235
120	0xbd152f12	-0.036421843
121	0xbc08771a	-0.008329177
122	0xbcfc0f98	-0.030769154
123	0xba67c588	-0.0008841385
124	0x3c7a6ff7	0.015285484
125	0xbc9bc453	-0.019014513
126	0x3ccdc8a9	0.025120096
127	0x3ca8d6c0	0.020610213

fc4.weight f4 [5, 128]
0	0xbd650c04	-0.055919662
1	0xbc864110	-0.016388446
2	0xbdaaa141	-0.08331538
3	0xbe6ef485	-0.23335464
4	0xbe7ffb30	-0.24998164
5	0xbccb9f90	-0.024856359
6	0xbe5aad6c	-0.21355218
7	0x3e846c7e	0.25864023
8	0xbe423da1	-0.18968822
9	0xbe2bd9e6	-0.1678234
10	0xbe46afd2	-0.19403008
11	0xbe598d8b	-0.212454
12	0x3d33660a	0.043798484
13	0xbc367a60	-0.011137575
14	0x3d2bfec8	0.041991025
15	0x3d229656	0.039694153
16	0xbe90703e	-0.28210634
17	0x3d90fcd8	0.07079476
18	0xbe3ae7b4	-0.1825245
19	0xbe292a46	-0.16520032
20	0xbd9ba922	-0.07600619
21	0xbd7a3a08	-0.0610905
22	0xbe62e0fb	-0.22156136
23	0xbe4f07a0	-0.20217752
24	0xbda36bb9	-0.07979531
25	0x3cedc62c	0.02902516
26	0xbe55b6be	-0.20870492
27	0x3ca59db2	0.020216797
28	0xbe85217e	-0.26002115
29	0x3e62c4ac	0.22145337
30	0xbe100644	-0.1406489
31	0xbce4b9e9	-0.02792068
32	0xbe4fcad8	-0.20292222
33	0xbc932f80	-0.017966986
34	0xbe307511	-0.17232157
35	0x3e71d1dd	0.23615213
36	0x3e9941b1	0.2993293
37	0xbe4f9949	-0.20273317
38	0x3d869205	0.0657082
39	0xbe16a2a9	-0.14710487
40	0x3e2fe2e7	0.171764
41	0xbc143fef	-0.009048446
42	0xbe038d6b	-0.12846915
43	0x3d7b7704	0.0613928
44	0xbd3cf3d1	-0.04613096
45	0x3e5c7372	0.21528414
46	0x3d3abef7	0.045592275
47	0x3c56b52f	0.013104721
48	0xbdf2e6c6	-0.11860423
49	0xbe3d4b4c	-0.18485755
50	0xbcff502d	-0.03116616
51	0x3bfa69f7	0.0076420265
52	0x3c4fc008	0.012680061
53	0xbcfea80a	-0.031085987
54	0x3eb6fd47	0.3574011
55	0x3caad1c8	0.020851985
56	0xbe53b00d	-0.20672627
57	0xbdea0cfc	-0.11428258
58	0x3c7dd79b	0.015493299
59	0xbd4e6b66	-0.050395392
60	0xbce250c5	-0.027626405
61	0xbe0a77eb	-0.13522308
62	0xbe558c50	-0.20854306
63	0xbd30fbca	-0.043208875
64	0xbb043319	-0.0020172058
65	0x3e7730c9	0.24139704
66	0x3cb519b1	0.022106977
67	0x3d9357c8	0.07194477
68	0xbe5e3ae0	-0.21702147
69	0xbe4daa29	-0.20084442
70	0x3c8870ec	0.016655408
71	0xbe15801f	-0.14599656
72	0x3e961475	0.29312482
73	0x3d93bb3e	0.07213448
74	0xbd013f33	-0.031554412
75	0xbcd86762	-0.026416484
76	0x3cc21bcd	0.023694897
77	0xbe13aaaa	-0.14420572
78	0x3eee0bfc	0.46493518
79	0xbe7a5758	-0.24447381
80	0x3e87e4e3	0.26541814
81	0xbe6e657f	-0.23280905
82	0xbd1a0081	-0.037598137
83	0x3d3cbce1	0.046078566
84	0xbe4d0727	-0.2002226
85	0xbe73e4a7	-0.23817693
86	0x3e6ef4be	0.23335549
87	0xbe900672	-0.28129917
88	0x3d8cac6a	0.06868823
89	0xbe354464	-0.1770187
90	0x3cd2d211	0.025734933
91	0xbdef95d3	-0.116984986
92	0xbe2bdeb9	-0.1678418
93	0xbe8814cf	-0.26578376
94	0x3cc4b790	0.02401331
95	0x3cef28b7	0.029194219
96	0xbe83dd96	-0.25754994
97	0x3e929968	0.28632665
98	0x3c01ecd1	0.007929997
99	0xbe167561	-0.14693214
100	0x3e6c16ab	0.23055522
101	0x3d14be92	0.036314555
102	0xbe7d7a43	-0.2475367
103	0xbb2dc1d4	-0.0026513236
104	0xbe286076	-0.16443047
105	0xbccfc6ba	-0.025363315
106	0xbb1f3560	-0.0024293289
107	0x3d7af4bf	0.061268564
108	0xbcccdcf0	-0.025007695
109	0x3e848997	0.25886223
110	0xbe513ae3	-0.2043262
111	0x3c372205	0.0111775445
112	0xbd624ff2	-0.055252023
113	0x3c7efb9f	0.015562921
114	0x3da287b5	0.0793604
115	0x3d87c87e	0.06630038
116	0x3e8557de	0.260436
117	0xbd451d77	-0.048123803
118	0xbe72af0d	-0.23699589
119	0x3ea7fc14	0.32809508
120	0xbe46323c	-0.193551
121	0x3ed97c8c	0.42477834
122	0xbcc5e0e4	-0.024155088
123	0x3c8de9a6	0.017323326
124	0x3b65c5c5	0.0035060507
125	0x3d849b49	0.06474931
126	0xbe2e0aae	-0.16996261
127	0xbccaf338	-0.024774179
128	0xbcf27552	-0.029596958
129	0xbc06f150	-0.008236244
130	0x3d9a211e	0.07525848
131	0xbe3ec63d	-0.1863031
132	0xbe65848a	-0.22413841
133	0x3c2ddf38	0.0106123015
134	0xbe652706	-0.22378168
135	0x3e9a29bc	0.30109966
136	0xbe8549d0	-0.26032877
137	0xbe532dd4	-0.20622951
138	0xbdbfc2b9	-0.09363312
139	0xbe02291a	-0.12710992
140	0x3d5d5009	0.054031406
141	0x3c22a284	0.009926442
142	0xbd72478c	-0.059150264
143	0x3d7ceb34	0.061747745
144	0xbe8596c5	-0.2609159
145	0x3e3ef7e0	0.18649244
146	0xbe190082	-0.149416
147	0xbe682c4e	-0.22673151
148	0xbd33ec19	-0.043926332
149	0xbc38b0f8	-0.011272661
150	0xbe10a986	-0.14127168
151	0xbe2405ee	-0.16017887
152	0x3cbf45cd	0.023348713
153	0xbda0adaa	-0.07845624
154	0xbe4bb086	-0.19891557
155	0x3c855e45	0.016280303
156	0xbe3c0fa1	-0.18365337
157	0xbe9f6ff7	-0.3114011
158	0xbe291d76	-0.16515145
159	0x3d1f8de7	0.038953688
160	0xbe86336d	-0.2621111
161	0x3d0ea45b	0.03482471
162	0xbdac8f23	-0.08425739
163	0x3e619414	0.22029144
164	0x3e97226a	0.29518443
165	0xbe5e74c1	-0.21724226
166	0xbd043ab8	-0.03228256
167	0xbe2ff180	-0.17181969
168	0xbd2cd997	-0.042199697
169	0x3d6248b9	0.055245135
170	0xbe83c76f	-0.25738093
171	0xbb24d1a1	-0.0025149363
172	0x3dbc753d	0.09202049
173	0x3e8d2bcf	0.27572486
174	0x3d9072a3	0.07053115
175	0xbd149716	-0.0362769
176	0xbe88292f	-0.2659392
177	0xbe88fa5e	-0.26753515
178	0x3ddef434	0.10886422
179	0x3d12336e	0.03569358
180	0x3d5dfe8e	0.05419784
181	0xbd04780e	-0.032341056
182	0x3ebfacba	0.37436467
183	0xbdc1d9a8	-0.09465343
184	0xbe78608b	-0.24255578
185	0xbe233947	-0.15939818
186	0x3d8d71d1	0.069064744
187	0xbd9cd110	-0.07657063
188	0x3c713aac	0.014723461
189	0xbe823e88	-0.25438333
190	0xbe71f7b3	-0.23629646
191	0x3da27c73	0.07933893
192	0xbc1b0ecd	-0.009463978
193	0x3e3db7fa	0.18527213
194	0x3d31e2fd	0.043429364
195	0x3cb7254a	0.022356648
196	0xbdbfdaf0	-0.09367931
197	0xbe7001bb	-0.2343816
198	0xbcb4e9fd	-0.02208423
199	0xbe2fe671	-0.1717775
200	0x3e82dfe8	0.25561452
201	0x3d974ecd	0.07388077
202	0x3d329ebf	0.043608423
203	0x3c815d06	0.015791427
204	0xbd567052	-0.05235321
205	0xbe5ee47c	-0.21766847
206	0x3eec17ff	0.46112058
207	0xbe28b543	-0.16475396
208	0x3e1afa57	0.1513456
209	0xbe1e81ad	-0.15479155
210	0xbb9a8698	-0.004715752
211	0x3d513942	0.051079996
212	0xbe7c4065	-0.2463394
213	0xbe72f588	-0.23726475
214	0x3e994080	0.29932022
215	0xbe551f44	-0.20812708
216	0x3d947ead	0.07250724
217	0xbe7d962f	-0.24764322
218	0xbd888703	-0.066663764
219	0xbe3e45be	-0.18581292
220	0xbe899424	-0.26870835
221	0xbe7cf4f7	-0.24702822
222	0x3aab6130	0.0013075229
223	0x3c91e14d	0.017807627
224	0xbe744ce2	-0.23857453
225	0x3e49044b	0.19630544
226	0x3d205b74	0.039149716
227	0xbdfb1e44	-0.12261632
228	0x3e96f378	0.29482627
229	0x3d6aa5af	0.057286914
230	0xbe7694c7	-0.24080192
231	0x3c771448	0.015080519
232	0xbe053141	-0.1300707
233	0xbd38fe5d	-0.045164455
234	0xbda08a67	-0.07838898
235	0x3d455632	0.048177905
236	0x3d1ffd09	0.039059673
237	0x3e5847c7	0.21121131
238	0xbe5433c0	-0.20722866
239	0x3d643267	0.05571213
240	0x3d587a07	0.05285075
241	0xbad9d4ed	-0.0016619243
242	0xbce85304	-0.028359897
243	0xbd95bbd7	-0.07311218
244	0x3e9b08bc	0.302801
245	0xbd1dc43c	-0.03851722
246	0xbe635ab5	-0.2220257
247	0x3ec66d83	0.38755426
248	0xbe0f38fd	-0.13986583
249	0x3ed13afc	0.40865314
250	0x3dabad0f	0.08382618
251	0x3d141a24	0.036157742
252	0x3d8ce627	0.068798356
253	0xbcd8b5d9	-0.0264539
254	0xbe8057f6	-0.2506711
255	0x3b460d00	0.003022015

fc4.bias f4 [5]
0	0x3d674f01	0.05647183
1	0x3d4afb7b	0.049556237
2	0x3cc211eb	0.023690185
3	0x3d301190	0.0429855
4	0x3dd2b198	0.102877796
