models/lateral_stage2_seed1618_best.pth (torch, 412467 bytes, 8 tensors)

fc1.weight f4 [256, 9]
1.5043622 0.19581702 -0.5225713 0.66122353 0.2789274 0.3706175 0.24947408 -0.26050407
-0.29505968 0.99568796 0.32256287 -0.09026309 -0.6977573 -0.10822189 0.6413343 -0.26778397
0.15941587 -0.012861594 1.755963 -0.3606754 0.028195186 -0.07751206 -0.1712621 -0.6505634
0.27729818 -0.13381886 0.14473327 -0.8325194 -0.28154975 -0.1605032 0.17630821 -0.18952365
0.38460132 0.06326306 0.22355607 0.20485488 -2.1896355 0.027697949 -0.3935758 0.0117174545
0.29248586 0.14473796 -0.24645424 0.17042324 0.18014699 -1.1441462 0.02609562 -0.113907054
0.1382252 -0.31226635 0.8156405 0.055499822 -0.065184325 -0.2323702 1.9734346 0.28046438
0.28442454 -0.6717365 -0.49924734 0.13742943 0.1624268 -0.18791549 0.09659032 0.76557255
0.115687944 -0.6026547 0.6735103 0.060057636 0.101419024 -0.2767433 0.084308386 0.034885228
3.034167 0.030858934 -0.34497574 -0.4185475 0.23232293 -0.05277271 -0.22428064 -0.11722553
-0.1084398 -0.07795279 -0.109138936 -0.5199765 0.6738448 0.18454915 -0.013072927 -0.26187572
-0.21670783 0.23014499 0.28995302 0.265415 0.6029123 -0.4780152 0.07425943 -0.22710155
0.10202053 0.25383452 0.08732289 0.071238026 -0.8122446 0.08879898 -0.18513198 0.15621239
0.70333874 0.03819871 -0.2997375 -0.11206297 1.6154056 0.2134214 0.52791053 -0.2561542
-0.26458228 0.818136 0.1879516 0.25847545 -0.44625276 0.07975887 -0.08731968 -0.37020102
0.44244263 0.31876245 0.24949948 -0.19171464 -0.20631015 -0.24180812 -1.1204593 -0.006072042
0.21130042 -0.21597855 -0.12686001 -0.32636058 -0.26515925 -0.2878391 0.122993656 2.636273
0.18078743 -0.077798136 -0.37981954 -0.30100223 -0.28825346 -0.12045941 -0.09884429 -0.14690414
-2.616543 0.07377433 0.106422134 -0.29006025 0.14169902 0.40141404 -0.07172656 -0.20507729
0.13116103 1.7775158 -0.012114809 0.11736932 0.058547616 0.088650815 0.27742466 0.24313775
0.051919103 0.187735 2.197519 0.050682057 0.3629307 0.1616891 -0.14350086 -0.31692594
0.07328722 -0.19169013 -0.020226229 -2.433915 0.06668539 0.12634735 0.21219298 0.31930396
0.33318245 0.028415412 -0.16613075 0.01518235 -1.0771285 -1.8254124 0.3607468 -0.27190617
0.21940742 -0.21540907 -0.014645219 0.104890615 0.16801661 0.35244736 -0.84226274 0.4003615
-0.2839602 -0.3202963 0.024876282 -0.32172284 -0.0080856085 -0.18996996 -0.97738904 -0.2569719
-0.019136835 -0.49018192 0.09761761 0.38429037 -0.039003015 -0.054753304 0.1438903 0.7250281
0.054167416 0.14310089 0.6625748 -1.0112656 -0.35062572 0.2300305 0.32734397 0.02381654
-2.4642205 0.4538496 -0.27233008 -0.51366353 -0.36726877 -0.4235139 -0.003943354 -0.19055247
0.25106755 -2.3673458 0.33529866 0.09565285 -0.04934263 0.15469813 0.12358913 -0.2125679
0.22724953 0.08589227 -3.5444984 0.28285828 -0.12657674 -0.07261819 0.25409037 -0.06481916
0.2811989 0.25903288 0.23709226 -0.85330707 0.31699502 -0.35375845 0.57301277 0.42829007
-0.09334608 -0.08575234 0.13876185 0.36793634 -2.0950797 -0.038579416 -0.4011131 0.10782364
00000000: f18e c03f 4284 483e 3cc7 05bf f245 293f
00000010: 92cf 8e3e 94c1 bd3e 2276 7f3e ca60 85be
00000020: 1012 97be 68e5 7e3f f626 a53e dbdb b8bd
00000030: 39a0 32bf 70a3 ddbd 7c2e 243f fb1a 89be
00000040: ea3d 233e 6fb9 52bc 65c3 e03f 72aa b8be
00000050: 97f9 e63c a5be 9ebd 555f 2fbe 538b 26bf
00000060: 07fa 8d3e d007 09be f534 143e fe1f 55bf
00000070: 4a27 90be f35a 24be 248a 343e 7d12 42be
00000080: 77ea c43e 1090 813d e2eb 643e 7ac5 513e
00000090: fd22 0cc0 cfe6 e23c c482 c9be 91fa 3f3c
000000a0: b5c0 953e 3036 143e 805e 7cbe 6e83 2e3e
000000b0: 7478 383e 6273 92bf 7bc6 d53c 1a48 e9bd
000000c0: e88a 0d3e 60e1 9fbe d1cd 503f c853 633d
000000d0: 5c7f 85bd 74f2 6dbe 8199 fc3f 0799 8f3e
000000e0: 18a0 913e ecf6 2bbf 599d ffbe 4dba 0c3e
000000f0: 3653 263e eb6c 40be 25d1 c53d 90fc 433f
00000100: cded ec3d 9447 1abf 2c6b 2c3f fffe 753d
00000110: c7b4 cf3d 4cb1 8dbe e0a9 ac3d d0e3 0e3d
00000120: cb2f 4240 e0cb fc3c a9a0 b0be dc4b d6be
00000130: 10e6 6d3e 3228 58bd d3a9 65be f013 f0bd
00000140: b015 debd b6a5 9fbd 3c84 dfbd 2e1d 05bf
00000150: 1881 2c3f 74fa 3c3e d42f 56bc 9314 86be
00000160: a8e8 5dbe 21ab 6b3e b974 943e 7ae4 873e
00000170: 7658 1a3f 69be f4be 5415 983d 4f8d 68be
00000180: 24f0 d03d 99f6 813e 58d6 b23d 3ee5 913d
00000190: 43ef 4fbf 3ddc b53d 3d93 3dbe 24f6 1f3e
000001a0: 020e 343f 4076 1c3d 3277 99be 4581 e5bd
000001b0: 9cc5 ce3f 248b 5a3e 2525 073f a526 83be
000001c0: 5477 87be 5c71 513f 6276 403e e556 843e
000001d0: 3e7b e4be 9e58 a33d a9d4 b2bd fd8a bdbe
000001e0: d787 e23e d534 a33e cb7c 7f3e d850 44be
000001f0: f842 53be 8c9c 77be 366b 8fbf fbf7 c6bb
00000200: 235f 583e 7b29 5dbe 97e7 01be bc18 a7be
00000210: f4c2 87be a65f 93be 19e4 fb3d b2b8 2840
00000220: 5720 393e a154 9fbd b577 c2be f71c 9abe
00000230: f595 93be 6cb3 f6bd e06e cabd 0a6e 16be
00000240: 7175 27c0 ff16 973d d9f3 d93d c782 94be
00000250: 8c19 113e 2486 cd3e 60e5 92bd c8ff 51be
00000260: 144f 063e a385 e33f 317d 46bc 535f f03d
00000270: a0cf 6f3d 8f8e b53d 9b0a 8e3e 1af9 783e
00000280: 20a9 543d 9b3d 403e 27a4 0c40 fd97 4f3d
00000290: 0dd2 b93e d491 253e e4f1 12be 1e44 a2be
000002a0: 9c17 963d 6b4a 44be 7ab1 a5bc 43c5 1bc0
000002b0: 5a92 883d 3361 013e 1e49 593e cf7b a33e
000002c0: e496 aa3e 70c7 e83c 2e1e 2abe 64bf 783c
000002d0: 59df 89bf 1da7 e9bf ceb3 b83e 4937 8bbe
000002e0: 57ac 603e 3294 5cbe 80f2 6fbc e4d0 d63d
000002f0: 8c0c 2c3e fb73 b43e 889e 57bf 2ffc cc3e
00000300: 3b63 91be e0fd a3be 58c9 cb3c dbb8 a4be
00000310: 8079 04bc 7c87 42be 2b36 7abf d291 83be
00000320: dac4 9cbc 20f9 fabe beeb c73d b5c1 c43e
00000330: a0c1 1fbd 0045 60bd fb57 133e 719b 393f
00000340: a7de 5d3d 0a89 123e 819e 293f 2771 81bf
00000350: 3785 b3be 1e8d 6b3e a199 a73e e81a c33c
00000360: cab5 1dc0 fa5e e83e d96e 8bbe 747f 03bf
00000370: a70a bcbe d0d6 d8be 4037 81bb 3020 43be
00000380: ed8b 803e 9882 17c0 44ac ab3e a4e5 c33d
00000390: 7f1b 4abd 3069 1e3e 4c1c fd3d 66ab 59be
000003a0: 1ab4 683e 49e8 af3d 10d9 62c0 cdd2 903e
000003b0: 559d 01be d8b8 94bd 2218 823e e8bf 84bd
000003c0: 4df9 8f3e f59f 843e 50c8 723e 5572 5abf
000003d0: 2c4d a23e d41f b5be f7b0 123f d648 db3e
000003e0: 3b2c bfbd ec9e afbd 9617 0e3e 2762 bc3e
000003f0: c915 06c0 7305 1ebd b25e cdbe a4d2 dc3d

fc1.bias f4 [256]
0.114709206 -0.29349303 0.4184482 0.3757687 -0.21223849 -0.13379155 -0.20426975 0.20170273
0.3479591 -0.69243914 0.17438097 -0.4836723 -0.085254066 -0.28312916 0.40742347 0.51344514
0.41347572 0.27765572 0.39695552 0.0421958 0.11330284 0.14114517 0.4651284 -0.10417363
0.23398268 0.2449943 0.22816585 0.18676817 -0.25312704 0.16907091 -0.21636093 -0.47325563
-0.015493343 0.44708925 0.25451294 0.39889836 -0.10932739 -0.015605467 0.042271227 0.0712634
-0.17554545 0.25094306 0.34284878 0.2425366 0.28396854 0.0427709 -0.10856621 0.037187256
0.19144525 0.18949825 0.6045688 0.48977032 -0.22147962 0.5162856 -0.29962054 -0.39152503
0.43564206 0.03859083 0.37717885 -0.17886318 0.3149629 -0.39132187 -0.05333587 0.58789676
0.45098338 0.4617369 -0.2943936 0.3429961 0.06230809 -0.25639802 0.008766209 0.5099246
0.008512391 0.03460313 0.06704634 -0.043560974 -0.26807135 -0.15007888 -0.27562696 0.2815921
0.37872508 0.005641268 0.5098911 0.2627842 0.16786207 0.38086608 -0.007820979 0.45789635
-0.09765835 -0.003394374 -0.34415102 0.41762492 0.5069286 0.3819442 0.40996712 0.29090986
-0.35520542 0.28142554 -0.06700535 0.036727913 -0.3123276 -0.16980127 -0.10908966 0.28143206
-0.422335 -0.106511876 0.5153251 -0.28743717 -0.3307678 0.100678734 -0.023237703 0.083697245
-0.44738427 0.13371976 -0.23433451 0.37750694 -0.026404815 0.25026596 -0.17412703 -0.08986032
0.16683342 0.060681727 -0.48103625 -0.004452551 -0.28015763 -0.0033626421 0.26459154 0.3048049
0.038507417 -0.0070914812 -0.58571476 0.5287605 0.13684262 -0.10074413 0.30413967 0.491431
-0.2815945 -0.47649384 0.19725691 0.33689693 -0.2395956 0.112265475 0.2866102 -0.2613527
0.13332462 -0.2755621 0.49318907 0.09455861 0.070987836 0.03145733 -0.21204625 0.267233
-0.31050667 0.2727009 0.2112765 0.41946402 -0.19831036 -0.18859334 -0.24877349 -0.009223434
-0.13039103 -0.29400736 0.06813001 -0.559497 -0.31237763 -0.11867542 0.3673633 0.008453397
0.115512185 -0.06714999 0.13922425 0.19691765 0.16109686 -0.10968288 0.19484115 0.42894152
0.48898134 -0.29972926 0.5207881 0.282335 -0.17869556 -0.40075707 -0.17822307 -0.31238967
0.39678696 0.16523968 -0.05437941 -0.54314214 -0.3286598 -0.12719713 0.31803718 0.31691635
-0.17673984 0.2683445 0.25829726 -0.041327186 0.36744067 0.620615 0.3316682 0.3762006
-0.5276302 0.063509464 0.078620456 -0.265381 0.31367865 0.14427349 -0.39856696 0.035876315
-0.0062712063 0.14489275 0.3982459 0.089626625 0.0043914584 0.1345448 0.5285564 0.07998455
-0.107983306 0.07114913 0.3340758 0.10819048 -0.1881143 -0.289467 -0.20393418 -0.0016018008
-0.15736821 0.47508183 0.06548223 0.27982375 -0.3937207 -0.0382679 0.12833989 0.37306374
0.06367045 0.37296274 0.34028044 0.23589052 -0.08173616 0.35579962 0.07493008 0.30774122
0.34970406 0.3725482 0.24449329 0.07328281 -0.13451466 -0.18235548 0.4046343 0.113884866
0.3737529 -0.1961674 -0.10622326 -0.22974235 -0.18972784 -0.029699527 0.60695434 0.48595753
00000000: a9ec ea3d b844 96be d83e d63e c164 c03e
00000010: 0c55 59be a700 09be 172c 51be 298b 4e3e
00000020: b227 b23e b143 31bf ed90 323e e5a3 f7be
00000030: af99 aebd 4ef6 90be cf99 d03e 2471 033f
00000040: 17b3 d33e e428 8e3e c13d cb3e 81d5 2c3d
00000050: 520b e83d 5c88 103e 4f25 ee3e fc58 d5bd
00000060: 2899 6f3e c9df 7a3e 4fa4 693e 2840 3f3e
00000070: de99 81be ed20 2d3e b88d 5dbe 904e f2be
00000080: cad7 7dbc e2e8 e43e 854f 823e 683c cc3e
00000090: 0ae7 dfbd 13ae 7fbc 9824 2d3d 8cf2 913d
000000a0: 30c2 33be 9c7b 803e e089 af3e 845b 783e
000000b0: 5364 913e 8a30 2f3d f657 debd aa51 183d
000000c0: 390a 443e d40b 423e 05c5 1a3f 2dc3 fa3e
000000d0: 8ecb 62be 4b2b 043f dd67 99be f875 c8be
000000e0: 7a0c df3e 6b11 1e3d 961d c13e e927 37be
000000f0: d142 a13e 575b c8be b776 5abd 6780 163f
00000100: 4be7 e63e c768 ec3e c2ba 96be 2f9d af3e
00000110: c536 7f3d 9a46 83be 25a0 0f3c 6b8a 023f
00000120: 8e77 0b3c 03bc 0d3d 974f 893d fe6c 32bd
00000130: a640 89be 47ae 19be fa1e 8dbe d72c 903e
00000140: 41e8 c13e 63da b83b 3988 023f a78b 863e
00000150: 09e4 2b3e e100 c33e 9023 00bc 6471 ea3e
00000160: 1a01 c8bd 2574 5ebb 9034 b0be efd2 d53e
00000170: 13c6 013f 318e c33e 36e7 d13e 23f2 943e
00000180: 7cdd b5be 0217 903e 1a3a 89bd 0270 163d
00000190: 67e9 9fbe 62e0 2dbe 666a dfbd dd17 903e
000001a0: 4b3c d8be e622 dabd 59ec 033f f72a 93be
000001b0: 665a a9be a730 ce3d ff5c bebc 7669 ab3d
000001c0: 8d0f e5be d5ed 083e 63f5 6fbe 9748 c13e
000001d0: e94e d8bc dc22 803e 5b4e 32be b008 b8bd
000001e0: 61d6 2a3e 678d 783d 624a f6be b4e6 91bb
000001f0: d270 8fbe c65f 5cbb 8b78 873e 630f 9c3e
00000200: f4b9 1d3d a85f e8bb 67f1 15bf d95c 073f
00000210: 7920 0c3e f052 cebd 32b8 9b3e d89c fb3e
00000220: 282d 90be 00f7 f3be b7fd 493e c17d ac3e
00000230: 8d58 75be 71eb e53d 92be 923e 05d0 85be
00000240: 4086 083e 7a16 8dbe 4783 fc3e f2a7 c13d
00000250: 1262 913d 67d9 003d a722 59be c4d2 883e
00000260: bbfa 9ebe 749f 8b3e de58 583e fdc3 d63e
00000270: df11 4bbe 9d1e 41be 7abe 7ebe e31d 17bc
00000280: 3a85 05be 2288 96be bf87 8b3d 323b 0fbf
00000290: f6ef 9fbe 190c f3bd 0b17 bc3e 1e80 0a3c
000002a0: a791 ec3d ef85 89bd cd90 0e3e c8a4 493e
000002b0: 93f6 243e 6ba1 e0bd 7084 473e 399e db3e
000002c0: c35b fa3e 1d76 99be 5e52 053f 378e 903e
000002d0: f8fb 36be 0830 cdbe 1c80 36be 8af1 9fbe
000002e0: a927 cb3e 9734 293e f2bc 5ebd 5d0b 0bbf
000002f0: 1946 a8be f73f 02be c5d5 a23e dc42 a23e
00000300: 4afb 34be 7364 893e 8a3f 843e b246 29bd
00000310: 2f21 bc3e a0e0 1e3f 6ad0 a93e 5d9d c03e
00000320: c612 07bf 4011 823d c303 a13d 05e0 87be
00000330: 7d9a a03e 6ebc 133e f810 ccbe 0bf3 123d
00000340: b17e cdbb c45e 143e e3e6 cb3e 2a8e b73d
00000350: 39e6 8f3b 1dc6 093e 794f 073f f1ce a33d
00000360: 5a26 ddbd a3b6 913d fc0b ab3e f892 dd3d
00000370: 09a1 40be 0535 94be 1fd4 50be 84f3 d1ba
00000380: 2225 21be ed3d f33e 8c1b 863d 0f45 8f3e
00000390: c295 c9be cdbe 1cbd 886b 033e 3602 bf3e
000003a0: a765 823d f9f4 be3e 3d39 ae3e 498d 713e
000003b0: 4a65 a7bd 5e2b b63e f174 993d 4290 9d3e
000003c0: 690c b33e a3be be3e 735c 7a3e 4c15 963d
000003d0: 36be 09be 65bb 3abe 3a2c cf3e 783c e93d
000003e0: 8a5c bf3e 1be0 48be 958b d9bd 9441 6bbe
000003f0: 0448 42be 6c4c f3bc 5c61 1b3f 6dcf f83e

fc2.weight f4 [256, 256]
-0.007405226 -0.0299403 -0.005649281 -0.2767808 -0.4382512 -0.074619286 0.11085243 -0.062368326
-0.49515477 0.010170109 0.062271845 -0.13499375 0.26300132 0.031853177 -0.007084977 -0.09085993
-0.12578496 -0.18002796 0.023196887 -0.04037976 0.33332494 0.0923206 -0.076809786 0.11660725
0.03488704 -0.35379106 -0.17697702 -0.267044 -0.5572924 0.04345021 -0.0133618945 0.4049491
0.002339473 -0.6443642 -0.096922256 -0.28009656 -0.10072032 0.15302816 -0.34653905 -0.36678198
0.12245437 -0.68680483 -0.8294522 -0.095051646 -0.0641971 -0.18580371 -0.060593423 0.040669326
0.043106325 -0.14424048 -0.09830352 -0.34666488 0.15401806 -0.17096661 0.14054291 0.3187296
-0.43831822 -0.48980093 -0.3561881 -0.24245076 -1.1334742 0.21175484 -0.1370391 -0.36259764
-0.031415284 -0.099749655 0.0055194437 -0.028001929 0.23112024 0.18288657 -0.34080073 -0.990781
0.152028 0.09510255 0.06963717 0.27834374 0.039989855 -0.07349193 -0.056940503 -0.0006211801
-0.37570605 0.0071037756 0.09804996 -0.0809495 0.06631835 -0.054354656 -0.18437813 -0.25833786
-0.21488675 -0.11511308 0.2552428 -0.1409421 -0.054541662 -0.2974507 -0.19469903 -0.056268193
-0.053247273 -0.3388108 -0.6292474 0.102080084 0.20507357 -0.05455188 0.0024020253 -0.6030681
0.6095174 -0.09729735 -0.1523443 -0.22441633 0.28948435 -0.096214615 -0.15980272 -0.38897634
0.031942204 -0.1617106 -0.06893598 0.010775839 0.009472083 -1.1559299 0.28107154 0.15788662
-0.06064852 -0.18529452 0.4601923 -0.64483225 0.3741171 -0.11654759 0.11527278 -0.19600753
0.012540215 -0.11411833 0.69939953 0.020174325 -0.3897343 0.16824512 -0.067881554 -0.035220582
-0.0016870769 -0.3008574 0.32658854 -0.18133223 0.04525047 -0.5883325 -0.19775862 0.20906235
-0.2889202 0.044734765 -0.023021262 0.19904749 -0.020613741 0.116983816 0.3876833 0.12016167
0.01081489 0.060838882 0.13599457 -0.17098042 0.03199729 0.22372527 0.006259861 -0.10529562
-0.02613344 0.2585353 0.0066401195 0.26361287 0.18965438 0.24242325 -0.07666279 0.09957462
0.054204352 -0.08506391 0.013248374 -0.023597859 0.0846884 0.12876274 0.16681924 -0.33275086
-0.21763201 0.28077373 0.10988969 -0.7384303 0.07918718 0.48931468 0.23640479 -0.09687281
-0.17401281 -0.05680592 0.10777447 0.005845459 0.2535373 0.23267795 -0.06735155 0.03253434
0.20402461 -0.7920923 0.0148669435 -0.009621426 0.06781792 0.023475388 -0.30583236 -0.25967827
0.5354441 -0.04256139 0.12793031 -0.23435932 0.045730468 -0.09859433 0.3713112 0.29319146
-0.10589736 -0.23251727 0.48031396 -0.4817391 -0.1764482 -0.5386027 -0.010642455 0.04340046
0.31807405 -0.5838744 -0.17236343 -0.22460394 0.35288045 0.11979018 0.15924346 -0.17513151
-0.08194239 -0.16649505 -0.061661433 -0.3192222 0.3886776 -0.6081389 0.36158162 -0.16335344
0.12222493 0.12065865 -0.22048779 0.036242675 -0.104219206 0.013672325 0.1270352 -0.09411646
-0.8477041 -0.028290886 0.007070512 0.034421876 -0.19905803 -0.10500034 0.4293908 -0.015762622
0.029309971 -0.060680434 -0.8732399 -0.28544626 0.23164304 0.15648468 -0.14789824 -0.23870778
00000000: 8aa7 f2bb 5c45 f5bc 9b1d b9bb 37b6 8dbe
00000010: 7662 e0be ffd1 98bd 9906 e33d ee75 7fbd
00000020: ed84 fdbe 87a0 263c c310 7f3d cd3b 0abe
00000030: 1ca8 863e 7a78 023d 1829 e8bb c514 babd
00000040: c6cd 00be 4059 38be 6607 be3c 3f65 25bd
00000050: 91a9 aa3e 9512 bd3d 734e 9dbd c8cf ee3d
00000060: b6e5 0e3d 1a24 b5be 7739 35be feb9 88be
00000070: b7aa 0ebf d9f8 313d d9eb 5abc 7d55 cf3e
00000080: d851 193b 0df5 24bf 2d7f c6bd d168 8fbe
00000090: 7546 cebd 6ab3 1c3e 916d b1be d9ca bbbe
000000a0: 5bc9 fa3d 71d2 2fbf fb56 54bf 70aa c2bd
000000b0: c579 83bd 5443 3ebe cf30 78bd e194 263d
000000c0: 4290 303d c7b3 13be 5b53 c9bd 0f7e b1be
000000d0: e9b6 1d3e df11 2fbe 7bea 0f3e 8730 a33e
000000e0: 3f6b e0be 30c7 fabe 495e b6be 0345 78be
000000f0: af15 91bf 43d6 583e fa53 0cbe 66a6 b9be
00000100: 50ad 00bd 8c49 ccbd 73dc b43b 4d64 e5bc
00000110: c9aa 6c3e 9e46 3b3e 6f7d aebe d3a3 7dbf
00000120: 3aad 1b3e 20c5 c23d ef9d 8e3d 1283 8e3e
00000130: 67cc 233d f082 96bd 723a 69bd b1d6 22ba
00000140: 8b5c c0be cac6 e83b 6bce c83d dac8 a5bd
00000150: ead1 873d fda2 5ebd 9fcd 3cbe dc44 84be
00000160: 460b 5cbe 68c0 ebbd 2faf 823e 2053 10be
00000170: 1467 5fbd 754b 98be 2f5f 47be 7a79 66bd
00000180: d019 5abd 9c78 adbe 5c16 21bf 5d0f d13d
00000190: cefe 513e cb71 5fbd 4c6b 1d3b ac62 1abf
000001a0: 5509 1c3f d543 c7bd 2500 1cbe 65cd 65be
000001b0: 4b37 943e 2b0c c5bd 53a3 23be e827 c7be
000001c0: d4d5 023d 7797 25be 4f2e 8dbd 258d 303c
000001d0: cc30 1b3c 83f5 93bf 9ce8 8f3e 08ad 213e
000001e0: 956a 78bd d9bd 3dbe 539e eb3e ba13 25bf
000001f0: 478c bf3e 81b0 eebd 2314 ec3d 33b6 48be
00000200: 7975 4d3c dfb6 e9bd d90b 333f a044 a53c
00000210: 418b c7be 7348 2c3e 7c05 8bbd 7543 10bd
00000220: e820 ddba fb09 9abe 9d36 a73e 28af 39be
00000230: 8f58 393d f59c 16bf 3c81 4abe 7114 563e
00000240: 59ed 93be cd3b 373d 1697 bcbc 1bd3 4b3e
00000250: 26de a8bc 3695 ef3d 6d7e c63e 5217 f63d
00000260: f030 313c 3132 793d 2942 0b3e 7e15 2fbe
00000270: 970f 033d 3d18 653e 851f cd3b 3ba5 d7bd
00000280: cc15 d6bc bd5e 843e 5c95 d93b 44f8 863e
00000290: c234 423e cd3d 783e 6101 9dbd c7ed cb3d
000002a0: 6205 5e3d fd35 aebd b50f 593c 4c50 c1bc
000002b0: 1d71 ad3d 61da 033e aad2 2a3e 525e aabe
000002c0: edda 5ebe 93c1 8f3e d90d e13d c509 3dbf
000002d0: e32c a23d 7487 fa3e 1914 723e 4065 c6bd
000002e0: 6a30 32be 53ad 68bd dcb8 dc3d 448b bf3b
000002f0: a4cf 813e 2143 6e3e 9cef 89bd ba42 053d
00000300: d4eb 503e 90c6 4abf 7b94 733c 30a3 1dbc
00000310: 1fe4 8a3d 754f c03c 0f96 9cbe 8df4 84be
00000320: dd12 093f da54 2ebd 2a00 033e e4fb 6fbe
00000330: df4f 3b3d d3eb c9bd 801c be3e 311d 963e
00000340: b7e0 d8bd 0219 6ebe b6eb f53e 82a6 f6be
00000350: d6ae 34be dee1 09bf b15d 2ebc aec4 313d
00000360: 9ada a23e cb78 15bf 0a80 30be 93fe 65be
00000370: bfac b43e 8e54 f53d b810 233e ad55 33be
00000380: 69d1 a7bd ae7d 2abe b390 7cbd 1871 a3be
00000390: c000 c73e feae 1bbf 3a21 b93e 2046 27be
000003a0: 1051 fa3d e21b f73d 8dc7 61be 3373 143d
000003b0: e170 d5bd e301 603c 8415 023e 21c0 c0bd
000003c0: 2303 59bf 4ac2 e7bc c1af e73b f4fd 0c3d
000003d0: ded5 4bbe 6b0a d7bd 1cd9 db3e 9d20 81bc
000003e0: 771b f03c 0c8c 78bd a68c 5fbf 0326 92be
000003f0: d533 6d3e 853d 203e a372 17be d06f 74be

fc2.bias f4 [256]
-0.35877442 0.04593793 -0.0101913 -0.0763864 0.08119321 0.15420416 -0.05742716 0.013308216
-0.017152622 -0.19655873 -0.00043352784 0.0031925042 0.062768355 0.05335136 -0.061185632 -0.04384597
-0.006767555 -0.06585774 -0.027954474 0.057876617 0.04494945 -0.05682898 -0.01413071 0.037450783
0.15201715 -0.035459816 0.40105996 -0.036460146 0.068793155 -0.055258777 -0.049287375 0.1524943
0.10452697 0.024107572 -0.07041894 0.049660083 0.1385276 -0.016961357 0.24472173 -0.025082152
0.015403761 0.0673037 -0.010429049 0.15777536 0.11992593 -0.05095895 -0.045039196 -0.06147357
0.20072079 -0.026529182 -0.048113346 -0.006109782 0.016625263 0.15797138 0.0904496 0.14426577
0.04437866 -0.09630589 -0.0839901 0.022415118 0.001463343 -0.26613662 -0.15011993 -0.00041171449
0.0605465 -0.0977441 -0.14551292 -0.060072515 -0.021961192 0.04021735 0.17728078 -0.054675214
0.04732725 -0.048650473 0.28791487 0.04578381 0.045418356 0.1321483 0.15653147 0.15697792
0.021224981 0.02315251 -0.17762305 0.06960855 -0.23611087 0.139978 0.11628456 0.15246694
0.0036556378 -0.00326088 0.06907718 -0.0026800104 -0.016287232 0.049784377 -0.010288572 -0.07269279
-0.031967167 0.046334565 0.054265715 0.03827442 0.020011239 0.014600895 0.13729997 -0.073936164
0.16694018 0.028797194 0.04505081 -0.07315704 -0.028001044 0.08911835 0.19047418 -0.11143424
-0.05032796 0.5842587 -0.0004980361 -0.009299258 -0.018438296 0.20700566 0.072525546 -0.28460887
-0.05119533 0.02684985 0.06383944 -0.0035478224 -0.03091729 0.0413323 -0.03769213 0.30127466
0.041815747 0.028919479 -0.05273374 -0.0025429565 -0.073635854 -0.017449083 0.093315676 -0.028126787
-0.012176038 -0.056448422 -0.023036463 -0.03364359 -0.0354506 -0.040472966 -0.07489431 -0.015258383
0.2996528 0.20656212 0.1617699 -0.02116783 0.32991046 -0.019254861 0.086831026 0.042935144
-0.008049881 -0.10989056 0.108063914 0.050730877 0.030082235 0.13542424 0.1725275 0.01307781
0.05867851 0.0155325625 -0.04207566 0.08844616 0.086111486 -0.02234703 0.11762926 -0.20598318
0.042746346 -0.002101947 -0.028553696 -0.07790966 0.004043074 -0.035685368 0.013950349 -0.0026717684
-0.03403233 0.04268311 0.033083405 0.059712872 0.11754685 -0.019302038 0.09664523 0.020956194
-0.21035014 -0.017436482 -0.03138835 0.11917735 0.012799727 -0.106812574 -0.04734932 0.04373636
0.021301767 -0.12954114 0.03817286 0.11103266 0.014080434 0.058886938 0.15202993 0.09404922
0.15586388 0.17864676 0.033754434 0.18038277 0.14438826 -0.21490079 -0.072361864 -0.018902047
0.00751285 -0.06721833 0.04129676 0.11059476 0.15875354 0.04905039 0.10056587 -0.103571065
0.075830124 0.011599928 0.03562965 0.05665227 -0.07055063 -0.04392858 -0.0075576603 0.079886585
0.02553927 0.005425817 0.055328645 -0.143952 0.121052146 -0.022574626 0.011954993 -0.0319528
-0.124650925 -0.05467494 0.026035396 -0.03128201 -0.045998137 0.015315234 0.0098386705 -0.08856536
0.15607971 0.24883153 0.08026437 0.007422971 -0.013319033 0.042122275 0.031261742 -0.16488083
-0.011231017 0.042814396 -0.02635547 0.14633797 -0.06593556 0.01630767 0.11011608 -0.044843625
00000000: 48b1 b7be 6929 3c3d 69f9 26bc 7970 9cbd
00000010: a048 a63d b2e7 1d3e be38 6bbd b40a 5a3c
00000020: a883 8cbc b146 49be 1f4b e3b9 5539 513b
00000030: b28c 803d f586 5a3d c99d 7abd d597 33bd
00000040: 5ec2 ddbb 6ce0 86bd c800 e5bc 0810 6d3d
00000050: ea1c 383d 81c5 68bd 7e84 67bc fe65 193d
00000060: 62aa 1b3e 503e 11bd bb57 cd3e 3c57 15bd
00000070: 6de3 8c3d 0757 62bd 8fe1 49bd 7727 1c3e
00000080: 3c12 d63d 3e7d c53c ce37 90bd 5f68 4b3d
00000090: 2eda 0d3e 8bf2 8abc 5598 7a3e 1679 cdbc
000000a0: 0e60 7c3c 86d6 893d 9ade 2abc dd8f 213e
000000b0: ba9b f53d 55ba 50bd 057b 38bd b6cb 7bbd
000000c0: c089 4d3e ba53 d9bc 8012 45bd 9134 c8bb
000000d0: b431 883c 40c3 213e a43d b93d 68ba 133e
000000e0: 66c6 353d 063c c5bd 0003 acbd e99f b73c
000000f0: a5cd bf3a 0f43 88be 0ab9 19be 62db d7b9
00000100: 9bff 773d 0f2e c8bd 5701 15be 990e 76bd
00000110: f5e7 b3bc f3ba 243d 1889 353e 1ef3 5fbd
00000120: 38da 413d b845 47bd 9469 933e ce87 3b3d
00000130: 9908 3a3d e251 073e c949 203e d2be 203e
00000140: 03e0 ad3c 55aa bd3c d1e2 35be ed8e 8e3d
00000150: 0cc7 71be 6556 0f3e 9926 ee3d 4b20 1c3e
00000160: 6d93 6f3b 7db4 55bb 5678 8d3d 1da3 2fbb
00000170: cd6c 85bc b4ea 4b3d 6691 28bc f5df 94bd
00000180: 01f0 02bd 50c9 3d3d ba45 5e3d a3c5 1c3d
00000190: 9cee a33c 9838 6f3c 5d98 0c3e d86b 97bd
000001a0: 5ef2 2a3e 18e8 eb3c 3387 383d 5cd3 95bd
000001b0: 7262 e5bc ae83 b63d aa0b 433e a337 e4bd
000001c0: b124 4ebd fa91 153f a38e 02ba ea5b 18bc
000001d0: e90b 97bc 4bf9 533e 4688 943d 41b8 91be
000001e0: 32b2 51bd 37f4 db3c 41be 823d 9582 68bb
000001f0: 4246 fdbc 0f4c 293d 1063 1abd ac40 9a3e
00000200: fd46 2b3d 8be8 ec3c 56ff 57bd bba7 26bb
00000210: 65ce 96bd 61f1 8ebc 4a1c bf3d 266a e6bc
00000220: 017e 47bc 7636 67bd f7b6 bcbc dccd 09bd
00000230: a634 11bd fbc6 25bd 3062 99bd 4cfe 79bc
00000240: 186c 993e 0585 533e 02a7 253e 2868 adbc
00000250: 06ea a83e 5fbc 9dbc 77d4 b13d c3dc 2f3d
00000260: a6e3 03bc 4d0e e1bd 9d50 dd3d 2ecb 4f3d
00000270: 056f f63c a7ac 0a3e 0dab 303e 5044 563c
00000280: e158 703d 4a7c 7e3c 8757 2cbd 4323 b53d
00000290: 385b b03d 1e11 b7bc 9ce7 f03d 41ed 52be
000002a0: cb16 2f3d d2c0 09bb 71e9 e9bc 1a8f 9fbd
000002b0: c37b 843b d22a 12bd 0190 643c d618 2fbb
000002c0: 7c65 0bbd 7cd4 2e3d 7782 073d 7c95 743d
000002d0: 67bc f03d 4f1f 9ebc efed c53d 53ac ab3c
000002e0: 0766 57be f4d6 8ebc 1291 00bd 4113 f43d
000002f0: f2b5 513c 8dc0 dabd 5cf1 41bd e624 333d
00000300: 0b81 ae3c 6fa6 04be 255b 1c3d 1765 e33d
00000310: 9fb1 663c 6e33 713d bcad 1b3e e19c c03d
00000320: c89a 1f3e 2def 363e 1742 0a3d 43b6 383e
00000330: 84da 133e f40e 5cbe 7532 94bd 77d8 9abc
00000340: 5b2e f63b c4a9 89bd cb26 293d 817f e23d
00000350: 4a90 223e 10e9 483d 7bf5 cd3d 111d d4bd
00000360: d34c 9b3d a00d 3e3c 65f0 113d 360c 683d
00000370: d97c 90bd 74ee 33bd 40a6 f7bb 949b a33d
00000380: bb37 d13c 0dcb b13b 4aa0 623d 2768 13be
00000390: 30ea f73d 6cee b8bc e0de 433c f0e0 02bd
000003a0: fc48 ffbd d4f2 5fbd 2f48 d53c 9121 00bd
000003b0: 8b68 3cbd bfec 7a3c 6032 213c c161 b5bd
000003c0: 5cd3 1f3e b1cd 7e3e a561 a43d 653c f33b
000003d0: 1338 5abc 6888 2c3d 500c 003d 85d6 28be
000003e0: 4d02 38bc 265e 2f3d 6de7 d7bc 9fd9 153e
000003f0: 3909 87bd aa97 853c 8a84 e13d f3ad 37bd

fc3.weight f4 [128, 256]
-0.5992344 0.051561754 -0.062497154 0.004366382 -0.7547224 -0.09220141 0.09088594 0.0633576
0.039897785 -0.2476273 0.5824218 -0.05909624 -0.30244327 0.05270001 -0.03950975 -0.62020284
-0.23213206 0.01511604 -0.03215337 0.09400961 0.045672894 -0.033807155 0.26148582 0.16981378
0.29171088 0.04594207 0.13437623 0.05760496 1.6073827 0.76752836 0.034348715 0.19270869
-0.0610464 0.59154457 -0.031022856 -0.46425968 -0.060877874 0.027284302 0.147061 -0.74989575
0.057672746 -0.055502094 -0.04285673 0.18727203 0.07428066 0.027007505 -0.011167149 -0.52269703
0.38353735 -0.015459026 -0.04427249 0.02389253 0.044347733 0.022826642 -0.34144112 0.2932683
0.06471363 -0.029858977 -0.74787563 -0.00785534 0.013961715 -0.24163035 0.24662383 -0.0064349477
-0.15329507 0.1218695 -0.2443366 -0.25088933 0.051729903 -0.049118813 -0.09322251 0.008350138
0.070853114 0.0069288462 -0.14487126 0.0077867154 0.06510864 0.38966426 1.2289586 0.14293349
-0.02516324 0.715941 -0.33068007 0.25441518 -0.2422269 0.18861546 0.43593878 -0.12720877
-0.029926777 -0.0364808 0.14135653 0.00950161 -0.0075970804 0.044292122 0.04252879 -0.35870793
-0.04975495 0.12711214 0.057698876 -0.15542912 0.015650073 0.017179929 -0.15985315 -0.012752146
-0.09456383 0.11301313 0.7673417 -0.011402199 -0.06418236 0.15337746 0.044444013 -0.015892997
0.04427333 0.027696336 0.059831083 -0.8017886 -0.31093684 -0.2679042 0.1211183 -0.84989697
0.035045713 -0.026841799 -0.3450286 -0.023205025 -0.023046572 0.35617492 0.030954078 0.122391395
0.1872877 -0.15878005 -0.023108631 0.27130693 0.25020835 -0.030667193 0.32885396 0.048694815
0.043140426 -0.020780118 0.72824985 -0.03965546 -0.029175084 -0.05709555 -0.010142959 0.0030688595
-0.036848217 -0.79540855 0.1658453 0.0060022725 0.19469704 -0.121296555 1.308286 -0.12034018
0.03297886 -1.3341072 0.03404181 0.016862443 -0.02919235 0.30759078 -0.2840973 0.027614985
0.25961623 0.5182573 0.008317705 0.41289186 0.34727338 -0.061922755 0.3970467 -0.24302915
0.13774657 -0.03453343 0.0014299961 -0.4072577 -0.035456195 0.0008728504 -0.034196414 0.036335032
0.045527883 0.027267657 0.88868004 0.06838059 0.56145054 -0.116799526 0.3802747 0.06728271
-0.20497383 -0.012094219 -0.046486348 0.47479168 0.019802205 -0.19300804 0.8940547 -0.048527412
0.8263087 -0.31959486 -1.1906056 0.023197943 -0.011115773 0.4473073 0.33121493 1.2628554
0.1289518 -0.1866293 -0.034095425 0.2023157 -0.6366771 -0.2438686 -0.118463494 -0.0007751074
-0.3595457 0.05294508 -0.024920873 -0.68054384 -0.15456448 -0.014838784 0.94464797 0.0015495148
-0.020590886 -0.045223176 0.18183188 -0.0016546323 -0.048253268 0.031100782 -0.0028752796 0.12838921
0.0037478085 -0.0029437307 -0.020663027 -0.2912605 -0.026668467 -0.016834997 0.00051462685 0.055952664
0.40685743 -0.5597487 -0.06092199 0.019776791 -0.022166878 -0.058784064 -0.0040808655 -0.09211744
0.16425918 0.09123034 0.07221312 0.015987769 0.044185027 0.04838012 -0.045330152 -0.28768423
0.000874058 0.2839481 0.004139675 0.5087238 -0.016079314 0.036896512 0.23348886 0.037968643
00000000: 6d67 19bf 6b32 533d 04fd 7fbd de13 8f3b
00000010: 7d35 41bf 18d4 bcbd 6822 ba3d a1c1 813d
00000020: dc6b 233d 0392 7dbe 9819 153f e60e 72bd
00000030: d8d9 9abe f7db 573d fad4 21bd 9dc5 1ebf
00000040: 07b4 6dbe 44a9 773c 41b3 03bd 1c88 c03d
00000050: 8013 3b3d 5f79 0abd 78e1 853e aae3 2d3e
00000060: 215b 953e c12d 3c3d ec99 093e 2ef3 6b3d
00000070: b7be cd3f bd7c 443f 3db1 0c3d 6d55 453e
00000080: ca0b 7abd 776f 173f a523 febc 72b3 edbe
00000090: 145b 79bd 5483 df3c 2997 163e 2bf9 3fbf
000000a0: 423a 6c3d 2a56 63bd 8a8a 2fbd 3dc4 3f3e
000000b0: 7520 983d d83e dd3c 6bf6 36bc 79cf 05bf
000000c0: 025f c43e db47 7dbc 1257 35bd 44ba c33c
000000d0: f8a5 353d f0fe ba3c 5fd1 aebe 4327 963e
000000e0: 9488 843d d09a f4bc c774 3fbf afb3 00bc
000000f0: adbf 643c f26d 77be f58a 7c3e 41dc d2bb
00000100: 62f9 1cbe b796 f93d 6033 7abe 9174 80be
00000110: bce2 533d cf30 49bd 71eb bebd 04cf 083c
00000120: 701b 913d 600b e33b 2259 14be b427 ff3b
00000130: ae57 853d 1382 c73e 844e 9d3f 285d 123e
00000140: 2423 cebc e947 373f e64e a9be b542 823e
00000150: 540a 78be 6924 413e 5e33 df3e 0443 02be
00000160: 0029 f5bc e46c 15bd c4bf 103e a4ac 1b3c
00000170: eef0 f8bb a86b 353d ab32 2e3d 91a8 b7be
00000180: d9cb 4bbd af29 023e a855 6c3d d028 1fbe
00000190: 9534 803c ecbc 8c3c 8bb0 23be 61ee 50bc
000001a0: aeaa c1bd 6e73 e73d 8170 443f 4ad0 3abc
000001b0: 0b72 83bd fb0e 1d3e ed0a 363d 0832 82bc
000001c0: f457 353d 6de3 e23c 7011 753d 0542 4dbf
000001d0: 1d33 9fbe bd2a 89be df0c f83d d992 59bf
000001e0: 188c 0f3d 55e3 dbbc 97a7 b0be 7718 bebc
000001f0: 2acc bcbc 8f5c b63e 6893 fd3c 57a8 fa3d
00000200: 59c8 3f3e 3d97 22be 504e bdbc bee8 8a3e
00000210: 4f1b 803e c439 fbbc 8c5f a83e 3774 473d
00000220: 04b4 303d 113b aabc 956e 3a3f c36d 22bd
00000230: 9600 efbc 06dd 69bd a72e 26bc eb1e 493b
00000240: 28ee 16bd e59f 4bbf 5ad3 293e b6ae c43b
00000250: a95e 473e 546a f8bd ea75 a73f ea74 f6bd
00000260: d714 073d 06c4 aabf 6d6f 0b3d 1b23 8a3c
00000270: cc24 efbc 8a7c 9d3e 3475 91be d238 e23c
00000280: 6bec 843e 83ac 043f fc46 083c 9066 d33e
00000290: d1cd b13e b7a2 7dbd b449 cb3e a2dc 78be
000002a0: 700d 0d3e ed72 0dbd b56e bb3a 1584 d0be
000002b0: 843a 11bd 00d0 643a 8a11 0cbd 0bd4 143d
000002c0: 727b 3a3d 6c60 df3c 8980 633f 1f0b 8c3d
000002d0: 39bb 0f3f 9734 efbd 5eb3 c23e 84cb 893d
000002e0: a9e4 51be d526 46bc 7868 3ebd e517 f33e
000002f0: 3c38 a23c e6a3 45be c5e0 643f aec4 46bd
00000300: f888 533f f0a1 a3be c465 98bf 9d09 be3c
00000310: ee1e 36bc 7605 e53e 0195 a93e 3fa5 a13f
00000320: f10b 043e c01b 3fbe a5a7 0bbd d92b 4f3e
00000330: 45fd 22bf b1b8 79be fd9c f2bd 9430 4bba
00000340: 6016 b8be f1dc 583d dc26 ccbc 1f38 2ebf
00000350: 2746 1ebe 5f1e 73bc 73d4 713f 1719 cb3a
00000360: 38ae a8bc f03b 39bd 2332 3a3e 3fe0 d8ba
00000370: 38a5 45bd 11c7 fe3c 306f 3cbb 7678 033e
00000380: cb9d 753b 9beb 40bb 8245 a9bc 1920 95be
00000390: d477 dabc 8ce9 89bc 06e8 063a 9f2e 653d
000003a0: 9e4f d03e b14b 0fbf 5689 79bd f002 a23c
000003b0: 5097 b5bc 8fc7 70bd c8b8 85bb 12a8 bcbd
000003c0: 8f33 283e f9d6 ba3d 79e4 933d c8f8 823c
000003d0: 5cfb 343d 3c2a 463d 1cac 39bd 594b 93be
000003e0: 0a21 653a a561 913e 1ca6 873b b93b 023f
000003f0: c4b8 83bc cc20 173d b417 6f3e 0285 1b3d

fc3.bias f4 [128]
0.13660127 0.11679149 0.045717202 -0.19652167 0.16685906 0.047634643 0.11575543 0.15461108
0.054265026 0.14406836 0.003982229 -0.07340358 -0.008255267 0.004613892 -0.05847328 -0.08230249
0.10797679 -0.13749453 -0.037291747 0.07254359 -0.18675585 0.041067623 -0.045158353 0.11563215
0.12254584 -0.061711594 0.030418558 0.14567629 0.15479174 -0.34324747 0.0004648713 0.16795129
0.114085674 0.08136053 -0.27035823 -0.07890627 0.11866118 0.14112704 -0.11433288 -0.18169513
0.25481927 -0.028333964 0.13109323 0.023466686 0.106821895 0.09607885 -0.14407726 0.034716647
0.1060267 0.123137794 0.029447919 0.051044434 0.027821595 0.10850802 -0.054152854 0.028291188
0.15893535 -0.28425983 -0.09075087 0.029810783 -0.04939822 0.0892523 -0.28355998 -0.033150557
-0.051244967 0.10635 -0.24557221 0.08844496 -0.044815857 0.1351917 -0.12559645 0.140346
0.039625525 0.020322897 -0.02842585 0.099251345 0.19391093 -0.2679762 0.058607277 -0.117168725
-0.043820318 0.024975508 0.13025102 0.104605496 0.13868614 0.3469549 0.18034983 0.048792895
-0.0037398315 0.025326502 0.12758748 0.069659255 0.1099842 0.059127595 0.14940383 -0.011011344
0.053156123 0.13813128 0.046068966 -0.052597325 0.08804604 -0.025916785 0.12741584 -0.3693741
0.13536811 0.06739745 0.17678794 0.23543541 0.08796646 0.16644421 0.07599081 -0.20984755
-0.02318188 -0.04295725 0.10640205 0.027840696 0.0075968294 -0.10042087 0.08872021 0.12717958
-0.066874206 0.2065574 -0.040121943 0.091409706 0.09814786 0.2298948 0.10226275 0.07707201
00000000: 34e1 0b3e 6030 ef3d f641 3b3d fa3c 49be
00000010: 1add 2a3e 8b1c 433d 2f11 ed3d 5e52 1e3e
00000020: 0145 5e3d a886 133e 5c7d 823b 9e54 96bd
00000030: 1941 07bc 2230 973b ae81 6fbd 358e a8bd
00000040: ef22 dd3d 5ecb 0cbe 3bbf 18bd bc91 943d
00000050: ed3c 3fbe 8636 283d f7f7 38bd 8cd0 ec3d
00000060: 50f9 fa3d 4cc5 7cbd 5730 f93c 2a2c 153e
00000070: ba81 1e3e 22be afbe f8b9 f339 6cfb 2b3e
00000080: c0a5 e93d 59a0 a63d 656c 8abe 9c99 a1bd
00000090: a204 f33d 9b83 103e 5b27 eabd 4a0e 3abe
000000a0: ac77 823e a11c e8bc 4e3d 063e 353d c03c
000000b0: 70c5 da3d fdc4 c43d fd88 13be 0b33 0e3d
000000c0: 8724 d93d ab2f fc3d c33c f13c f813 513d
000000d0: 1dea e33c 7439 de3d 62cf 5dbd ecc2 e73c
000000e0: f3bf 223e 818a 91be 98db b9bd be35 f43c
000000f0: ca55 4abd e9c9 b63d c62e 91be e1c8 07bd
00000100: 3ee6 51bd 07ce d93d 4877 7bbe a222 b53d
00000110: d590 37bd b16f 0a3e 5b9c 00be ddb6 0f3e
00000120: 604e 223d 347c a63c 54dd e8bc 4a44 cb3d
00000130: 9690 463e 2d34 89be 2f0e 703d 28f6 efbd
00000140: ef7c 33bd 7099 cc3c 8660 053e 683b d63d
00000150: bd03 0e3e 13a4 b13e a0ad 383e 0fdb 473d
00000160: f617 75bb 8679 cf3c 4ba6 023e 83a9 8e3d
00000170: 653f e13d c72f 723d 51fd 183e ed68 34bc
00000180: 3cba 593d 4972 0d3e d0b2 3c3d 4b70 57bd
00000190: 7b51 b43d 704f d4bc 4c79 023e 9a1e bdbe
000001a0: f09d 0a3e ad07 8a3d e607 353e fb15 713e
000001b0: c227 b43d 5a70 2a3e 12a1 9b3d 47e2 56be
000001c0: ede7 bdbc f1f3 2fbd 51e9 d93d 2c12 e43c
000001d0: d3ee f83b 75a9 cdbd f1b2 b53d 5d3b 023e
000001e0: 58f5 88bd c883 533e e856 24bd 0335 bb3d
000001f0: bf01 c93d 8b69 6b3e 226f d13d eed7 9d3d

fc4.weight f4 [7, 128]
-0.6585715 -0.6255501 -0.75125366 -0.11445973 -0.6838057 -0.5626963 -0.5904395 -0.5654218
-0.5321595 -0.51978076 -0.049349744 -0.010816178 0.031626076 -0.19973972 0.05186753 -0.29944345
-0.85091794 -0.29422128 0.57759786 -0.59868157 -0.07686412 -0.56687176 -0.33845788 -0.5558057
0.48686093 0.04707881 -0.0020987764 -0.589024 0.5098793 0.10510973 0.06580735 -0.8065935
-0.87866783 0.39069748 -0.3197847 -0.7758686 -0.602588 -0.57251227 -0.8988028 -0.09821469
-0.91027045 0.7360114 0.49830893 -0.50904787 -1.0728995 -0.9022384 -0.04713736 0.05493974
-0.8097878 -0.7837145 -0.66411203 0.066570416 -0.05973168 -0.57757914 -0.019968377 -0.006916243
0.4507808 0.038019523 0.038262285 -0.77904665 -0.07003209 -1.049866 -0.032417327 -0.016720228
0.012520899 -0.74957573 -0.044144627 -0.118659 0.0041780383 -0.5974318 0.021050874 0.51093227
-0.65556306 0.048984554 -0.06500763 0.880828 -0.6092731 -0.06249345 -0.95105433 0.21425168
-0.72885 0.07712503 -0.27095997 -0.6478843 -0.8106964 -0.84592754 0.5560514 0.38893452
0.05487719 0.046994634 0.5458969 -0.5545756 0.5535992 -0.776713 0.7776112 0.050983272
0.6336641 0.65733397 0.02305476 0.04619284 0.50481796 0.03219013 -0.5960903 0.10927641
0.4069362 0.63111496 -0.8732799 0.5615884 0.49078983 0.6317678 -0.5383255 -0.3494583
-0.6678421 -0.020507958 -0.89481497 0.47327286 -0.606303 0.015423274 -0.6051462 -0.6482873
0.06993941 0.5328992 -0.041086808 -0.7879675 0.4976351 0.71135217 -0.69064957 0.21213233
-0.5113761 -0.6211488 -0.810854 -0.2299267 -0.7572042 -0.543271 -0.6502406 -0.6497963
-0.60190904 -0.64286554 -0.05720128 -0.07069806 0.022396874 -0.28572825 -0.07644097 -0.3242105
-0.7783987 -0.252492 0.6819553 -0.69248664 0.16914803 -0.42543805 -0.26532853 -0.64373636
0.5279173 -0.03458115 -0.0013425101 -0.6044993 0.48072264 0.41996413 -0.04710839 -0.65470034
-0.8168603 0.53651845 -0.21585684 -0.7328578 -0.5466937 -0.6498156 -0.9031606 0.1348912
-0.9909068 0.56086403 0.534353 -0.62914413 -0.9894843 -0.94785863 0.14364856 -0.08886356
-0.8122114 -0.80338305 -0.437834 -0.08256973 0.05115479 -0.5279197 -0.061785597 -0.011510572
0.3315411 0.2052053 -0.005684472 -0.82809 0.050389677 -1.0646746 0.21556745 -0.027763478
0.0041113473 -0.7933503 0.06695968 -0.24479283 -0.07303695 -0.5371578 0.033203553 0.344354
-0.5172215 0.041663583 0.026932433 0.9876204 -0.4354755 0.1713479 -1.0317543 0.23250093
-0.7014005 -0.03219459 -0.37589514 -0.8354178 -0.7819446 -0.99958754 0.5110768 0.5359643
0.0009202253 0.054344133 0.3253879 -0.7082222 0.49463516 -0.74381757 0.7612831 0.06708211
0.5870534 0.6154793 0.083990335 -0.0566872 0.54703486 0.014602819 -0.71043956 0.013476056
0.5476281 0.5605902 -0.6624948 0.7573469 0.39043874 0.5276375 -0.55353284 -0.3318648
-0.66239655 0.008543895 -0.7786616 0.47292066 -0.48167667 -0.057399943 -0.6343918 -0.5425013
-0.037194114 0.5215199 -0.07764408 -0.6775067 0.51417214 0.63982296 -0.8135992 0.5213266
00000000: 2498 28bf 0d24 20bf 2952 40bf dd69 eabd
00000010: e40d 2fbf dd0c 10bf 0b27 17bf 7cbf 10bf
00000020: 9b3b 08bf 5a10 05bf f522 4abd 5736 31bc
00000030: 588a 013d 9288 4cbe 0c73 543d a750 99be
00000040: c2d5 59bf 2ca4 96be 74dd 133f 3243 19bf
00000050: f06a 9dbd 821e 11bf 5a4a adbe 4849 0ebf
00000060: d645 f93e b6d5 403d a08b 09bb 47ca 16bf
00000070: 7387 023f c543 d73d 01c6 863d e97c 4ebf
00000080: 60f0 60bf 8009 c83e d2ba a3be 539f 46bf
00000090: 3543 1abf 2a90 12bf f117 66bf c924 c9bd
000000a0: 7c07 69bf 3e6b 3c3f 5922 ff3e f650 02bf
000000b0: c554 89bf 19f9 66bf 1b13 41bd 7e08 613d
000000c0: 414e 4fbf 83a1 48bf 3f03 2abf 1256 883d
000000d0: 35a9 74bd 3adc 13bf b994 a3bc a7a1 e2bb
000000e0: becc e63e 5cba 1b3d eab8 1c3d 9a6f 47bf
000000f0: fc6c 8fbd 0262 86bf 08c8 04bd dcf8 88bc
00000100: 7524 4d3c 32e4 3fbf ffd0 34bd 7d03 f3bd
00000110: ede7 883b 4af1 18bf e272 ac3c 75cc 023f
00000120: fbd2 27bf 07a4 483d b822 85bd f27d 613f
00000130: 52f9 1bbf 22f9 7fbd 4c78 73bf cb64 5b3e
00000140: ea95 3abf baf3 9d3d 44bb 8abe bfdb 25bf
00000150: cd89 4fbf b58e 58bf 6259 0e3f 6d22 c73e
00000160: e8c6 603d 727d 403d e6bf 0b3f abf8 0dbf
00000170: adb8 0d3f aad6 46bf 8711 473f d6d3 503d
00000180: cf37 223f 0a47 283f 56dd bc3c b434 3d3d
00000190: c03b 013f ccd9 033d 6099 18bf 4fcc df3d
000001a0: f159 d03e c090 213f 468f 5fbf 42c4 0f3f
000001b0: ce48 fb3e 89bb 213f b3cf 09bf 33ec b2be
000001c0: b3f7 2abf 4e00 a8bc 9812 65bf d250 f23e
000001d0: ac36 1bbf e6b1 7c3c ddea 1abf 28f6 25bf
000001e0: 653c 8f3d 156c 083f a44a 28bd 3db8 49bf
000001f0: 07ca fe3e 2d1b 363f 69ce 30bf 3839 593e
00000200: 8be9 02bf 9c03 1fbf 2194 4fbf e871 6bbe
00000210: 22d8 41bf cf13 0bbf 2b76 26bf 0d59 26bf
00000220: b616 1abf d692 24bf e44b 6abd 25ca 90bd
00000230: a679 b73c f94a 92be 158d 9cbd ebfe a5be
00000240: 2345 47bf a246 81be 9f94 2e3f ce46 31bf
00000250: 2435 2d3e 04d3 d9be 24d9 87be e8cb 24bf
00000260: 9725 073f f7a4 0dbd 2af7 afba 77c0 1abf
00000270: 4721 f63e 8a05 d73e baf4 40bd 719a 27bf
00000280: c21d 51bf 4659 093f 9309 5dbe 929c 3bbf
00000290: 1ef4 0bbf 515a 26bf 8835 67bf eb20 0a3e
000002a0: 11ac 7dbf c994 0f3f 5ccb 083f 970f 21bf
000002b0: d84e 7dbf dda6 72bf 9c18 133e 19fe b5bd
000002c0: 16ed 4fbf 83aa 4dbf c72b e0be 521a a9bd
000002d0: af87 513d bf25 07bf e512 7dbd d796 3cbc
000002e0: c1bf a93e 5721 523e cf44 babb b5fd 53bf
000002f0: 6865 4e3d 4247 88bf b7bd 5c3e 3c70 e3bc
00000300: 7bb8 863b 0119 4bbf 2822 893d f9aa 7abe
00000310: 6594 95bd 2c83 09bf 7300 083d 2b4f b03e
00000320: a168 04bf 6fa7 2a3d 68a1 dc3c b1d4 7c3f
00000330: a5f6 debe d375 2f3e 8610 84bf b914 6e3e
00000340: fc8e 33bf 79de 03bd 5475 c0be f1dd 55bf
00000350: 852d 48bf f8e4 7fbf eed5 023f f534 093f
00000360: 463b 713a f497 5e3d 3e99 a63e 0d4e 35bf
00000370: d240 fd3e d46a 3ebf 73e3 423f 5862 893d
00000380: 2249 163f 0d90 1d3f 2003 ac3d d630 68bd
00000390: 7a0a 0c3f aa40 6f3c 5edf 35bf adca 5c3c
000003a0: 5b31 0c3f d782 0f3f 4299 29bf 7de1 413f
000003b0: 96e7 c73e 4013 073f 54b4 0dbf 2fea a9be
000003c0: d292 29bf b1fb 0b3c 5e56 47bf a822 f23e
000003d0: 539e f6be 341c 6bbd 8067 22bf 5de1 0abf
000003e0: db58 18bd 5482 053f dc03 9fbd 1471 2dbf
000003f0: c9a0 033f 70cb 233f 0a48 50bf a975 053f

fc4.bias f4 [7]
-0.040946696 -0.24859725 0.2415236 -0.10206996 0.007285562 0.007684806 -0.07041575
00000000: b9b7 27bd 4790 7ebe f651 773e 0e0a d1bd
00000010: b9bb ee3b d3d0 fb3b 2236 90bd
