models/lateral_stage2_seed2468_final.pth (torch, 412481 bytes, 8 tensors)

fc1.weight f4 [256, 9]
000000 bf 7c 18 c0 c5 06 43 bd 39 9b 48 3d 82 9e cc be
       -2.382614 -0.047613878 0.048976157 -0.39964682
000010 cb df d2 3c 16 87 e3 3e bf 18 a7 3e cf 4a 99 3e
       0.025741478 0.44439 0.32636067 0.29939887
000020 01 5f 1b bf be fe 52 3f 7c a8 1d 3e ef 66 09 3f
       -0.6069184 0.82419956 0.15396303 0.5367269
000030 37 ec c2 bc 6a aa 20 3e 81 86 1d bf 0a c9 44 3e
       -0.023794277 0.15690008 -0.6153336 0.19217315
000040 40 f2 58 be 0e 7c d4 3e d1 0b 64 c0 4f 4b f1 bd
       -0.21186161 0.41500896 -3.5632212 -0.11781942
000050 6a ea 09 be 0d 82 80 3e 21 c7 8a bb 3c 38 f8 3e
       -0.13468328 0.2509922 -0.004235164 0.48480403
000060 ee f8 59 3e 30 b7 be 3c fc 42 90 3d cf c6 00 c0
       0.21286365 0.02328071 0.07044026 -2.0121343
000070 7a 91 cb 3e d0 3f 35 3e 02 b9 86 3e f7 da 32 be
       0.39759427 0.17700124 0.26313025 -0.17466341
000080 24 df c8 be 53 2a 6c be 98 35 a7 be 0d 0e a3 3d
       -0.39232743 -0.2306302 -0.32658076 0.07961664
000090 b9 d6 d8 3e 07 bc d3 bd b6 08 02 3f 03 b8 27 3e
       0.4235132 -0.10338598 0.5079454 0.16378789
0000a0 19 ae c0 3c 39 5c eb 3b be 78 65 be 0a 93 41 3e
       0.023520516 0.0071826247 -0.2240934 0.18903747
0000b0 44 15 5d bf d4 bf ab c0 fc 43 25 3e 56 1c 93 be
       -0.86360574 -5.3671665 0.16139215 -0.28732556
0000c0 3f 69 cb 3e 57 49 46 3e b5 d8 cf 3d ec 78 80 3d
       0.39728734 0.19363914 0.101487555 0.06273064
0000d0 ae f2 60 be c3 99 a7 3e c7 19 82 c0 29 e3 94 3d
       -0.21967575 0.32734498 -4.0656466 0.0726989
0000e0 07 cf ab be 5f 80 23 3e 65 49 d5 bb 2b ed 8c 3e
       -0.33556387 0.15966938 -0.0065089935 0.27524695
0000f0 13 52 4c be a8 8b 1c 3e b6 97 89 3e 77 f1 26 c0
       -0.19953184 0.1528765 0.2687356 -2.6084878
000100 1e 18 a0 bd b9 ac ce bd 51 df 96 be 15 a9 18 bf
       -0.078171 -0.10091538 -0.29467252 -0.59633
000110 47 83 ff be 46 74 6a 3e fa 8d aa be ff 38 e0 bd
       -0.49904844 0.22895917 -0.33311445 -0.10948371
000120 14 e0 2d c0 36 51 77 bf 8f 6b 2a bd 06 b9 78 3e
       -2.7168016 -0.96608293 -0.041606482 0.24289331
000130 b9 de 1d 3e c6 1c 8d 3e 30 6c 06 be 2e e9 76 3e
       0.15416993 0.27561015 -0.13127208 0.24112388
000140 f9 b7 6f 3e 79 19 2a 40 37 02 7a bd ff 94 9c bd
       0.23410024 2.6578047 -0.06103727 -0.07645606
000150 42 26 fd 3e 24 c6 49 3e 88 0f c1 be e0 4e 3c 3c
       0.4944325 0.19704491 -0.37707162 0.011493415
000160 9a 20 71 3e 5f 45 1d 3f 42 e5 2e c0 b6 0c 07 3e
       0.23547593 0.61433977 -2.7327428 0.13188443
000170 40 3f e3 3e c6 a4 f6 be d1 e2 a1 be 6e 5d 77 be
       0.44384193 -0.48172587 -0.3161836 -0.24156734
000180 5b 8f 4f be 7e aa 31 be 83 58 88 3e 02 4f 71 c0
       -0.2026953 -0.17350194 0.2663003 -3.7704473
000190 c0 49 c1 be 2b 69 8e 3d e0 e4 c7 3e f2 68 b5 3e
       -0.3775158 0.06953653 0.39041805 0.3543163
0001a0 52 ba 8f be 3c 97 b3 bd 19 27 87 3e d5 b7 28 bd
       -0.2807184 -0.0876908 0.26397017 -0.04119094
0001b0 8c eb 5e c0 99 6a 95 3e ae 86 5c 3d 86 89 73 3e
       -3.4831266 0.2918289 0.053839378 0.2378293
0001c0 88 d4 42 3d a4 58 ee bd 98 96 88 be ac 65 e8 bd
       0.047565967 -0.116380006 -0.26677394 -0.11347517
0001d0 43 3d e6 3d 68 4e bc 3f 03 c4 af be f3 1f aa 3e
       0.112421535 1.4711428 -0.34329233 0.332275
0001e0 24 58 44 be 34 8d 70 be 56 3d c7 3e 7a 3f 66 3e
       -0.19174248 -0.23491365 0.38913983 0.22485152
0001f0 66 ba 84 be cd ce 57 3e 36 4a 35 3f a0 4f 4b 3e
       -0.2592346 0.21074982 0.7081636 0.19854593
000200 8d 95 22 bf dd 49 74 3f 55 44 ec 3d 33 09 0d bc
       -0.63509446 0.95425206 0.11536471 -0.00860815
000210 83 b7 5e be bc bd 8e bd e6 6e 5c 3e 42 64 ad c0
       -0.21749692 -0.06969783 0.2152668 -5.4184885
000220 ac 34 dc be 22 96 15 3e db 0a 98 3c 61 7f 4f bd
       -0.43008935 0.14608052 0.018559864 -0.050658587
000230 b8 14 12 be cb 35 a9 3e 80 df b0 3d b9 64 86 3d
       -0.14265716 0.33048853 0.08636379 0.0656218
000240 1b 5a 92 bf 82 97 9a bd ac b7 25 3f 71 9b b7 3e
       -1.1433748 -0.07548429 0.64733386 0.3586078
000250 4c 78 d3 be f8 ff 8a 3d 7b 0f 46 be 3b 1a 22 be
       -0.41302717 0.067871034 -0.19341843 -0.15830319
000260 60 a5 a9 be 79 8e 41 c0 c9 a5 84 bf 5d b5 1a 3e
       -0.33133984 -3.0243208 -1.0363094 0.15108247
000270 48 40 2c be 05 e8 4a 3e c0 16 1a 3e 00 33 8f bd
       -0.16821396 0.19815071 0.15047741 -0.06992149
000280 e5 4e a1 3e e2 a8 e8 3c 71 31 13 3f 38 ce 77 bf
       0.31505504 0.028400842 0.57497317 -0.9679904
000290 21 aa 0d be 8c 7f c7 be 6a c8 ee 3e 3d cc 49 be
       -0.1383443 -0.38964498 0.4663728 -0.19706817
0002a0 40 37 9f 3d 7a f4 13 3e 7a cf e2 3d 55 8f 4a c0
       0.0777421 0.14448729 0.11074729 -3.1649983
0002b0 5b 82 36 be 86 0c 19 be 24 82 7e bd cd a5 f1 3e
       -0.17823164 -0.14946184 -0.06213583 0.47196808
0002c0 b9 34 f1 bd ca 21 69 3e 2a af a3 be 83 38 2c 3d
       -0.11777634 0.22766796 -0.31969577 0.04204608
0002d0 3c b4 24 40 55 25 07 bf 02 78 35 bf 10 a3 6e 3e
       2.5735006 -0.5279134 -0.7088624 0.23304391
0002e0 e7 36 d8 bd 0a 5d 94 be 00 8c 72 3b cc 71 cb 3d
       -0.10557347 -0.28977233 0.0037009716 0.099338144
0002f0 7c 54 71 3b c8 5f 62 3f e1 6a c2 be a9 f7 2a 3e
       0.0036824038 0.884274 -0.37972167 0.16696037
000300 06 74 a5 be 1a d1 ad 3e 01 3e 1d bf 35 58 85 3e
       -0.3231508 0.33948594 -0.61422735 0.2604386
000310 0e aa 0b be 70 42 af be 0e 3b 1b 40 33 32 2c be
       -0.1363909 -0.34230375 2.4254794 -0.16816024
000320 98 b2 a4 3c 20 c9 e7 3e 30 b6 6a bf ce 3f 27 be
       0.020104691 0.45270634 -0.91684246 -0.16332933
000330 d2 b2 0e 3e bc 9a bf 3d d3 1a b5 bb 62 41 8c bd
       0.13935402 0.09355685 -0.0055268793 -0.06848408
000340 76 3d 39 3e ec 1e 93 be e6 b1 e0 3e cc ed 79 bd
       0.18089852 -0.2873453 0.43885726 -0.061017796
000350 05 65 33 3e 19 05 97 3e 16 95 06 3e c8 dc d2 bd
       0.17519005 0.29496077 0.1314281 -0.10296017
000360 34 c6 13 40 9e 36 94 be 70 03 f3 3c 21 a5 ed 3d
       2.3089724 -0.2894792 0.029664725 0.116037615
000370 b0 41 47 bf 85 05 0d bf b6 0a 14 be 10 95 c2 bc
       -0.77834606 -0.5508655 -0.14457211 -0.02375272
000380 d8 e6 1a 3c d8 a5 3b bc c9 65 a3 3e 51 96 7a 3e
       0.0094544515 -0.011453114 0.31913593 0.24471404
000390 27 03 cb be d0 43 2f bf c3 02 b4 3b 2c 70 d4 3d
       -0.39650843 -0.6846285 0.0054934933 0.103729576
0003a0 b2 6b 35 3e a2 77 c0 3d 71 cc 1d 40 9a 9d 6e 3f
       0.17716864 0.09397818 2.465603 0.9320923
0003b0 27 d6 ed 3d 59 62 e8 bd 36 ae d4 3d 95 37 80 be
       0.11613112 -0.11346883 0.103847906 -0.25042406
0003c0 10 4a ee bc 92 7b 47 3e 47 15 22 3d 2c de 5b c0
       -0.02908805 0.19480732 0.039571073 -3.4354353
0003d0 c0 63 0b 3b 30 92 99 3e d6 92 7d be 1b 3e 82 ba
       0.0021269172 0.29994345 -0.24763045 -0.0009936722
0003e0 89 af f6 3e 10 1c 86 bd d3 df 2d be 34 08 3a 3d
       0.48180798 -0.06548321 -0.16979913 0.04541798
0003f0 cc d0 89 c0 fd e5 a2 3e e7 fe 8d be 25 0f ff 3d
       -4.306738 0.31816092 -0.27733538 0.124540605

fc1.bias f4 [256]
000000 d1 26 a1 be 5e ef f5 be a2 a1 b9 3e 20 17 b0 3e
       -0.31474927 -0.48034185 0.3625613 0.34392643
000010 d9 5a ed 3c 3f 4c 21 bd 27 59 69 be 2f 3f 10 3e
       0.028973984 -0.039379355 -0.22787915 0.14086603
000020 58 14 e9 3e 9c 32 e3 bd 59 d4 a5 bb 70 e8 78 be
       0.45523334 -0.11093637 -0.005060714 -0.24307418
000030 dc e0 22 bd 4c 42 32 bd 29 39 09 3e 43 db 61 3e
       -0.039765224 -0.043520257 0.13400711 0.22056298
000040 35 81 a1 be 79 1d 65 3d c9 86 29 be c6 21 43 be
       -0.3154389 0.05593631 -0.16555323 -0.19055852
000050 41 11 93 3e 3f 12 8b be 1a e8 d5 3e 0e d3 02 bf
       0.287241 -0.27162358 0.41778642 -0.51103294
000060 1d 5e b1 3e b5 9c ef 3c 96 5c fc bd 5f 1b 08 3e
       0.34642115 0.029249528 -0.12322347 0.13291691
000070 c6 e0 f5 3d 07 36 87 3c ab 5a a6 be 74 cf 1c 3e
       0.12005763 0.016505254 -0.3249105 0.15313512
000080 03 ae 52 be b0 62 09 3f 89 b2 06 3e dc 63 20 be
       -0.20574193 0.5366621 0.13154043 -0.15663093
000090 c9 04 dc be f5 f4 01 bf 6a 3f 88 bd 46 c7 e8 3e
       -0.429724 -0.507644 -0.0665272 0.45464534
0000a0 a7 66 47 bd eb 1a 71 3e 8b 3b fd 3d 7f 50 32 bd
       -0.04868188 0.23545425 0.123648725 -0.0435338
0000b0 3f 10 93 be 52 62 0e 3f da be b0 3e 75 4b 88 3d
       -0.28723332 0.55618775 0.34520608 0.06655017
0000c0 ac 2d 98 3e d0 a8 84 3e a7 1f b1 be bb f7 a7 be
       0.29722345 0.25910044 -0.3459446 -0.3280619
0000d0 88 e9 0b 3c cf de 8e bd a1 c7 b7 3e 36 84 42 b9
       0.008539565 -0.06976091 0.35894492 -0.00018550534
0000e0 03 d5 19 3e 11 78 16 be 5b ab 5b be 54 f4 73 be
       0.15022664 -0.14694239 -0.21452086 -0.23823673
0000f0 dc 8b 00 3f dd f4 97 bd fa b8 0e bd 1b ed 72 3e
       0.5021341 -0.07419751 -0.034844376 0.23723261
000100 7d 4a 99 be 4b 85 5a bd e4 18 79 3e 9e f7 9c bc
       -0.29939643 -0.053349774 0.24325901 -0.019161042
000110 44 80 78 3e a1 4f 31 3e 32 55 2d 3c d2 aa 72 be
       0.2426768 0.17315532 0.010579394 -0.23697975
000120 9a 88 40 3e 9a 29 ef bd 88 16 68 bd 1c 01 76 3e
       0.1880211 -0.11677857 -0.056662112 0.2402386
000130 20 31 af 3c f7 c9 f9 3c 2c 93 47 be a7 f7 ca 3e
       0.02138573 0.030491812 -0.19489735 0.3964207
000140 fa 35 dd 3d 59 6e 0f 3e b8 1f 04 be 0b 12 22 be
       0.10801311 0.14006938 -0.12902725 -0.15827195
000150 a4 b8 27 3e 46 29 b1 bb 74 12 2a be 1a 1c 1d 3e
       0.16379029 -0.0054065315 -0.16608602 0.15342751
000160 6e 20 0e be 31 a4 21 3c 1e 78 c4 3e 33 28 4b bb
       -0.13879558 0.009865806 0.38372892 -0.0030999302
000170 6f b9 b9 bc db 1a 2c bd 31 b1 81 3e 15 5f 46 be
       -0.02267143 -0.0420178 0.253305 -0.19372208
000180 d9 19 da bc 15 1c d9 3d 6c 83 c6 3e 08 3b 09 be
       -0.026623653 0.10601059 0.38772142 -0.13401425
000190 eb 2c 4c 3d 65 30 37 be e4 46 b5 3e ff af a9 3e
       0.049847525 -0.17889555 0.35405648 0.33142087
0001a0 55 26 83 3e 29 98 6b 3e c4 bb c8 be 6e f5 8f bc
       0.25615183 0.23007263 -0.39205754 -0.017573085
0001b0 39 3c 8c 3e af 31 d6 be 73 16 50 3e 71 34 01 3e
       0.27389696 -0.4183478 0.20321064 0.12617661
0001c0 14 12 9f bc 87 65 85 3d b6 c2 52 3e a5 a8 8c 3e
       -0.0194178 0.065135054 0.20582089 0.27472416
0001d0 ce ef 8c be c5 7c 84 3e 69 a6 15 be f9 77 b3 3e
       -0.27526706 0.25876442 -0.14614262 0.3505247
0001e0 ea d4 22 3e 05 36 e0 ba 16 78 bc 3c 29 56 35 bd
       0.15901533 -0.0017105943 0.02300648 -0.04427162
0001f0 9d 56 73 3e 9c 5b 35 be 42 6e d4 3d ba 02 9f 3e
       0.23763509 -0.17710727 0.103725925 0.31056768
000200 60 fe 6f bc e0 bd a3 3e 2e d6 73 3e 03 f5 b7 3e
       -0.01464805 0.319808 0.23812172 0.35929117
000210 44 b9 ab 3e b2 86 9d bd 8a 08 55 be a7 26 03 be
       0.33539784 -0.07691707 -0.20804039 -0.12807713
000220 43 0a 8c 3e bd 4d 8f be b4 d8 72 3e 0a 29 cf be
       0.2735158 -0.27988997 0.23715478 -0.40460998
000230 f4 d6 2a bd 93 b1 48 3c 4d d0 11 be e0 06 27 3e
       -0.0417089 0.012249368 -0.14239617 0.16311216
000240 7d 5d a7 bd 31 f4 94 3e da 2e 38 3e 1d c1 e5 3d
       -0.08172128 0.29092553 0.17986622 0.11218474
000250 37 f0 c5 3e 31 96 cf 3e d5 f8 c4 3d a2 67 13 bf
       0.38659832 0.40544274 0.096177734 -0.57580006
000260 26 4f 80 be df 1f a7 3e 42 15 e4 3e 7f c9 80 bd
       -0.25060385 0.32641503 0.44547468 -0.06288432
000270 79 0f 98 bd 45 b0 9a be df b7 e7 be c3 56 b7 3e
       -0.07424826 -0.30212608 -0.4525747 0.3580838
000280 e2 9e 8b 3e 5a bf 18 3e 02 9c 2f 3e 8e d1 14 be
       0.27269655 0.14916745 0.17149356 -0.14533064
000290 00 8e ec be f5 62 f6 3d 2f 3f 5c bd c0 2a ef be
       -0.46202087 0.12030593 -0.053771194 -0.46712303
0002a0 25 2e 53 3e 68 28 56 be 9e 89 67 3e 5f f5 27 be
       0.20623071 -0.20913851 0.2261109 -0.16402195
0002b0 15 0b 03 3e 2e d3 c9 3e 9a b3 8b be 64 e0 0a bd
       0.12797196 0.3941893 -0.27285463 -0.0339054
0002c0 64 ef 8e be 6c c5 9a 3d ec ab 35 3e ae 79 d0 3d
       -0.27917016 0.075571865 0.17741364 0.101794586
0002d0 d6 0e 7c 3d 00 af 84 3e 2b cc 17 be 6e 8a 9b 3e
       0.061537586 0.25914764 -0.14823978 0.3037905
0002e0 ff 1e b9 bd 1a 98 43 bd 40 b1 89 3e ec 61 ba be
       -0.09039115 -0.047752477 0.26893044 -0.36402833
0002f0 40 22 39 3e fa 65 e6 bd e8 7e 9b 3e 87 e0 5c be
       0.18079472 -0.11249919 0.3037026 -0.21570025
000300 e9 94 44 3d c5 e9 43 be f0 75 48 3e 75 50 8f bc
       0.047993574 -0.19132145 0.1957624 -0.01749442
000310 32 f2 ae 3e 23 97 e0 bd 17 e7 e0 3d 84 21 78 3d
       0.34169155 -0.10966327 0.10981577 0.060578838
000320 db 8c d3 3d c2 33 5a 3d dc 5d 42 bd e5 74 9f be
       0.103296004 0.053272016 -0.047452793 -0.3114387
000330 34 ac 83 be 20 e8 8a be 18 88 c1 3e 1d 15 91 3e
       -0.25717318 -0.27130222 0.37799144 0.2833642
000340 e0 32 12 3d cf 8e 07 be 70 64 c8 be 44 f5 13 3f
       0.03569305 -0.13238071 -0.39139128 0.5779612
000350 24 d7 be be f7 74 d6 3e 8f fd 17 be d0 1a 65 3e
       -0.37273514 0.41886112 -0.14842819 0.2237351
000360 55 0e ac be 9b fd 71 3e 61 1c c4 3d 21 94 4b be
       -0.33604684 0.23631899 0.09575725 -0.19880725
000370 fa f9 2c 3c 8c 4e 65 3d 77 5f 29 be 44 53 64 bd
       0.010557646 0.05598311 -0.16540323 -0.05574347
000380 09 a7 99 3e a9 0e 3f 3e 50 60 88 be de c3 f5 3d
       0.3001025 0.18657936 -0.2663598 0.12000249
000390 78 2c a1 be 0d 97 41 3e c4 a1 78 3e 6e 61 96 3e
       -0.3147924 0.18905278 0.24280459 0.29371208
0003a0 16 e6 9a be ea 11 b4 be bc 06 2d be 8e 2b d7 be
       -0.30253667 -0.35169917 -0.168971 -0.42025417
0003b0 98 59 98 3e b9 82 51 be c6 a3 79 3e c3 79 d1 be
       0.29755855 -0.20460023 0.24378881 -0.4091321
0003c0 84 fb 16 3e b4 fc df be 12 8e 1b 3f fd f7 3b 3d
       0.14744383 -0.43747485 0.6076366 0.045890797
0003d0 4d 17 55 be b7 0c e9 be fe 5d 6d bd 6f f8 6b be
       -0.2080967 -0.45517513 -0.057950966 -0.23043989
0003e0 8f 62 61 bd ca d2 a9 3e 61 3a a5 be 07 f2 cc 3d
       -0.055025633 0.33168632 -0.32271102 0.100071006
0003f0 50 27 44 3e 55 da 8f be 98 5b eb bc 07 82 bb 3e
       0.19155622 -0.28096262 -0.028730199 0.3662264

fc2.weight f4 [256, 256]
000000 80 9a 2d 3d 68 f4 da bc e2 a9 fe 3c 10 f3 e8 bc
       0.04238367 -0.02672787 0.031086866 -0.028436214
000010 2d be 09 3d dc 57 27 3d 21 ac 60 3c c2 45 dd bc
       0.03362863 0.040855274 0.013712914 -0.027010802
000020 82 ed 1b 3d a9 6a 6c bd 07 d1 06 3d e6 c0 68 bc
       0.038068302 -0.057718907 0.032914188 -0.014206147
000030 a4 f1 60 bc a0 52 22 3d c0 93 b7 ba fa cb 24 bd
       -0.013729487 0.03962958 -0.0014005825 -0.04023359
000040 90 ad 24 3d 48 1b 84 bd cb 5b 13 bd b7 e7 06 3c
       0.040204585 -0.06450516 -0.035976212 0.008233956
000050 44 bf d9 bc 58 9a f7 bc 30 ea 15 bd ca 08 10 bd
       -0.02658046 -0.030224964 -0.03660029 -0.035164632
000060 e2 e3 2d bd 5a ce 13 bd 3e 42 ab 3c e6 5a e6 ba
       -0.042453654 -0.036085464 0.02090561 -0.0017574697
000070 af a3 16 bd 2c 4f 3f 3d 4a db 5a bd 4d 07 04 bd
       -0.036777195 0.046706364 -0.053431787 -0.032233525
000080 60 64 b3 bc f5 cf 9b bd 30 91 36 bd 3c 29 df 3c
       -0.021898448 -0.07608024 -0.044572055 0.027241342
000090 e6 17 0b 3d 36 c1 3c 3d 0e 06 04 bc 6f dc 2e 3d
       0.03395834 0.046082698 -0.008058084 0.04269069
0000a0 80 ef f3 3c 5c 6c 29 bd 92 e4 97 bd 35 d8 a0 bc
       0.029777288 -0.041363105 -0.07416643 -0.019634346
0000b0 98 45 94 bc f0 80 c7 3c 97 49 9d bd 8a 9f 3f 3d
       -0.018099591 0.024353474 -0.07680052 0.046783008
0000c0 cc 8c 7a bd 30 eb cd 3c 78 89 94 3c 58 d9 79 3c
       -0.06116943 0.02513656 0.018131956 0.015249573
0000d0 1c d6 23 3d 79 5a aa bb fd 1d 56 bc d9 bf 30 bb
       0.039999112 -0.0051987735 -0.013068673 -0.002696982
0000e0 7f 7b 32 3d 9c cf 13 bd fc 57 9f bc 54 6d b5 bc
       0.043574806 -0.036086664 -0.019451134 -0.022146858
0000f0 dc 7c d3 bc cc e7 5a 3c 85 e8 fa bb a9 74 7b 3c
       -0.025816374 0.013360929 -0.007657113 0.015347638
000100 c5 9d 6d bd 5a 1f 1b bd 1d c1 27 bd e2 bb 0a bb
       -0.05801179 -0.037871696 -0.04095565 -0.0021169116
000110 58 e0 7e bd b8 e9 25 bd 55 e1 9d bd 81 00 41 3d
       -0.06222567 -0.040506095 -0.07708994 0.04711962
000120 7c 22 6d bd cf fa 78 bd 4f 8b 70 3c 4b 92 25 3c
       -0.057894215 -0.060786065 0.014681651 0.01010568
000130 48 13 1e 3d b7 2d 04 3d c0 cd 36 3c cb 39 d8 bc
       0.038592607 0.03227016 0.011157453 -0.026394745
000140 21 24 91 bd df ca 56 3d 0c 2d f7 bc 46 4e 1f 3d
       -0.07086969 0.052439567 -0.030172847 0.038893007
000150 db 18 e5 bc ad 37 81 bc f4 4f 86 3c a2 0b a1 bd
       -0.027965954 -0.015773619 0.016395546 -0.07863547
000160 d8 48 95 bc 00 c7 3e bd 98 fa 03 bc 00 6a dd 3a
       -0.018223211 -0.0465765 -0.008055352 0.0016892552
000170 a6 64 51 3c d3 0d 1c 3d 9e f5 4f bd f2 14 1f 3b
       0.012780344 0.03809912 -0.05077135 0.002427396
000180 83 11 74 bd 8b 2d 7d bd 0c f4 7a bd 4a 83 08 3d
       -0.059587013 -0.06181101 -0.061267897 0.033328332
000190 00 e2 f7 3c fc cf 77 3d 3a 25 02 bd 1f 0f 0a 3c
       0.030259132 0.060501084 -0.031773783 0.008426457
0001a0 3f a5 d7 3b ab 54 02 bd 20 4f bc 3c ba bf 2d 3d
       0.006580978 -0.031819027 0.022986948 0.042419173
0001b0 17 db 54 bc ea b8 ee bc 56 e6 11 3d 2b 7b 78 bd
       -0.012991688 -0.029140908 0.035620056 -0.060664337
0001c0 cc f9 61 3d b8 31 1b 3d a0 49 24 bc d8 c5 54 bd
       0.055169865 0.037889212 -0.010027319 -0.05194649
0001d0 cc 14 d6 3c 14 1c 1d 3d 72 df 1e bd 40 97 1d bd
       0.026132964 0.038356856 -0.038787313 -0.03847432
0001e0 9e e0 92 3a 1f e4 e1 bb da e2 78 bb 2e 58 96 3c
       0.0011205857 -0.006893649 -0.003797701 0.018352594
0001f0 05 98 82 3c e2 26 05 bd 80 83 88 3c e8 a3 cc bc
       0.01594163 -0.032507785 0.016664267 -0.0249805
000200 b5 36 34 3d 4c 4e d1 bc a5 da 08 bd ef 06 d4 3c
       0.043997485 -0.02555003 -0.03341164 0.025882212
000210 cc 95 3f 3d 53 e3 cb bc bf 0c 28 3c b8 72 51 bd
       0.046773717 -0.02488867 0.010256945 -0.051134795
000220 8f be 55 bd f2 a3 79 bd 02 d5 84 bc 71 54 75 bd
       -0.052183684 -0.060947366 -0.016214851 -0.059894983
000230 f0 f3 82 3b e0 77 a7 bc fa 22 2a bd ae 1c 2b bd
       0.003996365 -0.020442903 -0.041537262 -0.041775398
000240 eb 73 b6 bc 3d 1b 19 3c a9 a8 85 bd 71 43 8e bc
       -0.02227207 0.009344873 -0.0652631 -0.017366143
000250 5c b9 e8 3c be 7c 10 3d 06 3f 2b 3d fa 18 50 bd
       0.028408699 0.035275213 0.04180815 -0.05080507
000260 a0 3f 32 3b a0 91 12 3d 9c 13 26 3b 9d 5b a6 bc
       0.0027198568 0.03578341 0.0025341278 -0.020307356
000270 26 f4 9f 3b e8 c7 54 3c fb c7 05 bd ec b8 2a bd
       0.0048813997 0.0129871145 -0.03266142 -0.04168026
000280 2e be a8 bd 66 17 70 bd e6 7f 12 3d 38 cd 36 bc
       -0.08239399 -0.058616064 0.035766505 -0.011157326
000290 67 6f 4f 3d 63 10 88 bd 4b a2 14 bd b9 55 47 bd
       0.05064335 -0.066437505 -0.036287587 -0.048665736
0002a0 8c 96 f4 bc fe 6c 83 bd 5e 27 2c 3d 00 f3 ba b9
       -0.029856943 -0.06417273 0.04202973 -0.00035657734
0002b0 e8 4f 68 bd ba c7 ad 3c 20 a0 12 bb 1b 3e c5 bb
       -0.05671683 0.021213401 -0.0022373274 -0.0060193664
0002c0 5e 48 0b 3d e0 9f 26 3d 0d c0 3b 3b 2b eb c2 bc
       0.03400456 0.040679812 0.0028648407 -0.023793777
0002d0 1c 1a 10 3d c0 f9 13 bc 1d 04 ec 3a 88 f8 f8 3c
       0.03518115 -0.009031713 0.0018006597 0.030391946
0002e0 20 b4 21 3c 47 b6 8e bc 9c 81 67 bd 56 c3 30 3d
       0.009869605 -0.017420901 -0.05652009 0.043155037
0002f0 d1 5d 12 3d 80 b8 3a bd dc a1 2e 3d f4 8a 7b bd
       0.035734 -0.04558611 0.04263483 -0.061411813
000300 73 6a 91 bc 50 a3 3a bd 10 ca f1 3b 50 db 64 bd
       -0.017750954 -0.045565903 0.007378824 -0.055873215
000310 8c 61 c3 bb e6 9b 1b ba f0 ab 09 bd 91 2b 9c bc
       -0.005962556 -0.00059360114 -0.033611238 -0.019063743
000320 8d 6b 2b bc 44 9f d8 3c 60 b3 87 3c 6c a5 4c bd
       -0.010462654 0.026443131 0.016565025 -0.049962446
000330 26 9d 53 3a 56 07 c7 3c 50 39 41 bd 04 b3 5a 3a
       0.0008072428 0.02429549 -0.047173798 0.00083427154
000340 b8 28 07 bc 50 2e 18 bd 64 d3 50 bd 5d 4c 83 3c
       -0.008249454 -0.037153542 -0.050982848 0.016027624
000350 e6 01 7e 3d 33 e2 36 b9 77 6b 76 bd e4 c0 25 bd
       0.06201353 -0.00017441138 -0.06016108 -0.040467158
000360 38 0c ed 3c f9 08 95 bd 87 e2 0b bd b8 1b 0c bd
       0.02893649 -0.07277102 -0.03415158 -0.034206122
000370 2c 10 9b 3c d5 26 86 bd d4 f2 b4 bc d7 47 3d bd
       0.01892861 -0.06550375 -0.022088446 -0.04621109
000380 7b d4 7f bd b8 18 18 bd 90 7e 81 bc fc f4 4f bd
       -0.062458497 -0.03713295 -0.01580742 -0.050770745
000390 20 5e ce 3c 08 45 f8 3c 9f 2e 96 bd 63 35 4d 3c
       0.025191367 0.030306354 -0.07333111 0.012524935
0003a0 d6 0f 8f 3c f8 fa 1a bd 1a c5 05 3d ac 79 b4 3c
       0.017463606 -0.037837 0.032658674 0.022030674
0003b0 50 2a 42 bd 1c bb 66 bd ff 3d db 3c c6 e2 5a bd
       -0.047403634 -0.056330785 0.02676296 -0.053438924
0003c0 ad 5b 67 bc 54 7d 55 3d 82 e1 79 bd 0f 87 80 bd
       -0.014120978 0.052121475 -0.061006077 -0.062757604
0003d0 8c fe ee 3c 56 d3 20 bd 7f aa b9 3b c0 fd 95 3c
       0.029174112 -0.039264046 0.0056660767 0.018309474
0003e0 97 fe 4f bd c5 95 00 bd 78 be f2 bc d5 a7 83 bd
       -0.050779905 -0.03139283 -0.029631838 -0.06428496
0003f0 82 6f c4 bc 8c 6f 0c 3d ca 47 55 3d c7 94 78 bc
       -0.023978952 0.034286067 0.052070417 -0.01517219

fc2.bias f4 [256]
000000 11 50 b0 3c 91 93 e4 3d 14 c6 49 3e d4 e1 e9 bc
       0.021522554 0.111609586 0.19704467 -0.028550066
000010 ff 8a da bc f7 69 90 3b a6 e7 60 be 9b 9e dd 3d
       -0.026677607 0.0044071632 -0.21963367 0.10821267
000020 57 9b cf 3d 11 5f 41 be 56 10 44 be 0b 29 5d bc
       0.101370506 -0.18883921 -0.19146857 -0.013498555
000030 bf 8c d0 3a ee 18 29 be 55 fc a7 bd ad a0 8c 3d
       0.0015911086 -0.16513416 -0.082024254 0.06866584
000040 1b 63 ab 3c 81 8b 60 bd 6e 7b 1a 3e a5 15 cb 3b
       0.02092128 -0.05482054 0.15086147 0.0061976486
000050 24 9f 0a bd 6c ac 67 3e 2f 12 46 bd f4 e0 48 3e
       -0.033843175 0.22624367 -0.048357185 0.19617063
000060 56 f1 2b 3e d1 7d eb 3c 7c a4 26 bd a4 bd dc 3c
       0.16791281 0.028746517 -0.04068421 0.026945896
000070 07 0d 43 bc 3e f3 9f bc 50 f8 36 bd b7 8f 6d bd
       -0.011904961 -0.019525167 -0.044670403 -0.057998385
000080 c0 28 02 be 3e c5 1b bc 4d 43 bf 3e ce 02 f7 3c
       -0.12710857 -0.009507475 0.37356034 0.030152705
000090 29 e9 f5 3d 7d 36 40 bd 11 9c 8d 3b eb 56 9b 3b
       0.120073624 -0.046926964 0.004321583 0.004740586
0000a0 66 3e 10 3e a7 a7 84 3d cd c9 0a 3d 92 4c db 3b
       0.14086303 0.0647729 0.03388386 0.0066924775
0000b0 1a 01 ec bc f2 ac 40 3e c2 c0 d2 3b f6 80 49 3e
       -0.028809119 0.18815973 0.00643167 0.19678101
0000c0 8c 50 14 be ce 66 d3 bc 23 a5 f0 3d cc 56 22 3e
       -0.14483851 -0.025805857 0.11750247 0.15853423
0000d0 66 fc 60 3d 92 cc fa 3c 6d e8 b0 3c 0d 61 73 3e
       0.054928206 0.030615125 0.021595204 0.2376749
0000e0 d9 de fa 3d 8d c8 9c 3d 0a 61 9e 3d bb d1 50 bd
       0.12249536 0.076554395 0.077333525 -0.050981265
0000f0 07 80 2e 3d b8 71 c4 3c 09 5f 03 3e c2 99 81 3a
       0.042602565 0.023980007 0.12829222 0.0009887742
000100 6a 73 f6 3b 98 5c 80 bd 0f 69 fa bc ec d5 63 bc
       0.0075210826 -0.06267661 -0.030567674 -0.013905983
000110 b7 0b 28 3e 36 01 83 bc 35 78 85 bd 2b 7c 8a bd
       0.16410719 -0.015991788 -0.06517068 -0.067619644
000120 82 30 ae bd 6c 79 92 bc e4 3b 38 bd 56 04 01 3e
       -0.08505346 -0.017880164 -0.04497899 0.1259931
000130 39 d4 95 bd a2 24 39 3d 6f 0c c6 3e 27 19 1e 3d
       -0.07315869 0.04520095 0.3868136 0.038598206
000140 28 98 cf 3c c1 fa c4 3c 24 ab e2 bd 40 bc d5 3d
       0.025341108 0.02404535 -0.11067799 0.104362965
000150 61 9d 82 bd 27 e5 78 bd 20 a6 7f 3d 9d 82 19 bd
       -0.06377674 -0.06076541 0.06241429 -0.03747808
000160 e6 d6 bf 3e a0 e9 8f be 6a 32 61 bc 32 c5 7d bd
       0.37468642 -0.2810793 -0.01374493 -0.06195564
000170 f2 64 7a 3d 63 d6 be bc 47 60 10 3e 3f 7a b8 bd
       0.061131425 -0.023295587 0.14099227 -0.090076916
000180 9c f1 d9 3d 4c be 7c bc b8 32 5e bd 4a 07 d2 3e
       0.106417865 -0.01542623 -0.054247588 0.41021186
000190 a2 f5 86 bd c4 61 0d 3d a8 2e 07 3d d7 84 50 bd
       -0.065898195 0.034517065 0.03300348 -0.050907936
0001a0 22 22 56 be 11 dc ac bc 44 b9 43 3c 5f f8 7d bd
       -0.20911458 -0.02110103 0.011946026 -0.062004443
0001b0 07 39 84 3c d8 64 13 bd 70 f5 01 3e 5b 63 47 bd
       0.016140474 -0.035984844 0.12691283 -0.048678737
0001c0 93 8c c9 3d 28 65 df bd 3b 58 9a 3c 46 60 4d bb
       0.098412655 -0.10907966 0.0188409 -0.00313379
0001d0 cb 6d c2 bd 05 06 84 3c e6 e4 79 bd 0d b9 21 bd
       -0.094935976 0.016116152 -0.06100931 -0.03948312
0001e0 79 0a b0 3c f7 6f 8a bd 3d 7c 29 3e 32 9f 9f bc
       0.021489369 -0.06759637 0.165513 -0.01948509
0001f0 a8 f8 d9 3d 47 56 fc 3d e8 fa 50 3c 9b a3 fe bc
       0.106431305 0.123211436 0.012755133 -0.031083873
000200 cc a3 ab 3c 70 0b ad bc ae 97 39 3e d4 11 c6 3e
       0.020952128 -0.021123618 0.18124267 0.38685477
000210 80 99 d4 3a e1 0c 9c bd 1d ca c9 bc 3c b6 ac bd
       0.0016220063 -0.07619644 -0.024632508 -0.08433196
000220 54 e5 17 3d a8 59 6d 3d 67 81 8f 3b 60 d4 1b 3d
       0.03708394 0.05794683 0.0043794396 0.038044333
000230 9c 48 74 39 03 3b 87 bd b8 b3 d9 3d 15 30 f0 ba
       0.00023296702 -0.066030525 0.10629982 -0.0018324876
000240 7a 79 2e 3d f7 c2 96 bd c0 34 72 be ff 1d f0 bc
       0.042596318 -0.07361405 -0.23652935 -0.029311178
000250 a4 dd cd bd d0 dc 2a ba db fe 68 bc bd 2b bf 3b
       -0.1005204 -0.0006517889 -0.0142209185 0.0058340714
000260 68 07 56 bd 13 55 09 3e 14 8f c5 3d ee 7b 65 bd
       -0.052253157 0.1341136 0.096464306 -0.05602639
000270 28 84 3e bd 9c fd 9d bc 9e 81 a1 3e 9f 4e 16 be
       -0.046512753 -0.01928597 0.31544203 -0.14678429
000280 c6 99 93 3c bd 61 83 bd 70 96 72 bc 9d 6c bd bd
       0.01801766 -0.064151265 -0.014806375 -0.09249232
000290 a9 47 54 3e 54 db f3 3c 59 92 90 bc af 07 7a bd
       0.20730461 0.02976767 -0.017647909 -0.061042484
0002a0 41 31 98 3e 72 5c 3b 3e 3d 4f 31 bd 61 eb 2a bd
       0.29725078 0.18296984 -0.04328846 -0.04172838
0002b0 ef 7c 13 be 92 6d 2b bb 23 db 33 bd f4 24 f3 3a
       -0.14403127 -0.0026157838 -0.043910157 0.0018550442
0002c0 60 d0 03 3e c5 21 b9 b8 8f 1b bd be 63 54 22 bd
       0.12872458 -8.8277775e-05 -0.36935088 -0.03963126
0002d0 4e 8b 10 bd 0e 8f 1e 3d f1 c1 bc bd 5b f8 85 3e
       -0.0352891 0.038710646 -0.09216679 0.26166043
0002e0 8e 2d 11 3e 4c b1 80 bd 73 aa ae 3c 15 af 10 bd
       0.14177534 -0.06283817 0.02132151 -0.03532322
0002f0 f2 88 28 bc d7 1c 14 3e 8b 71 2b be a2 05 e7 3c
       -0.010286557 0.14464127 -0.16742532 0.028200928
000300 a6 ea 57 3c 51 38 17 bc 47 f3 ea 3e 40 72 71 bc
       0.013178503 -0.0092297355 0.4588873 -0.014736712
000310 69 97 35 bc 0a f3 78 bd d9 2e 03 be a1 95 33 3d
       -0.011083462 -0.060778655 -0.1281084 0.04384387
000320 fd 83 0c bd 41 7f 1b 3d bc 9f 0c bd fb f4 54 bd
       -0.03430556 0.037963156 -0.034332022 -0.051991444
000330 a5 7e 23 3e fc 6c 1d 3b 55 37 87 ba 0f a3 b2 bd
       0.1596628 0.0024021259 -0.0010316173 -0.08722507
000340 65 34 e9 3d 36 07 43 bc ae a2 4f 3e c9 d9 5b be
       0.113869466 -0.011903575 0.20276901 -0.21469797
000350 a6 65 17 3d 9e 3d 04 3b dd 46 6d bd cb 00 96 3a
       0.036962174 0.0020178328 -0.05792891 0.0011444328
000360 5c b4 95 bd 78 e0 85 bb 55 54 9e bd 37 1d 58 3d
       -0.073097914 -0.0040855967 -0.07730929 0.052762236
000370 66 72 83 bc b5 ca 90 bc a6 09 e9 bd 17 3a 2c bd
       -0.01604576 -0.017674783 -0.113787934 -0.042047586
000380 65 94 32 bc 3e 3f e7 3c a7 f7 6e bd cf d3 66 bd
       -0.010899638 0.028228398 -0.05834165 -0.05635434
000390 ba f1 26 3d 07 15 66 be 4a 0f 1c 3e d1 fa 70 bc
       0.040757872 -0.22468959 0.15240207 -0.014708237
0003a0 98 7b 2d bd bc ed 58 3d f0 70 4b bd 69 73 8c 3c
       -0.042354196 0.052961096 -0.049668252 0.017144876
0003b0 fd c0 82 bd 2f cd 6b 3c 70 a5 54 bd e7 6c 4a 3d
       -0.06384466 0.014392181 -0.051915586 0.049420264
0003c0 db 0e 3a bc 9c f9 36 bd c6 dc 15 3e 91 08 82 bd
       -0.011356081 -0.04467164 0.14635 -0.0634929
0003d0 25 03 82 bc 05 83 94 bc 24 45 be be 28 24 f0 3d
       -0.01587064 -0.018128881 -0.37162125 0.11725646
0003e0 14 bb 6d 3b fb 83 12 3e 27 dd c7 3c 21 c0 2a 3c
       0.0036274837 0.14308159 0.024397446 0.010421784
0003f0 f7 0c e9 3c 7e eb 6b bd 52 17 41 bd 06 51 25 bc
       0.028448565 -0.05759763 -0.04714138 -0.010090118

fc3.weight f4 [128, 256]
000000 00 37 7c bb 50 36 41 3f c6 b1 99 3e 03 0d 40 3f
       -0.003848493 0.754735 0.30018443 0.75019854
000010 bf 19 1e bc fd 73 e1 3b d1 ac 87 3f e5 27 a1 3f
       -0.009649693 0.006880282 1.0599614 1.25903
000020 a6 ae 3b be 9c 26 7c 3f fa 22 9e bb 13 93 cb 3e
       -0.18328342 0.98496413 -0.004825947 0.39760646
000030 62 d5 40 3d 4f 4f 04 3f b1 cf 8b bd b7 da 6b 3e
       0.047078498 0.51683515 -0.06826723 0.23032652
000040 64 54 51 3e 6c 75 23 3d 59 60 67 3f ed df 98 3e
       0.20442349 0.039906904 0.9038139 0.29858342
000050 94 52 81 bc b3 66 81 3d 1c a3 ce bc a2 41 fa 3d
       -0.015786447 0.063184164 -0.025224261 0.1221955
000060 18 ef db 3d 88 18 55 bd 9f b2 93 bc dc 89 13 3f
       0.10738963 -0.052025348 -0.01802951 0.5763223
000070 34 60 93 3c 8d 31 2d bc 15 e4 4c be cb bf 32 3f
       0.01799021 -0.010570896 -0.20008881 0.698239
000080 fe 7b 9d bf 8d 23 ae bc ce 00 56 3e 4e 0b 43 bc
       -1.2303464 -0.021257186 0.20898744 -0.011904551
000090 ce f7 2b be 21 0f 08 bc ab d9 b2 3e de d7 5d 3d
       -0.16793749 -0.008304388 0.34931692 0.054160945
0000a0 7e 77 74 3f d2 39 47 be a1 8d be 3e 25 f6 f1 3c
       0.9549483 -0.1945565 0.3721743 0.029536316
0000b0 05 a3 a6 3c c2 06 a7 3d 2e 9e 2a 3f 02 4c 1e 3e
       0.020341406 0.08155586 0.66647613 0.15458682
0000c0 a0 ba 45 3f f0 d0 d5 3c d5 c7 9a 3e 67 42 d2 3e
       0.7723789 0.026100606 0.30230585 0.41066286
0000d0 c0 ee fa be e8 c5 62 bd 56 c0 7d bd 74 6f 1e 3e
       -0.49010277 -0.05536452 -0.061951004 0.15472203
0000e0 38 75 22 3f 69 84 c4 3e b6 f6 51 3e ab 0a 1e 3d
       0.6346011 0.3838227 0.20504269 0.038584393
0000f0 d6 54 95 be 58 b0 29 bc 73 1e 8d 3f b5 48 16 3d
       -0.29166287 -0.010356985 1.1024917 0.036690433
000100 c7 ba de 3e 35 74 6b 3d aa 7e 2d bd 64 b3 41 3d
       0.43501875 0.05748387 -0.042357124 0.04729022
000110 72 21 8b be 20 b1 d6 3d 11 64 fe 3c 28 ab 80 3d
       -0.27173954 0.10483003 0.031053575 0.062826455
000120 c7 08 68 3e e5 f3 ad bc 5e ab a2 3b 09 bc bc 3e
       0.22659598 -0.021234462 0.004964276 0.3686221
000130 ec 04 bc be 57 3a 70 3e f1 d9 90 3d 6b 5f a0 3b
       -0.36722505 0.23459755 0.07072819 0.004894187
000140 31 a3 8a 3e f4 4e 4d 3e f0 d0 81 3f 88 94 54 3f
       0.2707763 0.2004965 1.0141888 0.8303914
000150 b2 58 59 3c c2 cc ee 3c c0 7f f8 ba 6e 5b 67 3d
       0.0132657755 0.02915037 -0.0018958971 0.05648368
000160 33 c2 20 3e 63 c7 ae bf 7a 91 11 3f cd f7 91 3c
       0.15699081 -1.3654598 0.56862605 0.017818356
000170 a6 f3 87 be 21 25 cd 3e 68 70 61 3f db 04 56 bc
       -0.26553077 0.4006739 0.88062143 -0.013062681
000180 59 01 e1 3d e6 a5 b7 3c 47 a1 f5 bc 83 72 98 3d
       0.10986585 0.022417974 -0.02998413 0.074437164
000190 c8 99 fe 3c 70 2d 5d 3e e6 47 7a bc 3a ec 26 3c
       0.031079188 0.21599364 -0.015275931 0.010188157
0001a0 77 4c 49 3f 39 3d 12 bd 05 1e f3 bc 37 0c 0e bd
       0.786323 -0.035702918 -0.0296774 -0.034679618
0001b0 3e 0a 24 be bb 63 b3 3f 8f 43 41 bf db f7 15 3d
       -0.16019532 1.401481 -0.7549371 0.036613327
0001c0 10 f7 25 3f bb 10 05 3f 96 d9 d0 3e 07 bc 18 bc
       0.6483011 0.51978654 0.40791005 -0.009322173
0001d0 4e 33 23 40 10 49 34 3d a0 90 7a 3d 5c 74 a6 3c
       2.5500064 0.04401499 0.06117308 0.020319156
0001e0 95 46 9a 39 24 e0 34 bd b6 d4 28 3e bb bc 4d bd
       0.00029425757 -0.04415907 0.16487393 -0.050228816
0001f0 80 34 5f 3e 89 66 35 3b 98 c7 77 bd 84 21 32 3d
       0.21797371 0.0027679524 -0.06049308 0.043488994
000200 12 f4 65 bd 3d 8f f7 3c ea 94 37 3e b7 13 f7 3c
       -0.056140967 0.030219669 0.179279 0.030160768
000210 c3 ce 85 3c a9 7b 09 3d a7 b3 23 3c 2f cd 90 3e
       0.016333943 0.033565197 0.009991563 0.28281543
000220 d8 30 7c bd eb 91 0d bd 36 0c b1 3c f6 9a d1 bc
       -0.06157002 -0.034562986 0.021612268 -0.025586586
000230 61 45 d9 bc fd 23 c6 3e 3f 9b b5 be 4d f1 49 3f
       -0.02652234 0.38699332 -0.35470006 0.7888382
000240 f9 74 a3 3f 6c 79 17 3f d9 ba 46 3f 43 30 af 3e
       1.2770072 0.5916965 0.77628857 0.34216508
000250 aa 2b 26 3f 26 55 7f bd 29 61 94 be 1e 19 24 bd
       0.64910376 -0.062337063 -0.28980377 -0.040063016
000260 16 90 46 bd 0b 32 a8 bd 44 1e d0 be cf b5 15 3f
       -0.048477255 -0.0821267 -0.4064809 0.5848054
000270 3b 3a cf 3f 4d 53 30 bd cc 80 37 3c 1c b2 d0 3e
       1.6189646 -0.04304819 0.011200141 0.40760887
000280 30 d3 29 bc 82 88 51 bd b0 9a 2e bd dd 53 75 3e
       -0.010365292 -0.051155575 -0.04262799 0.23957773
000290 ca 7b 78 bd 35 f3 1f 3d 1c d4 6b be fc 65 44 3d
       -0.06066493 0.0390503 -0.23030132 0.047948822
0002a0 fe df 84 3d 93 31 aa be ca fb 38 bc fa 8d 17 bd
       0.064880356 -0.33240947 -0.0112905 -0.037000634
0002b0 28 35 60 3f 47 3c 93 bc 11 3e 48 3d 69 05 d3 3c
       0.8758111 -0.017973078 0.048887316 0.025759416
0002c0 5f ad 85 3e b9 05 d0 3e 9e 4f 6b 3f 59 28 eb 3e
       0.26108834 0.40629366 0.9191836 0.4592922
0002d0 8e 0e 9c 3d 2e 73 fa 3e b0 76 bf be ba 99 8b 3d
       0.076199636 0.48916 -0.3739524 0.068164304
0002e0 bb be 77 3e a1 37 1e 3d 2f e5 3d bd 83 98 12 3d
       0.24193852 0.03862727 -0.046361145 0.035789978
0002f0 ec b1 71 3e 8c 4d 5e bf e5 9f 23 3f c3 09 80 bc
       0.23603028 -0.8683708 0.63915855 -0.015629655
000300 af 08 0c 3f 20 4c 78 3f 20 9a e0 3c 45 7b d5 bc
       0.5470075 0.9699116 0.027417243 -0.026059756
000310 24 9c cc bb 74 62 00 3d 60 1f 1f 3f b6 5f 02 3f
       -0.0062441994 0.031343892 0.6215725 0.50927293
000320 a8 3b 4f bd 27 05 b3 bc c0 0e e3 ba 70 3a 37 3c
       -0.050594002 -0.021853043 -0.0017323121 0.011183366
000330 6d 77 b4 be ca 24 f9 3e 5c 21 c4 3e cf e0 4a 3f
       -0.35247365 0.4866088 0.383067 0.7924928
000340 b2 0e 2c 3f 9a a5 68 3b 0f 65 00 be 24 b6 f2 3d
       0.67209923 0.0035499097 -0.12538551 0.11851147
000350 fb 57 8f bc 9a 16 6a 3b 1b b4 0b 3f fb a2 41 3c
       -0.017498007 0.0035719038 0.54571694 0.011818643
000360 b2 2c 50 bb 54 b1 6b 3f c2 3f 7a be c8 cb 26 3f
       -0.0031764922 0.92067456 -0.24438384 0.65154696
000370 cf 3d db 3e 24 35 f3 3d b9 ef 6c 3f f9 83 b6 3c
       0.42820594 0.1187537 0.9255329 0.022279726
000380 e6 74 f7 3b 62 27 1f 3f aa 5b 72 3d e3 9f d1 3c
       0.007551777 0.6216947 0.05916945 0.025588935
000390 8a 45 e8 3e fc 27 9c 3f 4c 11 e3 3e 2c 5f 57 3c
       0.45365554 1.2199702 0.44349134 0.013145249
0003a0 20 f7 77 bd 88 58 8e 3e 2b 6c 3a 3d 27 94 94 3e
       -0.06053841 0.2780192 0.045513313 0.2901928
0003b0 43 e6 c2 bc 12 4a 63 3d 0f 81 3f bd e5 74 3f 3f
       -0.023791438 0.05549056 -0.04675394 0.7478774
0003c0 16 6e 82 3c 6f 18 ed 3c 09 a1 8c 3e f0 02 89 3e
       0.015921634 0.028942315 0.2746661 0.26760054
0003d0 0c 5b a3 bc c5 cb 8a 3c 70 27 e4 3e 7e db 54 3e
       -0.019940875 0.016942868 0.44561338 0.20786855
0003e0 52 4c 7a 3d 1b 72 86 3e 0f 54 ce 3e b6 82 1e 3f
       0.06110794 0.2625893 0.40298507 0.619182
0003f0 86 1f 12 bd 7c 40 2a bc 1a 1a 50 bd 64 fc 24 3d
       -0.035674594 -0.010391351 -0.050806142 0.04027976

fc3.bias f4 [128]
000000 a6 1c 93 3d d7 40 66 3d d0 e4 43 ba 48 c6 34 bd
       0.07183199 0.05621418 -0.00074727554 -0.04413441
000010 18 0e 41 be d1 81 a8 3e 7f 00 8b 3e f8 8e 28 3d
       -0.18853033 0.32911542 0.27148816 0.04115197
000020 44 39 07 3d 45 23 8c bc 41 7b 1c be c1 db 41 3d
       0.033013597 -0.017106662 -0.15281393 0.047328714
000030 ee 95 96 bc 91 76 4e 3d f2 c5 43 bc 63 93 7f 3c
       -0.018382039 0.050406042 -0.011949049 0.015599105
000040 28 05 0a 3e 70 06 84 bc ca ff b0 3d d8 ab e2 3d
       0.1347853 -0.01611635 0.08642538 0.11067933
000050 2f 73 30 be 1e 8c e3 bc 78 22 6e 3c 3e 89 2c 3d
       -0.17231439 -0.027776774 0.014534585 0.04212307
000060 51 3e 7b 3c 0f dc 51 bd 42 8f 84 3e c7 40 12 3b
       0.015334682 -0.051235255 0.25890547 0.0022316442
000070 c9 28 01 3d ae 71 62 3d 1f ef 13 bd b4 fc 42 bd
       0.031533036 0.055284195 -0.036116716 -0.047604278
000080 22 32 85 3e 3a 37 c0 bd a0 45 88 bd 32 e1 c7 3e
       0.2601481 -0.09385534 -0.06653905 0.39038998
000090 44 ee 9b bd 91 50 57 bd e7 8e 0a 3d 44 76 8f bd
       -0.07613805 -0.05256707 0.03382769 -0.07004979
0000a0 88 2c 76 bc 02 ea 02 bd 87 ed 63 bd 01 2c 80 3d
       -0.0150252655 -0.03196145 -0.055646446 0.06258393
0000b0 2a 78 d3 3d f9 35 2f 3d b8 03 21 bd 3a 14 b6 3d
       0.10325654 0.04277608 -0.039310187 0.08890577
0000c0 c8 da 60 bd e2 17 f2 bc fb 1e 4d bd fd e6 1b bc
       -0.054896146 -0.029552404 -0.050078373 -0.009515521
0000d0 17 8a 50 3d 11 0a 71 bc e9 cf 47 bd cf 9d 17 3d
       0.050912943 -0.014711873 -0.048782263 0.037015732
0000e0 3b 4c a6 bb a7 cf 57 3d b6 9f 17 3d da a2 59 bd
       -0.0050750053 0.052688267 0.037017547 -0.053133823
0000f0 89 70 29 bd 33 15 52 3d 98 a0 91 3d 69 d0 a9 bb
       -0.041367088 0.05128975 0.07110709 -0.005182315
000100 41 13 01 be 27 cf 1f 3e ea 86 1c 3c 30 0f 64 bc
       -0.12605001 0.15606366 0.00955365 -0.013919637
000110 14 7a 8c bc a7 8f 2e 3d 8a 96 89 3d 32 5f 19 be
       -0.017148055 0.042617466 0.06718166 -0.1497772
000120 b5 f3 44 bc c2 b9 7b bc f0 62 24 3d 90 9e a9 bd
       -0.012020995 -0.015364112 0.040133417 -0.082821965
000130 91 01 64 bd 33 e8 1b 3d 3c e2 5f bd b7 8c c7 3c
       -0.055665556 0.03806324 -0.054659113 0.02435909
000140 b6 d4 87 3c 10 16 fb 3d 8a 8a f0 bd 17 70 aa 3e
       0.01658092 0.122600675 -0.11745174 0.33288643
000150 f0 13 c1 3e 11 dd cf 3d 57 74 e1 3c f8 33 ce bb
       0.37710524 0.10149587 0.027521295 -0.0062928163
000160 06 bb 84 bc 2e 9b 41 3d ac ad b6 3d 12 e5 5b 3b
       -0.016202461 0.04726713 0.08919844 0.0033553285
000170 7b d2 eb bd ec 37 8e bd e3 c1 a7 3c 88 03 e2 bd
       -0.11514755 -0.0694426 0.020478195 -0.1103583
000180 ff 65 a2 be 6c f6 ae bd 61 8e 0d 3d f2 4a 7b 3d
       -0.31718442 -0.08543095 0.03455961 0.06135077
000190 48 03 d0 3e 8c 30 40 bd ce 02 c7 3c 99 3b 50 3d
       0.40627503 -0.046921298 0.02429333 0.050838087
0001a0 cb 7a b9 3b 2f 88 64 bd b6 c8 a9 3c 71 e9 06 3d
       0.00566039 -0.055793937 0.02072559 0.03293747
0001b0 4e 03 8d bd 40 33 5a bd e2 b5 25 bd 41 d8 f2 3c
       -0.06885396 -0.053271532 -0.04045666 0.029644134
0001c0 b0 93 ef 39 68 98 b4 3b c4 31 9d bd 9b 7b 70 bc
       0.00045695668 0.0055113323 -0.07675508 -0.014677907
0001d0 ba 0e b5 3e b8 a2 15 bd 30 b2 34 bb 70 ae 72 3c
       0.35362798 -0.036532134 -0.0027572028 0.014812097
0001e0 4b 43 4f bd 57 87 33 be b5 ab 63 3b 9d ce 1c bd
       -0.050601285 -0.17532097 0.0034739797 -0.03828298
0001f0 fe 9e 3f be b8 bd 1c be 01 f9 61 bd 6e b5 a5 3d
       -0.18712994 -0.15306747 -0.05516911 0.080912456

fc4.weight f4 [7, 128]
000000 f7 e2 1d bf b6 46 18 bf f6 9c 88 3d e9 d4 15 bf
       -0.61674446 -0.59482896 0.06670563 -0.58528
000010 42 85 d7 be 85 55 e3 3f 3e 8b 4e 3f 40 10 1a bf
       -0.42093855 1.7760473 0.80681217 -0.60181046
000020 40 3e 22 bf a5 01 0f bc 49 45 0d bf ae 63 16 bf
       -0.63376236 -0.008728419 -0.55183846 -0.5874585
000030 01 60 61 3c 37 d9 16 bf 44 fe 73 3d dc 12 11 bf
       0.013755799 -0.58925194 0.05956866 -0.566694
000040 6e 64 36 bf 3a c7 47 bd ee 3a 22 bf 11 c1 2a bf
       -0.71246994 -0.04877398 -0.6337117 -0.66700846
000050 10 ea 25 be bc 04 65 3d de ea 0e bf 73 45 f7 be
       -0.16202569 0.05591272 -0.5582713 -0.48295173
000060 e1 67 20 3d d4 cd 0a bf 58 bc 15 3f cc 2a 9e bd
       0.039161567 -0.5422032 0.58490515 -0.077230066
000070 f9 30 a1 bd 12 89 0f bf a6 7e 46 3d de 3e f2 bc
       -0.07870669 -0.5606853 0.048460625 -0.029570993
000080 81 2f 04 40 70 a0 ca 3d d7 22 6e 3c c0 7a 22 3f
       2.0653994 0.09893882 0.014534674 0.6346855
000090 5c 85 0d bd 9f 70 8e 3d fe 3e a2 3b eb 31 a3 bd
       -0.03455101 0.069550745 0.004951357 -0.079685055
0000a0 71 fc 2c bd df 7f 09 bd 50 f5 98 bc c3 ee 0f bf
       -0.042232934 -0.033569213 -0.018671662 -0.56223696
0000b0 89 ce f5 be 39 ef 39 bd 70 ea 79 bd 5d 57 0c bf
       -0.48009136 -0.045394156 -0.061014593 -0.54820806
0000c0 9d 3a 89 3d 4d ab bb 3c e5 58 5c bd cf 44 64 bc
       0.06700633 0.022908831 -0.053795714 -0.013932421
0000d0 89 a6 f2 be 70 bb 1f bf 9f 44 8e bd b1 bc 12 bf
       -0.4739268 -0.6239538 -0.06946682 -0.5731917
0000e0 dc c0 2b 3d 5f 36 08 bf 22 04 36 bf b5 61 ec be
       0.041931972 -0.53207964 -0.71100056 -0.46168295
0000f0 1a c3 75 bd c1 78 00 bf b6 34 07 bf 95 3f 80 3d
       -0.060000516 -0.50184256 -0.52814806 0.06262127
000100 00 82 b8 3d 82 94 d3 bd 3f e3 1b bf 72 06 c7 bc
       0.090091705 -0.1033106 -0.60893625 -0.024295066
000110 60 d7 9d 3d ac b8 1c bf 10 6c 15 bf 35 c0 5d bc
       0.07707095 -0.61219287 -0.58368015 -0.013534595
000120 31 67 4c 3d fb ac b9 3b 30 a1 ce bd 97 de fc 3b
       0.0499031 0.005666373 -0.10089338 0.0077169645
000130 7b b1 64 bd c8 4a 8b bd ff a1 d5 bc 4c 28 24 3d
       -0.05583332 -0.06801373 -0.026078222 0.040077493
000140 ad d5 a5 bd 26 7c cf 3f 3d a3 7e bc a7 2a 43 3f
       -0.08097396 1.6209762 -0.015541849 0.7623696
000150 c4 c2 39 3f bf 22 29 bf b9 58 3c 3d d7 48 0d bf
       0.72562814 -0.66068643 0.04598305 -0.5518927
000160 de aa 0d bf dd c0 de 3b da 61 4a bf b8 47 19 bf
       -0.5533885 0.0067978934 -0.7905556 -0.5987506
000170 50 27 c7 3d a2 87 9b 3d 38 d9 91 3d 1a 46 10 be
       0.09724295 0.07594229 0.07121509 -0.14089242
000180 ae e2 02 3f 5d 5e 11 3b ca 3f f7 be f4 84 29 bf
       0.51127136 0.002218149 -0.48290855 -0.66218495
000190 00 91 47 3f 88 2c 0a bf 2a b8 8b bd e1 18 02 bf
       0.7795563 -0.539742 -0.06822236 -0.5081921
0001a0 3b 84 8e bd 87 51 30 bf 61 70 94 3d a5 dc 22 bd
       -0.06958815 -0.688744 0.07247997 -0.039761204
0001b0 86 9f 18 bf 5c 08 90 bd dc 52 0f bf ee 41 8a bb
       -0.59618413 -0.070328444 -0.5598581 -0.004219285
0001c0 5d 76 40 3d 91 f3 8b 3c f0 a0 b5 bc 08 4e 44 3b
       0.04698788 0.017083915 -0.022171468 0.0029953737
0001d0 9d a6 38 3f 3b b5 90 3d 44 6c bf b9 cb 21 16 bf
       0.7212923 0.07065817 -0.00036511023 -0.58645314
0001e0 d2 6b 02 bf 29 96 82 bf e9 9b 07 bf cb 3a 72 3c
       -0.5094577 -1.0202075 -0.52972275 0.014784525
0001f0 d2 02 c6 bc 88 47 8e be 90 fd 38 bd b5 a0 28 bf
       -0.024171267 -0.2778895 -0.04516369 -0.6587022
000200 39 df 0d bf 8a ab 1a bf 9b 95 8d 3b 96 db 0c bf
       -0.55418736 -0.60418 0.004320813 -0.5502256
000210 ed 50 c5 be b8 bf e3 3f 84 77 1e 3f 58 90 06 bf
       -0.38538304 1.7792883 0.61901116 -0.52564
000220 c2 d4 1d bf f9 d2 84 bd 35 62 c6 be 05 5c 17 bf
       -0.6165277 -0.06485552 -0.387468 -0.59124786
000230 d4 fd bc bc 2c 67 d2 be 01 30 33 bc 5f 78 2c bf
       -0.023070253 -0.4109434 -0.010936738 -0.6737117
000240 6c 95 39 bf 5c 95 0e bd c1 1b 38 bf a3 a7 f5 be
       -0.72493625 -0.03481041 -0.7191735 -0.4797946
000250 12 40 90 bd 3f 19 46 3d 8c c2 31 bf 69 a8 17 bf
       -0.070434704 0.04836392 -0.6943748 -0.5924135
000260 95 53 4e 3d 5e 85 58 bf 75 60 3c 3f c5 15 45 bd
       0.05037268 -0.845785 0.7358468 -0.048116464
000270 7f bf 38 3c 5b ed e8 be 82 25 a7 bc d1 7b 6f 3d
       0.011276125 -0.45493588 -0.020403627 0.05846769
000280 6b 56 f1 3f b4 b8 86 bc 23 df 62 3d 85 73 1c 3f
       1.8854498 -0.016445495 0.05538858 0.6111377
000290 d4 20 25 3b ac 76 18 3c 77 24 0c bd d6 2a 6f 3d
       0.002519657 0.009305637 -0.034214463 0.05839046
0002a0 c8 c6 1e bd 77 71 87 3d 3b 52 28 3d b2 71 09 bf
       -0.03876379 0.066134386 0.041094046 -0.5368911
0002b0 3c 37 1f bf c4 98 83 bd eb 8e 8e 3d 99 ea 11 bf
       -0.62193656 -0.06425622 0.06960853 -0.5699859
0002c0 d1 da 80 3d 23 4f 18 3d 4f 35 66 3d d4 eb 98 bd
       0.06291736 0.037184846 0.056203183 -0.07466856
0002d0 99 85 da be 29 99 25 bf 03 1a 16 3d e2 67 12 bf
       -0.42680052 -0.6468683 0.0366459 -0.5718976
0002e0 be 68 e6 bc 00 82 1b bf aa 46 53 bf 9c e0 ff be
       -0.028126117 -0.6074524 -0.825297 -0.4997605
0002f0 e4 8e ba bc 68 7d f6 be 2c 20 23 bf b9 98 56 3d
       -0.022773214 -0.48142552 -0.63720965 0.05239174
000300 5b b8 d4 bc 28 70 46 bd fb ea 1a bf 62 2c 80 3d
       -0.025966814 -0.048446804 -0.605148 0.06258465
000310 ae 34 fb bc 17 16 26 bf 63 cf f9 be a1 57 97 3a
       -0.030664768 -0.64877456 -0.48791036 0.0011546501
000320 ec 7e 52 bd 96 15 10 bd 55 83 ec bd 43 89 23 3d
       -0.051390573 -0.035176836 -0.11548487 0.039925825
000330 1f 6f 90 3d 95 b6 1a 3d ea 65 6c 3d 92 1b 50 3d
       0.07052445 0.03777178 0.05771438 0.050807543
000340 af ba 87 3d fb 7c e6 3f 4c e3 5d 3d 71 6b 38 3f
       0.06627404 1.8006891 0.054171845 0.7203894
000350 df a1 40 3f 6c 05 fb be eb 6c ac 3c 49 73 8f be
       0.75246996 -0.49027574 0.02104803 -0.28017643
000360 66 54 1e bf 4f 0d 20 3b f3 32 40 bf 24 a1 17 bf
       -0.6184753 0.0024421995 -0.7507774 -0.59230256
000370 3a 4a 1d 3c 25 5f b5 ba 55 08 8e bd 0a 95 1d be
       0.0096002165 -0.0013837559 -0.06935183 -0.15388885
000380 df a3 46 3f 11 d8 a7 3d a6 1e e3 be 28 54 68 bf
       0.775938 0.08195508 -0.4435932 -0.9075341
000390 09 37 49 3f a6 f3 05 bf ed bf 8e 3d 14 47 f8 be
       0.785996 -0.52324903 0.06970201 -0.48491728
0003a0 bb 5c 7c 3d f2 32 38 bf f7 a5 95 3d 8b 8a 24 bd
       0.061611872 -0.71952736 0.07307046 -0.040171187
0003b0 5a fb 34 bf 4b f1 a2 3c 08 3b e5 be 3c 9b 7c 3d
       -0.7069603 0.019890448 -0.447716 0.06167148
0003c0 a3 b9 3d 3d a8 83 82 bd ec 07 81 3c 26 2e 19 3d
       0.046319615 -0.06372768 0.015750848 0.037397526
0003d0 08 0f 48 3f e3 12 9b bb 85 4a 64 3d fc 25 1b bf
       0.78147936 -0.004732476 0.05573513 -0.60604835
0003e0 b8 79 09 bf fd 8d 48 bf db ad e0 be b4 e8 47 3d
       -0.53701353 -0.78341657 -0.4388264 0.048805907
0003f0 11 cf b7 3b c7 56 1c be cd ea 85 3d 8b 0a 17 bf
       0.005609401 -0.15267478 0.06538925 -0.5900046

fc4.bias f4 [7]
000000 fa 49 28 3e 08 44 89 be f1 3b 24 3e d9 46 1f 3e
       0.1643447 -0.26809716 0.16038491 0.1555437
000010 04 e0 bd 3e f2 bf 12 3f c1 eb 8b be
       0.37084973 0.57324135 -0.27328303
