models/lateral_stage1_seed42_final.pth (torch, 411429 bytes, 8 tensors)

fc1.weight f4 [256, 9]
000000 74 80 e2 3e 99 0c 06 3e 2c 03 4d be dd a5 be 3e
       0.44238627 0.13090743 -0.20020741 0.3723592
000010 8c bb 97 be 21 23 db be 0b 2e 26 be 8a 75 48 3e
       -0.29635274 -0.4280024 -0.16228501 0.19576088
000020 23 84 4d 3e 98 1d 86 be 21 dc 86 3e 64 94 86 3d
       0.20069937 -0.26194453 0.2633982 0.06571272
000030 7e a7 f9 3e 76 8b 1b 3e ee e1 ec 3d d8 c5 40 bd
       0.487606 0.15189919 0.1156653 -0.04706368
000040 85 90 83 3e d4 83 12 3e 92 7a 98 be 46 5b c7 3d
       0.25696197 0.14308101 -0.29781014 0.09734206
000050 97 69 3d be 52 fd 9e bc 19 da 2d be 0f 14 64 3f
       -0.1849731 -0.019407902 -0.16977729 0.89093107
000060 1c b8 86 be b3 5b 1d be 58 a5 02 be 04 12 8f be
       -0.2631234 -0.15367012 -0.12758386 -0.27943432
000070 cd 2c b0 3d 81 cd ac be 98 bd c2 3e 5c 8b 05 bf
       0.08602295 -0.33750537 0.38035274 -0.5216577
000080 da dc 7a 3d b8 37 63 3d 3c aa dd bd 6b e6 6c 3e
       0.061245777 0.05547306 -0.10823485 0.23134772
000090 ca 63 01 3d 59 cb 83 3e 38 c7 f3 ba 44 d1 50 be
       0.031589307 0.2574108 -0.00185988 -0.20392329
0000a0 ea 29 a0 3d 88 ac ff be 18 a7 0f 3e ff 5f 98 3e
       0.078204945 -0.49936318 0.14028585 0.2976074
0000b0 0b af 03 3e 02 e3 a9 bc 0c 58 b1 3d 20 43 2a bc
       0.12859742 -0.020738129 0.08659372 -0.01039198
0000c0 d5 0f 01 3d b6 93 9a be da 48 3b bf b3 e0 03 be
       0.03150924 -0.3019082 -0.7315804 -0.12878685
0000d0 be e7 82 be 19 e0 79 3e ee 4c d4 3d 5f 9a 21 3e
       -0.2556743 0.24401893 0.10366236 0.15781544
0000e0 49 a4 8c 3c 6e 79 c7 bc ae 42 92 3e 25 ad e5 be
       0.017168181 -0.024349894 0.28566498 -0.4485866
0000f0 d0 ee ab 3c 46 f9 68 be c1 e8 ee 3d fc ca 46 be
       0.020987898 -0.2275134 0.11665488 -0.1941337
000100 62 9e 25 3e e9 3f dd bd 87 a6 f3 3e 4e 3b a5 be
       0.161737 -0.108032055 0.47587988 -0.32271808
000110 a0 0f 0a bf 33 95 4b be 41 81 99 3e 64 ab db 3d
       -0.5393009 -0.19881134 0.29981425 0.107260495
000120 89 4f 66 3e db d0 83 be b2 5b ab be c9 17 9d be
       0.22491278 -0.25745282 -0.33468395 -0.3068221
000130 d8 db aa be 88 e2 27 3f 4c 72 f4 3d a5 cf 8d 3e
       -0.33370852 0.65580034 0.11935863 0.27697483
000140 e4 55 b9 bd 72 78 85 be 78 fa f9 3d cc 7f 08 be
       -0.090495855 -0.26068455 0.12205976 -0.1333
000150 5a 36 86 3e 4d 1c 4a be 17 a7 38 3f 40 9a 84 be
       0.26213342 -0.19737358 0.7212996 -0.25898933
000160 f8 40 2c be 6f 67 01 3d 6b cb 6b 3e 9a f3 81 bd
       -0.16821659 0.031592783 0.23026817 -0.063452914
000170 8f 24 91 3e 9e d6 88 3e 93 b8 01 bf 51 48 44 be
       0.28348204 0.2672624 -0.5067226 -0.19168212
000180 e1 45 9c 3e 9c 5a e6 bd ac dd 09 3c db 22 a5 be
       0.30522063 -0.11247751 0.008414667 -0.32253155
000190 b0 78 43 be 5c 88 aa 3d f8 36 34 bd e3 c4 77 be
       -0.19089007 0.0832679 -0.043997735 -0.241962
0001a0 e0 1a 00 3c 93 28 69 be 04 cb 90 be a3 f5 3b be
       0.0078189075 -0.22769384 -0.2827989 -0.18355422
0001b0 30 f3 5f be e3 28 79 be 94 a4 bb 3e 14 73 b6 3d
       -0.21870112 -0.24332003 0.36649 0.08908668
0001c0 1d 3a 3e 3e d6 a6 06 be c6 2d 60 be c6 3a e3 bd
       0.18576856 -0.1314958 -0.21892461 -0.110951945
0001d0 0d ff 02 3e 41 b3 90 be 67 f0 1a be 52 7a 44 be
       0.12792607 -0.2826176 -0.15130769 -0.19187286
0001e0 4c 7e d4 b9 d0 04 f1 bd f9 f8 b2 3c 30 4c 67 be
       -0.0004052989 -0.11768496 0.021847235 -0.22587657
0001f0 20 4a 6a be c9 fe 52 be 33 dd de bd 3e 58 60 be
       -0.22879839 -0.20605005 -0.10882034 -0.21908662
000200 26 ec a6 3e 73 92 1f bd fe 82 a3 3e 04 d1 f4 3e
       0.32602042 -0.038958024 0.31935877 0.47815716
000210 20 85 90 be f6 36 6c 3e af eb 29 be 4a 0c 47 be
       -0.28226566 0.23067841 -0.16593812 -0.19438282
000220 0b 85 1a bf 83 2c c1 be fa 93 bb 3b c3 16 f3 3d
       -0.6035926 -0.37729272 0.0057244273 0.11869576
000230 ee 8d 6a 3e 56 0f 8c be 72 6a 7d 3e 48 2a d2 be
       0.22905704 -0.2735545 0.24747637 -0.41047883
000240 00 86 35 3d 29 90 83 3b ce 9e 86 3e b4 67 0d 3f
       0.044317245 0.004014988 0.26293033 0.55236363
000250 d3 a6 5e 3e 09 0e 3a bf 0c ce ab 3d fb d0 12 be
       0.21743326 -0.72677666 0.0838891 -0.14337532
000260 a6 93 a2 bd 82 36 4c be fa 1c 84 3e f1 47 90 be
       -0.07938318 -0.19942668 0.25803357 -0.28179887
000270 bd fe 5b 3e 4e b2 81 3e 1b 15 87 3e 63 8a 38 be
       0.21483894 0.25331348 0.2638329 -0.1802154
000280 b3 20 9b 3e c3 70 01 3d b1 a9 0e 3f 9c 0f a8 be
       0.30298385 0.03160168 0.5572768 -0.3282441
000290 30 a4 5e 3e 88 0f 46 3e a9 34 2c be 00 61 80 3e
       0.2174232 0.19341862 -0.16816963 0.25074005
0002a0 20 33 98 3d 08 da 3c be 97 9c cf bd ce 11 dd 3d
       0.07431626 -0.18442547 -0.10137289 0.107944116
0002b0 a2 03 6c 3e 2a 9e f1 bd f9 f3 1d be 0d f5 37 be
       0.23048261 -0.117977455 -0.154251 -0.17964573
0002c0 f5 97 fb bd 0c 76 f3 3d 55 1a 84 3e 73 b1 aa be
       -0.12284843 0.1188775 0.2580134 -0.33338508
0002d0 b2 81 ea 3c 7d 6e 17 3e 7d aa 0b 3c ce af 44 be
       0.028626297 0.14788242 0.008524534 -0.19207689
0002e0 63 21 b1 3e be 75 53 3d 84 44 ff 3d 18 eb 6f bd
       0.34595785 0.05162596 0.1246424 -0.058573812
0002f0 a7 9a 1a be a5 cc 9b be c1 2f fe 3c 64 87 e3 bd
       -0.15098058 -0.3042957 0.03102863 -0.11109808
000300 3a 4c 61 3e 00 e5 08 3f e0 1e 47 be d0 d8 98 bd
       0.22001734 0.53474426 -0.19445372 -0.07463229
000310 00 63 9f 3b f4 6e b0 bd 85 3c fd bc f6 9a bb 3d
       0.0048640966 -0.08614913 -0.030912647 0.09160416
000320 28 be 37 be 53 e5 86 bd 32 4e 0d 3f b2 7f 96 be
       -0.17943633 -0.06586709 0.5519744 -0.293943
000330 10 d1 87 bc b6 ca 4d be df 6c d5 bd cb 0a 39 be
       -0.016579181 -0.2009686 -0.10421156 -0.18070523
000340 03 67 02 be b9 56 51 3d 43 f6 98 3e e2 f9 43 3e
       -0.12734608 0.051108096 0.29875383 0.19138291
000350 e1 b6 a2 be db 43 4d be e8 78 57 bd 61 37 c2 3e
       -0.3178015 -0.20045416 -0.05260554 0.37932876
000360 38 7b 0e 3d 97 53 cc bd ff b6 fe 3d cf 55 e8 bd
       0.03478548 -0.09976881 0.124372475 -0.11344492
000370 79 0f 4f be 9d 6a 83 3e 73 34 1b be 1c da 88 bd
       -0.20220746 0.25667277 -0.15156727 -0.06682226
000380 58 9c b0 be a6 68 c6 bd 61 45 84 3e 12 54 cc 3d
       -0.3449428 -0.09687929 0.25834182 0.09976973
000390 56 93 27 bf 35 7c 19 bf 6e ee 7a bd 4a 88 7e 3e
       -0.6545919 -0.5995515 -0.06126254 0.24856678
0003a0 48 e0 23 3e 43 a6 8e 3e b1 13 84 be 67 1c 45 3d
       0.16003525 0.27861223 -0.25796273 0.04812279
0003b0 53 54 06 bc ab d8 53 bf 83 92 02 bf 83 90 1f be
       -0.008198815 -0.82752484 -0.5100481 -0.1558247
0003c0 98 ba 0b 3e 70 95 27 be e4 8e 43 3c a7 21 91 be
       0.13645399 -0.163656 0.011935923 -0.28345987
0003d0 9a 11 2e bd 75 d4 7a be c9 0e 99 be 8c b3 bc 3d
       -0.042497255 -0.24495108 -0.29894093 0.09213933
0003e0 cf 90 10 bf 46 b8 52 3e 66 01 db bd f6 2d 8f be
       -0.5647096 0.20578107 -0.10693626 -0.27964753
0003f0 76 80 8d bd 23 c1 32 3c 74 70 d7 bd ba a6 14 bf
       -0.069092676 0.010910305 -0.105194956 -0.58066905

fc1.bias f4 [256]
000000 60 1d 0b bc 9c ea 94 be 2d a6 84 be 5f b3 73 be
       -0.00849089 -0.29085243 -0.25908032 -0.23798893
000010 4a 9a 0d be 39 a0 6c 3e 6f cf 10 3e ae e8 1f bc
       -0.13828388 0.23107995 0.1414163 -0.009760065
000020 d6 84 a8 3d d4 33 91 3d 81 af 72 3d c6 a7 89 be
       0.082284614 0.070899636 0.059249405 -0.26885813
000030 9c 5e 40 be 8e c2 6f be 77 c9 21 ba 0c 02 84 be
       -0.1878609 -0.2341406 -0.0006171683 -0.25782812
000040 0d c1 b3 bd 25 e4 46 be fe 36 9a 3e 1c a0 9a 3e
       -0.08777056 -0.19422968 0.3012008 0.3020028
000050 5c 0f 45 3e 58 53 b4 3d ad 2b 0d be 88 21 5f 3d
       0.1924414 0.08804959 -0.13786192 0.054475337
000060 06 af 79 be 26 1d 34 be 2c 4b 51 bd 84 b0 1e bd
       -0.24383172 -0.17589244 -0.05109708 -0.038742557
000070 24 f6 a9 be 6b ad 2b 3e 5d b5 c2 3e 3d a5 59 be
       -0.33195603 0.16765372 0.38028994 -0.2125444
000080 48 52 db 3d 92 15 23 bd 29 df 44 bd 56 e8 65 bd
       0.10709053 -0.039815493 -0.048064385 -0.056129776
000090 f9 09 d2 3e d2 80 76 3c 2c 66 f2 bd c6 4b 21 be
       0.41023234 0.015045362 -0.11835894 -0.15751562
0000a0 82 b1 82 3e 5f ff 6a bc b4 6a ee 3d 86 71 84 bb
       0.25526053 -0.014343112 0.11641446 -0.0040418534
0000b0 97 0f 1b be f9 c8 14 be 02 40 3d be e2 5c a1 3d
       -0.15142666 -0.1452979 -0.18481448 0.07879044
0000c0 71 13 80 3d b5 4c 5d 3e 9f 72 a7 3c 1e 8e 2b 3d
       0.06253708 0.21611293 0.020440398 0.04188358
0000d0 89 08 8f 3e 92 38 97 3d 6a aa 92 3d b3 0b 50 3d
       0.279362 0.07383837 0.0716141 0.050792407
0000e0 bd 3a 96 bd a7 12 8b be f7 5f d2 3c e2 be 9c bd
       -0.07335422 -0.27162668 0.025680525 -0.076535955
0000f0 8a 46 8b 3e 3a 08 b7 3e d5 d6 59 3d 14 f5 49 3e
       0.27202255 0.35748464 0.053183395 0.19722396
000100 da b4 27 be b3 e8 ab 3e 8b c8 c5 3e ce 52 29 bd
       -0.16377583 0.33575973 0.38629565 -0.041338734
000110 88 4c 83 be 07 37 af bd f9 ce 04 bd d2 88 b0 3c
       -0.25644326 -0.085554175 -0.032423947 0.021549616
000120 53 fe 92 be 80 74 87 3d 24 42 00 be 6f 7d 2a bd
       -0.2870966 0.066140175 -0.1252523 -0.04162353
000130 2f 11 2d be d6 a9 3c bd 55 87 9f be 9b 24 45 be
       -0.16901086 -0.046060406 -0.31157938 -0.19252245
000140 42 71 93 3c c2 74 40 3e 7d 40 62 3e 0c 1a 81 be
       0.017998341 0.1879454 0.22094913 -0.25215185
000150 e1 af ec 3d b2 10 24 be f6 08 7b be e9 8c 9c 3a
       0.11556984 -0.16021994 -0.24515137 0.001194385
000160 ff ba 55 bd 15 d1 8a be 6a 40 9f be 18 c2 50 be
       -0.052180286 -0.27112642 -0.31103832 -0.20386541
000170 7e f9 a7 3e ae ff 50 3e 9f bb b9 bd ad 90 dd bd
       0.32807535 0.20410034 -0.09068989 -0.1081861
000180 16 0b 16 be a9 3d 11 be a2 73 9b bd 96 88 7c 3e
       -0.14652666 -0.14183678 -0.075904146 0.24661478
000190 5e 9d 1e 3e 8b 54 db bd e2 e5 82 3e 02 fe 63 be
       0.15489718 -0.10709485 0.25566012 -0.22264865
0001a0 ab 42 7d be 19 64 75 3d 8e 2f 10 be 9e 0b fb 3d
       -0.24732463 0.059909914 -0.1408064 0.12258075
0001b0 ff ca 77 3e ca fc 01 be 4a 91 02 be 72 06 f5 3d
       0.2419853 -0.12694088 -0.12750736 0.1196412
0001c0 f6 3b a2 be 91 66 89 3e 9a 14 2f be c5 5a 06 3e
       -0.31686372 0.26836064 -0.17097703 0.13120563
0001d0 96 b5 87 be 6c 0b a6 be c9 6e 9b bd cc 07 51 3e
       -0.26505727 -0.3243059 -0.0758949 0.2041313
0001e0 6b d0 a5 3e 9d 2b 7c 3e 50 f1 52 be 0c 4b 86 3d
       0.32385573 0.24626012 -0.20599866 0.06557283
0001f0 15 e3 d3 bc 67 f3 79 bc 3c a2 18 3d 2e fa a1 be
       -0.025865117 -0.015255786 0.037264094 -0.31636184
000200 0a c3 60 be c1 37 8d 3e f2 26 89 be 60 0a 63 3e
       -0.21949401 0.275816 -0.26787525 0.22171926
000210 f4 15 55 3d 54 13 0c 3d 5c 22 bf 3e 0f ea 1c be
       0.05202289 0.03419812 0.37330902 -0.15323661
000220 4b 57 87 bd 9c 69 f4 3c 87 d5 4e 3e 8b 29 af be
       -0.06608447 0.029835515 0.20198642 -0.34211382
000230 d0 14 ba 3d ee 6b 22 be 88 1b 17 3c 65 a8 36 3e
       0.09086001 -0.15861484 0.009222873 0.17837675
000240 08 02 08 bd 30 92 b7 bc d5 38 b4 bc 29 0c 80 3e
       -0.033205062 -0.022408575 -0.021999756 0.25009277
000250 f8 2e 09 3e ec e7 ee 3d d2 bc 86 be ca bf 2b be
       0.13396823 0.11665329 -0.26315933 -0.1677238
000260 3a 6b 30 3e 6b 29 2e 3e a3 8b 08 3e 59 6c 8d be
       0.17228404 0.17007987 0.13334517 -0.27621725
000270 a3 aa 8e 3e ee bf 19 bd d5 25 84 3e 6b 3b 79 3e
       0.2786456 -0.037536554 0.25810114 0.24339072
000280 e1 b9 62 3c 3d e6 be bd b9 36 a0 3e 65 c1 35 be
       0.013838262 -0.09321258 0.3129175 -0.17749555
000290 ec 7a 41 3e a3 89 8d be bb 1b 11 bd 2d 30 9c be
       0.18894547 -0.2764407 -0.035426836 -0.30505505
0002a0 7b fd 35 be ce 1a bd 3d c0 cd 3d be 39 60 83 be
       -0.17772476 0.09233628 -0.18535519 -0.2565935
0002b0 43 29 46 3e b4 e2 63 3e e0 1d 09 3d a1 68 80 be
       0.19351678 0.22254449 0.033475757 -0.25079826
0002c0 33 56 47 be 91 3e 18 be a6 47 54 3e e4 9a 8d bd
       -0.19466476 -0.14867617 0.20730457 -0.06914309
0002d0 c0 38 bb bd de c6 5a be 7e a9 2e be 4c 98 52 3e
       -0.091416836 -0.21364924 -0.17056844 0.20565909
0002e0 3b d1 8e 3e 0e bd fa 3c b9 b6 da bd 41 a8 c7 3e
       0.27894005 0.030607726 -0.10679383 0.38995555
0002f0 61 b7 41 bb 1f e5 41 be 56 43 1b be 40 16 5f 3b
       -0.0029558765 -0.18935059 -0.15162405 0.0034040362
000300 67 43 20 3e ba 45 d7 3d bb 04 4a 3e 7b a9 fc bb
       0.15650712 0.10511346 0.19728367 -0.0077106333
000310 e4 05 b6 3e 76 77 17 be fa d9 40 be 52 d0 40 bd
       0.3555137 -0.14791664 -0.18833151 -0.04707367
000320 f9 88 7d be 54 c7 89 be f7 82 c3 be ca 2f f4 3b
       -0.24759282 -0.26909888 -0.38185856 0.007451986
000330 bc f1 93 3d f1 0a b3 bd 00 24 ad be 64 d7 9c 3e
       0.072238415 -0.08742321 -0.33816528 0.3063308
000340 97 4e 01 be 3a cd b9 3d 45 ea 2d 3e d9 5a 84 be
       -0.12627636 0.09072347 0.16983898 -0.2585056
000350 e0 28 e2 bc 88 ea 3c 3e 48 9e b6 3e 4d 33 1c be
       -0.027607381 0.18448842 0.35667634 -0.15253945
000360 fe aa 79 3e 4f 1d 93 be 14 d3 81 be 7d 63 8a 3e
       0.24381635 -0.28733298 -0.25356352 0.2702903
000370 9d f4 8b 3d 75 a4 9e 3e e8 fe e6 3d d5 43 e0 bd
       0.06833766 0.30984846 0.11279088 -0.10950438
000380 d3 72 99 3e 9c 10 b2 3e 0d 69 ee 3d 8f 11 55 be
       0.29970416 0.34778297 0.116411306 -0.2080748
000390 ce 28 8e bb cd 6b 34 be 71 75 26 3e d0 88 6f 3d
       -0.0043383604 -0.17619248 0.16255738 0.058480084
0003a0 2b 46 01 3d 59 11 4d 3e c0 6a c3 bc 21 04 58 be
       0.031561058 0.20026149 -0.023854613 -0.21095325
0003b0 b7 7b c5 3e 4c 71 31 3e 51 8d 15 be 32 c7 8c 3e
       0.3857095 0.17328376 -0.14604689 0.27495724
0003c0 c5 1a bb 3d d1 74 6a 3c fc 82 48 be 7c 31 15 bd
       0.09135965 0.014310078 -0.19581217 -0.036424145
0003d0 20 ee 96 be 09 7e f6 3d af 36 26 3e 70 ce c4 bd
       -0.2947855 0.12035758 0.16231798 -0.09609687
0003e0 d5 17 d0 3e cf 4d 1c be 20 ab fc 3d 88 df 6d be
       0.40643182 -0.15264057 0.12337327 -0.23229802
0003f0 18 81 54 3c 18 66 3f 3e f2 64 1e 3e 6e d9 6c bd
       0.0129702315 0.1869129 0.15468195 -0.057824545

fc2.weight f4 [256, 256]
000000 49 29 1a be 12 74 ad 3d aa 23 f6 be b3 26 a4 be
       -0.15054812 0.08469404 -0.48074085 -0.32060775
000010 0e ef bf bb fe b2 27 bd c7 06 08 3d 33 18 8d be
       -0.005857355 -0.040942185 0.03320959 -0.27557525
000020 55 a0 b3 be 72 3a 77 bd 81 5b 0b 3e c0 31 08 3d
       -0.3508326 -0.060358472 0.13609125 0.03325057
000030 e0 af a2 bd d0 6d 5b 3d 9b ae 03 3e c6 70 41 bd
       -0.07943702 0.053571522 0.12859575 -0.04722669
000040 f8 ac 5b 3c b4 23 a8 bc ba 8d a5 3c e2 4b 79 bc
       0.013407938 -0.020524837 0.020209182 -0.015215846
000050 b6 88 cd 3d ef 6e 9c 3d a9 ba 29 3e 20 1c 4a bd
       0.10035841 0.076383464 0.16575111 -0.04934323
000060 ae 5b 17 bd 2e 40 7b be 8a ab e2 be a7 41 9b be
       -0.036952667 -0.24536201 -0.442715 -0.30323526
000070 32 35 f6 be 9e dc 8e 3d 5b 46 0b 3d 4d 08 01 bf
       -0.4808746 0.06975673 0.034002643 -0.5040329
000080 e6 2c 17 3d 32 a0 a0 bd ad ca ce 3d 04 67 13 3d
       0.036908053 -0.07843055 0.10097251 0.035986915
000090 8d 06 a8 be b4 13 27 3e 32 62 3e be 05 95 ac 3c
       -0.32817498 0.1631611 -0.18592146 0.021067152
0000a0 38 00 c9 3d 0e 59 9a bc 22 94 22 3e 08 34 be be
       0.09814495 -0.018841293 0.1587682 -0.37149072
0000b0 80 94 6a bc be 79 4f 3d f8 2c 13 3c 7f b7 03 bf
       -0.014317632 0.05065321 0.008982889 -0.5145187
0000c0 81 ca ba be d1 59 cb 3b 7d 1a 8e 3f 00 1f 56 3d
       -0.36482623 0.0062057753 1.1101834 0.052275658
0000d0 67 55 db 3d d1 03 5f 3e 4a 9b 37 3d 02 ea bd 3a
       0.107096486 0.217788 0.04482583 0.0014489295
0000e0 77 17 73 bd b8 c1 f3 3c 2f 46 84 3d 2f a2 a5 bd
       -0.05934855 0.029755458 0.06458699 -0.08087575
0000f0 88 76 2d 3d cc a1 0d bc 21 3f 09 3c ab 4c 25 be
       0.04234937 -0.008644532 0.0083768675 -0.16142528
000100 57 f9 aa 3d be 65 bf 3d 26 02 8e 3d 7d 8d 9f bc
       0.08348339 0.09345578 0.069340035 -0.019476647
000110 3a d6 9b 3d 04 f9 46 bd c3 cf b3 3e ce 06 d3 bd
       0.0760922 -0.048577324 0.35119447 -0.10304032
000120 11 cf 01 3d 96 63 d5 3d 75 37 83 3e 38 76 12 be
       0.031691615 0.10419385 0.25628248 -0.1430291
000130 00 de 11 bf bd 3a 39 3d 7b fe 76 bd f9 16 a8 3c
       -0.5697937 0.045222033 -0.060301285 0.020518767
000140 b8 9d 92 bb 09 02 ef 3d f5 d3 aa 3d 60 18 c8 3c
       -0.004474368 0.1167031 0.08341209 0.024425685
000150 81 7b 38 bf ff f3 39 bd 0e 2f 43 bd d9 7f f8 bd
       -0.7206345 -0.04539871 -0.047652297 -0.1213376
000160 7b 0c 03 3e 22 36 4d bd 6a f9 88 bd 22 a2 a9 3d
       0.1279773 -0.050100453 -0.06688197 0.082828775
000170 c7 59 c8 be 1e 68 6f bf 11 15 00 bd 50 0f df 3c
       -0.39130995 -0.93518245 -0.03127009 0.027228981
000180 16 a5 31 3d 17 31 84 bd 6b 2b aa 3d ac 1b 3d 3c
       0.04337033 -0.06454676 0.083090626 0.011542242
000190 00 f1 38 3c b7 de 87 3d ea c3 62 bf 5c 82 07 bd
       0.011287928 0.06634276 -0.8858019 -0.033083305
0001a0 80 81 aa 3d 4d 7b c3 bd 79 3a 36 bd 89 73 0c 3d
       0.083254814 -0.09545002 -0.044489358 0.03428987
0001b0 26 46 00 bc 91 ec 6c 3d ff 71 6c 3d f1 b2 00 3e
       -0.007829225 0.057842795 0.057725903 0.1256826
0001c0 93 7c 8a bd 04 bf 9a bc 31 0e c5 bd 3a b1 87 bd
       -0.06762042 -0.018889911 -0.096218474 -0.066256
0001d0 80 f4 0c bb ea 2d 11 3e 37 48 e0 bd 62 5f be 39
       -0.0021508038 0.14177671 -0.10951274 0.0003631069
0001e0 46 0f ac 3c 4d 69 b0 3a 85 cb 29 bf 93 5c 9b be
       0.021003377 0.0013459116 -0.6632617 -0.30344066
0001f0 dd 7a 83 bd a5 69 f7 3d 4a 0b d6 3d e0 08 63 bb
       -0.06419919 0.12080697 0.10451372 -0.003464274
000200 a1 73 e7 be 84 f8 80 3d 92 5d 8d 3e c6 c7 02 be
       -0.45205405 0.062974006 0.2761045 -0.1277152
000210 3b ad 39 3d 8c b2 cc bc 59 e9 07 3e 1c 9f b7 be
       0.04533122 -0.024987482 0.13272609 -0.35863578
000220 e8 66 93 3c 14 2f d5 3c 97 54 ba be ce 3e 36 bd
       0.017993405 0.026023425 -0.36392662 -0.04449349
000230 f2 db 28 3e ba 13 71 3b 8e b1 29 be 27 72 46 3d
       0.16490152 0.003678544 -0.16571638 0.048448708
000240 74 99 db bc 9a 0a dc 3c a5 0a 1a bc 66 ae 9e 3b
       -0.02680657 0.026860524 -0.009401952 0.0048425673
000250 c3 f0 36 3d 70 59 33 bf 5c b4 83 be 8b 69 41 3d
       0.044663202 -0.70058346 -0.2572354 0.047219794
000260 2b f0 a9 bc 2f cc 9f 3c 35 62 26 bc b3 1e 5a be
       -0.020744404 0.019506542 -0.01015525 -0.21300773
000270 0e ef 04 bf f6 5e 23 bd 31 d7 9a 3c dd 6d 85 3d
       -0.5192727 -0.039885484 0.01890144 0.065150954
000280 a7 0b a1 bd da 48 d4 3d 48 52 81 bd fe 07 ac 3c
       -0.07863551 0.10365458 -0.06314522 0.020999905
000290 dd 44 08 3d 10 62 43 be 1c 31 10 3d 3b 2b 9d bd
       0.0332688 -0.19080377 0.035203084 -0.07674261
0002a0 4b 1e be 3d 8d f7 20 3c 35 40 b0 bd 3c dd d4 3d
       0.09283122 0.009824646 -0.086059965 0.103937596
0002b0 53 a2 11 3e e3 12 9c 3e 69 2a 03 3e 44 ea 30 bd
       0.14222078 0.3048316 0.12809147 -0.043192163
0002c0 0c 8f 2b 3e ce e2 aa bc c4 6b 3b be 30 df cf bb
       0.16753787 -0.020860102 -0.18302828 -0.0063437447
0002d0 55 4c c0 3d 24 90 ed be 9b 5a 07 be db d3 c0 be
       0.09389559 -0.46399033 -0.13218157 -0.37661633
0002e0 32 eb 5a 3e ae 06 91 3c 03 a7 b5 bc 12 a0 86 3d
       0.21378782 0.01770338 -0.022174364 0.065735
0002f0 83 25 9e 3d 53 85 c8 3d 86 a2 a7 3d 13 bd dd bc
       0.077219985 0.097910546 0.08185296 -0.027067697
000300 cb 8a bd 3c 3f 32 9b 3d fe a2 cb 3d 08 7a bf 3c
       0.02313747 0.07577943 0.09943198 0.023373619
000310 ac c4 24 3e 75 58 b7 be 8c 40 bd 3c 43 94 05 3e
       0.1609065 -0.35809675 0.023102067 0.13044839
000320 0f ad 00 3d 55 e7 97 3e e9 40 58 bd 0e 6b 83 3d
       0.03141504 0.2966868 -0.05279628 0.064169034
000330 5f 91 54 bc 7d c5 7e be ac 53 6a be 0f 41 3a 3d
       -0.012974112 -0.24880023 -0.22883481 0.0454722
000340 e2 d0 52 bf 1a a8 07 bc 0b 2d b6 bd 9c d8 57 3d
       -0.8234998 -0.008279825 -0.0889531 0.05269681
000350 53 06 a8 3c 6b f2 57 be b7 a0 6c be 3e 20 98 3d
       0.020510828 -0.21088569 -0.23108183 0.07428025
000360 a8 64 13 3d e4 50 2a be 62 e6 81 bd e5 eb d8 bd
       0.035984665 -0.1663242 -0.0634277 -0.10591868
000370 79 9f 77 3d 7d f7 ad bd 36 ff b2 3d 3a 2d 7f 3d
       0.06045482 -0.0849447 0.08740084 0.06229899
000380 ef 66 ee bc ff ad 24 3d 59 ee 81 3e cf f3 1f 3e
       -0.029101817 0.040204998 0.25377157 0.1562035
000390 15 00 b6 3e 58 fb b3 bb 1f 53 f8 bd 11 b1 82 3e
       0.35546938 -0.005492609 -0.12125229 0.25525716
0003a0 9b 04 2e 3d 48 20 7b be 29 b9 98 3d e7 32 33 3d
       0.04248486 -0.24524033 0.074571915 0.043749716
0003b0 09 a8 0e 3e 2c 6a 07 3e e7 f4 3a 3d 90 76 ac 3d
       0.13931288 0.13224095 0.045643713 0.084210515
0003c0 cd be b3 3d 0c ab 09 bf 62 db 86 bd ca b5 44 bd
       0.08776627 -0.5377662 -0.06584813 -0.04802493
0003d0 2e a4 35 be 35 74 99 bd ff 42 ac bc 62 59 a2 be
       -0.17738411 -0.07492868 -0.02102804 -0.3170882
0003e0 0f be 2a 3e 90 63 7f bd 48 93 0d bd a0 2d 39 bd
       0.16674064 -0.06235081 -0.034564286 -0.045209527
0003f0 ef 74 95 3d 22 46 3a be 49 e0 46 bc a8 ee 49 3e
       0.07297694 -0.18190816 -0.012138435 0.19719946

fc2.bias f4 [256]
000000 28 5a 24 3d ee 62 0b 3e 2f d4 82 bd 59 e0 c5 b9
       0.040125042 0.13611957 -0.06388127 -0.0003774192
000010 2c d7 cc 3b 13 e0 bd 3c a1 6a a8 bd b8 b1 97 bc
       0.0062512364 0.023178136 -0.08223463 -0.01851736
000020 34 c7 6c bd 72 af 9c bd 8e c0 65 bd 0b 07 38 bd
       -0.057807162 -0.07650651 -0.056091838 -0.04492859
000030 5d 8b 13 bd b1 28 f5 3c 07 67 67 bd c3 aa da 3c
       -0.03602158 0.02992663 -0.05649474 0.026692754
000040 f9 80 13 3d e0 d6 4d bd a8 3b 0a bd 62 9d 95 bd
       0.03601167 -0.05025375 -0.0337483 -0.07305409
000050 b7 fa ba 3d df 50 bb 3c 5b c7 82 bd 1d 03 31 bc
       0.09129851 0.02286571 -0.0638568 -0.010803965
000060 ae 38 8d bd 4e 43 1e 3d 9a 01 06 3d 5b 8f 79 3d
       -0.068955764 0.038638406 0.03271637 0.06092773
000070 88 33 10 3e ef 53 59 3d eb 95 7f bd 67 4b 19 bd
       0.14082158 0.05305856 -0.062398832 -0.037425425
000080 bd bb f1 bc 83 49 36 3e 75 da e9 bc b8 6e 2c bd
       -0.029508466 0.1780148 -0.028546551 -0.042097777
000090 68 61 bb 3c e5 82 6e 3d 2c b6 2a 3d ad 9e 63 bd
       0.022873595 0.0582303 0.04167764 -0.055571247
0000a0 b9 88 9e bc 65 ec 50 bd fd b9 b2 bc 4a 24 4f 3c
       -0.019352304 -0.051006693 -0.021817202 0.012642929
0000b0 ad 3e 1e bd 86 e1 05 bb c3 99 07 3d a7 36 9e bc
       -0.03863399 -0.0020428612 0.033105623 -0.01931317
0000c0 01 b1 25 bc f5 33 18 3d 8e 5c f4 bb e6 5d 6e bc
       -0.010113002 0.037158925 -0.0074573224 -0.014548754
0000d0 ce 82 f7 ba 7e 01 80 3d d2 ab 37 bd 09 51 55 3c
       -0.0018883587 0.062502846 -0.044841595 0.013019809
0000e0 0d ef 9d 3d 23 a6 82 bd aa d6 8f bd 98 ec 1a 3d
       0.07711611 -0.06379344 -0.07023366 0.03782329
0000f0 b1 bd a7 bd c8 7d c3 bc 86 95 01 bd f1 34 9f bd
       -0.08190478 -0.023863688 -0.031636737 -0.0777377
000100 34 eb 87 3c 1b 04 35 3d 4f 8a aa 3d aa c0 1e bd
       0.016591646 0.04419337 0.083271615 -0.038757958
000110 b9 c6 5b bc 30 90 09 bd 0a d3 98 3d e2 4f 20 bd
       -0.013414078 -0.033584774 0.074621275 -0.039138682
000120 81 20 69 bd 4a 94 40 bd 05 3e a6 bc f0 9c 23 3d
       -0.056915764 -0.04701642 -0.020293245 0.03994459
000130 6e 2d 84 3c c6 c0 cc 3c f0 a7 e7 3d 3b 16 86 bd
       0.016134944 0.024994265 0.113113284 -0.06547209
000140 39 fa 84 bd ac 9f 7f 3d 6a 58 54 3c eb db 94 ba
       -0.06493039 0.062408134 0.012960533 -0.0011357045
000150 5f b2 0e bd e8 b6 c1 3d da 77 32 bd 3f a6 4f bd
       -0.034838077 0.09458715 -0.04357133 -0.050695654
000160 a5 38 b3 3d a4 72 52 bd a3 21 5c bc cb 8f f2 bc
       0.087510385 -0.05137886 -0.013435754 -0.029609581
000170 58 9c df bc ed d1 a8 bc 3a 92 94 bd 29 47 3c 3d
       -0.02729623 -0.020607913 -0.07254453 0.0459663
000180 b4 50 9b ba 21 2f 6d 3c 60 db a5 bc 21 27 72 bd
       -0.0011849613 0.014476568 -0.020246208 -0.059119347
000190 02 1a 73 bd d9 11 2c 3d 9f 4b 8e 3c 11 7d cf 3c
       -0.059350975 0.04200921 0.017370043 0.025328191
0001a0 d3 2e 08 bd a2 95 16 3d 90 12 20 3d fa 69 d5 bc
       -0.03324778 0.036763795 0.039080203 -0.02605151
0001b0 5f e2 3d bd 13 c7 82 bd 56 cd 15 bd 9a 6b d0 bc
       -0.046358462 -0.06385627 -0.036572777 -0.025441933
0001c0 d4 fc 36 3d 0d ee 9f bd de 0d 9a 3c a0 ad 36 3d
       0.04467471 -0.078090765 0.01880544 0.044599175
0001d0 ba b7 3d 3d ef e2 17 3d ed 74 c5 3d db 63 34 bd
       0.046317793 0.037081655 0.096414424 -0.044040542
0001e0 dd e7 1a 3e 17 cc 1b bc 1a f6 b2 bc 19 67 40 bd
       0.15127511 -0.009509108 -0.021845866 -0.04697332
0001f0 df 2d 4e bc b0 da 12 3d 4a c9 4f bd 99 38 30 3d
       -0.012584179 0.035853088 -0.050729074 0.043022726
000200 7b 84 9e bc 7b 2d 73 3d 85 03 57 bd ba a5 ae 3c
       -0.019350281 0.059369545 -0.05249359 0.021319259
000210 76 79 cf bc f0 42 58 3b 8a 1d de 3d 1c ca 1d 3d
       -0.025326472 0.0032998882 0.10845478 0.038522825
000220 b2 5b 2a bd 92 84 9e bd 08 32 bb 3d b4 f3 6f 3b
       -0.041591354 -0.077401295 0.09140402 0.0036613764
000230 ee 03 74 3c 62 18 8a bc 62 eb 05 3c f9 ac 70 bd
       0.014893515 -0.01685733 0.008173795 -0.05875871
000240 07 74 86 bd 93 3d c4 3d c0 51 c1 3c bd 10 0b bd
       -0.06565099 0.09582057 0.023598552 -0.03395151
000250 2b bf c7 3d 6d d5 d4 3c 00 30 c9 bc 25 10 00 bd
       0.09753259 0.025980676 -0.024559021 -0.031265397
000260 e9 49 51 3d 70 c8 46 3c 35 84 30 3d 0d 5e 04 3e
       0.051095877 0.012132749 0.043094832 0.12926503
000270 c8 5b e7 bb 45 fc 1e 3e f9 c6 df 3d 4a 0c 01 3c
       -0.0070605017 0.1552592 0.10926623 0.007876465
000280 00 8a 1a bd f2 c5 91 3d 3f be 4f bd 07 e2 26 bd
       -0.037729263 0.07117833 -0.050718542 -0.0407429
000290 2e 02 52 bc 81 f2 73 3d 48 b7 1d bd 0b f7 9a bc
       -0.0128179025 0.05955744 -0.03850487 -0.018916627
0002a0 62 7c 00 3d 1e d6 74 bd 0d a5 91 3b 2a 92 a7 bb
       0.03136862 -0.05977451 0.0044447244 -0.0051138597
0002b0 f6 17 05 3d f5 84 fc bb f7 95 fa 3c 7e 7b 85 3c
       0.032493554 -0.0077062794 0.030589087 0.016294237
0002c0 96 43 c9 bc 2e fa 02 3d c6 fd e2 bc f9 2e 01 bb
       -0.02456836 0.03197687 -0.0277089 -0.0019711836
0002d0 ec 07 f8 3c 1d 52 95 bd a8 de 86 bd 76 6f 43 bd
       0.030277215 -0.072910525 -0.06585437 -0.04771372
0002e0 fc ee ac 3b 0b 0a 74 bc 5a ee 08 3c 74 08 11 bd
       0.0052775126 -0.014894973 0.008357609 -0.035408452
0002f0 a6 e9 51 bb cb 31 82 bd 04 c6 29 bc 57 7f db bc
       -0.0032030134 -0.063571535 -0.010362152 -0.026794119
000300 3b 4d 0c 3d fa af 14 bd 12 36 73 bd 25 55 c5 3c
       0.03425334 -0.036300637 -0.059377737 0.024088452
000310 56 66 1b 3d eb 58 25 3c 9c 33 d5 3b ad 8e 42 3d
       0.037939392 0.0100920005 0.0065063965 0.047499347
000320 06 09 26 3c e8 c8 8f 3d 83 af 54 bd f2 d5 2e 3d
       0.010133987 0.07020742 -0.051925194 0.042684503
000330 0b 56 3f bd e9 18 96 bd ab 6e 9f bd b0 fd 37 3d
       -0.046712916 -0.0732897 -0.0778478 0.04491967
000340 9d 80 4f bd 23 cc f7 bc c7 06 52 3d 82 56 45 3c
       -0.050659765 -0.030248707 0.051275995 0.012044551
000350 59 4a c3 bc 24 7b 37 bc a2 7d 30 3c 34 ad 51 bd
       -0.023839163 -0.011198793 0.010772141 -0.05119057
000360 05 1e 3d bd 47 bc ab bc 93 d3 d5 bc f3 9d 8d bd
       -0.046171207 -0.020963801 -0.026101863 -0.06914892
000370 02 7f 69 bd 14 e5 97 3c 5c 5f 39 3d b4 f1 34 bc
       -0.05700589 0.01854185 0.045256957 -0.011043955
000380 bb 0d 15 bd 5f f6 19 bc 00 a6 2b bd 15 00 8f bd
       -0.036390048 -0.009397118 -0.041906357 -0.069824375
000390 e7 6b 26 bd a7 36 8d bd e1 69 3f bb d0 b3 75 bd
       -0.040630247 -0.0689519 -0.0029207396 -0.059985936
0003a0 6d 44 0b bb d7 be 8c bd f6 dd 1c bd 49 2f b9 bd
       -0.0021250502 -0.06872337 -0.038297616 -0.09042222
0003b0 89 17 8c 3c 18 98 36 bd 3e 9c 60 3d db 5b 96 bc
       0.017101066 -0.04457864 0.054836504 -0.018354347
0003c0 dd 50 aa bd 2e 93 cf bc 30 7d a8 3d f0 de 44 bd
       -0.08316205 -0.025338735 0.082270026 -0.048064172
0003d0 9b 9b 0d bd 89 a0 0e 3d 7e 8e 85 3c 75 c3 9e bc
       -0.034572225 0.034821067 0.016303297 -0.01938031
0003e0 42 11 d9 3d ea da ed 3c c0 3a d3 bc 01 ba 53 3d
       0.10598995 0.02903505 -0.02578485 0.05169106
0003f0 d9 ea 64 3c 58 b6 00 3c 5d 1f d7 3c c1 ff f4 bc
       0.013972008 0.007855974 0.026260072 -0.02990711

fc3.weight f4 [128, 256]
000000 81 c8 40 3d 1a 72 ad bb 54 b7 2f bc e7 6b e0 bc
       0.047066215 -0.005293143 -0.010724861 -0.027395202
000010 41 d6 9c 3b 1c c6 9c bc f8 e7 ac 3c 0e 0a 05 3d
       0.0047862832 -0.019137435 0.021106705 0.032480292
000020 a4 73 40 3d 40 eb 0d 3d 35 40 d3 bb 30 4b 6c bc
       0.046985283 0.03464818 -0.006446863 -0.014422223
000030 8f d9 93 3d ef f8 49 bd e0 c9 c7 bc 60 06 08 bd
       0.072192304 -0.049309667 -0.024388254 -0.033209205
000040 bd 26 bd bc e7 24 c2 3d f2 ab 06 3d 55 8e 46 3d
       -0.02308976 0.09479695 0.032878824 0.048475582
000050 a1 48 70 3b dd e1 36 3d 91 0a 38 3d b4 a0 df bc
       0.0036664384 0.044648994 0.044931952 -0.027298309
000060 0c 1a 80 bd 19 c2 05 bc 49 2b 72 3c db 76 0a 3d
       -0.06254968 -0.008163952 0.014780828 0.033804756
000070 ec f3 81 bd b7 b5 da bd f8 d5 0c bd d1 d9 77 3d
       -0.063453525 -0.106791906 -0.034383744 0.06051046
000080 d5 ba 8d 3d 7c 31 0b 3e 64 7a ee 3c 8d b6 a2 3d
       0.06920401 0.13593096 0.029111095 0.07944975
000090 5b 93 8a 3d 95 51 1f 3d de a4 3e 3d a8 7a e1 3c
       0.06766387 0.038896162 0.04654395 0.027524307
0000a0 78 0a 0e bd 2b 93 3c bc 32 55 87 3d 9f f1 3f bd
       -0.034677953 -0.011509697 0.066080466 -0.046861287
0000b0 67 32 5c 3c 0b c5 49 3e bc bf 18 3c fc cc 31 3d
       0.013439751 0.19704072 0.009323057 0.04340838
0000c0 cd 7e 4b 3d 50 cc 3a bd b0 40 be 3d 90 f9 c6 bb
       0.049681474 -0.045605004 0.09289682 -0.0060722306
0000d0 64 68 8c bc b7 5e 66 3d d5 82 b5 3d ab 6e 6b 3c
       -0.017139621 0.05624267 0.08862845 0.014369647
0000e0 4a 0b e5 bc a0 1d ec 3c e5 69 0b 3b 1e b0 00 be
       -0.027959485 0.02882272 0.0021272835 -0.12567183
0000f0 3d 17 86 3c c4 d0 ac bc d4 28 a1 bc 11 fc 1d bd
       0.016368503 -0.021095641 -0.019672789 -0.038570467
000100 2a 7c 49 bd e8 0f ef 3c 72 9e 6c bd e6 dc 0d bd
       -0.049190678 0.02918239 -0.057768293 -0.034634493
000110 be 54 1f 3c 30 1b 53 bd a9 25 0e bd c0 5e 31 bc
       0.009724794 -0.0515396 -0.034703884 -0.010825813
000120 ad 98 be 3d 58 37 1d 3d 24 16 24 bc 6c f9 b1 3c
       0.09306464 0.038382858 -0.010015044 0.021725379
000130 b6 21 44 bb 3c 4e 55 3d 45 1e c8 bd 39 29 4d bb
       -0.002992732 0.052076563 -0.097713985 -0.0031305088
000140 3b ac 92 3c 5c 33 96 3d d5 be 0e 3d 9c ea d1 bc
       0.017904392 0.07334015 0.03484996 -0.025624566
000150 0a b8 19 bd ca 15 c9 3c c6 be 29 bd da 6d 55 bc
       -0.03752903 0.024546523 -0.0414417 -0.013026679
000160 2f 17 f0 3b ce 3c 77 bd 8f d0 ae 3a 95 e1 5b bd
       0.0073269824 -0.060360722 0.0013337302 -0.05368193
000170 eb 34 0f be b7 e3 21 bd 22 67 a1 bd b7 39 ec 3c
       -0.1398503 -0.039523806 -0.07880999 0.028836114
000180 62 5a 40 3d 73 db 68 bd 72 41 22 bd 1f 60 8c bc
       0.046961196 -0.056849908 -0.039613195 -0.017135678
000190 d0 39 c5 3c f0 45 3b bc 1e 60 4d bd 25 b5 46 3e
       0.024075419 -0.011430249 -0.050140493 0.19405039
0001a0 bb 44 85 3d 8c 75 3c bd e8 e0 0c 3d ee 56 87 bc
       0.0650725 -0.04601054 0.034394175 -0.016520943
0001b0 3f ba da 3b ab 06 68 3c 20 22 28 bd 11 4d 1d 3d
       0.0066750343 0.014161746 -0.04104817 0.038403574
0001c0 ea 92 29 3d d8 ec 8b 3d b1 87 94 3d 09 60 0c 3e
       0.041399874 0.06832284 0.072524436 0.1370851
0001d0 ce 5c 9c 3c c0 5a ed 3b be cb bd bc 17 8f 1b bd
       0.019087221 0.0072434843 -0.02316844 -0.037978258
0001e0 f8 9c 91 3d f5 5a 2c 3e 0f 8e d8 3d ae 23 1d 3d
       0.071100175 0.16831572 0.105739705 0.038364105
0001f0 ef 8f dd bb 39 b8 64 bd 14 4f 36 bd 3b e9 c4 bc
       -0.006761543 -0.05583975 -0.04450901 -0.024036994
000200 03 37 aa 3d 58 a1 ec bc 89 8a 35 3d fd 66 f5 bc
       0.08311274 -0.028885528 0.04432157 -0.029956335
000210 40 0e bf 3c 3e da b9 bc 6e 30 4a 3c bb 01 5e 3d
       0.023322225 -0.022687074 0.012340648 0.05420087
000220 13 38 9b 3c c9 dd fd 3d 4f cd 25 3e 98 29 69 3c
       0.018947637 0.12395818 0.161916 0.014231108
000230 03 14 40 3e 0f aa f6 bc 6c 18 7f 3d 42 71 fb 3c
       0.18757634 -0.030110387 0.06227915 0.030693654
000240 a8 16 56 3d 20 f3 93 bb a5 48 5b bd 22 99 e8 bc
       0.0522677 -0.0045150667 -0.053536076 -0.028393332
000250 26 64 e6 3d 0e b9 55 3d c7 03 1c 3d 16 4f 16 3e
       0.112495705 0.052178435 0.03808954 0.14678606
000260 e9 64 98 3d 50 ff 07 bd 49 e8 32 3e cf 1e 41 be
       0.07441122 -0.03320247 0.17471422 -0.18859409
000270 0a ab 76 3e 53 6a 20 3e 01 98 0e bd 05 83 25 bc
       0.24088684 0.1566556 -0.03481293 -0.010102038
000280 0c e5 e4 3c cd 8b e3 bd 44 42 a4 3b e0 ca db 3c
       0.02794125 -0.11110649 0.0050127823 0.026830137
000290 8f 81 de bc 26 d9 62 3d f0 b6 08 3d 72 4d 45 3c
       -0.027161388 0.05538287 0.033377588 0.01204239
0002a0 a1 2e 4c 3d 28 d4 94 3c 29 e1 c1 3c b7 19 85 3d
       0.049849156 0.01816757 0.023666935 0.06499045
0002b0 21 8a c5 bb e8 61 71 bc 14 48 89 39 56 9b 0d 3d
       -0.006028429 -0.014732815 0.0002618438 0.034571968
0002c0 3b da 3b 3d 30 f8 73 bd cf 92 94 3c 3a e0 53 3d
       0.045862418 -0.059562862 0.01813641 0.05172751
0002d0 12 33 48 3d 34 6c ff 3c 89 20 4d bd 8d 47 8d 3d
       0.04887683 0.031179525 -0.050079856 0.06898413
0002e0 8e f4 a5 3c 24 75 da 3d ec 8e 5e bc 71 89 6f 3c
       0.020258214 0.10666874 -0.01358388 0.014620171
0002f0 f4 7b 32 bd 08 8e 39 3c 15 79 ee bd ae e5 83 bc
       -0.043575242 0.011325367 -0.11644188 -0.01610073
000300 0f 2d 45 3e ff 0e 12 bc ac 1e ea bc 29 df 95 3a
       0.1925547 -0.008914708 -0.028579079 0.0011434305
000310 21 7c 3b bd 48 d4 6b bd 1c 85 d7 bc cd 93 bc 3d
       -0.045772675 -0.057575494 -0.026308589 0.09207878
000320 4d 2c 99 bd a8 c9 dd bd 4a e9 35 3d 1a 24 e8 bd
       -0.07479153 -0.108294785 0.044411935 -0.11335011
000330 c9 29 0d be dc a2 bb 3d c6 74 09 bd 6a 71 7d 3d
       -0.13785471 0.09161922 -0.03355863 0.06187574
000340 ec 89 46 3d f8 fe 40 3d 2e a8 c5 3b e6 49 44 3d
       0.048471376 0.047118157 0.0060320115 0.047922038
000350 99 c4 1a bd e7 fc 96 bb df c0 cf 3d 5f 53 5b bd
       -0.037785146 -0.004607785 0.10144209 -0.053546306
000360 e3 22 04 3b 2e b4 e5 3d 09 f0 03 3d e0 b8 43 3e
       0.0020162396 0.11216007 0.032211337 0.19113493
000370 be ab 06 bd 11 31 30 3d 38 73 98 bc 3a 38 7e 3b
       -0.03287863 0.043015543 -0.018609628 0.0038790838
000380 0f b2 71 be 8d db 11 bd 34 61 85 bd 58 6b de 3b
       -0.2360308 -0.03560977 -0.06512681 0.0067876987
000390 16 06 66 bc 04 d3 3c bd 67 b2 20 bd ea a0 e8 bd
       -0.014039537 -0.046099678 -0.039232638 -0.11358817
0003a0 00 5c 55 3a 03 a1 86 3c 00 b1 17 3a b8 2c 92 be
       0.0008139014 0.016434198 0.0005786568 -0.28549743
0003b0 93 04 91 bd 75 0c 6a bb 0d 31 aa bc c0 32 00 be
       -0.070809506 -0.0035712991 -0.020775342 -0.1251936
0003c0 a5 40 8e bd 1a 60 a9 bb 3e 61 f3 3d 9e b2 64 3d
       -0.06945924 -0.005168927 0.11883782 0.055834405
0003d0 ea 35 50 3d 03 f9 9d 3d 65 ac bc 3d 9d f5 d0 bc
       0.050832666 0.07713511 0.09212569 -0.025507743
0003e0 60 32 dd bb 7d 1d 10 be d0 05 e4 bb 5c 30 a5 3d
       -0.00675039 -0.14073749 -0.0069587007 0.080658644
0003f0 1d 5a 9e bd 47 7b cd be c4 f8 98 be af bc 4d 3d
       -0.077320315 -0.40133116 -0.29877293 0.05022877

fc3.bias f4 [128]
000000 a6 30 07 3b d8 03 0a 3d 4b 5f 44 3d 55 1e fe 3c
       0.0020628362 0.033695072 0.04794244 0.031020323
000010 e6 39 04 bd 90 e1 3c 3d 20 62 22 bd 64 74 73 bd
       -0.03228178 0.04611355 -0.03964436 -0.05943717
000020 65 88 9f bd 95 3e 49 bd d2 f9 19 bd 9f 88 02 3d
       -0.07789687 -0.04913195 -0.037591763 0.031868573
000030 2e 35 c3 bc cd a9 c4 3c b4 55 f0 3c 03 00 04 bd
       -0.023829069 0.024006749 0.029337741 -0.032226574
000040 ab 0f d6 b9 0f eb 64 bc 1a 7e f6 3b d1 47 1b 3d
       -0.00040828934 -0.013972058 0.0075223567 0.037910286
000050 de a6 95 3b 67 8e a6 bc 89 f6 f9 3d 6d 35 0e 3d
       0.0045670113 -0.020331575 0.12205226 0.03471892
000060 13 cd 54 bd 26 15 89 3d 30 66 a1 bc bb d5 c2 bc
       -0.051953387 0.06693487 -0.019702047 -0.023783555
000070 b9 75 0f 3d b6 ad 33 3d a7 98 83 3c 61 df cb 3d
       0.03502438 0.043866836 0.016064001 0.099547155
000080 85 a7 37 bd ef 51 4a bd 40 1a 7a bd 7a 0d 1a 3d
       -0.044837493 -0.049394544 -0.06106019 0.03761051
000090 8f 98 c1 3c 58 79 86 3d 8f e8 b8 3c db 76 a7 bb
       0.023632316 0.06566113 0.02257183 -0.005110604
0000a0 b4 96 00 bd 7b e7 8d bc ce 8d 43 3c 08 2d de 3d
       -0.03139372 -0.017322293 0.011935664 0.10848433
0000b0 f4 c1 26 bd 7c 29 22 bd 81 47 06 bc 0d a5 89 bc
       -0.040712312 -0.039590344 -0.008195759 -0.016802335
0000c0 d8 aa 87 3c 07 27 2e 3d a6 b7 95 bd d7 69 4c bd
       0.016560957 0.042517688 -0.07310419 -0.049905624
0000d0 7e d7 55 bc e9 0f 4f bc 0a bf d7 bb 15 44 84 bd
       -0.013051866 -0.012638071 -0.006584053 -0.06458298
0000e0 f9 04 c3 3d d9 35 80 3d 84 76 91 3c dc 9b 1a 3d
       0.09522433 0.062602706 0.017756708 0.037746295
0000f0 66 68 00 bd 65 da b1 3c 6e 91 15 3c 12 1f 86 bd
       -0.031349562 0.021710584 0.009128911 -0.06548895
000100 c7 34 7c bd 46 c7 0a 3e 40 bd ba 3d 85 37 5c 3e
       -0.06157377 0.1355258 0.09118128 0.21505554
000110 40 82 02 bd 3b 4f b4 3c 85 20 20 bd 05 98 1c 3d
       -0.031862497 0.022010436 -0.039093513 0.038230915
000120 82 20 98 3d b7 3f 86 bd 7d e5 39 bd 52 7b 3c 3d
       0.074280754 -0.065551214 -0.045384873 0.046016045
000130 c6 e9 b4 bc db 8c 39 3d 80 a2 15 3d 2d 04 46 bd
       -0.022084128 0.045300346 0.036531925 -0.048343826
000140 4a d8 dd 3b d6 55 60 bd 83 a7 95 bc 07 b3 d3 3c
       0.0067701684 -0.05476936 -0.018268352 0.025842203
000150 e5 3f 36 3e c2 5b e2 bc 08 d4 0e 3e 2a f4 bc bb
       0.17797811 -0.027631644 0.13948071 -0.0057664113
000160 64 ec 9f 3d 62 90 98 bc 7c 62 24 bd 3c 52 c6 bc
       0.0780876 -0.018623535 -0.040132985 -0.024209134
000170 3e 0e 86 3d 56 63 2e bd 06 ec 13 3c 60 5f a3 3b
       0.06545685 -0.042575203 0.00902844 0.004985735
000180 67 da 99 bd e1 d7 3c bd dd 9e 93 bd b5 18 a1 bd
       -0.0751236 -0.046104316 -0.07208035 -0.078660406
000190 52 d4 7b bd 8f 61 25 bd 71 25 51 3e 42 d1 d8 3d
       -0.06148178 -0.040376242 0.20424439 0.10586788
0001a0 ac 64 02 bd b8 0f 2d 3d 00 a6 04 3e b3 8b 92 3c
       -0.03183429 0.04225132 0.12953949 0.01788888
0001b0 32 7a 67 bd 72 6e 76 3d ae ee 84 3a 8d 2f ef 3d
       -0.05651302 0.060163923 0.0010141933 0.116789915
0001c0 16 cb 23 bc df 33 8c 3d 88 16 f2 bc 8e 7e 32 3d
       -0.00999715 0.06845831 -0.02955176 0.043577723
0001d0 94 2a d6 3d 5f 80 47 3d c5 6b 56 3d b0 19 81 bd
       0.1045734 0.04870641 0.05234887 -0.063037276
0001e0 cb 1e 42 bd fe d6 18 bd 39 4d 83 bd a8 45 8f 3b
       -0.047392648 -0.037314408 -0.064112134 0.0043723173
0001f0 56 ad a3 bd 54 bf 4d 3d 05 9c b5 3c e6 10 4e bd
       -0.079920456 0.050231293 0.022169122 -0.050309084

fc4.weight f4 [5, 128]
000000 42 7f 0e be 9f 47 9a 3e 52 8f 5f 3d 99 34 bf 3e
       -0.13915733 0.30132768 0.05458004 0.37344816
000010 98 75 31 be 99 2b 97 bc e1 36 68 bd 50 df a8 bc
       -0.17330015 -0.018453406 -0.05669296 -0.020614296
000020 28 f4 3f bc 4c 3e d4 3c a2 20 16 be c6 61 81 bd
       -0.011715926 0.025908612 -0.14660886 -0.06317477
000030 d8 6b 56 3e 75 2b 9a 3d 13 ec b2 bd 3d e1 33 3d
       0.20939577 0.0752782 -0.08736434 0.043915976
000040 2f 9a 86 be eb 35 d8 3c bf 83 38 be ce 72 84 3d
       -0.26289508 0.026392898 -0.18019007 0.0646721
000050 d3 00 1d 3c 00 3a 28 be 4f 5f 19 3f eb 72 04 bd
       0.009582716 -0.16428375 0.59911054 -0.032336157
000060 7c 1d c0 3b 11 66 47 3e 94 b9 17 be 02 90 d2 bc
       0.00586289 0.19472529 -0.14816886 -0.025703434
000070 32 d1 13 be e1 4b d3 3e 2a 39 9b 3d 31 bd 1c 3e
       -0.1443527 0.4126883 0.075792626 0.15306546
000080 73 b9 ee bd 4c 8a 81 bd 01 ea 0d bb 89 42 c3 ba
       -0.116564654 -0.06325206 -0.002165437 -0.0014897148
000090 b9 39 2f be 5b 0f 54 3e 9c ba 6e 3d 8e 2a 80 3d
       -0.17111863 0.20708983 0.058283433 0.06258117
0000a0 a7 ef 8b 3d ba a6 63 3d 97 b3 ab 3c 40 56 db 3e
       0.068328194 0.055578925 0.020959659 0.4283924
0000b0 e0 20 13 bb e1 3f 8d 3d 8e 19 76 bd 4f ce 93 bd
       -0.0022450015 0.068969496 -0.060082965 -0.072170846
0000c0 dd ff 83 bd 93 ee 42 bd 65 8f a3 3d fc 08 3b bd
       -0.064452864 -0.047590803 0.07986335 -0.045662865
0000d0 36 bc 9c 3c 4a f7 a3 bd 08 b0 40 3d 8a 42 f8 3c
       0.019132715 -0.08006151 0.047042876 0.030305166
0000e0 60 c3 e4 3e 4d 5f 34 bc 52 33 0a be 6d 59 04 be
       0.4468031 -0.01100905 -0.1349614 -0.12924738
0000f0 a8 f5 2f be 88 c7 40 be 73 ea 25 3d 09 d0 19 3d
       -0.17183554 -0.18826115 0.04050679 0.037551913
000100 2c 26 61 bd 16 fa 41 3e b0 44 d6 3e df 3c f4 3e
       -0.054968044 0.18943056 0.4184928 0.4770269
000110 55 27 2a bb 3c 70 6a bd af 6f 96 bd 09 62 3d be
       -0.0025963385 -0.05723594 -0.07345521 -0.18494429
000120 54 b8 e0 bd 61 0f 1b 3d e4 ac 99 3d 6d 65 af 3e
       -0.10972658 0.037856463 0.075036794 0.3425707
000130 45 66 3e 3d 76 bb 8d 3d 7a 5a 1c be b6 95 b0 3c
       0.04648425 0.06920521 -0.15268889 0.021555763
000140 40 fe 38 be d1 7d a2 3c b0 57 22 be b7 46 40 be
       -0.18065739 0.019835385 -0.15853763 -0.18776976
000150 b2 04 15 3e ec 8d 6d bc d0 bc c7 3e cc 29 0e be
       0.14552572 -0.014499169 0.3901124 -0.13883132
000160 a7 41 9f 3e 72 70 6e 3d f3 27 1f be 25 ee 4d bd
       0.31104776 0.058212705 -0.15542583 -0.05027594
000170 c9 b5 b2 3e 9d 5f 8a bd 83 ed 2d be 88 2b 19 be
       0.34904316 -0.06756518 -0.16985135 -0.14958012
000180 ca d8 a8 bd 2e d2 80 bd 24 fb 9c 3b 03 d6 4b be
       -0.08244474 -0.062900886 0.0047906805 -0.19905858
000190 10 42 37 be 62 b7 17 be 28 af 1e 3f 8a fe 15 3f
       -0.17896295 -0.14816049 0.6198602 0.5859152
0001a0 c6 b1 eb bd fc 15 d7 3c 06 74 38 3e 0d 23 56 bc
       -0.11508517 0.0262556 0.1801301 -0.01306988
0001b0 07 60 87 3d 4c b4 12 3e d2 2f 59 3d 34 9f c7 3d
       0.06610113 0.1432659 0.05302412 0.097471625
0001c0 4c d9 74 bd 74 c5 64 bd a1 4d 65 bd 5e e5 c3 bc
       -0.059777543 -0.05585237 -0.055982236 -0.023913082
0001d0 f8 be 0f 3f 31 e9 e4 3d 9c 11 89 bd e6 66 3a 3d
       0.5615077 0.1117729 -0.06692812 0.045508288
0001e0 70 6d 31 be 80 e1 ea bd 06 a5 c9 ba 3a 18 34 be
       -0.17326903 -0.11468792 -0.0015384264 -0.17587367
0001f0 44 87 ba 3d 3b f0 09 be af 9d 53 3d 7f 13 2c be
       0.09107831 -0.13470547 0.05166405 -0.16804312
000200 a1 fe f2 bd f2 64 c1 3e 8b af 8d b9 99 50 d2 3e
       -0.11864973 0.37772328 -0.00027024405 0.41077116
000210 69 e6 5c be a1 93 c9 bd ff 39 80 bd 60 6d ae 3c
       -0.2157227 -0.09842611 -0.06261062 0.021292388
000220 c9 b1 4f bc c8 1d ca bc e0 58 0f be 6a 49 1f be
       -0.012676665 -0.024672404 -0.13998747 -0.15555349
000230 46 4b 3b 3e 7d bc 12 3d 10 c5 0f 3d 22 91 ca 3c
       0.18290433 0.035824288 0.035100043 0.024727408
000240 9d 08 7b be 7f 73 11 3c c0 a1 74 be 91 de ac 3d
       -0.24515004 0.008877634 -0.23889828 0.08440889
000250 5e 47 98 3d ac db 14 be ec 1e 20 3f c4 10 98 bd
       0.07435487 -0.14536923 0.62547183 -0.07425073
000260 0c a4 63 3d 59 b6 3a 3e cb a2 57 be 25 eb a7 3d
       0.05557637 0.18233623 -0.21058194 0.08199147
000270 2d f8 15 be 44 c1 cf 3e bf a3 5e bd 87 15 e5 3d
       -0.14645453 0.40577137 -0.05435538 0.11185747
000280 4a 55 16 be 94 e7 9b 3c 7a 56 83 3d 6d 1e 75 3d
       -0.14680973 0.019031323 0.064129785 0.05984347
000290 e5 80 cb bd b0 25 04 3e 6c a3 29 3e c4 5e 8a 3d
       -0.09936694 0.12905002 0.16566247 0.06756356
0002a0 e8 11 17 bd 7b 34 b8 3c a2 b1 98 3d 98 78 00 3f
       -0.03688231 0.022485962 0.07455756 0.5018401
0002b0 fe fc d6 bc 2e d1 72 3d ed cc cf 3d 02 11 85 bd
       -0.026243683 0.05928152 0.10146508 -0.064973846
0002c0 27 4f 84 bd 84 91 44 3d 88 c9 b9 3c 83 fa 8b bd
       -0.064604096 0.047990337 0.022679105 -0.06834891
0002d0 a5 2f aa 3d 9b cc a2 3c d3 8d 8f bd f3 90 44 3d
       0.08309869 0.019872954 -0.07009473 0.047989797
0002e0 7f 36 cc 3e 0f 63 dd bd 2a 16 4f be 47 70 a8 3b
       0.39885327 -0.108099096 -0.20223299 0.0051403376
0002f0 06 04 40 be 2a 89 17 be db bb a6 3d 75 c3 87 bc
       -0.18751535 -0.14798418 0.08141299 -0.016572693
000300 36 d6 8e bb 47 ac 28 3e f8 a7 df 3e 73 6f 08 3f
       -0.004359032 0.16471969 0.43682837 0.5329506
000310 d0 e0 06 3d c0 94 e2 3c a0 ff d8 bd 0d b6 c6 bd
       0.03292924 0.02765882 -0.105956316 -0.09702692
000320 5e b7 a3 bc 34 21 3a bb 91 ae 63 bd 55 92 8f 3e
       -0.019984897 -0.0028401138 -0.0555864 0.2804133
000330 26 8d 2c 3d 2c 67 15 bc d0 40 d1 bd 07 8c 7b bd
       0.042126797 -0.009118836 -0.1021744 -0.061412837
000340 12 63 59 be 22 ec 35 bb 43 eb 29 bd 61 73 05 be
       -0.21229199 -0.0027759154 -0.04148413 -0.13032295
000350 28 2c 40 3e b8 4c fa 3c 62 cf c7 3e 8a c3 3a be
       0.18766844 0.03055416 0.39025408 -0.18238655
000360 6f 0b 9e 3e ae 5c 91 bc 34 63 9b bd ba 8e 43 3d
       0.30868098 -0.017744388 -0.07587281 0.047743537
000370 f0 34 c7 3e f4 03 eb bd 82 63 0e be f9 68 bd bd
       0.38907576 -0.114753634 -0.13905147 -0.092485376
000380 51 04 2e 3d 8c 4e c4 bd 75 11 84 bc fd 25 42 be
       0.042484585 -0.09585294 -0.016121605 -0.18959804
000390 11 61 66 be 79 67 1c be 17 24 ef 3e 9d 18 13 3f
       -0.22497965 -0.15273847 0.46707222 0.5745943
0003a0 6d bb 33 be 36 95 55 3d 5a c4 44 3e 9a 65 9c 3c
       -0.17551966 0.05214425 0.19215527 0.019091416
0003b0 a9 c3 5a 3d 85 6e 14 3e 81 7b 8a bd 60 ad 5b 3e
       0.053409252 0.14495285 -0.06761838 0.21452856
0003c0 fd a5 06 be 63 f2 37 bd 31 f7 45 3d e5 7e 16 bd
       -0.13149257 -0.044908892 0.048331443 -0.03674211
0003d0 6b a4 14 3f c6 14 47 3e b5 b5 93 bd 00 15 ff bc
       0.5806338 0.19441518 -0.07212392 -0.031137943
0003e0 25 7c 5e be 19 20 83 bd 5e 37 6d bd 04 c6 2e be
       -0.21727045 -0.064026065 -0.05791413 -0.17067724
0003f0 5c 3d 76 3d ac db bc bd a4 14 dc bc 88 82 31 be
       0.06011711 -0.092215866 -0.026865311 -0.1733495

fc4.bias f4 [5]
000000 d6 1e ac 3d da b3 b2 bb 9f 42 61 3c 84 2d 9f 3d
       0.08404319 -0.005453569 0.013748794 0.07772353
000010 ae 49 96 3d
       0.07338272
