models/lateral_stage3_seed7654_best.pth (torch, 412467 bytes, 8 tensors)

fc1.weight f4 [256, 9]
0	0x400c4f2e	2.1923327
1	0xbf43e184	-0.76515985
2	0xbe0484fb	-0.12941353
3	0xbf1568e0	-0.5836315
4	0xbde620b2	-0.11236705
5	0xbea0ebf7	-0.31430027
6	0x3e436ce2	0.19084504
7	0x3e9fba71	0.3119693
8	0x3dacea25	0.08443097
9	0xbf576607	-0.84140056
10	0xbdbc06ac	-0.0918096
11	0xbe1a76c4	-0.15084368
12	0x3e72e793	0.23721151
13	0x3f64ce94	0.89377713
14	0x3f1673cd	0.5877045
15	0x3d89c9d0	0.06727946
16	0xbe525e5e	-0.2054381
17	0x3d352b76	0.0442309
18	0x3fe2246f	1.7667369
19	0xbeec1d26	-0.46115988
20	0xbee2c04c	-0.44287336
21	0xbe1aa4cb	-0.15101926
22	0xbccb07be	-0.024783965
23	0x3c805f03	0.015670305
24	0x3e8c1b81	0.27364734
25	0xbd6b9800	-0.057518005
26	0x3a43191a	0.00074424
27	0x3fbeaadc	1.4895892
28	0xbe6ad083	-0.22931103
29	0x3e45afac	0.19305295
30	0xbe84a08b	-0.25903735
31	0xbdf3e415	-0.119087376
32	0x3e275307	0.16340266
33	0xbe2628d0	-0.16226506
34	0xbe3b2548	-0.1827594
35	0x3d3e45d9	0.04645333
36	0x3feff74c	1.8747344
37	0xbe7d71ea	-0.24750486
38	0xbe1f2dad	-0.15544768
39	0x3f1aef7f	0.6052169
40	0xbe379893	-0.17929296
41	0xbb6a9940	-0.003579691
42	0xbc7ecc80	-0.015551686
43	0x3e403792	0.18771198
44	0xbd5a059b	-0.053228002
45	0xbf0fd6b8	-0.5618701
46	0x3ef0a95e	0.47004217
47	0xbdf90d5d	-0.12160752
48	0xbcb317d9	-0.021861957
49	0xbea1d4c8	-0.31607652
50	0x3e4e3265	0.20136411
51	0xbe4deeee	-0.20110676
52	0x3ddff424	0.10935238
53	0xbea55ea9	-0.32298782
54	0xbfc3efa2	-1.5307505
55	0xbe56a2c8	-0.20960534
56	0xbf1afaae	-0.60538757
57	0xbe292b7a	-0.16520491
58	0xbd960330	-0.07324827
59	0xbef1ba4e	-0.47212452
60	0xbe92f9b4	-0.28706133
61	0xbe0be426	-0.1366125
62	0xbc8df62e	-0.017329302
63	0x406ed641	3.731827
64	0xbe673e44	-0.22582346
65	0xbe3d25f6	-0.18471512
66	0x3e5f74db	0.2182192
67	0x3ce42028	0.027847365
68	0xbe960c82	-0.29306418
69	0x3e663ffa	0.22485343
70	0x3ea5c1c5	0.32374397
71	0x3ec719b4	0.38886797
72	0x3f601683	0.8753435
73	0xbf3e43b7	-0.74322075
74	0x3db37dc6	0.08764224
75	0xbe94d3c5	-0.29067817
76	0x3d8a3a40	0.067493916
77	0x3e0629f3	0.1310194
78	0xbea2cc7e	-0.3179664
79	0x3d133568	0.035939604
80	0x3d90a834	0.07063332
81	0xc04d7d73	-3.2107818
82	0xbe436706	-0.19082269
83	0x3e916de6	0.28404158
84	0x3e128d3e	0.14311692
85	0x3e8d7695	0.27629533
86	0xbe07787a	-0.13229552
87	0x3e5aba4a	0.21360126
88	0xbeaa4ca3	-0.33261594
89	0xbdc531ad	-0.096286155
90	0xbf3e76d5	-0.74400073
91	0xbd8908cf	-0.06691133
92	0xbecd5850	-0.4010644
93	0xbd439887	-0.047752883
94	0x3dfa6b94	0.1222755
95	0x3e8d5185	0.27601257
96	0x3e728b8a	0.23686042
97	0x3e3c0032	0.1835945
98	0xbd118be4	-0.0355338
99	0x407e7213	3.9757125
100	0x3e90c22a	0.28273135
101	0x3ea06ddc	0.31333816
102	0x3e9c353e	0.3050937
103	0x3b39e9d3	0.002836813
104	0xbcc4f9b0	-0.024044842
105	0x3e8ed82d	0.27899304
106	0xbe833bcc	-0.2563156
107	0x3c683114	0.014171857
108	0x406060ff	3.5059202
109	0xbcfc4e80	-0.03079915
110	0x3ef22e95	0.47301164
111	0x3e7a4e2d	0.24443884
112	0xbe0e4de9	-0.13896908
113	0x3e4f4d32	0.20244291
114	0x3e6e5c86	0.23277482
115	0x3d20ad98	0.039228052
116	0xbe6547e0	-0.223907
117	0xc089412b	-4.289205
118	0xbdd84efa	-0.105619386
119	0x3ee77e60	0.45213604
120	0x3d95aa36	0.07307856
121	0xbe0d0da0	-0.13774729
122	0xbc301327	-0.010746754
123	0x3e176992	0.14786366
124	0xbe242f26	-0.1603361
125	0x3decddc7	0.11565738
126	0xbf3cfbd3	-0.73821753
127	0x3e2bea4f	0.167886
128	0x3e9189ac	0.28425348
129	0x3d3f94b0	0.04677266
130	0xbe0006d7	-0.12502609
131	0x3acf2169	0.0015802804
132	0x3e1ae718	0.15127218
133	0xbcd24c40	-0.025671124
134	0x3db8e429	0.09027893
135	0x408d9775	4.4247384
136	0x3d96ecfa	0.073694184
137	0xbe992508	-0.29911065
138	0xbd0f02c6	-0.034914754
139	0xbe35f947	-0.17770873
140	0xbdcc39e5	-0.0997198
141	0xbe87987a	-0.26483518
142	0x3d85db90	0.06536019
143	0xbd47266a	-0.04862062
144	0xbfc6a12e	-1.5517938
145	0x3ee50df9	0.44737223
146	0x3e41860d	0.18898793
147	0x3e1f1bfa	0.15538016
148	0xbe30dc5d	-0.17271562
149	0x3bd6b83e	0.006552725
150	0xbc052ea0	-0.008128792
151	0x3d810b2c	0.06300959
152	0xbed91600	-0.42399597
153	0xc082b9f7	-4.085201
154	0x3dfaaecb	0.1224037
155	0x3d48013a	0.048829295
156	0x3f125e7b	0.57175416
157	0xbe9f54af	-0.31119296
158	0xbe30c425	-0.17262323
159	0x3e6b10e6	0.22955665
160	0xbc80f640	-0.015742421
161	0xbe1db8aa	-0.15402475
162	0x4064f9a4	3.5777369
163	0xbe485bf1	-0.19566323
164	0x3ea57f7c	0.32323825
165	0xbc78f33c	-0.01519471
166	0x3e8225a8	0.25419354
167	0xbe9790ab	-0.2960256
168	0x3e9072b1	0.28212503
169	0x3e29cca2	0.16581967
170	0xb8be7cfb	-9.0831854e-05
171	0x40236426	2.5529876
172	0x3d22d9bf	0.03975844
173	0xbd0ad1d6	-0.03389152
174	0x3e2280d9	0.15869464
175	0xbebfdb2c	-0.37471902
176	0x3da9dd30	0.08294141
177	0xbe44950b	-0.1919748
178	0x3d237878	0.03990981
179	0xbc75b4de	-0.014996735
180	0x3fe03e81	1.7519075
181	0xbc8fce9e	-0.017554577
182	0xbe58d43c	-0.21174711
183	0xbeb51090	-0.353642
184	0xbe16cf32	-0.14727476
185	0x3d8607c1	0.06544448
186	0x3dd67b50	0.10472739
187	0xbe9702ea	-0.2949441
188	0x3d438c58	0.047741264
189	0xbf84566e	-1.0338876
190	0xbedda08f	-0.4328656
191	0x3eaf3f98	0.34228206
192	0x3f143fa1	0.5790959
193	0xbea7ebfe	-0.32797235
194	0xbead1dc4	-0.33811772
195	0xbc2b8f80	-0.010471225
196	0x3e56348a	0.2091848
197	0xbf5ae947	-0.855122
198	0xc043b0a9	-3.0576575
199	0xbd3f5ca4	-0.04671921
200	0xbf2a8ee1	-0.66624266
201	0x3d0b150a	0.03395561
202	0xbcf0b928	-0.029385164
203	0xbe7adeda	-0.24499074
204	0x3d91667c	0.070996255
205	0xbe9efb5f	-0.31051156
206	0x3dea67b9	0.11445565
207	0x400455bf	2.0677335
208	0x3da2028a	0.079106405
209	0xbd0f1640	-0.03493333
210	0x3d152837	0.036415305
211	0xbeb1d729	-0.34734467
212	0x3b76f55e	0.0037682871
213	0x3e7fb986	0.24973115
214	0xbe962c63	-0.2933074
215	0xbe70459d	-0.23464055
216	0x3fba5ee2	1.4560206
217	0xbe007d56	-0.12547812
218	0xbf03eb07	-0.515305
219	0x3f244d12	0.641801
220	0x3ccd53d2	0.025064383
221	0xbb603513	-0.0034211322
222	0xbe813890	-0.25238466
223	0x3d6928c8	0.056923658
224	0x3eaa168e	0.33220333
225	0xc03efa0f	-2.9840124
226	0xbe73e062	-0.23816064
227	0xbe8572d9	-0.26064184
228	0xbe356ebd	-0.17718025
229	0xbd4a59a1	-0.049401883
230	0x3e10b058	0.1412977
231	0xbe2e7ddb	-0.17040198
232	0x3e54b83e	0.20773408
233	0x3d97f55e	0.07419847
234	0xbff152a9	-1.8853351
235	0xbe47429c	-0.19459003
236	0xbf17f671	-0.59360415
237	0x3dc343b9	0.095344014
238	0xbd9beb18	-0.076132
239	0xbd00a56d	-0.031407762
240	0x3da21d60	0.07915759
241	0x3e85f7ad	0.26165524
242	0x3e12c558	0.14333093
243	0x3fb0ba7b	1.3806909
244	0x3e30f9e2	0.17282823
245	0x3e1fb38f	0.1559584
246	0x3e43d1d4	0.19123012
247	0xbeacb660	-0.3373289
248	0xbeeff0ac	-0.46863306
249	0x3da79f7c	0.08184716
250	0xbe1be32e	-0.15223381
251	0x3f0d67ab	0.5523631
252	0x3f8faa9f	1.1223944
253	0x3dfe9b1d	0.12431929
254	0xbf41439e	-0.754938
255	0xbe0a4b5f	-0.13505314

fc1.bias f4 [256]
0	0x3bd820e1	0.0065957163
1	0xbe683fb6	-0.22680554
2	0x3cde6788	0.027148977
3	0x3e724702	0.236599
4	0x3ebd474f	0.36968467
5	0xbe1b6d28	-0.15178359
6	0x3e56c86a	0.2097489
7	0x3e84aead	0.25914517
8	0x3e4802eb	0.19532363
9	0x3eaa0c64	0.33212578
10	0x3d6d574d	0.057944585
11	0xbe01efb8	-0.12689102
12	0x3e7ed82f	0.24887155
13	0x3eaa8fa7	0.33312723
14	0xbe0308ee	-0.12796375
15	0x3e067086	0.13128862
16	0x3d376f0a	0.04478363
17	0x3e102db2	0.14079931
18	0x3ea34267	0.31886598
19	0xbd570e99	-0.052504156
20	0x3d9a94cd	0.07547913
21	0xbd140c21	-0.03614438
22	0xbd9bd39c	-0.07608721
23	0xbead4abc	-0.3384608
24	0x3e55cbc2	0.20878509
25	0x3e235e86	0.15954027
26	0x3d850120	0.06494355
27	0xbda6d1ff	-0.08145522
28	0xbe002d11	-0.12517191
29	0x3d465e24	0.048429623
30	0xbe9a02d6	-0.3008029
31	0x3ecff88f	0.40619323
32	0x3e1b1d49	0.1514789
33	0xbc63fd43	-0.013915363
34	0x3dc8af8b	0.09799107
35	0x3d8e6fc6	0.06954913
36	0x3da9a769	0.08283884
37	0xbed4d498	-0.41568446
38	0x3e14fb46	0.14548978
39	0xbd888998	-0.06666869
40	0x3e972647	0.2952139
41	0xbd916e9d	-0.07101176
42	0xbe666898	-0.22500837
43	0xbdf5338c	-0.119727224
44	0xbea3c247	-0.3198416
45	0xbdc11d6c	-0.0942944
46	0xbefdbf29	-0.49559906
47	0x3e8faf70	0.28063536
48	0xbec76e83	-0.389515
49	0x3e3ae939	0.1825303
50	0x3e66af31	0.22527768
51	0x3c97be91	0.018523486
52	0x3db80ffa	0.08987422
53	0x3cf44899	0.029819774
54	0xbe9fb418	-0.31192088
55	0x3e89c47e	0.26907724
56	0x3d82c6d3	0.06385579
57	0x3c918822	0.017765108
58	0x3d7a69e7	0.061136153
59	0x3d235fb4	0.03988619
60	0x3e3eaae8	0.18619883
61	0xbebf9bf4	-0.3742367
62	0xbd7f9395	-0.062396605
63	0xbe13e4b5	-0.14442714
64	0xbc616edc	-0.013759341
65	0x3e07b84b	0.13253896
66	0xbd87aeef	-0.06625163
67	0xbe93b497	-0.28848717
68	0x3c09b7fa	0.00840568
69	0x3d5c90f2	0.053849168
70	0xbe445761	-0.19173957
71	0x3ddcd814	0.10783401
72	0xbe9381f6	-0.2881009
73	0xbd3f590b	-0.046715777
74	0xbda96816	-0.08271806
75	0xbe0ebeb7	-0.1393994
76	0xbb13437d	-0.0022470646
77	0xbecfd1c6	-0.40589732
78	0x3eb374f4	0.35050166
79	0x3e98888a	0.2979167
80	0xbea7a5c9	-0.32743672
81	0x3df4d10e	0.119539365
82	0xbe9a504b	-0.30139384
83	0x3ece7fab	0.40331778
84	0xbe618b77	-0.22025858
85	0x3eefb32b	0.46816382
86	0x3c6038c9	0.013685414
87	0xbe38439a	-0.17994538
88	0x3e4441a3	0.19165663
89	0xbe12d1c4	-0.14337832
90	0x3d17a5c7	0.037023332
91	0x3e7d61a4	0.24744278
92	0xbd33f0eb	-0.04393093
93	0xbe04591d	-0.12924619
94	0x3e2ac23f	0.16675662
95	0xbc2924b7	-0.010323695
96	0x3e6646aa	0.22487894
97	0xbdf28314	-0.118414074
98	0xbe1c6119	-0.15271415
99	0xbd861e7b	-0.065487824
100	0x3e5d5c7f	0.21617316
101	0xbeabf250	-0.33583307
102	0xbe53dfad	-0.20690794
103	0xbd54888b	-0.05188803
104	0x3e26cda9	0.1628939
105	0xbe142793	-0.14468221
106	0x3ea19029	0.31555298
107	0x3e69d88a	0.2283651
108	0xbc4c9e3b	-0.012488897
109	0x3e9347a8	0.28765607
110	0x3dea2dab	0.11434492
111	0x3e04df50	0.12975812
112	0xbedf3df6	-0.4360196
113	0x3e6f5cfb	0.23375313
114	0xbe7b9177	-0.24567209
115	0x3d40d130	0.047074497
116	0xbe392133	-0.18079071
117	0x3d2e944c	0.042621896
118	0xbe221e4b	-0.15831868
119	0x3e5b13cc	0.2139427
120	0xbdcc5619	-0.09977359
121	0xbe946f11	-0.28990987
122	0x3ebca14a	0.36841804
123	0x3ea66e09	0.32505825
124	0x3d9e329f	0.07724499
125	0x3e7eaea2	0.24871305
126	0x3d902972	0.07039155
127	0x3ca8c79a	0.02060299
128	0xbdf6b7a7	-0.12046748
129	0x3d0480e0	0.032349467
130	0x3e83ece6	0.25766677
131	0x3e77076a	0.24123922
132	0xbebb2125	-0.36548725
133	0x3e303832	0.17208937
134	0xbe45ac27	-0.19303952
135	0xbe2fe173	-0.17175846
136	0x3bb645fa	0.005562541
137	0x3ea0fe34	0.31443942
138	0x3e03c085	0.12866409
139	0xbde4409c	-0.11145136
140	0x3e027345	0.12739284
141	0x3da2d14c	0.079500765
142	0x3e86ebc8	0.26351762
143	0xbdc461db	-0.09588977
144	0x3e9789f5	0.2959744
145	0x3e10eab5	0.14152034
146	0xbe8b104a	-0.27160865
147	0xbe964e02	-0.2935639
148	0xbd6f044d	-0.05835371
149	0xbea8dcd0	-0.32980967
150	0x3d3bf4da	0.045887806
151	0x3e438568	0.19093859
152	0xbd9a8e5e	-0.07546686
153	0xbd3b7971	-0.045770112
154	0xbda398e4	-0.07988146
155	0x3c43664f	0.011926248
156	0x3e977afc	0.29586017
157	0x3c8331f7	0.016015036
158	0x3e9b94be	0.3038692
159	0x3d1c310a	0.038132705
160	0xbeabcdd2	-0.33555466
161	0x3e5102bf	0.20411204
162	0x3bc4e3b8	0.0060085915
163	0x3e381ab9	0.17978944
164	0x3ea21a5b	0.31660733
165	0x3e01c033	0.12670974
166	0x3e10c041	0.14135839
167	0xbe98473a	-0.29741842
168	0x3dfafb3c	0.122549504
169	0x3e8071db	0.25086865
170	0x3be46688	0.0069702305
171	0x3d7d517a	0.06184528
172	0xbe0b3d18	-0.13597524
173	0xbdb55b5f	-0.08855318
174	0x3d71347f	0.058887955
175	0xbe71441e	-0.23561141
176	0xbed0330e	-0.40663952
177	0xbc422c39	-0.011851364
178	0x3e222afa	0.15836707
179	0x3ead0904	0.3379594
180	0xbd846cbc	-0.06466052
181	0xbeda2d04	-0.4261247
182	0x3dedd660	0.116131544
183	0x3c8c9930	0.01716289
184	0x3e87f1e5	0.26551738
185	0x3e8f7761	0.28020766
186	0xbec34b41	-0.38143352
187	0xbc9535aa	-0.018214066
188	0xbeadb1e2	-0.33924776
189	0xbe318e9e	-0.1733956
190	0xbedac985	-0.42731872
191	0x3e311759	0.17294063
192	0xbeb092f5	-0.3448712
193	0xbece9f12	-0.40355736
194	0x3e360525	0.177754
195	0xbe2581bb	-0.1616277
196	0x3dfa2032	0.12213172
197	0x3e977da5	0.29588047
198	0x3db184bc	0.08667895
199	0x3e2b3b7c	0.1672191
200	0xbe9b8034	-0.3037125
201	0x3e8d0906	0.27545947
202	0x3e2dc40b	0.16969316
203	0xbdbd633e	-0.092474446
204	0x3d729386	0.05922272
205	0xbe367598	-0.17818296
206	0xbe1662ec	-0.14686173
207	0x3eb43c4a	0.35202247
208	0xbf0541ba	-0.52053416
209	0x3e0b9c8d	0.13633938
210	0x3e9d12e8	0.30678487
211	0x3dbb967b	0.09159561
212	0x3e839182	0.2569695
213	0xbeadf00f	-0.33972213
214	0xbdacf2af	-0.08444726
215	0x3ecd325e	0.4007749
216	0xbeff6da6	-0.49888343
217	0x3ed5d324	0.4176265
218	0x3d765b83	0.060145866
219	0xbd32da5b	-0.04366527
220	0x3d7b7855	0.061394054
221	0xbd18881b	-0.037239175
222	0xbe869e19	-0.26292494
223	0x3ccd7a5e	0.025082763
224	0xbcdec7b2	-0.027194832
225	0xbd7d1388	-0.061786205
226	0x3e0ec874	0.13943654
227	0xbe956ea2	-0.2918597
228	0x3e72bbae	0.23704407
229	0x3da488ac	0.080338806
230	0x3e1b19ae	0.15146515
231	0xbeced404	-0.4039613
232	0x3e849575	0.25895277
233	0x3e81f3a6	0.25381202
234	0x3cf3c4a0	0.029756844
235	0x3e840616	0.25785893
236	0xbe1eaffb	-0.15496819
237	0x3ddafd0e	0.106927976
238	0xbbeb489c	-0.0071802866
239	0x3eb088a6	0.34479254
240	0x3debe159	0.11517591
241	0x3e08b9a4	0.13352066
242	0x3ebc4cd2	0.3677736
243	0x3e8737b3	0.26409683
244	0x3e86e109	0.26343563
245	0xbe9af4b6	-0.30264825
246	0x3e3ee973	0.18643741
247	0xbeab3c05	-0.3344423
248	0x3c03c408	0.008042343
249	0x3e25f3b2	0.16206244
250	0x3e22034c	0.1582157
251	0x3d1844bc	0.037174925
252	0x3e1f92e5	0.1558338
253	0xbe38f9b0	-0.18063998
254	0x3e0dc602	0.13845065
255	0x3e9560d1	0.29175428

fc2.weight f4 [256, 256]
0	0xbd60dff4	-0.05490108
1	0xbd53c6ae	-0.051703148
2	0x3d28b7c9	0.041190896
3	0x3d16dc49	0.036831174
4	0x3c84e4ed	0.016222442
5	0xbc9b853d	-0.018984431
6	0x3d63888c	0.055550143
7	0x3c8962d8	0.016770765
8	0xbd5704ca	-0.0524948
9	0x3d3d1b8a	0.04616884
10	0x3d307cc0	0.04308772
11	0xbd67fa1a	-0.056635
12	0x3d51e8a1	0.051247243
13	0x3c678e67	0.014133072
14	0x3d4f9475	0.05067869
15	0xbd28bdf3	-0.041196775
16	0x3ac1f069	0.0014796379
17	0xbcf7b6e3	-0.030238574
18	0x3ceb6fc8	0.028739825
19	0xbcfe9755	-0.03107802
20	0xbcff62b1	-0.03117499
21	0xbd88e0e4	-0.066835195
22	0xbd4bc3d8	-0.049747318
23	0xba84dbbc	-0.0010136287
24	0xbd03b732	-0.03215713
25	0x3bf07f51	0.007339396
26	0x3c925190	0.017861158
27	0x3cf2316f	0.029564587
28	0x3d482b4e	0.048869424
29	0xbd7ea7d9	-0.06217179
30	0x3d01bbd4	0.031673267
31	0xbd478bc1	-0.048717264
32	0xbd5f705c	-0.054550514
33	0xbd4a92d6	-0.04945644
34	0xbc2c8596	-0.010529896
35	0xbcc0c2d8	-0.023530409
36	0xbcf5bb56	-0.029996555
37	0xbcc07970	-0.023495406
38	0x3c96508f	0.01834896
39	0x3d54d1c2	0.051957853
40	0xbbb8e586	-0.0056425957
41	0xbd7dda24	-0.061975613
42	0xbd05d958	-0.03267798
43	0xbd1942cc	-0.037417218
44	0x3d0dd556	0.03462728
45	0xbc9b06c8	-0.018924132
46	0xbb2d0571	-0.0026400948
47	0x3c38d868	0.011282064
48	0xbd2f4550	-0.04279071
49	0x3d61b920	0.05510819
50	0xbd2558aa	-0.04036776
51	0x3c4637ca	0.012098262
52	0xbaf046ba	-0.0018331625
53	0x3bc3d4e4	0.0059763063
54	0xbc827ad0	-0.015927702
55	0xbd483b84	-0.048884884
56	0xbbc01b3e	-0.0058626225
57	0xbd2e481c	-0.042549238
58	0xbd27fa38	-0.04101011
59	0x3cf3dbcd	0.029767895
60	0x3d50b057	0.05094942
61	0xbc53e130	-0.012932107
62	0x3c74c1de	0.0149388
63	0x3c248bf0	0.010043129
64	0xbd3c0e49	-0.04591206
65	0xbd4fb642	-0.050710924
66	0x3d13a538	0.036046237
67	0xbd48bf7e	-0.049010746
68	0xbd2c65ea	-0.04208938
69	0xbc50d156	-0.012745222
70	0xbd60af5a	-0.05485473
71	0xbca1eaa7	-0.019765211
72	0xbb5aa5a0	-0.003336288
73	0xbd03f076	-0.032211743
74	0xbd25829d	-0.040407766
75	0xbc9067cc	-0.01762762
76	0xbd3d3c28	-0.046199948
77	0xbcc26a4d	-0.023732329
78	0xbd1e19c5	-0.038598794
79	0xbca94bc9	-0.02066602
80	0xba5bdbc4	-0.00083869346
81	0xbcb9c41b	-0.022676518
82	0xbd213070	-0.039352834
83	0x3d4f6069	0.050629053
84	0xbd1c598b	-0.038171332
85	0xbd0f335c	-0.03496109
86	0xbc81adb8	-0.015829906
87	0xbd1255be	-0.0357263
88	0x3c0e42f5	0.008682956
89	0xbc210938	-0.009828858
90	0x3d11f77b	0.035636406
91	0x3d2ff1b6	0.042955123
92	0x3d3f20c8	0.046662122
93	0x3d0b9a1e	0.034082524
94	0x3ccf6e74	0.025321223
95	0xbb6f5b60	-0.003652297
96	0xbd575ae8	-0.05257693
97	0xba8c4b80	-0.0010703653
98	0xbd5df532	-0.054188915
99	0x3ca24a3c	0.019810788
100	0xbb4997d3	-0.003076066
101	0x3d5fa76e	0.054603033
102	0x3d5e9710	0.054343283
103	0xbd10e484	-0.03537418
104	0x3d326364	0.043551818
105	0xbcc0fa71	-0.02355692
106	0xbb4d7b45	-0.0031353992
107	0xbd54eddb	-0.05198465
108	0xbc5742b8	-0.013138466
109	0x3c5f03ca	0.013611743
110	0x3d2e2ade	0.04252135
111	0xbaf87b05	-0.0018957561
112	0x3d7646d6	0.06012615
113	0xbbfa2426	-0.0076337038
114	0xbc122d90	-0.008921996
115	0x3c09cdd8	0.008410893
116	0xbccd97a8	-0.02509673
117	0xbcf890ae	-0.030342426
118	0xbd579ddc	-0.05264078
119	0xbd5dda7e	-0.05416345
120	0xbd7d3e08	-0.061826736
121	0x3cbc9c70	0.023023814
122	0x3d77286c	0.060341284
123	0x3d2ada27	0.041711953
124	0x3d2cd90e	0.042199187
125	0xbbc5bb79	-0.0060343114
126	0x3c5a6e2e	0.013331933
127	0xbd60cdf4	-0.054883912
128	0xbba618f7	-0.005068894
129	0xbd08cad5	-0.03339656
130	0xbc3c1328	-0.011479177
131	0xbd774dfc	-0.060377106
132	0x3d1c6828	0.03818527
133	0x3d00f508	0.03148368
134	0x3c37fbc6	0.011229461
135	0xbd723fba	-0.059142806
136	0x3d0b2a86	0.0339761
137	0x3cad2e2d	0.021140182
138	0x3c84b99a	0.016201783
139	0xbd1c2840	-0.038124323
140	0x3d2f60f8	0.042817086
141	0xbd40e0c9	-0.04708937
142	0x3d25198c	0.040307567
143	0x3a5e0180	0.00084688514
144	0x3c8b5f7e	0.017013308
145	0xbb0a2a00	-0.0021082163
146	0xbd60dc6e	-0.054897718
147	0x3cdcd7fa	0.026958454
148	0xbcc5b463	-0.024133867
149	0xbd54910b	-0.051896136
150	0x3c898c24	0.016790457
151	0x3d25c558	0.040471405
152	0xbd71cbb6	-0.059032165
153	0xbd78c116	-0.060731016
154	0x3cded195	0.027199546
155	0x3cd642cc	0.026154898
156	0x3d4d949e	0.05019056
157	0xbd584e0c	-0.052808806
158	0xbd143c88	-0.03619054
159	0xbd071ffe	-0.032989495
160	0x3c6e1c68	0.01453314
161	0x3d75b472	0.05998654
162	0xbca993ad	-0.0207003
163	0xbd401be8	-0.046901613
164	0x3d3a2c18	0.045452207
165	0x3c8ed664	0.017436214
166	0xbd754aae	-0.059885673
167	0xbb39aa60	-0.0028330311
168	0x3d3a68fe	0.045510285
169	0x3d15bcc0	0.03655696
170	0xbc187868	-0.009306051
171	0x3cef2885	0.029194126
172	0xbd8be43a	-0.0683064
173	0xbd876f8e	-0.06613074
174	0x3d706670	0.058691442
175	0x3d2a7801	0.04161835
176	0xbd0d815d	-0.0345472
177	0x3d276b6b	0.040873926
178	0x3c55b761	0.013044209
179	0xbd2c8b18	-0.042124838
180	0xbc3625b8	-0.011117391
181	0x3d2bb8fc	0.04192446
182	0x3d14f0a0	0.03636229
183	0xbc130510	-0.008973375
184	0x3d11f3ff	0.035633083
185	0x3c20fbab	0.009825627
186	0xbd156c8e	-0.03648048
187	0xbd773b0b	-0.060359042
188	0x3cd493a4	0.025949307
189	0xbd7ba4dc	-0.06143652
190	0x3d5682a0	0.052370667
191	0xbca66e7e	-0.020316359
192	0x3c54efb8	0.0129966065
193	0x3d0f71b7	0.035020556
194	0xbd0e309e	-0.034714334
195	0x3d22e3e0	0.0397681
196	0x3cbfc85d	0.02341097
197	0xbcc170cc	-0.023613356
198	0x3d07fa9e	0.03319799
199	0xbc98d37e	-0.018655535
200	0x3d4f747c	0.050648198
201	0xbd121eca	-0.035673894
202	0xbc1a52b0	-0.009419128
203	0x3d4473a1	0.047961835
204	0x3ca5f70c	0.020259403
205	0xbd3218f8	-0.043480843
206	0x3d7dbef4	0.061949685
207	0x3d0a3383	0.03374053
208	0x3d1f53c8	0.03889826
209	0x3bded3f0	0.0068001673
210	0x3cfda520	0.030962527
211	0xbc9c04d0	-0.019045264
212	0x3d1045fe	0.035223
213	0xbd16f24a	-0.03685216
214	0x3d7caa3c	0.061685786
215	0x3d5886b4	0.052862838
216	0xbd7fae34	-0.062421992
217	0x3d258950	0.040414155
218	0xbbfb40d0	-0.0076676384
219	0xbcd12364	-0.02552957
220	0xbd4c1284	-0.049822345
221	0x3c42a4c0	0.0118801
222	0xbbf22c00	-0.007390499
223	0x3d6fc4b6	0.058537208
224	0x3d19d0e2	0.03755272
225	0xbcf3d7ec	-0.029766046
226	0x3bc0fdd8	0.0058896355
227	0x3c946ba4	0.018117733
228	0x3b95e69c	0.00457461
229	0xbcb8255c	-0.022478752
230	0x3cb922bc	0.02259957
231	0xbd82a9a0	-0.0638001
232	0x3c7c50c5	0.015400116
233	0x3ca0144b	0.019540926
234	0x3d5b7980	0.05358267
235	0xbd641060	-0.05567968
236	0x3cd8689d	0.026417071
237	0xbd7e95d3	-0.062154602
238	0x3d2460bc	0.040131316
239	0x3c1d2e24	0.00959352
240	0xbd7b8d7a	-0.06141422
241	0xbb003300	-0.0019561648
242	0xbd2ec44c	-0.042667672
243	0xbd55666f	-0.05209964
244	0x3cbd3b00	0.023099422
245	0xbd10b472	-0.035328336
246	0xbd06fb43	-0.032954466
247	0xbd86438a	-0.06555851
248	0xbd1c01e9	-0.03808776
249	0xbd59c967	-0.053170588
250	0x3cbf4238	0.023347005
251	0xbd4b8427	-0.049686577
252	0x3c231af0	0.009955153
253	0x3d4640da	0.04840169
254	0xbd89b2c8	-0.06723553
255	0xbd6b889e	-0.057503335

fc2.bias f4 [256]
0	0xbd63ef46	-0.05564811
1	0xbdc37a5a	-0.09544821
2	0x3d9a6b0b	0.07539948
3	0x3e15ed55	0.14641316
4	0xbdaf17b6	-0.085494444
5	0xbcba9715	-0.02277712
6	0xbc0e501f	-0.008686095
7	0x3d90fb72	0.070792094
8	0xbdd792d6	-0.105260536
9	0x3d14e037	0.03634664
10	0xbd5753af	-0.05257004
11	0x3dedafd9	0.11605806
12	0xbcd6edd0	-0.026236445
13	0x3e2694b9	0.1626767
14	0xbbb1f2df	-0.005430564
15	0xbcff9b94	-0.031202115
16	0x3e1ddb60	0.15415716
17	0xbdea444e	-0.11438809
18	0x3d82d6ac	0.06388602
19	0xbd8be7e6	-0.068313405
20	0x3cdd51fd	0.027016634
21	0xbe015d2e	-0.12633201
22	0xbcb7f576	-0.022455912
23	0x3d18c721	0.03729928
24	0xbcaec1b4	-0.0213326
25	0x3d1b5e00	0.037931442
26	0x3c0d0586	0.008607274
27	0x3d875b25	0.06609181
28	0x3e7f5e24	0.24938256
29	0xbd38b09b	-0.0450903
30	0x3e151c0f	0.14561485
31	0x3e0bfbf1	0.13670327
32	0x3e04e75e	0.12978885
33	0xbda25269	-0.07925875
34	0x3d6961c7	0.056978013
35	0xbc338137	-0.0109561
36	0x3dc67aea	0.09691413
37	0xbc6636ae	-0.014051123
38	0x3d3b7f74	0.045775846
39	0xbd78e9a8	-0.060769707
40	0x3db4335e	0.0879886
41	0xbd969c10	-0.07353985
42	0x3d80fb6c	0.06297955
43	0x3e5d7911	0.21628214
44	0x3bad9ea9	0.005298455
45	0x3e3e3a9c	0.18577045
46	0x3e2b8355	0.16749318
47	0x3de09316	0.109655544
48	0xbd59f2f8	-0.05321023
49	0x3d49d952	0.04927952
50	0x3de11660	0.10990596
51	0xbc83e1d6	-0.016098898
52	0x3c75a1b9	0.014992171
53	0xbca1a937	-0.019734008
54	0x3dd9bf34	0.10632172
55	0xbd4614c7	-0.04835966
56	0x3d5baee7	0.053633597
57	0x3dc142f1	0.09436596
58	0x3cd3ee0b	0.025870344
59	0x3d274896	0.040840708
60	0xbbcea17e	-0.0063058725
61	0x3defc41e	0.11707328
62	0xb872d20f	-5.789293e-05
63	0x3e0f7e5e	0.14013049
64	0x3e10795e	0.14108798
65	0x3e5dff86	0.21679506
66	0xbdee03d3	-0.11621823
67	0x3cc1d5c5	0.023661504
68	0x3dd849c8	0.10560948
69	0x3ca0c9d7	0.019627495
70	0x3d6a7639	0.057241652
71	0xbd03872d	-0.032111336
72	0x3cde6823	0.027149266
73	0x3dc4a921	0.09602571
74	0x3da76aa7	0.08174639
75	0xbdca688e	-0.098832235
76	0xbd6d028f	-0.05786377
77	0x3e0fa02b	0.14025943
78	0xbce86809	-0.02836992
79	0xbd349187	-0.0440841
80	0x3def26c5	0.116773166
81	0x3dae8dc8	0.085231364
82	0xbbe05c33	-0.0068469285
83	0x3cdc5ddf	0.02690023
84	0x3d91fbd8	0.071281135
85	0x3d030c4e	0.031994157
86	0x3dc8aed0	0.09798968
87	0x3a83b03f	0.0010047032
88	0xbd5c417b	-0.053773385
89	0xbd7cb4fe	-0.061696045
90	0x3d4183ef	0.047244962
91	0xbc6e91d0	-0.014561132
92	0x3dca98cc	0.09892425
93	0x3c271880	0.010198712
94	0x3d916d6e	0.0710095
95	0x3cfe1947	0.031017913
96	0x3d3df204	0.046373382
97	0x3e109bc7	0.14121924
98	0xbe502b96	-0.20329127
99	0x3d935163	0.07193258
100	0xbd94369c	-0.072369784
101	0xbba52774	-0.0050401036
102	0x3e354322	0.1770139
103	0x3dc07ffc	0.09399411
104	0x3e812d1f	0.25229737
105	0xbd86c398	-0.06580275
106	0x3d07e3ae	0.033176117
107	0xbc4ac0bf	-0.012375056
108	0xbc20e98b	-0.009821306
109	0xbd97cb35	-0.074118055
110	0x3da6b6f3	0.081403635
111	0x3e4e6cb0	0.20158648
112	0x3ddcfd4b	0.10790499
113	0x3d9f0193	0.07763972
114	0x3d8ef9e2	0.06981255
115	0x3df91e06	0.1216393
116	0xbd6476a2	-0.0557772
117	0x3dcb0e19	0.09914798
118	0xbc3199d5	-0.010839899
119	0x3d2a0530	0.041508853
120	0xbd5e12b5	-0.05421706
121	0xbed67ac6	-0.41890544
122	0xbd861b83	-0.06548216
123	0x3df389c1	0.11891509
124	0x3c9674d8	0.018366262
125	0xbd11b014	-0.03556831
126	0x3de8ad3f	0.11361169
127	0x3df0f186	0.11764817
128	0x3bc0c043	0.0058822944
129	0xbce4d512	-0.027933631
130	0x3ce92d5c	0.028464012
131	0x3e29bd43	0.16576104
132	0x3d8796ee	0.066205844
133	0x3d32d36b	0.043658655
134	0xbd6bad96	-0.05753859
135	0xbe0da84e	-0.13833734
136	0x3df6eae1	0.12056518
137	0xbb1ac3dd	-0.0023615279
138	0x3dddb47a	0.10825439
139	0xbd391be6	-0.04519262
140	0x3d3ea4fe	0.046544068
141	0xbd88e7c3	-0.0668483
142	0xbd76792a	-0.060174145
143	0x3e0faff6	0.14031968
144	0xbdf698eb	-0.120408855
145	0x3beffd93	0.0073239296
146	0xbc1bc4b2	-0.009507345
147	0xbd10cd0c	-0.035351798
148	0x3c7656dc	0.015035357
149	0x3d52f8f7	0.051506963
150	0x3d434432	0.047672458
151	0xbd498ed1	-0.049208466
152	0x3d045939	0.03231165
153	0x3e017a71	0.12644364
154	0x3c9a4b2b	0.018834671
155	0x3e883a98	0.26607203
156	0x3d995868	0.07487565
157	0x3d4abe50	0.049497902
158	0x3e24cf29	0.1609465
159	0x3d80d6f3	0.06290998
160	0x3d0cd965	0.03438701
161	0x3d4ee144	0.0505078
162	0xbc203e01	-0.009780408
163	0xbc9b3a25	-0.018948624
164	0x3d24c00f	0.040222224
165	0xbd3b7950	-0.04576999
166	0x3dc45715	0.09586922
167	0x3cc1e860	0.023670375
168	0xbd5968b4	-0.05307837
169	0x3dd01361	0.10159946
170	0x3d0c31bd	0.03422712
171	0xbcad2422	-0.021135394
172	0x3c931a99	0.017957019
173	0xbbf36b94	-0.007428596
174	0x3e21b95e	0.15793368
175	0xbcb49c25	-0.022047112
176	0xbac1bb08	-0.0014780471
177	0x3d91e529	0.07123787
178	0x3db325d6	0.08747451
179	0x3c10489e	0.008806376
180	0x3d5ee8e4	0.05442132
181	0x3bfb383a	0.007666615
182	0xbd782240	-0.06057954
183	0x3e0e0ccb	0.13872068
184	0xbda7215e	-0.08160661
185	0x3dcbe4cb	0.09955748
186	0xbcf5afbb	-0.029991021
187	0x3da23a2d	0.079212524
188	0x3e42ea91	0.19034792
189	0x3e7d0d06	0.24712
190	0x3e162503	0.14662556
191	0x3d1be4e2	0.038060077
192	0xbcd06deb	-0.025443038
193	0x3deb6cff	0.11495399
194	0xbdc18d40	-0.094507694
195	0x3d92e242	0.071720615
196	0xbd8087a9	-0.06275875
197	0x3d806019	0.06268329
198	0xbcc246d8	-0.023715422
199	0xbd5604db	-0.052250724
200	0xb9aefb17	-0.00033374943
201	0xbd877149	-0.06613404
202	0x3d9e8740	0.07740641
203	0x38886d89	6.505388e-05
204	0x3be3985f	0.0069456543
205	0x3d7e61bd	0.06210493
206	0xbe42c4cc	-0.19020385
207	0x3dece1b5	0.11566488
208	0x3e1106e9	0.14162792
209	0x3dc78692	0.09742464
210	0x3d09c39a	0.033633806
211	0xbc911ca6	-0.017713856
212	0x3deb5dfc	0.114925355
213	0x3dc21017	0.09475725
214	0x3d18c1af	0.037294086
215	0x3d1ca773	0.03824563
216	0xbb6c77e3	-0.00360822
217	0x3c76fa05	0.015074258
218	0x3d94d09a	0.0726635
219	0x3c7e2640	0.015512049
220	0xbbd89ed1	-0.0066107293
221	0xbd551b3e	-0.052027933
222	0x3d5605fa	0.052251793
223	0x3c886614	0.016650237
224	0x3d21cfe4	0.0395049
225	0x3cb05207	0.021523489
226	0x3e13f170	0.1444757
227	0x3d3995b6	0.04530879
228	0x3e864402	0.2622376
229	0x3ccd05d6	0.025027197
230	0x3dd63fd0	0.1046139
231	0xbd5c2fbc	-0.05375646
232	0x3d547b2d	0.051875282
233	0x3e1bbdcb	0.15209119
234	0xbdfdc505	-0.12391094
235	0x3e3680a2	0.17822507
236	0xbdff8ea6	-0.1247838
237	0xbcae3131	-0.02126369
238	0x3dbc3d0c	0.09191331
239	0xbc02a9a8	-0.0079750195
240	0xbd32bf85	-0.04363968
241	0xbc9b17b4	-0.018932201
242	0x3decf0e1	0.115693815
243	0xbd58e55e	-0.052953117
244	0xbe27f627	-0.16402493
245	0x3ba2058b	0.0049445084
246	0x3c94e5da	0.018176008
247	0x3e1624a7	0.1466242
248	0x3bf9ab67	0.0076193097
249	0x3db6d55b	0.08927413
250	0x3cb84ef8	0.022498593
251	0x3dfb8923	0.12282016
252	0xbcc83b40	-0.024442315
253	0x3cd441b8	0.025910243
254	0xbd079421	-0.03310025
255	0xbe017f65	-0.12646253

fc3.weight f4 [128, 256]
0	0xbcfe1269	-0.031014638
1	0xbe0cff53	-0.13769273
2	0xbee0b063	-0.43884572
3	0x3e76d72e	0.24105522
4	0xbc1ea57e	-0.009683011
5	0xbccdfac5	-0.02514399
6	0x3d4096a6	0.04701867
7	0x3ebbb5af	0.3666205
8	0xbf002e91	-0.50071055
9	0x3cbc79a3	0.02300722
10	0xbd12e767	-0.035865214
11	0x3e11f15d	0.14252229
12	0xbc98d1e3	-0.01865477
13	0x3ec983dc	0.39358413
14	0x3c249468	0.010045148
15	0xbd4945bd	-0.049138773
16	0x3e8f4bda	0.27987558
17	0x3fad6138	1.3545294
18	0xbe3fde90	-0.18737245
19	0x3a59d21e	0.0008309203
20	0xbd2f19bf	-0.042749163
21	0xbeddef09	-0.43346432
22	0xbeb9f5e7	-0.3632042
23	0x3ba7a340	0.0051158965
24	0x3cc51534	0.024057962
25	0xbc4b0f1a	-0.012393737
26	0x3d373de3	0.044736754
27	0xbeeb7ff5	-0.4599606
28	0x3e8566c7	0.26054975
29	0xbcec326a	-0.028832633
30	0xbeac25c0	-0.3362255
31	0xbf31ece8	-0.69502115
32	0xbe8a0679	-0.26958063
33	0x3d883abd	0.066518284
34	0xbeaeea91	-0.34163335
35	0xbd57cf4d	-0.05268793
36	0x3eed6931	0.46369317
37	0xbf469d84	-0.775841
38	0x3c5367bf	0.012903153
39	0x3cae713b	0.021294227
40	0x3e8831c3	0.26600465
41	0x3e921afb	0.2853621
42	0xbf2c4748	-0.67296267
43	0x3e3b6a59	0.18302287
44	0xbccb2814	-0.024799384
45	0xbc7facea	-0.015605191
46	0xbe0b41dd	-0.13599344
47	0xbec6586c	-0.38739336
48	0xbd8163d8	-0.06317872
49	0x3e2cbc21	0.1686864
50	0x3ea3d7ae	0.32000488
51	0xbe666471	-0.22499253
52	0xbf52d65d	-0.8235834
53	0xbb8eaa18	-0.004353773
54	0x3e798bc2	0.2436972
55	0x3d8f383b	0.06993147
56	0xbd064dd4	-0.032789066
57	0xbdbadb14	-0.09123817
58	0xbf4de8cd	-0.8043335
59	0x3ce56f60	0.02800721
60	0xbc9386c8	-0.018008605
61	0xbe30aacb	-0.17252652
62	0xbeac6f53	-0.33678684
63	0xbe3e092e	-0.1855819
64	0xbe100454	-0.14064151
65	0x3ed82776	0.42217606
66	0xbebb369c	-0.365651
67	0xbccdbb71	-0.025113793
68	0xbe299b2d	-0.16563101
69	0xc01c8d9d	-2.4461434
70	0x3c9e80c6	0.019348513
71	0x3d1e0e80	0.038588047
72	0xbe188d28	-0.14897597
73	0xbe4dfc4c	-0.20115775
74	0xbe5542a3	-0.20826201
75	0xbef9c312	-0.4878164
76	0xbc2238ed	-0.0099012675
77	0xbe89ad21	-0.268899
78	0x3cbe0922	0.023197714
79	0xbd9eafa7	-0.07748347
80	0xbecd520d	-0.40101662
81	0xbeb83615	-0.3597876
82	0xbbe89f1e	-0.0070990464
83	0xc00c8115	-2.1953785
84	0xbd498ed5	-0.04920848
85	0xbcf6a6d4	-0.030108847
86	0xbe6fc809	-0.23416151
87	0xbe907f90	-0.28222322
88	0x3cef4d1d	0.029211575
89	0x3f00e007	0.5034184
90	0x3f027e42	0.50973904
91	0x3caa59c1	0.020794751
92	0xbf4ca706	-0.7994236
93	0xbd81aff0	-0.063323855
94	0xbe0f6d22	-0.14006475
95	0xbe8c5b97	-0.27413628
96	0xbd3f7904	-0.04674627
97	0xbf72ad20	-0.9479542
98	0xbe8c1862	-0.27362353
99	0xbe4f7629	-0.20259918
100	0x3f2b4a83	0.6691057
101	0xbe757506	-0.23970422
102	0x3e76e260	0.24109793
103	0xbeae1fd0	-0.34008646
104	0x3e46723f	0.19379519
105	0x3bd23463	0.0064149364
106	0xbc5ec2d4	-0.013596255
107	0x3ed2832a	0.41115695
108	0xbf4ccb3e	-0.7999762
109	0x3c14d706	0.009084469
110	0xbe45e5c7	-0.19325934
111	0xbdefab82	-0.117026344
112	0xbef798fe	-0.4835891
113	0xbeefa195	-0.46802965
114	0xbfb6c599	-1.4279052
115	0x3e94951e	0.29020017
116	0xbd3ae9c9	-0.04563311
117	0xbf52a75d	-0.82286626
118	0xc01c991e	-2.4468455
119	0xc09726e7	-4.723499
120	0x3cb4a04e	0.022049095
121	0xbf0b09f5	-0.5431207
122	0x3c74b42f	0.014935537
123	0xbeee4912	-0.46540123
124	0xbee307f8	-0.44342017
125	0xbb9effb7	-0.004852261
126	0x3ea86a0c	0.32893407
127	0xbeafe92a	-0.34357578
128	0xbd48678f	-0.048926886
129	0xbd506da5	-0.050885815
130	0x3c4ae2eb	0.012383203
131	0x3e7b09d2	0.24515465
132	0xbe9a7d9f	-0.30173966
133	0xbe0aeb37	-0.1356629
134	0x3d174032	0.036926456
135	0xbe804378	-0.25051475
136	0xbe88fc2f	-0.267549
137	0x3bfa6c8f	0.0076423357
138	0xbe90f95d	-0.2831525
139	0x3cb65208	0.022255912
140	0xbca182fb	-0.019715777
141	0xbd0aba1f	-0.033868905
142	0xbd50d9bc	-0.050988898
143	0xbe344acf	-0.17606662
144	0x3f2539b2	0.6454116
145	0xbec1565f	-0.37761208
146	0x3bc8044f	0.0061040292
147	0xbd88f47b	-0.06687256
148	0x3dde58ee	0.10856806
149	0x3b1cb9f0	0.0023914538
150	0x3e028be7	0.12748681
151	0x3f0225e8	0.5083909
152	0xbecbc901	-0.3980179
153	0xbe9f2f1f	-0.31090638
154	0xbd47e3ac	-0.04880111
155	0x3e787c39	0.24266137
156	0xbe801b16	-0.25020665
157	0xbe8d4493	-0.2759138
158	0x3e7ef7d0	0.2489922
159	0xbf528322	-0.8223134
160	0x3b9f23df	0.004856571
161	0x3e12b402	0.1432648
162	0xbda9e893	-0.08296313
163	0xbe3634e5	-0.17793615
164	0x3e4bb8f3	0.19894771
165	0xbc927ef2	-0.017882798
166	0x3e85f569	0.26163796
167	0xbe61e377	-0.22059427
168	0xbcc88b68	-0.024480537
169	0xbe99cda1	-0.30039695
170	0xbf849cb8	-1.0360327
171	0xbc8274ec	-0.015924893
172	0xbd5e0675	-0.054205377
173	0xbfc1e8f7	-1.514922
174	0xbeeec0e1	-0.4663153
175	0xbd01e68a	-0.031714
176	0xbb5dd669	-0.0033849722
177	0xbee29e7a	-0.44261533
178	0xbe0bcd0c	-0.13652438
179	0xbd8823c8	-0.0664745
180	0xbe25332a	-0.16132799
181	0xbbbc99ac	-0.005755624
182	0xbda61307	-0.08109098
183	0x3e590cdf	0.21196316
184	0xbf10530b	-0.56376714
185	0xbee3853f	-0.44437596
186	0xbca2b03d	-0.019859428
187	0xbd6a2674	-0.057165578
188	0x3e7237af	0.23654054
189	0x3e231fe5	0.15930136
190	0xbf2340c9	-0.6377073
191	0x3be47273	0.006971651
192	0x3f5f824f	0.8730821
193	0xbea59908	-0.32343316
194	0x3e830d0b	0.25595888
195	0xbf47d7be	-0.7806357
196	0x3eb116a7	0.34587595
197	0xbeb923fc	-0.36160266
198	0x3d5e5bb4	0.054286674
199	0x3b240afa	0.0025030957
200	0xbbcfa92a	-0.0063373046
201	0x3c6ee068	0.01457987
202	0xbe6cd59e	-0.23128363
203	0x3f986644	1.1906209
204	0xbcf2361f	-0.029566823
205	0x3e87bc0e	0.26510662
206	0x3cebd601	0.028788568
207	0xbfade920	-1.3586769
208	0xbecd7500	-0.40128326
209	0xbdb11f3e	-0.08648537
210	0xc038dbe2	-2.8884206
211	0x3c307051	0.010768966
212	0xbfd0c4ae	-1.6310022
213	0xbe2b3c04	-0.16722113
214	0xbcb3c2d2	-0.021943484
215	0xbf098a76	-0.537269
216	0x3efe9eee	0.4973063
217	0x3d911393	0.070838116
218	0xbee71f75	-0.45141187
219	0x3d8dca70	0.069233775
220	0x3c3bb70b	0.011457215
221	0xbd652b87	-0.055949714
222	0xbec4353f	-0.38321874
223	0x3eb4b7a6	0.35296363
224	0x3d5bfc23	0.053707253
225	0xbd78403b	-0.06060813
226	0xbe1703d3	-0.14747553
227	0xc086bc08	-4.210453
228	0x3e977600	0.29582214
229	0xbeb6ec26	-0.35727042
230	0xbecd0f52	-0.4005075
231	0xbca48e08	-0.020087257
232	0x3e512476	0.20424065
233	0xbc23f81f	-0.010007887
234	0xbed9417e	-0.4243278
235	0x3ebab9d6	0.36469907
236	0x3ccd6171	0.025070878
237	0x3b94566a	0.004526903
238	0xbf1c5fb3	-0.61083525
239	0xbe9cd6bb	-0.30632576
240	0x3d433932	0.047661968
241	0xbfa3ca2f	-1.2796077
242	0xbed18bf7	-0.40927097
243	0xbb984e84	-0.0046480317
244	0xbed6f7fc	-0.41986072
245	0xbeeb92e8	-0.46010518
246	0xbe9ea5d8	-0.30985904
247	0x3e8bb86e	0.27289146
248	0x3d342340	0.04397893
249	0xbf2e76ca	-0.6815001
250	0xbea3d63d	-0.31999388
251	0x3e861414	0.26187193
252	0x3ed37b22	0.4130488
253	0x3d525f04	0.051360145
254	0x3cea88be	0.028629657
255	0x3e851b7f	0.2599754

fc3.bias f4 [128]
0	0x3e0848fc	0.13309091
1	0x3e53707e	0.20648381
2	0xbd917fe8	-0.07104474
3	0x3d95f408	0.07321936
4	0xbd2568cd	-0.04038315
5	0xbd89bba1	-0.067252405
6	0xbd3b2c66	-0.04569664
7	0xbcb94af4	-0.022618748
8	0x3e2073ec	0.1566922
9	0x3ed6f83b	0.4198626
10	0x3e73e551	0.23817946
11	0x3d6aa898	0.05728969
12	0x3c245ad5	0.010031422
13	0x3e54b9f0	0.20774055
14	0xbd9fa636	-0.07795374
15	0xbd723162	-0.059129126
16	0x3e2d06af	0.16897081
17	0x3e6809f8	0.22660053
18	0xbb1403f8	-0.0022585373
19	0x3ea8c470	0.3296237
20	0xbd15d9d3	-0.036584686
21	0xbd328858	-0.04358706
22	0x3c888010	0.016662627
23	0x3d74ec04	0.059795395
24	0x3dc41a97	0.09575384
25	0xbcc04b08	-0.023473278
26	0x3d892087	0.06695657
27	0x3e6d1adb	0.23154776
28	0x3e743f95	0.2385238
29	0x3ee683f5	0.4502255
30	0x3e255037	0.16143881
31	0x3d98fcd7	0.074701004
32	0x3e2e8055	0.17041142
33	0x3d8591ad	0.06521926
34	0xbc3f1cfa	-0.011664623
35	0x3dfc444b	0.12317713
36	0x3e5f5376	0.21809182
37	0x3d440b60	0.04786241
38	0x3e234ddf	0.15947674
39	0xbcd3f176	-0.025871973
40	0x3e5a8847	0.21341048
41	0xbd5ffaaa	-0.05468241
42	0xbd25452b	-0.040349167
43	0x3a7300a6	0.0009269811
44	0xbd3a5882	-0.045494564
45	0x3d2d24c3	0.042271387
46	0x3e6cd7a3	0.23129134
47	0xbd2dafb1	-0.04240388
48	0xbcec7484	-0.028864153
49	0x3d1aaa3b	0.03776
50	0x3ca10f7f	0.01966071
51	0xbd229eaf	-0.039702114
52	0xbb2e7689	-0.0026620945
53	0x3c1c42f0	0.0095374435
54	0xbd468f62	-0.048476584
55	0xbd8202af	-0.06348168
56	0x3e876699	0.26445463
57	0x3d14c47d	0.0363202
58	0x3eb9b498	0.36270595
59	0x3e2cb170	0.16864562
60	0x3dbb39e7	0.09141903
61	0xbdb72503	-0.08942606
62	0x3d57ae15	0.052656252
63	0x3e726280	0.23670387
64	0x3b19b613	0.0023454472
65	0x3d9ee962	0.07759358
66	0xbcfdc48d	-0.030977512
67	0xbc865035	-0.016395668
68	0x3e85aa98	0.26106715
69	0xbcee2491	-0.02907017
70	0x3e476bc3	0.19474702
71	0xbda4d71e	-0.08048843
72	0x3e089b07	0.13340388
73	0xbcac10ca	-0.0210041
74	0xbd1cc079	-0.038269494
75	0x3ebeabca	0.3724044
76	0xbe665ad7	-0.2249559
77	0x3de96b3c	0.113974065
78	0x3e799504	0.24373251
79	0x3c066773	0.008203375
80	0xbd27fd9f	-0.041013356
81	0x3e932677	0.28740284
82	0x3e99aa90	0.3001294
83	0xbccafc4e	-0.024778511
84	0x3ecb2d73	0.39683113
85	0x3d3aa07e	0.045563214
86	0x3ded4c02	0.11586763
87	0x3eca74fb	0.39542374
88	0x3e24f929	0.16110672
89	0xbd696f00	-0.056990623
90	0xbd8a3dbe	-0.06750058
91	0xbd182e24	-0.037153378
92	0x3bf4201d	0.0074501173
93	0xbd47a1c9	-0.048738275
94	0x3e826269	0.25465706
95	0x3c894e65	0.016761014
96	0xbcc8e315	-0.024522344
97	0x3dfdeaee	0.12398325
98	0x3e710c3a	0.2353982
99	0xbdc611ae	-0.09671341
100	0xbcc95fc0	-0.02458179
101	0x3c13ca99	0.009020471
102	0x3e3242fa	0.17408362
103	0x3b94a67e	0.004536449
104	0x3e67b7f9	0.22628774
105	0xbd541bb4	-0.051784232
106	0x3d8ee68a	0.069775656
107	0x3d19adca	0.037519254
108	0x3e4c2f2d	0.19939871
109	0xbbc8a2b8	-0.006122913
110	0x3d1bfcb0	0.03808278
111	0xba633faa	-0.00086688495
112	0x3c68730e	0.014187587
113	0xbdac2885	-0.08406166
114	0x3c5bd2fe	0.013417004
115	0x3cd90968	0.026493743
116	0x3e630830	0.22171092
117	0x3d2ea1ed	0.042634893
118	0x3b27bc84	0.0025594542
119	0x3e4e1df1	0.20128609
120	0x3d1f404a	0.03887967
121	0x3e54496a	0.2073113
122	0x3bde2fcf	0.0067806016
123	0xbd584fa1	-0.052810315
124	0x3d53f5e9	0.05174819
125	0xbd912508	-0.07087141
126	0x3d28dc8e	0.041225962
127	0x3d2c0f8f	0.042007025

fc4.weight f4 [7, 128]
0	0xbf82a9e9	-1.0208102
1	0xbf00ac0b	-0.50262517
2	0x3de210b8	0.11038345
3	0x3f2ddc06	0.67913854
4	0x3d8686a6	0.06568651
5	0x3d985cbf	0.07439565
6	0x3d459fb2	0.048248
7	0xbd9ced56	-0.07662456
8	0xbf5d7b42	-0.865162
9	0xbf5edefd	-0.87059003
10	0xbf4ba340	-0.79545975
11	0x3ec378a9	0.38177994
12	0x3d9800d3	0.07422032
13	0xbf46763d	-0.7752417
14	0x3d81b4fe	0.0633335
15	0xbd5a93a0	-0.053363442
16	0xbf2e60f2	-0.68116677
17	0xbf4387ad	-0.763789
18	0xbd50901f	-0.050918695
19	0xbf5a2dad	-0.85225946
20	0xbd51d710	-0.05123049
21	0x3ed3befe	0.41356653
22	0x3ec3a0aa	0.38208514
23	0x3ee8caa1	0.45467094
24	0x3eea74ef	0.45792338
25	0xbd594ffd	-0.0530548
26	0x3eecaee0	0.4622717
27	0xbf7e509f	-0.9934177
28	0xc012a6be	-2.2914271
29	0xbf9e97c8	-1.239007
30	0xbf354ed8	-0.7082343
31	0x3ec60052	0.3867212
32	0xbfd3d9ba	-1.655082
33	0x3ee9a52b	0.45633826
34	0x3d865878	0.06559843
35	0x3efb2e63	0.49058828
36	0xbfae838d	-1.3633896
37	0xbd75043a	-0.059818484
38	0xbf146cec	-0.579787
39	0x3d739d20	0.059476018
40	0xbec237a1	-0.37933066
41	0xbbaed0db	-0.005334956
42	0x3cbec5fa	0.023287762
43	0x3ee47a7b	0.44624695
44	0x3d967019	0.073456
45	0xbd5f2eb1	-0.054487888
46	0xbf02a090	-0.5102625
47	0x3ec50a3e	0.38484377
48	0x3cb887f9	0.022525774
49	0x3eec639a	0.4616974
50	0x3eda06e2	0.42583376
51	0x3d9fe5bd	0.07807491
52	0x3ee77c88	0.45212197
53	0x3ee75fd9	0.45190313
54	0x3f06f16b	0.52712125
55	0xbd9e8187	-0.07739549
56	0xbf0fe704	-0.56211877
57	0x3eef1045	0.466921
58	0xbf5881dc	-0.8457315
59	0xbf8600a8	-1.046895
60	0x3f195662	0.59897435
61	0x3d0dc881	0.034615044
62	0x3f3587a5	0.709101
63	0xbf02f4dd	-0.5115488
64	0x3f3cd846	0.7376751
65	0x3ebdc5ba	0.37064916
66	0x3f025d1b	0.5092332
67	0x3bfcda7b	0.0077164746
68	0xbf0241f1	-0.5088187
69	0xbd1f364c	-0.03887014
70	0xbf3b4cf9	-0.73164326
71	0x3ddcbdb8	0.107783735
72	0x3f346745	0.70470077
73	0x3f0aef9e	0.54271877
74	0x3c6a1a70	0.01428853
75	0xbf5a11e5	-0.85183555
76	0x3de2badd	0.110707976
77	0xbf0185b0	-0.50594616
78	0xbf169fdd	-0.5883768
79	0x3f7f633f	0.9976081
80	0x3ee23509	0.44181088
81	0xbfe94843	-1.8225178
82	0xbffac826	-1.959233
83	0x3ed72030	0.42016745
84	0xbf428891	-0.75989634
85	0x3f07da20	0.5306721
86	0xbf2edd56	-0.6830648
87	0xbf69ef2c	-0.9138057
88	0xbf0070c9	-0.50172096
89	0xbcafb714	-0.021449603
90	0x3f3ec160	0.74513817
91	0xbd8995e8	-0.067180455
92	0xbd9cdbfd	-0.07659147
93	0x3d83c465	0.06433944
94	0xbf79fa78	-0.9764781
95	0x3c468fca	0.012119243
96	0x3d238832	0.039924808
97	0xbfb1081e	-1.3830602
98	0xbf572916	-0.8404707
99	0x3d52e57d	0.05148839
100	0x3d812b17	0.06307047
101	0x3ed60ad8	0.41805148
102	0xc0118077	-2.2734659
103	0xbd5f0e2a	-0.054456867
104	0xbf6e30d2	-0.93043244
105	0xbda945c0	-0.08265257
106	0xbf1deb35	-0.6168702
107	0x3ec279f9	0.37983683
108	0xbf45ef81	-0.7731858
109	0x3f5c2653	0.8599598
110	0x3d0fa41f	0.035068627
111	0xbd16d2a6	-0.036821984
112	0x3ee5656e	0.44803947
113	0x3ec6bbc8	0.3881514
114	0xbd16c624	-0.036810055
115	0x3f0d7df7	0.5527033
116	0xbfc8c1fd	-1.56842
117	0x3ee28777	0.44243976
118	0x3f09da4e	0.5384873
119	0xbeffd20a	-0.49964935
120	0x3ec553e2	0.3854056
121	0xbf0777ac	-0.5291698
122	0xbd83237f	-0.06403255
123	0x3f6fa10d	0.9360512
124	0x3f32d0ad	0.69849664
125	0x3c04d6c5	0.008107846
126	0x3ef0c415	0.470246
127	0x3ee23421	0.44180396
128	0xbf7fd66a	-0.99936545
129	0xbee55075	-0.44787946
130	0xbd365dd8	-0.04452309
131	0x3eeeca43	0.46638688
132	0xbc1177fd	-0.008878705
133	0xbb59c6dc	-0.0033230102
134	0x3df8a67c	0.121411294
135	0x3d747fb2	0.059692092
136	0xbf589b31	-0.84611803
137	0xbf743fdf	-0.9540996
138	0xbf521d30	-0.82075787
139	0x3eefacb6	0.46811455
140	0xbcb166c4	-0.021655448
141	0xbf4a20f3	-0.78956527
142	0x3d158e9b	0.036512952
143	0x3d379230	0.04481715
144	0xbf2fccee	-0.6867207
145	0xbf4fa942	-0.8111764
146	0x3d2a7aa1	0.041620854
147	0xbf4e4060	-0.8056698
148	0x3db0cc0b	0.08632668
149	0x3f016654	0.50546765
150	0x3ea19504	0.31559002
151	0x3edfb7e6	0.4369499
152	0x3ecde2cd	0.40212098
153	0x3bd8c7f0	0.0066156313
154	0x3ed1b179	0.40955713
155	0xbf882fbe	-1.063957
156	0xc00e8f66	-2.2275023
157	0xbfb9dc61	-1.4520379
158	0xbf20ff7b	-0.6288983
159	0x3ea3e930	0.32013845
160	0xbfd449e8	-1.6585054
161	0x3efd85b4	0.4951607
162	0x3cf850fd	0.030312056
163	0x3f41cc29	0.7570215
164	0xbf92196a	-1.1414006
165	0x3d69d30f	0.057086047
166	0xbef5c649	-0.48002842
167	0xbdd322f2	-0.103094
168	0xbf079533	-0.52962035
169	0x3d7b5cde	0.061367862
170	0xbd4ac8f1	-0.04950804
171	0x3ed65cf5	0.41867796
172	0x3c811104	0.015755184
173	0x3cea1efd	0.02857923
174	0xbedda255	-0.43287912
175	0x3eca4bb1	0.39510873
176	0x39aeff1b	0.00033377935
177	0x3eb3652c	0.35038126
178	0x3ead034f	0.33791587
179	0x3d0790e3	0.03309716
180	0x3ef33ba2	0.47506434
181	0x3ec662db	0.38747296
182	0x3f123235	0.5710786
183	0xbcf098af	-0.02936968
184	0xbec8a239	-0.39186266
185	0x3ef2f696	0.47453755
186	0xbf56c096	-0.8388761
187	0xbf8184ff	-1.0118712
188	0x3f2625b4	0.6490128
189	0x3d377a7b	0.04479454
190	0x3f3772e5	0.7165969
191	0xbef266c3	-0.47344026
192	0x3f39a47a	0.72516596
193	0x3eef91be	0.4679088
194	0x3eefeaf9	0.46858957
195	0x3ca82f79	0.02053045
196	0xbf0e415e	-0.5556849
197	0x3d0739ca	0.033014096
198	0xbf3ab5d0	-0.72933674
199	0x3d2e5297	0.042559233
200	0x3f35f751	0.710805
201	0x3f197cfa	0.59956324
202	0x3dac7da7	0.08422404
203	0xbf5b66d1	-0.8570376
204	0x3e3fa8a9	0.18716682
205	0xbe494fda	-0.19659367
206	0xbf3dc50b	-0.7412879
207	0x3f8754cf	1.0572757
208	0x3eb162bb	0.34645638
209	0xbfd30ed9	-1.6488906
210	0xc000d601	-2.0130618
211	0x3ef037b8	0.4691751
212	0xbf3f44f0	-0.74714565
213	0x3f044885	0.51673156
214	0xbf203b6d	-0.62590677
215	0xbf69f9f8	-0.9139705
216	0xbf5505c8	-0.83211946
217	0x3da8bee9	0.08239538
218	0x3f1af2c2	0.6052667
219	0xbd987701	-0.07444573
220	0xbd9cdec1	-0.076596744
221	0x3d963d8c	0.07335958
222	0xbf838a47	-1.0276574
223	0x3bf73fa7	0.0075454297
224	0xbb31e9e4	-0.0027147466
225	0xbfa307d9	-1.273677
226	0xbf5420c5	-0.828625
227	0x3cd0615a	0.025437046
228	0xbd64983e	-0.055809252
229	0x3efefa57	0.4980037
230	0xc0259170	-2.5870018
231	0xbda9b8c0	-0.082871914
232	0xbf466a08	-0.7750554
233	0xbcf19a02	-0.029492382
234	0xbf1eb42b	-0.61993665
235	0x3efcffe7	0.49413988
236	0xbf715f2a	-0.94285834
237	0x3f64c52e	0.8936337
238	0x3d8472b3	0.0646719
239	0x3affb75c	0.0019509601
240	0x3eab337f	0.33437726
241	0x3f094ed9	0.53635937
242	0x3c2bf4ce	0.010495378
243	0x3f0fe94b	0.5621535
244	0xbfc06ac5	-1.5032583
245	0x3e990402	0.2988587
246	0x3f262373	0.6489784
247	0xbf4720e1	-0.77784544
248	0x3ef70979	0.48249415
249	0xbf005aed	-0.5013874
250	0xbc00fc72	-0.007872688
251	0x3f542ac4	0.82877755
252	0x3f1da0b1	0.6157332
253	0xbcc4571f	-0.023967324
254	0x3eee0742	0.46489912
255	0x3eeec9e9	0.4663842

fc4.bias f4 [7]
0	0xbdd5c9b8	-0.104388654
1	0xbe3e7f61	-0.18603279
2	0xbccacda6	-0.024756264
3	0xbe480fc2	-0.19537261
4	0xbcf093df	-0.029367385
5	0x3e024c77	0.12724482
6	0xbdbd58f6	-0.092454836
