models/lateral_stage3_seed1000_final.pth (torch, 412481 bytes, 8 tensors)

fc1.weight f4 [256, 9]
000000 ab f6 f8 3d 5f f8 8a 3d 65 fb a0 3e 5e 74 1e bd
       0.12156423 0.06785654 0.314418 -0.038685195
000010 3d 25 18 be be bc 9f be 28 1c 21 bd fc ef b7 bd
       -0.14857955 -0.31198686 -0.039333493 -0.0898132
000020 82 ee 63 be e8 8c 88 be b3 33 f5 3d c6 99 19 bd
       -0.22258952 -0.26670003 0.119727515 -0.037500165
000030 0f 73 65 3e a9 dc 89 3e 9f 24 fc 3d 87 29 97 be
       0.22407173 0.26926163 0.123116724 -0.2952387
000040 14 46 f8 3d cc fe 98 be f9 c1 bf bf 4e d0 37 bf
       0.12122741 -0.29881895 -1.4981071 -0.7180222
000050 4c 3d 23 be 69 92 c7 3e d4 b7 ca bc 9e 10 c7 be
       -0.15941352 0.3897889 -0.02474586 -0.38879865
000060 40 32 94 bd e8 95 1b bd bf 75 49 3e 36 e2 8e be
       -0.07236147 -0.03798476 0.19673823 -0.2790696
000070 15 34 92 3d 8e 4d a9 3e bf 6a 68 bc d1 ea 39 3e
       0.0713884 0.33066982 -0.0141856065 0.18155982
000080 8f 6d cb be f1 8b a3 3e bd ab 80 3e f6 00 95 3e
       -0.39732024 0.31942704 0.25131026 0.29102296
000090 49 1c 41 40 bf 74 0e bf 0f 23 99 bc 1d a4 9d be
       3.0173514 -0.5564689 -0.018693475 -0.3078927
0000a0 cc 0c ba 3d b1 bc 6d 3c 64 d9 89 bd 07 93 a3 3e
       0.09084472 0.01451032 -0.06730917 0.3194811
0000b0 98 f1 67 bd b7 3b de bf cc 5d f7 3d ce 18 34 bd
       -0.056626886 -1.7361974 0.12078437 -0.043968968
0000c0 83 a5 af 3d 2e f3 b6 bd 83 11 f4 be 3a d8 40 3e
       0.08576491 -0.089331016 -0.4766961 0.18832484
0000d0 23 cc 86 3e d0 1f 48 3e 1e 2d 59 c0 98 4e cf be
       0.2632762 0.19543386 -3.3933787 -0.4048965
0000e0 1f 9d 32 bd 9e 76 46 bd ea 19 d0 be 06 e9 a9 be
       -0.043606874 -0.048452966 -0.4064477 -0.33185595
0000f0 60 cf 64 3d 0e 1c 05 be d3 af 15 3d ea 42 6d c0
       0.05586183 -0.12998983 0.036544632 -3.707209
000100 04 ce 16 be f7 d5 51 3b df 93 9c 3d 3e cd d3 be
       -0.14727026 0.0032018402 0.07645392 -0.41367525
000110 ef d6 36 bf 80 ac 37 3c 30 4e 7f be 0c f2 89 be
       -0.7142171 0.011210561 -0.2493217 -0.2694248
000120 b9 0a 5b 40 ac 78 39 be 96 96 11 3f d4 19 29 be
       3.4225295 -0.18112439 0.568704 -0.16513759
000130 7e 7c 30 3d a3 bb 3b 3e 10 4a dd bd 90 65 c9 3d
       0.043087475 0.18333296 -0.10805142 0.09833825
000140 98 cb 8b 3d 5b 98 07 40 4e bc 11 bf e4 e4 71 3e
       0.06825942 2.118674 -0.56927955 0.23622471
000150 59 0a 8c be 81 4f 46 3e 90 77 af bd b2 aa 6c 3e
       -0.27351645 0.19366266 -0.085677266 0.2311199
000160 ce c8 5d 3e f8 1c 04 bf 0e a7 05 c0 64 18 82 bf
       0.21658632 -0.516067 -2.0883212 -1.0163693
000170 dc 2d 18 bf 34 33 18 bf 91 af 85 be 9d a9 f4 bd
       -0.59444976 -0.5945313 -0.2611051 -0.11946414
000180 cc df b7 3d e2 59 29 3e f8 50 3e be dc 91 b0 3f
       0.08978233 0.16538194 -0.18585575 1.3794513
000190 c4 b3 8f bf 62 1c 40 3e 61 7f 6a be 37 77 ac 3d
       -1.1226735 0.18760827 -0.22900154 0.08421176
0001a0 41 5d 56 3e 58 c4 7c 3d 40 ed a0 3b 65 af f8 be
       0.20934011 0.061710685 0.004911095 -0.48571315
0001b0 cf bb 05 3f df 13 3a bd 0c 7d 47 be 7c e6 5f 3e
       0.522397 -0.045429107 -0.19481295 0.21865267
0001c0 c1 16 e1 be f6 75 e6 3e 86 fc 42 be 50 fa a0 3d
       -0.43962672 0.45011872 -0.19041643 0.07860243
0001d0 95 82 78 3c 72 55 ff be 04 31 9a bf 63 44 df 3d
       0.015167852 -0.49869877 -1.2046208 0.109017156
0001e0 93 65 37 bf 21 0a 4a 3e f1 77 1b 3e dc c7 9a be
       -0.71639365 0.19730426 0.15182473 -0.30230606
0001f0 8f 2c 9d be 42 7f ff bd fa 18 69 bf b3 0f 71 be
       -0.30698058 -0.124754444 -0.91053736 -0.23541145
000200 5f af 47 be b1 e9 17 bd 8e 56 9f be 82 ee d7 be
       -0.19500493 -0.0370881 -0.31120723 -0.42174155
000210 70 58 1e be 88 40 1f bd f2 06 ae 3c 56 c3 1c c0
       -0.15463424 -0.0388799 0.021243546 -2.4494224
000220 78 31 84 3e 41 b2 08 bf 50 6a 86 3d d4 77 84 be
       0.25818992 -0.53396994 0.06563246 -0.25872672
000230 fb 1a ae 3e 82 1b 97 be 7a ea 5e 3e 89 bc 92 3d
       0.3400496 -0.29513174 0.21769133 0.071648665
000240 9e c7 5d 40 32 c4 bf 3e 44 2b a1 3e c1 80 54 bd
       3.4653087 0.37454373 0.31478322 -0.0518806
000250 8c 57 a8 3d 3c 4a aa 3d c0 e1 8b 3d 82 37 41 3e
       0.08219823 0.0831494 0.06830168 0.18868831
000260 6a 15 ea 3d 42 1f 93 c0 86 9e c1 3e 3a c4 30 be
       0.11429866 -4.5975657 0.37816256 -0.17262354
000270 5f b4 ac 3e 79 28 e8 bd cf cb ec 3e 6a 69 9a be
       0.33731362 -0.113358445 0.46249244 -0.3015855
000280 77 11 88 be 5b b4 62 3c 95 d5 4d 40 de b1 fc be
       -0.26575825 0.013836945 3.216161 -0.49354452
000290 11 72 80 3e 23 17 0c bf ce 72 5b 3e c6 22 36 3b
       0.25087026 -0.54722804 0.21430513 0.0027791723
0002a0 55 c6 8b 3e 90 4c f9 3c 6a ce 00 be 78 c9 2b 40
       0.27299753 0.030432016 -0.1257874 2.6841717
0002b0 b9 8c 81 be 24 bc c5 bc 9a 1b f8 38 02 70 1a 38
       -0.25302675 -0.024137564 0.00011830703 3.6820777e-05
0002c0 cb a1 ab be 00 e9 55 be 38 33 25 3e 62 bf 5c 3d
       -0.33521876 -0.20889664 0.1613282 0.053893454
0002d0 eb 67 b6 40 d5 59 67 3e 17 03 99 3d 96 de 8f 3e
       5.7001853 0.22592862 0.074712925 0.28099507
0002e0 7c 2b db 3e fd bc b3 3e e8 4e 08 3d 08 63 17 be
       0.42806613 0.35105124 0.033278376 -0.14783871
0002f0 67 71 dc 3e 96 a3 c6 c0 f9 83 d3 3d a9 30 ee 3e
       0.4305527 -6.207469 0.10327906 0.465215
000300 68 7f d6 bd b5 5e da 3c 7a e5 75 3d c3 6a 88 3e
       -0.104735196 0.026656488 0.0600333 0.26643953
000310 e2 a9 7e 3e 9b d6 86 bc bd b5 81 3f d4 d6 a9 be
       0.24869493 -0.016459754 1.0133587 -0.33171713
000320 e8 83 80 bf ad f0 92 3c ad 39 2a be d5 0f 9f 3e
       -1.0040255 0.017937029 -0.16623564 0.31066766
000330 a2 1e 08 3e e0 58 1a be 82 b0 d2 bd 95 f3 81 40
       0.13292935 -0.15072966 -0.102875724 4.060984
000340 3e 20 9f 3e e3 f2 84 bd 93 c6 61 be 1e 4b 31 3e
       0.31079286 -0.064916395 -0.22048406 0.17313811
000350 37 30 97 3e b0 3e fe 3c d8 b8 1e be 1d 56 6f 3d
       0.29528973 0.031035751 -0.155002 0.058431733
000360 0a 7f 9b c0 3d 65 dd 3c dd 08 f2 3d fb 0e 01 3f
       -4.8592577 0.027025813 0.11818097 0.50413483
000370 26 51 ac 3d d3 ca ad be c0 5b e3 3c 00 9c 06 3d
       0.08413915 -0.33943805 0.02775371 0.032863617
000380 c6 c4 d3 bc 78 f8 38 c0 b8 32 31 bf 3c f7 b0 3d
       -0.025850665 -2.8901653 -0.69218016 0.08640906
000390 fc 38 84 3d b4 38 bd bd f0 1f 61 bd 80 bd 03 3b
       0.064561814 -0.09239331 -0.0549621 0.0020101964
0003a0 b2 4f 77 3e 7a b8 46 3e 30 ad 3b 3f 03 18 f2 3e
       0.24151495 0.1940631 0.7331114 0.47283944
0003b0 2d 0a 59 be 5c 38 c7 be 68 02 5b 3f 4f 9c b3 be
       -0.21195288 -0.38910186 0.85550547 -0.35080191
0003c0 14 7a a8 bd c8 0c 66 bd 4b 0e 57 be 5b 92 32 bf
       -0.082264096 -0.056164533 -0.21001546 -0.6975457
0003d0 f6 a8 38 bf bb 22 4d bf 42 3b 43 bd 84 8f 62 bc
       -0.72132814 -0.8013112 -0.047663935 -0.013828162
0003e0 96 fe 23 3f eb da 72 be aa 05 9d be 18 80 8b bc
       0.6406034 -0.23716323 -0.30668384 -0.017028853
0003f0 b8 2e 5d 40 5b e2 b5 be 4a a3 11 bd ea e0 8d 3f
       3.4559765 -0.35524258 -0.035556115 1.1084263

fc1.bias f4 [256]
000000 c9 1e c7 be ae 74 ed 3e 19 f6 d4 3e 54 53 16 bf
       -0.38890675 0.46378082 0.41594008 -0.587209
000010 ba 2d 89 3e 9f 45 00 bf c3 4f 28 3e 92 d4 8d 3e
       0.267927 -0.50106233 0.16436677 0.2770124
000020 85 ca c0 bc 20 d6 aa 3e 37 4b 90 3e b7 05 22 be
       -0.023534069 0.3336649 0.28182384 -0.15822493
000030 77 76 c3 be 24 7c a8 3b 4b d1 9c be cb 68 9e be
       -0.3817632 0.005141752 -0.30628428 -0.30939326
000040 4e 27 12 bf 1d d1 77 3e c3 d3 2a 3e 11 6a bf 3d
       -0.57091224 0.24200864 0.16682343 0.093464024
000050 da 85 82 3d cf 1f 9f be cb 12 95 be fb a7 1a 3d
       0.063731864 -0.31078956 -0.291159 0.037757855
000060 be 12 2d 3e 4c 3e b6 3e 0f fe 81 3e 97 4d a3 be
       0.16901681 0.35594404 0.25389144 -0.31895134
000070 ef 23 5a 3e ec 4a 05 be c5 d7 13 3e e6 25 1a bf
       0.2130277 -0.13016862 0.14437778 -0.6021408
000080 61 59 2d be c1 a9 98 3e 97 f7 7b 3e 77 bf 13 bf
       -0.16928627 0.29817012 0.24606167 -0.5771403
000090 a4 d9 0f bd 25 8d b9 be 07 c7 a5 be 41 38 73 3e
       -0.035119668 -0.36240497 -0.32378408 0.23751928
0000a0 32 87 54 3e d4 44 8b 3e 90 fc 42 be 71 89 d2 3c
       0.20754698 0.2720095 -0.19041657 0.025700303
0000b0 94 1e 09 be a8 56 85 bd 6c fc 93 3e e9 2e b6 3e
       -0.13390571 -0.06510669 0.2890352 0.35582665
0000c0 74 b7 f7 bd 25 f8 9f bd 2d e9 36 3e fc cc ae 3e
       -0.12095538 -0.07811002 0.17862387 0.34140766
0000d0 39 a6 0b be 1c ef 28 be b1 ac 85 be f5 43 19 3e
       -0.13637628 -0.16497463 -0.26108316 0.1496733
0000e0 3d 0a 91 be 82 3d 89 3d 2b e8 bb be bb 57 f5 3e
       -0.28328124 0.06701185 -0.36700568 0.47918496
0000f0 fa 84 de 3e 28 0c c5 3e d7 39 68 bb 46 95 96 3d
       0.43460828 0.38485837 -0.0035434866 0.073526904
000100 52 39 e3 be bf 2b 29 be 6c 7d 62 3e 9f 99 9e be
       -0.4437967 -0.16520594 0.22118157 -0.3097658
000110 4e 59 35 3e 89 45 3f be 37 f4 42 3e b7 0f bf 3e
       0.17709848 -0.1867887 0.19038473 0.37316677
000120 06 fd 3b bf c3 25 cf be 0c 2f 7c be 64 9f 54 be
       -0.7343296 -0.40458497 -0.24627322 -0.20763928
000130 36 6b 27 be 6d 85 e9 be ce 08 a7 3c 5e d1 8e 3e
       -0.16349491 -0.45609608 0.02038994 0.2789411
000140 b2 53 31 be 93 9e 47 3e e0 f4 a0 3e 22 c2 c5 be
       -0.17317083 0.19494085 0.31436825 -0.38624674
000150 b1 ad ed be 59 a2 f2 3e f2 c5 8b 3e 3a d1 c3 bc
       -0.4642158 0.47389486 0.27299458 -0.023903478
000160 5c fe e8 be 96 0c ab be 89 f0 d3 be 5d 58 7b 3e
       -0.4550656 -0.3340804 -0.4139445 0.24545427
000170 04 b2 eb 3e 2c 93 b6 3d 94 bc b9 be 75 9a 8b be
       0.46034253 0.089147896 -0.36276686 -0.2726628
000180 f1 a2 2b 3e 4b be 7d be c7 a9 28 3e 65 1d dd be
       0.16761376 -0.24779622 0.16471015 -0.4318649
000190 67 3e 05 bd 69 3d d5 be 1f 9e 31 be f1 a4 b3 3e
       -0.032530215 -0.41648415 -0.17345475 0.35086778
0001a0 cb 76 4e be 41 c2 b8 be b9 d3 13 3e 47 12 4d be
       -0.20162503 -0.36085704 0.14436235 -0.20026504
0001b0 2d a5 42 be 6f 2e 38 3e d9 b4 3a 3d 06 ca 10 3f
       -0.19008322 0.17986463 0.045582626 0.56558263
0001c0 ff d9 7e 3d 1e e3 42 be fb f9 cf be 25 c2 99 be
       0.062219616 -0.19031951 -0.40620407 -0.30030933
0001d0 de 02 3a 3e af fa fa 3e 59 56 ff bd c9 58 47 3e
       0.18165156 0.4901938 -0.124676414 0.19467463
0001e0 ef 73 3c 3e 45 ee c3 be 07 14 64 3e 93 d5 c4 be
       0.184036 -0.38267723 0.22273265 -0.38444194
0001f0 34 84 7e 3e ee 7b c9 3e 20 6f 66 bd de 7e 18 bf
       0.24855119 0.39352363 -0.05625832 -0.59568584
000200 d8 6b a7 bd 50 17 06 3e ab 95 42 bf db d4 ac be
       -0.081748664 0.1309483 -0.76009625 -0.33756146
000210 19 69 2e be cd f0 44 3d 1b 87 1d 3e b8 1e fe bc
       -0.17032279 0.048081208 0.1538357 -0.031020507
000220 88 35 e5 3e de e0 10 3e 90 54 b3 be 1d 53 a7 be
       0.44767404 0.1414828 -0.35025454 -0.32680598
000230 03 38 78 be b6 ac 9b be 4e cc e4 be 91 df 9a be
       -0.24240117 -0.30405205 -0.44687122 -0.30248693
000240 36 77 95 be 24 bb bd 3e 18 31 ac 3e 86 df 1f bf
       -0.29192513 0.3705684 0.33631206 -0.62450445
000250 6c 5b c3 3e 69 07 92 bc 82 a8 29 3e 6e b1 7e 3e
       0.38155687 -0.017825799 0.16568187 0.24872372
000260 9a 6e 5c 3d d9 3c 11 3e 18 40 15 bf 42 29 37 3f
       0.053816415 0.14183368 -0.58300924 0.7154733
000270 39 49 9f 3d 6b fd a9 3e 64 87 83 3e 57 86 80 be
       0.07777638 0.33201155 0.25689232 -0.25102493
000280 48 50 37 3e 89 9a 1f 3e 70 6a 42 3e 1a 99 42 bd
       0.17901719 0.15586294 0.18985915 -0.04750929
000290 4b 11 4d bf 8b 52 20 3d ba f9 9b 3e 67 fc b7 be
       -0.8010451 0.03914122 0.30463964 -0.35934755
0002a0 9e f0 b0 3e a1 37 b3 3d 27 6a 80 3e 3a ff bf be
       0.34558576 0.08750845 0.25080988 -0.3749941
0002b0 0f 2a d9 bd 67 a4 b3 3d 2b 20 94 be 9b cb c4 be
       -0.10603725 0.08771592 -0.28930792 -0.3843659
0002c0 26 8f 4c be 4b 6b bb be bd 88 4b 3e 89 06 8a bd
       -0.19976482 -0.36605296 0.1987638 -0.06739528
0002d0 05 90 a1 be e0 15 1c 3e 3e b9 16 3c af fc ef 3e
       -0.3155519 0.1524272 0.009199439 0.4687247
0002e0 07 7d 91 be 63 70 84 be 14 bc 02 3d d5 90 b1 3e
       -0.284157 -0.25866994 0.031917647 0.3468081
0002f0 0a 1f 16 bf fb 56 9a 3d 78 12 98 bd 78 dd 54 3d
       -0.5864111 0.075361215 -0.07425398 0.05196902
000300 08 ff 24 bf 10 d9 18 bf b3 cd d0 be a2 a3 dd 3d
       -0.64451647 -0.5970621 -0.40781936 0.10822226
000310 0a 54 a6 3e 3c 4f bb 3d e9 82 12 bf ad 61 af be
       0.32485992 0.09145972 -0.57231003 -0.34254208
000320 f5 b5 c6 bc b2 a7 82 3e cc 36 0b 3f 79 85 40 3e
       -0.024256686 0.25518566 0.5438049 0.18800916
000330 19 31 06 be ef 7b 8f 3d 37 a1 9b 3e 8a 43 da be
       -0.13104667 0.0700606 0.30396435 -0.42629653
000340 2c 8b be 3e 90 2c 50 be 16 50 95 3d a4 22 b7 be
       0.37215555 -0.20329499 0.07290666 -0.35768616
000350 61 45 a1 3e 28 c1 d2 be 8d 0d a1 be 0e ff 30 be
       0.31498244 -0.41162992 -0.3145565 -0.17284796
000360 24 59 c7 bd 2c 50 55 be d5 03 9b 3e f1 b8 85 be
       -0.09733799 -0.20831364 0.3027636 -0.26117662
000370 47 6e b0 be 6d bf 0e be c5 39 a9 be 5f 25 e2 be
       -0.34459135 -0.1394021 -0.33051887 -0.44169137
000380 c5 f7 dc be e9 14 54 bb c4 05 8a be 37 75 2d 3e
       -0.43157783 -0.0032361096 -0.26957524 0.16939245
000390 48 47 24 3f 86 a9 dd bc dc ee a2 3e 5a 95 a3 be
       0.64171267 -0.027058374 0.3182286 -0.31949884
0003a0 fa 15 06 bf 8c a6 1c be 6b 8a ab be bf 26 04 bd
       -0.52377284 -0.15297908 -0.33504042 -0.032263514
0003b0 3f 4a 07 3e d7 94 a5 3e ef 3f aa 3e e7 ed a6 3e
       0.13211916 0.32340118 0.33251902 0.3260338
0003c0 3e 3c 7f 3d 90 34 d6 be 03 37 8e bd 30 63 e0 3e
       0.06231331 -0.41836977 -0.069440864 0.43825674
0003d0 93 42 d1 be 66 92 14 3e ca eb b3 3d 41 eb 35 bd
       -0.40871105 0.14508972 0.087852076 -0.04441381
0003e0 57 5e a1 3e 99 3c bb 3e fa ab 01 bf fb 64 c1 3d
       0.31517288 0.3656967 -0.5065304 0.094430886
0003f0 d9 30 3a be e8 1a 91 3e e5 93 22 bd cc 5e e4 be
       -0.18182696 0.2834084 -0.039691824 -0.44603574

fc2.weight f4 [256, 256]
000000 b0 4e 66 3e 24 78 37 3c 8c e7 cb 3d 55 27 81 3e
       0.22490954 0.011198077 0.099562734 0.2522532
000010 c2 d3 a8 3e 03 db 50 3c 3c c3 86 bd 63 f9 98 3d
       0.32974058 0.012747529 -0.06580207 0.07469442
000020 fe d0 4d be 3e 78 ef bd 57 0c 3b 3e 51 d1 0c 3f
       -0.20099255 -0.11692856 0.18266426 0.5500689
000030 23 1a d1 3e ed 14 67 3e f9 30 43 bd 3e f9 0b 3e
       0.40840253 0.22566576 -0.047654126 0.13669297
000040 09 f4 2e bf 7b ee 9a bd fa 71 e9 be e6 49 ac 3e
       -0.6834112 -0.07565018 -0.4559477 0.3365013
000050 f1 b3 c2 3b fb a6 9c 3f a5 10 93 3e 32 27 82 be
       0.005941861 1.2238458 0.28723636 -0.2542053
000060 28 85 b4 3d e2 e2 56 3e b3 50 ad bd 40 50 3c bf
       0.0881446 0.20984986 -0.08462658 -0.7355995
000070 25 37 64 3e 65 2a 2f 3d 8e 9e 8c 3d 1a da 71 3d
       0.22286661 0.04276504 0.068661794 0.05904589
000080 16 f0 96 3e f8 be a3 3d ca ff e1 3d bc 1b b4 3e
       0.29480046 0.07995409 0.11035116 0.3517741
000090 66 37 8a be 2b c2 a1 3e 17 11 2f 3e ee 67 ad 3d
       -0.2699539 0.3159345 0.17096363 0.08467089
0000a0 6f 62 cb bc d6 69 1f 3e 9d 4a 00 3e 96 32 84 be
       -0.02482721 0.15567717 0.12528463 -0.25819844
0000b0 2b f8 1b 3e 14 f5 85 3d d0 9c c8 3c 0c 5c 76 3e
       0.15231387 0.065408856 0.024488837 0.2405855
0000c0 a8 63 de 3d a4 31 22 be 37 78 59 3d 04 aa d5 bd
       0.10858852 -0.15839249 0.05309316 -0.104328185
0000d0 3a a4 e1 3e bd cf ba be 5f 04 61 3e c4 8b cc 3e
       0.44070607 -0.36486617 0.21974324 0.39950383
0000e0 7e 46 09 3e 84 34 4e be d6 26 48 3e e1 5b ac 3e
       0.13405797 -0.2013722 0.19546065 0.33663848
0000f0 6a 50 64 bb 80 78 75 3d 1d 68 51 be 62 05 f5 3e
       -0.003483797 0.05992937 -0.20449872 0.4785567
000100 53 7e e6 be 54 c5 26 be a8 a9 f8 bd 50 d2 0f be
       -0.45018253 -0.16286212 -0.12141734 -0.14045072
000110 28 ab 75 3e 25 06 db 3e ea f1 59 3d 64 56 8f 3e
       0.23991072 0.42778125 0.053209223 0.27995598
000120 34 c7 0b 3d 6a c0 6c 3e a1 55 57 3e 0b 4b de 3d
       0.03412552 0.23120275 0.21028759 0.10854157
000130 2e cb 78 bc 72 a2 e2 bf 45 06 5e 3e cf ad 53 3e
       -0.015185161 -1.7705824 0.21682079 0.20671771
000140 64 c4 cd bc 90 19 f5 3d c3 35 e2 3d 59 da 0b bd
       -0.02511806 0.11967766 0.110454105 -0.03414378
000150 a8 e6 91 be f0 13 57 bf 5a c6 1a 3f 63 87 c0 be
       -0.2849629 -0.840148 0.6045891 -0.37603292
000160 22 f0 da bc f4 a2 1c 3d cb 66 ac 3d ac f6 6a 3e
       -0.026725832 0.03824134 0.08418044 0.2294566
000170 cd ee ef 3b 25 10 86 be 70 42 22 3e 0e 87 93 be
       0.0073221684 -0.26184192 0.15845656 -0.28813976
000180 10 5a 0f 3e a0 bf c5 be e0 a4 e3 bd 22 cf 0b bf
       0.139992 -0.3862276 -0.11115432 -0.54612935
000190 e3 3c 96 3e fb c9 23 3f b3 57 0e 3e e2 2c ea bd
       0.29343328 0.6398007 0.13900642 -0.11434342
0001a0 84 23 21 3d 36 6f b3 3e 9a 13 1d 3e e8 b0 1b 3f
       0.03934051 0.35045785 0.15339509 0.6081681
0001b0 bf df 3f be a2 51 10 bd e0 8b 14 3d 3a f8 ad 3e
       -0.18737696 -0.0352341 0.036266208 0.33978444
0001c0 10 76 9c bf d1 29 92 3d 07 23 bf be da 40 f5 be
       -1.222353 0.07136882 -0.3733141 -0.4790104
0001d0 c7 da 83 3e a5 50 ab 3d 00 d8 64 3d e0 1b 10 3f
       0.2575285 0.08364991 0.055870056 0.56292534
0001e0 6f 50 c4 bc b3 78 1d 3d f4 2a 14 be 23 d9 12 bf
       -0.023964135 0.038445186 -0.1446951 -0.57362574
0001f0 f9 95 b8 3e 29 48 fb bb 09 a3 df 3c 2c 3f d2 bd
       0.3605192 -0.0076685143 0.02729942 -0.10265955
000200 96 f2 8c 3e e6 a9 0f be 3a 7e a4 3e 55 b9 8f 3e
       0.27528828 -0.14029655 0.32127553 0.28071085
000210 0e e7 82 be 60 38 0f bf d3 3d c8 bc 8c 72 c0 bc
       -0.25566906 -0.55945396 -0.024443543 -0.02349212
000220 24 64 be bc c7 96 9e bd 1c 52 33 be b2 1c e9 3c
       -0.02324111 -0.07743602 -0.17511791 0.028456066
000230 a2 07 ab bc 78 f8 41 3e d3 6c a9 be da 22 eb 3e
       -0.020877663 0.1894244 -0.3309084 0.45925027
000240 61 4b 6e bd 2c 50 3e 3e 5d 44 f2 bb b5 a5 83 be
       -0.058177356 0.1858527 -0.0073934034 -0.25712362
000250 30 ef 7c be c6 41 d5 3e 99 d9 12 bd 30 13 9e 3d
       -0.24700618 0.41651744 -0.03585205 0.077185035
000260 44 e1 18 bd 5a 9d 3b 3e 9f 2a 04 be ed 75 9d 3a
       -0.037324205 0.18321744 -0.12906884 0.0012013294
000270 e6 a4 33 be b7 34 d5 bd e1 0b da bd c4 05 af be
       -0.17543373 -0.10410445 -0.10646797 -0.34184086
000280 5e 1e 2e 3f cc 31 e3 be d2 9d 1d 3c 72 7f d8 3e
       0.68015087 -0.4437393 0.009620147 0.42284733
000290 5b 85 a0 be e9 7c a8 bd 20 41 cc 3e 0c 2b 44 3e
       -0.31351742 -0.0822695 0.39893436 0.19157046
0002a0 2d 38 0c 3e 5f 59 92 bd 1a 6a 4f be bf 1c ef 3d
       0.13693304 -0.071459524 -0.20255318 0.11675405
0002b0 f8 f2 f2 3d 08 30 dd 3d 34 3a d6 3e d2 de f3 bd
       0.11862749 0.10800177 0.4184128 -0.11907734
0002c0 0b ed 41 be 52 52 d2 3e 8e e2 26 be 37 44 cc 3d
       -0.18938081 0.4107843 -0.16297361 0.099739484
0002d0 62 db aa 3e a6 59 3e be fb 96 31 bf 02 bd c0 3c
       0.333705 -0.18588886 -0.69371 0.023527626
0002e0 a1 00 00 be fb 3e b6 be 49 2a cc bb d3 4f d5 bc
       -0.1250024 -0.35594925 -0.0062306267 -0.02603904
0002f0 85 73 f2 bd 6c 3f b1 bd a6 6a 8f 3f 32 30 9b 3e
       -0.1183844 -0.08654675 1.1204422 0.30310208
000300 4c e5 68 3e cd 7f 3d 3e 33 66 98 3e 6e da 4f 3e
       0.2274372 0.18505783 0.29765472 0.20298168
000310 0e 07 81 bc bc b4 e6 3c cf 82 48 bd 28 13 d7 bc
       -0.015750434 0.028162353 -0.048952874 -0.026254252
000320 8c a0 a7 bd 23 49 1b 3e f0 b7 fc bd 5e 05 0e bd
       -0.08184919 0.15164618 -0.12339771 -0.034673087
000330 c2 d7 f7 bc 00 c2 ff 3d 9c ae 52 be ef e9 e3 bc
       -0.030254249 0.124881744 -0.2057442 -0.02782151
000340 11 9f 2a 3e 1e 31 2c bc a7 5f c3 bb fc e6 c2 be
       0.16662242 -0.010509757 -0.0059623304 -0.38066852
000350 f9 0e 75 3e 9b 4f 3d bd c0 46 e1 bb 6f b7 ec 3c
       0.23931493 -0.046218496 -0.006874889 0.028896062
000360 7c cc 5d be 99 93 52 3e 9f 45 5d 3c fb d6 a7 be
       -0.21660036 0.20564117 0.0135053685 -0.32781205
000370 df e6 04 3e ab 3f 80 bd 6d 03 47 3f 96 fb ab 3d
       0.12978695 -0.06262144 0.777396 0.083975956
000380 53 58 0d 3e 3d 29 dd be 38 ee c6 3e 7e c5 14 3c
       0.13803224 -0.43195525 0.3885362 0.009080289
000390 e7 5b de 3d c3 45 0b bf 8e 90 17 3d a6 89 f8 3c
       0.10857373 -0.5440332 0.037003092 0.030339073
0003a0 fe 2a 5d bf e2 01 8d be f5 bc 33 3e fd 9a 62 3d
       -0.86393726 -0.275405 0.1755255 0.05532359
0003b0 0c 68 21 bd 44 25 82 3e 5e 58 92 3e 59 12 d6 3e
       -0.039405867 0.25419056 0.28583044 0.41810873
0003c0 4a b4 3f 3f 99 6c e8 3d 88 99 c0 be 3c 78 7f 3e
       0.74884474 0.11348838 -0.37617135 0.2494821
0003d0 af e7 06 3e 77 65 8e 3e a6 6b 63 3d 8a 8c c8 be
       0.13174318 0.27811787 0.055522583 -0.39169723
0003e0 db 23 9a 3c e8 aa a0 bd 27 4e 18 3f eb 96 10 bc
       0.018815925 -0.07845098 0.5949425 -0.008825044
0003f0 da f4 49 3e 69 0c 41 bd 73 40 ab 3e 59 79 9d bf
       0.1972231 -0.047130976 0.33447608 -1.2302657

fc2.bias f4 [256]
000000 82 c4 bd bd be c9 7e bb b2 be 1c 3e 4a 2c ca 3e
       -0.092659965 -0.0038877572 0.1530712 0.39486915
000010 b0 35 52 3d 2a 07 37 3e ca 4f 58 be fb 60 58 3d
       0.05132073 0.17873827 -0.21124187 0.052826863
000020 49 d3 b1 3d 6c ec 4b bd dd 36 b7 3d c8 e7 fd 3c
       0.086828776 -0.049786016 0.08946011 0.030994311
000030 90 e1 88 bd d9 b2 b9 bc 06 45 05 3e ef 05 cb bb
       -0.06683648 -0.022668289 0.13014612 -0.0061957757
000040 97 89 7c bd 6d 71 93 3c 07 12 f2 bb 1f 48 07 bd
       -0.061654653 0.017998422 -0.007387403 -0.033027764
000050 b8 a5 69 bc 41 d5 e3 3d 80 9f cd bb c5 b6 7a 3e
       -0.014260702 0.11124659 -0.0062751174 0.24483784
000060 e7 a1 1a bb 11 04 b0 3e 2d f0 62 3a 25 16 15 bc
       -0.0023595036 0.34378102 0.0008657005 -0.009099518
000070 60 9b 83 3d 81 28 33 bd e3 e7 9b 3d e7 1d e4 3c
       0.0642612 -0.0437398 0.07612588 0.02784629
000080 66 18 09 3e fd b0 4e 3e b2 d5 f2 bc e0 40 5d bd
       0.13388214 0.20184703 -0.029642913 -0.054016948
000090 31 76 65 3e c2 1e 86 3d c0 a5 9b bd 2e 13 a1 3d
       0.22408368 0.06548835 -0.07599974 0.07864986
0000a0 1e 70 a6 3d c1 6f a1 be 80 84 e7 3e 2a 33 4d 3d
       0.081268534 -0.31530574 0.45218277 0.050097622
0000b0 c8 fb b1 3c 51 8a 8c 3c 05 15 f9 3d 9f f4 32 3c
       0.021726504 0.017155798 0.12162212 0.01092258
0000c0 22 71 99 3e 0b b8 37 ba 0d 28 9c 3c 29 bf b4 bc
       0.29969126 -0.00070083205 0.019062066 -0.022063809
0000d0 c9 8f a3 3c 11 e3 95 bb b7 75 9f 3c 74 bb 58 bc
       0.019966023 -0.0045741876 0.01946531 -0.013228286
0000e0 fc a2 8c 3e 51 a1 f1 bd 14 76 b5 3d b0 30 13 3e
       0.27468097 -0.11798347 0.08860412 0.14374042
0000f0 ea 10 92 bd f8 4d 47 bd ab 58 8c bd 76 ec 85 3d
       -0.07132132 -0.04865834 -0.068528496 0.06539242
000100 ea c3 2a 3e 8d 08 60 bd 72 72 bf 3d 02 e7 28 3d
       0.16676298 -0.054695655 0.093480006 0.04123593
000110 fe 27 ea 3b 17 e8 3b 3c 30 df 19 3e 1c 45 97 bd
       0.0071458807 0.011468909 0.15026546 -0.073862284
000120 72 bb 95 bd 90 52 03 3f 64 45 33 bd 9c 5c df 3d
       -0.07311143 0.51297855 -0.043767348 0.10906336
000130 47 55 18 3e c9 cd 1d 3e 28 25 af 3c e8 2a c3 bd
       0.1487628 0.15410532 0.021380022 -0.09529668
000140 21 61 de 3d 57 02 cf 3c ac 0c 64 bd 54 bb 3c bd
       0.108583696 0.02526967 -0.055676147 -0.046077088
000150 f2 de 2a bd 27 7f 16 be df 10 38 be e3 87 62 bc
       -0.041716523 -0.14696942 -0.17975186 -0.013826343
000160 25 fc 23 bd 3d 67 84 3d ba 3c 12 be 8e 21 26 3d
       -0.040035386 0.06465004 -0.14280978 0.040559344
000170 3c 5d ee 3c c2 74 9a 3e 56 cb a0 bc c8 ab 21 bd
       0.029097192 0.30167204 -0.019628208 -0.039470464
000180 4d bf 63 be 44 f1 80 be 75 53 2a 3d d5 af ca 3c
       -0.22240944 -0.2518407 0.041583497 0.024742046
000190 47 e4 d6 3d ea 4e f6 3d 4a 30 84 3d c4 57 3f 3d
       0.10492759 0.120267704 0.06454523 0.04671456
0001a0 72 de 4d 3c 94 0c 01 3e 9d 49 86 bd 10 60 61 bd
       0.012565242 0.12602454 -0.06557009 -0.055023253
0001b0 0a 02 92 be 5e 3e b9 bd 56 6a bd 3d 61 a7 94 be
       -0.2851718 -0.09045099 0.092487976 -0.2903395
0001c0 55 1d 81 bd fd d8 0e 3d be ca 7b 3d 5e c7 9f 3c
       -0.06304423 0.034874905 0.061472647 0.019504245
0001d0 f7 9c 23 bd 2e a7 40 bc f4 bf 58 bd a9 34 30 bd
       -0.039944615 -0.011758609 -0.052917436 -0.04301897
0001e0 17 05 b0 3d 92 c5 4f 3e f3 b2 1f 3e 23 c1 69 3d
       0.08594721 0.20290211 0.15595607 0.057068955
0001f0 97 44 e0 3c 66 f1 d9 bc 18 2b 87 bd ee 58 3f 3d
       0.027376456 -0.026604366 -0.06600016 0.04671567
000200 1c e0 a8 3c 4b f9 59 3d 33 86 2a 3d d5 49 45 bd
       0.020614676 0.05321626 0.04163189 -0.048166115
000210 06 8f 07 3e 59 30 9e bc 33 e2 9a bd ad 53 3c bd
       0.13238153 -0.019310163 -0.07562675 -0.045978237
000220 29 a0 84 3e 61 99 a6 3d 81 33 64 3c 40 e5 e9 be
       0.25903443 0.081347235 0.013928295 -0.45682716
000230 14 7f 4d 3e a9 98 06 3b 71 c4 45 3e 89 f0 03 3e
       0.20068008 0.002053777 0.19313218 0.12884726
000240 c1 dc 69 3d 22 fa 0e bd 7a 9a 03 3d 09 77 f0 3c
       0.057095293 -0.034906514 0.032129742 0.029353635
000250 9a 1f 10 3e 20 b2 fc 3d 4b 1a e3 bc 93 a5 ce 3d
       0.14074555 0.12338662 -0.027722498 0.100901745
000260 85 61 4d bd d5 74 53 bd 16 d8 99 3d 81 ab 8a bd
       -0.05014183 -0.05162509 0.07511918 -0.06770993
000270 d2 b9 0d bf 63 48 76 3e 20 16 8b bd 0f a8 6a 3d
       -0.55361664 0.24051051 -0.067913294 0.05728918
000280 7d 9c c1 3d d8 41 51 bd 37 da f7 bb b2 9d 84 3b
       0.09453676 -0.051088184 -0.007563855 0.004047119
000290 56 d0 10 3e 58 e9 87 bd 89 ac 61 3e 57 ef a2 3e
       0.14141974 -0.06636304 0.22038473 0.31823227
0002a0 1f de f2 bb c6 70 19 be 21 33 49 3c eb e7 6d bd
       -0.007411733 -0.14984426 0.0122802565 -0.058082502
0002b0 1a 58 1b 3c e6 73 9e 3e 60 cc be bc d5 b3 cb 3d
       0.009481454 0.30947798 -0.023290813 0.099464096
0002c0 46 fb 73 bd c4 28 0d 3e 53 16 57 3e 58 0e 2d bd
       -0.059565805 0.13785082 0.2100461 -0.042250007
0002d0 fb d9 7a bd 9b 85 84 bd ed 93 8d bd 15 b2 22 3e
       -0.06124304 -0.06470796 -0.0691298 0.15888245
0002e0 76 11 e2 be 77 1c 08 3c 6d 7d 4e 3e db e5 1a bc
       -0.44153947 0.008307568 0.20165034 -0.009454216
0002f0 a0 3e 58 3b 9d 03 d2 3d 5e aa 46 3e 00 53 15 3e
       0.0032996312 0.102545954 0.19400927 0.14582443
000300 0e 4d c7 3d 0f 46 fb 3d cc 70 14 be 63 26 49 3e
       0.09731494 0.12269222 -0.14496154 0.1964355
000310 77 45 4f 3e 81 d4 4f 3e 0c ee 10 bd 0a 87 24 bd
       0.20241342 0.20295908 -0.03538327 -0.040167846
000320 33 51 76 bd 66 e6 01 bd f0 c9 78 bd 42 1a 36 3e
       -0.06013603 -0.031713866 -0.060739458 0.17783454
000330 f0 4a 40 3e ad 9b 9d 3d bf 24 60 3e 95 33 a7 3e
       0.18778586 0.076957084 0.21889018 0.3265654
000340 c9 b5 a4 3d 38 e0 cf bd 75 cb ab 3e 97 0e 98 3b
       0.08042485 -0.10150188 0.33553663 0.004640411
000350 d2 58 4c 3d 9f 47 6a 3d a6 f6 90 3d 11 4e 2e be
       0.049889393 0.05719721 0.070782945 -0.17021967
000360 2a 93 98 3d 25 13 e6 3d dc bd 5a bb b1 18 26 3d
       0.07449944 0.1123412 -0.0033377325 0.04055089
000370 05 40 f7 3d 96 68 b0 3d ed 2e b6 bd 4c 13 e9 3c
       0.12072758 0.08613698 -0.08895669 0.028451584
000380 1e 97 51 3b 35 f7 66 be 94 66 29 bd 4a e0 52 be
       0.0031980942 -0.2255524 -0.04135759 -0.20593372
000390 7e 1b 52 3e 20 c8 53 3d 5b ae 38 bd c1 94 bc 3e
       0.205183 0.051704526 -0.045088153 0.3683224
0003a0 eb 6b 2a be 3e c0 ff bd ef 2f b7 3d 54 60 42 3d
       -0.1664273 -0.12487839 0.089446895 0.047455147
0003b0 bc d9 89 bc e8 fa 95 3d 25 ad 1c 3e 6f b9 55 bd
       -0.016827457 0.07323247 0.15300424 -0.052178796
0003c0 6b b6 1b 3e b8 a8 46 3c 04 c4 1f 3e 68 28 46 bd
       0.15206306 0.012125187 0.15602118 -0.04837838
0003d0 fb 14 6e bc 6a 1e 41 3e 83 02 a4 3c 44 d5 55 3d
       -0.014531369 0.18859258 0.020020729 0.05220534
0003e0 27 b3 13 bd 96 31 cc 3e fe 90 6f bd 4a 2f e7 3d
       -0.036059525 0.3988158 -0.058487885 0.112883165
0003f0 3d 26 0e 3e 4e 06 da bc 84 e5 04 3e 6d e2 5d bd
       0.13881774 -0.026614334 0.12978178 -0.054171015

fc3.weight f4 [128, 256]
000000 01 8d cf 3c 38 e1 0c 3d ef 10 7e bd e5 28 2f 3d
       0.02533579 0.034394473 -0.062027868 0.04276361
000010 7c 5a 70 bd 24 55 84 3c 38 b4 7f bd 60 ef 5e bb
       -0.058680043 0.01615388 -0.06242773 -0.003401719
000020 de 62 82 bd e6 18 62 bd df 12 f8 bc 30 30 8b 3c
       -0.06366514 -0.055199526 -0.030282436 0.016990751
000030 8e bb 45 3d 10 f4 d1 bc c9 e5 8a bb 24 a3 ca 3c
       0.04827457 -0.025629073 -0.0042388183 0.024735995
000040 e0 71 6b 3d d4 7e d0 bc e5 38 d6 3b 44 91 d3 bc
       0.057481647 -0.025451101 0.006537544 -0.025826104
000050 90 de 80 bd f9 95 10 bd d0 46 8d bb 34 db 0b bd
       -0.062924504 -0.035299275 -0.00431142 -0.034144595
000060 28 91 68 bc c1 c6 80 3c 80 25 6e bd 24 55 21 3d
       -0.014194764 0.015719773 -0.05814123 0.039387837
000070 b5 3b 17 bd ee ed 1b 3d 60 b8 31 bc ba cf 44 3d
       -0.036922175 0.038068704 -0.010847181 0.048049666
000080 9d 7c 7c bd 47 67 71 bd 80 01 1f bb 9b dc d0 3c
       -0.061642278 -0.058936384 -0.0024262369 0.025495818
000090 8b 1d ee bc 43 95 85 bd 00 ed 2a 3c ea 12 3a bc
       -0.029066822 -0.0652261 0.010432482 -0.0113570485
0000a0 68 af e3 3c fd 7c 6c bd 47 14 b2 bb 3c d2 bb 3c
       0.027793601 -0.057736386 -0.005434546 0.022927396
0000b0 10 f5 6c 3c 2c c7 13 bd 54 0c 57 bd 30 06 2c bd
       0.014462724 -0.036078617 -0.05250199 -0.04199809
0000c0 c4 64 fb 3c 58 cc 6b 3d 54 b0 ff 3c cc f5 2c 3d
       0.030687697 0.057567924 0.03121201 0.042226598
0000d0 58 6f 73 3c 20 c7 59 bd ac f3 5d bd 60 9b 0b 3b
       0.014858089 -0.053168416 -0.05418746 0.0021302328
0000e0 f3 93 76 3c 2f eb 7a 3d 92 40 5e bc d7 49 95 3c
       0.015049922 0.061259445 -0.013565199 0.018223686
0000f0 76 4e 22 bd ea c1 69 bd 48 c3 42 3d 3b c9 9c 3c
       -0.039625607 -0.057069696 0.047549516 0.019138923
000100 07 da fb 3c 78 14 4d bc 6d cd 91 3c f3 13 a9 3c
       0.030743612 -0.012517087 0.01779815 0.020639395
000110 20 cf 90 3b 08 2d 2e bd 62 72 09 bd 40 a5 2f 3b
       0.0044192225 -0.042523414 -0.03355635 0.0026801378
000120 3a 88 0a bb 26 4e 37 3d 5c 2c 8a bc 8d 8a 67 bd
       -0.0021138326 0.044752263 -0.016866855 -0.056528617
000130 d8 37 07 bd ef 6e 2a bd 3c 99 e7 bc 81 c2 36 bd
       -0.03301224 -0.0416097 -0.02827131 -0.044619087
000140 28 c3 3b 3d ff 50 84 bb 12 b0 41 3d 3b aa 02 3d
       0.045840412 -0.004037976 0.047287054 0.031900626
000150 3e d5 1d 3d df bf ed 3c ca 20 1f 3c 04 ef f8 3c
       0.03853344 0.029022155 0.009712407 0.030387409
000160 d0 22 dd bb 87 82 61 bd 7c da da 3c 56 44 35 bd
       -0.0067485347 -0.05505612 0.02671551 -0.044254623
000170 87 9c a9 3c e0 90 7f 3d b0 3f 94 3b 00 3f 44 ba
       0.02070452 0.062394023 0.0045241937 -0.00074861944
000180 9d 9c a0 3a 1b 76 c9 bc 06 3e 44 bd f8 cb 98 bc
       0.0012253706 -0.02459245 -0.047910713 -0.018651947
000190 b6 73 87 3b 3b d2 f9 3c 11 f6 42 3d f7 e6 d4 bc
       0.004133667 0.030495754 0.04759795 -0.025989039
0001a0 4e 86 81 bd 7d 68 37 3d 0c 8a a4 bc 80 1c 14 bc
       -0.06324445 0.044777382 -0.020085357 -0.009039998
0001b0 b8 b6 be bc fe b5 57 3d 0b f4 df bc c9 44 c7 3c
       -0.023280486 0.052663796 -0.027338048 0.024324792
0001c0 64 d5 a2 3c d6 29 19 3d 62 39 af bc 00 4b 57 bc
       0.019877143 0.037393413 -0.021389667 -0.01314044
0001d0 60 be 1a 3b ca 5f 64 3d f1 44 3c b9 45 00 14 3b
       0.0023612007 0.055755414 -0.0001795476 0.0022583168
0001e0 92 6b db 3c 07 61 94 bd b8 2e 77 bd d4 9a 4b 3c
       0.026784692 -0.07245069 -0.06034729 0.012427051
0001f0 80 5d eb 3a dc da 84 3c c0 c6 12 3b ff 30 06 3d
       0.0017956942 0.016217642 0.0022396296 0.03276157
000200 10 4c 10 3c 18 ad ec bc ae d7 8a bd 3c 92 3b bd
       0.008807197 -0.028891131 -0.06779419 -0.045793757
000210 f3 cf 8c bd 30 19 74 bc 3e e9 2a 3d a0 f8 f4 3b
       -0.06875601 -0.014898583 0.041726343 0.0074759275
000220 58 ec a5 3c c0 c2 d0 3c 7c 45 53 3d 24 99 22 3d
       0.020254299 0.025483489 0.051579937 0.039696828
000230 6c 54 ce bc b8 59 02 3c aa 0d 38 3d 4a 41 56 bd
       -0.02518674 0.007955961 0.044934906 -0.05230836
000240 e6 49 c9 3c 44 2d 07 bd e2 21 5e bd a0 19 19 3c
       0.02457137 -0.033002153 -0.054231532 0.009344488
000250 5c 0c 0a bd a4 6d 2d bd 80 49 48 bc 92 42 50 3d
       -0.033703193 -0.04234089 -0.012224555 0.050844736
000260 82 8a 76 3d fe 97 2c 3d 05 b1 78 3b 22 34 30 3d
       0.060190685 0.04213714 0.0037947309 0.043018468
000270 1e 0b 43 bd dd e7 80 bd b8 ae 7e bc ac 9b 5d bd
       -0.047618024 -0.062942244 -0.015544586 -0.05410354
000280 39 90 94 3a 94 9a 96 3c 00 30 29 3a 11 fd 7a 3d
       0.0011334486 0.018384255 0.0006453991 0.0612765
000290 e8 1e a5 bc a8 b8 99 bc c7 e2 10 bb 71 5d 80 bd
       -0.020156339 -0.018764809 -0.0022107826 -0.062678225
0002a0 82 7d 44 bd 1e 2b 79 bd 80 29 00 bd 1c b8 78 bd
       -0.047971256 -0.060832135 -0.031289577 -0.060722455
0002b0 e4 7b 0d 3d 8a 54 28 bd e4 b5 6f bd 62 4f 63 bd
       0.03454198 -0.041096248 -0.058523074 -0.055495627
0002c0 40 bc 74 3b b4 37 79 3c a8 cd d5 3c ba c1 47 bd
       0.003734365 0.015211035 0.026099041 -0.048768736
0002d0 08 08 1f bd 00 b5 64 3a 00 68 54 b8 3e 2c a4 3c
       -0.03882602 0.0008724481 -5.0641596e-05 0.020040628
0002e0 a1 fe 59 3d 00 52 2f 3d 7e 85 6c 3d 21 c2 ae ba
       0.05322135 0.04280281 0.057744496 -0.0013333001
0002f0 1d ec a4 3b 0d 9c cd 3c dc 6f da 3c df c9 ae bc
       0.0050330297 0.025098825 0.026664667 -0.021336494
000300 ea 9f 58 bd 82 e9 7e bc fc 4c c8 bc 32 f5 01 3d
       -0.05288688 -0.015558602 -0.024450772 0.031727977
000310 a0 b9 3e bc 64 21 49 bd 50 8f 89 bb 88 59 0f 3d
       -0.011640936 -0.04910411 -0.0041979924 0.034997493
000320 ac ab 2f 3d 4c 61 d1 bc f2 32 ba 3c dd a1 44 bd
       0.04288833 -0.02555909 0.02272937 -0.048005927
000330 81 cb 90 bc 74 48 34 bc 45 0f 0c bd cc fa 51 3c
       -0.017675163 -0.011003602 -0.03419425 0.012816142
000340 88 50 5a 3d 18 48 e3 bc 04 ea 87 bc 58 53 49 3c
       0.053299457 -0.027744338 -0.01659108 0.012287937
000350 5f a9 8d bc 93 da 40 bd 90 a1 19 bc 80 f6 07 bd
       -0.017292676 -0.04708345 -0.009376898 -0.033194065
000360 cc 47 0f bd 0a 62 89 bc 54 87 52 3d 40 da 35 bb
       -0.03498058 -0.016770381 0.05139859 -0.0027748495
000370 c1 61 cf 3c d1 f4 59 bd 8d 05 5a 3d 55 93 ba 3c
       0.025315167 -0.05321199 0.05322795 0.022775332
000380 c6 be 2b 3d d4 8f 56 3d 3c e5 b7 bc 33 fb db 3c
       0.041929983 0.05238326 -0.022448175 0.02685318
000390 64 5c 2f bd ef c9 40 3d bc 98 19 3d 7f 31 df 3c
       -0.04281272 0.04706758 0.037499174 0.027245281
0003a0 f4 32 3e bd 14 ba 99 3c b9 09 0c 3d 9b cd 2c bd
       -0.04643531 0.018765487 0.03418896 -0.04218827
0003b0 f8 2a 01 3d 55 9d aa bc 40 ec ba 3c 90 4e b0 3b
       0.03153512 -0.020826975 0.02281773 0.005380459
0003c0 6a c1 92 bd be 48 3f 3d b4 37 32 3d 36 6d 4f 3d
       -0.07165797 0.04670023 0.043510154 0.05064126
0003d0 4a 20 71 3d ac 09 d1 bc c1 8d 3f 3d b5 d6 0f 3d
       0.058868684 -0.025517307 0.046766046 0.03511687
0003e0 33 0e 0a bd 0a 27 7d bd 66 f7 2c bd c1 c0 5c 3c
       -0.033704948 -0.06180481 -0.042228125 0.0134736905
0003f0 f4 f6 07 3d eb 7d 74 3b 24 d2 04 bd ad 10 10 bd
       0.033194497 0.0037306498 -0.03242697 -0.035172153

fc3.bias f4 [128]
000000 ac 5d 35 bd 57 d5 7e bd d7 fc 04 3e 35 fa 1b 3d
       -0.044278786 -0.062215175 0.12987076 0.038080413
000010 94 0b d4 3d 88 b6 27 3c 7b 04 70 3e a2 66 15 bc
       0.10353771 0.01023639 0.23439209 -0.009118708
000020 79 7a e9 3d 14 35 0d bb e2 f2 3d 3e 7b c6 96 bd
       0.11400313 -0.002154653 0.18549684 -0.07362076
000030 b3 6f 3e 3d e0 32 e2 3d c1 b3 08 bd b6 c4 18 3d
       0.046493243 0.1104486 -0.03337455 0.037296973
000040 b5 89 8f 3d 86 e5 1c bd be 13 e1 bc 1b fa 06 3e
       0.070086874 -0.038304828 -0.027475234 0.13181345
000050 be 66 1a 3e c5 11 5b bc 72 cc bc 3c b5 97 fb 3d
       0.15078256 -0.013370936 0.023046706 0.12284795
000060 ba 84 ff 3d 6c 0b 32 be af f2 49 bd 55 41 a2 bc
       0.124764875 -0.1738717 -0.049303707 -0.019806543
000070 f2 7a 4d 3d 80 dc 2f 3e aa 19 52 3e 54 4e ce 3d
       0.050166078 0.17173958 0.20517603 0.10073534
000080 61 fe 8a bc 1a 3f a0 bd 16 43 53 3e a2 ae 21 3d
       -0.016967 -0.07824536 0.2063106 0.039473183
000090 dd 9c 8c be c3 7d 7a 3e f8 69 9e 3d 98 c4 2c 3e
       -0.27463427 0.24462037 0.07735056 0.1687187
0000a0 c8 06 04 3e 09 84 ae 3c b1 ea 49 3e 58 23 77 3d
       0.12893212 0.021303194 0.19718434 0.06033644
0000b0 f8 16 fa bc 15 c8 dc 3d b2 75 55 3d ce e8 35 3e
       -0.03052853 0.1078035 0.052114196 0.17764589
0000c0 91 45 8d 3d e8 11 1e 3d 72 e5 54 3d b1 7f 66 3e
       0.06898034 0.038591295 0.05197663 0.22509648
0000d0 84 60 b8 bd 1d c9 86 bd e9 d0 46 3e 7c 8e 6b 3c
       -0.09002784 -0.06581328 0.1941563 0.014377233
0000e0 4a 67 1e 3e 20 78 4c 3e f9 8f 88 3d 56 9a 4e 3e
       0.15469089 0.19967699 0.066680856 0.20176062
0000f0 ca 97 9c bd 2b 7e 02 3e bb de 2e bd da 4b ea 3d
       -0.07646139 0.12743442 -0.04269288 0.11440249
000100 16 ff 49 3e c6 5e 8a bd 48 90 5a 3e 23 68 5e 3d
       0.19726214 -0.06756358 0.21344101 0.05429853
000110 12 6d 5c 3d 7b fc a1 bc c8 ac 1c 3e 21 52 63 3e
       0.053814955 -0.019773712 0.15300286 0.22199298
000120 71 63 f0 bc a2 1c c6 bc 3a cb c0 3d 1b b4 e0 bb
       -0.029344292 -0.024183575 0.094137624 -0.0068574077
000130 42 f2 60 bd 3d f6 5e 3e e7 0f 64 bd 13 bc 0d 3d
       -0.054918535 0.2177362 -0.05567923 0.03460319
000140 4c 00 b7 3d 53 23 e2 3d bc 98 8b 3e 8f f3 a4 bd
       0.089356035 0.11041894 0.27264965 -0.080542676
000150 5f 2e 83 bd ba 08 90 3e 2a 8d 7c 3e b0 7f 7e 3c
       -0.06405329 0.28131658 0.24663225 0.015533373
000160 9d 14 74 3e b0 1c f4 3d c4 85 21 3c db d9 43 3d
       0.23835988 0.11919534 0.009858552 0.047815185
000170 f3 08 1a 3d 88 20 7d bd f0 bd bb 3d f5 74 2b 3e
       0.03760619 -0.061798602 0.09167087 0.16743834
000180 f7 9d 4e 3e fe 9f 34 3d 5b fc da bb 3e 86 1f bd
       0.20177446 0.044097893 -0.006682915 -0.038946383
000190 e6 77 0a 3e 04 a9 0b 3e 0c df 8a bd 15 d4 49 bd
       0.135223 0.13638693 -0.06780824 -0.049274523
0001a0 91 a0 6e 3e 48 6a b6 3d 28 9e 30 3e 5b 11 16 bd
       0.23303439 0.0890699 0.17247832 -0.036637645
0001b0 da d7 2c 3e 61 50 ec 3d 45 68 2a 3e 40 0e 82 3e
       0.16879216 0.115387686 0.16641338 0.25401497
0001c0 61 52 7c 3e 79 fd c4 3c 5a d1 55 bd a9 5e 33 3e
       0.246408 0.024046646 -0.052201606 0.17516579
0001d0 c3 d1 d1 3d ee 71 26 3e f3 77 33 3e ec 23 4a 3e
       0.10245087 0.16254398 0.17526226 0.19740266
0001e0 25 35 31 3e a0 c3 98 bd d5 cc c3 3d f9 4b 03 bd
       0.1730543 -0.074591875 0.09560553 -0.032054875
0001f0 11 e7 3f 3e 11 f6 14 3e 49 99 09 3d 60 f4 a3 bd
       0.18740489 0.14546992 0.03359345 -0.08005595

fc4.weight f4 [7, 128]
000000 cf 1e 10 3d ec 1f c4 bc 5a 8d fb 3e ca 0c 1e bd
       0.03518563 -0.023941003 0.4913128 -0.038586415
000010 4f db 09 3f aa e7 bc be 75 d5 86 bf a0 ff a0 3d
       0.53850263 -0.36895496 -1.0533892 0.078612566
000020 9b 72 13 bf c7 6f cb bc 1b aa 17 bf 93 64 2c 3b
       -0.5759675 -0.024833573 -0.59243935 0.0026305064
000030 bc fe b7 3f 4f 2b 2e bf 69 f6 8f 3d 15 04 08 3f
       1.4374614 -0.68034834 0.07029421 0.5313123
000040 ca f5 5e 3f 55 e3 34 bd 76 74 9a bd 9d 3f 30 bf
       0.87093794 -0.044162113 -0.075417444 -0.68847066
000050 e4 64 22 bf 2a b3 84 3d b5 c5 8d 3d bb 0a 7d bf
       -0.63435197 0.06479485 0.06922475 -0.988445
000060 4d cb a9 bf 1f 37 aa bf d2 48 f5 3c d0 65 64 3c
       -1.3265167 -1.3298072 0.02994195 0.01394029
000070 49 6e 33 3f 29 f1 20 bf 5f ae 2c bf 2a df 73 bf
       0.70090157 -0.6286798 -0.6745357 -0.95262396
000080 9a 3e 8e bd 66 17 52 bf f5 0c 1e bf f6 d0 0e bd
       -0.06945534 -0.82066953 -0.6173852 -0.03486725
000090 0a 4f 58 bf 7f ef cf bf eb 85 92 bf 4d 39 40 bf
       -0.84495604 -1.6244963 -1.1447119 -0.75087434
0000a0 c8 44 68 bf 00 0b 8e bd d9 13 27 bf 04 58 01 3f
       -0.9072995 -0.06935692 -0.6526466 0.50524926
0000b0 5a 5a 25 3d 20 ae 62 3f 7e cd 27 3c 53 da 1e bf
       0.04036937 0.88546944 0.010241864 -0.62051886
0000c0 8b 6e eb 3e 3e 1a 06 3f 45 40 0d 3f be 97 75 bf
       0.45982775 0.5238379 0.5517619 -0.95934665
0000d0 38 fb 56 bf d7 b4 07 bd c4 7e 95 bf e2 99 f6 bc
       -0.8397708 -0.033131447 -1.1679311 -0.030102674
0000e0 64 94 5b bf 05 2e 20 bf 0f af 7c 3f db 31 30 bf
       -0.857733 -0.6257022 0.9870462 -0.68826073
0000f0 e3 10 15 bb 72 32 21 bf 62 d6 12 bb e8 13 6b bf
       -0.002274566 -0.629676 -0.0022405614 -0.9182725
000100 20 3a 1f bf c2 f4 e5 bc f0 b9 32 bf 75 37 0e 3f
       -0.62198067 -0.028070811 -0.6981497 0.5555337
000110 79 8b 3f 3d 91 88 55 bd c1 f5 28 bf d1 29 65 bf
       0.04676387 -0.052132193 -0.6599999 -0.8951693
000120 71 6d bb 3d b9 d5 c9 bd c7 6a 3e be 00 34 3b bc
       0.09151734 -0.098552175 -0.1859542 -0.011425972
000130 1f 59 9d bd e3 9c 2d bf d3 0a 78 3c 88 3f 42 bf
       -0.07683014 -0.67817515 0.015139299 -0.7587819
000140 86 41 2a be 34 4c 6e 3f 68 f2 96 bf 0e 71 3b 3d
       -0.16626558 0.93085027 -1.1792727 0.045762114
000150 70 13 2a bc fa af 66 bf 6c 23 53 3f c9 d7 8b 3c
       -0.010380611 -0.9011227 0.82475924 0.017070668
000160 53 b0 5a bf 79 7e 41 bf d8 8b 6e b9 00 5d a8 bd
       -0.854253 -0.75583607 -0.00022749545 -0.08220863
000170 fb 6f a7 bf 6c 2b 83 bd ec 1f db 3e 9c 50 8d bf
       -1.3081049 -0.064047664 0.42797792 -1.1040225
000180 43 12 2a bf fc a0 01 3f ec 66 75 bc 6c 03 98 3c
       -0.66434115 0.5063627 -0.014978152 0.01855632
000190 3b 32 09 3f cc a2 05 3f a5 dc 89 3c e0 c4 f9 3b
       0.5359227 0.52201533 0.016828844 0.0076223463
0001a0 da 05 6e bf 9d 29 0c 3f 78 2d 7e 3f bd aa f2 3e
       -0.9297768 0.54750997 0.9928813 0.47395888
0001b0 b8 89 64 3f f8 5e 01 3f 52 af 13 3f 86 92 7a bf
       0.8927264 0.50535536 0.5768939 -0.9787983
0001c0 1f 16 89 bf e4 47 42 3d 9d 0f 82 bd d0 8b 76 3f
       -1.0709876 0.04743184 -0.06350634 0.96307087
0001d0 e7 60 c2 3d 3d bf 22 bf cd bf 2b bf 6c 19 a2 bf
       0.09491139 -0.63573056 -0.6708954 -1.2664008
0001e0 96 24 2b bf 98 4c c4 bd 59 4c f1 3e 63 4c 16 3d
       -0.668527 -0.095849216 0.4712856 0.03669394
0001f0 19 f2 1f bf ff 22 0e 3f 8e 76 05 3f b3 c3 c4 3d
       -0.62478787 0.5552215 0.52134025 0.09607639
000200 50 59 24 39 50 ab 74 3d c5 11 05 3f 23 44 7a bb
       0.0001567353 0.05973369 0.5198024 -0.0038187585
000210 e7 90 1e 3f 87 00 92 be e4 cd 7c bf 5d 20 06 3d
       0.61939853 -0.28516027 -0.98751664 0.032745708
000220 1e bd f7 be 5e 44 93 bd 2a 0d 05 bf e4 07 9f 3c
       -0.48386472 -0.071907744 -0.5197321 0.019412942
000230 b4 0d ad 3f e4 94 43 bf 1a 7c 55 bc 5b c8 df 3e
       1.3519807 -0.76399064 -0.013030076 0.43707547
000240 f8 80 62 3f 46 79 b3 3d df 5f b3 3d db c0 41 bf
       0.8847804 0.087633654 0.0875852 -0.756849
000250 72 23 1a bf ae 66 3e 3d 63 d8 48 3d 57 9e 8e bf
       -0.60210335 0.04648464 0.049034487 -1.1142071
000260 2c 18 aa bf 0c 12 b2 bf ca f1 70 bc 6d 01 06 bd
       -1.3288627 -1.3911757 -0.0147060845 -0.032716203
000270 61 8b 30 3f 0c e9 29 bf 19 98 3d bf 2c f5 43 bf
       0.68962675 -0.66371226 -0.7406021 -0.7654598
000280 27 e9 e9 3e af 64 41 bf 09 5a 3a bf c0 f9 6e 3d
       0.45685694 -0.75544256 -0.7279363 0.05834365
000290 79 e4 41 bf bc 3d d0 bf 6d f9 8b bf c8 50 47 bf
       -0.75739247 -1.626884 -1.0935494 -0.7785764
0002a0 ef dc 11 bf 13 3f 9e bb d3 e8 18 bf 67 bb fd 3e
       -0.5697774 -0.0048292964 -0.5973026 0.4955704
0002b0 01 02 e7 bc 9a dc 57 3f 28 0f 2d bd 2a 28 ff be
       -0.028199198 0.84320986 -0.042250782 -0.4983533
0002c0 4c 7e f8 3e 20 3c 0e 3f 3b de 0f 3f c4 ff 67 bf
       0.48533857 0.55560493 0.5619847 -0.9062464
0002d0 ce 91 45 bf 11 74 89 3d 02 63 95 bf 99 fe 81 bd
       -0.77175605 0.06711591 -1.167084 -0.06347389
0002e0 c9 0b 64 bf 1e 19 0f bf e4 d1 71 3f a3 76 1c bf
       -0.8908048 -0.558977 0.9446089 -0.61118525
0002f0 2e 74 fa bc ee 27 2b bf 24 28 41 bd 42 23 a5 bf
       -0.030572977 -0.668578 -0.04715742 -1.2901385
000300 b1 c2 2e bf ad 2b 1c 3d f4 fd 2b bf 1c 68 22 3f
       -0.68265826 0.03812759 -0.67184377 0.6344011
000310 f4 ab f1 bc a6 da 6a 3d e5 bc 39 bf 1c 14 41 bf
       -0.029500939 0.057337426 -0.72553855 -0.7542131
000320 16 f2 91 3c fd 34 d0 bd 11 25 ca 3d 26 ea 99 bd
       0.01781563 -0.10166357 0.09870351 -0.075153634
000330 97 5e 86 3d 50 50 26 bf 2a d3 f9 3c cf c3 40 bf
       0.0656101 -0.649663 0.030496199 -0.7529878
000340 38 a1 59 be 9c fa 82 3f 81 47 9d bf e4 0e 07 bc
       -0.21252906 1.023273 -1.2287446 -0.008243296
000350 05 9b 80 3c 2b ec 73 bf 51 71 42 3f 63 14 1c 3d
       0.01569892 -0.9528224 0.7595416 0.03810538
000360 b5 3e 99 bf 61 4a 1e bf 62 14 55 3c 0d cb 5e 3d
       -1.1972262 -0.61832243 0.013005348 0.054392863
000370 d4 ce b6 bf ad 4e 83 bd 87 17 08 3f 28 1b 8c bf
       -1.4281869 -0.064114906 0.531609 -1.0945787
000380 1a 97 28 bf b4 51 13 3f c5 33 25 3b 2b 48 ba bb
       -0.6585556 0.57546544 0.002520786 -0.0056848726
000390 7b b1 04 3f 4b 15 04 3f c2 c1 fa bb 3e 72 73 3d
       0.51833314 0.5159499 -0.0076524923 0.05943512
0003a0 0c 5f 40 bf ad 54 09 3f bf dc 77 3f 02 d3 0c 3f
       -0.7514503 0.5364483 0.96821207 0.5500947
0003b0 71 5d 4b 3f b1 1e 14 3f f6 34 bb 3e d1 bd 57 bf
       0.79439455 0.5785933 0.36563843 -0.8427401
0003c0 00 3f 92 bf 97 99 53 bd 36 98 97 3d 62 a5 81 3f
       -1.1425476 -0.051660147 0.07402079 1.0128596
0003d0 1e 21 5b bd 95 f9 3e bf bc fd 1f bf 4a 7a af bf
       -0.05349838 -0.7459958 -0.6249654 -1.3709195
0003e0 71 f2 39 bf 0e 62 3b bd e8 8e 0e 3f ce fa 7b 3d
       -0.7263556 -0.04574781 0.5568681 0.061518483
0003f0 98 40 34 bf f7 86 0f 3f 41 c2 e8 3e c4 ed 46 3c
       -0.7041106 0.56065315 0.45460704 0.012141649

fc4.bias f4 [7]
000000 4c 93 46 be 5b ba 5d be dd 29 c1 bc e2 68 96 bd
       -0.19392127 -0.2165312 -0.023579532 -0.073442236
000010 69 6d d9 3b 7e 35 8b 3e ed 66 a9 be
       0.006635357 0.2718925 -0.3308634
