models/lateral_stage3_seed7777_final.pth (torch, 412481 bytes, 8 tensors)

fc1.weight f4 [256, 9]
00000000: f7b5 4840 6a8c acbe ff2e f0be d654 aabd
00000010: 8b70 a4bc 835a e1bd ebac 77be 6468 a8be
00000020: 48d6 883e 0d98 d33c e196 14be 148e 8b3e
00000030: e307 bc3e 1198 4a3e bab3 e53e 383c 64be
00000040: ff10 8cbe 1744 04bd 0887 4c3e bd1d ca3e
00000050: ef71 f2bd ed36 2e3f 25fc 0dbe f71a 0e3e
00000060: f64f f0bd 0809 51bd 7432 a8be 3f21 e83f
00000070: 74fd 28be 47ed 1b3f 6802 103c bc7e a63e
00000080: 3fd3 4b3e d080 99be ce10 4cbe 5800 36bc
00000090: 78ea 3640 b339 f7bc 613c 1e3f 5e67 e93d
000000a0: d52e ccbd f693 e03c 8029 893c 111c a83e
000000b0: 8742 3b3e aaf0 3440 63ec 61be ebb2 313f
000000c0: 42db db3a 7895 963d 4e10 a33d ee7e 28be
000000d0: 11c2 a93e 6ea2 8f3e fad3 cb3f 4f0e 27bf
000000e0: 5ec3 8e3d 6ecb 29be e67d 243e 5cbe c2be
000000f0: 7eba 11be c047 45be 8869 2e3e b254 3a40
00000100: 85d8 07bf 4638 633d d44b 02bf 648c 86be
00000110: b4f5 7cbb 5b0a 9bbe 508e ddbc 8001 a7be
00000120: 22e2 b43f bef4 50bd 782d 563e b399 d93e
00000130: 4338 c23e d84b 06be 7605 8bbe e888 493d
00000140: 9aa4 d2be ea06 aebf 6e23 aebd 52c2 ffbc
00000150: 6d61 9bbf 7786 2fbf a695 883e 238b 8ebe
00000160: 2c44 b1bd bb50 6cbe a2e5 813e de72 083f
00000170: 9be0 01bf 3014 b0be 6b36 a4bd a3ea d5bd
00000180: 00d9 99bc aa0d 3a3e 1620 a2bd ed17 acc0
00000190: 4b03 d6be cf65 a23e 3f74 cc3d 7a18 9e3d
000001a0: 92bf f33d 50f8 9f3d 3863 09be 84ec bf3e
000001b0: a84a 80c0 db58 8abe 5c97 583e 186e abbe
000001c0: 588b d5bc bf6a 80be ab17 9fbe c0ca b13c
000001d0: 6953 69bd 7fd1 80c0 00f4 02be 7a10 2ebe
000001e0: 1620 84be ab91 95bd 0c4b 38be da5b 3f3e
000001f0: 8cbd d33d ec86 a8bd 03d9 49bf c830 1a3d
00000200: dc3c 153f 12c5 a2bd 4a64 033f 2505 f4be
00000210: 10d2 a73d 2000 343d bd2d 983e 1636 cc3f
00000220: 3e04 163e 7e1c 343d 2798 1e3c 4bdd c03d
00000230: ea7b 78bf ea40 1f3e 405b aa3d 0e41 acbe
00000240: 7c90 5dc0 e417 49bf f39c f33b e745 c43e
00000250: 55b8 71be bf00 1dbe 8d23 8e3e 6e90 a2be
00000260: 511b 3aba bf01 c63f 75df 0bbf 38ad a43e
00000270: ed5c 03be 2afc 1cbd 3fe0 da3d a24c 683e
00000280: 0629 573e 4ee3 22be 49a2 7dc0 1bba 6c3e
00000290: d8c1 02bf 8f9c 543a 7dd4 f1bd a382 13be
000002a0: 8af0 393e 5ac8 8abe c4ad 17be ba08 1b3e
000002b0: ffbe 95be 7b46 633e 1d83 16be 49d3 943d
000002c0: 64af 593e a5da 963e b0ce 903d a33f 69be
000002d0: 5630 b8bf c7fc b73e 8a1c 12bf e996 09bc
000002e0: 3f8c 81bd 8ab4 693e a88e 133e 6b66 803e
000002f0: 7e6d ef3d 9eb4 b640 e2c7 ba3c f9de 87be
00000300: 56f5 d3bd fc6e a4bc 2c00 a8bd ae46 563e
00000310: d695 793e c62b 43bd 339a 6cc0 2235 d8be
00000320: bb52 9bbe 1ae1 1dbe 45e4 b0bd a494 e0bd
00000330: da4b 3e3e 8095 323b b95d 9a3e 55e4 8740
00000340: 68a4 20be a3c9 ae3d 2a64 c1be 8db7 a4bd
00000350: 9992 9ebe 7e20 a1be 1209 463e 20fa 0ebe
00000360: 5b13 b23f 9404 04bf a380 203f 3ad4 37be
00000370: 90fd b73d 397d cbbd 46a2 633e 9860 91be
00000380: cb86 773e afd0 823f 525c 3b3e 1f6d 843e
00000390: 4b0e ee3e 0ebe 4d3d 72c9 87bf 7a91 773e
000003a0: 7826 6c3d 1ba1 c4bc 2779 5e40 1294 3abd
000003b0: f91b c63d 84b0 21be b1e7 403e 19ee 293e
000003c0: 9c85 e0bd f64e 88be a7b8 2d3e a839 b1c0
000003d0: 842c 383e bda7 42be 1e39 8bbe 1eb1 4bbe
000003e0: c622 3fbe 94e6 913d 04e4 a23d 046a 54bc
000003f0: 03d8 01bf 9913 02bf 11dd 29be 1df4 99be
3.1361063 -0.33700877 -0.46910855 -0.083169624 -0.020073196 -0.11003592 -0.24187057 -0.32892144
0.26725984 0.02582934 -0.1451068 0.27256835 0.36724767 0.19784571 0.44863683 -0.22288597
-0.27356717 -0.032291498 0.19973385 0.39475814 -0.11838137 0.6805256 -0.13865717 0.13877474
-0.11734001 -0.051034003 -0.32850993 1.8135146 -0.16502935 0.6090893 0.008789636 0.32518566
0.19904803 -0.2998109 -0.19928285 -0.01110848 2.8580608 -0.03017888 0.6181088 0.11396669
-0.0996987 0.027414303 0.016743422 0.32833913 0.18287097 2.827189 -0.2206283 0.6941363
0.0016773718 0.07352728 0.07962094 -0.1645467 0.33155873 0.28053612 1.5924065 -0.6525621
0.06970857 -0.16581509 0.16063651 -0.38035858 -0.14231297 -0.19265652 0.17032444 2.9114194
-0.5306476 0.05547359 -0.50896955 -0.26278985 -0.00385986 -0.30281338 -0.027045399 -0.32618332
1.413151 -0.051014654 0.20915782 0.42500076 0.3793355 -0.1311487 -0.27152604 0.04920283
-0.41141206 -1.359586 -0.085028514 -0.031220589 -1.2139107 -0.6856455 0.26676673 -0.27840528
-0.08655581 -0.23077671 0.25370508 0.53300273 -0.50733346 -0.34390402 -0.08018192 -0.10445144
-0.018780231 0.18169275 -0.07916276 -5.3779206 -0.41799387 0.317183 0.0998311 0.07719512
0.119017735 0.07811034 -0.13416755 0.37485135 -4.0091133 -0.27020916 0.21151489 -0.33482432
-0.02606742 -0.2508144 -0.31072745 0.021703124 -0.05696431 -4.0255733 -0.12788391 -0.16998473
-0.2580573 -0.073031746 -0.17997378 0.18687382 0.103388876 -0.08228859 -0.7884676 0.037644178
0.5829599 -0.079477444 0.51324904 -0.47660175 0.08194363 0.04394543 0.29722396 1.5954006
0.14650056 0.043972485 0.009679831 0.09417208 -0.9706408 0.15552106 0.08318186 -0.33643383
-3.4619436 -0.7855208 0.0074344813 0.3833458 -0.23605473 -0.15332316 0.27761498 -0.31750816
-0.00070994074 1.5469283 -0.54637843 0.32163405 -0.12828417 -0.03832642 0.10687303 0.22685483
0.21011743 -0.15907022 -3.96303 0.23117869 -0.5107703 0.0008110487 -0.11808107 -0.14405303
0.18158165 -0.2710598 -0.1481238 0.15140048 -0.2924728 0.22194855 -0.14698453 0.07266862
0.21258312 0.29463688 0.070706725 -0.22778182 -1.4389751 0.3593504 -0.570748 -0.008397796
-0.06325578 0.22822776 0.14409888 0.2507814 0.11690806 5.709548 0.02280039 -0.26537302
-0.103495285 -0.020072453 -0.08203158 0.209254 0.24373564 -0.047649167 -3.6969116 -0.42228037
-0.30336556 -0.154179 -0.08637289 -0.10965851 0.18583623 0.0027249753 0.3014963 4.2466226
-0.15687716 0.08534553 -0.37771732 -0.08042822 -0.3097122 -0.31470102 0.19339398 -0.13962603
1.3912157 -0.51569486 0.62696284 -0.17952052 0.0898391 -0.09935994 0.22229871 -0.28394008
0.24172513 1.0219935 0.18296936 0.25864503 0.4649528 0.05023008 -1.0608351 0.24176589
0.057653874 -0.024002602 3.4761446 -0.045551367 0.09673304 -0.15789992 0.18838383 0.16594733
-0.10962984 -0.26622742 0.1696497 -5.538288 0.17985731 -0.190093 -0.27192014 -0.19891784
-0.18665609 0.071240574 0.07953647 -0.012964729 -0.5072023 -0.50811154 -0.16588236 -0.30069056

fc1.bias f4 [256]
00000000: d254 4b3e 3afb f4be d212 d6be 9f6a abbe
00000010: f4ec afbd cd96 bc3d 10f9 8c3e 3514 d03e
00000020: ceab f7be 4675 adbd c1c7 fbbd 9828 c33d
00000030: 37de dd3e d9cc 793e 165a 83be 16d1 7e3e
00000040: b8f5 d23e 6cfd 003f a55e b7be 52c6 093f
00000050: 84b8 2abf 8594 6dbd a2aa 163e 1bd8 413e
00000060: 1616 873d df95 81be 6be7 cd3e b278 e23d
00000070: 86ff ffbe 94c7 933e a728 1b3e 9377 1dbe
00000080: 07b2 263e 0ef1 a03d 2460 8dbe 77a9 02be
00000090: 56d4 203e 2140 c13d 3214 fc3d 94cb 4c3d
000000a0: 4af6 873e 5586 3f3e 2ee8 92bd b8f6 c3be
000000b0: 1c7f 873e 8222 8c3e f92d cf3e 168d a1be
000000c0: 6224 86be 1547 05bf 81fd 83bb f0a1 5fbe
000000d0: cd21 133e 26a9 fa3d db09 ddbc d455 9e3e
000000e0: ccfb 84be 447f a53e 171a 7f3e e008 dd3e
000000f0: 1f21 b13d e64b 04bf 9e40 e0bc ddfb 81be
00000100: a03e aa3d 1a27 263e 14d3 523e 12fd be3e
00000110: 6f51 0a3d 86bd 02be 77c4 293e ba11 99be
00000120: cd19 a03e a84c 38bf 1cd5 aabe a368 a63e
00000130: 0466 a8be ed41 d1be 076d 983e 4a96 de3e
00000140: 0813 04be 19e9 0ebe bf44 b33e bd80 753e
00000150: bc43 833d 014f bfbe 4f4a b5be 6fd9 c8be
00000160: ee74 a03e 80e3 68be 535d 473e ab37 adbe
00000170: dd4e 9ebd 1029 ab3d 54e8 543e bce2 07bf
00000180: 6d97 a03e d3d8 703e 269c 0a3e e6bf 133c
00000190: 9e8c 803e bd31 853d c61f 8b3d 0641 12be
000001a0: 792f d6bd 0de3 ecbd a818 16bf 4f0e ecbe
000001b0: 1237 0dbe 46c4 e1be 2416 97be 12bf 813e
000001c0: c453 653e 5a18 ad3e cf01 a73e 6286 a43e
000001d0: 8d55 ba3e 095b 323e 2aec c03d 3e9b 8b3d
000001e0: 78d8 b63e f28c 0bbf 0f97 9b3e 0d01 90be
000001f0: c909 8ebe 0c7d 5dbd f5cc 41be f733 48be
00000200: 561c fb3d 7361 0a3e 5d12 273e 4a11 9ebd
00000210: 017a ad3e ba72 0a3e eb32 42be 95f6 363e
00000220: de72 b43e 82f0 2bbe 5ef6 963e 1eab 5dbe
00000230: 1853 0d3e da3d 1cbf fd0d e23e d6f9 9e3e
00000240: 71b6 0bbe c26f 603e c1fb 8bbe 816c 3d3e
00000250: 6a74 3f3e 8d54 c9be 2dbc d53e cd3e eb3d
00000260: 702f 0dbe 91c8 943e 81e4 4c3e 95e8 f4be
00000270: bb6a 993d 796c 6e3e 9093 e9be 9e67 58bf
00000280: 2266 efbe f25b c73d b1b8 a6bc 56ca 723e
00000290: 2c2d d53d 802a 353e a63c 573e 75a9 c5be
000002a0: 5e13 ad3d d6a8 b83e 9dbd 2f3e 98ba fabe
000002b0: 91f5 40bd d428 e7bd a0ea 11be 2e73 873e
000002c0: bbe4 533e dd30 ddbe 91ad 03be 6487 e4bd
000002d0: d0ad b3bb 95ad 5f3c b0b9 06bf a006 a3bd
000002e0: 6d08 2dbf 87ae 51bf 1e79 b83c ae6e 54bf
000002f0: b52e 98be 6c8c e9bd 00a1 e0be 2feb d53e
00000300: 548c 7fbe 65a3 da3e ecd3 78be d6b0 cc3e
00000310: 180f 783e 4762 fa3e da32 9d3e 4d0b f43e
00000320: 649b 04be 9380 a6be fbb6 873d c243 013f
00000330: e8d6 a8ba a59f 75bc 9147 d93e b1f9 753d
00000340: 785c b13e beb9 dd3e fa59 e23d 4882 c53e
00000350: f853 95be c039 1f3e 81bb 17be 7b1a 633e
00000360: 30b0 00bf 5bc7 eebe 8cfa 8b3e 6ba9 bebd
00000370: 1d42 fe3e a63a d2be 649c 6a3e 0fc2 d5be
00000380: 084d 05be 7e3e 7d3e 30fd 8e3e 846c b53a
00000390: 19ee 143e 2c71 163e b691 363e 6030 23be
000003a0: 6871 4abf 8b11 40bc db7e 98be afd2 a3be
000003b0: 6ba1 4b3e 6709 5ebe cd2d 763e d509 243e
000003c0: ce5c ebbe 2752 893e a86d 903e d322 c4bd
000003d0: 22ec e63e 9255 cd3e 6398 a3be 3286 debe
000003e0: 70be 90be d949 703e b3b2 7abe 7a28 f13d
000003f0: 6db4 be3e c649 3d3e fbd9 a9be 8627 f13c
0.19856575 -0.4784792 -0.41811234 -0.33479783 -0.08590117 0.092084505 0.2753377 0.40640417
-0.48373264 -0.08469634 -0.122939594 0.09529227 0.433336 0.2439455 -0.25654668 0.24884447
0.41203094 0.5038669 -0.35814396 0.5381824 -0.666878 -0.058002967 0.14713529 0.18930094
0.065960094 -0.25309655 0.4021562 0.11058177 -0.49999636 0.28863204 0.15152226 -0.15377645
0.1627885 0.078584775 -0.27612412 -0.12759958 0.15706 0.0943606 0.123085395 0.049998835
0.2655509 0.18703587 -0.07173191 -0.3827417 0.26464164 0.27370077 0.40464762 -0.31552953
-0.26199633 -0.5206159 -0.0040280228 -0.21839118 0.14368363 0.12239294 -0.026982239 0.30924857
-0.25973356 0.32323658 0.24912296 0.43170834 0.086488955 -0.5167831 -0.027374562 -0.2538747
0.08312726 0.16225854 0.20588332 0.37302452 0.033769067 -0.1276761 0.16578852 -0.29896337
0.31269684 -0.7199197 -0.33365715 0.32501706 -0.32890332 -0.4087061 0.2977068 0.43474036
-0.12897885 -0.13956107 0.35013387 0.23974891 0.06409404 -0.37364963 -0.35408255 -0.3922839
0.3133921 -0.22743034 0.19469194 -0.33831534 -0.07729886 0.083574414 0.20791751 -0.53080344
0.3136553 0.23520212 0.13536128 0.00901792 0.25107282 0.065036274 0.0679317 -0.14282617
-0.104582734 -0.11566744 -0.5863137 -0.46104667 -0.13790539 -0.44095057 -0.2950908 0.25341088
0.22395235 0.3380764 0.32618567 0.32133776 0.36393395 0.1741754 0.09420045 0.068167195
0.35712028 -0.5451194 0.30388686 -0.28125802 -0.2774184 -0.054074332 -0.18925841 -0.19551073
0.12261264 0.13513736 0.16315599 -0.077181414 0.33882144 0.13520327 -0.18964736 0.17867501
0.35243887 -0.16790965 0.29484838 -0.21647307 0.13801229 -0.6103188 0.44151297 0.31049985
-0.13643815 0.21917632 -0.2734051 0.18498422 0.18696752 -0.3932232 0.4174513 0.11486588
-0.13787627 0.2905927 0.20009042 -0.47833696 0.0749106 0.23283567 -0.45620394 -0.8453311
-0.4675761 0.09734334 -0.02035174 0.23709998 0.104090065 0.17691994 0.2101923 -0.38605848
0.084509596 0.36066312 0.17162175 -0.48970485 -0.04710919 -0.11287084 -0.14249659 0.26455063
0.20692722 -0.43201342 -0.12859179 -0.11158636 -0.0054833665 0.013652225 -0.52627087 -0.07960248
-0.6759098 -0.8190693 0.02251869 -0.82981384 -0.29723135 -0.114037365 -0.43872833 0.41780993
-0.24955875 0.42702785 -0.24299592 0.39978665 0.24224508 0.48903105 0.3070286 0.47664872
-0.12949902 -0.3251997 0.06626698 0.50494015 -0.001288143 -0.0149916755 0.42437413 0.060052577
0.3464086 0.43305773 0.11052318 0.3857596 -0.29165626 0.15549374 -0.14817621 0.2217807
-0.5026884 -0.4663647 0.2733959 -0.09309658 0.49659815 -0.4106037 0.22911221 -0.41749617
-0.13017666 0.2473087 0.27927542 0.0013841544 0.14543952 0.14691609 0.17829022 -0.15936422
-0.79079294 -0.011722933 -0.29784283 -0.31996676 0.19885795 -0.21683274 0.24040909 0.16019376
-0.45969242 0.2682049 0.2820866 -0.09576955 0.4510203 0.40104347 -0.319522 -0.43461758
-0.28270292 0.2346567 -0.24482231 0.117752984 0.3724703 0.18485174 -0.33174118 0.029437792

fc2.weight f4 [256, 256]
00000000: 33dc 85bd d7ea 343c ad55 313d f0b6 a93c
00000010: 1944 c2bc ab76 5abd 8a49 71bd 2419 8dbd
00000020: f936 493d 90d4 553c 2f87 0fbc cb1d ba3c
00000030: 7567 ef3b 8211 2bbd 4c70 58bd 3d81 a0bc
00000040: 3f3c e9bc cd99 4f3d 9636 09bd 5ee4 12bd
00000050: 2dfc 3f3d 759c 01bd 462f 81bc 3a2b 38bd
00000060: 18bb 1cbd c389 9bbc 7e56 9b3b 574e 82bd
00000070: ea37 4cbd 395c b6bb ef77 cc3c f45e 1ebd
00000080: bdbe f13c 4580 2d3d 2619 43bc a924 34bd
00000090: 7040 583d 5a34 02bd 9d39 41bd 3a7b 8ebd
000000a0: 741c 193c a50c 3b3b 4e5c 2abd fd28 7f3d
000000b0: 66c5 01bd ca16 523d 483f 2d3c 5843 adbc
000000c0: 05d5 3abd f111 1b3c 7860 15bd 68e2 a63c
000000d0: 5a19 503d e40d 07bb b25e e43c 2f85 593d
000000e0: d310 fcbc 17b3 1ebd bddc 8cbd dbd3 23bd
000000f0: 3e77 47bb 6ec8 d9bc 8ae4 1fbd 5498 96ba
00000100: 847d 273d 252c 66bd 9ea5 123c d050 1fbd
00000110: 9efe 2b3d b8ce bfbb f22f 09bd abca 38bd
00000120: f646 8dbd d473 c8bc 44b8 fdbc 0170 0b3d
00000130: 5639 e53b 9ab0 47bd 951a 433c 80a8 6cbd
00000140: 2446 81bc 501b 4f3d 2f28 8ebd bfbc c73b
00000150: da4e 793c 204a 5abc f8fe 30bd 7d28 0ebd
00000160: 8793 e73c a0ba 7a3b 1f92 5bbd 2121 023d
00000170: c616 68bc a863 513c e60a 95bc b710 2ebd
00000180: 81e5 fe3c a35a 88bb 50a1 093c 10a1 123d
00000190: 6842 ba3c 364f 87bd b2ff 833c 4879 a23c
000001a0: ccbf 2f3c 20d0 95bb d006 f6bb c17e a73a
000001b0: 1115 9f3b 9d1e 093d f403 05bd 1658 4c3d
000001c0: 5d14 673c 1b53 82bd 0983 9ebc 836e 86bd
000001d0: fb6c 78bd cad6 2d3d 4629 2e3d 0847 3b3c
000001e0: 1c00 b7bc 16cc 40bd 2e8c c7bc d353 b93c
000001f0: 7301 24bd 7f5b 1fbd f86e d83c 4988 c3bc
00000200: a276 a9bc f4dc 1e3d 59f5 64bd 499d 203d
00000210: 0001 2b3c 4b92 7cbd 8d3b 41bd 9d92 77bc
00000220: fdbe 6aba 04d3 733d f677 fd3c 6e17 b53c
00000230: 85c6 c2bc 1a38 e93c 9a31 5ebd 1fc5 1abd
00000240: 9dab c1ba 8781 513d 5b25 fdbc e184 503d
00000250: e5f9 39bd dd62 153d 906c 5b3c 689c b8bc
00000260: 3740 f83c efd4 453c a035 cf3c 2f77 84bd
00000270: 5225 62bc 2b41 003d 370e a4bb 60c3 a5bb
00000280: 4822 c93c f313 ffbc 8172 2d3d 0c83 803c
00000290: 0f5c 12bb 2051 3e3c 20a8 01bc 84fa d93c
000002a0: b454 533d 240a 693d 4aa4 06bd 0ec2 36bd
000002b0: 439c 793d bf39 6f3d e8fa ef3c 9895 5bbd
000002c0: b79d 3dbd dc47 db3c ac94 8abc 5aee 2bbd
000002d0: 3237 713d 42a3 26b9 a311 183d d965 5b3d
000002e0: 828f 263d 549f 79bb 4f60 3dbd 6073 75bd
000002f0: e983 003d a0d4 49bd f835 533d 09c7 17bd
00000300: 9545 b6bc bc42 523c 3a24 083d 7e0c 7dbd
00000310: 73f0 43bd a4c8 863c c5e0 8ebc 23ab a43c
00000320: 483f 4abc 0ca8 01bd a1c1 cebc 5cb5 1cbd
00000330: 8a46 1fbd 3239 043c 5172 e23c db16 4f3d
00000340: 3c66 ed3c d709 6d3c 5b3c 27bd f740 0ebd
00000350: 8764 cebb 615b babc 9881 6a3c df09 77bd
00000360: 2b7f f1bc 0b52 b8bb eeea acbc b36a 33bc
00000370: 82e3 fe3c de82 863c b46f 4dbd 0426 6abc
00000380: 4a71 323d 05e7 d2ba b151 bfbb 4fa0 fe3b
00000390: 422d 953c 1464 61bd 606b 143c a0df 203d
000003a0: fac8 083d 8200 4f3d 57f5 37bd 2b1b b1bc
000003b0: c0bb 79bc edd1 35bd 0722 733c 46d0 cb3c
000003c0: 46bf 66bc 7a42 00bd d10e 393d 16a8 913c
000003d0: 1cfe 28bc 2e6a 133d 722f 3c3d 740a 253d
000003e0: 91ff b8bc 1e23 51bd 562b 7ebd 0228 1b3d
000003f0: 78a2 a13c 8c0f 54bd 0447 6abd 5330 28bc
-0.0653614 0.011042318 0.043294597 0.020717114 -0.023714112 -0.053335827 -0.058908023 -0.06889561
0.04912469 0.013051167 -0.008760258 0.022719285 0.007306034 -0.041764744 -0.05284147 -0.019592876
-0.02847111 0.050683785 -0.033499323 -0.03586232 0.046871353 -0.03164335 -0.015769612 -0.0449631
-0.038264364 -0.018986588 0.0047405353 -0.063625984 -0.04985801 -0.005565193 0.024959533 -0.038664773
0.029509896 0.042358655 -0.011907851 -0.043980274 0.052795827 -0.031788208 -0.047174085 -0.06957097
0.009345163 0.0028541472 -0.041591935 0.06229495 -0.031682394 0.051291265 0.010574169 -0.021150276
-0.045613308 0.009464727 -0.036468953 0.02037163 0.050805427 -0.0020607645 0.027877185 0.05310553
-0.030769741 -0.038745012 -0.0687804 -0.039996963 -0.0030436064 -0.02658483 -0.03903631 -0.0011489489
0.040891185 -0.056194443 0.008950619 -0.03889543 0.04199087 -0.0058535 -0.03349299 -0.045115154
-0.068983 -0.024469294 -0.030971654 0.034042362 0.0069953604 -0.048752405 0.011908193 -0.05777788
-0.015780516 0.050563157 -0.06941258 0.0060954983 0.015216554 -0.013323337 -0.043211907 -0.03470658
0.028268589 0.003825821 -0.05360615 0.031769875 -0.014165586 0.012780108 -0.018193673 -0.04249641
0.031115295 -0.0041611954 0.008400276 0.035798132 0.022736743 -0.06606905 0.016113136 0.019833222
0.01072688 -0.0045719296 -0.0075081363 0.0012778864 0.0048548062 0.03347646 -0.032474473 0.049888693
0.014103976 -0.06363507 -0.019349592 -0.06564047 -0.060650807 0.042441167 0.04251983 0.011430509
-0.02233892 -0.04706963 -0.024358835 0.022622978 -0.040040445 -0.038905617 0.026420102 -0.023868697
-0.020686451 0.038784936 -0.055898044 0.0392125 0.01043725 -0.061662953 -0.047175933 -0.015110639
-0.0008954851 0.059527412 0.03094099 0.022105899 -0.023776302 0.028469134 -0.054246522 -0.037785646
-0.0014775876 0.051148918 -0.030901602 0.050907973 -0.045404334 0.036471236 0.013392583 -0.022535518
0.030304058 0.012074693 0.025294125 -0.06468045 -0.013802843 0.03131215 -0.0050065774 -0.005058691
0.02455248 -0.031137442 0.042345528 0.015687488 -0.0022332703 0.011616021 -0.007913619 0.026608713
0.05159445 0.056894436 -0.032871522 -0.04461866 0.06094004 0.05840468 0.029294446 -0.05360946
-0.046292987 0.026767664 -0.016916595 -0.041975357 0.05889053 -0.00015891812 0.037126195 0.053563926
0.040664203 -0.0038089352 -0.046234425 -0.059924483 0.0313758 -0.04927504 0.05156514 -0.03705505
-0.022249976 0.0128332935 0.033237673 -0.06177949 -0.047836732 0.016453095 -0.017441163 0.020101136
-0.012344189 -0.031654403 -0.025238814 -0.038258895 -0.03888563 0.008070277 0.027642401 0.050558906
0.028979413 0.014467678 -0.040829044 -0.034729924 -0.006298605 -0.022748651 0.014313124 -0.06031215
-0.029479584 -0.0056250147 -0.021108117 -0.010950732 0.031114344 0.016419824 -0.050155357 -0.01429129
0.043565072 -0.0016090578 -0.005838596 0.007770575 0.018210057 -0.055027083 0.009058803 0.039275765
0.03339479 0.050537594 -0.04491171 -0.0216194 -0.015242517 -0.044389654 0.014839656 0.024879586
-0.014083689 -0.031313397 0.045180146 0.017780345 -0.010314491 0.035989933 0.045943685 0.040293172
-0.022582801 -0.05105888 -0.062053047 0.03787995 0.019730791 -0.05177264 -0.057196632 -0.010265428

fc2.bias f4 [256]
00000000: 970a 20bc 16f2 1bbd d04b 7ebd 0a1c d7bd
00000010: 29c4 433e 1989 803d cfe2 cabd ee3c 8c3c
00000020: d63e 0e3a 5a39 613d 87b4 fa3d 618d 573d
00000030: e904 483d 7b72 3d3e c4a3 403e 7dbf 083e
00000040: 11cb 983d fad4 91bd 1cc5 f43c 86d6 be3d
00000050: 0fd5 3ebd 814b b13d 8625 7ebd 6bec 073d
00000060: 5c74 6b3e 9e36 aa3d dc06 a1bd a42d 2c3e
00000070: 4bf8 593d f6d0 5cbd 4dfc 953a 0eb2 52bd
00000080: 6028 a63d 0e12 29bd 3066 8a3d 33c7 f03d
00000090: 1f9b d03b a997 d73e 2dc4 be3d 9234 8c3e
000000a0: b2d0 e63d cae5 bb3d cb2a c23d 5299 643e
000000b0: 6b99 98bd 8430 e13d 547c 41bd f002 103d
000000c0: 555a ac3d 413a b73e f6f4 823e d924 35bc
000000d0: 4615 3cbd acbd 043d 990c 463d 7873 9c3d
000000e0: 103d 143a c5ef 72bd 4adc e23d 6cb3 633d
000000f0: 3c6c e03d aa39 ac3d add2 a5bd 1d8e b63d
00000100: 2c36 cfbd d532 86bd 26be 0b3d f181 6b3c
00000110: ef1c 0c3d 1099 f73b f373 43bd 141a d3bd
00000120: d721 95bd a24d 353e 5da7 743d b3c9 b33d
00000130: da64 393e ba8e 8c3e efff cc3d b6b1 ccbc
00000140: a189 893a b310 2f3d 9f9e 803e 41d7 87bc
00000150: 0e31 a53b 2336 e43d 6ab9 273d 02cb c13c
00000160: 29ba 63bd 7da3 0f3e 8d0c 293d 7f50 a63a
00000170: 6999 663d fc4e 013e bb5d 4a3e 46eb b8bc
00000180: fa49 8c3e 2c5f 333d 913f 013e 7be3 eb3e
00000190: 714f cabb 8fac d2bc b676 373b 3195 65bd
000001a0: 4f56 d43a 21c5 1e3e 2f32 25bd da31 0d3e
000001b0: f348 1f3e dac3 0a3d 455d 65bd 81f7 203d
000001c0: 365e 81be 5d5d 73bd e614 083e 1e1c 0bbd
000001d0: 8562 93bb 261c 113e 71bb 8ebc e07f 2abd
000001e0: ba96 ce3c d932 b93e cb7e cd3c 68fa 77bc
000001f0: 49e6 853d c50f 853e 7065 653d e183 a4bd
00000200: 9dd6 d6bc 2457 823d 53f0 89bd 45df b4bb
00000210: 3717 ff3c 842c 4bbd 6eb7 db3d 62ad b2bc
00000220: 3f7d 07be d49f aa3d 2cd0 413e 48b2 65be
00000230: 5268 573c 813a 4cbd 0a7a a83d de7e 8f3d
00000240: 2486 07bd 0e65 1abd f925 de3d 2c92 57bd
00000250: 1631 1b3e 5437 b1bd 6041 983d 8ed3 b9bc
00000260: 5770 9abd fcee b53c 4c66 d53d d225 e43d
00000270: 3ac0 d3bd 4cd3 4cbd 4468 493d ccf8 e83d
00000280: 71d4 ae3d 2e99 26bd b5d4 bf3c 6b0e ed3d
00000290: ea5a 023d 73a1 c9bd 746a 143e 59aa 8abd
000002a0: 8481 e4bd 1891 7ebd bc5b 033e b945 b2bc
000002b0: 54be e23c b68e 143c 5444 073e 14ec b33d
000002c0: 74b0 72bd 6c34 30bd 56c1 573e 9ce1 5cbc
000002d0: 9dcb 24be da4f c33d 4798 24bd e3df e23d
000002e0: 9f8e 7a3d c627 273b 6ead 0d3e 365d 6b3e
000002f0: bc5e d13d 2c56 013e 9f0f c5be eaa1 96bd
00000300: 1f1a 4b3e fd87 8fbd ec7f 913d 5f5b 633b
00000310: e421 80bc f396 043e a7dc d03d 8324 82bd
00000320: 0cda 9c3c c0d6 b33d 1f03 7f3e ec60 b43e
00000330: b501 5d3e f371 293d 3eb6 6a3d 4b34 283e
00000340: 5523 be3b a012 4a3d 2f50 173e 90fb 093d
00000350: 4144 fbbc fc72 92bc a886 fd3d 702c 47bb
00000360: 7f0f 633d 723f 9c3c f4ec 37be 66fd d53b
00000370: 6380 2abe 2330 0c3d d7f6 38be 3fdc 013e
00000380: bce5 3bbd df94 bf3d 558e 953d 0ca2 923e
00000390: 4ad2 ee3d 7721 3fbd 92e3 b03c 8f55 82bd
000003a0: 040a a1bd e8c3 153c 298a 1dbd d8cb 0fbe
000003b0: 51f7 e03d 6eab aebd c1bb 323e 2998 8c3d
000003c0: 45ab 883d 0b0e 34bc 0aa7 103d a06b 08bd
000003d0: 7464 32bd 0312 643c 1a0a 59bd e3e7 c03c
000003e0: 645a 943d e799 4e3d 3766 253e 422d e7bd
000003f0: 6547 053e 1435 8e3b 66ac 333d c204 8f3d
-0.00976815 -0.038072668 -0.06208402 -0.10503395 0.19117798 0.06276149 -0.099065416 0.017118897
0.00054262334 0.054986335 0.12241464 0.052625064 0.048832808 0.18500702 0.18812472 0.13354297
0.07460607 -0.071207 0.029879145 0.09318261 -0.046589907 0.08656979 -0.062047504 0.03318445
0.22993606 0.08311199 -0.078626364 0.16814286 0.053215306 -0.05391022 0.0011442989 -0.051439337
0.0811317 -0.041276984 0.06757772 0.11756744 0.006366148 0.42107895 0.09314761 0.27383858
0.11270274 0.09174688 0.09480818 0.22324112 -0.07451137 0.10995582 -0.04723771 0.03515905
0.08415667 0.35786632 0.25577515 -0.011056148 -0.045918725 0.032407448 0.048351858 0.076392114
0.0005654851 -0.059310693 0.11077173 0.055591032 0.10958144 0.08409436 -0.08096824 0.08913825
-0.10117754 -0.06552664 0.034116887 0.014374242 0.03420728 0.0075560883 -0.047718 -0.103077084
-0.07281845 0.17705396 0.059729923 0.087787054 0.18104878 0.27452642 0.10009753 -0.024987083
0.0010493287 0.042740535 0.25121018 -0.016582133 0.005041248 0.11143138 0.04094831 0.023656372
-0.055597458 0.1402721 0.041271735 0.0012688785 0.056298647 0.12627786 0.19762318 -0.022573125
0.2740019 0.043791935 0.12621905 0.4607199 -0.006174021 -0.025717048 0.0027994341 -0.056050483
0.0016200038 0.15504886 -0.040331062 0.13788548 0.15555172 0.033878185 -0.055997152 0.039298538
-0.2526719 -0.05941521 0.13289222 -0.03396236 -0.0044978284 0.14170894 -0.017423363 -0.041625857
0.025218356 0.36171606 0.025084874 -0.015135385 0.06538064 0.25988594 0.05600494 -0.080329664
-0.026225382 0.06364277 -0.06735291 -0.00551978 0.031139 -0.049603 0.10728346 -0.021811191
-0.13231371 0.08331266 0.18927068 -0.2243129 0.0131474305 -0.04986048 0.08226402 0.0700662
-0.03308691 -0.03769403 0.108470865 -0.052629635 0.15155444 -0.08653131 0.07434344 -0.022683885
-0.075409584 0.022208683 0.10419902 0.11140026 -0.10339399 -0.050006196 0.0491717 0.11375579
0.08536614 -0.040673427 0.023416856 0.11575016 0.031824984 -0.09845247 0.14493734 -0.067707725
-0.11157516 -0.06215009 0.12827963 -0.021761762 0.027678646 0.009067228 0.13209659 0.08785263
-0.05925031 -0.043018743 0.21069846 -0.013481524 -0.16093297 0.09536715 -0.040184285 0.11077859
0.06117117 0.0025505885 0.1383569 0.22984776 0.10223147 0.12630528 -0.3848848 -0.073551014
0.19834183 -0.070083596 0.07104477 0.0034691913 -0.01564116 0.12948208 0.10198336 -0.0635462
0.019146942 0.08781195 0.24903534 0.35230196 0.21582682 0.041368436 0.057302706 0.16426198
0.0058025518 0.04933417 0.14776681 0.033687174 -0.030672194 -0.017877094 0.12379199 -0.0030391477
0.0554347 0.019073222 -0.17961484 0.0065304516 -0.16650538 0.034225594 -0.18062912 0.12681673
-0.04587339 0.09354567 0.07302538 0.28639257 0.11661203 -0.046662774 0.021592889 -0.06363975
-0.078632385 0.009140946 -0.038461838 -0.14042604 0.10984672 -0.08528791 0.17454435 0.0686496
0.06673292 -0.010989676 0.03531555 -0.033305764 -0.04355283 0.01392031 -0.05298815 0.023548072
0.07243803 0.05043974 0.16152273 -0.11287929 0.13015516 0.0043398235 0.043865584 0.06983329

fc3.weight f4 [128, 256]
00000000: f884 423d d80b 233d d495 613c 5a9b 233d
00000010: 72a5 95bc 9afa 5f3d 70c8 efbb c050 573b
00000020: f04c a9bd 0bef 97bd b737 8cbd 6724 70bd
00000030: 45c2 73bd a1e9 293d 4457 03bd e8f3 dc3c
00000040: 0936 8a3b 064d 92bd c1e6 11bd 9d5e 56bd
00000050: 3230 20bc 7acc 02bd 8067 903a 255c d13b
00000060: dd3c 97bc 2509 97bd 7f46 37bd 87f7 82bd
00000070: c456 1c3d 2680 583d 5b83 f6bb 5aae d23c
00000080: 3e31 edbc f83f 14bc d466 613d 7ed1 c23c
00000090: 7b24 5e3d 7579 9ebd 5457 473d b454 c0bc
000000a0: 3e7d 3dbd 0c7a 11bb 4f7d dabc 0066 00bd
000000b0: 98ec 5abd 6b71 053d e68e 663d a2e7 f63b
000000c0: 07b8 b1bd 6c7c 54bd 673e adbd c8de dd3c
000000d0: 6d74 d2bc d812 9a3b 6f37 31bd 9b5f acbb
000000e0: 89d4 c73c 1250 4fbd f37f 053d e4f2 9bbc
000000f0: f5b7 c4bc 7005 593c 00e0 bb3b f72c 63bd
00000100: 335e fc3c 88c8 7bbd 6c22 38bd 42e2 823c
00000110: c43b cbbc 0918 fb3c d002 3a3b 1b43 06bd
00000120: c0ab ab3b 227b 6abd 55b3 883b 6b61 95bd
00000130: e092 faba 856c 18bd 6d5c 8a3d 5c84 5bbd
00000140: 126a 4f3d be23 103d b946 0abd 586c 6b3b
00000150: 8a76 5b3d 37e1 5dbb 38f6 653d 9c80 70bd
00000160: d636 78bd 04ae b1bd 78bd 1e3d 6c30 a43c
00000170: 177b 553c 91f7 4bbd b11b a73c 4a61 94bc
00000180: 9d42 10bb 164a 5dbd 14fe acbb 0a2b 513c
00000190: 7f9a 0cbd 9284 25bd 6ccf 07bd 8e7d dcbc
000001a0: 28e1 3e3c 2e3e e0bc 140d 103d 39ce a9bc
000001b0: 9ceb 003d 32bb be3c c898 f53c d44e 6b3b
000001c0: 41e6 acbc d777 013d 01df e7bc b7ba 63bc
000001d0: abcb b43b 593a 9f3c b003 cabc 12ce 55bd
000001e0: fade 183d f16e 0abd 93b3 233d 6bc9 0abd
000001f0: bd13 03bd 8a6f 473c 13e2 c83c aabb 9cbc
00000200: 8a02 113d 89e7 113d 140c 2bbd 6f7d 44bc
00000210: cae2 bdbc 6872 493d 3272 2dbd b072 d53b
00000220: 47cc 633c 9dc1 723d 6879 e6bc 69a6 93bd
00000230: 809c 72bc c077 9a3c 896e 5cbb ef2b 1ebd
00000240: d0da e63c d45c dcbc bd29 e83a 5420 32bd
00000250: faab 2e3d 8ab6 013d 0bb4 69bd 7dac 333d
00000260: 2e6b 00bc 29af 9dbd de97 eb3c e96f 8d3c
00000270: 089e 903a 3aa6 2cbd 9a6b 123d 1b17 80bd
00000280: 7370 92bd de2d 23bd a03a c8bb 66be 0b3c
00000290: 2981 8cbd f96f 9b3c 3822 1d3d 14a3 bd3c
000002a0: afe3 103d 0c88 013d 90b2 35bd b8e6 6fbd
000002b0: 3056 c7bc 74c7 183d ea89 a03c 5b32 133d
000002c0: 535d 243d 1226 03bd 175f 2f3b a6c8 7dbd
000002d0: df06 363d 0f96 693d 7084 d13b fafe 85bc
000002e0: 2e72 2dbd dbff 71bd 018e f53c 699f 67bd
000002f0: a4f1 36bc 7deb 163d 6047 6ebd 6e07 82bd
00000300: c04f a9bc 151d 0e3d 935c 6dbc 249b 23bd
00000310: 06ed 253d bae1 0c3c 46c9 74bd 323d 62bd
00000320: e799 cb3c 6c44 593c f304 25bd a4e8 05bd
00000330: 3441 f63a 8534 3cbd 2ea5 1a3d 8901 2ebd
00000340: 26a5 393d f7c9 1e3d e9fb 083d 63bf 333c
00000350: 50c0 e3bc 30c9 7abd 2ad5 26bd 2e76 8f3c
00000360: eb00 60bc cffc 66bd 2526 aabd 9b58 93bd
00000370: 034e e8bc 4079 243b 6a97 8fbc 8c3d 18bd
00000380: 30a4 1dbc 9b98 c23b 601a b5bb 4bbb f8bb
00000390: 57ce 243d c222 383d 4bcc 97bb 3c94 bcbc
000003a0: 9cdc d4bc 5802 513d ce82 7dbd 34da 0abd
000003b0: e33d c33c 140b e6bc e6a3 853a 5c9e fc3c
000003c0: 2195 e1bd 75c6 f6bc 318d c03c ec15 433d
000003d0: fcb6 f43c a079 cebb a00e a33c 1bdf f63c
000003e0: f7d2 62bb 4719 6b3c eade f03a 88b6 98bc
000003f0: 1a53 efbc e896 b2bc 5727 cfbb 6f0f 053d
0.04749009 0.039806217 0.013768632 0.039943077 -0.018267367 0.05468235 -0.007317595 0.0032854527
-0.08266628 -0.07418641 -0.06846564 -0.058628466 -0.05951144 0.04148257 -0.032065645 0.026971772
0.0042178673 -0.07143597 -0.035620455 -0.052336324 -0.009777116 -0.031933285 0.0011017174 0.0063891583
-0.018461639 -0.07374791 -0.044744965 -0.06394868 0.038168684 0.052856587 -0.007522983 0.025717903
-0.028954145 -0.009048454 0.055029705 0.023781534 0.05423401 -0.0773801 0.048667267 -0.02347789
-0.04626202 -0.002219799 -0.02667108 -0.031347275 -0.05344829 0.032578867 0.056288622 0.007534937
-0.086776786 -0.05187647 -0.08459168 0.02708377 -0.025690282 0.0047019534 -0.043265756 -0.0052604205
0.024393337 -0.05061347 0.032592725 -0.019036718 -0.024013499 0.013245925 0.00573349 -0.055462804
0.030806636 -0.06147054 -0.044954702 0.015977029 -0.024808772 0.03065111 0.0028383024 -0.03277884
0.00523898 -0.057246335 0.0041717687 -0.07293972 -0.0019117258 -0.037212867 0.0675591 -0.053593025
0.050638266 0.035190336 -0.033758853 0.0035922732 0.053579845 -0.0033856162 0.056143016 -0.0587164
-0.06059917 -0.08675769 0.03875491 0.02004262 0.013029835 -0.049796645 0.020398946 -0.018112797
-0.002201236 -0.054025732 -0.005279312 0.012766609 -0.034327026 -0.040409632 -0.033156797 -0.026915338
0.011650361 -0.0273734 0.035168722 -0.020728217 0.031474695 0.023282621 0.029980078 0.003590514
-0.021105887 0.03160843 -0.028304579 -0.013899497 0.005517443 0.019437002 -0.024659961 -0.052198477
0.037322022 -0.03379721 0.039966177 -0.033883493 -0.032001246 0.012172589 0.024521863 -0.019132454
0.035402812 0.0356212 -0.041759565 -0.011992796 -0.02317943 0.049181372 -0.042345233 0.006513916
0.013903684 0.059266675 -0.028134063 -0.072094746 -0.01480782 0.01885593 -0.003363522 -0.038616117
0.02818051 -0.026899733 0.0017712634 -0.04348786 0.04264448 0.031668223 -0.057056468 0.04386567
-0.007838054 -0.07699425 0.02875894 0.017265277 0.0011033425 -0.042150714 0.035747148 -0.06254407
-0.07150354 -0.039838664 -0.0061105043 0.008529281 -0.06860573 0.018974291 0.03836271 0.02314905
0.035373386 0.031623885 -0.044359744 -0.05856964 -0.02433309 0.03729959 0.019597013 0.035936695
0.040128063 -0.03201873 0.0026759559 -0.06195893 0.044440147 0.057027873 0.0063939616 -0.016356934
-0.04234522 -0.059081893 0.02997494 -0.05654851 -0.01116601 0.036845673 -0.058173537 -0.06349073
-0.02066791 0.034695704 -0.014487403 -0.039942876 0.040509246 0.008598739 -0.05976226 -0.05523414
0.02485366 0.013260942 -0.040287923 -0.032692567 0.0018787743 -0.045948524 0.037755184 -0.042481933
0.045323513 0.038766827 0.033443365 0.010970923 -0.027801663 -0.061227024 -0.040730633 0.017512407
-0.013672094 -0.05639344 -0.08308057 -0.071946345 -0.028357511 0.0025096685 -0.017528255 -0.03716807
-0.009621665 0.005938602 -0.005526826 -0.0075906864 0.040235844 0.044955023 -0.004632508 -0.023019902
-0.025984101 0.051027626 -0.061892323 -0.0338995 0.02383322 -0.028081454 0.001019594 0.03083723
-0.11014772 -0.030123929 0.023504825 0.04762833 0.02987241 -0.00630112 0.019904435 0.030135682
-0.0034610608 0.014349288 0.001837698 -0.018641725 -0.02921443 -0.021800473 -0.0063218283 0.03248542

fc3.bias f4 [128]
00000000: 2ce0 3f3d 336a 893d 8bcb 093e 575a 1dbd
00000010: a20e 303e bb22 89bd d17a 93be ddcd 7bbd
00000020: d1ec 1fbd 45b7 413c eb70 d23d cd18 dabd
00000030: 462d e23d 6a2b f3bc 57c2 163e d4ee 853d
00000040: 95d0 043e 3846 313d b1a0 4d3e 47bb cf3d
00000050: 5c2e 56bd 9983 f53d 3dfa 693d dba5 7d3c
00000060: fbbb 7d3d ce7d 123e 645b 233e db0c 043d
00000070: 375e 0d3e 7aa7 9cbc 448f 303e 313d 733d
00000080: cae1 4e3d d8b0 023e bacb 1d3e eb32 393c
00000090: 9acf cfbb 0ea8 eabd e6ea 3b3d 9863 043e
000000a0: 1eef a7bd d266 81bc 996c 223d 72fa 7dbd
000000b0: f8aa 3a3e 0b6a 26bd 1e27 04bd be84 093d
000000c0: 3a87 4a3d 77a6 98bd b693 bebc 502b 123d
000000d0: d066 bc3c 9da8 ba3c 275c 3c3e a6ac 213c
000000e0: 72d6 61bb d82b 18bd 5725 973d 26d5 49bd
000000f0: 355d c03b 48e6 afbc a563 b7bc 43e4 95bd
00000100: d1d1 053e a1b9 c0bd 2b4f 023d 0559 2f3e
00000110: ae42 f53d 5525 4ebc defa f93d 5ca9 df3d
00000120: 1c27 fabc 38b2 583e 2ff1 b23d 509e 1a3d
00000130: 6b6e 5c3d ccab e93d 44cb e6bc e318 08bb
00000140: 8a1b 8bbd 4ee0 363e e7e2 2d3e 49a1 d33c
00000150: cf49 a6bc 7b0a 1e3c 20f0 933e a90b fb3d
00000160: 5d50 52bd 51c8 ed3d 352a b9bd 9ee8 483e
00000170: 1d27 44bd ea8d 603e 47ec 373e cdae 053d
00000180: 19c6 963e 5dfe 90bd 3ef3 833e 65f0 0d3e
00000190: 1c05 9c3c 8982 63bd 26e7 fd3c 6f58 51bd
000001a0: fa1f 173d f203 e83d a5a1 a9bd 0988 3e3e
000001b0: 9aea 3c3e aaf1 2a3d 73eb 083e d7ea 063e
000001c0: 606f 563d 31fc bf3c ff29 9e3d 05ef 6bbd
000001d0: 2c31 fa3d 4797 203e 5d97 de3e 87d0 d23d
000001e0: 61f2 423e 1839 13bc 8b4a b83d 95de 2a3d
000001f0: 403f 21bd 1342 a53d de9c b23d 30de 0a3c
0.046844646 0.06709709 0.13456552 -0.038416233 0.17193082 -0.066960774 -0.2880464 -0.061475623
-0.039044205 0.01182348 0.10275444 -0.106492616 0.110437915 -0.029683787 0.14722572 0.065396935
0.12970193 0.043279856 0.2008083 0.10143142 -0.052290305 0.11987991 0.05712341 0.015481438
0.06194685 0.14305803 0.15952832 0.032238822 0.13805471 -0.019122828 0.17242151 0.05938453
0.050508298 0.12762773 0.15409747 0.011303644 -0.0063418867 -0.11457835 0.045878313 0.12928617
-0.08199905 -0.015796099 0.039654348 -0.06200642 0.18229282 -0.040628474 -0.032263868 0.03357386
0.04944537 -0.07453626 -0.023263793 0.035685837 0.022998244 0.02278548 0.18394528 0.009867823
-0.0034460095 -0.037151188 0.07380169 -0.04927554 0.005870486 -0.021472111 -0.022386381 -0.07318928
0.1306832 -0.09410406 0.03181378 0.17123802 0.11975609 -0.012582143 0.12206052 0.109209746
-0.030536227 0.21161735 0.08737408 0.037748635 0.05381624 0.11409721 -0.028173096 -0.0020766787
-0.06792362 0.17859003 0.16981088 0.025833743 -0.020298867 0.009646053 0.28894138 0.122580834
-0.05134617 0.11610473 -0.090412535 0.19619986 -0.047888864 0.21929136 0.17961226 0.032637406
0.29448012 -0.07079766 0.25771517 0.13861234 0.019045405 -0.05554441 0.03099401 -0.051109727
0.03689573 0.113288775 -0.082827844 0.18606581 0.18448868 0.041734375 0.13371067 0.13175522
0.05235231 0.023435684 0.07722854 -0.057600994 0.1221641 0.15682708 0.43474856 0.1029368
0.19037773 -0.00898578 0.08998593 0.041716177 -0.03936696 0.08069243 0.08721326 0.008475825

fc4.weight f4 [7, 128]
00000000: d835 7fbd 573b d0be 5c1a 0e3f ad65 883d
00000010: 15c1 9ebe 088e 293f c361 c73e d3cf 09bd
00000020: 1dfb 2fbd b53a 07bf 0624 fbbe e742 023d
00000030: c1f6 133f 204a 613f 442b 103f c8bc 13c0
00000040: 5e26 173f 878d fb3e 21b9 43bf ec83 0f3f
00000050: ea94 303d 78f7 d83f 8cf2 2d3f c024 1b3f
00000060: e60f 163f a15d b9be 4e94 0e3f 2406 08c0
00000070: 117b 843f 1691 5a3d de61 063f 2b27 143f
00000080: 5b68 153f 8112 dcbe fe9b 42bf 4bc0 1abd
00000090: a999 f73b 60e4 983e 800f 07bd 53b7 073f
000000a0: 084b 73bd 69b2 923d 0d47 a6be 0a8c bcbd
000000b0: 876b 31bf af81 98bd 4d22 833c b973 21bd
000000c0: 3536 9abd fa12 51bd 0206 0bbd 4066 4dbb
000000d0: 2ce9 40bc f45c 43bd 9915 44bf b66f 463f
000000e0: d3d1 713d 5478 07bd 3d61 b7be 3928 9bba
000000f0: 4a97 a4bd 1769 893d d84f d2bf 4da0 d8bc
00000100: 0e5d 31bf dc6a 03bf 134e 81bd 2db7 46bf
00000110: c8f8 093f a593 993d 2420 57bf 365b 3abf
00000120: 06db 993f c587 40bf 7bcb 063f ecce 96bc
00000130: f968 20bd 2423 03bf dc5e 3abd a6b3 fcbc
00000140: a328 8cbf a96c 0f3f 5196 ef3e 2549 32bd
00000150: fbf6 553f 7b4e 04bd ce8e b6be 7ad2 133f
00000160: 54dd 47bd 450c 1bbf a896 04bc a29f 46bf
00000170: f7aa 093e 0494 27bf 80cb 84be 09e4 063f
00000180: 07f4 a4bc 69ab 933d b936 42bf bf67 36bf
00000190: 7086 003f 32e2 e6bf 75ae 29bd da69 9ebc
000001a0: 0423 053c fd14 013f ade5 6f3f 2c98 103f
000001b0: e653 2ebf b65c 0e3d 5340 333f 634d f1be
000001c0: bab1 043f c89c 2ebd e149 fb3e f3bc 62bd
000001d0: bbe6 ffbe 80db 0b3f 1044 523e 4716 3cbf
000001e0: 15b5 2fbf 31e6 503d e00a 223f 9d64 083f
000001f0: 916e c63f 0cf6 2cc0 5b2f 013f 824a 32bd
00000200: 2600 e9bc 5e59 acbe ce5c ef3e 3ce5 203d
00000210: 7e0e c2be 12ce 4d3f 321d be3e 2b9e 3dbd
00000220: 388d b0bc 5681 1fbf 2fdc dfbe ddf8 8fbb
00000230: f110 e83e c5d4 263f 647f 1bbe 03db 1fc0
00000240: 42d2 003f a083 1e3f 395f 3cbf 2074 033f
00000250: aa1d ebbc f494 da3f c687 523f 0615 103f
00000260: 49c3 103f b1d7 32be 274a fd3e bcf5 f4bf
00000270: e117 873f 9fee 6e3d f93c f03e 8972 043f
00000280: 81ce 0e3f 452d ccbe 724e 35bf 3e9b 8bbd
00000290: e819 e0bb 3d73 913e d2ef c43d 79ca 083f
000002a0: 2d21 c23d f672 213d fc0a a4be 5e02 b9bd
000002b0: 8ec6 4fbf a385 cdbc 82c6 963d 997c 3ebd
000002c0: 1938 d43c 098d 5a3d b2f8 62bd 8376 88bd
000002d0: 0dd7 603d b2eb b2bd 8177 50bf d668 4f3f
000002e0: 6d87 b53d 3db3 b23d 0f52 4cbe b6bc aabc
000002f0: abe4 4fbd 7829 45bd c8f8 d6bf 7bff 873d
00000300: 3f2a 41bf 2e94 03bf b4aa 3c3d 95a2 44bf
00000310: cba0 073f 29e4 8dbd e8b8 fabe 4698 32bf
00000320: bdd9 993f ff8f 37bf 8a81 123f 690b 20bd
00000330: 5920 c73c 4654 d7be 731c 413d d2aa 363c
00000340: 8bfa 80bf 7fba f73e 4804 163f 98fd cbbd
00000350: 3047 5c3f feb3 37bd 876e 2bbf 443f 0c3f
00000360: e005 c7bc 3e41 fdbe 3e71 c53c ce40 4dbf
00000370: 0e22 28be 3fb7 53bf b79c c6be ba97 243f
00000380: 70fb 9dbe 3b09 0fbd f26a 40bf caf9 13bf
00000390: b431 1c3f 21d6 edbf 88e3 4d3c 1ec5 db3b
000003a0: 6ffa b13d 010d 013f 507b 733f 2ddb e43e
000003b0: 087d 39bf 516c 093d be07 293f 3bf8 1dbf
000003c0: 2c54 163f 5520 a4ba 12d3 2c3f adc0 01bc
000003d0: 1006 e4be 4240 f13e d40d 343e b258 3fbf
000003e0: 1e67 42bf 15d8 013d 2f50 0c3f 97bd 243f
000003f0: 0024 db3f 21df 2bc0 76fe 073f d3e7 0d3d
-0.06230721 -0.40670273 0.5550897 0.06660018 -0.31006685 0.6623235 0.38941774 -0.033645462
-0.04296409 -0.52823955 -0.4905092 0.031802084 0.5779839 0.8800373 0.5631602 -2.3083973
0.5904292 0.49131414 -0.7645436 0.5606067 0.043110766 1.6950521 0.6794822 0.6060295
0.5861801 -0.36204246 0.55695045 -2.1253748 1.0350057 0.05336102 0.52493083 0.57872266
0.5836236 -0.42982867 -0.76019275 -0.03778104 0.0075561595 0.29861736 -0.032973766 0.53014106
-0.059397727 0.07162935 -0.32476082 -0.09206398 -0.693047 -0.0744661 0.016007567 -0.039417002
-0.075298704 -0.051043488 -0.033941276 -0.0031341463 -0.0117743425 -0.04769607 -0.76595455 0.7751421
0.059037995 -0.03307374 -0.35816374 -0.0011837549 -0.080366686 0.067094974 -1.6430616 -0.026443625
-0.69282615 -0.5133493 -0.063137196 -0.77623254 0.53895235 0.07498864 -0.8403342 -0.72795427
1.2019966 -0.7520717 0.52654237 -0.018409215 -0.03916261 -0.51225495 -0.04550062 -0.030847382
-1.0949901 0.5602518 0.4679437 -0.043526787 0.8357999 -0.032301407 -0.35655826 0.57743037
-0.04879506 -0.60565597 -0.00809256 -0.7758733 0.13444124 -0.6546023 -0.25936508 0.52691704
-0.020135893 0.07210428 -0.7586475 -0.71252054 0.50205135 -1.8037779 -0.04142614 -0.019337583
0.008126024 0.5042265 0.9370983 0.56482196 -0.6809677 0.034756385 0.70020026 -0.47129354
0.5183369 -0.042629987 0.49079803 -0.055355977 -0.4998072 0.54631805 0.20533776 -0.7347149
-0.68635684 0.051000778 0.63297844 0.53278524 1.5502492 -2.7025175 0.50462884 -0.043528087
-0.028442454 -0.33661932 0.46750492 0.039281115 -0.37901682 0.80392563 0.3713165 -0.04629342
-0.021551713 -0.62306726 -0.43722674 -0.0043936805 0.45325425 0.6516841 -0.15185314 -2.4977424
0.5032083 0.61919594 -0.735828 0.5134907 -0.028700668 1.7076707 0.82238424 0.5628208
0.5654798 -0.17465092 0.49470636 -1.9137492 1.0554162 0.058333036 0.46921518 0.51737267
0.5578385 -0.39878288 -0.70822823 -0.068167195 -0.0068390258 0.28408232 0.096160546 0.5343395
0.09478984 0.039416276 -0.3203963 -0.09033655 -0.81162345 -0.025088137 0.07362081 -0.046505544
0.025905656 0.053357158 -0.055412956 -0.06663229 0.05489259 -0.087363616 -0.8143235 0.8101934
0.08863721 0.08725593 -0.19953178 -0.020841938 -0.050755184 -0.04813525 -1.6794672 0.06640526
-0.7545509 -0.5139798 0.046061233 -0.7681058 0.52979726 -0.06928284 -0.48969197 -0.697636
1.2019573 -0.71704096 0.5722891 -0.03907338 0.024307417 -0.42056483 0.047146272 0.011149125
-1.007646 0.48384473 0.5860028 -0.099604785 0.86046124 -0.04484939 -0.66965526 0.54784036
-0.024294794 -0.49463838 0.02410185 -0.8017701 -0.16419241 -0.82701486 -0.3879144 0.64294016
-0.30855894 -0.034920912 -0.75163186 -0.5780302 0.6101334 -1.8580972 0.012566455 0.006706848
0.086903445 0.5041047 0.95110035 0.44698468 -0.7245641 0.033550564 0.6602744 -0.61706895
0.58722186 -0.0012521843 0.6750957 -0.007919473 -0.44535875 0.47119337 0.175834 -0.74744713
-0.75938594 0.031700213 0.5480985 0.6435179 1.7120361 -2.6854937 0.5312265 0.034644913

fc4.bias f4 [7]
00000000: bf68 14be 1619 d6be 0546 52be ec2a 8a3e
00000010: 2d4f 323e f404 ddbe d71b a83e
-0.14493082 -0.41816014 -0.20534523 0.26985872 0.17413016 -0.4316784 0.3283374
